logs/sdf_single_scene_3_spheres_min_distance_overall/state_28.pt (torch, 10383 bytes, 10 tensors)

fc1.weight f4 [32, 7]
000000 fb b1 17 bd c6 55 d7 3c 7d d2 35 3e f6 8e 89 be
       -0.03703497 0.026286017 0.17756076 -0.26866883
000010 fc 99 a6 3d c8 59 90 bd 42 bb 89 be 07 e5 6c 3e
       0.08134839 -0.070483744 -0.2690068 0.23134242
000020 06 5d 28 be 57 81 e9 bd 7c 1c 3a 3e ce 69 91 bc
       -0.16441736 -0.11401623 0.18174928 -0.017750647
000030 8c ef 2a 3e c3 d1 b3 3e 05 93 ee bd 0d c2 f2 3d
       0.16692942 0.35120973 -0.116491355 0.118534185
000040 d8 65 af 3d df d1 00 3e 99 c1 86 be f2 88 84 3e
       0.08564347 0.1258006 -0.26319578 0.2588573
000050 05 79 10 3e fc 59 6e be 4a d3 dd 3d ae b6 cc bd
       0.14108665 -0.23276514 0.10831316 -0.09995781
000060 63 c5 1f be 9d dc 0a 3d 49 94 0c 3d dc 19 61 be
       -0.15602641 0.0339018 0.034321103 -0.21982521
000070 b0 58 27 3e cb 40 84 bd 1c 05 b1 3c 49 ce 6e 3e
       0.16342425 -0.06457671 0.021608882 0.23320879
000080 ca 52 8d be 9b 54 99 3c 4b 59 ab 3d 99 d4 8b 3e
       -0.27602226 0.0187171 0.08366641 0.27310637
000090 11 34 18 be f1 24 4c 3e 77 26 02 3e 47 19 0b be
       -0.14863612 0.19935967 0.12709986 -0.13583861
0000a0 e5 29 55 bd 15 ca 11 3e ad 46 84 3e 09 81 e9 bd
       -0.052041907 0.14237244 0.2583517 -0.11401565
0000b0 58 36 d6 3d 13 42 9e be f1 98 25 3e c1 5e 30 be
       0.10459584 -0.30909786 0.16171624 -0.17223646
0000c0 72 ce 73 be ec f3 3e be 1b 43 5b 3b 95 32 3d 3c
       -0.23809221 -0.18647736 0.0033456746 0.011547704
0000d0 91 ca c2 3c 94 21 02 be c7 d9 85 be 64 a7 8d 3e
       0.023778232 -0.12708122 -0.26142713 0.2766677
0000e0 24 e6 da 3d c1 e0 42 3d d3 be a5 3c 23 c1 11 3c
       0.10688427 0.047577623 0.020232594 0.008896145
0000f0 a6 d1 a5 3d 4c e4 61 3e e2 85 34 3b 81 27 f9 bd
       0.08096628 0.22059745 0.002754562 -0.12165738
000100 23 28 58 bd 98 d1 4e be fb df 82 3e 91 72 88 3e
       -0.052772652 -0.20197141 0.2556151 0.26649907
000110 8b 47 a7 3c e5 84 39 be 6d 7c 2b be 66 f2 60 3d
       0.020419857 -0.18117101 -0.16746683 0.05491867
000120 6d c1 50 be 5b de c6 bc bd 91 3d 3e 4f e1 9c 3d
       -0.20386286 -0.02427595 0.18512626 0.07660162
000130 2a 08 a9 3d 0e 25 e0 3d bb b7 74 bb 7a db 9f 3d
       0.0825351 0.109445676 -0.0037340957 0.07805534
000140 62 77 b1 3d 4a 1a 16 be eb aa a3 3e 35 4c 59 bd
       0.086653486 -0.14658466 0.31966338 -0.053051192
000150 63 70 23 3d de 74 85 be 25 2c 96 bd e3 5b 6c be
       0.039902102 -0.26065725 -0.07332639 -0.23081927
000160 0c a8 2a 3e ac 73 a2 be 6d 69 af 3e 8a 6f 8d 3e
       0.16665667 -0.31728876 0.3426012 0.2762416
000170 f3 74 0f be 3f 0c dd 3d 43 74 97 be 8b aa 4f bd
       -0.14009456 0.107933514 -0.29580888 -0.05069975
000180 e2 c0 ec bc dc e2 11 be 01 cf 85 bb 55 bc b2 3b
       -0.028900567 -0.14246696 -0.0040835147 0.00545458
000190 23 f4 a0 ba dc 8b 53 3e 9c 6b 01 3c 32 01 90 3e
       -0.001227979 0.20658821 0.007899191 0.28125912
0001a0 b7 ba e5 bb 84 d9 a9 3e 0c 4f 32 be 00 03 36 3e
       -0.0070107835 0.33173764 -0.17412966 0.17774582
0001b0 2d 23 02 3e e5 e3 20 39 de 81 10 bd f7 b9 67 3e
       0.12708731 0.00015343686 -0.0352801 0.22629534
0001c0 37 fa e9 3d 4c b8 70 3d 9b e5 40 3e a8 b2 64 3e
       0.11424678 0.05876951 0.18837588 0.22333777
0001d0 b5 43 1c be 18 4c 2d be d7 e2 3a be 99 06 c2 3d
       -0.15260203 -0.16923559 -0.18250595 0.09473915
0001e0 cd d3 19 3e fd 46 78 3e cd 16 e5 3d b1 f1 d5 bd
       0.15022202 0.2424583 0.111859895 -0.104464896
0001f0 a6 55 53 be 52 ef af be 67 9a f5 bc 18 32 3d 3e
       -0.20638141 -0.34362274 -0.029980851 0.1847614
000200 b9 53 4e 3d 8a f0 39 3e 97 c1 fa bd f0 98 5a 3e
       0.050372813 0.18158165 -0.122439556 0.21347404
000210 bc c7 79 be c2 9b 55 be 5d 08 02 3e 57 85 d8 bd
       -0.24392599 -0.20860198 0.12698503 -0.105723076
000220 ad 90 0a 3e 88 26 6c be b1 15 39 be 61 79 5c 3e
       0.13531752 -0.23061574 -0.18074681 0.21530677
000230 84 e3 6b be ac b0 1d 3d fb d7 40 3d 88 0f be 3d
       -0.23036009 0.038498566 0.047080975 0.09280306
000240 0d b2 83 be a0 ec 4a be a9 f9 89 bd 7c e4 24 be
       -0.2572178 -0.19816828 -0.06737072 -0.16102785
000250 43 9d b2 3d 40 a6 84 bd 37 63 30 bd 61 b7 4d 3e
       0.087214015 -0.06477022 -0.04306337 0.20089485
000260 34 6b de 3e 21 87 34 bd b0 7b 53 3e 92 05 fd bd
       0.43441164 -0.04407418 0.20652652 -0.12354578
000270 ac fa bd 3d 6f 80 04 be 37 e5 81 3e e2 c1 c2 3d
       0.092763275 -0.12939619 0.2537019 0.095096365
000280 27 b1 64 be 03 69 08 3e f2 b5 07 be bf 84 ca bd
       -0.22333203 0.13321309 -0.13253 -0.098886006
000290 00 36 fd bd b9 65 98 3e c2 c1 92 be 9b 4c 3e be
       -0.12363815 0.29765108 -0.2866345 -0.1858391
0002a0 7e bd 39 3e 58 ec c7 bd d9 a3 50 3d be 03 97 bc
       0.18138692 -0.09761876 0.050937507 -0.018434402
0002b0 89 28 71 3e 1e a8 d8 bd 7e 8f 36 be 00 44 66 3e
       0.23550619 -0.10578941 -0.17828175 0.22486877
0002c0 25 cf ac bd 89 97 1d 3d 86 25 0f bc 8c 24 43 3e
       -0.08437947 0.038474593 -0.008736974 0.1905691
0002d0 7e 7e 89 be 83 9f 17 be a6 d1 5e 3e a0 ff ce bd
       -0.26854318 -0.14806943 0.21759662 -0.1010735
0002e0 98 af da bd ec 41 e4 bd 2c 46 88 3e d4 8d 95 3e
       -0.10678023 -0.11145386 0.26616037 0.2920977
0002f0 9b e9 48 bd 18 e4 85 3e 3d ef 10 bd 8a bf 99 bd
       -0.04905091 0.26150584 -0.035384405 -0.07507236
000300 c7 b6 ba 3b 3a 1f 8b 3e 71 95 5e 3e eb 34 95 3d
       0.0056980583 0.2717226 0.21736695 0.07285484
000310 77 75 7c bb 18 bf 82 3c 83 45 87 3c 17 f8 9a be
       -0.0038522163 0.015960261 0.016512638 -0.30267403
000320 2e 5a 82 3b d4 b5 5b bd a0 cf 87 bd 4f 88 a6 be
       0.0039780354 -0.0536402 -0.06631398 -0.3252587
000330 9d f3 1c 3e 39 79 1f be 58 96 81 3e e7 17 6b be
       0.15327306 -0.15573587 0.25310016 -0.22958337
000340 b5 9b e1 3c 9a 1c 9e 3e cb 25 41 be 68 b4 43 bd
       0.027540067 0.30881196 -0.18862073 -0.04777947
000350 e1 51 a6 be 9e 5c 9f be 75 ee 7e 3e ef a8 34 3e
       -0.32484344 -0.3112535 0.24895652 0.17642568
000360 a1 5f 87 3e 78 6a fc bd 43 bd 68 3d ca f9 8f 3d
       0.26440147 -0.12324995 0.05682112 0.07030065
000370 1b 90 94 be 3f 02 e7 3d ba 75 33 be ea 3f 93 be
       -0.29016194 0.11279725 -0.17525378 -0.287597

fc1.bias f4 [32]
000000 15 7b e0 3d 20 da 33 3e 7d 46 b7 bd 31 3b 6b 3e
       0.10960976 0.17563677 -0.089489914 0.22971798
000010 53 47 98 3e 5e 21 00 3e 52 93 a0 3e 73 0a 99 be
       0.29741916 0.12512729 0.31362396 -0.29890785
000020 7f 3e 0f 3f ed 4e 8d 3e 45 9f ae 3e fa 0f 8c 3e
       0.55954736 0.27599278 0.34105888 0.2735594
000030 15 01 96 3e 7f bc 11 be 2f 44 0d 3f d3 ca db be
       0.292977 -0.14232062 0.55182165 -0.4292818
000040 d4 1b e0 3e 41 18 13 3c 91 31 1a be fe a2 da 3e
       0.4377123 0.008977951 -0.1505797 0.42702478
000050 d9 8a d7 3e 1d a6 25 be e2 52 4b be d3 ca 9f 3d
       0.4209812 -0.16176648 -0.19855836 0.078023575
000060 36 7e 07 3f f0 b7 ce bc a1 ff ce bc bb 9d 15 be
       0.5292696 -0.025234193 -0.025268378 -0.1461095
000070 a7 d7 94 3e 34 49 1b be 02 91 a4 be cf 06 1d 3e
       0.2907078 -0.15164644 -0.32141882 0.15334629

fc2.weight f4 [16, 32]
000000 35 ba 70 3d 70 64 11 3d f7 a7 7c 3d ab 79 b3 bd
       0.05877133 0.035496175 0.06168362 -0.08763441
000010 a3 87 54 be 45 1c 80 bc 28 58 a8 bc ff 6a ee 3d
       -0.20754866 -0.01563848 -0.020549849 0.11641502
000020 fb 5f df 3a e9 58 75 bd b8 07 30 3e 91 38 9d 3d
       0.0017042154 -0.059899244 0.17190444 0.07676805
000030 92 05 29 3e b8 65 90 bd 43 fa 14 3e 8d 93 10 be
       0.16506031 -0.07050651 0.14548592 -0.14118786
000040 4d 75 2e 3e 41 ac 34 be a5 f2 33 be dd b6 c1 3c
       0.17036934 -0.17643835 -0.1757303 0.023646766
000050 63 d6 1a 3e 29 c4 09 be fc b0 0d be 3f 30 4a bd
       0.15120845 -0.13453735 -0.13837045 -0.049362417
000060 75 3c 60 3d b8 95 02 be 91 c0 72 3d 45 cb 29 3e
       0.054745156 -0.12752426 0.059265677 0.16581447
000070 00 29 b8 3d b9 6e e5 bc d4 3b 44 be 3b df d4 3d
       0.08992195 -0.028006898 -0.19163448 0.1039414
000080 4a 2a bf 3d 82 cb 05 be d2 0c 13 be 7c e1 d6 bd
       0.09334238 -0.13065913 -0.1436036 -0.104922265
000090 5b 79 ce 3d 7d db 1e 3c 24 56 0f 3e 8e 30 bc bc
       0.100817405 0.009695885 0.13997704 -0.022972371
0000a0 da 78 0e 3e cd 00 20 3e c9 72 2c be 5f 92 b1 3d
       0.13913289 0.15625305 -0.16840662 0.08670496
0000b0 77 f9 e9 3d 70 60 aa bd 48 ac f3 3d 3d 54 ee bd
       0.11424535 -0.08319175 0.118980944 -0.11637161
0000c0 f4 98 85 3d 0b df 42 bd 04 60 8d 3d 92 9f 55 3e
       0.06523314 -0.04757599 0.06903079 0.20861652
0000d0 08 18 d3 bd 30 0e 1e 3d fc 03 d5 bd 44 a8 13 be
       -0.10307318 0.03858775 -0.104011506 -0.14419657
0000e0 7a 5f 53 3d a2 fe 13 3e d2 47 c9 bd 9e c9 92 3d
       0.051604725 0.14452603 -0.09828152 0.07167362
0000f0 a7 80 49 3d c8 5e 83 3b 7a 94 82 3c 53 4e 9f 3d
       0.049194958 0.0040091015 0.01593994 0.07778611
000100 50 51 3c bd d2 5d 0e 3d 39 d2 13 3d 9f cc fc 3d
       -0.045975983 0.034757443 0.036089156 0.12343716
000110 a3 c6 9e 3d 44 35 23 3e 0b c7 20 be 4a b6 d6 bd
       0.07752731 0.15938288 -0.15700929 -0.10483988
000120 7d d4 0f 3e 33 05 45 bd 91 d7 83 3d af 8f 0c be
       0.14045902 -0.04810066 0.064376004 -0.13726686
000130 7a da 30 3e 44 81 2c 3e e5 3c 4b 3d d0 8e ed bd
       0.17270842 0.16846186 0.04961862 -0.11599505
000140 9e d8 80 bd 60 a6 00 3e a1 8b 36 3d 82 65 9c bd
       -0.062913164 0.12563467 0.044566754 -0.076365486
000150 7e f2 31 bd 72 60 c3 bd 9d b5 f2 bd fc ce 0b 3e
       -0.04344415 -0.0953988 -0.11851046 0.13653177
000160 bc 4d 20 3e 8b ef 0a be 6c 65 dd 3d 93 e9 14 be
       0.15654653 -0.13567941 0.1081036 -0.14542226
000170 30 ed 1c 3e 7a 2f 36 3c 26 63 bc bd b3 85 bc 3c
       0.15324855 0.011119718 -0.091985986 0.023012972
000180 3c f5 f5 bd 6b 71 58 bd d8 0f 0d 3e ec aa 1c 3d
       -0.12009665 -0.05284254 0.13775575 0.03824894
000190 00 8e 40 3d 93 09 29 bd b6 8b 12 3d 18 a3 b2 3d
       0.04701042 -0.041268896 0.03577777 0.08722514
0001a0 fe de 2d be 11 84 91 bd 22 d6 39 3d 5e 56 48 3d
       -0.16979596 -0.07105268 0.04537023 0.04891049
0001b0 29 f9 92 3b 40 76 f4 bd 49 7f 77 bb 42 a8 03 3e
       0.0044852686 -0.11936617 -0.0037765077 0.12857154
0001c0 d8 0f 63 bd d5 86 71 3c de 7d 23 3c e1 f5 c6 3d
       -0.05543503 0.014741619 0.00997874 0.097148664
0001d0 ca ba 5b bd b0 07 d9 3d cd a5 16 be 79 5d de 3d
       -0.053644933 0.105971694 -0.14711685 0.10857672
0001e0 2d 0a 3a 3e 63 6f 7f bd 1c 92 a4 3d e2 bf 4f be
       0.18167944 -0.062362086 0.08035681 -0.20288041
0001f0 26 d4 fb 3c f8 0a 06 3d b4 59 3e bd 9a ad aa bd
       0.030740809 0.032725304 -0.046472266 -0.08333893
000200 81 7c 33 bc a3 d6 13 3d 2a cd 00 3d 08 bc b5 3d
       -0.010954977 0.036093365 0.03144566 0.08873755
000210 c6 55 7c 3d d0 49 88 bb f1 5f 82 3d 48 8a 61 bd
       0.061605237 -0.0041591898 0.063659556 -0.055063516
000220 e1 9d e9 3c 4d 28 9b bd b4 54 fa 3d 3d a3 a7 bd
       0.028517665 -0.07576046 0.12223187 -0.08185432
000230 9c f3 fe bd 42 b2 30 3d ee fc 27 3e 07 0b df 3d
       -0.124488086 0.04313875 0.16405079 0.10890775
000240 b6 9d 93 bd 0c 63 f3 3c 1d 4c 57 bc 83 9e 72 bd
       -0.07207815 0.029710315 -0.013140705 -0.0592332
000250 3e 73 a2 3d 6f 56 7d 3c da e5 58 bd 7c d5 f7 3d
       0.07932137 0.015462502 -0.05295358 0.12101266
000260 f2 b0 66 bd 50 8f 94 bd dd 9e c2 3c fb c3 2b be
       -0.056321092 -0.07253897 0.023757393 -0.1677398
000270 b3 d1 7d 3d 50 7a 15 3c 50 b4 8f 3c 1a 08 01 be
       0.061967563 0.0091234 0.017542034 -0.12600747
000280 ce 9e 45 bd c2 63 fa 3d e0 47 b5 3d 98 d0 8c 3d
       -0.04824715 0.122260585 0.088516 0.068757236
000290 de 7d e0 3d b5 51 7f 3d 27 6b 08 be 13 be 34 3d
       0.10961507 0.06233378 -0.13322125 0.04412658
0002a0 cd 17 ce 3d 9f dd e3 3c 79 b9 bc bc 75 c7 a7 bd
       0.100631334 0.027815638 -0.023037659 -0.0819234
0002b0 e9 27 85 bd 83 8c 13 3e c4 cb e5 3d b3 53 8c bd
       -0.06501753 0.1440907 0.11220506 -0.06851902
0002c0 4c d5 92 3d d1 4b d9 bd 61 a2 ab 3d a1 4e 0d be
       0.071695894 -0.10610164 0.08380581 -0.13799526
0002d0 f7 ce ec 39 50 6c 5e be 2d b2 a3 3d da 71 6c bd
       0.0004516763 -0.21721005 0.07992969 -0.057725765
0002e0 ec 0e 8e 3d 32 07 b8 bb 52 86 a8 bc 79 ef 81 bd
       0.0693644 -0.005616092 -0.020571861 -0.06344504
0002f0 79 dd 80 3c e5 d7 cf 3d 15 0b 4c 3d 35 4a 96 3c
       0.015730606 0.101486005 0.049815256 0.018345932
000300 cd cc 60 3e 24 7c 8e bc e9 db d5 3d b2 5e 0a be
       0.21953125 -0.01739318 0.10442335 -0.13512686
000310 e4 22 87 bd e2 ea b7 3d b8 4d a3 3d 5e ce 06 be
       -0.06598452 0.08980347 0.07973808 -0.1316466
000320 df 6d 3e 3d c7 48 f1 3d 81 74 de bb fc 88 64 bd
       0.0464915 0.11781459 -0.0067887907 -0.0557947
000330 6b e6 4e 3d 13 11 0e 3e b9 47 06 be 5c 36 21 be
       0.050512712 0.13873701 -0.13113298 -0.15743393
000340 04 54 20 bc 4a e3 fc bd df 21 a4 3d b5 ea 1d 3d
       -0.009785656 -0.123480394 0.08014273 0.038553912
000350 00 ec 76 3d 42 01 21 3d 85 19 f8 bd a2 b7 d3 bd
       0.06028366 0.03930784 -0.121142425 -0.103377596
000360 ba 69 ba 3c e4 75 13 be b4 33 fe 3d 2a 67 ce bb
       0.022755492 -0.1440044 0.12412205 -0.006298919
000370 d3 9d 03 3e e8 c4 e7 3c c2 f5 bc bd 6f 86 1a 3d
       0.12853174 0.028292134 -0.09226562 0.037725862
000380 27 a8 2a be a9 bb 18 3e 41 f9 2c 3b db 4a 07 bd
       -0.16665708 0.14915337 0.0026393684 -0.033030372
000390 55 31 7f 3d 2f 08 10 bd ab 0f 63 bd 8c 44 69 3e
       0.062302906 -0.035164054 -0.055434864 0.22780055
0003a0 f2 71 4b 3e 53 e2 10 be a4 f6 61 be 97 5f 22 3e
       0.19867685 -0.14148836 -0.22066742 0.15856777
0003b0 22 91 12 3c 5b ff cf bc ec 61 03 be 68 aa 8c bd
       0.008945735 -0.025390318 -0.12830323 -0.0686844
0003c0 6b 4b 0e 3d 12 2b 7f 3d f4 db a5 bd fb 24 0a bc
       0.034739893 0.062296934 -0.08098593 -0.008431668
0003d0 1c 28 8a be c4 a5 ed bd 96 c5 f9 bc f3 60 33 3e
       -0.26983726 -0.11603883 -0.030489724 0.17517452
0003e0 a4 cc 5a bd 18 ab ac 3d c7 55 04 3e 2d bf 5e be
       -0.053417817 0.08431071 0.12923346 -0.21752615
0003f0 6e 4b 81 bc 05 c8 a7 be 1c 78 92 bd 45 db 0e bd
       -0.015783038 -0.3276979 -0.07151815 -0.03487708

fc2.bias f4 [16]
000000 a5 09 83 3e a8 1a e0 3c c1 23 fb 3b bb ea 69 3c
       0.25593296 0.02735646 0.0076641743 0.0142771555
000010 60 11 30 3e 23 c5 9c bd c6 86 60 3d a6 fa 56 3d
       0.17194128 -0.07654788 0.05481603 0.05248513
000020 ee 54 09 3e 60 b8 c4 3d aa 0f eb 3d da c3 91 bc
       0.13411304 0.09605479 0.11477597 -0.017793585
000030 74 08 aa bc 65 65 9e 3e 85 f9 0e bd 71 94 11 bd
       -0.020755984 0.30936733 -0.03490593 -0.035541955

fc3.weight f4 [1, 16]
000000 da d9 e9 3d 50 09 41 3e 18 15 a6 3d 67 64 cd bc
       0.11418505 0.18851209 0.08109492 -0.02507229
000010 0b f5 47 3e 44 1b ac bd c3 f4 aa bd e3 0b 4c 3c
       0.1952707 -0.08403638 -0.08347466 0.012454006
000020 45 97 1f bd 5c 3f 19 bd db 66 d1 3c a0 79 12 bd
       -0.03896262 -0.03741394 0.02556174 -0.035760522
000030 19 3f 21 3d 0a ee 55 3d 28 b3 7b bc e6 59 a2 3d
       0.039366815 0.052228965 -0.015362538 0.07927303

fc1.weight f4 [32, 7]
000000 3f 9a 17 bd cf 2e df 3c 78 7b 36 3e 92 b7 89 be
       -0.037012335 0.027244 0.17820537 -0.26897866
000010 99 06 a7 3d f7 87 8f bd 43 b0 89 be 2f 84 6d 3e
       0.08155555 -0.07008355 -0.2689229 0.23194955
000020 6b af 28 be a2 2b ea bd ba 14 3a 3e a5 8e 91 bc
       -0.16473167 -0.114341035 0.18171969 -0.017768214
000030 9c 01 2b 3e 2a db b3 3e a0 98 ee bd 2f e9 f2 3d
       0.16699833 0.35128146 -0.11650205 0.118608825
000040 90 f2 af 3d 1e dc 00 3e ba c6 86 be 5d 81 84 3e
       0.08591187 0.12583968 -0.2632349 0.25879946
000050 84 44 10 3e 11 28 6e be 2b b8 dd 3d f6 61 cd bd
       0.14088637 -0.23257472 0.10826143 -0.1002845
000060 06 c9 1f be 4c e2 0a 3d de e3 0c 3d a4 7f 61 be
       -0.15604028 0.03390722 0.034397 -0.22021347
000070 60 32 27 3e 50 6f 84 bd 08 00 b3 3c 1a d3 6e 3e
       0.1632781 -0.06466544 0.0218506 0.23322716
000080 02 68 8d be 0e 73 9a 3c b6 88 ab 3d b3 ea 8b 3e
       -0.27618414 0.01885369 0.08375685 0.273275
000090 3e 19 18 be 73 d5 4c 3e 94 f3 01 3e d9 ca 0a be
       -0.14853379 0.200033 0.12690574 -0.13553943
0000a0 4e 99 54 bd 35 16 12 3e 74 5d 84 3e 87 ef e8 bd
       -0.051904015 0.14266284 0.2585255 -0.11373811
0000b0 f8 44 d6 3d 0c 4e 9e be 19 82 25 3e f4 79 30 be
       0.104623735 -0.3091892 0.1616291 -0.17234021
0000c0 77 bf 73 be 1b 8d 3e be ce fc 6d 3b 35 29 36 3c
       -0.23803507 -0.18608515 0.0036314013 0.011118223
0000d0 2a ec cc 3c 38 85 02 be 70 c6 85 be de 9f 8d 3e
       0.025014956 -0.12746131 -0.26127958 0.2766103
0000e0 73 77 db 3d fe 81 43 3d 70 92 a5 3c b8 b7 11 3c
       0.107161425 0.047731392 0.020211428 0.0088939
0000f0 e1 30 a6 3d 76 f3 61 3e 2d af 3e 3b 99 22 f8 bd
       0.08114792 0.22065529 0.0029096112 -0.12115974
000100 fe 24 57 bd 46 e5 4e be c9 f3 82 3e e2 94 88 3e
       -0.052525513 -0.20204648 0.25576618 0.2667609
000110 dc 86 a6 3c fa f2 39 be f5 98 2b be 43 77 62 3d
       0.020327978 -0.18159094 -0.16757567 0.055289518
000120 d4 10 51 be 8e d5 c6 bc b1 cb 3d 3e fc ec 9c 3d
       -0.20416576 -0.024271753 0.18534733 0.07662389
000130 cf 92 a9 3d 92 b2 e0 3d 4e 6b 8f bb c7 9b a0 3d
       0.08279955 0.109715596 -0.0043768054 0.07842212
000140 69 b5 b0 3d 1f 55 16 be b5 e7 a3 3e 18 67 57 bd
       0.08628351 -0.14680909 0.32012716 -0.052588552
000150 15 8d 24 3d 86 64 85 be 55 86 95 bd 7a 40 6c be
       0.04017361 -0.26053256 -0.073010124 -0.23071471
000160 73 d4 2a 3e 56 71 a2 be a0 75 af 3e b9 70 8d 3e
       0.16682605 -0.31727093 0.34269428 0.27625063
000170 28 8d 0f be b3 db dc 3d 5b 7b 97 be 15 76 50 bd
       -0.1401869 0.10784092 -0.295863 -0.05089386
000180 fd 38 eb bc 11 11 12 be 09 fd 80 bb 0a 91 b9 3b
       -0.028713698 -0.14264323 -0.003936414 0.005663042
000190 e0 f3 98 ba 24 a4 53 3e a5 b3 04 3c 04 09 90 3e
       -0.001166936 0.20668083 0.008099471 0.28131878
0001a0 df de e4 bb e3 ce a9 3e 55 5c 32 be 59 bd 36 3e
       -0.006984576 0.33165655 -0.17418034 0.17845668
0001b0 78 47 02 3e 45 8e 2c 3a e8 9b 11 bd 37 5a 67 3e
       0.12722576 0.0006582479 -0.035549074 0.22593008
0001c0 a5 2c ea 3d 44 52 71 3d b5 c8 40 3e 38 74 64 3e
       0.114342965 0.058916345 0.18826564 0.22309959
0001d0 1e 0a 1c be 82 1c 2d be 01 da 3a be c1 3a c3 3d
       -0.15238234 -0.16905406 -0.18247224 0.09532691
0001e0 3d e9 1a 3e 27 dc 78 3e 3e 2b e3 3d 75 ee d4 bd
       0.15128036 0.24302731 0.11092232 -0.103970446
0001f0 8b 7b 52 be 8c 90 b0 be 97 d0 f5 bc 13 8d 3d 3e
       -0.2055494 -0.3448528 -0.03000669 0.18510847
000200 fe 76 4e 3d 37 1c 3a 3e c0 c2 fa bd 58 88 5a 3e
       0.05040645 0.18174826 -0.12244177 0.21341074
000210 1b c8 79 be ed 8d 55 be 20 1c 02 3e ab da d8 bd
       -0.2439274 -0.20854922 0.12706041 -0.105885826
000220 23 66 0a 3e a2 0c 6c be 9e 4f 39 be e1 7a 5c 3e
       0.13515525 -0.23051694 -0.18096778 0.2153125
000230 c4 ee 6b be 29 a4 1c 3d 8a 79 3e 3d 3a a2 be 3d
       -0.230403 0.038242493 0.046502627 0.09308286
000240 1d af 83 be 54 b1 4a be e7 72 8a bd 8b 2b 25 be
       -0.25719538 -0.19794208 -0.06760197 -0.16129892
000250 65 22 b3 3d 84 e5 83 bd 02 ec 2f bd 35 e8 4d 3e
       0.087467946 -0.06440261 -0.042949684 0.20108111
000260 af 66 de 3e d3 d6 34 bd fd 69 53 3e a4 07 fd bd
       0.43437716 -0.044150185 0.206459 -0.12354973
000270 f8 04 be 3d b3 90 04 be f1 e7 81 3e 2b 75 c2 3d
       0.092782915 -0.12945823 0.2537227 0.09495004
000280 51 bd 64 be 0a 91 08 3e 42 82 07 be b2 68 cb bd
       -0.22337843 0.13336578 -0.13233283 -0.099320784
000290 83 1e fd bd 5b 51 98 3e be d9 92 be 93 4f 3e be
       -0.12359335 0.2974957 -0.2868175 -0.18585043
0002a0 59 db 39 3e 7a f9 c7 bd 46 2d 51 3d ba e4 95 bc
       0.1815008 -0.09764381 0.051068567 -0.018297542
0002b0 25 7e 71 3e 9f b2 d8 bd 6d a8 36 be ee ae 66 3e
       0.23583277 -0.10580944 -0.17837687 0.22527668
0002c0 67 c0 ab bd 5b 2c 1d 3d 5e 9e 0b bc 97 4b 44 3e
       -0.08386307 0.03837238 -0.008521644 0.1916946
0002d0 f2 a1 89 be f5 5e 17 be 07 cf 5e 3e 4c 7c cf bd
       -0.26881367 -0.14782317 0.21758662 -0.101311296
0002e0 6c 79 da bd 7c 7d e5 bd 52 47 88 3e 5d 9c 95 3e
       -0.10667691 -0.11205575 0.26616913 0.29220858
0002f0 46 2e 49 bd 22 e1 85 3e a0 59 11 bd 6a 8b 9a bd
       -0.049116395 0.26148325 -0.035485864 -0.07546122
000300 95 01 c0 3b 9a 28 8b 3e ec ad 5e 3e 75 32 95 3d
       0.0058595636 0.27179414 0.21746033 0.072850145
000310 86 68 6c bb 67 f0 84 3c 6d 9f 88 3c 06 fb 9a be
       -0.0036073043 0.016227914 0.016677583 -0.3026964
000320 69 09 88 3b a9 86 5b bd e0 87 87 bd 57 83 a6 be
       0.0041515124 -0.05359522 -0.06617713 -0.3252208
000330 ed 81 1d 3e d3 be 1f be 18 81 81 3e 91 22 6b be
       0.15381594 -0.15600137 0.25293803 -0.22962405
000340 6a f2 e0 3c 4a 2b 9e 3e fe 6c 41 be 7f 64 45 bd
       0.027459342 0.30892402 -0.18889233 -0.048191544
000350 ba 87 a6 be 23 65 9f be a7 8e 7e 3e e2 a1 34 3e
       -0.32525426 -0.3113185 0.24859105 0.17639878
000360 19 66 87 3e 03 90 fc bd a3 83 66 3d 2b a8 90 3d
       0.26445082 -0.123321556 0.056277882 0.070633255
000370 76 9e 94 be 88 6c e6 3d bf 6b 33 be 86 52 93 be
       -0.29027146 0.112511694 -0.1752157 -0.28773898

fc1.bias f4 [32]
000000 be f5 e0 3d 6c ec 33 3e 3c 5c b7 bd a9 30 6b 3e
       0.109843716 0.17570657 -0.08953139 0.22967781
000010 8c 49 98 3e c7 78 00 3e 2d 87 a0 3e 89 94 99 be
       0.29743612 0.12546073 0.3135313 -0.29996136
000020 ce 3a 0f 3f 5e 4b 8d 3e 22 9c ae 3e 47 67 8c 3e
       0.55949104 0.27596563 0.34103495 0.27422544
000030 ed 15 96 3e cd 96 11 be 89 3d 0d 3f 78 cb db be
       0.29313603 -0.14217682 0.5517202 -0.42928672
000040 e3 58 e0 3e 0a d2 02 3c 8e eb 19 be 54 a0 da 3e
       0.43817815 0.0079846475 -0.15031263 0.42700446
000050 bf 96 d7 3e 87 ac 25 be 2e 48 4b be ab 59 9f 3d
       0.42107198 -0.16179095 -0.19851753 0.07780775
000060 be 7a 07 3f 28 6e cd bc bf 36 cc bc 22 6d 15 be
       0.52921665 -0.02507694 -0.024928449 -0.14592412
000070 1d d0 94 3e cc 2c 1b be fb 7e a4 be 9b 0b 1d 3e
       0.29065028 -0.15153807 -0.32128128 0.15336458

fc2.weight f4 [16, 32]
000000 48 c5 70 3d a8 71 11 3d 8e c8 7c 3d 83 7f b3 bd
       0.058781892 0.03550878 0.0617147 -0.08764555
000010 0a 7c 54 be 18 ec 7f bc 0f ee a7 bc 91 e2 ee 3d
       -0.20750442 -0.015620254 -0.020499257 0.11664308
000020 99 83 df 3a 80 6b 75 bd d7 17 30 3e e1 3f 9d 3d
       0.0017052769 -0.059916973 0.17196594 0.076781996
000030 0b 03 29 3e ab 68 90 bd d1 fa 14 3e fc 87 10 be
       0.16505067 -0.07051214 0.14548804 -0.14114374
000040 9e 7f 2e 3e 6a a9 34 be 82 eb 33 be 37 8b c1 3c
       0.1704087 -0.17642751 -0.17570308 0.023625953
000050 63 de 1a 3e b7 cd 09 be 6c af 0d be 2b 70 4a bd
       0.15123896 -0.1345738 -0.1383645 -0.049423378
000060 72 71 60 3d 4b a2 02 be 7d d5 72 3d c7 cb 29 3e
       0.05479569 -0.12757222 0.05928563 0.16581641
000070 3d 1a b8 3d f3 81 e4 bc 4b 3a 44 be 13 df d4 3d
       0.089893796 -0.027893996 -0.19162862 0.103941105
000080 b8 30 bf 3d f6 c8 05 be 8f 05 13 be f2 e5 d6 bd
       0.09335464 -0.13064942 -0.14357589 -0.10493077
000090 11 90 ce 3d cc 22 1f 3c 57 63 0f 3e ed 54 ba bc
       0.10086072 0.009712886 0.14002739 -0.022745574
0000a0 ff 78 0e 3e 12 fe 1f 3e 59 62 2c be db 98 b1 3d
       0.13913344 0.15624264 -0.16834392 0.08671733
0000b0 04 f3 e9 3d 55 64 aa bd 12 ad f3 3d be 3d ee bd
       0.11423305 -0.08319918 0.11898245 -0.1163287
0000c0 df ac 85 3d 1b d5 42 bd 9a 6f 8d 3d 68 99 55 3e
       0.06527113 -0.047566514 0.06906052 0.20859301
0000d0 12 09 d3 bd a3 e9 1d 3d 7c 00 d5 bd e4 b7 13 be
       -0.103044644 0.03855289 -0.10400483 -0.14425617
0000e0 70 94 53 3d b1 f1 13 3e 59 3d c9 bd 37 ca 92 3d
       0.051655233 0.14447667 -0.09826154 0.07167476
0000f0 78 62 49 3d 1e ee 86 3b 8c a1 82 3c eb 4f 9f 3d
       0.049166173 0.0041177412 0.015946172 0.07778915
000100 30 42 3c bd 65 58 0e 3d 09 da 13 3d 92 ca fc 3d
       -0.04596156 0.03475227 0.036096606 0.12343325
000110 89 d6 9e 3d 7a 3a 23 3e 78 b9 20 be 2e 53 d6 bd
       0.07755763 0.15940276 -0.1569575 -0.10465084
000120 dd d3 0f 3e ae 14 45 bd c5 f5 83 3d d1 8d 0c be
       0.14045663 -0.048115425 0.06443361 -0.13725974
000130 c9 d7 30 3e 28 80 2c 3e 30 36 4b 3d 21 76 ed bd
       0.17269816 0.16845763 0.049612224 -0.11594797
000140 14 c2 80 bd bc a9 00 3e 63 a8 36 3d 93 7b 9c bd
       -0.062870175 0.12564749 0.04459418 -0.076407574
000150 75 d8 31 bd 3b 76 c3 bd 64 b1 f2 bd fb bf 0b 3e
       -0.04341932 -0.09544035 -0.11850241 0.13647453
000160 6a 5b 20 3e a8 fb 0a be 3d 6f dd 3d b6 ea 14 be
       0.15659872 -0.13572562 0.10812233 -0.1454266
000170 29 e7 1c 3e 9d 34 37 3c 7d 62 bc bd cf 91 bc 3c
       0.15322556 0.011181978 -0.09198473 0.023018746
000180 04 1b f6 bd 0c 71 59 bd fa 0e 0d 3e f0 f5 1c 3d
       -0.120168716 -0.053086326 0.13775244 0.03832048
000190 5c 3e 40 3d 2f 52 29 bd 43 ab 11 3d fc 04 b2 3d
       0.04693447 -0.041338142 0.03556372 0.08692357
0001a0 ec db 2d be a0 1a 92 bd 8b b2 39 3d 0e 5e 48 3d
       -0.16978425 -0.071339846 0.045336287 0.048917823
0001b0 60 8d 90 3b 38 85 f3 bd 9f 17 79 bb 13 e4 03 3e
       0.0044113845 -0.11890644 -0.0038008464 0.12879972
0001c0 88 04 63 bd 0e b6 71 3c 8f 2f 24 3c d1 cf c6 3d
       -0.055424243 0.014752878 0.0100211045 0.097076066
0001d0 8e e4 5b bd 78 38 d9 3d 84 73 16 be 19 fc de 3d
       -0.053684764 0.10606474 -0.14692503 0.108879276
0001e0 ef 9d 39 3e 85 c6 80 bd 2b d0 a4 3d fd e9 4f be
       0.18126653 -0.062878646 0.080475174 -0.20304103
0001f0 c6 e8 fc 3c 2f 36 05 3d 1d 74 3e bd 83 a3 aa bd
       0.030872714 0.032522377 -0.046497453 -0.08331969
000200 ce 5a 33 bc b3 e1 13 3d b9 ec 00 3d c5 b8 b5 3d
       -0.0109469425 0.036103915 0.031475756 0.088731326
000210 13 83 7c 3d 41 e1 87 bb ea 76 82 3d 81 9c 60 bd
       0.06164844 -0.0041467254 0.06370337 -0.054836754
000220 b2 9e e9 3c c5 2c 9b bd a2 76 fa 3d c3 9b a7 bd
       0.028518055 -0.075768985 0.12229659 -0.08184006
000230 a1 fe fe bd 2f a5 30 3d e3 fd 27 3e 2c 1c df 3d
       -0.1245091 0.04312628 0.16405444 0.10894045
000240 02 88 93 bd ba 82 f3 3c b8 c8 56 bc 91 b5 72 bd
       -0.07203676 0.029725421 -0.0131093785 -0.059255186
000250 8d 82 a2 3d 93 cf 7c 3c 97 e4 58 bd a5 af f7 3d
       0.07935057 0.015430349 -0.052952375 0.120940484
000260 cf 81 66 bd 3a b4 94 bd f7 c6 c2 3c 7c c4 2b be
       -0.05627614 -0.07260938 0.023776514 -0.16774172
000270 ef b1 7d 3d 3b 4f 17 3c fb c7 8f 3c 5e 08 01 be
       0.06193727 0.009235199 0.017551413 -0.12600848
000280 d2 1a 46 bd 01 7b fa 3d 99 2f b5 3d e7 ed 8c 3d
       -0.04836542 0.122304924 0.08846969 0.06881314
000290 d2 74 e0 3d 69 7d 7f 3d d7 99 08 be 4e d0 34 3d
       0.10959782 0.06237546 -0.13339935 0.044143967
0002a0 37 05 ce 3d 2c ce e6 3c 51 58 be bc a8 d0 a7 bd
       0.100595884 0.028174482 -0.023235472 -0.08194095
0002b0 5f ac 85 bd 4f 86 13 3e 73 ce e5 3d ef 2f 8c bd
       -0.06527018 0.14406703 0.11221018 -0.0684508
0002c0 84 23 93 3d 0c a3 d9 bd 1c b7 ab 3d d5 6a 0d be
       0.071845084 -0.10626802 0.08384535 -0.13810284
0002d0 97 b1 9c 39 e6 37 5e be b0 93 a3 3d 01 7e 6d bd
       0.00029886953 -0.21701011 0.079871535 -0.057981495
0002e0 53 eb 8d 3d e2 a6 c2 bb 27 d0 a8 bc 08 0f 82 bd
       0.0692965 -0.005940304 -0.020607067 -0.06350523
0002f0 53 4a 80 3c ad 0d d0 3d 53 62 4c 3d 45 99 95 3c
       0.01566044 0.101588584 0.049898457 0.018261561
000300 a0 cb 60 3e 72 26 8f bc 57 b8 d5 3d 52 5c 0a be
       0.21952677 -0.017474387 0.10435551 -0.1351178
000310 fc 5c 87 bd f0 cd b7 3d 4f 36 a3 3d 87 09 07 be
       -0.06609532 0.08974826 0.07969343 -0.13187228
000320 ef 5c 3e 3d 43 49 f1 3d db ff e0 bb a1 b5 64 bd
       0.046475347 0.11781552 -0.006866438 -0.055837277
000330 eb fe 4e 3d ad 13 0e 3e 75 4f 06 be 86 5d 21 be
       0.050536077 0.13874693 -0.13116248 -0.15758333
000340 01 00 21 bc f2 e4 fc bd bd 14 a4 3d eb f1 1d 3d
       -0.009826661 -0.12348355 0.08011768 0.03856079
000350 a3 da 76 3d 86 1a 21 3d b5 1b f8 bd e0 95 d3 bd
       0.060267102 0.039331935 -0.1211466 -0.10331321
000360 3b 05 ba 3c fe 67 13 be 7a 20 fe 3d 1d 20 cf bb
       0.022707572 -0.14395139 0.12408538 -0.006320967
000370 7a a7 03 3e 45 5c e6 3c de ff bc bd 7e 8e 1a 3d
       0.12856856 0.02812017 -0.0922849 0.037733547
000380 1c 93 2a be c0 b1 18 3e ec 22 23 3b 8d ff 06 bd
       -0.1665768 0.14911556 0.0024892641 -0.032958556
000390 c7 35 7f 3d 7f 3c 10 bd 2c 3b 62 bd 71 c9 66 3e
       0.062307145 -0.035213944 -0.055232212 0.22537781
0003a0 f8 69 4b 3e 2a 13 11 be 53 77 61 be aa 61 22 3e
       0.19864643 -0.14167467 -0.22018175 0.15857568
0003b0 48 97 14 3c d9 da ce bc be 6e 03 be c8 d5 8c bd
       0.009069271 -0.02525084 -0.12835214 -0.06876713
0003c0 e4 d3 0d 3d 7d ee 80 3d 2d 2b a5 bd d1 0b 10 bc
       0.034625903 0.06295488 -0.08064876 -0.00879188
0003d0 dc 4e 8a be 6e 64 ee bd 3e d8 f9 bc d5 6c 33 3e
       -0.2701329 -0.11640249 -0.03049862 0.17521985
0003e0 89 a0 5a bd 30 d2 ac 3d 91 5c 04 3e c2 cc 5e be
       -0.053375755 0.084385276 0.12925936 -0.21757796
0003f0 39 83 81 bc 39 32 a8 be 16 d7 92 bd 70 19 0e bd
       -0.015809642 -0.32850817 -0.07169931 -0.034692228

fc2.bias f4 [16]
000000 9e 02 83 3e bd a6 df 3c 2d 4a f9 3b bc da 6a 3c
       0.25587934 0.027301187 0.0076077194 0.014334377
000010 c8 02 30 3e d1 ca 9c bd 99 b5 60 3d 3a a0 56 3d
       0.17188561 -0.07655872 0.054860685 0.052398898
000020 3a 4a 09 3e f0 05 c5 3d 7e f6 ea 3d c7 cf 90 bc
       0.13407221 0.09620273 0.11472796 -0.017677201
000030 a9 a0 aa bc d6 5e 9e 3e b3 5f 0f bd b7 cc 11 bd
       -0.020828562 0.3093173 -0.035003375 -0.035595622

fc3.weight f4 [1, 16]
000000 c4 da e9 3d 88 08 41 3e cb 1b a6 3d bb 15 ce bc
       0.11418679 0.1885091 0.0811077 -0.025156846
000010 b7 f4 47 3e c9 5c ac bd 9d 03 ab bd 82 02 4c 3c
       0.19526945 -0.08416135 -0.083502986 0.01245177
000020 67 78 1f bd cc e6 19 bd da 46 d1 3c a4 92 12 bd
       -0.038933184 -0.03757362 0.02554648 -0.03578438
000030 1c 79 22 3d 98 da 55 3d b8 35 80 bc 33 6c a2 3d
       0.03966628 0.05221042 -0.015650615 0.079307936
