logs/sdf_single_scene_3_spheres_min_distance_overall/state_36.pt (torch, 10383 bytes, 10 tensors)

fc1.weight f4 [32, 7]
00000000: 45c1 17bd 21a1 983c 68a9 1b3e de2a 84be
00000010: 3125 9f3d 4679 a9bd fb44 8cbe e99c 593e
00000020: 02cd 18be 2986 dfbd c3a2 3a3e dda8 84bc
00000030: 4893 2b3e 38fc ae3e 6895 eabd b4ed f43d
00000040: f063 973d 45b6 fb3d a4c1 86be 20cb 843e
00000050: 3a26 1a3e 7e7f 74be 325d e73d 19b7 cbbd
00000060: 3ee3 1cbe 302f 073d 5cee 003d 50df 57be
00000070: f403 293e 4681 85bd 92e2 c53c dcf2 6e3e
00000080: 3492 8abe 5144 523c c893 b23d 3cbd 863e
00000090: eac8 1abe bd38 2d3e bca0 123e d019 0dbe
000000a0: f5f4 6abd f4af 093e f238 833e 2dff ddbd
000000b0: 82ab db3d 19bb 9cbe 1b93 2f3e e3ad 2bbe
000000c0: e160 75be 18ec 38be f8b0 41bc 6155 a03a
000000d0: 4cba 3abc d08e ecbd 22d4 8cbe 69b8 863e
000000e0: 3358 d63d b489 403d f477 aa3c ff7e 1f3c
000000f0: 7d47 a23d 70bc 5f3e a717 38bb c783 fbbd
00000100: 2c09 47bd bda0 47be 80cd 803e 2b69 843e
00000110: 5396 9a3c 70ca 2abe 7176 25be 33df 593d
00000120: f9e8 46be 8754 bdbc e88d 3b3e 0848 993d
00000130: 16ea aa3d 7bc0 c83d 4006 863c e771 8d3d
00000140: a6da a03d d5ec 0fbe 021c 9a3e db97 5bbd
00000150: 2526 1f3d 10bd 83be 2720 9bbd ec23 6ebe
00000160: b80a 2a3e ef01 a3be 8024 af3e 5280 8b3e
00000170: c744 07be 9c8e d43d 87de 94be be2c 2fbd
00000180: 3dbe 0cbd 90ce 0abe 85be 35bb 205d a33b
00000190: f3c6 64ba 55a3 503e b43b d23b 320b 8f3e
000001a0: b2fa ccbb 292e a93e 5cfa 2fbe 9ef1 223e
000001b0: 30f5 043e 28e5 80bc 1209 f3bc 8e4a 6b3e
000001c0: b5a4 f03d 7afb 5e3d 637c 473e eb9c 6b3e
000001d0: d9b1 25be 86f5 2fbe 5481 3dbe 812e b93d
000001e0: 53c2 013e 9bf1 6b3e d187 fc3d b8b6 efbd
000001f0: ce34 54be eb69 a4be 8c76 f1bc 52b7 393e
00000200: 592f 533d 2126 353e 9193 f7bd 19af 5c3e
00000210: f2f2 76be 2c10 57be b789 003e a357 cfbd
00000220: 387a 103e c46a 6dbe 100c 34be 0290 5d3e
00000230: 0c07 6bbe 7e70 333d 51aa 583d ab8b b13d
00000240: a2b8 83be 7ff0 53be 1d2b 85bd ffb7 1dbe
00000250: 75f4 a83d e182 8abd 1a57 45bd 4730 463e
00000260: 1cd7 de3e 2725 29bd 1a10 533e fe3a fcbd
00000270: 0558 ba3d c5a3 03be de9a 803e afa7 ca3d
00000280: 57ea 62be 6a2b 053e a125 0abe 2dd9 b3bd
00000290: a076 03be 64ee 973e c13a 92be b7aa 37be
000002a0: 1fff 383e 8f5d c9bd 013a 563d ef03 b8bc
000002b0: 2cc6 663e 844b d4bd b995 32be e590 573e
000002c0: a8ba 90bd 646f 3d3d 3f45 b1bc 7b87 3a3e
000002d0: ec5c 8abe c74f 10be f864 5d3e 55cb 9ebd
000002e0: a71d cebd ac48 c5bd 93f7 863e c7df 913e
000002f0: 6551 46bd 61b0 833e 8006 33bd 2bfa 98bd
00000300: bf93 543a 0098 893e 7c52 5b3e 12c0 903d
00000310: c635 b5bb 8211 783c 8b6e 2c3c 6751 9abe
00000320: 0b91 5b3b edd6 61bd db44 8abd 70d8 a4be
00000330: 17cf 173e 5f92 1bbe c604 813e e69e 6dbe
00000340: cdbf 0b3d 2706 9c3e 86f5 37be 53de 63bd
00000350: 7a16 9fbe 63b2 9ebe 082a 7e3e 5bd0 363e
00000360: 7402 843e c5da f9bd 5501 583d 33de 693d
00000370: b210 92be ae05 003e 01bc 34be c7e3 90be
-0.03704955 0.01863152 0.15201342 -0.25813955 0.077707656 -0.08275084 -0.27396378 0.21251263
-0.14921954 -0.10914261 0.18226151 -0.016193802 0.16755402 0.34176803 -0.11454278 0.11959401
0.073921084 0.122906245 -0.2631961 0.25936222 0.15053645 -0.2387676 0.112970725 -0.099470325
-0.15321061 0.033003986 0.031477317 -0.2108128 0.16505414 -0.065187976 0.024155889 0.23334831
-0.2706467 0.012833671 0.08719593 0.2631625 -0.15115705 0.16916175 0.14319128 -0.13779378
-0.057362515 0.13446027 0.25629383 -0.108396865 0.10726072 -0.30611494 0.1714596 -0.16765551
-0.23962738 -0.18058813 -0.011821978 0.0012232476 -0.011396956 -0.11550677 -0.27505594 0.2631257
0.104660414 0.047006324 0.020809151 0.009734868 0.079237916 0.21849227 -0.002809027 -0.12280994
-0.04859273 -0.1949491 0.25156784 0.25861487 0.018870508 -0.16678786 -0.16158463 0.053191375
-0.1942481 -0.023111595 0.18315852 0.07484442 0.083454296 0.09802338 0.016360402 0.06906491
0.07854204 -0.14055188 0.30099493 -0.053611618 0.038854737 -0.2573018 -0.07574492 -0.2325589
0.16605651 -0.31837413 0.34207535 0.27246338 -0.1320983 0.10378763 -0.29076025 -0.04276728
-0.034361113 -0.1355536 -0.0027731967 0.0049854666 -0.00087271555 0.20374806 0.0064158086 0.2793823
-0.006255471 0.3304303 -0.17185348 0.15912482 0.12984157 -0.01573427 -0.029667411 0.22977659
0.117501654 0.054439045 0.19481044 0.23009078 -0.16181125 -0.17183504 -0.18506366 0.09042073
0.12671785 0.23041384 0.123305924 -0.11704773 -0.20723268 -0.3211206 -0.029475473 0.18136337
0.051558826 0.17690326 -0.12088693 0.2155117 -0.24116114 -0.21002263 0.12552534 -0.10124137
0.14109123 -0.23185259 -0.17582726 0.21636966 -0.22951907 0.043808453 0.0528968 0.08669218
-0.257268 -0.2069721 -0.06502364 -0.1540222 0.082497515 -0.067632444 -0.04817877 0.19354354
0.4352349 -0.041295197 0.20611611 -0.12315939 0.0909882 -0.12855442 0.25118154 0.09895264
-0.22159706 0.13004842 -0.13490917 -0.08781657 -0.1283822 0.29674065 -0.2856045 -0.17936216
0.18066071 -0.09832298 0.05230141 -0.022462813 0.22536534 -0.10365966 -0.17439927 0.21051367
-0.07066852 0.04624881 -0.021639464 0.18215744 -0.2702402 -0.14092933 0.21620548 -0.07753626
-0.100642495 -0.09633002 0.2636076 0.2849104 -0.048417468 0.25720504 -0.04370737 -0.07469591
0.0008109174 0.2687378 0.21418184 0.070678845 -0.005530092 0.015140893 0.010524402 -0.3014023
0.00335032 -0.05513661 -0.067514144 -0.3219638 0.14825092 -0.15192555 0.25198954 -0.23205146
0.034118462 0.30473444 -0.17964754 -0.055631947 -0.31071836 -0.30995473 0.24820721 0.17852919
0.25783122 -0.1219993 0.052735645 0.05709667 -0.28528363 0.12502167 -0.17649843 -0.2829878

fc1.bias f4 [32]
00000000: 4fe2 ce3d cba4 313e 95ce b5bd f0e5 6a3e
00000010: e185 973e 475d dd3d 2a11 a23e de4b 8dbe
00000020: 1190 0f3f 0b40 8c3e 524b ae3e 0973 833e
00000030: 5eed 923e b328 17be de09 0e3f de3f ddbe
00000040: ba9d d73e 8f38 7a3d 80ff 22be 0a5d da3e
00000050: fc66 d43e 7111 24be 8d78 4cbe 617b ab3d
00000060: d3db 073f 6375 d8bc 1dbb 14bd be34 1cbe
00000070: 2683 953e 5c63 1bbe 9d46 a7be c4aa 1b3e
0.10101759 0.1734802 -0.08877293 0.22939277 0.2959433 0.10808807 0.3165372 -0.27596945
0.560792 0.2739261 0.3404184 0.25673702 0.28696722 -0.1476162 0.55483806 -0.4321279
0.42112523 0.061089095 -0.15917778 0.42649108 0.4148482 -0.16022278 -0.19967861 0.08373142
0.530698 -0.026423162 -0.036311258 -0.15254495 0.2920162 -0.15174621 -0.3267106 0.1520186

fc2.weight f4 [16, 32]
00000000: 36ad 6e3d f471 103d d39f 763d 5e9d b3bd
00000010: 2e6d 56be d10d 81bc e139 b6bc 0871 eb3d
00000020: e091 d33a 04d6 74bd 76ef 2d3e 2ca8 9c3d
00000030: e2b5 283e fbaa 8fbd 5fc7 143e 08cc 10be
00000040: e636 2d3e bbea 33be afd8 34be 35bd ca3c
00000050: 9725 193e 086c 08be 40d6 0cbe 8100 45bd
00000060: c4c4 593d 17b0 02be afa9 723d 69c7 2a3e
00000070: 9bea b83d 38c2 f7bc a151 44be 566e d43d
00000080: 6aed bd3d 32f1 05be 437f 14be 556a d7bd
00000090: e6b3 ca3d 00d0 1c3c bb95 0d3e b8b1 c7bc
000000a0: e05c 0e3e f3bd 1f3e 49b1 2ebe 430c b13d
000000b0: 657d e93d 3a99 a9bd 8f3a f33d b5c1 eebd
000000c0: 5006 833d bf10 40bd 775c 8b3d bbc9 563e
000000d0: 4c65 d6bd 48d1 223d 5977 d3bd 5173 12be
000000e0: dcc6 4c3d f4e6 133e 5974 c9bd 7dc4 943d
000000f0: 1dd6 4a3d 239e eb3a eab3 803c ff7c 9e3d
00000100: 4a60 3fbd dd9f 0f3d c65a 103d 792d fc3d
00000110: 13db 9b3d 89e7 223e 3fa4 22be 13b2 d5bd
00000120: 45c1 0f3e 9f74 45bd 43be 7f3d 4dbc 0cbe
00000130: 678b 303e f0c0 2c3e ba27 4b3d 1f45 eebd
00000140: e706 84bd 2b2e 013e 8d4e 323d 7eff 97bd
00000150: b76c 37bd 55ae c0bd d74b f1bd 70eb 0c3e
00000160: a494 1e3e 612e 0bbe 8031 dd3d 92db 13be
00000170: 5414 1d3e 3564 323c f763 bcbd 4518 b83c
00000180: 93cc f2bd e2ed 3fbd c8fc 0d3e 5ab2 0e3d
00000190: 2c5b 4a3d d997 0ebd fcde 363d b07b b93d
000001a0: 61e2 2dbe 4e5b 7cbd 5945 3d3d 70d7 463d
000001b0: 240e cb3b 92b1 00be ca80 67bb 8608 063e
000001c0: 0299 5ebd 8638 253c 2587 c03b f0a7 c83d
000001d0: 43bf 58bd 52e9 d43d 2c69 26be 4387 bd3d
000001e0: d83a 463e b84d 82bd eac8 9c3d 311b 47be
000001f0: 941f e03c e0b5 193d 27d6 37bd 6e22 b4bd
00000200: 0c56 3cbc 4527 133d 1bc2 f53c 161e b53d
00000210: c2cc 743d 745f 8abb ec24 7e3d 5549 67bd
00000220: 9d9f e83c f3c2 9bbd 0ac4 f53d ba45 a8bd
00000230: 3c1f ffbd c795 323d 4bb6 273e 2fe8 de3d
00000240: 2b62 96bd c9e5 f73c 6862 68bc ab00 6ebd
00000250: f325 9f3d d5aa 873c 2c7f 55bd 70b7 fa3d
00000260: 23f7 6cbd 1f08 94bd 1fde c13c 76c3 2abe
00000270: ec3e 7f3d 2a91 e13b 6757 8d3c da5d 01be
00000280: 8a51 45bd b61e f53d 4f08 b53d a443 883d
00000290: 7b0c e23d ab86 743d e975 05be 0597 1b3d
000002a0: b143 d03d f18a ce3c ea7a 84bc 229a a6bd
000002b0: f914 7bbd 9e9e 113e a6bf e63d 1bee 95bd
000002c0: 3901 863d 45a5 d9bd dee3 a53d 4bfc 09be
000002d0: 1c3b d23b b7b5 63be 1885 a73d 5419 71bd
000002e0: e436 903d b8c8 69bb ab7f 97bc 9ffb 74bd
000002f0: 1141 893c 7db3 c13d 361f 3d3d 4aed 803c
00000300: b320 613e 7c94 7bbc 97df da3d 733c 0abe
00000310: 7f24 80bd 10c5 ba3d 2656 a63d 1991 05be
00000320: c443 403d 94d3 f13d 6fac 91bb 4c40 60bd
00000330: 9533 4f3d aa84 0d3e 9f53 05be f0a4 1dbe
00000340: 5419 0dbc 0fd2 febd e399 a53d 37ea 1a3d
00000350: cdb6 7d3d 12bb 1c3d 7ccb f9bd 488a d6bd
00000360: 96d8 c63c caa4 13be 3d02 ff3d 821c ddbb
00000370: 0902 033e 9c97 013d dc57 bcbd 8be6 1a3d
00000380: 099f 27be 0389 193e d18d 5a3b e567 f7bc
00000390: 9a46 7d3d d536 08bd 18dc 6cbd 9c0b 8f3e
000003a0: 22be 4b3e fe27 01be 2be1 73be 4919 213e
000003b0: 4e92 243c d4b2 d9bc e978 04be bee3 83bd
000003c0: 4c29 333d e79f 5c3d e3fc b2bd ac80 ceb9
000003d0: f566 88be dede debd 7167 efbc c615 363e
000003e0: 0f0e 55bd 16bc aa3d 0954 033e 0242 5dbe
000003f0: 6160 52bc 2333 9cbe 7641 81bd 68c0 f2bc
0.058270656 0.035264924 0.060211014 -0.0877025 -0.20940086 -0.015753658 -0.022244396 0.114961684
0.0016141497 -0.059774414 0.16985878 0.07649264 0.16475633 -0.07015034 0.14529179 -0.14140332
0.16915473 -0.17570011 -0.17660783 0.024748424 0.14955746 -0.1332246 -0.13753605 -0.048096184
0.053166166 -0.12762485 0.059243854 0.16677631 0.090291224 -0.030243978 -0.19171764 0.103726074
0.09273799 -0.1308029 -0.14501671 -0.10518328 0.09897594 0.009571075 0.13826649 -0.024376735
0.13902617 0.15599804 -0.17059816 0.08644917 0.1140087 -0.08281179 0.118764035 -0.116580404
0.063976884 -0.04689097 0.06804746 0.20975392 -0.104685396 0.039750367 -0.10325498 -0.14301802
0.049994335 0.1444357 -0.09836645 0.0726404 0.0495206 0.0017976206 0.01571079 0.07738685
-0.046722688 0.035064567 0.03524282 0.12313361 0.076101445 0.15908636 -0.15882967 -0.104343556
0.1403857 -0.04820692 0.062437307 -0.13743706 0.17240678 0.16870475 0.049598433 -0.116342776
-0.06446629 0.12615268 0.043531943 -0.07421778 -0.044781413 -0.09408251 -0.117820434 0.13761687
0.1548639 -0.13591911 0.10800457 -0.14439228 0.15339786 0.010888149 -0.09198754 0.02247251
-0.11855426 -0.046857722 0.1386596 0.034838058 0.049403355 -0.034812782 0.04464625 0.09056795
-0.16980888 -0.061610512 0.046208713 0.0485453 0.006196754 -0.12567738 -0.0035324567 0.13089189
-0.05434514 0.010084277 0.0058754855 0.097976565 -0.052916776 0.10396065 -0.16251057 0.09254315
0.19358385 -0.0636248 0.07655509 -0.19443966 0.027358808 0.037526965 -0.044881966 -0.087956294
-0.011495125 0.035926122 0.029999783 0.08843629 0.059765585 -0.0042228047 0.06204693 -0.05646642
0.028396422 -0.07605543 0.12000282 -0.08216424 -0.12457129 0.04359987 0.16378133 0.10884129
-0.07342943 0.030260937 -0.014183618 -0.058106106 0.0777091 0.016560951 -0.052123234 0.12242019
-0.057852875 -0.072281115 0.023665486 -0.16676125 0.062315866 0.00688376 0.01725359 -0.12633458
-0.048173465 0.11968748 0.08839475 0.066535264 0.11037537 0.059698742 -0.1303326 0.03798582
0.10169161 0.025212737 -0.016171891 -0.08134867 -0.061299298 0.14220664 0.11267023 -0.07320806
0.06543202 -0.10627226 0.08100103 -0.13475148 0.006415738 -0.22237287 0.081796825 -0.058862045
0.070417196 -0.0035672616 -0.018493494 -0.059810277 0.016754659 0.09458063 0.046172343 0.015738148
0.2198513 -0.015355226 0.10687178 -0.13499622 -0.06256961 0.09119618 0.081219 -0.13043632
0.046939626 0.118079334 -0.0044456045 -0.05474882 0.0505863 0.13820139 -0.1302018 -0.1539495
-0.008611996 -0.12442409 0.08085992 0.03782102 0.06194191 0.03826434 -0.12197015 -0.10475594
0.024273198 -0.14418331 0.12451599 -0.006747783 0.12793745 0.031638727 -0.09196445 0.03781752
-0.16369261 0.14993672 0.003334869 -0.030200908 0.06183491 -0.033255417 -0.057827085 0.27938545
0.19896749 -0.12612912 -0.23816364 0.15732302 0.010044647 -0.02657453 -0.12936749 -0.06439923
0.043740556 0.053863432 -0.087396406 -0.0003938725 -0.2664105 -0.10882352 -0.02922413 0.17781743
-0.05201536 0.08336656 0.12825026 -0.21607211 -0.012840361 -0.30507764 -0.06311314 -0.029632762

fc2.bias f4 [16]
00000000: 99b3 833e dea8 ea3c 8a3e 133c 97b0 453c
00000010: d163 313e 46be 9cbd f259 5c3d 73ab 613d
00000020: 602f 0b3e e218 c23d cbfc ec3d dd86 a7bc
00000030: 8fb7 93bc 53fc 9e3e 02fb 17bd 6873 0cbd
0.2572296 0.028644975 0.008987078 0.012066028 0.17323233 -0.07653479 0.053796716 0.055095147
0.13592291 0.09477402 0.11571654 -0.02045005 -0.018031863 0.31051883 -0.037104614 -0.034289747

fc3.weight f4 [1, 16]
00000000: 7ac7 e83d f7ab 403e 125b a33d e41d b5bc
00000010: 1040 473e 4c1c a1bd 18af a9bd 5b90 3e3c
00000020: 153a e6bc b864 1fbd 01b2 d33c e857 05bd
00000030: 0e6c 0c3d 66de 563d fb0c 59bc 5940 9f3d
0.11366172 0.188156 0.07976355 -0.02210898 0.19458032 -0.07866725 -0.082853496 0.011631097
-0.028103868 -0.038914412 0.025841715 -0.032554537 0.034282736 0.05245819 -0.013247724 0.07775945

fc1.weight f4 [32, 7]
00000000: a3be 19bd 1b77 993c d9ea 1b3e e151 84be
00000010: 8dcd 9e3d 34c4 a8bd 3654 8cbe 1f01 5a3e
00000020: c123 19be 19d4 dfbd ccc5 3a3e d163 85bc
00000030: e17a 2b3e 4c00 af3e 688a eabd 4ae2 f43d
00000040: 05a0 973d 2b0d fc3d b0b1 86be 3ac0 843e
00000050: e3f8 193e 4052 74be 5a19 e73d d5d1 cbbd
00000060: 9708 1dbe af47 073d 8e80 013d b861 58be
00000070: 2d01 293e cda2 85bd a1e8 c83c 16de 6e3e
00000080: 4ba9 8abe 651c 553c fecb b23d 80c6 863e
00000090: 3e06 1bbe 290e 2e3e 2031 123e ad01 0dbe
000000a0: 7b9e 6abd 1b2d 0a3e 0a4d 833e e149 debd
000000b0: 8794 db3d 91cf 9cbe 728a 2f3e 2cb0 2bbe
000000c0: 564b 75be c737 39be 3620 4bbc 8c2d 033b
000000d0: 0aa1 2cbc 713f ecbd dea5 8cbe 01e9 863e
000000e0: ac77 d63d 1449 403d a909 a93c 2c65 1d3c
000000f0: bcfa a13d 8be3 5f3e 2cdf 31bb d972 fcbd
00000100: 6be7 4abd 560c 48be 55b8 803e 316b 843e
00000110: 0d24 9c3c f2f2 2abe 109d 25be b849 5a3d
00000120: 0448 47be 624e bebc d9b2 3b3e 1b8d 993d
00000130: 10fe aa3d 2f66 c93d 351d 843c 5e99 8e3d
00000140: a2f5 a13d 0a0b 10be 9b0b 9a3e 4f08 5abd
00000150: 2a06 203d 26d8 83be 7c70 9bbd b62b 6ebe
00000160: f238 2a3e ecfa a2be c42d af3e 5881 8b3e
00000170: 9bd0 07be 6372 d43d 76ef 94be 5633 30bd
00000180: a55a 0cbd b651 0bbe 2ffe 2fbb 419d a03b
00000190: 2e38 8bba cc98 503e 74c6 cf3b 931d 8f3e
000001a0: 20ce d0bb 131a a93e f71e 30be 472b 233e
000001b0: 1332 053e b0cf 80bc 4645 f5bc baf4 6a3e
000001c0: 7564 f03d 21e8 5d3d 3354 473e f76e 6b3e
000001d0: 21c2 25be faef 2fbe 8d6f 3dbe eef6 b93d
000001e0: 4590 013e 4e51 6c3e 97ca fc3d b744 efbd
000001f0: c9a3 54be d6b4 a4be 2f18 efbc 0bb2 393e
00000200: c42a 533d 0661 353e d232 f7bd 3f86 5c3e
00000210: 1cf3 76be 4b2d 57be 5c93 003e 59eb cfbd
00000220: 3f47 103e 2b8d 6dbe 1d0a 34be 2296 5d3e
00000230: 0931 6bbe 3c49 323d acfd 573d 1a9f b13d
00000240: adcc 83be 259a 53be 8039 86bd abdf 1dbe
00000250: ce00 a93d 4dde 89bd f07b 44bd 065b 463e
00000260: 57c6 de3e 4d10 28bd 6001 533e 307f fcbd
00000270: 7537 ba3d 0a85 03be 248e 803e 304c ca3d
00000280: 98eb 62be 8951 053e 4f23 0abe aa70 b4bd
00000290: 7660 03be 3412 983e a836 92be 24ba 37be
000002a0: be29 393e 6262 c9bd 0510 553d c330 b8bc
000002b0: 7319 673e 6729 d4bd 3bc7 32be 79be 573e
000002c0: 8958 92bd 5dcd 3d3d 5297 b0bc 6bd1 3a3e
000002d0: d742 8abe 20cb 10be 1e5e 5d3e 8b5a a0bd
000002e0: 3ec5 cebd 92bd c5bd adf8 863e 86ef 913e
000002f0: 6fe0 44bd b8b2 833e 3588 32bd 4e7d 98bd
00000300: 6896 873a ef93 893e 4f4b 5b3e 8459 903d
00000310: 8690 b4bb ceed 753c 2113 2b3c c862 9abe
00000320: 9929 513b 9e44 61bd 6f35 8abd 16d1 a4be
00000330: 0103 183e c8de 1bbe 890f 813e f85b 6dbe
00000340: f6ed 0a3d 8612 9c3e 6c2c 38be 2ff7 63bd
00000350: 3040 9fbe b0a4 9ebe 6ff8 7d3e 9b9e 363e
00000360: b307 843e 4cdf f9bd 33b9 593d 8831 693d
00000370: 722d 92be c89b ff3d ce8a 34be 220e 91be
-0.03753532 0.018733552 0.15226306 -0.2584372 0.077540495 -0.08240548 -0.27407998 0.2128949
-0.14955045 -0.10929126 0.18239516 -0.016282948 0.16746093 0.34179914 -0.1145218 0.11957224
0.07403568 0.12307199 -0.2630744 0.25927907 0.15036349 -0.23859501 0.11284132 -0.09952132
-0.15335308 0.033027347 0.03161674 -0.21131027 0.16504355 -0.065251924 0.024524989 0.23326907
-0.27082285 0.013007258 0.08730315 0.26323318 -0.151391 0.16997589 0.14276552 -0.1377017
-0.057280045 0.13493769 0.25644714 -0.10853935 0.10721689 -0.3062711 0.17142656 -0.16766423
-0.2395452 -0.18087684 -0.012397816 0.0020016162 -0.010536442 -0.11535538 -0.27470297 0.26349643
0.10472044 0.046944693 0.02063449 0.009606641 0.07909152 0.21864145 -0.0027141077 -0.12326593
-0.049537104 -0.19535956 0.25140634 0.2586303 0.01906016 -0.16694239 -0.16173196 0.05329296
-0.19461066 -0.023230735 0.18329944 0.07497617 0.0834924 0.09833943 0.016127208 0.06962846
0.07908179 -0.14066711 0.3008698 -0.05323058 0.03906838 -0.25750846 -0.07589814 -0.23258862
0.16623285 -0.31832063 0.34214604 0.2724712 -0.1326317 0.1037338 -0.29088944 -0.043017708
-0.034266133 -0.13605389 -0.0026854386 0.0049015586 -0.0010621601 0.20370787 0.006340796 0.2795225
-0.0063722283 0.33027706 -0.17199312 0.15934478 0.13007383 -0.015724033 -0.029940259 0.22944918
0.11737911 0.054176454 0.19465713 0.22991548 -0.16187336 -0.17181388 -0.18499584 0.09080301
0.1265269 0.2307789 0.123433284 -0.11683028 -0.20765604 -0.32169217 -0.029186336 0.18134324
0.051554456 0.17712793 -0.1207024 0.21535586 -0.24116176 -0.21013372 0.12556213 -0.10152311
0.14089678 -0.23198383 -0.17581983 0.21639302 -0.22967924 0.043526873 0.052732155 0.08672924
-0.25742093 -0.2066427 -0.06553936 -0.15417354 0.082521066 -0.06731854 -0.04796976 0.1937066
0.43510696 -0.04103117 0.20605993 -0.123289466 0.09092609 -0.12843719 0.25108445 0.09877813
-0.22160184 0.13019384 -0.13490032 -0.088105515 -0.12829766 0.29701388 -0.28557324 -0.17942101
0.1808233 -0.09833218 0.05201723 -0.022484189 0.22568302 -0.10359459 -0.17458813 0.21068753
-0.07145793 0.046338428 -0.02155653 0.18243949 -0.2700412 -0.14139986 0.21617934 -0.0782977
-0.10096215 -0.09655298 0.263616 0.28503054 -0.0480656 0.2572229 -0.04358693 -0.07445775
0.0010344507 0.26870677 0.21415447 0.07048324 -0.0055103926 0.01501031 0.010441572 -0.3015349
0.0031915663 -0.05499708 -0.06748473 -0.3219077 0.14844896 -0.15221703 0.25207165 -0.23179615
0.033918343 0.30482882 -0.17985696 -0.055655655 -0.3110366 -0.30985022 0.24801801 0.1783394
0.25787124 -0.122007936 0.053155135 0.056932002 -0.28550297 0.12480885 -0.17631075 -0.28331095

fc1.bias f4 [32]
00000000: bd72 cf3d 0c9b 313e 490c b6bd 31fa 6a3e
00000010: a596 973e 4a0a de3d 5014 a23e 5089 8dbe
00000020: 3b95 0f3f cf54 8c3e 3e59 ae3e 7466 833e
00000030: cd08 933e b911 17be 3c0c 0e3f 7a54 ddbe
00000040: 83d3 d73e e3f2 743d 75e7 22be 126f da3e
00000050: 598e d43e aa33 24be be87 4cbe 524c ab3d
00000060: 4be0 073f 53db d7bc defa 13bd a324 1cbe
00000070: 6c8d 953e cf76 1bbe f345 a7be 3cd6 1b3e
0.101293065 0.17344302 -0.08889062 0.22947003 0.2960712 0.10841806 0.31656122 -0.27643824
0.5608708 0.27408454 0.3405246 0.25664103 0.28717652 -0.14752854 0.5548742 -0.43228513
0.42153558 0.059801947 -0.15908606 0.42662865 0.41514853 -0.16035333 -0.19973657 0.08364166
0.5307662 -0.0263497 -0.036127917 -0.15248351 0.2920946 -0.1518204 -0.32670555 0.15218443

fc2.weight f4 [16, 32]
00000000: dc0b 6f3d aedc 103d b223 773d 9967 b3bd
00000010: df4f 56be be3c 80bc bc2d b5bc 609d eb3d
00000020: c464 e03a 9b72 74bd 6014 2e3e 43de 9c3d
00000030: 54d7 283e ef7f 8fbd 09e2 143e 96a8 10be
00000040: 1c5a 2d3e 35d9 33be 1bb3 34be 9db4 cb3c
00000050: d85a 193e 6a5b 08be c6bf 0cbe 95ce 44bd
00000060: 9042 5a3d 959e 02be 6f11 733d bedf 2a3e
00000070: ad1a b93d b675 f6bc 1836 44be a9a1 d43d
00000080: cc1e be3d f2d6 05be 795e 14be 8f31 d7bd
00000090: e8ef ca3d 6684 1e3c beb7 0d3e 2903 c7bc
000000a0: d976 0e3e 5bd9 1f3e 278b 2ebe f742 b13d
000000b0: 6dbf e93d 3e6d a9bd 9870 f33d 4879 eebd
000000c0: 5150 833d 30c2 3fbd d4a9 8b3d c4e8 563e
000000d0: d3fa d5bd e618 233d 9d48 d3bd 3f66 12be
000000e0: 9d46 4d3d 49f9 133e 523f c9bd 31f5 943d
000000f0: 9638 4b3d bb46 003b 929b 813c f0b2 9e3d
00000100: 3bfa 3ebd 91f9 0f3d f9c4 103d 9564 fc3d
00000110: 0610 9c3d e503 233e d281 22be a2ae d5bd
00000120: 6bda 0f3e dc0c 45bd ed25 803d 72a2 0cbe
00000130: ccac 303e ced7 2c3e d48a 4b3d 83fc edbd
00000140: b8ba 83bd ee42 013e 59ea 323d fbd7 97bd
00000150: 64ad 36bd 5a8e c0bd c11d f1bd d8f8 0c3e
00000160: 86b4 1e3e 231b 0bbe c265 dd3d 65c4 13be
00000170: 482d 1d3e 1ad6 333c 722f bcbd e0f6 b83c
00000180: 24c6 f2bd fee1 40bd 96d8 0d3e cfac 0e3d
00000190: 4a88 493d 3623 10bd 85d6 353d ca39 b93d
000001a0: 4bf6 2dbe a03b 7dbd e8f9 3c3d 2360 463d
000001b0: 47ea c73b a3c9 00be 0c3c 6dbb 49ba 053e
000001c0: 5ca4 5fbd 5ed9 253c 1e56 c23b 094f c83d
000001d0: daa7 59bd cce6 d43d a9c8 25be cab9 be3d
000001e0: 0f13 463e bafd 81bd 1af3 9c3d 264b 47be
000001f0: 36cd df3c 65df 183d df3f 38bd 52e8 b3bd
00000200: abd3 3abc 6490 133d 70c8 f63c f456 b53d
00000210: c244 753d f500 87bb 60aa 7e3d 2df2 66bd
00000220: 7b6e e93c 738c 9bbd 4510 f63d 220f a8bd
00000230: 82de febd d7eb 323d 50d1 273e d62f df3d
00000240: 7c18 96bd 9781 f83c 9bf8 65bc b585 6dbd
00000250: 6c90 9f3d 0c3a 883c c924 55bd e3ce fa3d
00000260: 2c7a 6cbd c8e8 93bd 78b0 c23c 7cab 2abe
00000270: 78a0 7f3d 47c4 e63b 543f 8e3c 5b43 01be
00000280: 975d 45bd 8e03 f53d cfdc b43d 684e 883d
00000290: 51de e13d a371 743d 3c90 05be 4c76 1b3d
000002a0: 1b16 d03d dd27 cf3c 286f 86bc b8bc a6bd
000002b0: 74e2 7bbd 44a4 113e d59a e63d 7aee 95bd
000002c0: e5f8 853d 29e6 d9bd 860a a63d ac32 0abe
000002d0: 5b1d c73b b1a2 63be f551 a73d 6455 71bd
000002e0: 9318 903d d729 76bb c672 98bc f5de 75bd
000002f0: 257f 883c e7e0 c13d 80d0 3c3d 61ca 803c
00000300: 2b0a 613e 6c7d 7dbc 32a1 da3d 7a54 0abe
00000310: e266 80bd 8a83 ba3d 5915 a63d bba3 05be
00000320: 14de 3f3d 289f f13d e6e8 95bb 6db1 60bd
00000330: bdb7 4e3d 1b70 0d3e cc6e 05be 3dd8 1dbe
00000340: db52 0fbc adf5 febd f850 a53d 608f 1a3d
00000350: 7bee 7c3d ab7e 1c3d 3af9 f9bd cba1 d6bd
00000360: 84df c53c 28b5 13be 20cd fe3d 386b e0bb
00000370: f5ec 023e 171c 013d ac86 bcbd 3a84 1a3d
00000380: 97ab 27be 449d 193e b28d 5f3b 6339 f9bc
00000390: 0e7c 7d3d fe0a 08bd 4249 6cbd 55b3 8e3e
000003a0: 97d4 4b3e 326f 01be 8756 73be 282b 213e
000003b0: 5e89 273c dd0a d9bc 4865 04be 55e8 83bd
000003c0: 0ca9 323d dd1f 5d3d aad5 b2bd eef0 c6b9
000003d0: 8c67 88be 0726 dfbd 71d4 eebc 7a4a 363e
000003e0: cbc8 54bd 8026 ab3d 1a6d 033e f627 5dbe
000003f0: 93c7 51bc 5a77 9cbe b84b 81bd 5074 f2bc
0.05836092 0.035366707 0.060336776 -0.08759994 -0.20928906 -0.015653964 -0.022116534 0.11504626
0.0017119874 -0.05967961 0.1699996 0.076595806 0.16488391 -0.07006823 0.1453935 -0.1412681
0.16928905 -0.17563327 -0.17646448 0.024866397 0.1497606 -0.13316122 -0.13745031 -0.048048574
0.053286135 -0.12755807 0.059342798 0.16686913 0.09038291 -0.030085426 -0.1916126 0.10382397
0.09283218 -0.13070276 -0.14489163 -0.105074994 0.0990904 0.009675121 0.13839623 -0.024293499
0.13912524 0.15610258 -0.1704527 0.08655351 0.11413465 -0.082727894 0.1188671 -0.11644226
0.064118035 -0.04681605 0.068195015 0.2098723 -0.104482315 0.039818667 -0.10316584 -0.14296816
0.05011617 0.14450563 -0.098265305 0.07273329 0.04961451 0.0019573409 0.015821252 0.07748973
-0.046625357 0.035150114 0.035344098 0.12323872 0.07620244 0.15919454 -0.15869835 -0.10433699
0.14048164 -0.048107967 0.06257234 -0.13733843 0.17253417 0.16879198 0.049692944 -0.116204284
-0.06432098 0.12623188 0.043680523 -0.07414242 -0.044598952 -0.094021514 -0.11773253 0.13766801
0.15498552 -0.1358457 0.108104244 -0.14430387 0.15349305 0.010976339 -0.09188737 0.022578657
-0.118541986 -0.047090523 0.13852152 0.034832772 0.04920224 -0.03518983 0.044394035 0.090442255
-0.16988485 -0.06182444 0.046136767 0.048431527 0.006100926 -0.12576918 -0.003619912 0.13059343
-0.054600105 0.010122625 0.005930676 0.097807 -0.05313859 0.103955835 -0.16189827 0.0931278
0.19343208 -0.063472226 0.076635554 -0.1946226 0.027319532 0.03732242 -0.044982787 -0.08784546
-0.011403005 0.036026374 0.030124873 0.088544756 0.059880026 -0.004119987 0.0621742 -0.0563833
0.028495064 -0.07595148 0.12014822 -0.08206011 -0.12444784 0.043681946 0.1638844 0.10897796
-0.07328889 0.03033523 -0.014036323 -0.05798884 0.07791218 0.016629241 -0.052037034 0.12246492
-0.0577337 -0.07222134 0.023765787 -0.16666979 0.062408894 0.007042441 0.017364182 -0.1262335
-0.048184957 0.11963569 0.088311784 0.0665558 0.110287316 0.059678685 -0.13043302 0.037954614
0.10160466 0.025287563 -0.016410425 -0.08141464 -0.06149526 0.14222819 0.112600006 -0.073208764
0.065416135 -0.10639603 0.08107476 -0.13495892 0.0060764975 -0.2223003 0.08169929 -0.058919325
0.07035937 -0.003756156 -0.018609416 -0.06002708 0.01666219 0.09466725 0.04609728 0.015721502
0.21976535 -0.015471797 0.10675277 -0.13508788 -0.06269623 0.0910712 0.081095405 -0.1305074
0.04684265 0.11797935 -0.004574883 -0.054856706 0.050468195 0.13812296 -0.13030547 -0.1541452
-0.008747782 -0.12449203 0.08072084 0.03773439 0.06175087 0.038206737 -0.12205739 -0.10480078
0.024154432 -0.14424574 0.12441468 -0.006848719 0.12785704 0.03152093 -0.09205374 0.037723757
-0.1637405 0.15001398 0.0034111557 -0.030422872 0.061885886 -0.033213608 -0.05768705 0.27871194
0.19905315 -0.12640074 -0.23763476 0.15739119 0.010225622 -0.026494438 -0.1292926 -0.06440798
0.043618247 0.053985465 -0.087321594 -0.0003794501 -0.266415 -0.10895925 -0.029154034 0.17801848
-0.051949304 0.08356953 0.12834588 -0.21597275 -0.01280393 -0.30559808 -0.0631327 -0.029596478

fc2.bias f4 [16]
00000000: f2bc 833e 4d40 eb3c 035b 143c d4ca 443c
00000010: 9476 313e d3e6 9cbd 2514 5c3d 5ed2 613d
00000020: 372e 0b3e b8f0 c13d 3127 ed3d 2c18 a8bc
00000030: 97af 93bc db05 9f3e 9e37 18bd 2f26 0cbd
0.2573009 0.028717184 0.009054902 0.012011249 0.1733039 -0.07661214 0.05373015 0.055132262
0.13591848 0.094697416 0.11579741 -0.020519339 -0.018028064 0.31059155 -0.037162416 -0.034216102

fc3.weight f4 [1, 16]
00000000: d806 e93d 9fc8 403e 479b a33d 6d8c b4bc
00000010: fe5c 473e 4639 a1bd a384 a9bd 1f50 403c
00000020: 583a eabc 82ba 1ebd 867f d43c 4b65 05bd
00000030: 391a 0d3d 5645 573d 809b 5abc 5186 9f3d
0.113782585 0.18826531 0.07988601 -0.022039616 0.19469067 -0.07872252 -0.082772516 0.011737852
-0.028592274 -0.038752086 0.025939714 -0.032567304 0.034448836 0.05255636 -0.013342738 0.07789291
