logs/sdf_single_scene_3_spheres_min_distance_overall/state_66.pt (torch, 10383 bytes, 10 tensors)

fc1.weight f4 [32, 7]
00000000: 7ba1 4ebd 389d ab3c 457c eb3d 2c51 66be
00000010: 2da2 943d 6bc5 e3bd e30e 7ebe fc05 343e
00000020: c611 f2bd 80dc acbd 5ed5 3f3e 2a3c 74bc
00000030: e240 2b3e 80a3 9c3e d980 debd a587 fd3d
00000040: 26c1 803d d8ff f53d 9934 85be 4134 843e
00000050: 3844 203e a7fd 7cbe 5a54 ea3d 88a5 bdbd
00000060: a1de 14be 803f ee3c fa4c cc3c 58de 49be
00000070: a632 2a3e 2e63 90bd 9a85 c33c 2f67 6d3e
00000080: 3b02 82be c5e5 01bb 15e0 c53d 29ab 6f3e
00000090: 1f2a 1abe ef56 c13d 99c7 463e 33fe 07be
000000a0: 729a 9cbd 9ecd cb3d 4ba0 813e 7382 d0bd
000000b0: f8cd d73d e3db 97be cfca 433e 9ab4 20be
000000c0: a413 79be 75ad 35be fccd e3bc 2dfa 45bd
000000d0: d5ea 6ebd e03e ecbd 6166 97be 5ccf 543e
000000e0: d360 cb3d 77a7 3e3d 60ab c13c 54ca 363c
000000f0: a224 a23d c5ce 5a3e 0422 6abc 8f01 07be
00000100: 5987 08bd a0fc 2ebe d1b5 833e 35a5 663e
00000110: 2b29 8fbb ae2a dbbd f443 1abe 81ca 423d
00000120: 5beb 27be 580e a3bc 9d36 373e 0d72 8e3d
00000130: 6750 8b3d f1b6 8c3d 102e 383d da07 353d
00000140: 5783 a13d 7823 07be 41b7 743e dc5c 31bd
00000150: 92ff 123d 468c 81be 4993 9abd 3939 72be
00000160: 8ab6 293e 40bc a4be c229 ad3e fb80 833e
00000170: 4167 0abe 3a2a b13d e01e 89be 9c6e b8bc
00000180: 159c 53bd 02c7 e0bd bf4b caba 168a 393b
00000190: 4c0c 37bb 4472 4a3e 9f82 d83a 39e7 8c3e
000001a0: 83bb 92bb ae37 a83e 40e3 28be a563 053e
000001b0: 8d3d 123e 07cf f3bc 1010 83bc 637b 663e
000001c0: 2f9e f33d d6c7 5f3d 23cf 513e 2362 7a3e
000001d0: 51f4 30be 5c4e 31be 0238 48be d8f1 ce3d
000001e0: 7960 a63d 4d67 493e 5c2a 193e 877e 03be
000001f0: 779f 3bbe b2d4 88be 22fd c9bc 0065 333e
00000200: 1ee6 583d 7b78 2c3e 25c0 f0bd d813 603e
00000210: 3e64 70be 52ce 57be d79b f93d 0df3 bfbd
00000220: 598d 173e 4f0c 70be d499 2bbe b595 5d3e
00000230: 8e3e 6abe a5ee 683d d68c 783d 5cd9 933d
00000240: 4902 82be aaa7 69be 7997 80bd 96e1 10be
00000250: ca9a 9d3d 42da 65bd 3870 71bd 14c1 323e
00000260: d9d5 de3e de63 1ebd d072 533e d9f8 f5bd
00000270: 74bb b23d fc8d 03be a178 7d3e 5427 d63d
00000280: 014e 5cbe 114d f53d dc9d 07be 551f 93bd
00000290: 2228 09be b31f 933e e57c 93be af27 32be
000002a0: ea91 383e 618e c2bd 219e 743d 1852 00bd
000002b0: 8203 4b3e 1e2c d0bd eea3 2bbe 1433 383e
000002c0: b5b3 cabc ee12 3f3d c768 08bd 2568 233e
000002d0: 3f9d 89be 052e 09be 28a7 423e 4f0b 2abd
000002e0: 246c d1bd ab60 80bd c215 863e 620d 863e
000002f0: 27dd 1ebd a2f7 763e 86a3 5abd 7641 95bd
00000300: c33c f4bb 00d9 823e f442 523e 3134 813d
00000310: 0657 24bc 1ed7 863c db94 c03a b02a 99be
00000320: 08bd 393b 923e 6ebd af09 82bd 9f23 9fbe
00000330: 36a3 123e 888f 0ebe 1ea1 7f3e 8295 72be
00000340: 3da5 463d 1120 983e c9db 28be 3efd 81bd
00000350: bd8a 8fbe 96d9 9bbe 15aa 6c3e ba2c 3c3e
00000360: 2e33 783e 424f 03be 4439 573d 6bd7 043d
00000370: a7f3 8bbe ef8b 123e 24b5 35be cb5d 82be
-0.05044697 0.020948991 0.11498312 -0.22491902 0.07257495 -0.11121639 -0.24810366 0.17580408
-0.11819796 -0.084404945 0.18733737 -0.014906922 0.1672397 0.3059349 -0.108644195 0.12379388
0.0628684 0.12011689 -0.2601669 0.25821117 0.15651023 -0.24706136 0.1144187 -0.09260088
-0.14538051 0.029083014 0.024939049 -0.19713724 0.16620883 -0.07050167 0.023867417 0.23183893
-0.25392327 -0.0019820791 0.09661881 0.23405136 -0.1505513 0.094404094 0.19412078 -0.13280563
-0.076466456 0.09951328 0.25317606 -0.10181131 0.10537332 -0.29659948 0.19120334 -0.15693894
-0.24323899 -0.1774195 -0.027808182 -0.04833429 -0.058329422 -0.1153543 -0.29570296 0.20782226
0.09930577 0.046546426 0.023641288 0.011156637 0.079171434 0.21367939 -0.0142903365 -0.13184188
-0.033332203 -0.17088556 0.25724652 0.22523959 -0.0043689213 -0.107015 -0.15064985 0.047556404
-0.16398375 -0.0199043 0.17891927 0.06955347 0.06802445 0.06870831 0.044965804 0.04419694
0.07886379 -0.13197124 0.23898031 -0.04330145 0.035888262 -0.25302333 -0.07547624 -0.23654641
0.1657354 -0.32174873 0.3382092 0.25684342 -0.1351595 0.08650632 -0.26781368 -0.02251368
-0.051662523 -0.10975458 -0.0015433951 0.0028311065 -0.0027930913 0.19770151 0.001651842 0.2752016
-0.0044779195 0.3285498 -0.16492939 0.13026293 0.14281292 -0.029761804 -0.01599887 0.22508006
0.118954055 0.054633938 0.20489173 0.24451499 -0.172807 -0.17315048 -0.19552615 0.10104722
0.081238694 0.19668312 0.14957565 -0.12841235 -0.1832255 -0.26724774 -0.024656836 0.17518997
0.05295383 0.16842835 -0.11755399 0.2188257 -0.2347574 -0.21074799 0.12187927 -0.0937253
0.14800014 -0.23442195 -0.167579 0.2163914 -0.22875425 0.056868214 0.060681187 0.072191924
-0.25392368 -0.22817865 -0.06278891 -0.14148554 0.07695539 -0.05611635 -0.05894491 0.17456466
0.43522528 -0.03866946 0.20649266 -0.120103545 0.0872716 -0.12847131 0.24753048 0.1045672
-0.21514131 0.1197759 -0.13243812 -0.071837105 -0.13394216 0.28735122 -0.28806224 -0.1739795
0.18024412 -0.09499813 0.059721116 -0.03132829 0.19825557 -0.10164665 -0.16761753 0.17988235
-0.024743894 0.046648912 -0.03330305 0.15957697 -0.26877782 -0.13396461 0.19009078 -0.04151469
-0.10225704 -0.06268438 0.26188475 0.26182085 -0.038785126 0.24117902 -0.053378604 -0.07287876
-0.0074535324 0.25556183 0.20533353 0.06308783 -0.010030514 0.016459998 0.00146928 -0.2991538
0.0028341431 -0.05816514 -0.06349503 -0.31081864 0.14320073 -0.1392194 0.24963805 -0.23689845
0.048497427 0.29711965 -0.16490091 -0.0634713 -0.28035536 -0.30439442 0.23111756 0.18376437
0.24238274 -0.12823203 0.052544847 0.032432 -0.2733433 0.14311193 -0.17744881 -0.25462183

fc1.bias f4 [32]
00000000: ba5e 993d 229c 263e 6b2e b5bd 4604 6b3e
00000010: 4ae7 953e 286a 643d 2505 a63e f06e 7bbe
00000020: d932 103f 9d30 7a3e 4456 ad3e bab3 353e
00000030: d433 8d3e 7b59 29be a29e 0f3f b8d8 dabe
00000040: ee7f c63e 3e5a ed3d 8e96 34be 3a94 da3e
00000050: e9f9 cb3e 6b3c 1fbe 269e 4fbe d070 c53d
00000060: 6a48 083f 78ff 01bd 3e22 90bd b981 2fbe
00000070: 0406 973e abb2 19be 6aeb aebe b291 143e
0.07488771 0.16270497 -0.08846744 0.22950849 0.29278022 0.0557653 0.324258 -0.24554038
0.5632759 0.24432607 0.33854878 0.17744341 0.27578604 -0.1653804 0.5610143 -0.42743468
0.38769478 0.11589478 -0.17635557 0.42691213 0.39839104 -0.15550391 -0.20275173 0.09640658
0.53235495 -0.031737775 -0.07037781 -0.17139329 0.29496777 -0.15009563 -0.34163982 0.14508703

fc2.weight f4 [16, 32]
00000000: 47d3 6a3d 5504 0d3d 2815 6a3d 0d25 b2bd
00000010: a3b6 5abe a7cf 75bc 5def d0bc d5b3 e53d
00000020: 8a55 d43a 9d4f 72bd 939f 293e 38f8 9d3d
00000030: 8d02 293e b771 8dbd 3c5a 143e b553 0fbe
00000040: f04e 2d3e 98a1 31be cb2b 37be 9c2d dc3c
00000050: 2e09 163e c212 05be 3862 0bbe 14e0 35bd
00000060: 30d1 4f3d ef53 02be dcc4 733d 4514 2d3e
00000070: 3bbc bb3d 3ca0 15bd f4da 44be 6edd d33d
00000080: ec74 bb3d e59d 06be b873 17be 5a89 d6bd
00000090: 7788 c13d 0bab 1c3c d016 0a3e 561f ddbc
000000a0: 9b56 0e3e 31c2 1f3e a036 33be 3645 b23d
000000b0: 067e ea3d 75d0 a7bd 4249 f23d 8cf5 ecbd
000000c0: 0d74 813d a1dd 3abd 224c 863d 2f28 593e
000000d0: 8271 dcbd 5b57 2f3d 7dfd d0bd aabf 0ebe
000000e0: a442 423d f1df 133e 3815 c9bd 7c80 993d
000000f0: c117 503d 8c38 8dbb bbf3 743c 675b 9d3d
00000100: 9924 46bd 0e04 123d 800e 093d d9d2 fc3d
00000110: c39f 933d ba7b 223e 0739 26be 1a18 d3bd
00000120: fd11 103e 9204 44bd 3c21 703d f3ae 0bbe
00000130: 36b5 303e e062 2d3e 27e5 4b3d 0211 ecbd
00000140: 5db3 86bd 94f1 013e ec29 273d 51e5 8ebd
00000150: 3f1b 40bd dc42 b9bd 83e2 edbd 9050 103e
00000160: 6125 1c3e 3eba 0bbe e6ac de3d be85 10be
00000170: d117 1e3e f235 0a3c f2d6 bcbd 46a9 af3c
00000180: 8743 edbd 597e 19bd b267 0d3e dd74 e03c
00000190: 635f 3e3d 777c 15bd 19a2 833d 468a c03d
000001a0: ec11 33be 1222 dfbc bc09 413d 8be2 2f3d
000001b0: f07c 993b ebaa 17be 40dd 02bc 6bf4 003e
000001c0: 972c 56bd b0e4 743c a8dd cdbb aba0 c33d
000001d0: 4d65 54bd d961 c93d 6a23 3dbe 00ed 903d
000001e0: 9065 513e 44c3 adbd 022a 963d 4412 33be
000001f0: 15ca 9a3c 24f2 3b3d 8919 16bd 13b7 c4bd
00000200: 61cb 4ebc 6683 103d 513c de3c ba07 b63d
00000210: 277c 623d 0d82 88bb 389f 703d 44fb 71bd
00000220: feb7 e83c b3b7 9bbd 71c7 ec3d 1d06 a7bd
00000230: 0fd6 fdbd bb96 363d 2844 273e fffd e03d
00000240: 3af1 97bd 6a2c 013d e263 88bc 9a7c 64bd
00000250: 311d 993d 77df a03c bf0f 50bd 6c47 013e
00000260: 2e0b 77bd ee4b 93bd 77d9 c33c d552 28be
00000270: 855d 823d bd67 503a 676e 873c 02dc 01be
00000280: 0b27 4dbd 35bd e33d 8317 af3d 3c1c 733d
00000290: 73c7 e53d 7fb7 5a3d a4df ffbd 0898 cd3c
000002a0: 667f d23d 32c2 823c 8c14 e7ba 1006 a7bd
000002b0: a143 57bd 7e30 0b3e 4442 e53d 79fd abbd
000002c0: f587 553d e460 e1bd cd8a 933d 91a8 02be
000002d0: 7cdf a63c cf89 70be 9bbe b53d 95a9 81bd
000002e0: bbc1 8b3d e288 6d3a 285b 3fbc 52b0 56bd
000002f0: ec03 a33c a640 923d 6742 2d3d 6c70 1c3c
00000300: 1d5a 613e 1f47 3bbc dd92 e33d 7d6a 0abe
00000310: 8887 64bd 4e24 c33d c383 ab3d 66c5 04be
00000320: 85df 433d 1927 f23d 1e30 133a ce24 5cbd
00000330: 7ff3 4c3d 0eeb 0b3e 255f 03be 26c4 14be
00000340: 0464 00bc 0787 01be 8822 a93d fb64 0c3d
00000350: c8f3 833d 7720 143d ed87 fcbd 2dc2 dfbd
00000360: f34b d93c 84b1 14be 948f 003e dc16 f2bb
00000370: 4c74 013e 11cb 143d e091 b8bd 7d4c 1a3d
00000380: 091a 25be c6d2 1d3e 2004 e2ba a536 74ba
00000390: 6c71 703d 8835 0fbd 26e3 7dbd a6e7 b03e
000003a0: 440c 4b3e 6d21 aabd 18b3 8dbe 4a42 1e3e
000003b0: 3c96 893c d1f2 d7bc 953c 08be 8f69 63bd
000003c0: d9eb 6a3d 433d 103d 5650 c3bd 66e1 7e3c
000003d0: c2d2 7abe 50f1 c0bd 1ad7 ddbc 4f57 323e
000003e0: 778b 45bd b6a9 743d 0d7a 053e 0fb7 54be
000003f0: b287 98bb cacf 80be d54f 21bd e928 abbc
0.057330396 0.03442796 0.057149082 -0.08698473 -0.21358733 -0.015003121 -0.025504762 0.11215941
0.0016199809 -0.059157956 0.16564779 0.077133596 0.1650488 -0.06906455 0.14487547 -0.13996775
0.16924644 -0.173468 -0.178878 0.026877217 0.1465194 -0.12995437 -0.13611686 -0.04440315
0.050736606 -0.1272733 0.05951391 0.16902263 0.091667615 -0.036529765 -0.19224149 0.10344969
0.091531605 -0.1314617 -0.14790237 -0.104754165 0.09449857 0.009562264 0.13485265 -0.026992481
0.13900225 0.15601422 -0.17501307 0.08704607 0.11449818 -0.08194057 0.11830379 -0.11570272
0.06320963 -0.045621518 0.0655749 0.21206735 -0.107638374 0.042807918 -0.10204599 -0.13940302
0.047426835 0.14440896 -0.098185 0.074952096 0.050803903 -0.0043097194 0.014950688 0.07683449
-0.048374746 0.035648398 0.033461094 0.123449035 0.072082065 0.1586751 -0.16232692 -0.103073314
0.14069362 -0.04785592 0.058625445 -0.13640957 0.17256626 0.16932249 0.049779084 -0.115266815
-0.065771796 0.12689811 0.040811464 -0.069773324 -0.046900984 -0.090459555 -0.11615469 0.14093232
0.15248634 -0.13645265 0.108728215 -0.14113519 0.15438773 0.008435713 -0.09220685 0.02144302
-0.115851454 -0.03747401 0.13809088 0.027399475 0.046477687 -0.036495652 0.06427402 0.094013736
-0.17487305 -0.027237926 0.047128424 0.042940658 0.004684083 -0.14811294 -0.00798732 0.12593238
-0.052288618 0.0149471015 -0.006282527 0.09552129 -0.05185442 0.09833116 -0.1847054 0.07076454
0.204489 -0.084845096 0.07332231 -0.17487437 0.018895188 0.04588522 -0.036645446 -0.09605231
-0.0126217315 0.03528156 0.02712837 0.088881925 0.055294182 -0.004165894 0.058745593 -0.059077516
0.028408047 -0.07603397 0.11561478 -0.08155463 -0.12394344 0.04457734 0.16334593 0.10985946
-0.07419057 0.031536497 -0.01664919 -0.05578289 0.07476271 0.019637806 -0.050796267 0.12624902
-0.060313396 -0.07192217 0.023907406 -0.16437848 0.06365494 0.00079500285 0.016532136 -0.12681583
-0.050086062 0.11120073 0.085494064 0.0593531 0.112196825 0.05339765 -0.12493828 0.025096908
0.102782056 0.01596174 -0.0017630025 -0.08155453 -0.05255473 0.13592717 0.1119428 -0.083979554
0.05213161 -0.110048085 0.072042085 -0.12759615 0.020370238 -0.2349007 0.08874246 -0.06331173
0.068240605 0.00090612296 -0.011679448 -0.052414246 0.019899331 0.07141237 0.042299654 0.009548288
0.22007032 -0.011430531 0.11111996 -0.13517185 -0.055793315 0.09528409 0.08374741 -0.12965927
0.047820587 0.118238635 0.0005614775 -0.053746037 0.050036903 0.13663885 -0.12829264 -0.1452795
-0.007836346 -0.12649165 0.082585394 0.03427599 0.06442982 0.036163773 -0.12330613 -0.10925708
0.026525473 -0.14520842 0.1255477 -0.007387979 0.1264202 0.03632647 -0.090121984 0.0376706
-0.16123213 0.15412435 -0.0017243661 -0.0009316004 0.058701918 -0.03496316 -0.061984204 0.34551734
0.19828898 -0.08307157 -0.276757 0.15454975 0.01679527 -0.026360901 -0.1330436 -0.05552059
0.057353828 0.035214674 -0.09536807 0.015556669 -0.2449446 -0.09421027 -0.027080107 0.17416118
-0.048228707 0.05973216 0.1303484 -0.20772956 -0.004654848 -0.2515853 -0.039382774 -0.02089353

fc2.bias f4 [16]
00000000: 1d53 853e 1836 023d a505 4a3c 8ad2 163b
00000010: 2ea6 343e 619d 9ebd 57aa 513d e018 753d
00000020: 53b3 0e3e fd23 b83d 8465 f03d d881 d4bc
00000030: 700b 57bc 9f7e a03e 3217 2abd c6d9 00bd
0.26039973 0.03178987 0.012330447 0.0023013675 0.17641518 -0.077448614 0.05118784 0.059838176
0.13935594 0.08991239 0.117381126 -0.02594082 -0.0131252855 0.31346604 -0.041526027 -0.031457685

fc3.weight f4 [1, 16]
00000000: b44a e73d 3683 3f3e 84ef 9c3d 83a7 74bc
00000010: 5b66 453e 1285 83bd e196 a3bd 27dd 103c
00000020: de6c 5dbc 7f0f 2abd d9c0 d93c e6ce bdbc
00000030: fc9c a73c 9fed 583d 7308 11bc 23fb 963d
0.11293545 0.18702397 0.076628715 -0.014932516 0.19277327 -0.064218655 -0.07987762 0.008841789
-0.0135147255 -0.041518684 0.026581215 -0.023169946 0.020460598 0.052960988 -0.008852112 0.07372119

fc1.weight f4 [32, 7]
00000000: 4019 4ebd 4012 aa3c 5195 eb3d 5899 66be
00000010: 58c3 943d d762 e3bd 3e45 7ebe 8121 343e
00000020: 7862 f2bd c6b1 acbd e8b2 3f3e e05c 74bc
00000030: bc3c 2b3e 4bbe 9c3e 2ab1 debd e451 fd3d
00000040: f452 803d eedc f53d 2748 85be 5b36 843e
00000050: d155 203e 7c0f 7dbe 0eb4 ea3d 1b2d bdbd
00000060: b6e0 14be d734 ef3c b515 cc3c 3ffb 49be
00000070: f644 2a3e 9935 90bd 7bbf c23c 1a7b 6d3e
00000080: 6409 82be a4bd eeba c081 c53d 06fa 6f3e
00000090: 3bb8 19be 1a7b c23d 5368 463e 6936 08be
000000a0: 1282 9cbd 34cf cc3d 859f 813e d985 d0bd
000000b0: 36db d73d d3de 97be 0dde 433e a9bb 20be
000000c0: 4a2b 79be 7c4b 35be 28df e9bc c720 40bd
000000d0: ea43 6cbd 8f0d ebbd acb7 97be 23b5 543e
000000e0: 227f cb3d 2bae 3f3d fea0 c03c 362d 373c
000000f0: dc50 a23d 3dd1 5a3e 3488 6bbc dbb5 06be
00000100: 017a 07bd 7c6e 2fbe 16a3 833e 67f3 663e
00000110: 33e9 8abb 71bc dbbd 5362 1abe 0c5e 443d
00000120: ab30 28be 0ff6 a2bc e64d 373e e676 8e3d
00000130: 22bf 8b3d fcea 8c3d 0a0d 373d 5a3f 343d
00000140: 7c41 a13d 5c25 07be c076 753e e61f 32bd
00000150: 2eee 123d d68b 81be eb20 9bbd 4533 72be
00000160: 6eb0 293e d3b6 a4be 2a26 ad3e 2188 833e
00000170: 5d2f 0abe 1002 b23d 553a 89be e3cd b9bc
00000180: ff86 53bd 7a1e e0bd a724 ceba e6ad 4a3b
00000190: cd45 3dbb 9981 4a3e 347d e13a 1ce8 8c3e
000001a0: 3813 96bb 5527 a83e d828 29be d3c3 053e
000001b0: 9236 123e 179c f3bc ffae 84bc aa7d 663e
000001c0: 7314 f33d 08f8 5e3d 47c5 513e f15d 7a3e
000001d0: d3d3 30be 8e78 31be 6729 48be b4f4 ce3d
000001e0: 4936 a63d 449a 493e 7207 193e 6b73 03be
000001f0: 08b1 3bbe 3d04 89be a218 cbbc 6158 333e
00000200: fa4a 583d 2571 2c3e 99dd f0bd af19 603e
00000210: 1a74 70be 43cb 57be fcc2 f93d 8b2a c0bd
00000220: 0da2 173e d5f7 6fbe efba 2bbe ee88 5d3e
00000230: 704a 6abe 5c35 693d 47e9 773d 1b04 943d
00000240: 84fe 81be 809d 69be 4001 81bd 9bd9 10be
00000250: 04ca 9c3d a9ee 66bd d652 71bd 0ddb 323e
00000260: bddb de3e 6c27 1ebd 1176 533e 9a33 f6bd
00000270: 6315 b33d 6389 03be 2f86 7d3e 4907 d63d
00000280: 464f 5cbe 8069 f53d 89ab 07be f152 94bd
00000290: 1f2f 09be f217 933e ab7d 93be 9826 32be
000002a0: af6c 383e 8e7a c2bd 8d7f 743d 9122 00bd
000002b0: 7126 4b3e 3526 d0bd f4a9 2bbe d437 383e
000002c0: 8010 c9bc 9a42 3d3d 7621 07bd b88a 233e
000002d0: 9c9f 89be 8084 09be 26d9 423e f82d 2ebd
000002e0: 6566 d1bd e4c8 80bd e318 863e 7f26 863e
000002f0: b795 1fbd 5409 773e 12b0 5abd 5732 95bd
00000300: c327 f4bb 2dea 823e e54e 523e 8b6a 813d
00000310: 765e 25bc c068 883c 2939 b03a 0828 99be
00000320: c11f 3b3b ed41 6ebd 5790 82bd 2641 9fbe
00000330: 0f5b 123e aa7f 0ebe 1b7d 7f3e 5393 72be
00000340: 4f03 473d 8c25 983e e03f 29be 1a44 82bd
00000350: b59e 8fbe c0e1 9bbe c6cf 6c3e 4422 3c3e
00000360: 5541 783e fe67 03be 87af 583d 46a3 053d
00000370: 4afe 8bbe 237c 123e 76b7 35be 6190 82be
-0.05031705 0.020760655 0.11503089 -0.22519433 0.07263821 -0.111028366 -0.24831101 0.17590906
-0.11835188 -0.08432345 0.18720591 -0.014914721 0.16722387 0.30613932 -0.10873635 0.12369135
0.06265822 0.120050296 -0.2603161 0.2582272 0.15657736 -0.24712938 0.11460124 -0.09237119
-0.14538845 0.0292 0.024912694 -0.19724749 0.16627869 -0.07041473 0.023772946 0.23191491
-0.2539779 -0.0018214476 0.096438885 0.2343522 -0.15011685 0.09496136 0.19375734 -0.13302006
-0.076419964 0.10000458 0.25317016 -0.101817794 0.10539858 -0.2966219 0.19127674 -0.15696587
-0.2433292 -0.17704576 -0.028548792 -0.04690626 -0.057681955 -0.114771955 -0.29632318 0.20772223
0.09936358 0.04679696 0.023514267 0.011180213 0.07925579 0.2136888 -0.014375735 -0.1315531
-0.033075336 -0.1713199 0.25710362 0.22553788 -0.0042392253 -0.10729302 -0.1507657 0.047941253
-0.16424815 -0.01989272 0.1790081 0.06956272 0.06823565 0.06880757 0.04469017 0.04400573
0.07873818 -0.13197845 0.23971081 -0.043487452 0.035871677 -0.25302 -0.07574638 -0.2365237
0.16571209 -0.32170734 0.3381818 0.25689796 -0.1349463 0.086918 -0.26802316 -0.022681182
-0.051642414 -0.10943313 -0.0015727476 0.0030926405 -0.0028880716 0.19776 0.0017203451 0.27520835
-0.004579928 0.32842508 -0.16519487 0.13062982 0.1427863 -0.029737515 -0.016196726 0.22508875
0.11869135 0.05443576 0.20485412 0.24449898 -0.17268305 -0.17331144 -0.19547044 0.10105267
0.08115823 0.19687754 0.14944246 -0.12836997 -0.18329251 -0.26761046 -0.02479202 0.17514183
0.05280588 0.16840036 -0.117610164 0.21884798 -0.23481789 -0.21073632 0.121953934 -0.093831144
0.14807911 -0.23434384 -0.16770528 0.21634266 -0.22879958 0.056935653 0.060525205 0.072273456
-0.25389493 -0.22813988 -0.062990665 -0.1414551 0.07655719 -0.056379948 -0.05891689 0.17466374
0.43527022 -0.038611814 0.20650508 -0.12021561 0.087443136 -0.12845378 0.24758218 0.10450608
-0.21514615 0.11983013 -0.13249029 -0.07242382 -0.13396882 0.28729206 -0.28806815 -0.17397535
0.1801021 -0.09496032 0.059691954 -0.031282965 0.19838883 -0.101635374 -0.1676405 0.17990047
-0.024544 0.046206094 -0.032990895 0.15970886 -0.26879585 -0.13429451 0.19028148 -0.042524308
-0.10224608 -0.06288317 0.26190862 0.26201245 -0.03896114 0.24124652 -0.05339057 -0.07284992
-0.007451029 0.25569287 0.20537908 0.063191496 -0.010093322 0.016651511 0.001344477 -0.29913354
0.0028552862 -0.05816834 -0.06375187 -0.31104392 0.14292549 -0.13915887 0.24950068 -0.23689012
0.04858714 0.29716146 -0.16528273 -0.063606456 -0.2805077 -0.3044567 0.23126134 0.18372446
0.24243672 -0.12832639 0.05290177 0.032626413 -0.27342445 0.14305167 -0.17745766 -0.25500777

fc1.bias f4 [32]
00000000: 5bc0 993d bfaa 263e 3c2b b5bd 48fa 6a3e
00000010: d2ea 953e 4dec 653d 82ff a53e a106 7cbe
00000020: 5631 103f 7666 7a3e 3656 ad3e 4f8f 363e
00000030: 1139 8d3e 3c3a 29be f39b 0f3f 0fe8 dabe
00000040: 6789 c63e 5d33 ed3d cc7d 34be b98b da3e
00000050: a500 cc3e 493c 1fbe 16a3 4fbe 1f4c c53d
00000060: 4749 083f 7b8f 02bd 6ab1 8fbd 1267 2fbe
00000070: 8302 973e 189b 19be 72e2 aebe c69d 143e
0.07507392 0.16276072 -0.08846137 0.22947037 0.29280716 0.056133557 0.324215 -0.24611904
0.5632528 0.24453148 0.33854836 0.17828105 0.275826 -0.16526121 0.56097335 -0.42755172
0.38776705 0.115820624 -0.17626113 0.42684725 0.39844242 -0.1555034 -0.20277056 0.096336596
0.5323681 -0.031875115 -0.07016261 -0.17129162 0.29494104 -0.1500057 -0.3415714 0.14513311

fc2.weight f4 [16, 32]
00000000: 86e8 6a3d 740c 0d3d 560c 6a3d ca27 b2bd
00000010: 1baa 5abe f12a 75bc 9bfa d0bc a3d9 e53d
00000020: 55e1 d23a bd74 72bd 12a4 293e c5eb 9d3d
00000030: c9f4 283e e684 8dbd a959 143e 895d 0fbe
00000040: 354c 2d3e de99 31be 192a 37be 7604 dc3c
00000050: 360b 163e 261a 05be 9a67 0bbe 5804 36bd
00000060: 54d2 4f3d bb63 02be 9ebd 733d 5910 2d3e
00000070: cfac bb3d 1f94 15bd e6df 44be 1aed d33d
00000080: 6c80 bb3d 2e9c 06be 5776 17be 528b d6bd
00000090: 0ca3 c13d 4a73 1d3c c115 0a3e 858b dcbc
000000a0: c453 0e3e f4b9 1f3e e631 33be df38 b23d
000000b0: cc61 ea3d bbe2 a7bd 1548 f23d 6505 edbd
000000c0: e171 813d 33b7 3abd cb4f 863d c922 593e
000000d0: 1c6e dcbd 263b 2f3d 5c07 d1bd 91c8 0ebe
000000e0: f544 423d f9d0 133e b418 c9bd 7a78 993d
000000f0: 72f9 4f3d 5fe3 8cbb 87aa 743c c06b 9d3d
00000100: 7a0a 46bd 7b05 123d 95fd 083d 48d1 fc3d
00000110: 89b9 933d 6189 223e f339 26be 4503 d3bd
00000120: de0e 103e b824 44bd 7631 703d bbb5 0bbe
00000130: 9ba7 303e 435a 2d3e e7df 4b3d c821 ecbd
00000140: dcb2 86bd 67fc 013e 0e33 273d 34f8 8ebd
00000150: 5e1b 40bd f351 b9bd 49ed edbd 9048 103e
00000160: f725 1c3e 84c8 0bbe a1a8 de3d bd8a 10be
00000170: cb10 1e3e e8f8 093c 31e1 bcbd adf1 af3c
00000180: 8a4a edbd 63a6 19bd 637d 0d3e 6cd8 e03c
00000190: 02a4 3e3d 3808 16bd 5d5c 833d 178f c03d
000001a0: ccfe 32be aa7f e0bc 52f0 403d 495d 303d
000001b0: 9949 9b3b b960 17be f499 01bc c8c7 003e
000001c0: 516f 55bd e221 773c cf08 c8bb a7bf c33d
000001d0: dfee 53bd 6179 c93d 2d4c 3dbe cc08 913d
000001e0: c450 513e 2b57 adbd bcf1 953d 5a45 33be
000001f0: 4c86 9b3c 0ce7 3b3d b15c 16bd 18c4 c4bd
00000200: 0e6d 4ebc 8f8a 103d c527 de3c cb05 b63d
00000210: 4ab1 623d f9f0 86bb 0f9c 703d 6db1 71bd
00000220: b1a1 e83c 62c8 9bbd fbd0 ec3d 9712 a7bd
00000230: cef1 fdbd 8373 363d 8a43 273e c3ee e03d
00000240: 7bf3 97bd d952 013d 5055 88bc bc92 64bd
00000250: ad20 993d 05a7 a03c 4a22 50bd 1a3f 013e
00000260: 0408 77bd f367 93bd cacc c33c b856 28be
00000270: 9a4e 823d e80e 533a f149 873c c7d3 01be
00000280: 7864 4dbd 36b4 e33d 833a af3d e03c 733d
00000290: c9b2 e53d ad8f 5a3d 58f5 ffbd 9b95 cc3c
000002a0: 9871 d23d 20d2 823c ca15 f6ba 910e a7bd
000002b0: 4423 57bd cb39 0b3e c031 e53d 46ea abbd
000002c0: f7d1 553d db68 e1bd f79d 933d 67b8 02be
000002d0: 9e57 a63c e480 70be 9071 b53d 3143 81bd
000002e0: 45b2 8b3d fd25 973a 77fb 41bc 3e44 57bd
000002f0: 4521 a33c 0477 923d e950 2d3d c871 1b3c
00000300: 4b56 613e 6e8e 3bbc 6b98 e33d c768 0abe
00000310: e2c4 64bd 6703 c33d ad89 ab3d 31cc 04be
00000320: 5de8 433d 0037 f23d 8912 0f3a 6712 5cbd
00000330: 6e38 4d3d eef5 0b3e c95f 03be 96c6 14be
00000340: ac4f 00bc f38e 01be 5e22 a93d 9a93 0c3d
00000350: 13f5 833d 713a 143d c57c fcbd f8ad dfbd
00000360: 2f4f d93c a8a0 14be 928f 003e eedb f1bb
00000370: 297d 013e d8e5 143d d687 b8bd 2232 1a3d
00000380: 270f 25be 28dc 1d3e 1613 e0ba 5022 9eba
00000390: 56a5 703d 9eec 0ebd 95d7 7dbd 709a b03e
000003a0: 0216 4b3e 282b abbd 839e 8dbe 5253 1e3e
000003b0: c783 873c 401d d8bc d827 08be 3485 63bd
000003c0: 1a60 6a3d 903e 103d e73d c3bd 269f 7b3c
000003d0: ea2c 7bbe 3ee7 c0bd b442 ddbc 0741 323e
000003e0: 9b8c 45bd 27d0 743d 7495 053e 9ba0 54be
000003f0: 6f5f 9cbb 40f0 80be 183f 22bd eb94 abbc
0.057350658 0.034435704 0.05714067 -0.086989954 -0.21353953 -0.014963851 -0.025510123 0.112231515
0.0016088883 -0.05919336 0.16566494 0.07710985 0.16499628 -0.06910114 0.14487328 -0.14000525
0.16923602 -0.17343852 -0.17887153 0.026857596 0.14652714 -0.12998256 -0.1361374 -0.044437736
0.050737694 -0.12733357 0.059507005 0.16900767 0.0916382 -0.036518212 -0.19226035 0.10347958
0.09155354 -0.13145515 -0.14791237 -0.10475792 0.09454927 0.009610007 0.13484861 -0.026921997
0.13899142 0.15598279 -0.17499503 0.087022536 0.114444345 -0.08197542 0.11830155 -0.115732946
0.06320549 -0.04558487 0.06558188 0.21204676 -0.10763189 0.042781018 -0.10206482 -0.13943698
0.047429044 0.14435185 -0.09819165 0.07493682 0.050775 -0.0042995657 0.014933235 0.07686567
-0.048349835 0.035649758 0.03344496 0.12344605 0.072131224 0.15872718 -0.16233043 -0.10303358
0.14068171 -0.04788658 0.05864092 -0.13643543 0.17251436 0.16928963 0.049774077 -0.11529881
-0.065770835 0.1269394 0.040820174 -0.06980935 -0.0469011 -0.09048834 -0.11617524 0.1409018
0.15248857 -0.1365071 0.10872007 -0.14115424 0.15436094 0.00842116 -0.09222639 0.021477545
-0.11586483 -0.037512194 0.13817362 0.027446948 0.04654313 -0.03662893 0.06414101 0.09402292
-0.1748001 -0.027404625 0.047104187 0.043057714 0.004738998 -0.1478299 -0.00791024 0.1257621
-0.052108113 0.015083762 -0.0061045657 0.09558039 -0.051741477 0.09837604 -0.1848609 0.07081756
0.20440966 -0.084638916 0.07321498 -0.17506924 0.018984936 0.04587464 -0.03670949 -0.096077144
-0.012599243 0.03528839 0.027118573 0.08887824 0.055344857 -0.0041180816 0.05874258 -0.059007097
0.028397413 -0.07606579 0.11563297 -0.081578426 -0.12399636 0.044543754 0.16334358 0.1098304
-0.07419487 0.03157315 -0.016642243 -0.055804 0.074769355 0.019610891 -0.05081395 0.12621728
-0.06031038 -0.07197561 0.023901362 -0.1643933 0.06362648 0.00080512324 0.01651475 -0.12678443
-0.050144643 0.11118357 0.08556082 0.059384227 0.11215741 0.053359676 -0.124979675 0.024973681
0.102755725 0.015969336 -0.0018774804 -0.08157075 -0.052523866 0.13596265 0.1119113 -0.083942935
0.05220219 -0.11006328 0.07207864 -0.12765656 0.020305451 -0.23486668 0.08859551 -0.06311644
0.068211116 0.0011531707 -0.011839739 -0.052555315 0.019913325 0.07151607 0.04231349 0.009487577
0.22005574 -0.011447532 0.11113056 -0.13516532 -0.055851825 0.09522133 0.08375869 -0.12968518
0.04782902 0.11826897 0.0005457779 -0.053728487 0.050102644 0.13668033 -0.12829508 -0.1452888
-0.007831495 -0.12652187 0.08258508 0.03432045 0.064432286 0.036188547 -0.123284854 -0.10921854
0.026527015 -0.1451441 0.12554768 -0.007380954 0.12645401 0.03635201 -0.09010284 0.037645467
-0.16119061 0.15416014 -0.0017095532 -0.0012064669 0.058751427 -0.034893624 -0.061973173 0.34492826
0.19832614 -0.08357841 -0.27659997 0.15461472 0.016542329 -0.026381135 -0.13296449 -0.055546954
0.057220556 0.035215914 -0.09533291 0.015357768 -0.24528852 -0.09419106 -0.027009346 0.17407618
-0.048229795 0.059768822 0.13045293 -0.20764391 -0.0047721188 -0.25183296 -0.039610952 -0.020945033

fc2.bias f4 [16]
00000000: 8c4f 853e 4219 023d d78f 493c e098 1d3b
00000010: 099f 343e 629e 9ebd f4c7 513d d3ee 743d
00000020: 5ab9 0e3e bb4c b83d 805c f03d 017c d4bc
00000030: d231 56bc 207b a03e 46f7 29bd a7f3 00bd
0.26037252 0.03176237 0.0123023605 0.002404742 0.17638792 -0.07745053 0.05121608 0.059798073
0.13937894 0.0899901 0.11736393 -0.025938036 -0.0130734015 0.31343937 -0.041495584 -0.031482365

fc3.weight f4 [1, 16]
00000000: 8348 e73d 4b81 3f3e dcf5 9c3d bca2 75bc
00000010: fc66 453e 5898 83bd f4ab a3bd e40f 113c
00000020: d634 5cbc 281c 2abd 549d d93c f3dc bdbc
00000030: 3258 a93c 10d6 583d d450 13bc 6a06 973d
0.112931274 0.18701665 0.076640815 -0.014992412 0.19277567 -0.06425542 -0.07991782 0.008853886
-0.013440331 -0.04153076 0.026564278 -0.023176646 0.020671938 0.05293852 -0.008991439 0.0737427
