logs/sdf_single_scene_3_spheres_min_distance_overall/state_76.pt (torch, 10383 bytes, 10 tensors)

fc1.weight f4 [32, 7]
00000000: de26 4fbd fcd7 ee3c 5751 d73d ae67 5abe
00000010: 6c1a 953d 170a f4bd 6607 73be 19e6 293e
00000020: 2fd3 e4bd 5549 a2bd cad7 423e 8bad 71bc
00000030: 17f5 283e b4da 963e 7f59 d7bd 8527 003e
00000040: eac7 7e3d ac22 f63d 728f 84be 5121 843e
00000050: efb7 213e 8d6c 7cbe fa16 e73d 9684 b4bd
00000060: d9f0 12be 91d0 ec3c 6fad be3c 5202 48be
00000070: abcd 2b3e 990d 9abd 4c14 a03c 6267 6e3e
00000080: 70b3 7cbe bf10 f4bb 8ba6 c73d 3d59 683e
00000090: 55e5 16be ba4f a23d ebb4 583e 244d 02be
000000a0: 77d0 9ebd a28f b63d 2bfe 803e 4384 d0bd
000000b0: b896 d43d 0397 96be dc69 483e 1d50 1ebe
000000c0: aa0a 78be 96d1 32be 9bc8 d7bc db5e 4bbd
000000d0: 541e 7cbd 3958 f3bd 7b9c 9dbe cc11 443e
000000e0: 2da6 c83d 4a3d 3d3d 7fb9 c43c b6d0 3e3c
000000f0: 107c a23d 0863 593e 8a33 87bc b39d 00be
00000100: 2ef9 05bd 2827 26be f27f 893e b474 573e
00000110: df1c 73bc 8b33 abbd 3a82 16be 5832 403d
00000120: 0d0d 1dbe 11aa 94bc 28eb 343e 1609 8a3d
00000130: 24b6 723d c87a 803d 15c3 4a3d bfe3 233d
00000140: 4322 aa3d 7422 04be aa6f 5c3e c555 2fbd
00000150: 66c2 0c3d 6c05 81be 8dcd 9abd 187b 72be
00000160: 559a 293e 491f a5be 3276 ac3e d6b3 813e
00000170: 8287 10be d19f 9e3d 3214 84be 3bd3 87bc
00000180: e205 69bd 11c2 c7bd 9e58 d8ba ffb6 203b
00000190: 88be 3cbb b563 493e 9747 903a aa4f 8c3e
000001a0: d333 abbb f6a3 a73e a8dd 27be 0b0b 013e
000001b0: ee96 133e 5ceb e1bc 0a46 45bc 1568 643e
000001c0: f9ef f33d 25b0 603d 2e7b 523e bc94 7e3e
000001d0: 4378 32be 2c71 31be c910 4abe b364 cb3d
000001e0: e0ad 8c3d 8b40 403e feb0 1d3e ae31 01be
000001f0: cf95 33be 7140 83be 227d c3bc 3909 323e
00000200: e6f9 543d 2e2e 2b3e 510f efbd ec33 613e
00000210: b7d8 6ebe 0383 57be 164b f93d 7fd7 bbbd
00000220: 6b59 183e f50b 70be c7fd 2abe e607 5d3e
00000230: e443 6abe b144 713d 3461 7c3d 8b76 8e3d
00000240: 315b 81be 40db 6dbe 46bb 7fbd 5ca1 0dbe
00000250: 00ed 9a3d 5161 4dbd 136f 7bbd 7e0b 2e3e
00000260: 4dc7 de3e a540 25bd 7c2a 543e 8dc3 f5bd
00000270: 8d76 b13d bd91 03be e81e 7c3e 8fda d73d
00000280: f2af 5bbe efe7 f13d 6448 07be 51f7 8cbd
00000290: dd24 09be 1c95 913e 2a1b 94be 16ad 31be
000002a0: 92df 373e e3dc bfbd 3524 7f3d 5d81 05bd
000002b0: 109f 453e 4eb4 d1bd 7e3f 2abe 3f19 353e
000002c0: f25c bfbb 0dbb 153d 65bd 0ebd 92a0 173e
000002d0: 8cb2 88be 37ee 02be dc52 323e 9578 14bd
000002e0: 620f d4bd feea 5ebd 7fff 843e 7df4 823e
000002f0: 4ac2 d4bc 2f60 723e 5326 60bd d04f 92bd
00000300: 32e0 12bc 96a4 803e b95b 503e d7da 793d
00000310: c846 2ebc 6d8f 903c 0bbb d6b9 4dda 98be
00000320: 7878 333b d999 71bd d8c4 7abd 863a 9ebe
00000330: 2d97 113e 27a9 0abe 57ab 7f3e 774b 73be
00000340: 718f 523d 8f22 973e afa1 25be 5a20 84bd
00000350: ad6a 8cbe edc8 9abe c1c3 673e 403b 3d3e
00000360: 3749 753e c387 03be df38 4a3d 25fa ce3c
00000370: fa04 8abe c43a 123e f0a5 36be 33b7 75be
-0.050574176 0.029155724 0.10513561 -0.21328613 0.0728043 -0.11915987 -0.23733291 0.16591682
-0.111730926 -0.07924143 0.1902763 -0.0147508485 0.16499744 0.29463732 -0.10515117 0.12515076
0.06220237 0.12018332 -0.2589069 0.25806668 0.15792821 -0.24650784 0.11283679 -0.08814351
-0.14349689 0.028908046 0.023276059 -0.19532135 0.16777675 -0.07522125 0.019540928 0.23281625
-0.24677825 -0.0074482854 0.097485624 0.22690292 -0.1473592 0.07925363 0.21162765 -0.1272474
-0.07754605 0.089141145 0.25193915 -0.10181477 0.1038031 -0.29412088 0.19571632 -0.15460248
-0.24222818 -0.17462763 -0.026340773 -0.049651008 -0.06155236 -0.118820615 -0.30783448 0.19147414
0.097973205 0.046201028 0.024014233 0.01164644 0.07933819 0.21229184 -0.016504068 -0.12560157
-0.03270834 -0.16225874 0.26855427 0.21040612 -0.014838426 -0.083594404 -0.14698115 0.04692301
-0.1533701 -0.0181475 0.1766783 0.06740014 0.059255734 0.06273419 0.04950245 0.040012117
0.08307316 -0.12903768 0.21526971 -0.042806406 0.03436508 -0.2519945 -0.07558737 -0.23679769
0.16562779 -0.3225043 0.33683926 0.25332516 -0.14114192 0.07745326 -0.25796658 -0.016580215
-0.056890376 -0.09753812 -0.0016505902 0.0024523137 -0.002880009 0.19666941 0.0011007664 0.2740453
-0.005224684 0.3274228 -0.16393149 0.12601869 0.14413044 -0.027578048 -0.012040624 0.22305329
0.119110055 0.054855485 0.20554802 0.24861425 -0.17428689 -0.17328328 -0.19732966 0.09931316
0.068691015 0.18774621 0.15399548 -0.12616608 -0.17537616 -0.25635102 -0.023863379 0.1738633
0.051996134 0.16716835 -0.11672843 0.21992463 -0.23324858 -0.21046071 0.12172525 -0.09171962
0.1487786 -0.23442061 -0.16698371 0.21585044 -0.2287746 0.0589034 0.061616138 0.06956204
-0.25264886 -0.23228168 -0.062434457 -0.13831085 0.075647354 -0.050141636 -0.061385226 0.16996571
0.4351143 -0.040344853 0.20719332 -0.12000189 0.0866519 -0.12848563 0.24621165 0.105397336
-0.21453837 0.11811816 -0.13211209 -0.06883109 -0.13392968 0.28434074 -0.28926975 -0.17351183
0.17956379 -0.09368303 0.06229039 -0.032594074 0.19298959 -0.102394685 -0.16625783 0.17685412
-0.0058399374 0.03655534 -0.03484859 0.14807346 -0.2669872 -0.12786184 0.17414421 -0.03624781
-0.103544965 -0.054423325 0.25976178 0.25577155 -0.02597155 0.23669504 -0.05472405 -0.07144129
-0.008964585 0.2512557 0.2034749 0.060999718 -0.010636993 0.017646516 -0.0004095662 -0.2985405
0.0027385037 -0.05898461 -0.06122288 -0.30904025 0.14217825 -0.13541089 0.24967705 -0.23759256
0.051406328 0.29518554 -0.16174959 -0.06451483 -0.27425137 -0.3023142 0.22633268 0.18479633
0.2395371 -0.12844758 0.049370643 0.025265763 -0.26956922 0.1428023 -0.17836738 -0.23995666

fc1.bias f4 [32]
00000000: 3d7b 893d c577 213e c29a b5bd 30fe 6a3e
00000010: 06fc 943e 5581 263d 1df1 a63e 9a61 78be
00000020: c144 103f 59bf 6a3e d8b1 ac3e 426a 143e
00000030: 3a93 8c3e 578e 30be fce0 0f3f b3a1 d9be
00000040: 40f4 c23e 565c fb3d efde 36be 20b1 da3e
00000050: 45a6 c93e 8289 1dbe c46d 50be 8ae1 c93d
00000060: 070b 083f 6c19 0cbd d13a a2bd 2288 34be
00000070: b142 973e 1977 1abe c30d b1be f89d 103e
0.06712959 0.15768345 -0.08867408 0.22948527 0.2909853 0.040650684 0.3260583 -0.24255982
0.5635491 0.22924556 0.33729434 0.14493659 0.27456075 -0.17241798 0.56202674 -0.4250618
0.38076973 0.12273471 -0.1785848 0.4271326 0.39384666 -0.15384486 -0.20354372 0.09857471
0.53141826 -0.03420393 -0.079213746 -0.17630056 0.2954307 -0.15084495 -0.34580812 0.1412276

fc2.weight f4 [16, 32]
00000000: 4c46 693d 3729 0c3d 48de 663d a8fb b1bd
00000010: cca5 5bbe 5e9f 75bc de0e d8bc c0d2 e43d
00000020: f8bf bd3a 6f99 73bd 5b81 283e 66dc 9e3d
00000030: 0706 293e 8c7f 8dbd 7708 143e ff9c 0ebe
00000040: e484 2d3e f6e1 30be 7ef5 37be aa29 df3c
00000050: ab2d 153e ec83 04be f44e 0bbe 6da8 32bd
00000060: 9c2e 4d3d 7238 02be 185f 733d 9c55 2d3e
00000070: e028 bc3d b19f 1bbd c034 45be 816b d33d
00000080: 74a8 ba3d b4c4 06be 2634 18be 2e56 d6bd
00000090: d773 bf3d ee24 173c 502c 093e 3520 e0bc
000000a0: 402f 0e3e ad74 1f3e 784e 34be a627 b33d
000000b0: 88a9 ea3d 1c06 a8bd 6fb2 f13d c8e5 ebbd
000000c0: 8b43 813d b44e 39bd 4fbd 843d 1798 593e
000000d0: 851b debd 92aa 313d 0fde d0bd 99e6 0dbe
000000e0: db8f 3f3d 38d8 133e 9d32 c9bd d120 9a3d
000000f0: effe 503d e17d bbbb 7d8d 6f3c 9ff7 9c3d
00000100: 9656 48bd 43fa 113d c147 063d 83d8 fc3d
00000110: 846f 913d c204 223e 8d2c 27be 34b2 d2bd
00000120: 10f1 0f3e e86f 45bd b1d3 6b3d 0537 0bbe
00000130: d9a6 303e 0830 2d3e faf1 4a3d 1ba3 eabd
00000140: 2c2f 87bd a62b 023e 2b91 233d 8aae 8dbd
00000150: 1313 43bd 3efd b7bd 1e90 edbd 3506 113e
00000160: 287c 1b3e 6eea 0bbe 32cb de3d aaff 0fbe
00000170: 8338 1e3e 89cf ef3b 4c85 bdbd c0e9 ac3c
00000180: 8a4d ebbd df1a 10bd 276d 0d3e 2453 d63c
00000190: bb19 3b3d fdaa 1dbd c6ed 8e3d a169 c03d
000001a0: 4c99 34be a728 a5bc 4ec6 3e3d c1e1 2a3d
000001b0: 92bf 853b 0c77 1abe 0df2 1cbc b29c 013e
000001c0: 48b6 51bd ed32 8c3c e2fd fbbb 0b55 c13d
000001d0: 3039 52bd fe55 c63d 660a 46be 4f35 863d
000001e0: f841 4f3e e2bd bebd 84c1 983d 3d0e 2ebe
000001f0: 7d0b 933c 16cf 403d 75fe 0abd a35b c7bd
00000200: 7f28 55bc 67ec 0f3d 125a d83c 0d44 b63d
00000210: 0456 5e3d 9a7d 93bb cbf5 6c3d 6779 73bd
00000220: d78f e73c 2a52 9cbd 84a1 ea3d cd1e a6bd
00000230: 9fab fdbd b62a 363d 06fc 263e 990d e23d
00000240: a120 98bd e6bd 023d a79b 8ebc c0b7 62bd
00000250: 2074 973d 17ad a53c f3d0 4fbd d11f 023e
00000260: e7be 79bd f65e 93bd 3f79 c33c e501 28be
00000270: 94d6 823d 1321 1dba f4ef 843c ec0b 02be
00000280: 0824 52bd e7e2 dd3d cfa5 ad3d 5eb1 6c3d
00000290: 602d e63d 7038 593d cf42 fdbd 0357 b63c
000002a0: 7446 d23d f680 673c 4997 803a 5c92 a7bd
000002b0: 30b7 4cbd 8e1f 0a3e b3f5 e33d 165d adbd
000002c0: d00f 4b3d 6db5 e2bd 6c86 903d f598 00be
000002d0: e1af b63c d992 73be b72f bb3d 79c2 81bd
000002e0: d02c 893d fec2 0c3b 2a92 26bc a4b9 53bd
000002f0: bd80 a93c b61e 873d ed8d 2e3d 09d4 e23b
00000300: 1465 613e aada 27bc 9a6a e63d 8c51 0abe
00000310: 5eed 5dbd fcd7 c63d a2c2 ac3d 8cb6 04be
00000320: 56dc 453d 5cb5 f23d 0642 023b 0cd0 5bbd
00000330: 647c 4c3d 72cc 0b3e 868a 02be ca1f 12be
00000340: f30d f9bb 090e 02be d13b aa3d e387 0a3d
00000350: 8053 853d 12c7 133d 7bae fcbd 6220 e2bd
00000360: 7301 de3c 8607 15be 0d0b 013e 3deb eabb
00000370: a638 013e 61e1 1a3d 16ab b6bd a42a 1a3d
00000380: bac2 24be 890d 1f3e a4a1 51bb deef d73b
00000390: 5c84 693d c806 1dbd 513a 80bd 49c6 ba3e
000003a0: 4670 4b3e e94b 9bbd 1d55 91be d9e1 1d3e
000003b0: 565e 9e3c e0f6 d8bc 5751 08be 8c13 63bd
000003c0: 6bcd 703d 6636 f13c f797 c4bd 12e1 9e3c
000003d0: 988a 70be a1dd b6bd 6241 d1bc 6a85 2e3e
000003e0: 2d0f 40bd 167b 523d 347b 073e c840 51be
000003f0: 2280 1abb 2620 75be d79d 0abd 5d3f 9abc
0.056951806 0.034218993 0.056364328 -0.08690578 -0.21449965 -0.014991609 -0.026374277 0.1117301
0.0014476767 -0.059472498 0.16455595 0.077568814 0.16506205 -0.06909093 0.14456354 -0.13927077
0.16945225 -0.17273697 -0.17964742 0.027241547 0.14568202 -0.12940949 -0.13604337 -0.043617655
0.05009328 -0.12716845 0.05941686 0.16927189 0.09187484 -0.03799409 -0.19258404 0.10323239
0.09114161 -0.13160974 -0.14863643 -0.10465656 0.093482666 0.009225113 0.1339581 -0.027359108
0.13885212 0.15571852 -0.17608058 0.08747797 0.11458117 -0.0820429 0.11801612 -0.11518437
0.06311711 -0.045241073 0.0648142 0.21249424 -0.10845093 0.04337556 -0.10198604 -0.13857497
0.04676805 0.1443795 -0.09824107 0.075257905 0.051024374 -0.005721793 0.014621136 0.076644175
-0.0489107 0.03563906 0.032783274 0.12345984 0.07101348 0.15822127 -0.16325589 -0.10287896
0.14056802 -0.048202425 0.05757493 -0.13595207 0.17251147 0.16912854 0.049547173 -0.11456891
-0.06600794 0.12711963 0.039933365 -0.06918056 -0.047625612 -0.08983849 -0.11599754 0.14162524
0.1518408 -0.13663647 0.108786 -0.14062372 0.15451245 0.0073184413 -0.0925394 0.021107554
-0.11489399 -0.035181876 0.1381117 0.026162691 0.045678835 -0.038493145 0.069789454 0.09395147
-0.17636603 -0.020160986 0.046575837 0.041719202 0.004081675 -0.15084475 -0.009579194 0.12657431
-0.051199228 0.017114127 -0.0076901773 0.09440049 -0.05132407 0.096843705 -0.19339904 0.065531366
0.20240009 -0.09313561 0.07458785 -0.16997619 0.017949814 0.047072493 -0.033934075 -0.09734275
-0.013010143 0.03513756 0.026410136 0.088996984 0.05428125 -0.004501057 0.057851594 -0.05944195
0.02826683 -0.07632859 0.11456588 -0.081113435 -0.1238625 0.044474326 0.16307077 0.1103775
-0.074280985 0.031919383 -0.017408205 -0.05535102 0.07395196 0.020224137 -0.05073638 0.1270745
-0.060973074 -0.07195847 0.023861526 -0.16406973 0.06388584 -0.0005994003 0.0162277 -0.1269986
-0.051303893 0.10834294 0.08478891 0.057786338 0.11239123 0.05303234 -0.12366258 0.022258287
0.10267344 0.014129868 0.0009810711 -0.08182213 -0.04997939 0.134886 0.11130848 -0.0846502
0.049575627 -0.110697605 0.07056889 -0.12558348 0.022300662 -0.23786487 0.0913996 -0.06335921
0.066980004 0.002147853 -0.010166684 -0.051690713 0.02069127 0.065976545 0.04261582 0.006922249
0.22011214 -0.010245005 0.112508014 -0.1350767 -0.05418145 0.097091645 0.08435561 -0.12960261
0.04830583 0.11850998 0.0019875779 -0.053665206 0.049923316 0.13652208 -0.12748155 -0.14269939
-0.00760054 -0.12700666 0.0831219 0.033820998 0.06510067 0.03607852 -0.12337967 -0.11041333
0.0271003 -0.14553651 0.12601872 -0.007169156 0.12619266 0.037812594 -0.08919351 0.03763832
-0.16089907 0.15532507 -0.0031987214 0.0065898737 0.057010993 -0.038336545 -0.06261123 0.36479405
0.19867048 -0.07582838 -0.2838525 0.15418185 0.019332092 -0.026484907 -0.13312279 -0.055438563
0.05878965 0.029444885 -0.095992975 0.019394431 -0.2349037 -0.08928991 -0.025543872 0.17043081
-0.046889473 0.051386915 0.13230592 -0.20434868 -0.0023574908 -0.23938045 -0.033841934 -0.018829042

fc2.bias f4 [16]
00000000: 619e 853e 0ea4 043d 6b67 533c 64c1 9fb9
00000010: c943 353e b6f5 9fbd f927 503d 8165 7b3d
00000020: 9f66 0d3e 8273 b63d 7d86 f03d c6e6 dcbc
00000030: 466f 49bc f7ca a03e 2107 2dbd c5f0 fdbc
0.26097396 0.032383017 0.012903075 -0.0003047093 0.17701639 -0.078105375 0.05081937 0.0613761
0.13808678 0.0890875 0.117444016 -0.02696551 -0.012294596 0.3140485 -0.042243127 -0.030998597

fc3.weight f4 [1, 16]
00000000: 9993 e63d 04e8 3e3e ced4 9a3d e22f 5dbc
00000010: 11bf 443e 24ba 78bd 7de3 a1bd a3a7 043c
00000020: 12a5 4bbc 37bc 2abd fec9 d83c 2aef aabc
00000030: 381a 923c 297c 583d 238f 0fbc 007c 943d
0.11258621 0.18643194 0.075601205 -0.013500186 0.19213511 -0.060724393 -0.07904718 0.008096608
-0.012429493 -0.041683402 0.026463505 -0.020865995 0.017834768 0.052852783 -0.008762154 0.072502136

fc1.weight f4 [32, 7]
00000000: b834 4dbd 58b0 ea3c 48eb d73d fcbf 5abe
00000010: 910e 953d aa9a f3bd 9064 73be b728 2a3e
00000020: 8f9b e5bd 52c8 a2bd 82cc 423e ae25 71bc
00000030: bdf6 283e 1ee6 963e 54bb d7bd 6ee1 ff3d
00000040: 0f63 7c3d 713b f63d 6e93 84be c717 843e
00000050: a58f 213e 3182 7cbe a6c6 e73d 20c4 b5bd
00000060: 7412 13be 55b8 ec3c fcb9 bf3c c930 48be
00000070: ccdb 2b3e ec4b 99bd 4d88 a83c cd52 6e3e
00000080: 89e7 7cbe a361 eebb fe76 c73d 291d 683e
00000090: 3767 17be 2126 a13d 3dc8 583e bf51 02be
000000a0: 9762 9fbd e176 b63d df13 813e 50b4 d0bd
000000b0: 78cd d43d 49a9 96be c82b 483e 4f49 1ebe
000000c0: 2b58 78be d6f2 32be 17f4 d6bc 1cd7 47bd
000000d0: 81bf 7bbd 59d2 f3bd 1064 9dbe 9f75 443e
000000e0: 25e6 c83d c24f 3d3d fd9b c33c 5e00 3d3c
000000f0: f1ad a23d 7a84 593e 849f 87bc ce43 00be
00000100: 8d40 08bd 875e 26be 605f 893e 57ca 573e
00000110: 412b 6ebc 226d acbd 57b4 16be c517 403d
00000120: 389b 1dbe 5ebd 95bc e102 353e 4556 8a3d
00000130: 6638 733d d0c7 803d 95c6 4b3d 7468 273d
00000140: fa21 aa3d 682c 04be 13af 5c3e 62fb 2dbd
00000150: 4a53 0d3d ac08 81be f5cd 9abd f38d 72be
00000160: 18ad 293e 4011 a5be bd89 ac3e 12af 813e
00000170: e669 10be fa14 9e3d 4221 84be 4fe1 87bc
00000180: 11e1 68bd 3eda c7bd 8491 d0ba 4c1e 243b
00000190: 65e4 45bb dc4c 493e a8fc 973a 3d60 8c3e
000001a0: fca8 acbb e88c a73e 1c44 27be 60a0 003e
000001b0: 70d6 133e 824e e5bc 2803 49bc 4e63 643e
000001c0: f279 f43d c1b2 613d dcb0 523e 3e50 7e3e
000001d0: a694 32be 7847 31be 6d15 4abe c630 cc3d
000001e0: c6b4 8c3d 9a9d 403e 51af 1d3e c528 01be
000001f0: 0fec 33be 0e37 83be 4831 c4bc ef02 323e
00000200: 4b09 553d a056 2b3e 7614 efbd 4f15 613e
00000210: 44ba 6ebe c0b3 57be b951 f93d 79a4 bbbd
00000220: 9d44 183e 6c24 70be 31e3 2abe df20 5d3e
00000230: 2a7b 6abe 1921 713d ca9a 7c3d 1a52 8e3d
00000240: 975f 81be 27a9 6dbe 47a5 7fbd d7a3 0dbe
00000250: f7ec 9a3d 9a3b 4cbd 50ae 7abd 3213 2e3e
00000260: d3b7 de3e aa11 25bd a8f0 533e d1b7 f5bd
00000270: e9e9 b13d f174 03be e40a 7c3e 2bac d73d
00000280: 4689 5bbe 0612 f23d 4a55 07be 8aee 8dbd
00000290: b74f 09be e89e 913e fa04 94be 62dc 31be
000002a0: 4000 383e 8925 c0bd 8a9f 7d3d 45e9 05bd
000002b0: 0bc7 453e 4a6b d1bd 7370 2abe 452c 353e
000002c0: d323 d8bb 6785 173d ba01 0fbd bab8 173e
000002d0: 428c 88be 70a1 03be 854b 323e 15fc 15bd
000002e0: cb29 d3bd e8e1 5ebd 1bf9 843e 47f2 823e
000002f0: 2532 d9bc fa3b 723e 2ea2 60bd 781c 92bd
00000300: 2518 11bc b9a8 803e 9547 503e b184 793d
00000310: 7d13 2dbc 2445 903c 74e0 f4b9 01e9 98be
00000320: df8e 353b 1620 71bd 3f74 7bbd 9536 9ebe
00000330: e968 113e facd 0abe f2b1 7f3e f945 73be
00000340: c508 523d e213 973e 5585 25be cc90 83bd
00000350: 5850 8cbe aec4 9abe d8d3 673e f821 3d3e
00000360: 9b59 753e b884 03be d678 493d f087 ce3c
00000370: a21a 8abe 642d 123e 1d92 36be 1c30 76be
-0.050099105 0.02864854 0.10542923 -0.21362299 0.07278169 -0.11894734 -0.2376883 0.16617094
-0.11211311 -0.07948364 0.19023326 -0.014718456 0.16500373 0.2947244 -0.10533777 0.12494169
0.061617907 0.12023056 -0.2589373 0.2579939 0.15777452 -0.24659039 0.11317186 -0.088752985
-0.14362508 0.02889649 0.023404114 -0.1954986 0.16783065 -0.07485184 0.020572806 0.23273773
-0.24697699 -0.007274823 0.09739493 0.22667374 -0.14785467 0.07868601 0.21170135 -0.12726496
-0.077824764 0.08909393 0.25210473 -0.10190642 0.103907526 -0.2942603 0.19547951 -0.15457653
-0.24252383 -0.17475447 -0.026239438 -0.04878913 -0.06146193 -0.11905355 -0.30740404 0.19185494
0.098095216 0.04621864 0.023878092 0.011535732 0.07943333 0.21241942 -0.016555555 -0.12525865
-0.033264685 -0.16246997 0.26830578 0.2107328 -0.01453668 -0.08419253 -0.14717232 0.04689767
-0.15391243 -0.018278774 0.1767688 0.06754736 0.059379958 0.06288111 0.04974993 0.0408711
0.08307262 -0.12907565 0.2155116 -0.042476065 0.03450326 -0.2520193 -0.075588144 -0.23686962
0.16569936 -0.32239723 0.33698836 0.2532888 -0.14102897 0.07718845 -0.25806624 -0.016586928
-0.056855265 -0.09758423 -0.0015912508 0.0025042472 -0.0030195948 0.19658226 0.0011595683 0.27417174
-0.005269168 0.3272469 -0.16334575 0.12561178 0.1443727 -0.027991537 -0.012268819 0.22303507
0.11937322 0.055102114 0.20575279 0.24835297 -0.17439517 -0.1731242 -0.19734736 0.0997024
0.06870417 0.1881012 0.15398909 -0.12613209 -0.17570518 -0.2562794 -0.02394928 0.17383932
0.052010816 0.16732264 -0.116738245 0.21980785 -0.23313242 -0.21064663 0.121737905 -0.0916223
0.14869924 -0.23451394 -0.16688229 0.2159457 -0.22898546 0.058869455 0.061671056 0.069492534
-0.25268242 -0.23209058 -0.06241348 -0.13832031 0.07564729 -0.049861528 -0.061201394 0.1699951
0.43499622 -0.04030005 0.20697272 -0.11997951 0.08687193 -0.12837578 0.2461353 0.10530885
-0.21439084 0.11819844 -0.13216129 -0.06930263 -0.13409315 0.28441548 -0.28910047 -0.17369226
0.17968845 -0.09382159 0.061919726 -0.032693166 0.1931421 -0.10225542 -0.16644458 0.17692669
-0.0065960675 0.036992457 -0.034913756 0.14816561 -0.26669508 -0.12854552 0.17411621 -0.036617357
-0.10310706 -0.05441466 0.25971302 0.25575468 -0.026513169 0.23655692 -0.054842167 -0.07134336
-0.008855854 0.25128725 0.20339806 0.06091756 -0.010563728 0.017611094 -0.00046706537 -0.29865268
0.0027703566 -0.05886849 -0.061390158 -0.30901018 0.14200176 -0.13555136 0.24970224 -0.23757161
0.051277895 0.29507357 -0.16164143 -0.06424102 -0.27405047 -0.3022818 0.22639406 0.1846999
0.23959963 -0.12843597 0.049187504 0.025211304 -0.26973444 0.14275128 -0.17829175 -0.2404179

fc1.bias f4 [32]
00000000: d4f5 893d cd86 213e 28bc b5bd 7113 6b3e
00000010: 6e05 953e 1baa 263d 3bf4 a63e 3f66 78be
00000020: de4a 103f 5435 6b3e 40c2 ac3e 10ee 143e
00000030: 94a1 8c3e db78 30be 61e6 0f3f 04c8 d9be
00000040: 6818 c33e 6071 fa3d 16ee 36be 2bbc da3e
00000050: 5dc2 c93e fbb3 1dbe c67f 50be 7b0d ca3d
00000060: 2314 083f d6d9 0bbd 1e23 a2bd 5588 34be
00000070: 5c4e 973e 8489 1abe 3f0e b1be 56c9 103e
0.06736341 0.15774079 -0.088737786 0.22956635 0.29105705 0.04068957 0.32608208 -0.24257754
0.5636424 0.22969562 0.3374195 0.14543939 0.27467024 -0.17233603 0.56210905 -0.42535412
0.38104558 0.12228656 -0.1786426 0.42721686 0.394061 -0.15400688 -0.20361242 0.098658524
0.53155726 -0.03414329 -0.07916854 -0.17630132 0.2955197 -0.1509152 -0.3458118 0.14139304

fc2.weight f4 [16, 32]
00000000: cab9 693d 4b9a 0c3d e63f 673d dac4 b1bd
00000010: 8595 5bbe 8f78 73bc 42fc d6bc 55e8 e43d
00000020: 8f5c cb3a 7251 73bd 82a2 283e 5010 9f3d
00000030: 501b 293e 3f3a 8dbd aa23 143e 9d78 0ebe
00000040: 0aa0 2d3e 3cc8 30be 29da 37be a2ee df3c
00000050: 2b4d 153e 676d 04be 7c2f 0bbe 6e5e 32bd
00000060: 5da9 4d3d 9a30 02be ccd4 733d 6074 2d3e
00000070: a35b bc3d 3406 1bbd ef16 45be 94a2 d33d
00000080: b9e2 ba3d baa8 06be 0f1c 18be 4f1f d6bd
00000090: 9796 bf3d be78 193c e84e 093e a3cc dfbc
000000a0: 844a 0e3e 2987 1f3e 762d 34be e95b b33d
000000b0: 5bd3 ea3d 82bf a7bd f5e8 f13d 2a9a ebbd
000000c0: 2a7e 813d f4dd 38bd 4bf5 843d 68b0 593e
000000d0: e9dc ddbd a704 323d 809e d0bd 5bd4 0dbe
000000e0: a40b 403d a3e0 133e 0ef8 c8bd b65d 9a3d
000000f0: 6364 513d 68bd b6bb 5969 713c d12e 9d3d
00000100: 2cdf 47bd a266 123d dca2 063d 3c10 fd3d
00000110: 5891 913d 9a2a 223e db09 27be 1ca7 d2bd
00000120: 320c 103e 0123 45bd 7457 6c3d 5f1d 0bbe
00000130: 96bc 303e bb53 2d3e 375d 4b3d f758 eabd
00000140: c5f2 86bd cc48 023e 6e03 243d d182 8dbd
00000150: 0c9b 42bd f4d0 b7bd 7851 edbd 3919 113e
00000160: 1c9b 1b3e 38e1 0bbe 2205 df3d 22e2 0fbe
00000170: 5252 1e3e 8e15 f43b e449 bdbd cecc ad3c
00000180: e76a ebbd f267 10bd c663 0d3e d7d4 d53c
00000190: 0928 3b3d 1513 1ebd 0cb6 8e3d 0b61 c03d
000001a0: d897 34be 27b2 a7bc ae77 3e3d d800 2b3d
000001b0: e96d 843b 424d 1abe 3ce7 1cbc 6367 013e
000001c0: 040e 52bd f80c 8c3c e0a2 f7bb 2921 c13d
000001d0: 28cf 52bd 9259 c63d c0c5 45be a911 863d
000001e0: 8f3b 4f3e 95fd bdbd d7bf 983d e722 2ebe
000001f0: 49d7 923c 7546 403d 3574 0bbd 1c9b c7bd
00000200: e456 53bc 8c5c 103d 4f1b d93c 197b b63d
00000210: 5a9b 5e3d 76d6 8ebb 3280 6d3d c94f 73bd
00000220: c269 e83c 532d 9cbd c1e3 ea3d a4ea a5bd
00000230: df81 fdbd f6b7 363d 3b17 273e 5459 e23d
00000240: 1be6 97bd a82e 033d 13bc 8dbc a956 62bd
00000250: d1b2 973d 5961 a63c cb51 4fbd 2132 023e
00000260: 5143 79bd 254e 93bd b763 c43c 8de3 27be
00000270: 4709 833d e229 eeb9 48de 853c 5ff0 01be
00000280: 7ecb 52bd 5eee dd3d b395 ad3d 37ce 6c3d
00000290: e70c e63d 3fae 583d af8a fdbd 08ec b73c
000002a0: 8126 d23d a08d 6a3c efc4 703a e1af a7bd
000002b0: a3db 4cbd 1803 0a3e 11e1 e33d 809b adbd
000002c0: 4be2 4a3d 2ae0 e2bd 5584 903d 42b6 00be
000002d0: 439d b63c b18c 73be 17bf ba3d 0a92 81bd
000002e0: b609 893d ad1d 0f3b 1de0 27bc 66e9 53bd
000002f0: ce04 a93c 382c 873d 3fa0 2e3d 6c3f e03b
00000300: d749 613e 1608 2abc c730 e63d 706e 0abe
00000310: ad44 5ebd 0676 c63d 0c80 ac3d 50b4 04be
00000320: b164 453d f88e f23d 9bdc f23a 5347 5cbd
00000330: c932 4c3d 14aa 0b3e 8ea9 02be b35b 12be
00000340: 6cd8 fcbb ad29 02be e005 aa3d aa2f 0a3d
00000350: db18 853d b75d 133d bbee fcbd 9441 e2bd
00000360: 9a0b dd3c 200e 15be 17ea 003e 5140 efbb
00000370: 821f 013e 194b 1a3d 72ed b6bd a8c0 193d
00000380: b189 24be 1207 1f3e 5105 4fbb 3da2 cf3b
00000390: 04db 693d 5731 1cbd a801 80bd e1a9 ba3e
000003a0: 3f7a 4b3e 2110 9dbd 2b53 91be dbef 1d3e
000003b0: 6740 9e3c da41 d8bc a94a 08be 1585 62bd
000003c0: e36c 713d c5bc f33c 8c5a c4bd 18e7 9e3c
000003d0: d6b3 70be fa2d b7bd 5a67 d0bc fb77 2e3e
000003e0: 1ac6 3fbd a3cf 523d 2672 073e a64d 51be
000003f0: e85e 1bbb d045 75be 01a5 0bbd b9d4 99bc
0.057061948 0.034326833 0.056457423 -0.086801246 -0.21443756 -0.014860286 -0.026243333 0.11177126
0.0015515256 -0.059403844 0.16468242 0.07766783 0.16514325 -0.06895875 0.1446673 -0.13913198
0.16955581 -0.17263883 -0.17954315 0.027335469 0.14580218 -0.12932359 -0.13592333 -0.043547086
0.050210346 -0.12713853 0.05952911 0.16938925 0.09197166 -0.037847713 -0.1924703 0.10333744
0.09125275 -0.13150302 -0.14854454 -0.104551904 0.093548946 0.009367166 0.13409007 -0.027319258
0.13895613 0.15578903 -0.17595467 0.08757765 0.11466094 -0.08190824 0.11812011 -0.11504014
0.06322892 -0.045133546 0.064920984 0.212587 -0.10833151 0.043461468 -0.101864815 -0.13850538
0.0468861 0.14441161 -0.09812938 0.07537405 0.051121127 -0.005576778 0.0147345895 0.07674945
-0.048796818 0.03574241 0.03287016 0.12356612 0.071078 0.15836564 -0.16312353 -0.1028578
0.14067152 -0.048129085 0.05770059 -0.13585423 0.1725944 0.16926472 0.049649443 -0.1144275
-0.06589273 0.12723082 0.040042333 -0.06909717 -0.047511145 -0.089754015 -0.115878046 0.14169778
0.15195888 -0.13660133 0.10889651 -0.14051107 0.1546109 0.0074488586 -0.09242609 0.021215823
-0.114949994 -0.03525538 0.13807592 0.026102467 0.045692477 -0.038592417 0.069683164 0.093935095
-0.17636049 -0.020470692 0.046500854 0.04174885 0.0040414226 -0.15068534 -0.009576615 0.12637095
-0.051282898 0.017096028 -0.007557258 0.09430153 -0.05146709 0.09685053 -0.19313717 0.06546337
0.20237564 -0.092768826 0.074584655 -0.17005502 0.017924922 0.046942193 -0.03404637 -0.09746382
-0.012899134 0.03524451 0.02650228 0.08910198 0.054347374 -0.004359062 0.057983585 -0.05940226
0.028370742 -0.076258324 0.11469222 -0.08101395 -0.123782866 0.044609033 0.16317455 0.11052194
-0.07416936 0.032026917 -0.017301595 -0.055258427 0.074071534 0.02031009 -0.050615113 0.12714435
-0.060855214 -0.07192639 0.023973329 -0.16395397 0.06398254 -0.00045426103 0.016341344 -0.1268935
-0.051463597 0.108364806 0.084758185 0.05781385 0.1123293 0.05290055 -0.123799674 0.022451416
0.1026125 0.014315993 0.0009184619 -0.08187843 -0.05001415 0.13477743 0.111269124 -0.08476925
0.049532216 -0.11077912 0.0705649 -0.12569526 0.022291785 -0.23784138 0.09118479 -0.06326683
0.06691305 0.0021837757 -0.010246304 -0.051736258 0.020632174 0.06600231 0.04263329 0.006843498
0.22000824 -0.010377904 0.11239772 -0.13518691 -0.054264713 0.0969048 0.084228605 -0.12959409
0.04819173 0.118436754 0.001852888 -0.053778958 0.04985312 0.13639098 -0.12759992 -0.14292793
-0.007716229 -0.1271121 0.08301902 0.033736862 0.064988814 0.035978045 -0.12350222 -0.11047664
0.026983071 -0.1455617 0.12589298 -0.0073013683 0.12609676 0.037669275 -0.08932008 0.037537247
-0.1606815 0.15530041 -0.0031588862 0.006336479 0.057093635 -0.03813299 -0.06250316 0.36457732
0.19870852 -0.07669092 -0.28383765 0.15423529 0.019317819 -0.026398588 -0.1330973 -0.0553027
0.058941733 0.029753098 -0.09587583 0.019397303 -0.23506102 -0.08944316 -0.025439907 0.17037956
-0.046819784 0.05146755 0.13227138 -0.20439777 -0.0023707692 -0.23952413 -0.034092907 -0.018778192

fc2.bias f4 [16]
00000000: c7a9 853e 5dfe 043d 3bd0 543c d8ca a3b9
00000010: 4e5a 353e 9708 a0bd 2ac8 4f3d d16d 7b3d
00000020: fe53 0d3e 5f4d b63d 6db9 f03d e18e ddbc
00000030: c82b 48bc 3fd6 a03e c89b 2dbd ae36 fdbc
0.26106092 0.032469142 0.012989099 -0.00031240913 0.1771023 -0.078141384 0.050728 0.061384026
0.13801572 0.08901476 0.11754117 -0.027045669 -0.0122174695 0.31413457 -0.042384893 -0.030909862

fc3.weight f4 [1, 16]
00000000: 99cb e63d 7d02 3f3e 730e 9b3d 271c 5cbc
00000010: 4cdc 443e 5db1 78bd 38b6 a1bd d36b 053c
00000020: 07f6 48bc 7cb2 2abd 548e d93c f977 aabc
00000030: 62fa 913c 1de9 583d 0f6c 0bbc 81be 943d
0.11269302 0.18653293 0.07571115 -0.013434446 0.19224662 -0.06071602 -0.078960836 0.008143383
-0.012265689 -0.041674122 0.026557125 -0.02080916 0.017819587 0.05295669 -0.00850965 0.07262898
