logs/sdf_single_scene_3_spheres_min_distance_overall/state_16.pt (torch, 10383 bytes, 10 tensors)

fc1.weight f4 [32, 7]
-0.04071999 0.059214372 0.22968915 -0.28689572 0.10294115 -0.050825194 -0.25087506 0.26823822
-0.20689918 -0.11620332 0.17500927 -0.020686548 0.16957764 0.3637919 -0.11549513 0.143735
0.13106908 0.13192233 -0.26311642 0.2562323 0.09900222 -0.2303801 0.09294814 -0.10683225
-0.15993208 0.029367104 0.038843952 -0.24377443 0.1544956 -0.062285233 -0.0041711754 0.23318654
-0.28650355 0.031694356 0.09219361 0.2755296 -0.14135025 0.27566874 0.0899123 -0.13367042
-0.03336341 0.13501038 0.2638362 -0.11128832 0.106948204 -0.31526342 0.14330266 -0.178604
-0.23994374 -0.20161854 0.034966607 0.01574659 0.11005155 -0.15663233 -0.23836565 0.29944435
0.116714336 0.050043266 0.020594824 0.007279733 0.08443659 0.22495511 0.014594725 -0.10886379
-0.0272737 -0.17714763 0.26036835 0.29272524 0.024405593 -0.20645086 -0.18544556 0.06872653
-0.2211636 -0.023981249 0.19511868 0.078926705 0.08210238 0.12704104 -0.066873565 0.09087647
0.1093723 -0.15747502 0.34801632 -0.04520189 0.04111587 -0.2665868 -0.06578163 -0.22772704
0.1642862 -0.3162398 0.34089318 0.28083432 -0.1415054 0.11263033 -0.30214563 -0.06627807
-0.02099474 -0.14286816 -0.008752753 0.0071385466 -0.0048073824 0.2136343 0.012709071 0.28551155
-0.00660765 0.33263135 -0.16347209 0.22214815 0.12935601 0.047137614 -0.050309792 0.21953692
0.1134495 0.087313764 0.17719854 0.21276252 -0.11963592 -0.15518706 -0.18911768 0.11663408
0.22147441 0.2804895 0.07219509 -0.066960424 -0.18222871 -0.3727511 -0.03197859 0.19531763
0.04622742 0.19023325 -0.1253777 0.20795934 -0.25215718 -0.20259324 0.13253368 -0.11377908
0.11768216 -0.22733104 -0.1962764 0.20902155 -0.23138262 0.0068819155 0.041204944 0.11029565
-0.25551084 -0.18273136 -0.070841916 -0.1830815 0.099610016 -0.04907259 -0.031844206 0.21590184
0.4322775 -0.058967225 0.20822053 -0.13040932 0.099025734 -0.13393934 0.2586494 0.085269116
-0.22891794 0.12875564 -0.0980529 -0.12345244 -0.10881884 0.28800657 -0.2887581 -0.2155925
0.18643343 -0.11335958 0.05284703 -0.0061590616 0.25308368 -0.11501387 -0.18891157 0.25817338
-0.09659623 0.015945671 0.026135089 0.19839689 -0.274615 -0.16360384 0.21781024 -0.1453707
-0.10887621 -0.14942282 0.27798662 0.30087215 -0.03551648 0.26830274 -0.0047495114 -0.0811923
0.019624721 0.27944425 0.22351205 0.073849775 0.00082960044 0.02363172 0.034347128 -0.30565524
0.008026287 -0.050516546 -0.061538 -0.33259106 0.16172789 -0.15643972 0.2460099 -0.21856542
0.01514473 0.32177338 -0.21633089 -0.022492297 -0.3487114 -0.31636363 0.23762265 0.17453355
0.2716284 -0.13339356 0.049063478 0.09825729 -0.30040082 0.08708858 -0.17028438 -0.28985083
00000000: 01ca 26bd c58a 723d a233 6b3e ffe3 92be
00000010: cfd2 d23d 142e 50bd b272 80be 8556 893e
00000020: 61dd 53be 02fc edbd a135 333e d676 a9bc
00000030: c3a5 2d3e ef42 ba3e b688 ecbd 452f 133e
00000040: f936 063e a616 073e 32b7 86be e130 833e
00000050: adc1 ca3d c3e8 6bbe 985b be3d deca dabd
00000060: 3cc5 23be 4893 f03c d61a 1f3d 01a0 79be
00000070: 1834 1e3e cd1e 7fbd 5bae 88bb 74c8 6e3e
00000080: 98b0 92be f1d1 013d 01d0 bc3d 3712 8d3e
00000090: 1fbe 10be 7424 8d3e f123 b83d e6e0 08be
000000a0: 12a8 08bd 2940 0a3e 8a15 873e 21eb e3bd
000000b0: a907 db3d 356a a1be efbd 123e f8e3 36be
000000c0: d0b3 75be 1775 4ebe 2539 0f3d fefe 803c
000000d0: b562 e13d 3a64 20be 2016 74be c550 993e
000000e0: ed07 ef3d 2bfa 4c3d 7ab6 a83c d48a ee3b
000000f0: 17ed ac3d a25a 663e b71e 6f3c fbf3 debd
00000100: 186d dfbc 3066 35be 004f 853e 15e0 953e
00000110: 3dee c73c db67 53be 71e5 3dbe 7fc0 8c3d
00000120: b678 62be 5374 c4bc 31cd 473e 53a4 a13d
00000130: 4b25 a83d 0c17 023e 02f5 88bd 711d ba3d
00000140: 96fe df3d 2241 21be 322f b23e 9e25 39bd
00000150: 1d69 283d 117e 88be 85b8 86bd 4731 69be
00000160: a43a 283e 2fea a1be 8d89 ae3e 84c9 8f3e
00000170: cbe6 10be bbaa e63d d5b2 9abe ccbc 87bd
00000180: 29fd abbc 084c 12be b567 0fbc 78ea e93b
00000190: 3f87 9dbb f3c2 5a3e b539 503c 922e 923e
000001a0: fc84 d8bb a84e aa3e 3a65 27be ce7a 633e
000001b0: e775 043e 5f13 413d a411 4ebd 49ce 603e
000001c0: 3658 e83d 8fd1 b23d 8973 353e 6bde 593e
000001d0: ad03 f5bd 5be9 1ebe 11a8 41be d9dd ee3d
000001e0: 30ca 623e 529c 8f3e 05db 933d 8c22 89bd
000001f0: 2a9a 3abe 3bd9 bebe fbfb 02bd 5801 483e
00000200: f758 3d3d 81cc 423e 0363 00be 4bf3 543e
00000210: bf1a 81be 9a74 4fbe e9b6 073e 0205 e9bd
00000220: 5803 f13d 78c9 68be aefc 48be bf09 563e
00000230: 91ef 6cbe b181 e13b 84c6 283d b0e2 e13d
00000240: 51d2 82be ee1d 3bbe 9115 91bd b779 3bbe
00000250: 5600 cc3d 5700 49bd 126f 02bd 5f15 5d3e
00000260: 7a53 dd3e 9e87 71bd c337 553e 058a 05be
00000270: 01ce ca3d 6527 09be b26d 843e 93a1 ae3d
00000280: 7769 6abe 85d8 033e f5cf c8bd a2d4 fcbd
00000290: 69dc debd 9975 933e 1ad8 93be 48c4 5cbe
000002a0: 68e8 3e3e 1129 e8bd 2176 583d f4d1 c9bb
000002b0: 2f94 813e 648c ebbd 0972 41be 4d2f 843e
000002c0: 3fd4 c5bd 7fa0 823c 4119 d63c 8e28 4b3e
000002d0: 569a 8cbe c487 27be a609 5f3e 0fdc 14be
000002e0: 7efa debd 4c02 19be 4354 8e3e ea0b 9a3e
000002f0: bb79 11bd fa5e 893e caa1 9bbb 2648 a6bd
00000300: 06c4 a03c 5113 8f3e 58e0 643e 8d3e 973d
00000310: 8b79 593a 4f97 c13c 93af 0c3d d87e 9cbe
00000320: b080 033c 70ea 4ebd 450f 7cbd 6049 aabe
00000330: ff9b 253e bc31 20be 05ea 7b3e 9dcf 5fbe
00000340: 9a21 783c 7bbf a43e d885 5dbe c441 b8bc
00000350: 4d8a b2be 6afa a1be 5a53 733e ecb8 323e
00000360: e112 8b3e 5298 08be c9f6 483d 1e3b c93d
00000370: 23ce 99be 7f5b b23d 075f 2ebe 5467 94be

fc1.bias f4 [32]
0.11727201 0.18044984 -0.09004652 0.22744878 0.29981044 0.16485421 0.3079693 -0.32000673
0.555713 0.28160036 0.3415071 0.29386806 0.30543798 -0.13289742 0.5438895 -0.4193332
0.46750572 -0.06696352 -0.13066114 0.42922503 0.43051025 -0.16463526 -0.19429728 0.06541295
0.5229878 -0.040321603 -0.006102384 -0.13322942 0.28691489 -0.14708215 -0.3126408 0.15433489
00000000: 4f2c f03d d8c7 383e 4f6a b8bd 55e8 683e
00000010: c180 993e 8bcf 283e 27ae 9d3e ecd7 a3be
00000020: 3543 0e3f ec2d 903e 05da ae3e e075 963e
00000030: 5e62 9c3e 4316 08be 583c 0b3f d7b2 d6be
00000040: e95c ef3e 2c24 89bd 09cc 05be 62c3 db3e
00000050: d76b dc3e 2596 28be def5 46be 3af7 853d
00000060: 87e2 053f 4428 25bd 82f6 c7bb 4b6d 08be
00000070: 82e6 923e b49c 16be 7412 a0be f709 1e3e

fc2.weight f4 [16, 32]
0.060418826 0.03524833 0.06412872 -0.0869817 -0.20380554 -0.015116534 -0.016469112 0.12112285
0.0016559609 -0.06084835 0.17680702 0.07805974 0.16498992 -0.07173198 0.14558223 -0.14211862
0.17398165 -0.17853184 -0.17422654 0.02160767 0.15479808 -0.13741627 -0.14082329 -0.05108874
0.058327895 -0.12845808 0.05949466 0.163166 0.08896086 -0.023173265 -0.19227825 0.10413801
0.09523473 -0.13105159 -0.14123225 -0.10370705 0.10451373 0.010136087 0.14407675 -0.018337727
0.13918495 0.15638448 -0.16300191 0.08795152 0.114026755 -0.08452605 0.1192196 -0.11738833
0.06876505 -0.049753923 0.07082149 0.20657143 -0.0995977 0.03622015 -0.10626368 -0.14561315
0.055274356 0.1435048 -0.09783295 0.06910933 0.04836743 0.008927672 0.015772764 0.07844717
-0.04379871 0.032951843 0.03635479 0.124751605 0.07977793 0.16015552 -0.15273647 -0.10924934
0.14013536 -0.048265513 0.0689084 -0.13654292 0.17251222 0.1673305 0.0490361 -0.116804145
-0.05863703 0.12372366 0.046125527 -0.08152193 -0.040973082 -0.09842626 -0.120655395 0.13526832
0.16030978 -0.13650846 0.10844934 -0.14847969 0.15273981 0.009958132 -0.093017235 0.023963222
-0.12673843 -0.061685488 0.13680707 0.04428764 0.03763428 -0.05060991 0.010170638 0.08529545
-0.17120616 -0.08012333 0.04406264 0.04827491 -0.0024705366 -0.091478 -0.0051634456 0.09877542
-0.070475556 0.013708797 0.015074099 0.09564662 -0.052594043 0.113293864 -0.11401369 0.12142083
0.15541302 -0.066195786 0.08868091 -0.21657617 0.03764515 0.024173059 -0.047640108 -0.07668426
-0.009466942 0.03574321 0.033861093 0.08998455 0.065266185 -0.0039584287 0.067208044 -0.050429367
0.028442929 -0.075924754 0.1277359 -0.08064219 -0.1249681 0.041395888 0.16425735 0.107663296
-0.069000825 0.026754688 -0.011604958 -0.06124162 0.082835115 0.013126053 -0.055890467 0.1185582
-0.053265966 -0.07564164 0.024016742 -0.17061518 0.06102363 0.014081984 0.01755908 -0.12570846
-0.053291306 0.12639941 0.08885022 0.070320256 0.108178735 0.06517356 -0.14088286 0.06857897
0.09819256 0.038260534 -0.038406007 -0.084298566 -0.073790155 0.14638579 0.11061894 -0.06566866
0.08814486 -0.110468306 0.08602616 -0.14407268 -0.008263702 -0.20618461 0.07897256 -0.053045545
0.06573038 -0.01608347 -0.023402339 -0.06768639 0.014114506 0.11015342 0.060994357 0.0214467
0.21816823 -0.021666128 0.099157065 -0.13663906 -0.07413453 0.08688668 0.07595358 -0.13512957
0.045745783 0.117773965 -0.01271655 -0.05951143 0.053754117 0.14020611 -0.13352606 -0.1654504
-0.013665367 -0.120951064 0.08082184 0.040975247 0.057507683 0.041163262 -0.118785426 -0.10170678
0.019263877 -0.14274237 0.12302847 -0.0037634769 0.13031106 0.019052397 -0.09191995 0.03797617
-0.17447457 0.15452518 -0.007827422 -0.03501299 0.0689334 -0.03605945 -0.04837341 0.100190066
0.19536166 -0.12218787 -0.17854995 0.16207731 0.0067343595 -0.021943647 -0.12576388 -0.07323306
0.020658145 0.093106955 -0.07757511 -0.016374823 -0.25300214 -0.13715026 -0.030910026 0.16839625
-0.051289212 0.082111344 0.13380477 -0.21903938 -0.027538385 -0.33358064 -0.082593374 -0.043021094
00000000: bb79 773d 8e60 103d eb55 833d 7623 b2bd
00000010: 66b2 50be 57ab 77bc 3bea 86bc 420f f83d
00000020: d40c d93a 1f3c 79bd e60c 353e c9dd 9f3d
00000030: 1ef3 283e 37e8 92bd 8213 153e 8b87 11be
00000040: 3f28 323e 0dd1 36be 7168 32be 9102 b13c
00000050: 6383 1e3e dab6 0cbe fb33 10be 6d42 51bd
00000060: 3be9 6e3d 848a 03be acb0 733d fd14 273e
00000070: 1d31 b63d dcd5 bdbc 97e4 44be 4f46 d53d
00000080: 6d0a c33d 6332 06be 309f 10be 5d64 d4bd
00000090: 4b0b d63d d511 263c db88 133e 0039 96bc
000000a0: 8086 0e3e 4123 203e f9e9 26be ed1f b43d
000000b0: dc86 e93d fe1b adbd 6829 f43d 4b69 f0bd
000000c0: b1d4 8c3d c5ca 4bbd db0a 913d 7687 533e
000000d0: e1f9 cbbd 945b 143d c6a0 d9bd 9d1b 15be
000000e0: 5d67 623d ecf2 123e a45c c8bd 3189 8d3d
000000f0: ed1c 463d 5f45 123c e235 813c e9a8 a03d
00000100: 4766 33bd 83f8 063d c3e8 143d c57d ff3d
00000110: 9d62 a33d cfff 233e f366 1cbe 1ebe dfbd
00000120: a57f 0f3e 0fb2 45bd d91f 8d3d e8d1 0bbe
00000130: 0ba7 303e b058 2b3e 14da 483d 0337 efbd
00000140: 622d 70bd d562 fd3d 1fee 3c3d f8f4 a6bd
00000150: 64d3 27bd b593 c9bd 2d1a f7bd c783 0a3e
00000160: 3f28 243e e0c8 0bbe b01a de3d 0f0b 18be
00000170: d367 1c3e 6f27 233c d27f bebd 854e c43c
00000180: b8c7 01be eca9 7cbd 2717 0c3e f566 353d
00000190: 6726 1a3d 564c 4fbd bfa2 263c 62af ae3d
000001a0: ab50 2fbe b317 a4bd 077b 343d e9bb 453d
000001b0: bae8 21bb d158 bbbd 1f32 a9bb c44a ca3d
000001c0: 7d55 90bd dd9a 603c 5bf9 763c 60e2 c33d
000001d0: da6c 57bd 9d06 e83d 0280 e9bd 7cab f83d
000001e0: 9724 1f3e a891 87bd 569e b53d 25c6 5dbe
000001f0: cd31 1a3d 9406 c63c 4622 43bd a30c 9dbd
00000200: 3c1b 1bbc 7967 123d eeb1 0a3d d249 b83d
00000210: 47aa 853d b5b5 81bb 5fa4 893d 068f 4ebd
00000220: 2501 e93c 707e 9bbd 33cd 023e bc27 a5bd
00000230: 46ef ffbd bc8e 293d 1433 283e 937e dc3d
00000240: 4e50 8dbd a62c db3c b922 3ebc 7ed8 7abd
00000250: 75a5 a93d a80e 573c 67ed 64bd a4ce f23d
00000260: 6a2d 5abd 01ea 9abd c2be c43c bfb5 2ebe
00000270: eaf3 793d 1fb8 663c 0fd8 8f3c b8b9 00be
00000280: fc47 5abd d96e 013e 1bf7 b53d 1104 903d
00000290: d08c dd3d b779 853d 9943 10be 2273 8c3d
000002a0: 2e19 c93d 14b7 1c3d 9e4f 1dbd baa4 acbd
000002b0: 4b1f 97bd 28e6 153e 2f8c e23d 4a7d 86bd
000002c0: 4b85 b43d 353d e2bd 7c2e b03d ca87 13be
000002d0: 7a64 07bc 0f22 53be 5ebc a13d 4946 59bd
000002e0: a69d 863d 7bc1 83bc 43b6 bfbc 299f 8abd
000002f0: 8740 673c 1e98 e13d 38d5 793d fdb0 af3c
00000300: 7e67 5f3e 2a7d b1bc dc12 cb3d 1ceb 0bbe
00000310: d8d3 97bd a5f1 b13d 8d8d 9b3d 685f 0abe
00000320: ee5f 3b3d 7a33 f13d 1459 50bc 42c2 73bd
00000330: 472d 5c3d 3192 0f3e 0ebb 08be d46b 29be
00000340: b4e4 5fbc 31b5 f7bd ec85 a53d a9d5 273d
00000350: 2d8d 6b3d cf9a 283d c645 f3bd a54b d0bd
00000360: 47cf 9d3c 0e2b 12be 5af6 fb3d aaa4 76bb
00000370: 4370 053e c613 9c3c 8740 bcbd e78c 1b3d
00000380: 76a9 32be d93b 1e3e 963e 00bc c869 0fbd
00000390: f42c 8d3d 13b3 13bd 3223 46bd 7330 cd3d
000003a0: e30c 483e a23d fabd ccd5 36be 98f7 253e
000003b0: e7ab dc3b 2ac3 b3bc 3fc8 00be 37fb 95bd
000003c0: 453b a93c dcae be3d b3df 9ebd 7e24 86bc
000003d0: 7f89 81be 1e71 0cbe 0637 fdbc 1170 2c3e
000003e0: a314 52bd fe29 a83d 1e04 093e dc4b 60be
000003f0: 2e98 e1bc 15cb aabe b726 a9bd e336 30bd

fc2.bias f4 [16]
0.25237837 0.02387239 0.0038826426 0.017835004 0.16836435 -0.07609797 0.05774544 0.045398805
0.13286443 0.09416238 0.111659944 -0.0114074275 -0.026980244 0.30611706 -0.031358182 -0.038952854
00000000: bd37 813e 0890 c33c ef73 7e3b b71a 923c
00000010: b467 2c3e 41d9 9bbd 7c86 6c3d 19f4 393d
00000020: 9d0d 083e 35d8 c03d f8ad e43d 38e6 3abc
00000030: ac05 ddbc 60bb 9c3e 7071 00bd 078d 1fbd

fc3.weight f4 [1, 16]
0.11519397 0.18897071 0.08349577 -0.03326347 0.19650201 -0.09578796 -0.085408665 0.0133010475
-0.08886403 -0.039148785 0.024626963 -0.040702537 0.048621144 0.05122038 -0.02121577 0.08168607
00000000: d1ea eb3d 8a81 413e d5ff aa3d 473f 08bd
00000010: d337 493e 7a2c c4bd bdea aebd a3ec 593c
00000020: 58fe b5bd 7a5a 20bd 7cbe c93c b4b7 26bd
00000030: f726 473d 76cc 513d b2cc adbc 074b a73d

fc1.weight f4 [32, 7]
-0.04028168 0.060794502 0.23073858 -0.2872127 0.1038024 -0.05047616 -0.2506482 0.26858804
-0.20736754 -0.11602586 0.17506544 -0.020723186 0.16964753 0.36390838 -0.11558546 0.14438973
0.1317014 0.13220087 -0.26310146 0.25614554 0.09738577 -0.23041674 0.09286892 -0.107221976
-0.16001149 0.029157268 0.038915757 -0.24442814 0.154171 -0.061696455 -0.0052543767 0.23307894
-0.28670043 0.03206786 0.092523664 0.27552798 -0.14117306 0.27680075 0.08911786 -0.13373001
-0.032868817 0.13443297 0.2640255 -0.11064456 0.107188106 -0.31544906 0.14340875 -0.1785897
-0.23988116 -0.20226537 0.035831522 0.016257025 0.111718655 -0.15681976 -0.2384488 0.30000186
0.11717007 0.050387576 0.020684758 0.007182649 0.08450355 0.22509494 0.014984982 -0.10875565
-0.026206397 -0.17645833 0.2605745 0.29288298 0.02474903 -0.20734519 -0.18556246 0.06916402
-0.22168134 -0.024000566 0.19537562 0.079008535 0.08226332 0.12719981 -0.06849368 0.09129613
0.10975209 -0.15752488 0.34835982 -0.044407655 0.041254316 -0.26680678 -0.065517336 -0.2278048
0.16419385 -0.31619465 0.34087387 0.2809397 -0.14151895 0.11268897 -0.30214554 -0.06667554
-0.0210012 -0.14319831 -0.0087676225 0.007439978 -0.0048074187 0.21375 0.0129646 0.28564835
-0.006419596 0.33271313 -0.16366957 0.22294636 0.12953822 0.047629558 -0.050559357 0.21949421
0.11320491 0.08858007 0.17706335 0.21254835 -0.11900773 -0.15477735 -0.18928736 0.11709137
0.22286901 0.28130108 0.07134498 -0.066208266 -0.1820248 -0.3732286 -0.03186258 0.19524664
0.04608892 0.19038956 -0.12545517 0.20778558 -0.25237283 -0.20235442 0.13282277 -0.11370063
0.11720749 -0.22722603 -0.19667715 0.20893483 -0.23132344 0.006520717 0.041080922 0.11066745
-0.2554704 -0.18227497 -0.07082481 -0.1837531 0.09994846 -0.048852094 -0.0315406 0.21620268
0.43218136 -0.05931154 0.20821925 -0.13077436 0.09940564 -0.13399057 0.25869796 0.08496713
-0.22908695 0.1285507 -0.09684256 -0.12432113 -0.1083042 0.28766298 -0.28872663 -0.21635333
0.18655527 -0.113851614 0.05283268 -0.005881415 0.25343013 -0.1152672 -0.18918362 0.2578717
-0.09657671 0.015325256 0.02733536 0.1980714 -0.27528712 -0.16491038 0.21785492 -0.14582315
-0.10932101 -0.15018448 0.27835935 0.30077988 -0.035232466 0.26833892 -0.0040611513 -0.08145586
0.01999039 0.2797117 0.2236634 0.073772706 0.0011300556 0.024081118 0.03496182 -0.30578253
0.008170913 -0.050413046 -0.061362598 -0.332717 0.16180576 -0.15621626 0.24610144 -0.21807575
0.014770924 0.32190648 -0.21743378 -0.021695415 -0.34886637 -0.31642956 0.23686063 0.17445026
0.27169916 -0.13387996 0.048938602 0.09901905 -0.30070248 0.08672681 -0.17001222 -0.28965703
00000000: 67fe 24bd a803 793d bc46 6c3e 8b0d 93be
00000010: 5a96 d43d 17c0 4ebd f654 80be 5f84 893e
00000020: 2858 54be f79e edbd 5b44 333e acc3 a9bc
00000030: 15b8 2d3e 3352 ba3e 12b8 ecbd e7da 133e
00000040: bbdc 063e aa5f 073e 3cb5 86be 8225 833e
00000050: 3172 c73d 5ef2 6bbe 0f32 be3d 3297 dbbd
00000060: 0dda 23be 39db ee3c 2166 1f3d 5f4b 7abe
00000070: 01df 1d3e 6cb5 7cbd e82c acbb 3fac 6e3e
00000080: 66ca 92be 9759 033d 0c7d bd3d 0112 8d3e
00000090: ac8f 10be d4b8 8d3e 6d83 b63d 85f0 08be
000000a0: 74a1 06bd cca8 093e 5a2e 873e 9d99 e2bd
000000b0: 7085 db3d 8a82 a1be bed9 123e 38e0 36be
000000c0: 68a3 75be a71e 4fbe 13c4 123d 742d 853c
000000d0: c0cc e43d 5c95 20be ec2b 74be d899 993e
000000e0: ddf6 ef3d 3463 4e3d 1573 a93c 6d5c eb3b
000000f0: 3210 ad3d 4a7f 663e 9283 753c 48bb debd
00000100: ccae d6bc 7eb1 34be 056a 853e c2f4 953e
00000110: 7abe ca3c 4c52 54be 1604 3ebe dea5 8d3d
00000120: 6f00 63be d69c c4bc 8c10 483e 3acf a13d
00000130: ac79 a83d ab40 023e 6a46 8cbd 77f9 ba3d
00000140: b4c5 e03d 344e 21be 385c b23e cde4 35bd
00000150: 49fa 283d e69a 88be f42d 86bd a945 69be
00000160: 6f22 283e 44e4 a1be 0587 ae3e 54d7 8f3e
00000170: 58ea 10be 7ac9 e63d d2b2 9abe 2f8d 88bd
00000180: b50a acbc 94a2 12be 13a6 0fbc 0fcb f33b
00000190: 8d87 9dbb 48e1 5a3e 7969 543c 8040 923e
000001a0: 795b d2bb 6059 aa3e ff98 27be 0d4c 643e
000001b0: aba5 043e 3617 433d 5417 4fbd 17c3 603e
000001c0: fad7 e73d 7869 b53d 1850 353e 46a6 593e
000001d0: 53ba f3bd f47d 1ebe 8cd4 41be 9acd ef3d
000001e0: c637 643e b206 903e 511d 923d 3398 87bd
000001f0: b664 3abe d217 bfbe 5682 02bd bcee 473e
00000200: bcc7 3c3d 7bf5 423e 5277 00be bec5 543e
00000210: 0337 81be ff35 4fbe b102 083e e0db e8bd
00000220: 7b0a f03d f1ad 68be bc65 49be 03f3 553e
00000230: 0de0 6cbe bdab d53b 7844 283d 9ea5 e23d
00000240: 04cd 82be 4aa6 3abe 990c 91bd c629 3cbe
00000250: c7b1 cc3d 2219 48bd b730 01bd 3c64 5d3e
00000260: e046 dd3e a8f0 72bd 6d37 553e b7e9 05be
00000270: 2f95 cb3d d334 09be 0f74 843e 3f03 ae3d
00000280: c595 6abe cba2 033e 6455 c6bd 149c febd
00000290: 98ce ddbd 9048 933e fad3 93be ba8b 5dbe
000002a0: 5808 3f3e 092b e9bd 1567 583d e3b8 c0bb
000002b0: 98c1 813e 3611 ecbd 5ab9 41be c207 843e
000002c0: 03ca c5bd c816 7b3c 68ee df3c 3bd3 4a3e
000002d0: 6ff2 8cbe 44de 28be 5c15 5f3e aa52 15be
000002e0: b2e3 dfbd f6c9 19be 1e85 8e3e d2ff 993e
000002f0: eb4f 10bd b863 893e 6813 85bb 54d2 a6bd
00000300: e3c2 a33c 5f36 8f3e 0508 653e 2516 973d
00000310: 601e 943a c445 c53c 2034 0f3d 878f 9cbe
00000320: 4bdf 053c e97d 4ebd 5957 7bbd e259 aabe
00000330: 69b0 253e 28f7 1fbe 0402 7c3e 404f 5fbe
00000340: bf01 723c edd0 a43e f6a6 5ebe 95ba b1bc
00000350: 9d9e b2be 0e03 a2be 988b 723e 17a3 323e
00000360: 271c 8b3e d417 09be d873 483d 80ca ca3d
00000370: adf5 99be d39d b13d af17 2ebe ed4d 94be

fc1.bias f4 [32]
0.117308795 0.1805071 -0.090069935 0.22730727 0.29992446 0.16578852 0.3079005 -0.3200218
0.5556247 0.2819475 0.34151062 0.2941224 0.30568475 -0.13278493 0.5437016 -0.41899315
0.4680685 -0.06772393 -0.130283 0.4293107 0.43079454 -0.16468306 -0.19421196 0.06501319
0.522802 -0.04152842 -0.005717221 -0.13288362 0.28682607 -0.1471305 -0.31250468 0.15437402
00000000: 983f f03d dad6 383e 9676 b8bd 3dc3 683e
00000010: b38f 993e 77c4 293e 22a5 9d3e e6d9 a3be
00000020: 6c3d 0e3f 6c5b 903e 7bda ae3e 3697 963e
00000030: b682 9c3e c6f8 07be 0730 0b3f 4586 d6be
00000040: ada6 ef3e d8b2 8abd e868 05be 9dce db3e
00000050: 1a91 dc3e ada2 28be 80df 46be a325 853d
00000060: 5ad6 053f b419 2abd 8757 bbbb a512 08be
00000070: deda 923e 61a9 16be 9d00 a0be 3914 1e3e

fc2.weight f4 [16, 32]
0.06051084 0.035276327 0.064192906 -0.0869386 -0.20376204 -0.015104576 -0.016360054 0.121235386
0.0016843148 -0.060869448 0.1769441 0.078121774 0.16504857 -0.07174557 0.14559577 -0.14212553
0.17407896 -0.17865191 -0.17412758 0.021561215 0.15485021 -0.13744152 -0.14085606 -0.05106624
0.058417697 -0.12849638 0.059546493 0.16310166 0.08898514 -0.023093145 -0.1922483 0.104157105
0.09533011 -0.13102622 -0.14116922 -0.103655875 0.10455704 0.010146853 0.1441859 -0.01822638
0.13921557 0.15638241 -0.16285633 0.088012174 0.114083104 -0.08454232 0.11923591 -0.1173967
0.06886108 -0.049875192 0.07092545 0.20652515 -0.09954995 0.036204036 -0.10629364 -0.14558613
0.05536539 0.14346552 -0.09777807 0.06904714 0.048392694 0.009011679 0.015810825 0.07847218
-0.043696996 0.032941 0.03635077 0.12480192 0.07977013 0.1601731 -0.1526245 -0.10951929
0.14015238 -0.04828097 0.0690253 -0.1364999 0.1725642 0.16731884 0.049024403 -0.11680785
-0.058526367 0.12360769 0.046216518 -0.08167596 -0.0409729 -0.09846516 -0.12068328 0.13529857
0.16040258 -0.13654302 0.10849932 -0.14855811 0.15277071 0.0098417625 -0.093007155 0.023994986
-0.1270584 -0.06182831 0.13668445 0.044343147 0.037309773 -0.05079012 0.0093645295 0.08536039
-0.17135926 -0.080431186 0.044046637 0.048108157 -0.0026855578 -0.09107012 -0.0052671996 0.098696426
-0.07119486 0.013264857 0.014957717 0.09564732 -0.052543353 0.11337474 -0.113456994 0.121278696
0.15464492 -0.066934265 0.08874539 -0.21649553 0.03764487 0.024038684 -0.04764369 -0.076672375
-0.009381403 0.035769787 0.0339242 0.09003507 0.06530888 -0.0039504864 0.06730474 -0.050314967
0.028469572 -0.07593645 0.12788354 -0.08058379 -0.12491552 0.041370403 0.16427194 0.10766173
-0.06891538 0.026611593 -0.011511473 -0.061286613 0.08288588 0.013107993 -0.055938013 0.118563555
-0.053189054 -0.0757244 0.02406623 -0.17068538 0.061046403 0.014165018 0.017600628 -0.12569202
-0.053557485 0.12639865 0.08886629 0.070300534 0.108193986 0.06521704 -0.1410652 0.06923448
0.098088406 0.038244173 -0.038855825 -0.08437484 -0.07418161 0.1464289 0.110554956 -0.06567451
0.08844695 -0.11066876 0.086021975 -0.14424632 -0.0084740585 -0.20597865 0.0789746 -0.053210407
0.06558119 -0.016300712 -0.023532048 -0.06781975 0.013997688 0.11026903 0.061050385 0.021381842
0.2180828 -0.02180025 0.09905111 -0.13670295 -0.07427149 0.08682546 0.07585017 -0.1352266
0.045707382 0.117836125 -0.012880655 -0.05962043 0.05377025 0.14021993 -0.13358308 -0.16566914
-0.013773894 -0.120825775 0.08081806 0.041056853 0.05747751 0.041167412 -0.11874833 -0.10172657
0.019184299 -0.14269869 0.12296466 -0.003690999 0.13031149 0.018869672 -0.09195854 0.037968725
-0.17450646 0.15473041 -0.008134508 -0.03513176 0.06904526 -0.036102157 -0.048258517 0.09797487
0.19529319 -0.12127914 -0.17738219 0.16216686 0.006754503 -0.02192362 -0.12568828 -0.073477365
0.020388482 0.09395136 -0.07763446 -0.016288875 -0.2523819 -0.13757887 -0.03085835 0.16849034
-0.05121048 0.08196214 0.13396902 -0.2190264 -0.027826287 -0.33291984 -0.082450874 -0.043033365
00000000: 37da 773d e97d 103d 9277 833d dd0c b2bd
00000010: ffa6 50be 2f79 77bc 8505 86bc 424a f83d
00000020: 3ac4 dc3a 3e52 79bd d630 353e 4ffe 9f3d
00000030: 7e02 293e 57ef 92bd 0f17 153e 5b89 11be
00000040: c141 323e 87f0 36be 804e 32be 25a1 b03c
00000050: 0e91 1e3e 78bd 0cbe 923c 10be d52a 51bd
00000060: 6547 6f3d 8e94 03be 06e7 733d 1f04 273e
00000070: d73d b63d d62d bdbc bddc 44be 5250 d53d
00000080: 6f3c c33d bd2b 06be aa8e 10be 8849 d4bd
00000090: 0022 d63d fc3e 263c 78a5 133e 7d4f 95bc
000000a0: 878e 0e3e b622 203e cfc3 26be ba3f b43d
000000b0: 67a4 e93d 8624 adbd f531 f43d ae6d f0bd
000000c0: 0a07 8d3d ee49 4cbd 5d41 913d 547b 533e
000000d0: d8e0 cbbd af4a 143d 7bb0 d9bd 8814 15be
000000e0: d2c6 623d a0e8 123e de3f c8bd 9668 8d3d
000000f0: 6b37 463d b9a5 133c b485 813c 06b6 a03d
00000100: 9ffb 32bd 24ed 063d 8ce4 143d 2698 ff3d
00000110: 865e a33d 6b04 243e 9949 1cbe a64b e0bd
00000120: 1b84 0f3e 44c2 45bd 235d 8d3d a1c6 0bbe
00000130: abb4 303e a155 2b3e d0cd 483d f438 efbd
00000140: 58b9 6fbd 0726 fd3d 884d 3d3d ba45 a7bd
00000150: 33d3 27bd 1aa8 c9bd cc28 f7bd b58b 0a3e
00000160: 9340 243e efd1 0bbe e434 de3d 9e1f 18be
00000170: ed6f 1c3e 583f 213c 897a bebd 2291 c43c
00000180: 991b 02be af3f 7dbd 02f7 0b3e 29a1 353d
00000190: 22d2 183d 4d09 50bd af6d 193c 6ed1 ae3d
000001a0: cd78 2fbe 1bb9 a4bd 3f6a 343d 0f0d 453d
000001b0: 2f00 30bb f982 babd 7998 acbb 5a21 ca3d
000001c0: 9cce 91bd d854 593c 3611 753c bee2 c33d
000001d0: b337 57bd 0431 e83d 245c e8bd f760 f83d
000001e0: 3d5b 1e3e d514 89bd 25c0 b53d 01b1 5dbe
000001f0: 8231 1a3d c6ec c43c 0826 43bd 6806 9dbd
00000200: 75b4 19bc 5783 123d 1af4 0a3d 4f64 b83d
00000210: a9c0 853d 1573 81bb 11d7 893d 1117 4ebd
00000220: 0539 e93c 9284 9bbd e7f3 023e 1d09 a5bd
00000230: b5d3 ffbd 0374 293d e736 283e c17d dc3d
00000240: 8223 8dbd 8e00 da3c 9e9a 3cbc ac07 7bbd
00000250: 12c0 a93d e8c2 563c 421f 65bd 73d1 f23d
00000260: c4dc 59bd 6515 9bbd 8b26 c53c 26c8 2ebe
00000270: cb0b 7a3d 6414 683c 312f 903c 69b5 00be
00000280: 185f 5bbd a66e 013e 88ff b53d baf9 8f3d
00000290: cf94 dd3d 8390 853d 6573 10be cfca 8d3d
000002a0: 93e2 c83d eca5 1c3d 4927 1fbd b7cc acbd
000002b0: 87ec 97bd 75f1 153e a36a e23d 5c80 86bd
000002c0: ad23 b53d 4ea6 e2bd 4a2c b03d 4fb5 13be
000002d0: c7d6 0abc 11ec 52be 6fbd a13d 28f3 59bd
000002e0: 6e4f 863d 1289 85bc 48c6 c0bc 15e5 8abd
000002f0: 8f56 653c bbd4 e13d f80f 7a3d f928 af3c
00000300: 1951 5f3e 7096 b2bc 4fdb ca3d dcfb 0bbe
00000310: a71b 98bd 8cd1 b13d 5557 9b3d d878 0abe
00000320: aa37 3b3d 1154 f13d 6209 53bc 8d34 74bd
00000330: 323e 5c3d d095 0f3e 01ca 08be 2ca5 29be
00000340: e6ab 61bc 8173 f7bd f083 a53d 3b2b 283d
00000350: 8a6d 6b3d 299f 283d 5332 f3bd 0556 d0bd
00000360: 6428 9d3c 9b1f 12be e5d4 fb3d b0e4 71bb
00000370: 6070 053e 9294 9a3c c254 bcbd 1885 1b3d
00000380: d2b1 32be a671 1e3e 9946 05bc 52e6 0fbd
00000390: 9a67 8d3d dbdf 13bd b9aa 45bd 0ca7 c83d
000003a0: f0fa 473e 3361 f8bd ada3 35be 120f 263e
000003b0: e154 dd3b 2a99 b3bc 6eb4 00be 4d7b 96bd
000003c0: bf05 a73c 9269 c03d d1fe 9ebd 3f70 85bc
000003d0: 3338 81be 7ae1 0cbe a7ca fcbc bb88 2c3e
000003e0: 15c2 51bd c4db a73d 2d2f 093e 7548 60be
000003f0: f4f3 e3bc 7874 aabe 01dc a8bd c143 30bd

fc2.bias f4 [16]
0.25230545 0.023800503 0.0037976666 0.017831523 0.16829069 -0.07613029 0.057810232 0.045231633
0.1325443 0.094118305 0.11159276 -0.01124863 -0.027212795 0.30604815 -0.031126242 -0.039022673
00000000: 2e2e 813e 46f9 c23c 46e2 783b 6a13 923c
00000010: 6554 2c3e 33ea 9bbd 6cca 6c3d ce44 393d
00000020: b1b9 073e 19c1 c03d bf8a e43d 2c4c 38bc
00000030: 5eed debc 58b2 9c3e 76fc febc 3dd6 1fbd

fc3.weight f4 [1, 16]
0.1152314 0.18899415 0.08357618 -0.033371493 0.19654189 -0.096063316 -0.085413344 0.013268706
-0.09002648 -0.039109048 0.024616476 -0.04082922 0.04866038 0.051202025 -0.021318255 0.08175795
00000000: 71fe eb3d af87 413e fd29 ab3d 8cb0 08bd
00000010: 4742 493e d8bc c4bd 31ed aebd fd64 593c
00000020: ce5f b8bd cf30 20bd 7ea8 c93c 8a3c 27bd
00000030: 1b50 473d 37b9 513d 9fa3 aebc b670 a73d
