logs/sdf_single_scene_3_spheres_min_distance_overall/state_51.pt (torch, 10383 bytes, 10 tensors)

fc1.weight f4 [32, 7]
000000 34 3f 28 bd ad 19 5b 3c 37 c3 05 3e 54 cf 76 be
       -0.0410759 0.013372821 0.1306275 -0.24102527
000010 20 7a 99 3d 1b ad cc bd 8a 0a 87 be f6 24 44 3e
       0.074939966 -0.09993955 -0.26375228 0.19154724
000020 c0 97 05 be eb f6 c3 bd a1 3f 3c 3e 23 03 6c bc
       -0.1304617 -0.0956858 0.18383648 -0.014405045
000030 6e 83 2c 3e dd 06 a6 3e a2 3d e3 bd 6c 61 fb 3d
       0.16847011 0.3242711 -0.1109574 0.12274441
000040 fd 72 85 3d 1b 69 f7 3d c6 17 86 be 33 7c 84 3e
       0.06516073 0.12080594 -0.26190013 0.25876006
000050 df a5 1e 3e 2c ed 7b be 2b 48 eb 3d fc 3a c7 bd
       0.15492962 -0.24602193 0.11488374 -0.09728047
000060 35 91 18 be 1a 30 f4 3c 6c ae e3 3c cc f0 4e be
       -0.14899142 0.029808093 0.027793132 -0.20209044
000070 c5 4b 2a 3e 86 30 84 bd b7 d9 ea 3c ef 2c 6e 3e
       0.16630466 -0.064545676 0.028668268 0.23259328
000080 6d 2e 86 be f9 6f ab 3b 3b f1 be 3d 6a 6c 7d 3e
       -0.26207295 0.005231854 0.09323355 0.24748388
000090 4d 93 1b be 27 3b 02 3e 73 13 2b 3e 7f b8 0d be
       -0.1519291 0.12717877 0.16706638 -0.13839911
0000a0 13 5a 87 bd 68 f6 f5 3d ad f5 81 3e 7a 5d d1 bd
       -0.06608977 0.12009889 0.25382748 -0.10222907
0000b0 6e be dc 3d 83 3f 9a be fe 12 3d 3e 4b 0d 25 be
       0.10778509 -0.3012658 0.18464276 -0.16118352
0000c0 d7 1a 78 be 2b a9 30 be 2c 0c c5 bc 69 45 dd bc
       -0.24228989 -0.17252032 -0.024053656 -0.027010636
0000d0 90 02 2e bd 31 ac ef bd dd a1 95 be bd 1f 70 3e
       -0.042482913 -0.11702765 -0.29225054 0.23449607
0000e0 21 45 d0 3d e8 62 40 3d ad 2a b9 3c f7 f5 2b 3c
       0.10169435 0.046969324 0.022603357 0.010495654
0000f0 c8 66 a1 3d c6 fb 5c 3e 1d 1d 1f bc 51 e6 07 be
       0.07880932 0.21580419 -0.009711531 -0.13271452
000100 20 ef 26 bd 07 6e 3b be 96 d8 7f 3e f6 db 77 3e
       -0.04075539 -0.18303691 0.24984965 0.24205002
000110 c7 55 03 3c af e5 0e be 9e 1e 20 be 8b 1f 4d 3d
       0.008016056 -0.13954805 -0.1563668 0.05007891
000120 e4 c3 37 be 18 9d b0 bc da 71 39 3e e0 3a 94 3d
       -0.1794582 -0.021559283 0.18109837 0.07237792
000130 38 72 9e 3d 70 07 a6 3d e1 6f 07 3d 53 fe 56 3d
       0.07736629 0.08106887 0.03306568 0.052488636
000140 1c 0f 9c 3d cf d9 0b be 4e ad 89 3e c1 dd 44 bd
       0.076200694 -0.13657306 0.26890033 -0.048063044
000150 67 50 1a 3d 79 79 82 be 9f 2e 9c bd c2 15 71 be
       0.037674334 -0.254833 -0.0762608 -0.23543456
000160 94 21 2a 3e 55 d4 a3 be 0f 2f ae 3e 46 37 87 3e
       0.16614372 -0.31997934 0.34020278 0.26409358
000170 5c 38 03 be 14 ff c4 3d d1 6f 8f be c0 65 01 bd
       -0.12814468 0.09618965 -0.28014997 -0.031591177
000180 8f 45 33 bd 7d 65 fb bd ed 6b 0b bb 6d 4b 81 3b
       -0.043767508 -0.12275217 -0.0021274046 0.003945759
000190 81 19 2c bb 13 e3 4c 3e 80 46 65 3b eb d9 8d 3e
       -0.0026260319 0.20008497 0.0034984648 0.2770532
0001a0 c0 80 9f bb a8 9e a8 3e 5d 54 2b be 9b 29 13 3e
       -0.004867643 0.32933545 -0.16731401 0.1437134
0001b0 8d ff 0c 3e 3d 2e dc bc 7f d3 b2 bc d0 8c 69 3e
       0.1376936 -0.026877517 -0.021829365 0.22807622
0001c0 0f f7 f3 3d b4 3d 61 3d 72 4d 4f 3e a5 ba 73 3e
       0.11912357 0.054990485 0.20244387 0.23801668
0001d0 8c e9 2d be 55 f4 30 be 7c 53 44 be c2 e9 bd 3d
       -0.16983622 -0.17280705 -0.19172472 0.092731014
0001e0 4d 5b c9 3d 0f 94 57 3e f6 f4 0f 3e 73 81 04 be
       0.09831867 0.21052574 0.14058289 -0.12940006
0001f0 53 b0 4c be 5f 06 93 be 80 1d df bc 6b 7a 35 3e
       -0.19989137 -0.28715798 -0.027235746 0.1772248
000200 6e c8 53 3d bd b4 2f 3e 74 ad f3 bd 1b 8b 5e 3e
       0.051704817 0.1715879 -0.11898318 0.21732752
000210 bf 16 73 be bc da 56 be 62 a8 fa 3d d9 a6 c8 bd
       -0.23739146 -0.20981878 0.12239148 -0.09797449
000220 41 d2 15 3e cd 2b 6f be 57 3b 2e be 8d 42 5e 3e
       0.14630987 -0.23356552 -0.17014824 0.21705075
000230 9a c1 6a be 05 00 56 3d 07 a4 6c 3d db 04 a0 3d
       -0.22925416 0.052246112 0.057773616 0.07813426
000240 eb 33 83 be a7 94 61 be ef 18 7c bd 1f fb 15 be
       -0.25625548 -0.22029363 -0.061547216 -0.14646576
000250 14 a2 9f 3d e0 0f 84 bd 06 b3 5f bd 02 7f 3a 3e
       0.07794586 -0.064483404 -0.05461409 0.18212512
000260 bf fd de 3e 20 29 1f bd b9 e7 52 3e ed 8c f5 bd
       0.43552968 -0.03885758 0.20596208 -0.1198977
000270 c6 13 b7 3d 84 42 03 be b7 a9 7f 3e 33 79 d2 3d
       0.08939318 -0.12818342 0.24967085 0.10277023
000280 df 8c 5e be 68 cb fe 3d 2e d6 07 be 0e c2 99 bd
       -0.21733426 0.124411404 -0.13265297 -0.07507716
000290 c2 f0 07 be 9d 83 95 3e 48 9e 92 be bd 2d 33 be
       -0.13275436 0.29201975 -0.28636384 -0.17497917
0002a0 e8 ed 38 3e 0e 6b c3 bd 55 dd 66 3d 97 47 e6 bc
       0.18059504 -0.095419034 0.056363422 -0.028110309
0002b0 6e 5f 56 3e 24 00 d0 bd 3c 99 2e be 81 55 42 3e
       0.20934841 -0.10156277 -0.17050642 0.1897793
0002c0 ad ef 2e bd 02 01 4f 3d 6a d3 f5 bc 90 e4 32 3e
       -0.04270904 0.05053807 -0.030008037 0.17470002
0002d0 1f c3 89 be 8f 6f 16 be 42 63 54 3e 70 a2 60 bd
       -0.26906678 -0.14690994 0.20740989 -0.054842412
0002e0 a2 94 cc bd 59 56 9d bd 92 2b 86 3e 12 6c 8b 3e
       -0.09989287 -0.07682485 0.26205117 0.2723089
0002f0 2f 64 45 bd f3 ca 7e 3e 9b 37 4a bd 49 d6 9a bd
       -0.048191246 0.24882106 -0.049369436 -0.07560403
000300 46 a7 95 bb 5e 33 86 3e 77 ea 55 3e 68 2d 87 3d
       -0.0045670597 0.26211065 0.20890222 0.066004574
000310 2f 8d 06 bc 73 89 75 3c db 6c 9f 3b fe a9 99 be
       -0.008212372 0.014986384 0.0048652715 -0.30012506
000320 58 c7 34 3b c5 06 69 bd 13 05 88 bd 13 a9 a1 be
       0.0027584638 -0.05689122 -0.06641593 -0.31574306
000330 d5 2f 13 3e 0e b3 15 be bb 13 80 3e 8b 17 70 be
       0.14373715 -0.14619085 0.25015053 -0.23446481
000340 5b 78 31 3d 20 e7 99 3e 76 08 31 be ed 84 7d bd
       0.04332767 0.30059147 -0.17288384 -0.061894346
000350 80 a4 95 be c3 62 9d be ad 5c 75 3e 28 1c 3a 3e
       -0.29227066 -0.30739412 0.23961134 0.18174803
000360 4b 37 7e 3e 84 fd fe bd ef af 4e 3d 84 7b 37 3d
       0.2482578 -0.12450698 0.050460752 0.044795528
000370 bc ea 8e be 8e 9f 0e 3e c8 8c 35 be 48 60 8a be
       -0.27913463 0.13928053 -0.17729485 -0.27026582

fc1.bias f4 [32]
000000 a4 86 b1 3d 07 19 2d 3e 01 50 b5 bd 19 ea 6a 3e
       0.08668259 0.16904078 -0.0885315 0.22940864
000010 87 a8 96 3e a0 87 a5 3d dd 80 a4 3e df a7 82 be
       0.2942545 0.08082509 0.32129565 -0.255187
000020 ab fa 0f 3f 47 43 86 3e 88 e1 ad 3e 25 56 5c 3e
       0.56241864 0.26223204 0.3396113 0.21517237
000030 a9 38 8f 3e 9a fe 1f be 3d 04 0f 3f 99 af dc be
       0.27972916 -0.15624467 0.5586584 -0.4310272
000040 f2 f6 cc 3e 08 ea cc 3d 27 64 2e be 3a 61 da 3e
       0.40032154 0.100055754 -0.17030393 0.42652303
000050 c7 72 cf 3e c1 b9 21 be 99 55 4e be 80 b5 ba 3d
       0.40517256 -0.15793516 -0.2014984 0.0911665
000060 e7 5a 08 3f 87 91 ee bc 40 b5 61 bd d3 e7 26 be
       0.53263706 -0.029122127 -0.055104494 -0.16299371
000070 0f 74 96 3e f8 61 19 be 4a 7e ab be e5 12 19 3e
       0.2938542 -0.14978778 -0.33494788 0.14948614

fc2.weight f4 [16, 32]
000000 6e 7a 6c 3d 58 08 0f 3d 1c 64 6f 3d 56 b3 b2 bd
       0.057733946 0.034920067 0.05844508 -0.08725612
000010 ce e9 58 be 62 af 7a bc fd 59 c5 bc 94 b9 e8 3d
       -0.2118294 -0.015300604 -0.024090761 0.11363521
000020 f3 96 dc 3a 9e c5 72 bd 0b 79 2b 3e 37 05 9d 3d
       0.0016829654 -0.059270494 0.16745393 0.0766701
000030 3b dc 28 3e 27 3e 8e bd 7c a1 14 3e 50 77 10 be
       0.16490261 -0.06945448 0.14514726 -0.14108014
000040 bf ea 2c 3e 86 a8 32 be 52 04 36 be 2f c6 d4 3c
       0.16886424 -0.17447099 -0.17775086 0.025973408
000050 a4 7c 17 3e 06 5e 06 be b1 ea 0b be fa 61 3c bd
       0.1479364 -0.13121805 -0.13663746 -0.045991875
000060 df f7 53 3d 79 a2 02 be 8d 6c 73 3d 61 55 2c 3e
       0.05175006 -0.12757291 0.059429694 0.16829444
000070 37 a5 ba 3d e0 f7 0a bd ad 7b 44 be 0c 49 d4 3d
       0.091135435 -0.0339278 -0.19187804 0.10365495
000080 37 84 bc 3d c1 34 06 be 9b 3a 16 be 57 f2 d6 bd
       0.092049055 -0.13106062 -0.14670794 -0.104954414
000090 c4 86 c5 3d e9 5f 20 3c cf a0 0b 3e 4c d0 d1 bc
       0.09644845 0.009788492 0.13635562 -0.025612019
0000a0 b5 66 0e 3e 03 d9 1f 3e 0e 54 31 be ed 5b b1 3d
       0.13906367 0.15610127 -0.1731722 0.086601116
0000b0 44 fc e9 3d d0 50 a8 bd ce d7 f2 3d a9 79 ee bd
       0.11425069 -0.08218539 0.11857568 -0.116442986
0000c0 71 c3 81 3d 2f 87 3c bd ed be 88 3d f0 1f 58 3e
       0.063361056 -0.04602736 0.06677041 0.21105933
0000d0 4f 9f d9 bd c7 55 2a 3d 7f da d1 bd 32 5d 10 be
       -0.10626089 0.04158571 -0.10246753 -0.14098051
0000e0 b2 b9 46 3d c4 d2 13 3e 33 3e c9 bd 6c e9 97 3d
       0.048516937 0.1443587 -0.09826317 0.074175686
0000f0 56 00 4e 3d 3b 8a ee ba 61 9c 7b 3c d7 f0 9d 3d
       0.05029329 -0.0018199155 0.015357108 0.07711952
000100 74 2e 43 bd 65 a4 11 3d ca 4b 0c 3d b0 8b fc 3d
       -0.047651723 0.03555717 0.034251966 0.12331331
000110 0b 63 97 3d 1a e9 22 3e 5f ac 24 be f3 e0 d3 bd
       0.07391938 0.15909234 -0.1608138 -0.1034564
000120 1b f9 0f 3e 2e 3e 44 bd 74 c5 76 3d c3 56 0c be
       0.1405987 -0.04791086 0.0602469 -0.13704972
000130 8a a3 30 3e d5 3f 2d 3e 18 df 4b 3d 1e e5 ed bd
       0.17249885 0.16918881 0.049773306 -0.11615966
000140 58 05 86 bd cf c6 01 3e 22 7b 2c 3d e4 c3 92 bd
       -0.06543988 0.12673496 0.042109616 -0.071662694
000150 52 40 3c bd 50 43 bc bd cb 57 ef bd 9f db 0e 3e
       -0.045959778 -0.09192526 -0.11686667 0.13950966
000160 d9 20 1d 3e dd 84 0b be fe e8 dd 3d 00 d4 11 be
       0.15344562 -0.13624902 0.10835455 -0.14241028
000170 fc b3 1d 3e 4f f1 1b 3c 5a 5c bc bd 01 e0 b3 3c
       0.1540069 0.009517982 -0.09197302 0.0219574
000180 b1 5f ef bd 96 f0 28 bd 13 df 0d 3e 3c 1a f8 3c
       -0.116881736 -0.041245066 0.13854627 0.030285947
000190 24 c7 42 3d d5 8e 13 bd 58 2f 6a 3d 65 a5 bf 3d
       0.047553197 -0.036024887 0.057174057 0.093577184
0001a0 a9 1c 30 be e5 5f 2d bd bc c2 40 3d 99 03 3c 3d
       -0.17198433 -0.04232778 0.047060713 0.04590187
0001b0 97 ea b5 3b de 69 0c be 79 a8 ac bb 57 17 fe 3d
       0.005551647 -0.1371226 -0.005269107 0.124067955
0001c0 d9 5a 65 bd a3 1b 25 3c fa 3f 38 ba b0 ca c6 3d
       -0.055994842 0.01007739 -0.0007028576 0.09706628
0001d0 7c 6d 56 bd fc 6c ce 3d 71 c2 30 be 32 de a2 3d
       -0.052350506 0.10079381 -0.17261674 0.07952537
0001e0 03 4d 51 3e 73 6f 82 bd 5a af 96 3d 7d 1a 3c be
       0.20439534 -0.063689135 0.073576644 -0.1836948
0001f0 4f a9 b6 3c 4e e2 2f 3d 7b 9e 29 bd b6 c9 be bd
       0.02229753 0.04294043 -0.041410904 -0.09315817
000200 80 ad 46 bc e4 26 12 3d f1 01 e8 3c d2 9c b5 3d
       -0.012126327 0.03568162 0.028321238 0.08867802
000210 e9 75 6a 3d 98 84 81 bb 64 a8 76 3d 02 56 6c bd
       0.057241354 -0.003952574 0.060219184 -0.05769921
000220 3a 29 e9 3c e9 8b 9b bd c7 89 f0 3d 0b f1 a7 bd
       0.028462041 -0.07595045 0.11745029 -0.08200272
000230 a7 68 fe bd a5 79 35 3d 08 89 27 3e ba 6a df 3d
       -0.124223046 0.044305462 0.16360867 0.10909028
000240 66 a3 97 bd 85 ff fe 3c 65 40 7d bc c6 9f 68 bd
       -0.07404213 0.0311277 -0.015457247 -0.056792997
000250 37 ee 9b 3d 96 d4 96 3c be e9 51 bd 23 38 ff 3d
       0.07613795 0.018411916 -0.051248305 0.12461879
000260 a4 b0 72 bd 60 97 93 bd db 15 c3 3c 90 23 29 be
       -0.05925049 -0.07206607 0.023814132 -0.16517472
000270 f0 4a 81 3d 7d 1d 57 3b 2e b5 8a 3c a3 95 01 be
       0.06313121 0.0032823973 0.016932096 -0.12654738
000280 97 be 49 bd 38 90 ec 3d be b7 b1 3d 3c b9 7e 3d
       -0.049254026 0.11550945 0.08677624 0.062188372
000290 7a 28 e4 3d 17 10 62 3d e1 4e 02 be b9 9f 01 3d
       0.11140533 0.055191126 -0.12725402 0.031646464
0002a0 d5 0b d2 3d 07 05 a8 3c 2a 2d e9 bb bd ba a6 bd
       0.10256163 0.02051021 -0.0071159797 -0.08141086
0002b0 01 0c 65 bd 71 cb 0d 3e e9 99 e6 3d a0 ad a5 bd
       -0.05591965 0.13847138 0.11259825 -0.08089757
0002c0 1d 61 6b 3d d3 27 dd bd 3c 8a 9b 3d aa bd 05 be
       0.05746566 -0.107986115 0.075947255 -0.13060632
0002d0 b0 6a 73 3c 47 46 6b be 00 15 ae 3d 8f 23 7b bd
       0.014856979 -0.22976027 0.08500099 -0.06131321
0002e0 15 04 8f 3d 56 ce 82 ba cf d9 70 bc da 19 61 bd
       0.069832005 -0.0009979706 -0.014700367 -0.054956295
0002f0 b7 ca 95 3c a5 ef a7 3d 0a a4 30 3d c4 7f 47 3c
       0.018285139 0.082000054 0.04312519 0.012176458
000300 87 54 61 3e d9 2b 59 bc 02 b6 df 3d 20 8f 0a be
       0.22004901 -0.013255083 0.10923387 -0.1353116
000310 13 05 70 bd b7 76 be 3d b6 5a a9 3d 99 33 05 be
       -0.05859859 0.09299987 0.08269255 -0.13007964
000320 a7 9f 41 3d 30 94 f1 3d d2 3a ea ba 14 6c 5d bd
       0.047271397 0.11795843 -0.0017870313 -0.05405815
000330 b6 e2 4d 3d 60 85 0c 3e bf 6b 04 be a0 e2 18 be
       0.050265037 0.13722754 -0.12931727 -0.149302
000340 80 9e 04 bc 3d c1 00 be 48 6c a7 3d 1e c9 12 3d
       -0.00809443 -0.12573715 0.0817495 0.03583633
000350 1a 8b 81 3d c9 3c 16 3d 46 9c fb bd b1 8b db bd
       0.0632536 0.036679063 -0.12285666 -0.107200034
000360 9c 76 d1 3c 49 17 14 be ce e6 ff 3d 3e c0 f4 bb
       0.025569253 -0.14462008 0.124951944 -0.007469206
000370 c7 f7 01 3e 19 66 0d 3d 59 22 bb bd ef 57 1a 3d
       0.12692176 0.034521196 -0.09137411 0.037681516
000380 28 03 26 be 8c 14 1c 3e 07 28 c1 3a fe 40 8f bc
       -0.16212142 0.15242213 0.001473666 -0.017487045
000390 68 d5 7a 3d 92 26 02 bd 7c 66 79 bd 49 13 a3 3e
       0.061238676 -0.031775065 -0.060888752 0.3185065
0003a0 10 4b 4b 3e 27 0f c5 bd 14 1b 86 be 0c 91 1f 3e
       0.19852853 -0.09622031 -0.26192534 0.15582675
0003b0 95 b8 4c 3c 86 19 db bc ac a0 06 be a5 51 6c bd
       0.01249518 -0.026745569 -0.13147229 -0.05769505
0003c0 72 05 5c 3d e1 78 34 3d 78 cd be bd 86 15 13 3c
       0.05371613 0.04406059 -0.09316534 0.0089773
0003d0 f4 0d 83 be 71 1f ce bd 7b 1b eb bc ec 56 33 3e
       -0.25596583 -0.10064591 -0.028699627 0.17513627
0003e0 a8 d5 4e bd 52 24 90 3d c3 69 03 3e 58 5a 59 be
       -0.050496727 0.070381775 0.12833314 -0.2122587
0003f0 42 05 12 bc f4 65 8c be b0 b3 4d bd 13 c1 cd bc
       -0.008912386 -0.27421534 -0.05022019 -0.025116479

fc2.bias f4 [16]
000000 f8 ad 84 3e 90 18 fa 3c eb fb 33 3c 80 c3 e8 3b
       0.25913978 0.03052929 0.010985355 0.0071033835
000010 54 59 33 3e 31 3b 9d bd 75 82 55 3d ed 36 6c 3d
       0.17514545 -0.076773055 0.052126367 0.05766957
000020 06 24 0f 3e e3 28 bc 3d 06 71 ef 3d 09 14 c3 bc
       0.13978586 0.09187486 0.116914794 -0.023813264
000030 63 f0 73 bc 0a e5 9f 3e f3 78 24 bd 50 3f 05 bd
       -0.014888856 0.3122943 -0.04015441 -0.032531083

fc3.weight f4 [1, 16]
000000 f1 23 e8 3d 8c 36 40 3e 86 13 a0 3d d8 b7 91 bc
       0.1133498 0.18770808 0.07816224 -0.017787859
000010 46 58 46 3e 18 9b 90 bd 3b 9c a6 bd a8 96 28 3c
       0.19369611 -0.07060832 -0.08135267 0.0102898255
000020 3a fc 7c bc 71 8a 24 bd 4b a1 d8 3c a2 28 de bc
       -0.015440995 -0.04017109 0.026444098 -0.027118985
000030 88 17 db 3c 95 9e 58 3d 2d b1 29 bc c9 ea 9a 3d
       0.026744619 0.05288561 -0.010357183 0.07564313

fc1.weight f4 [32, 7]
000000 5b 70 28 bd 34 8d 50 3c 27 ea 05 3e d3 ef 76 be
       -0.041122776 0.012728978 0.13077603 -0.24114923
000010 7d b3 99 3d 25 95 cc bd bb 1f 87 be 45 4f 44 3e
       0.07504938 -0.099893846 -0.26391396 0.19170864
000020 35 6c 05 be fb 92 c4 bd d4 59 3c 3e 5e e1 6f bc
       -0.13029559 -0.09598347 0.18393642 -0.014641134
000030 8c 65 2c 3e cd 0d a6 3e 32 0f e3 bd 03 b1 fa 3d
       0.16835612 0.32432404 -0.11086883 0.122407936
000040 a8 09 85 3d 76 7a f7 3d f0 15 86 be 50 7e 84 3e
       0.064959824 0.120839044 -0.26188612 0.2587762
000050 3c b2 1e 3e 9b e5 7b be 2a 71 eb 3d a6 82 c7 bd
       0.15497679 -0.24599306 0.11496194 -0.09741716
000060 53 95 18 be 26 f9 f3 3c 10 85 e3 3c d9 08 4f be
       -0.14900713 0.02978189 0.02777341 -0.20218219
000070 6e 44 2a 3e 4b 14 83 bd 4c bd ea 3c 6a 27 6e 3e
       0.16627666 -0.06400355 0.028654717 0.23257223
000080 fe 37 86 be de 61 af 3b 1e d7 be 3d da 5a 7d 3e
       -0.26214594 0.005352243 0.09318374 0.24741688
000090 70 9a 1b be d0 e9 02 3e 71 1f 2b 3e a0 d0 0d be
       -0.15195632 0.12784505 0.16711213 -0.13849115
0000a0 06 3d 87 bd 57 64 f6 3d 68 fb 81 3e b2 b9 d0 bd
       -0.06603436 0.12030857 0.2538712 -0.101916686
0000b0 2d 71 dc 3d f8 41 9a be 1a da 3c 3e 80 2d 25 be
       0.10763774 -0.30128455 0.18442574 -0.16130638
0000c0 53 0d 78 be dc c3 30 be e7 1d bf bc 6a 69 d9 bc
       -0.24223833 -0.17262214 -0.023329688 -0.026539523
0000d0 ad 14 2c bd 07 34 ef bd 7c 8a 95 be 33 62 70 3e
       -0.042011905 -0.11679845 -0.29207218 0.2347496
0000e0 52 f4 cf 3d a2 96 40 3d 49 1c b8 3c a2 81 2c 3c
       0.10154022 0.047018655 0.022474425 0.010528954
0000f0 36 31 a1 3d f7 f9 5c 3e 9e a4 1f bc f7 a9 08 be
       0.07870714 0.21579729 -0.009743838 -0.13346086
000100 60 aa 29 bd 98 7e 3b be 59 c1 7f 3e 89 2e 78 3e
       -0.041422248 -0.1831001 0.249761 0.24236502
000110 e4 09 0a 3c 38 44 0f be 0e 2f 20 be 61 80 4b 3d
       0.00842521 -0.13990867 -0.1564295 0.04968298
000120 39 f1 37 be af a9 b0 bc 50 58 39 3e c1 47 94 3d
       -0.17963113 -0.021565286 0.18100095 0.072402485
000130 0d 2d 9e 3d a9 90 a6 3d 3a b3 08 3d 73 7e 59 3d
       0.077234365 0.081330605 0.03337405 0.053099107
000140 5a db 9b 3d da d9 0b be 45 01 8a 3e 6e d5 42 bd
       0.07610197 -0.13657323 0.26954094 -0.047566824
000150 39 40 1a 3d 03 77 82 be 1d 90 9b bd 49 1c 71 be
       0.037658904 -0.25481424 -0.07595847 -0.23545946
000160 cf 42 2a 3e bc c6 a3 be 9d 2e ae 3e 5c 3f 87 3e
       0.16627048 -0.3198756 0.34019938 0.26415527
000170 03 b9 03 be 54 29 c5 3d 73 80 8f be da 6f 02 bd
       -0.12863545 0.09627023 -0.28027686 -0.03184495
000180 1e 07 33 bd 28 ef fb bd 6c 7a 13 bb 3e 23 86 3b
       -0.04370796 -0.12301475 -0.002250339 0.0040935567
000190 bd 61 31 bb 39 f7 4c 3e bd 27 5e 3b 14 d8 8d 3e
       -0.0027066313 0.20016183 0.0033898198 0.27703917
0001a0 ea 4b a2 bb e8 b4 a8 3e 48 bd 2b be f3 51 13 3e
       -0.0049528973 0.3295052 -0.16771424 0.1438673
0001b0 c5 b4 0c 3e dd c4 d8 bc 53 d7 b2 bc 62 a1 69 3e
       0.13740833 -0.02646106 -0.02183119 0.22815469
0001c0 25 66 f3 3d 65 5e 61 3d 35 2e 4f 3e a8 b0 73 3e
       0.11884717 0.055021662 0.2023247 0.23797858
0001d0 4e b6 2d be 75 13 31 be be 2c 44 be 66 5b bd 3d
       -0.16964075 -0.17292579 -0.19157693 0.092459485
0001e0 3d f8 cb 3d 2a 46 58 3e 7d c4 0f 3e 1a 82 04 be
       0.09959457 0.21120515 0.14039798 -0.12940255
0001f0 e5 ce 4c be fc 2f 93 be 0b a0 dd bc 07 83 35 3e
       -0.20000799 -0.28747547 -0.027053853 0.17725764
000200 17 66 55 3d 10 a3 2f 3e ee 86 f3 bd c1 9e 5e 3e
       0.052099314 0.17152047 -0.1189097 0.21740247
000210 c4 27 73 be c4 d4 56 be 3d 39 fa 3d ce d5 c8 bd
       -0.23745638 -0.20979601 0.122179486 -0.09806405
000220 47 c4 15 3e c3 31 6f be c3 3c 2e be f5 40 5e 3e
       0.14625655 -0.23358826 -0.17015366 0.21704467
000230 50 b0 6a be 46 ab 54 3d c7 70 6b 3d 5c 4e a0 3d
       -0.2291882 0.05192115 0.0574806 0.07827446
000240 84 48 83 be 88 7d 61 be 7c 94 7b bd 44 10 16 be
       -0.25641263 -0.22020543 -0.061420903 -0.14654642
000250 ee f1 9f 3d f5 40 84 bd e8 b4 5f bd df b2 3a 3e
       0.07809816 -0.06457702 -0.054615885 0.18232296
000260 23 08 df 3e 45 1a 1e bd 4b fe 52 3e 83 4c f6 bd
       0.43560895 -0.03859927 0.20604818 -0.12026312
000270 a9 46 b7 3d 50 54 03 be d4 a4 7f 3e a2 90 d2 3d
       0.08949024 -0.12825131 0.2496522 0.10281493
000280 f3 9b 5e be 51 fc fe 3d 91 04 08 be 8f 69 9a bd
       -0.21739177 0.12450469 -0.13282992 -0.07539665
000290 e6 d1 07 be 9f 95 95 3e f9 a3 92 be 86 f7 32 be
       -0.13263664 0.29215714 -0.28640726 -0.17477235
0002a0 7f ea 38 3e 92 93 c2 bd 97 1b 66 3d 81 22 e5 bc
       0.18058203 -0.09500803 0.056178655 -0.027970554
0002b0 46 88 56 3e b3 32 d0 bd 14 aa 2e be 67 88 42 3e
       0.20950422 -0.1016592 -0.17057067 0.18997346
0002c0 6a 80 2e bd 99 a2 4e 3d 8b 04 f6 bc 9d fc 32 3e
       -0.042602934 0.050448034 -0.030031463 0.17479177
0002d0 8a e8 89 be 17 fc 15 be fe 01 55 3e 22 4c 62 bd
       -0.26935226 -0.14646946 0.20801541 -0.055248387
0002e0 9c 8d cc bd e2 d2 9d bd c3 25 86 3e 96 86 8b 3e
       -0.09987947 -0.07706238 0.26200685 0.27251118
0002f0 c8 7d 44 bd 5e 06 7f 3e cf 59 4a bd 6e f1 9a bd
       -0.047971517 0.24904773 -0.049402054 -0.0756558
000300 86 0a 95 bb 9b 39 86 3e 35 02 56 3e dd d4 87 3d
       -0.0045483736 0.26215824 0.2089928 0.06632397
000310 32 dc 07 bc 60 04 75 3c 8c 56 9c 3b 9b a6 99 be
       -0.008292245 0.014954656 0.0047710594 -0.30009922
000320 ef 74 31 3b b9 15 69 bd 4c 36 88 bd 03 a3 a1 be
       0.0027077754 -0.056905482 -0.06650981 -0.3156968
000330 b9 57 13 3e 15 d4 15 be 2f 24 80 3e bd 18 70 be
       0.14388932 -0.14631684 0.25027606 -0.23446937
000340 df c5 30 3d 2e e3 99 3e 0c 34 31 be 0c 8e 7c bd
       0.043157455 0.30056137 -0.1730501 -0.061658904
000350 1f ac 95 be cf 6a 9d be 23 8e 75 3e 33 11 3a 3e
       -0.2923288 -0.3074555 0.23980002 0.18170623
000360 e3 65 7e 3e d8 dd fe bd ab 02 4f 3d 1f 15 38 3d
       0.24843554 -0.12444657 0.050539654 0.044942018
000370 65 ee 8e be f4 63 0e 3e 4b 98 35 be b2 74 8a be
       -0.27916256 0.13905317 -0.17733876 -0.27042156

fc1.bias f4 [32]
000000 73 ab b1 3d 58 17 2d 3e 4d 45 b5 bd 4e e1 6a 3e
       0.086752795 0.16903436 -0.08851109 0.2293751
000010 34 ae 96 3e 62 dc a5 3d 6e 76 a4 3e 7a d7 82 be
       0.2942978 0.08098675 0.32121605 -0.2555502
000020 6c f7 0f 3f ac 69 86 3e aa e2 ad 3e af ec 5c 3e
       0.5623691 0.26252496 0.33961993 0.21574663
000030 3b 4a 8f 3e c6 e8 1f be a1 ff 0e 3f 00 a6 dc be
       0.2798632 -0.1561614 0.5585881 -0.43095398
000040 94 05 cd 3e 26 55 cc 3d 16 2d 2e be 8e 62 da 3e
       0.40043318 0.09977178 -0.17009386 0.42653316
000050 5a 7b cf 3e c3 b1 21 be e0 42 4e be f9 83 ba 3d
       0.40523797 -0.15790467 -0.20142698 0.09107203
000060 37 56 08 3f 51 86 ed bc 13 a6 60 bd 1f bf 26 be
       0.53256553 -0.028994711 -0.05484588 -0.16283844
000070 99 6d 96 3e b8 74 19 be 42 73 ab be 56 19 19 3e
       0.2938049 -0.14985931 -0.33486372 0.14951071

fc2.weight f4 [16, 32]
000000 f3 5e 6c 3d e2 f6 0e 3d cd 7e 6f 3d cd c1 b2 bd
       0.057707738 0.034903415 0.058470536 -0.08728371
000010 2c ea 58 be 3b e5 7b bc 00 86 c5 bc 6a 9f e8 3d
       -0.2118308 -0.015374477 -0.024111748 0.11358531
000020 c2 f6 d7 3a d2 c9 72 bd fa 78 2b 3e fa f4 9c 3d
       0.0016476738 -0.059274502 0.16745368 0.07663913
000030 34 d3 28 3e 6b 57 8e bd 64 9a 14 3e ad 88 10 be
       0.16486818 -0.069502674 0.1451202 -0.14114638
000040 c3 d5 2c 3e 88 b5 32 be 8a 03 36 be 7b 68 d4 3c
       0.16878419 -0.17452061 -0.17774788 0.025928726
000050 ed 89 17 3e da 6b 06 be 41 fa 0b be b7 61 3c bd
       0.14798708 -0.1312708 -0.13669683 -0.045991626
000060 5e e4 53 3d 4c 96 02 be 96 41 73 3d f8 4a 2c 3e
       0.05173146 -0.12752646 0.05938872 0.16825473
000070 3c 8e ba 3d d3 d0 0a bd ce 86 44 be 8b 40 d4 3d
       0.0910916 -0.033890557 -0.19192049 0.10363873
000080 07 78 bc 3d 43 39 06 be 51 34 16 be 26 ff d6 bd
       0.09202581 -0.13107781 -0.14668395 -0.104978845
000090 d3 87 c5 3d 5f 4a 1f 3c d3 9b 0b 3e 87 3b d2 bc
       0.09645047 0.009722321 0.13633661 -0.02566315
0000a0 be 5d 0e 3e a5 d9 1f 3e b8 53 31 be 19 4c b1 3d
       0.13902947 0.15610369 -0.17317092 0.086570926
0000b0 7a e9 e9 3d e6 68 a8 bd ee c9 f2 3d 14 98 ee bd
       0.11421485 -0.08223133 0.11854921 -0.116501
0000c0 6e 9d 81 3d 5c b2 3c bd 3c c2 88 3d e2 13 58 3e
       0.063288555 -0.046068534 0.06677672 0.21101335
0000d0 42 85 d9 bd 05 21 2a 3d 91 f8 d1 bd e9 5c 10 be
       -0.1062112 0.041535396 -0.102524884 -0.14097942
0000e0 0a a8 46 3d 48 e0 13 3e 26 53 c9 bd 7b d4 97 3d
       0.0485001 0.14441025 -0.098303124 0.07413574
0000f0 6b d3 4d 3d e0 e7 e9 ba 33 f3 7a 3c ef e9 9d 3d
       0.050250452 -0.0017845593 0.015316772 0.07710635
000100 24 46 43 bd 8f 88 11 3d bf 4f 0c 3d 25 7d fc 3d
       -0.047674313 0.035530623 0.03425574 0.12328557
000110 6f 5f 97 3d 87 d8 22 3e ab b1 24 be fb 19 d4 bd
       0.073912494 0.15902911 -0.160834 -0.10356518
000120 0f ef 0f 3e de 40 44 bd e2 bf 76 3d 85 60 0c be
       0.14056037 -0.047913425 0.060241587 -0.13708694
000130 9e 9a 30 3e 37 34 2d 3e a3 ba 4b 3d 40 03 ee bd
       0.17246482 0.1691445 0.049738538 -0.11621714
000140 c2 2a 86 bd ec bc 01 3e 31 7e 2c 3d 5d ee 92 bd
       -0.06551124 0.12669724 0.042112533 -0.071743704
000150 c2 1f 3c bd 94 61 bc bd bb 78 ef bd 51 dc 0e 3e
       -0.045928724 -0.09198299 -0.116929494 0.13951232
000160 c3 1b 1d 3e b0 76 0b be 6b d2 dd 3d ce df 11 be
       0.15342622 -0.13619494 0.1083115 -0.14245531
000170 ca a8 1d 3e 6e 9f 1b 3c b0 74 bc bd 2b c7 b3 3c
       0.15396419 0.00949846 -0.09201944 0.021945557
000180 13 53 ef bd 0f fc 28 bd c5 df 0d 3e 8d b9 f8 3c
       -0.11685767 -0.041256007 0.13854893 0.030361915
000190 b5 f3 42 3d 04 0c 13 bd 92 db 69 3d 81 a5 bf 3d
       0.0475957 -0.03590013 0.057094164 0.09357739
0001a0 6d 08 30 be c6 2d 2e bd 51 02 41 3d 2f 27 3c 3d
       -0.17190714 -0.04252412 0.04712135 0.045935806
0001b0 2b 77 ba 3b 45 50 0c be db c8 aa bb c8 3d fe 3d
       0.0056904755 -0.13702495 -0.005211932 0.124141276
0001c0 ce d6 64 bd 46 87 28 3c 52 52 09 ba e9 ee c6 3d
       -0.055868916 0.010286158 -0.0005238402 0.09713537
0001d0 62 96 56 bd 3c 92 ce 3d 0c a7 30 be 4a e5 a2 3d
       -0.05238951 0.10086486 -0.17251223 0.0795389
0001e0 75 43 51 3e e1 ab 81 bd 23 cf 96 3d 21 25 3c be
       0.20435889 -0.063316114 0.07363727 -0.18373539
0001f0 ba 51 b7 3c 4a d2 2f 3d b7 92 29 bd e8 9a be bd
       0.022377837 0.042925157 -0.041399684 -0.0930689
000200 8f 12 47 bc b2 14 12 3d 75 34 e8 3c 22 90 b5 3d
       -0.012150421 0.035664268 0.028345326 0.08865382
000210 e7 77 6a 3d a5 b3 83 bb 3e 93 76 3d a1 8b 6c bd
       0.057243254 -0.004019218 0.060199015 -0.057750348
000220 85 e0 e8 3c 9f 8a 9b bd ac 8a f0 3d f6 00 a8 bd
       0.028427372 -0.07594799 0.117451996 -0.08203308
000230 14 7c fe bd c8 48 35 3d 27 82 27 3e d4 4b df 3d
       -0.1242601 0.044258863 0.16358243 0.10903135
000240 7e c9 97 bd 4c a9 fe 3c aa 26 7d bc 3c d0 68 bd
       -0.074114785 0.031086586 -0.015451113 -0.056839213
000250 62 08 9c 3d ce 6a 96 3c ef 26 52 bd db 37 ff 3d
       0.076187864 0.018361475 -0.05130666 0.124618255
000260 54 c3 72 bd 0e 7e 93 bd 56 c1 c2 3c 44 2e 29 be
       -0.05926831 -0.072017774 0.02377383 -0.16521555
000270 53 34 81 3d 23 6e 59 3b 34 60 8a 3c 5c 99 01 be
       0.06308808 0.003317722 0.016891576 -0.12656158
000280 55 8a 49 bd c1 7c ec 3d 63 ae b1 3d 16 ea 7e 3d
       -0.04920419 0.115472324 0.0867584 0.06223496
000290 b4 2e e4 3d 7a 54 62 3d a4 59 02 be b6 7f 01 3d
       0.111417204 0.055256344 -0.12729508 0.031615935
0002a0 f6 ed d1 3d b2 2d a7 3c a2 a0 f0 bb 24 c2 a6 bd
       0.102504656 0.020407531 -0.0073433677 -0.08142498
0002b0 72 e2 65 bd 5e da 0d 3e 42 88 e6 3d 93 af a5 bd
       -0.05612416 0.13852832 0.11256458 -0.08090129
0002c0 04 d9 6b 3d 1b 3b dd bd 39 ab 9b 3d e1 d2 05 be
       0.05758001 -0.10802289 0.076010175 -0.13068725
0002d0 97 03 71 3c 79 4e 6b be bf d5 ad 3d 9d 77 7b bd
       0.014710329 -0.22979154 0.084880345 -0.06139337
0002e0 05 f9 8e 3d ae f3 8c ba 64 6c 73 bc 4b 18 62 bd
       0.069810905 -0.0010753775 -0.014857385 -0.05519895
0002f0 e2 6a 95 3c 5a 27 a8 3d 6c fa 2f 3d 16 f0 48 3c
       0.018239442 0.08210631 0.04296343 0.012264272
000300 3f 5c 61 3e ea f9 58 bc 60 ab df 3d fe 89 0a be
       0.22007845 -0.013243178 0.10921359 -0.13529202
000310 79 02 70 bd fc 92 be 3d a0 67 a9 3d 20 25 05 be
       -0.058596108 0.09305379 0.08271718 -0.13002443
000320 b0 c0 41 3d ea 90 f1 3d fe 26 eb ba 84 50 5d bd
       0.0473029 0.11795218 -0.0017940698 -0.054031864
000330 26 06 4e 3d 5f 92 0c 3e ce 65 04 be cd dd 18 be
       0.050298832 0.13727711 -0.1292946 -0.1492836
000340 70 62 03 bc 2b b5 00 be 41 6b a7 3d 46 0d 13 3d
       -0.008019075 -0.1256911 0.08174754 0.03590133
000350 8b 73 81 3d 9b 6a 16 3d 63 7e fb bd 51 8a db bd
       0.06320866 0.03672276 -0.12279966 -0.10719741
000360 63 9c d1 3c 31 23 14 be 63 f7 ff 3d 78 c9 f3 bb
       0.025587266 -0.1446655 0.12498357 -0.0074397884
000370 de 02 02 3e f0 5c 0d 3d c5 11 bb bd b8 69 1a 3d
       0.12696406 0.03451246 -0.09134249 0.037698478
000380 0e 47 26 be 27 06 1c 3e 1e 65 ce 3a df 45 91 bc
       -0.16238043 0.15236722 0.0015746688 -0.017733512
000390 19 7c 7a 3d 70 8e 02 bd 66 fb 79 bd 9d bf a2 3e
       0.061153505 -0.03187412 -0.061030768 0.31786814
0003a0 28 41 4b 3e 84 63 c5 bd d6 f8 85 be f8 83 1f 3e
       0.19849074 -0.09638122 -0.2616641 0.15577686
0003b0 af 6f 4b 3c 24 68 dc bc d4 a6 06 be a1 81 6c bd
       0.012416764 -0.026905127 -0.13149577 -0.05774081
0003c0 62 e0 5a 3d 37 68 34 3d 89 db be bd 7c f9 10 3c
       0.053436644 0.0440447 -0.09319217 0.008848544
0003d0 05 2b 83 be fa 33 ce bd cd a8 ec bc 2d 44 33 3e
       -0.2561876 -0.100685075 -0.028889084 0.17506476
0003e0 b9 a2 4f bd 3a 52 90 3d 65 52 03 3e 57 73 59 be
       -0.050692294 0.070469335 0.128244 -0.21235405
0003f0 0d 4f 14 bc 45 8e 8c be ea 61 4e bd f8 38 d0 bc
       -0.00905205 -0.27452293 -0.050386347 -0.02541779

fc2.bias f4 [16]
000000 4f a7 84 3e b1 af f9 3c 67 17 33 3c f5 06 ec 3b
       0.25908896 0.030479284 0.0109308725 0.007202978
000010 27 4c 33 3e 88 48 9d bd d3 b5 55 3d e3 d1 6b 3d
       0.17509519 -0.0767985 0.052175354 0.05757321
000020 19 13 0f 3e 69 49 bc 3d fe 5a ef 3d 0e 11 c3 bc
       0.13972129 0.091936894 0.11687277 -0.023811843
000030 93 10 75 bc 6b de 9f 3e d8 d3 23 bd 96 71 05 bd
       -0.014957565 0.3122438 -0.03999695 -0.032579027

fc3.weight f4 [1, 16]
000000 b1 19 e8 3d 0a 2d 40 3e 22 10 a0 3d ce 08 92 bc
       0.11333025 0.18767181 0.07815577 -0.017826464
000010 28 54 46 3e d6 e1 90 bd 56 b4 a6 bd ff 10 28 3c
       0.1936804 -0.07074325 -0.08139865 0.010257958
000020 c7 f1 7a bc 78 ff 24 bd 6c 6b d8 3c 7e 8e de bc
       -0.015316433 -0.040282696 0.02641841 -0.027167555
000030 d1 65 db 3c 0b 79 58 3d 52 be 29 bc 1a e7 9a 3d
       0.026781948 0.05284981 -0.010360317 0.075636104
