logs/sdf_single_scene_3_spheres_min_distance_overall/state_35.pt (torch, 10383 bytes, 10 tensors)

fc1.weight f4 [32, 7]
00000000: a5e2 16bd a267 a03c 2a3f 1e3e 79d3 84be
00000010: 5915 9f3d 6258 a6bd ea4f 8cbe 0897 5b3e
00000020: c947 1abe cf18 e0bd afb8 3a3e 6751 88bc
00000030: 6886 2b3e 0e90 af3e 6ee0 e9bd db2d f53d
00000040: e244 9a3d d26c fc3d e8ad 86be 5cc3 843e
00000050: ed0f 193e f353 73be 1f4a e83d 9b12 ccbd
00000060: db52 1dbe a0ad 083d 54d3 023d b308 59be
00000070: aeb4 283e 7144 85bd ca60 c93c 1e83 6e3e
00000080: 5914 8bbe e9ec 5d3c c0ef b03d 0f08 873e
00000090: 3e2b 1bbe be26 313e da40 113e 370a 0dbe
000000a0: d0d3 6abd 7220 0a3e af60 833e 9697 dfbd
000000b0: d5a4 db3d edf3 9cbe cd83 2e3e ba1d 2cbe
000000c0: 85f7 74be 6773 3bbe 94a0 4ebc 8bb4 b43b
000000d0: 65d0 e7bb 54a0 eabd 07fc 8abe 57ee 873e
000000e0: f9a2 d63d 7f8b 413d 1d6e a93c 0666 1c3c
000000f0: 91a4 a23d af12 603e 8766 15bb 903a febd
00000100: de41 4abd 4c92 49be 3db1 803e d7bc 843e
00000110: e1fc 9e3c 1d4c 2cbe 39d8 25be 6761 5d3d
00000120: 99fa 47be 0bd9 bebc 2911 3c3e 38f2 993d
00000130: 5e1c ab3d 20be cb3d 2494 6a3c a226 923d
00000140: b7cc a23d 17ad 10be 1942 9b3e e718 5abd
00000150: 4cbd 223d 8ab0 83be 5445 9abd a303 6ebe
00000160: ac60 2a3e c1f5 a2be 023d af3e cdbd 8b3e
00000170: 6682 08be 4067 d43d 152d 95be 6aed 33bd
00000180: 198a 0abd 4ea1 0cbe a2e7 38bb 887c a43b
00000190: edb6 23ba 43db 503e bfaa da3b 4633 8f3e
000001a0: dc7b d4bb 9a53 a93e 28ae 30be 8d4d 243e
000001b0: 36d5 043e 449b 72bc af68 f5bc efef 6a3e
000001c0: 931a ef3d 8b1a 5f3d 1b93 463e b4e9 6a3e
000001d0: 5862 25be 78b7 2fbe 6526 3dbe 895f bb3d
000001e0: 5910 033e d90c 6d3e d88f fa3d cae9 ecbd
000001f0: 0c9b 56be e8de a5be fc2c ecbc a072 3a3e
00000200: 9250 543d 99c4 353e cc96 f7bd e94c 5c3e
00000210: f221 77be a71f 57be 4bc3 003e 4111 d0bd
00000220: c3d3 0f3e db74 6dbe ea68 34be 5d78 5d3e
00000230: 5521 6bbe adc3 313d effb 533d 4ed9 b23d
00000240: 7cd1 83be deb1 52be 2ddc 86bd 9b86 1ebe
00000250: 891b a93d 3103 8abd a015 43bd 5cf7 463e
00000260: 32ba de3e ad3f 28bd 0d3a 533e 42a6 fcbd
00000270: 4e80 ba3d 6b8f 03be 439b 803e aec1 c93d
00000280: 2b17 63be 2240 063e 9614 0abe d5f8 b4bd
00000290: e9f8 02be ce3a 983e 0843 92be 2f28 38be
000002a0: f570 393e ed2f c9bd 7597 543d f479 b5bc
000002b0: 2716 683e 3173 d4bd 5300 33be 7104 593e
000002c0: bbcf 96bd deb6 393d 4636 adbc f373 3b3e
000002d0: e63b 8abe bc0f 11be 0cb9 5d3e cd4c a4bd
000002e0: 024b d1bd 2968 c8bd 8814 873e 1f33 923e
000002f0: a5a4 49bd 070b 843e e87b 2fbd 2aca 98bd
00000300: 986f ba3a 4ab0 893e 62a6 5b3e 4ccf 903d
00000310: 9285 b2bb 4ac6 7a3c b649 333c 716e 9abe
00000320: 446c 5b3b 1cac 60bd 3ef9 89bd 5ae7 a4be
00000330: 123a 193e 561c 1cbe 7523 813e 0f24 6dbe
00000340: 1015 083d 6e3a 9c3e ad01 39be d74e 63bd
00000350: 620d a0be b5ba 9ebe fdb3 7d3e 1587 363e
00000360: 6f35 843e cf63 f9bd 243c 563d d6b2 713d
00000370: 8c6d 92be 715e fe3d a437 34be 1f58 91be
-0.03683724 0.019580666 0.15453783 -0.2594259 0.077677436 -0.081223264 -0.2740472 0.21444333
-0.15066446 -0.10942232 0.18234514 -0.016640378 0.1675049 0.34289593 -0.1141976 0.11971637
0.075326696 0.12325443 -0.26304555 0.25930297 0.14947481 -0.23762493 0.113422625 -0.09964486
-0.15363638 0.033368707 0.03193982 -0.21194725 0.16475174 -0.06507195 0.024582285 0.23292205
-0.27163962 0.013545253 0.08639479 0.26373336 -0.15153214 0.17299935 0.14184895 -0.13773428
-0.057330906 0.1348894 0.256597 -0.109175846 0.107247986 -0.3065485 0.17042466 -0.16808215
-0.23922546 -0.18305741 -0.012611527 0.0055146865 -0.007074403 -0.114563614 -0.27145407 0.26549026
0.10480303 0.047252174 0.020682389 0.009545809 0.07941545 0.21882127 -0.0022796707 -0.12413514
-0.049379222 -0.19684714 0.25135222 0.25925323 0.019407691 -0.1682591 -0.16195764 0.05404797
-0.19529189 -0.023296854 0.18365921 0.07516903 0.0835502 0.09948373 0.014317546 0.07136275
0.079492025 -0.14128529 0.30323866 -0.053246405 0.03973131 -0.25720626 -0.075327545 -0.23243575
0.1663844 -0.3182812 0.34226233 0.27293244 -0.13330993 0.10371256 -0.29135957 -0.043927588
-0.033823106 -0.13733408 -0.0028214236 0.005019728 -0.00062452146 0.20396142 0.0066731866 0.27968806
-0.0064844918 0.33071595 -0.17253935 0.16045208 0.12971959 -0.014807526 -0.029957144 0.2294309
0.116749905 0.054468673 0.19392054 0.22940713 -0.16150796 -0.17159832 -0.18471678 0.09149081
0.12799205 0.23149432 0.12234467 -0.11568029 -0.20957583 -0.32396626 -0.028830044 0.18207788
0.05183465 0.17750777 -0.12089309 0.21513714 -0.24134043 -0.21008168 0.12574498 -0.10159541
0.14045624 -0.23189108 -0.17618147 0.21627946 -0.22961934 0.0433995 0.051753934 0.08732854
-0.2574576 -0.20575663 -0.06584964 -0.15481035 0.08257205 -0.0673889 -0.047628045 0.19430298
0.4350143 -0.04107635 0.20627613 -0.12336399 0.091065034 -0.12847678 0.25118455 0.098513946
-0.22176807 0.13110402 -0.13484415 -0.088365234 -0.12790264 0.29732364 -0.28566766 -0.17984079
0.18109496 -0.09823594 0.051902253 -0.022152878 0.226647 -0.103735335 -0.17480592 0.211931
-0.0736384 0.04534041 -0.021144044 0.1830595 -0.26998824 -0.14166158 0.21652621 -0.08022461
-0.10219385 -0.09785492 0.26382852 0.28554627 -0.049229283 0.25789663 -0.042842776 -0.07460435
0.0014223931 0.2689231 0.21450189 0.07070789 -0.0054480517 0.015306065 0.010942867 -0.30162385
0.003348128 -0.054851636 -0.06736992 -0.32207757 0.14963558 -0.15245184 0.25222364 -0.23158287
0.03322321 0.30513328 -0.18067046 -0.05549511 -0.3126021 -0.3100182 0.24775691 0.17824967
0.25822017 -0.1217724 0.05230345 0.059008442 -0.28599203 0.12420357 -0.1759935 -0.28387544

fc1.bias f4 [32]
00000000: 0f10 d13d 2ed3 313e 9108 b6bd 64fd 6a3e
00000010: 75c6 973e 243f e03d d1ea a13e a187 8ebe
00000020: 468b 0f3f 5286 8c3e 1e5d ae3e b0d4 843e
00000030: 9b4b 933e 9398 16be b4f8 0d3f 6217 ddbe
00000040: 0a90 d83e d8d7 603d 5613 22be 847b da3e
00000050: e4e2 d43e 323a 24be c24a 4cbe 2f4c aa3d
00000060: e6d5 073f 4a29 d4bc fdca 0fbd 1c63 1bbe
00000070: d77a 953e 3292 1bbe d6f5 a6be d307 1c3e
0.10208141 0.17365715 -0.08888353 0.22948223 0.29643598 0.10949543 0.31624463 -0.27837852
0.5607189 0.27446228 0.34055418 0.25943518 0.2876862 -0.1470664 0.55457616 -0.43181902
0.42297393 0.054893345 -0.15827689 0.4267236 0.41579354 -0.16037825 -0.19950393 0.08315312
0.5306076 -0.025898594 -0.035105694 -0.15174526 0.29195282 -0.15192488 -0.32609433 0.1523736

fc2.weight f4 [16, 32]
00000000: 463d 6f3d df9b 103d 1b98 773d 5274 b3bd
00000010: 6828 56be 8ce9 80bc b008 b4bc 3dad eb3d
00000020: 8d0c de3a ee7a 74bd b339 2e3e 5dd7 9c3d
00000030: 9fdc 283e 328b 8fbd 7bdf 143e 4fad 10be
00000040: af72 2d3e 6bd8 33be da8b 34be f5f2 ca3c
00000050: 6679 193e 4e76 08be d2c9 0cbe a271 45bd
00000060: 4ca7 5a3d efc6 02be 94f5 723d 5bc2 2a3e
00000070: 24f8 b83d e772 f4bc 4f33 44be 179d d43d
00000080: 753b be3d f5e8 05be 2942 14be 4036 d7bd
00000090: 3d3f cb3d 4837 1d3c 8bdc 0d3e 26ce c6bc
000000a0: 7672 0e3e 32de 1f3e a662 2ebe 0d3c b13d
000000b0: a3c6 e93d bc78 a9bd 5f6c f33d 6283 eebd
000000c0: ec85 833d 00b4 3fbd 4bfd 8b3d fccf 563e
000000d0: dfbe d5bd adb8 223d 475a d3bd 538e 12be
000000e0: 0fac 4d3d bdd0 133e 244b c9bd d6b8 943d
000000f0: 61f7 4a3d 5377 103b 22cc 813c 48b5 9e3d
00000100: 04af 3ebd 2285 0f3d 8d01 113d c060 fc3d
00000110: e450 9c3d 70f2 223e 9d5a 22be 31e5 d5bd
00000120: 1dd5 0f3e e207 45bd 966a 803d 4aa8 0cbe
00000130: 70b2 303e 46d5 2c3e 6771 4b3d 7203 eebd
00000140: 3473 83bd 044c 013e d29b 333d e736 98bd
00000150: 5644 36bd 74c6 c0bd a62e f1bd 22d2 0c3e
00000160: bdce 1e3e ff3f 0bbe 0d5a dd3d 46e4 13be
00000170: 3520 1d3e 3520 353c 4130 bcbd 2e20 b93c
00000180: 28a3 f2bd 40a9 42bd e6cb 0d3e 933f 103d
00000190: 231d 493d 3b14 12bd 4efb 313d f68d b83d
000001a0: 56df 2dbe 6591 80bd 2be1 3c3d 35ee 463d
000001b0: 9825 c03b 92a2 00be f8d9 68bb 0174 053e
000001c0: 7605 5dbd 5af6 333c 9151 d43b f358 c83d
000001d0: ce28 59bd f840 d53d 6a7e 24be 00a4 c13d
000001e0: 1b1a 453e 76a2 7ebd e106 9e3d 42a9 47be
000001f0: 50bb e23c cd3a 173d dae1 38bd 8baa b2bd
00000200: 471d 3abc c748 133d ceab f73c 9052 b53d
00000210: 38e3 753d 45e0 89bb 782c 7f3d d9d7 66bd
00000220: ce44 e93c 8f83 9bbd 1961 f63d 6815 a8bd
00000230: 15df febd c8c6 323d 5acf 273e 411e df3d
00000240: a9e3 95bd 6698 f83c 645d 63bc 3ee9 6dbd
00000250: 10cc 9f3d 167d 873c a55a 55bd 666d fa3d
00000260: 4625 6cbd 5359 94bd 7275 c23c 8dcb 2abe
00000270: e659 7f3d 5ed0 ee3b e973 8e3c 0645 01be
00000280: 379c 45bd 108d f53d ecd7 b43d 22b9 883d
00000290: e7d3 e13d 7d0e 763d 0fd3 05be 4710 1d3d
000002a0: 30fa cf3d d026 cf3c d6ec 8abc 26b9 a6bd
000002b0: 6bef 7dbd c8d8 113e f79c e63d 37e4 94bd
000002c0: a51b 873d 5508 dabd cda3 a63d dd83 0abe
000002d0: 72aa ae3b 7c12 63be a70e a73d 9b3c 73bd
000002e0: 58fd 8f3d 62b5 89bb 6d41 99bc c721 77bd
000002f0: 8b7b 873c 204c c33d 6f16 3e3d f68e 813c
00000300: 7f03 613e b207 80bc ec28 da3d 6e4d 0abe
00000310: 7f14 81bd 1759 ba3d b6d8 a53d 8fb1 05be
00000320: 7cbf 3f3d 7591 f13d 08f3 9bbb 6bfe 60bd
00000330: 4a9e 4e3d 7c7a 0d3e 3b82 05be c831 1ebe
00000340: 5bea 10bc cfee febd 8408 a53d 9cc4 1a3d
00000350: 438d 7c3d 32c0 1c3d 21e3 f9bd 3d48 d6bd
00000360: 802a c53c 3f85 13be 3dc0 fe3d 4b14 dfbb
00000370: 4b04 033e 6f21 ff3c 79a5 bcbd e69e 1a3d
00000380: f5eb 27be d484 193e c1eb 663b 5c9b fbbc
00000390: d22e 7d3d 002c 09bd 1980 6bbd c173 8d3e
000003a0: 2fd0 4b3e f76d 03be be88 71be 3f31 213e
000003b0: 7f1f 2d3c 6949 d8bc 3c5f 04be ceff 84bd
000003c0: 6bce 2d3d 0c7a 5d3d a345 b2bd 8099 37ba
000003d0: 136a 88be 0ab4 e0bd 6000 f1bc aab3 363e
000003e0: 5ad3 55bd 3bae ab3d ec70 033e be61 5dbe
000003f0: 14d8 52bc 9b76 9dbe 2e79 82bd ba35 f3bc
0.058408044 0.0353049 0.060447793 -0.08762421 -0.20913851 -0.015736364 -0.021976799 0.11507652
0.0016940996 -0.059687547 0.17014198 0.07658265 0.1649041 -0.07008971 0.14538376 -0.14128612
0.1693828 -0.17563026 -0.17631474 0.024774054 0.14987716 -0.1332638 -0.13748863 -0.04820407
0.053382203 -0.127712 0.059316233 0.16675703 0.09031704 -0.029839946 -0.19160198 0.10381525
0.09288684 -0.13077147 -0.14478363 -0.10508394 0.09924171 0.0095957 0.13853662 -0.024268221
0.13910851 0.15612105 -0.17029819 0.08654032 0.1141484 -0.082749814 0.118859045 -0.11646153
0.06422028 -0.04680252 0.06835421 0.20977777 -0.104367964 0.0397269 -0.103199534 -0.14312105
0.050212916 0.14435096 -0.09828785 0.07261817 0.049552325 0.002204378 0.015844408 0.077494204
-0.046553627 0.035039075 0.03540187 0.12323141 0.07632616 0.15912795 -0.15854879 -0.104441054
0.1404614 -0.04810322 0.0627033 -0.13736072 0.17255569 0.16878232 0.049668696 -0.11621751
-0.064184576 0.12626654 0.043849774 -0.07432347 -0.044498764 -0.09412852 -0.117764756 0.13752034
0.15508552 -0.13598631 0.108081914 -0.14442548 0.15344317 0.011055042 -0.09188891 0.022598352
-0.11847526 -0.04752469 0.13847312 0.03521688 0.049100053 -0.035663825 0.043452553 0.09011452
-0.16979727 -0.06277732 0.046113174 0.048567016 0.0058638565 -0.12562016 -0.003553031 0.13032533
-0.053960286 0.010984028 0.00647945 0.09782591 -0.05301743 0.104127824 -0.16063848 0.09455109
0.1924824 -0.062166654 0.07716156 -0.1949816 0.027677208 0.03692131 -0.045137264 -0.08723935
-0.011359519 0.035958078 0.03023329 0.08853638 0.060031146 -0.004207643 0.062298268 -0.056358192
0.028475191 -0.07593452 0.12030239 -0.08207208 -0.12444893 0.043646604 0.16387692 0.10894442
-0.07318813 0.030346107 -0.0138772465 -0.058083765 0.07802594 0.016539138 -0.0520884 0.12227897
-0.057652734 -0.072436 0.023737643 -0.16679211 0.062341593 0.007288023 0.017389255 -0.12623987
-0.04824468 0.11989796 0.08830246 0.06675936 0.11026745 0.06007241 -0.13068794 0.0383456
0.10155141 0.025287062 -0.016958635 -0.08140783 -0.061995905 0.14242852 0.112604074 -0.07270091
0.0659707 -0.106461205 0.08136711 -0.13526864 0.0053303773 -0.2217502 0.081570916 -0.05938397
0.07030743 -0.0042025307 -0.018707955 -0.060334947 0.016538402 0.09536004 0.046408113 0.01581524
0.2197399 -0.01562867 0.106523365 -0.135061 -0.063027374 0.09099024 0.08097975 -0.13056014
0.046813473 0.11795322 -0.004759196 -0.054930132 0.050443925 0.13816255 -0.1303796 -0.15448678
-0.008844937 -0.12447893 0.08058265 0.037785158 0.061658155 0.03826923 -0.122015245 -0.10462997
0.024068117 -0.14406298 0.1243901 -0.006807839 0.12794606 0.031143872 -0.09211249 0.037749194
-0.16398604 0.14992076 0.0035235735 -0.03071373 0.06181223 -0.033489227 -0.05749521 0.27627376
0.19903634 -0.12834917 -0.23587319 0.15741442 0.010566591 -0.026402192 -0.12926954 -0.06494103
0.042433184 0.05407147 -0.087046884 -0.0007003769 -0.26643428 -0.1097184 -0.029419124 0.17841974
-0.052203514 0.08382841 0.12836045 -0.21619317 -0.0128689 -0.3075455 -0.063707694 -0.029688705

fc2.bias f4 [16]
00000000: 55a8 833e 6bf4 e93c e2b9 113c 9988 493c
00000010: 1a4c 313e f6e9 9cbd 6298 5c3d d138 613d
00000020: 0ec6 0a3e 8f41 c23d cee6 ec3d a25d a6bc
00000030: 6acb 95bc b9f2 9e3e b25b 18bd 51c4 0cbd
0.25714365 0.02855893 0.008894416 0.012300634 0.17314187 -0.07661812 0.05385626 0.054985825
0.13552114 0.094851606 0.1156746 -0.02030832 -0.018285472 0.31044558 -0.037196822 -0.03436691

fc3.weight f4 [1, 16]
00000000: 05f6 e83d 39d1 403e 6ec1 a33d 0ef2 b5bc
00000010: a363 473e 8656 a2bd 85ab a9bd 6b6b 413c
00000020: 0a2a ecbc aee8 1cbd 9afd d33c b8ac 06bd
00000030: 22e2 0e3d ab0f 573d e923 57bc 45b8 9f3d
0.113750495 0.18829812 0.07995878 -0.022210147 0.19471602 -0.07926659 -0.08284668 0.011805396
-0.02882864 -0.03830784 0.025877763 -0.03287956 0.034883626 0.052505177 -0.01313112 0.077988185

fc1.weight f4 [32, 7]
00000000: 1cc5 14bd 2a99 a33c 3ab3 1e3e e6ef 84be
00000010: 2045 9f3d 5cfc a5bd 684e 8cbe cb05 5c3e
00000020: 5827 1abe fea0 e0bd dea9 3a3e a8de 88bc
00000030: fd77 2b3e 71a2 af3e 8743 eabd d580 f53d
00000040: 744f 9a3d 0393 fc3d daad 86be 68c1 843e
00000050: 23e1 183e 5154 73be 95dd e73d 6344 ccbd
00000060: db69 1dbe cfca 083d 6803 033d 124c 59be
00000070: 76cb 283e 21d4 85bd c80d c73c ec7b 6e3e
00000080: 2a23 8bbe c08e 603c e4f4 b03d 474d 873e
00000090: 1011 1bbe 8185 313e 3bda 103e 6d2b 0dbe
000000a0: 54fd 69bd e610 0a3e fc6e 833e c7bb dfbd
000000b0: e30c db3d cbff 9cbe 5754 2e3e cf2c 2cbe
000000c0: dacd 74be 0ea7 3abe 369b 42bc 1d8f b03b
000000d0: a235 bebb 7e01 ecbd 5ff3 8abe 12d2 873e
000000e0: 96cb d63d 1294 403d 925e a83c 6bbe 1b3c
000000f0: 9f5f a23d 3522 603e c633 08bb 8814 ffbd
00000100: 139d 4abd 67ee 49be 96c0 803e f2dc 843e
00000110: f93a a03c 089d 2cbe b9e3 25be da69 5b3d
00000120: 1365 48be 663f bfbc 7825 3c3e 4807 9a3d
00000130: 28fd aa3d f25a cc3d a16a 603c 4e87 923d
00000140: c2eb a23d 32c1 10be 23bf 9b3e a093 59bd
00000150: edbf 223d 30db 83be 1781 9abd ccfc 6dbe
00000160: c748 2a3e 69ee a2be f338 af3e f0c7 8b3e
00000170: f2d9 08be da8f d43d e33d 95be 5ad8 34bd
00000180: 7139 0abd 252d 0dbe d692 36bb 0270 9d3b
00000190: 55ce 52ba a5e9 503e c1e0 d93b 2a3a 8f3e
000001a0: fc58 d3bb a343 a93e 4ac3 30be 74a5 243e
000001b0: d9b4 043e 75d8 62bc e860 f8bc e1c4 6a3e
000001c0: bb84 ef3d 33e1 5f3d 3876 463e 2bab 6a3e
000001d0: a65a 25be 3eb4 2fbe 2aee 3cbe 02b5 bb3d
000001e0: ebff 033e 5b75 6d3e ba15 fa3d 744c ecbd
000001f0: 35eb 55be 022a a6be b532 edbc fc6d 3a3e
00000200: 2121 543d 07e4 353e 56ac f7bd 453f 5c3e
00000210: e54c 77be a114 57be bf6f 003e 947e d0bd
00000220: d9bd 0f3e c45b 6dbe 179a 34be fc88 5d3e
00000230: 4632 6bbe 229d 313d 7d58 533d 65de b23d
00000240: 4bd3 83be 246f 52be 1dc5 86bd 4687 1ebe
00000250: 7a79 a93d 87af 89bd 0491 42bd c43d 473e
00000260: 74b7 de3e e2f1 27bd 5236 533e ac06 fdbd
00000270: 86be ba3d 248d 03be 5da0 803e fe7c c93d
00000280: ee2a 63be 5d81 063e 0002 0abe 98fb b5bd
00000290: 7eeb 02be 7b40 983e ab3e 92be 0c40 38be
000002a0: 5477 393e 1442 c9bd 213d 533d 67fd b4bc
000002b0: 084a 683e 5f7d d4bd 3e1f 33be e73b 593e
000002c0: ae8c 96bd 858c 393d 8896 abbc 16cf 3b3e
000002d0: ee4c 8abe 0129 11be 58e5 5d3e b88e a5bd
000002e0: 34c1 d0bd 1512 c9bd 6421 873e 5e4e 923e
000002f0: 2c9e 48bd dd11 843e 2bcc 2cbd f79a 98bd
00000300: d771 c43a fdbb 893e 0fbc 5b3e b6e0 903d
00000310: ece6 afbb 4cd6 763c d8e6 323c 4374 9abe
00000320: 6370 553b ad84 60bd 8bb5 89bd 93ec a4be
00000330: b5b3 193e 8d92 1cbe 9731 813e 3305 6dbe
00000340: 836f 073d 4a41 9c3e 3134 39be 13e4 61bd
00000350: 4f34 a0be 3fbe 9ebe 42b8 7d3e ee70 363e
00000360: 6f50 843e a371 f9bd be6a 563d 7907 703d
00000370: 9c80 92be 1888 fd3d e32d 34be ba76 91be
-0.03632079 0.019970495 0.15498057 -0.25964278 0.077768564 -0.08104774 -0.2740357 0.21486585
-0.15054071 -0.10968207 0.18228862 -0.016707733 0.1674499 0.3430362 -0.11438661 0.119874634
0.07534686 0.12332728 -0.26304513 0.25928807 0.14929633 -0.23762633 0.1132156 -0.09973981
-0.15372412 0.03339654 0.03198567 -0.21220425 0.16483864 -0.06534601 0.024298564 0.2328946
-0.27175266 0.013705909 0.08640459 0.26426145 -0.15143228 0.17336084 0.14145748 -0.13786097
-0.05712636 0.13483009 0.25670612 -0.109244876 0.10695817 -0.30663905 0.1702436 -0.16813968
-0.23906651 -0.18227789 -0.0118778255 0.005388154 -0.0058047334 -0.11523722 -0.27138802 0.26527458
0.1048805 0.04701621 0.020552907 0.009505848 0.079283945 0.21888049 -0.0020782812 -0.12455088
-0.049466204 -0.1971985 0.2514693 0.25949818 0.01955937 -0.16856778 -0.1620015 0.053567745
-0.19569807 -0.02334566 0.18373668 0.0752092 0.08349067 0.09978284 0.013697297 0.071547136
0.079551235 -0.14136198 0.30419263 -0.0531193 0.039733816 -0.25753164 -0.07544153 -0.23240966
0.16629325 -0.31822518 0.34223136 0.27300978 -0.1336439 0.10379 -0.29148778 -0.04415164
-0.033746187 -0.13786753 -0.0027858517 0.004804612 -0.000804161 0.20401628 0.006649107 0.27974063
-0.0064498167 0.33059415 -0.17261997 0.1607874 0.12959613 -0.013845553 -0.030319646 0.22926666
0.11695238 0.054658126 0.19381034 0.22916858 -0.16147861 -0.171586 -0.18450227 0.09165384
0.12890594 0.23189299 0.12211175 -0.1153802 -0.20890506 -0.32453924 -0.028954843 0.18206018
0.051789407 0.17762767 -0.12093417 0.2150851 -0.24150427 -0.21003963 0.12542628 -0.10180393
0.14037265 -0.23179537 -0.17636906 0.21634287 -0.22968397 0.043362744 0.05159806 0.08733825
-0.2574714 -0.2055021 -0.06580565 -0.1548129 0.08275123 -0.06722932 -0.04750158 0.19457155
0.4349934 -0.04100216 0.2062619 -0.12354788 0.09118371 -0.1284681 0.25122347 0.098382935
-0.22184345 0.13135286 -0.13477325 -0.08885878 -0.12785146 0.29736695 -0.28563437 -0.17993182
0.18111926 -0.098270565 0.05157197 -0.022093488 0.2268449 -0.10375475 -0.17492387 0.21214257
-0.07351051 0.045300025 -0.020945802 0.18340716 -0.27011818 -0.14175798 0.21669519 -0.08083862
-0.101931006 -0.09817902 0.26392663 0.28575414 -0.04897897 0.2579488 -0.042186897 -0.07451432
0.001498754 0.26901236 0.21458457 0.0707411 -0.005368104 0.015065741 0.010919295 -0.30166826
0.0032568208 -0.05481403 -0.0672408 -0.32211742 0.15009959 -0.1529028 0.25233147 -0.23146515
0.03306533 0.30518562 -0.18086316 -0.05514915 -0.31289908 -0.3100452 0.2477732 0.17816517
0.25842616 -0.121798776 0.05234789 0.058600876 -0.28613746 0.123794734 -0.1759563 -0.28410894

fc1.bias f4 [32]
00000000: 3362 d13d 3dd8 313e 3614 b6bd 2b03 6b3e
00000010: 22cd 973e ea42 e13d 16e5 a13e 420f 8fbe
00000020: 578b 0f3f 1499 8c3e 3661 ae3e 8910 853e
00000030: c061 933e da7a 16be 6df5 0d3f 9523 ddbe
00000040: 27c6 d83e 0286 5c3d 4ee3 21be a177 da3e
00000050: fcfd d43e d148 24be f750 4cbe 0024 aa3d
00000060: e2d5 073f 8c1f d5bc 56c3 0ebd 9b3b 1bbe
00000070: b079 953e 18a7 1bbe 4eea a6be 131b 1c3e
0.10223808 0.17367645 -0.08890574 0.22950427 0.2964869 0.10999091 0.3162009 -0.27941328
0.5607199 0.2746054 0.3405854 0.25989178 0.28785515 -0.14695302 0.55452615 -0.4319121
0.42338678 0.053838737 -0.15809366 0.42669395 0.41600025 -0.16043402 -0.1995276 0.08307648
0.53060734 -0.02601602 -0.034854256 -0.15159456 0.29194403 -0.1520046 -0.32600635 0.15244703

fc2.weight f4 [16, 32]
00000000: f950 6f3d e5d4 103d 43c0 773d da6e b3bd
00000010: d613 56be 7521 80bc 3cba b3bc 7a96 eb3d
00000020: d138 e03a 7780 74bd f54a 2e3e a6e0 9c3d
00000030: f4dd 283e 8497 8fbd cce4 143e ada0 10be
00000040: 4475 2d3e 17dc 33be db93 34be 48df ca3c
00000050: 3c86 193e a77e 08be facf 0cbe 458b 45bd
00000060: f2d1 5a3d 86c0 02be abfe 723d 3fbf 2a3e
00000070: 7efc b83d 5c56 f4bc 0630 44be 9dad d43d
00000080: 6346 be3d 38db 05be 6238 14be bc2d d7bd
00000090: b467 cb3d f1c1 1e3c 4ae6 0d3e 872c c7bc
000000a0: ed76 0e3e 5cdf 1f3e 4050 2ebe 1245 b13d
000000b0: 8ec8 e93d e685 a9bd 5577 f33d da6a eebd
000000c0: 4b8a 833d c8c3 3fbd 32ee 8b3d 9ecd 563e
000000d0: e3a5 d5bd 919c 223d da65 d3bd 2e94 12be
000000e0: e9d6 4d3d d1d6 133e a845 c9bd a5b2 943d
000000f0: 9d01 4b3d 3377 113b 49f2 813c 28c8 9e3d
00000100: 5d94 3ebd 3ba5 0f3d fb13 113d 9568 fc3d
00000110: c971 9c3d 340c 233e 2450 22be ec0f d6bd
00000120: 50d8 0f3e 610b 45bd b787 803d 8ca5 0cbe
00000130: a5b3 303e c2cf 2c3e ca7b 4b3d 94e8 edbd
00000140: d669 83bd 9749 013e c87d 333d 564d 98bd
00000150: d218 36bd 75da c0bd 323a f1bd 40cd 0c3e
00000160: abd9 1e3e 5338 0bbe 275d dd3d 96e9 13be
00000170: e423 1d3e 4f3a 343c d52e bcbd 1775 b93c
00000180: 62c4 f2bd 9530 43bd 09c7 0d3e f86e 103d
00000190: 6f9a 483d 677a 13bd 9855 303d 968c b83d
000001a0: 4edb 2dbe a939 81bd fcd7 3c3d effb 463d
000001b0: 0623 c03b 9999 00be 1c83 67bb 1c83 053e
000001c0: a520 5dbd 8058 373c ab89 da3b cb40 c83d
000001d0: 8c85 59bd f76f d53d df44 24be 4197 c13d
000001e0: daca 443e cb81 80bd f131 9e3d abba 47be
000001f0: bdca e23c eef5 163d e704 39bd 72bb b2bd
00000200: 71c6 39bc 6e80 133d dcfa f73c 575b b53d
00000210: 2734 763d dfcc 86bb 7a53 7f3d 2807 67bd
00000220: 3b69 e93c 0a81 9bbd 5686 f63d 4f0c a8bd
00000230: 2bdd febd 58ac 323d d0d4 273e a636 df3d
00000240: 45df 95bd 8079 f83c cad6 63bc 68f3 6dbd
00000250: 01e5 9f3d 5e45 873c 0172 55bd a761 fa3d
00000260: a3fa 6bbd 474d 94bd 508c c23c c1ce 2abe
00000270: 4d64 7f3d 6d4b ef3b 269b 8e3c 923b 01be
00000280: 5451 45bd 4793 f53d c4e0 b43d 9e16 893d
00000290: 44ba e13d ac06 763d 1bdd 05be 15a6 1d3d
000002a0: f8e7 cf3d fa36 cf3c 9a12 8cbc 50c1 a6bd
000002b0: c350 7ebd 00ea 113e f692 e63d 11a8 94bd
000002c0: 2d73 873d 96f0 d9bd 6de3 a63d 4d91 0abe
000002d0: 91f0 ad3b aeef 62be 82d5 a63d 844b 73bd
000002e0: 3cf0 8f3d 6649 8bbb 2615 9abc 15ad 77bd
000002f0: 2a9c 873c 2bc8 c33d 786c 3e3d b7b7 823c
00000300: f8ff 603e 9a98 80bc 5f10 da3d 4450 0abe
00000310: e045 81bd cf1e ba3d c8c8 a53d 5390 05be
00000320: 62ac 3f3d 6495 f13d 31f8 9dbb 181c 61bd
00000330: c4ae 4e3d 7c82 0d3e 3689 05be 5349 1ebe
00000340: 7207 11bc 3fe3 febd a61b a53d bfe0 1a3d
00000350: 4866 7c3d a8e0 1c3d 1ad5 f9bd 4c39 d6bd
00000360: b1df c43c 4f89 13be 96ba fe3d 2bab debb
00000370: 5003 033e 5c3a ff3c 18a9 bcbd fc81 1a3d
00000380: a3d4 27be dc8d 193e c5c8 703b b23a fcbc
00000390: b49a 7d3d a90a 09bd 3b05 6bbd e6f8 8c3e
000003a0: b7dd 4b3e 877a 04be 1828 71be e94e 213e
000003b0: 87be 2c3c 8e7c d7bc 8d46 04be ae3e 85bd
000003c0: a03d 2d3d 979d 5e3d 0bdb b1bd 0907 3eba
000003d0: eb60 88be d1d9 e0bd 5d5f f0bc 35d4 363e
000003e0: 6ed2 55bd 550a ac3d 6380 033e b867 5dbe
000003f0: 0cc4 52bc 8c95 9dbe 66dc 82bd 93b5 f1bc
0.05842683 0.035359282 0.06048609 -0.08761378 -0.20906004 -0.015640954 -0.02193939 0.115033105
0.0017106776 -0.059692826 0.17020781 0.07660036 0.16490918 -0.07011321 0.14540404 -0.14123793
0.16939265 -0.17564426 -0.17634527 0.024764672 0.14992613 -0.13329564 -0.13751212 -0.04822852
0.053422876 -0.12768754 0.0593249 0.16674517 0.09032534 -0.029826336 -0.19158944 0.103846766
0.09290769 -0.13071907 -0.14474633 -0.1050677 0.09931889 0.009689794 0.1385738 -0.024313224
0.13912554 0.15612549 -0.170228 0.08655752 0.11415206 -0.08277492 0.11887995 -0.11641474
0.06422862 -0.04681757 0.068325415 0.20976874 -0.10432031 0.039700095 -0.10322161 -0.14314339
0.050253782 0.14437415 -0.09827739 0.07260636 0.049562085 0.0022196292 0.0158626 0.077530205
-0.04652821 0.035069685 0.035419445 0.12324635 0.0763889 0.15922624 -0.15850884 -0.104522556
0.1404736 -0.048106555 0.062758856 -0.13735026 0.17256029 0.16876128 0.0496786 -0.116166264
-0.06416671 0.12625729 0.043821126 -0.07436626 -0.044457264 -0.09416667 -0.11778678 0.13750172
0.15512721 -0.13595705 0.10808783 -0.14444575 0.15345722 0.01100023 -0.0918862 0.02263884
-0.11853863 -0.047653753 0.13845457 0.035262078 0.048975404 -0.036005404 0.04305038 0.0901119
-0.1697819 -0.06309826 0.046104416 0.048580106 0.00586355 -0.12558593 -0.003532595 0.13038296
-0.05398621 0.011190534 0.0066692433 0.09777983 -0.053105876 0.10421746 -0.16041897 0.094526775
0.19218007 -0.06274756 0.07724369 -0.19504802 0.027684564 0.03685563 -0.04517069 -0.087271586
-0.011338816 0.036011152 0.030270986 0.08855312 0.06010833 -0.004113778 0.06233547 -0.05640331
0.02849256 -0.075929716 0.12037341 -0.08205473 -0.12444528 0.04362139 0.16389775 0.10899095
-0.07317976 0.030331373 -0.01390619 -0.05809346 0.07807351 0.016512569 -0.052110676 0.12225657
-0.057612073 -0.07241302 0.023748547 -0.16680433 0.062351514 0.0073026926 0.017407965 -0.1262038
-0.048173264 0.119909815 0.08831933 0.06693767 0.110218555 0.060064957 -0.13072626 0.038488466
0.101516664 0.02529477 -0.017098714 -0.0814234 -0.06208874 0.1424942 0.11258499 -0.072586186
0.06613765 -0.10641591 0.08148847 -0.1353199 0.0053082188 -0.22161743 0.08146192 -0.05939819
0.07028243 -0.004250693 -0.018808912 -0.0604678 0.016553957 0.095596634 0.046490163 0.015956743
0.21972644 -0.015697766 0.10647654 -0.13507181 -0.06312156 0.090879075 0.080949366 -0.13043337
0.046795256 0.11796072 -0.0048208465 -0.054958433 0.05045964 0.13819307 -0.13040623 -0.15457658
-0.008851873 -0.124456875 0.08061914 0.03781199 0.06162098 0.038300186 -0.12198849 -0.10460147
0.024032446 -0.14407848 0.12437932 -0.006795307 0.12794232 0.031155758 -0.092119396 0.03772162
-0.16389708 0.14995521 0.0036740762 -0.030789707 0.061915115 -0.033457432 -0.057378035 0.27533644
0.19908796 -0.12937365 -0.23550451 0.15752758 0.010543472 -0.02630451 -0.12917538 -0.06506096
0.0422951 0.054349508 -0.08684357 -0.0007248973 -0.26636443 -0.10979045 -0.029342348 0.17854388
-0.052202635 0.08400408 0.12841944 -0.21621597 -0.012864124 -0.30778158 -0.06389694 -0.029505527

fc2.bias f4 [16]
00000000: 4ba7 833e 97e4 e93c 258b 113c 190a 4a3c
00000010: 344a 313e f5e4 9cbd b1a0 5c3d 7a39 613d
00000020: 75a2 0a3e d074 c23d b9e7 ec3d af64 a6bc
00000030: e9cc 95bc 0ef2 9e3e 153d 17bd 81ca 0cbd
0.25713572 0.028551383 0.008883272 0.012331509 0.17313462 -0.076608576 0.053864185 0.054986455
0.13538535 0.094949365 0.11567635 -0.020311682 -0.018286185 0.31044048 -0.036923487 -0.03437281

fc3.weight f4 [1, 16]
00000000: 570c e93d 49d5 403e 86df a33d df95 b6bc
00000010: 526e 473e c483 a2bd a7b3 a9bd 2a09 433c
00000020: 5fc0 edbc 1912 1dbd 320f d43c 2309 07bd
00000030: d337 0f3d 681a 573d ff0e 59bc bdda 9f3d
0.11379307 0.18831362 0.08001618 -0.022288261 0.19475678 -0.079352885 -0.08286219 0.01190404
-0.029022394 -0.038347337 0.025886152 -0.032967698 0.034965347 0.052515417 -0.013248204 0.07805393
