logs/sdf_single_scene_3_spheres_min_distance_overall/state_91.pt (torch, 10383 bytes, 10 tensors)

fc1.weight f4 [32, 7]
0	0xbd6871aa	-0.056749023
1	0x3d0aca2e	0.03388422
2	0x3dc6016d	0.09668241
3	0xbe45ee36	-0.19329152
4	0x3d8a6e5e	0.06759332
5	0xbe05761b	-0.13033335
6	0xbe60ef67	-0.21966325
7	0x3e18c542	0.14918998
8	0xbdd5d852	-0.104416505
9	0xbd8e31d2	-0.06943096
10	0x3e493ba7	0.19651662
11	0xbc8204a6	-0.015871357
12	0x3e2394ba	0.15974703
13	0x3e8ed01c	0.2789315
14	0xbdce9068	-0.10086137
15	0x3e00effc	0.12591547
16	0x3d6fc578	0.05853793
17	0x3df8aea9	0.12142689
18	0xbe8323f9	-0.25613382
19	0x3e83dc1c	0.25753868
20	0x3e223ab0	0.158427
21	0xbe7c6374	-0.24647313
22	0x3de49fd2	0.11163296
23	0xbda92ae6	-0.08260135
24	0xbe10d61e	-0.14144179
25	0x3cdd47bf	0.02701175
26	0x3caba366	0.020951938
27	0xbe44deb7	-0.19225584
28	0x3e2db5bb	0.16963856
29	0xbda80423	-0.08203914
30	0x3c89c8eb	0.016819438
31	0x3e6f62e7	0.23377572
32	0xbe740e27	-0.23833524
33	0xbc7d2397	-0.01545038
34	0x3dbc3f10	0.09191716
35	0x3e5ab157	0.21356712
36	0xbe10faab	-0.14158122
37	0x3d820370	0.06348312
38	0x3e6f12dd	0.2334704
39	0xbe008fa8	-0.125548
40	0xbd9b884e	-0.075943574
41	0x3d8cf8b1	0.068833716
42	0x3e807127	0.25086328
43	0xbdd0bea0	-0.10192609
44	0x3dd0b5dd	0.10190938
45	0xbe951a29	-0.2912152
46	0x3e4bface	0.19919893
47	0xbe1b5f10	-0.15172982
48	0xbe76ab92	-0.24088886
49	0xbe2cc35d	-0.168714
50	0xbca6662b	-0.02031239
51	0xbd4a63cb	-0.049411576
52	0xbd7c4111	-0.06158549
53	0xbe05c9fb	-0.1306533
54	0xbea41521	-0.3204737
55	0x3e2dd5f9	0.16976155
56	0x3dc4dbd5	0.09612242
57	0x3d3e320a	0.04643444
58	0x3cce8bb0	0.025213093
59	0x3c437d95	0.011931797
60	0x3da4b000	0.08041382
61	0x3e57b7b2	0.21066168
62	0xbca5ff7f	-0.020263432
63	0xbdf0cbe7	-0.11757641
64	0xbce8ac9d	-0.02840262
65	0xbe1cf2af	-0.15326951
66	0x3e92ce54	0.2867304
67	0x3e3e9dfe	0.18614957
68	0xbcbf2995	-0.023335258
69	0xbd6367b3	-0.055518817
70	0xbe1058a9	-0.14096321
71	0x3d2d11f6	0.042253457
72	0xbe0fdee6	-0.14049873
73	0xbc7987bb	-0.015230115
74	0x3e3128b6	0.17300686
75	0x3d830ffb	0.063995324
76	0x3d55efe3	0.052230727
77	0x3d61a33b	0.05508731
78	0x3d600886	0.05469563
79	0x3d0a571e	0.033774488
80	0x3dbf0e89	0.09328944
81	0xbdfb2079	-0.12262053
82	0x3e2f41a0	0.17114878
83	0xbd248eb2	-0.040175147
84	0x3d05766d	0.032583643
85	0xbe804eec	-0.25060213
86	0xbd98c430	-0.07459295
87	0xbe72d929	-0.23715653
88	0x3e2915f7	0.16512285
89	0xbea5b877	-0.32367298
90	0x3eab432f	0.33449695
91	0x3e7cc5cc	0.24684829
92	0xbe1b020c	-0.151375
93	0x3d7fbdc9	0.062436853
94	0xbe7735c5	-0.24141605
95	0xbbe971f8	-0.007124182
96	0xbd856aa0	-0.06514478
97	0xbdaddcfa	-0.084894136
98	0xba8164f3	-0.0009872004
99	0x3ae0ca22	0.0017150084
100	0xbb6685bf	-0.0035174934
101	0x3e47b7d0	0.19503713
102	0x3a31c53e	0.00067814055
103	0x3e8bb26c	0.27284563
104	0xbbc9d946	-0.006159934
105	0x3ea6a787	0.32549688
106	0xbe26814c	-0.1626026
107	0x3df0e25b	0.11761924
108	0x3e155f69	0.14587177
109	0xbccdd142	-0.025124196
110	0xbbee81c4	-0.007278653
111	0x3e63327b	0.22187226
112	0x3df629e7	0.12019711
113	0x3d61c974	0.05512376
114	0x3e558352	0.20850876
115	0x3e80ea69	0.2517884
116	0xbe34d9b2	-0.17661169
117	0xbe3144de	-0.17311427
118	0xbe4b3356	-0.19843802
119	0x3dc79637	0.09745448
120	0x3d6bb93f	0.05754971
121	0x3e333495	0.17500527
122	0x3e234a46	0.15946302
123	0xbdf86c8f	-0.12130081
124	0xbe2a1fc9	-0.16613688
125	0xbe77b015	-0.24188264
126	0xbcb3ae1b	-0.021933606
127	0x3e3129df	0.17301129
128	0x3d54c7b4	0.051948264
129	0x3e2a4b81	0.16630365
130	0xbdedb19b	-0.11606141
131	0x3e61f5da	0.22066441
132	0xbe6cf8af	-0.2314174
133	0xbe582074	-0.2110613
134	0x3df9152a	0.1216224
135	0xbdb715e1	-0.0893972
136	0x3e189bcb	0.1490318
137	0xbe6ff47e	-0.2343311
138	0xbe2a3622	-0.16622213
139	0x3e5c54d2	0.21516731
140	0xbe6bd393	-0.23029928
141	0x3d70e2ae	0.05880993
142	0x3d7c6468	0.061619192
143	0x3d8521d1	0.065005906
144	0xbe80dde3	-0.25169286
145	0xbe714ee0	-0.23565245
146	0xbd8092d6	-0.06278007
147	0xbe097420	-0.13423204
148	0x3d913c61	0.070915945
149	0xbd258228	-0.04040733
150	0xbd8322ea	-0.06403144
151	0x3e26d41d	0.16291852
152	0x3ede86c3	0.4346219
153	0xbd205d72	-0.039151616
154	0x3e5528cf	0.20816348
155	0xbdf60fcf	-0.12014734
156	0x3dafc0c9	0.08581693
157	0xbe02e499	-0.12782516
158	0x3e7a147a	0.24421874
159	0x3dd8e73f	0.10590982
160	0xbe5a82c9	-0.21338953
161	0x3dea4d55	0.11440531
162	0xbe091061	-0.13385154
163	0xbd8916f9	-0.06693835
164	0xbe089d75	-0.13341315
165	0x3e8fb1d3	0.28065357
166	0xbe94359f	-0.2894716
167	0xbe343b68	-0.17600787
168	0x3e37ca3e	0.17948243
169	0xbdbc8c56	-0.092064545
170	0x3d826658	0.06367177
171	0xbd0ed82f	-0.034874137
172	0x3e3e9cce	0.18614504
173	0xbdd33b1c	-0.103140086
174	0xbe2907b1	-0.1650684
175	0x3e344544	0.17604548
176	0x3d0902ca	0.033449925
177	0x3c21886d	0.009859187
178	0xbd22aa90	-0.039713442
179	0x3e1105d5	0.14162381
180	0xbe8766a6	-0.26445502
181	0xbdd248e1	-0.10267807
182	0x3e1c5569	0.15266956
183	0xbd08c122	-0.03338731
184	0xbdde23ad	-0.10846648
185	0xbd2a5f9b	-0.041595083
186	0x3e81e8f7	0.2537305
187	0x3e7a7262	0.24457696
188	0xbc47d0ec	-0.012195807
189	0x3e6b880a	0.23001114
190	0xbd5393fc	-0.0516548
191	0xbd8dc1c8	-0.069217265
192	0xbc308f56	-0.010776361
193	0x3e79b677	0.24386011
194	0x3e4e67dd	0.20156808
195	0x3d6b3092	0.057419367
196	0xbc2ff3be	-0.010739265
197	0x3c96dde4	0.018416353
198	0xbafecf4c	-0.0019440441
199	0xbe98a684	-0.2981454
200	0x3b29ba62	0.0025898446
201	0xbd7481df	-0.059694167
202	0xbd6e4185	-0.058167953
203	0xbe9c96eb	-0.3058389
204	0x3e0e892d	0.13919516
205	0xbe04f1b7	-0.12982832
206	0x3e802236	0.250261
207	0xbe75dbcf	-0.24009632
208	0x3d5f5449	0.05452374
209	0x3e954e3e	0.29161257
210	0xbe1eecdd	-0.15520044
211	0xbd880dbf	-0.06643247
212	0xbe883a3b	-0.26606926
213	0xbe996069	-0.29956368
214	0x3e600a24	0.21878868
215	0x3e3dad1f	0.18523072
216	0x3e71e871	0.23623826
217	0xbe02a81f	-0.12759446
218	0x3d518797	0.0511547
219	0x3c7351e6	0.014851069
220	0xbe86e887	-0.2634928
221	0x3e0b79e7	0.13620721
222	0xbe38d407	-0.18049632
223	0xbe5ec203	-0.21753697

fc1.bias f4 [32]
0	0x3d5d39ca	0.05401019
1	0x3e18b78c	0.14913768
2	0xbdb6c55e	-0.089243636
3	0x3e6af757	0.22945915
4	0x3e9386af	0.28813693
5	0x3cab8d72	0.02094147
6	0x3ea80c38	0.32821822
7	0xbe75a9c8	-0.23990548
8	0x3f10646e	0.56403244
9	0x3e5649db	0.20926611
10	0x3eab5da1	0.3346987
11	0x3de7f744	0.11326459
12	0x3e8c4785	0.27398315
13	0xbe3d6231	-0.18494488
14	0x3f104126	0.5634941
15	0xbed7e165	-0.4216415
16	0x3ebee729	0.37285736
17	0x3e057c10	0.13035607
18	0xbe393934	-0.18088228
19	0x3edaf339	0.4276369
20	0x3ec6d488	0.38834023
21	0xbe1b7964	-0.15183026
22	0xbe51ec4a	-0.20500293
23	0x3dd0ca92	0.10194887
24	0x3f07b25a	0.5300652
25	0xbd078c59	-0.03309283
26	0xbdbfa7a1	-0.093581446
27	0xbe3b512c	-0.18292683
28	0x3e97af00	0.29625702
29	0xbe1cbdd8	-0.15306795
30	0xbeb4001b	-0.3515633
31	0x3e099b67	0.13438188

fc2.weight f4 [16, 32]
0	0x3d66d704	0.0563574
1	0x3d0c52d3	0.034258675
2	0x3d632cae	0.05546253
3	0xbdb0fa15	-0.08641449
4	0xbe5c8efd	-0.2153892
5	0xbc738b03	-0.014864686
6	0xbcdd5b41	-0.027021052
7	0x3de4481a	0.11146565
8	0x3ac64c2c	0.0015128902
9	0xbd745db3	-0.05965967
10	0x3e2763d6	0.16346678
11	0x3da0a993	0.07844844
12	0x3e29631a	0.1654171
13	0xbd8d0c72	-0.068871394
14	0x3e13d788	0.14437687
15	0xbe0d35b4	-0.13790017
16	0x3e2dfb86	0.1699048
17	0xbe2f838d	-0.17140026
18	0xbe389b32	-0.18027952
19	0x3ce4f3fd	0.027948374
20	0x3e14625f	0.1449065
21	0xbe037847	-0.12838851
22	0xbe0ab161	-0.13544227
23	0xbd2e20c7	-0.042511728
24	0x3d4af319	0.049548242
25	0xbe02066a	-0.1269776
26	0x3d742fff	0.059616085
27	0x3e2dfda7	0.16991292
28	0x3dbd8816	0.09254472
29	0xbd214c49	-0.03937939
30	0xbe456980	-0.19278526
31	0x3dd34c06	0.10317235
32	0x3db96f07	0.0905438
33	0xbe06a427	-0.13148557
34	0xbe190ac2	-0.1494551
35	0xbdd54a7c	-0.104145974
36	0x3dbd5e4e	0.09246503
37	0x3c109099	0.008823537
38	0x3e087e20	0.13329363
39	0xbce18452	-0.027528916
40	0x3e0e49d4	0.1389535
41	0x3e1f41bc	0.1555242
42	0xbe3561e0	-0.17713118
43	0x3db4f63e	0.088360295
44	0x3deb97b8	0.115035474
45	0xbda7bdd4	-0.08190504
46	0x3df16314	0.11786476
47	0xbde9933e	-0.11405037
48	0x3d81715d	0.063204505
49	0xbd359190	-0.044328272
50	0x3d8370dd	0.06418011
51	0x3e5a6b7e	0.21330068
52	0xbddf8f8f	-0.109160535
53	0x3d35fd53	0.044431042
54	0xbdcfadff	-0.10140609
55	0xbe0cb664	-0.13741452
56	0x3d3d4646	0.046209596
57	0x3e13f2ef	0.1444814
58	0xbdc8afbc	-0.09799144
59	0x3d9b9815	0.07597367
60	0x3d53dcd1	0.05172426
61	0xbbe5da1e	-0.007014527
62	0x3c6ca2e4	0.014443133
63	0x3d9ce79b	0.07661363
64	0xbd4bc0a3	-0.04974426
65	0x3d12a9a8	0.035806328
66	0x3d02d12a	0.031937756
67	0x3dfd86af	0.123792045
68	0x3d8f1e45	0.06988195
69	0x3e217445	0.1576701
70	0xbe280339	-0.1640748
71	0xbdd23652	-0.10264267
72	0x3e0ff466	0.14058074
73	0xbd471587	-0.048604514
74	0x3d6714ab	0.056416195
75	0xbe0a62d7	-0.13514267
76	0x3e30e615	0.1727527
77	0x3e2d212d	0.16907187
78	0x3d4a127d	0.049334038
79	0xbde7c3a9	-0.11316616
80	0xbd8777bb	-0.06614634
81	0x3e02dc3f	0.1277933
82	0x3d202d70	0.039105833
83	0xbd8bea00	-0.06831741
84	0xbd4624b6	-0.048374854
85	0xbdb5f9c6	-0.08885531
86	0xbdec7c75	-0.11547176
87	0x3e11f6ff	0.14254378
88	0x3e1accf4	0.15117246
89	0xbe0c0d66	-0.13676986
90	0x3ddf3a7f	0.10899829
91	0xbe0f38ce	-0.13986513
92	0x3e1ebc01	0.15501405
93	0x3bcb7d15	0.0062099793
94	0xbdbe24ee	-0.092843875
95	0x3caac9e7	0.020848228
96	0xbde49a95	-0.11162297
97	0xbd08fcb5	-0.033444125
98	0x3e0c4722	0.1369901
99	0x3cca65df	0.024706779
100	0x3d353ad6	0.044245563
101	0xbd354ee5	-0.044264693
102	0x3d9f39f2	0.07774724
103	0x3dbef8ee	0.09324823
104	0xbe384aa0	-0.17997217
105	0xbc4c7470	-0.012478933
106	0x3d3a0c03	0.04542161
107	0x3d1f0d15	0.038830835
108	0x3b685375	0.0035450135
109	0xbe1c41b2	-0.15259436
110	0xbc5b1d1c	-0.013373639
111	0x3dff2970	0.124590755
112	0xbd56a680	-0.05240488
113	0x3c50d24b	0.01274545
114	0xbc41e0d0	-0.011833385
115	0x3dbe8751	0.09303153
116	0xbd4db327	-0.05021968
117	0x3dbec8b4	0.09315625
118	0xbe5ce1fa	-0.21570578
119	0x3d82a348	0.063788
120	0x3e4a8277	0.19776331
121	0xbdb7a177	-0.08966344
122	0x3d9b73ee	0.07590471
123	0xbe293445	-0.16523845
124	0x3c8db4e3	0.017298168
125	0x3d441e00	0.047880173
126	0xbcf5dcf5	-0.030012587
127	0xbdc56f6c	-0.09640393
128	0xbc5ee6d4	-0.013604838
129	0x3d10736c	0.035266325
130	0x3cd1bccd	0.025602723
131	0x3db75722	0.08952166
132	0x3d5a2ee5	0.05326738
133	0xbba08a90	-0.0048993304
134	0x3d6a41bc	0.057191595
135	0xbd7427a7	-0.059608128
136	0x3ce873f0	0.028375596
137	0xbd9cb6c9	-0.07652051
138	0x3de8818f	0.11352836
139	0xbda44c18	-0.08022326
140	0xbdfcbb41	-0.12340403
141	0x3d36bfcb	0.0446165
142	0x3e26d67b	0.16292755
143	0x3de461e5	0.111514844
144	0xbd97f0aa	-0.0741895
145	0x3d067fcb	0.032836717
146	0xbc93c3e3	-0.018037742
147	0xbd5f67f2	-0.05454249
148	0x3d96018d	0.073245145
149	0x3cae7114	0.021294154
150	0xbd4d6c91	-0.050152365
151	0x3e035104	0.12823874
152	0xbd7c04a0	-0.06152785
153	0xbd932565	-0.07184867
154	0x3cc59aa4	0.02412159
155	0xbe274412	-0.1633456
156	0x3d844b5f	0.064596884
157	0xbaf647d1	-0.0018789714
158	0x3c83a4b2	0.016069744
159	0xbe021240	-0.12702274
160	0xbd5c07bc	-0.053718314
161	0x3dd569cc	0.1042057
162	0x3daa604a	0.08319147
163	0x3d6101cf	0.054933365
164	0x3de5fd93	0.11230006
165	0x3d56eafc	0.052470192
166	0xbdf99139	-0.12185902
167	0x3c8e67e1	0.017383518
168	0x3dd07d9c	0.10180208
169	0x3c7092ae	0.014683409
170	0x3b7c2949	0.0038476756
171	0xbda95e6b	-0.08269962
172	0xbd3b8360	-0.045779586
173	0x3e08a52f	0.13344263
174	0x3de06e25	0.109585084
175	0xbdad3f4f	-0.08459341
176	0x3d3b9476	0.04579588
177	0xbde56f83	-0.1120291
178	0x3d8c91e1	0.06863762
179	0xbdfa02ba	-0.12207551
180	0x3cc7b310	0.024377376
181	0xbe788fe5	-0.24273641
182	0x3dc5b43a	0.09653516
183	0xbd7a730a	-0.061144866
184	0x3d86a400	0.06574249
185	0x3b25bb4e	0.0025288644
186	0xbc0cd1a9	-0.008594909
187	0xbd502e4a	-0.050825395
188	0x3cadfd7a	0.021239031
189	0x3d717bde	0.05895602
190	0x3d2ed407	0.042682674
191	0x3b9063dc	0.0044064354
192	0x3e617ad9	0.22019519
193	0xbc178789	-0.009248623
194	0x3de968d2	0.11396946
195	0xbe0a9649	-0.13533892
196	0xbd575bd6	-0.052577816
197	0x3dcb1eb1	0.09917963
198	0x3dad3879	0.08458037
199	0xbe04b0fe	-0.12958142
200	0x3d46c5a4	0.04852833
201	0x3df331fd	0.11874769
202	0x3b66bd86	0.003520818
203	0xbd5d76dd	-0.054068435
204	0x3d4a49f4	0.049386933
205	0x3e0b478f	0.13601516
206	0xbe01ceb4	-0.12676507
207	0xbe1015e3	-0.14070849
208	0xbbf49ec3	-0.007465215
209	0xbe031266	-0.12799987
210	0x3daaeb30	0.0834564
211	0x3d06f4b9	0.03294823
212	0x3d864174	0.06555453
213	0x3d11c93e	0.03559231
214	0xbdfe1d9b	-0.124079905
215	0xbde593d4	-0.112098366
216	0x3ce0cce4	0.02744145
217	0xbe15aec6	-0.14617452
218	0x3e014bab	0.12626521
219	0xbbf0c148	-0.0073472597
220	0x3e007478	0.1254443
221	0x3d206ed0	0.03916818
222	0xbdb49298	-0.08817023
223	0x3d1905f4	0.037359193
224	0xbe238174	-0.15967351
225	0x3e1f7dca	0.15575328
226	0xbbec0651	-0.0072029014
227	0x3c7d7648	0.015470095
228	0x3d5fe86a	0.054665007
229	0xbd37e044	-0.04489161
230	0xbd7e093e	-0.062020533
231	0x3ec86d8b	0.39146075
232	0x3e4bea6c	0.19913644
233	0xbd8faba1	-0.070151575
234	0xbe95ebdb	-0.29281506
235	0x3e1cb1ef	0.15302251
236	0x3ca792b1	0.02045569
237	0xbcd6225b	-0.026139429
238	0xbe089ec9	-0.13341822
239	0xbd6af6b2	-0.057364173
240	0x3d7a6e5e	0.06114041
241	0x3cc6971e	0.02424198
242	0xbdc52366	-0.09625892
243	0x3cc8b663	0.024501031
244	0xbe65dd8d	-0.22447796
245	0xbdae46e8	-0.08509618
246	0xbcbc20f1	-0.022964926
247	0x3e286f4e	0.1644871
248	0xbd342185	-0.04397728
249	0x3d214daf	0.039380725
250	0x3e09ce80	0.1345768
251	0xbe4d8ea3	-0.20073943
252	0x3993f616	0.00028221373
253	0xbe62ddf7	-0.22154985
254	0xbcfefb60	-0.031125724
255	0xbc620349	-0.013794729

fc2.bias f4 [16]
0	0x3e862373	0.2619892
1	0x3d08f571	0.033437196
2	0x3c629e80	0.013831735
3	0xbb920276	-0.00445586
4	0x3e3659d0	0.17807698
5	0xbda33e8a	-0.07970913
6	0x3d4cb149	0.04997376
7	0x3d81e740	0.063429356
8	0x3e0ae258	0.13562906
9	0x3db3594a	0.08757265
10	0x3df0f72a	0.11765893
11	0xbce70876	-0.028202277
12	0xbc3a0b53	-0.011355239
13	0x3ea14efe	0.3150558
14	0xbd34ed20	-0.044171453
15	0xbcf7236c	-0.030168258

fc3.weight f4 [1, 16]
0	0x3de5eb50	0.11226523
1	0x3e3e403b	0.1857919
2	0x3d987f83	0.07446196
3	0xbc40adcb	-0.0117601855
4	0x3e442cd4	0.19157726
5	0xbd643ab2	-0.05572004
6	0xbd9eb344	-0.07749036
7	0x3bf52260	0.0074809045
8	0xbc2f8100	-0.010711908
9	0xbd2ca3f0	-0.04214853
10	0x3cd95df3	0.026534056
11	0xbc924076	-0.017853003
12	0x3c76eb73	0.015070784
13	0x3d58d786	0.052939914
14	0xbc007416	-0.007840177
15	0x3d919c6d	0.07109914

fc1.weight f4 [32, 7]
0	0xbd67c2f2	-0.0565824
1	0x3d09cf6f	0.03364509
2	0x3dc67e26	0.0969203
3	0xbe463a41	-0.1935816
4	0x3d8ad1d0	0.067783
5	0xbe05520a	-0.13019577
6	0xbe610139	-0.21973123
7	0x3e18ece0	0.1493411
8	0xbdd64518	-0.10462397
9	0xbd8dfc65	-0.06932906
10	0x3e49036b	0.1963021
11	0xbc82ddf0	-0.015974969
12	0x3e23b725	0.15987833
13	0x3e8ef171	0.2791858
14	0xbdcecf40	-0.100981236
15	0x3e00bee5	0.1257282
16	0x3d71204e	0.0588687
17	0x3df89420	0.121376276
18	0xbe8329fc	-0.2561797
19	0x3e83e0d6	0.25757474
20	0x3e2264ea	0.15858808
21	0xbe7c4a64	-0.24637753
22	0x3de49b50	0.11162436
23	0xbda97794	-0.08274761
24	0xbe10c9e1	-0.1413951
25	0x3cda8c6b	0.026678285
26	0x3cab7c57	0.020933313
27	0xbe44eec1	-0.19231702
28	0x3e2dac29	0.16960205
29	0xbda7fb6b	-0.08202251
30	0x3c86a12c	0.016434275
31	0x3e6f7b0d	0.23386784
32	0xbe7418ac	-0.23837537
33	0xbc7c564a	-0.015401432
34	0x3dbc1ab0	0.09184778
35	0x3e5b15d7	0.2139505
36	0xbe113ded	-0.14183779
37	0x3d829fce	0.063781366
38	0x3e6eb548	0.23311341
39	0xbe008b54	-0.1255315
40	0xbd9b2bd4	-0.07576719
41	0x3d8f431a	0.069952205
42	0x3e80640a	0.25076324
43	0xbdd0b6ba	-0.10191102
44	0x3dd15bfc	0.10222623
45	0xbe95148a	-0.29117233
46	0x3e4c2be6	0.19938621
47	0xbe1b6dff	-0.15178679
48	0xbe769d74	-0.24083501
49	0xbe2d3e1e	-0.16918227
50	0xbca6297b	-0.020283451
51	0xbd46f3d4	-0.048572376
52	0xbd7a7981	-0.06115103
53	0xbe05420a	-0.13013473
54	0xbea4203c	-0.32055843
55	0x3e2de43f	0.169816
56	0x3dc50175	0.096194185
57	0x3d3dcd4d	0.04633837
58	0x3cccd5c8	0.025004283
59	0x3c447bfb	0.01199245
60	0x3da4af18	0.08041209
61	0x3e57b087	0.21063434
62	0xbca44ecb	-0.020057103
63	0xbdf15de0	-0.11785483
64	0xbce8eab2	-0.028432224
65	0xbe1d91cc	-0.15387648
66	0x3e92a123	0.28638563
67	0x3e3f0c36	0.18657002
68	0xbcb823ae	-0.02247795
69	0xbd643c3e	-0.055721514
70	0xbe105470	-0.1409471
71	0x3d2d93ad	0.042377163
72	0xbe100bba	-0.14066973
73	0xbc795e07	-0.015220172
74	0x3e314d14	0.17314559
75	0x3d830e34	0.063991934
76	0x3d574392	0.052554674
77	0x3d61c540	0.055119753
78	0x3d5fdbb8	0.0546529
79	0x3d0b21d5	0.03396781
80	0x3dbee573	0.09321108
81	0xbdfb2fc0	-0.12264967
82	0x3e2fc541	0.1716509
83	0xbd2573dd	-0.0403937
84	0x3d049b63	0.03237475
85	0xbe806f9e	-0.25085157
86	0xbd98d177	-0.07461827
87	0xbe72baa4	-0.2370401
88	0x3e290ac9	0.1650802
89	0xbea5c0c0	-0.3237362
90	0x3eab4b1f	0.3345575
91	0x3e7d0172	0.24707583
92	0xbe1b0ad5	-0.15140851
93	0x3d80b731	0.06284941
94	0xbe779204	-0.24176794
95	0xbbec910c	-0.0072194394
96	0xbd85198c	-0.06499013
97	0xbdac4936	-0.084124014
98	0xba89b0ac	-0.0010504923
99	0x3adb48e0	0.0016730092
100	0xbb6c7934	-0.0036082985
101	0x3e47cc87	0.19511615
102	0x3a3ec797	0.0007277666
103	0x3e8badd0	0.27281046
104	0xbbc33cbf	-0.0059581692
105	0x3ea6a996	0.3255126
106	0xbe268977	-0.16263376
107	0x3df1c555	0.11805216
108	0x3e1548d6	0.14578566
109	0xbcd26501	-0.025682928
110	0xbbee395c	-0.0072700214
111	0x3e6301ed	0.22168703
112	0x3df5f60d	0.12009821
113	0x3d603934	0.054742053
114	0x3e5559eb	0.20835082
115	0x3e80efa4	0.2518283
116	0xbe34c8e8	-0.17654765
117	0xbe313d97	-0.17308651
118	0xbe4b5155	-0.19855244
119	0x3dc7d962	0.09758259
120	0x3d6e6cd7	0.058209267
121	0x3e332c75	0.17497428
122	0x3e237e26	0.1596609
123	0xbdf857fc	-0.12126157
124	0xbe2ab6d4	-0.16671306
125	0xbe77bd09	-0.24193205
126	0xbcb6d4ac	-0.022318207
127	0x3e31097c	0.17288774
128	0x3d5573c4	0.052112356
129	0x3e2a49be	0.16629693
130	0xbdedda14	-0.11613861
131	0x3e61fbde	0.22068736
132	0xbe6d0005	-0.23144539
133	0xbe582e8c	-0.21111506
134	0x3df93693	0.12168612
135	0xbdb6cf6b	-0.089262806
136	0x3e18a099	0.14905013
137	0xbe6fecad	-0.23430128
138	0xbe2a3dd3	-0.16625147
139	0x3e5c43d5	0.21510251
140	0xbe6bd9b3	-0.23032264
141	0x3d709770	0.058738172
142	0x3d7cd00e	0.061721854
143	0x3d854426	0.06507139
144	0xbe80ccb6	-0.25156182
145	0xbe715327	-0.23566876
146	0xbd7f3240	-0.06230378
147	0xbe098448	-0.13429368
148	0x3d912d20	0.07088685
149	0xbd264b82	-0.040599354
150	0xbd832a00	-0.06404495
151	0x3e26fcc5	0.16307361
152	0x3ede902b	0.43469366
153	0xbd213609	-0.039358173
154	0x3e551dc2	0.20812133
155	0xbdf5c4d8	-0.120004356
156	0x3db04d01	0.08608437
157	0xbe030006	-0.12792978
158	0x3e7a2aa9	0.24430336
159	0x3dd90277	0.10596173
160	0xbe5a9c69	-0.21348728
161	0x3dea4983	0.114398025
162	0xbe094d1d	-0.13408323
163	0xbd892f63	-0.066984914
164	0xbe087e59	-0.13329448
165	0x3e8fb92d	0.28070965
166	0xbe944aab	-0.28963217
167	0xbe33f2fa	-0.17573157
168	0x3e37abf2	0.17936686
169	0xbdbccc22	-0.09218623
170	0x3d82af03	0.06381037
171	0xbd0e818e	-0.03479152
172	0x3e3eb37e	0.18623158
173	0xbdd34d3a	-0.10317464
174	0xbe28dbeb	-0.16490142
175	0x3e342e7e	0.1759586
176	0x3d0684f0	0.032841623
177	0x3c2768dd	0.010217872
178	0xbd21c441	-0.039493803
179	0x3e10fdca	0.14159313
180	0xbe878454	-0.26468146
181	0xbdd23aa4	-0.10265091
182	0x3e1c6e36	0.15276417
183	0xbd0a5743	-0.033774626
184	0xbdddc7e4	-0.10829142
185	0xbd2b64d5	-0.041844208
186	0x3e81fa2f	0.25386187
187	0x3e7abbbd	0.24485679
188	0xbc4e73cd	-0.012600851
189	0x3e6ba227	0.23011075
190	0xbd52c589	-0.051457915
191	0xbd8dd713	-0.06925788
192	0xbc319003	-0.010837558
193	0x3e79e392	0.24403217
194	0x3e4e7c80	0.2016468
195	0x3d6b6068	0.057464987
196	0xbc30f58e	-0.010800732
197	0x3c961a1f	0.018323002
198	0xbb0308d8	-0.0019994285
199	0xbe989f0f	-0.29808852
200	0x3b2ed0ab	0.0026674669
201	0xbd74ab7a	-0.059733845
202	0xbd6dc51e	-0.058049314
203	0xbe9ca97c	-0.30598056
204	0x3e0eb1e6	0.1393505
205	0xbe04a770	-0.12954497
206	0x3e8016f0	0.250175
207	0xbe75ca1f	-0.24002884
208	0x3d5f6319	0.054537866
209	0x3e955f0d	0.2917408
210	0xbe1f2998	-0.1554321
211	0xbd8867ee	-0.06660448
212	0xbe8841e9	-0.26612785
213	0xbe996d02	-0.2996598
214	0x3e6027c3	0.21890168
215	0x3e3dbd49	0.18529238
216	0x3e71cd5c	0.23613495
217	0xbe02b3fd	-0.12763973
218	0x3d504d5a	0.05085502
219	0x3c780640	0.015138209
220	0xbe86eef2	-0.26354176
221	0x3e0b8894	0.13626319
222	0xbe38dc7f	-0.18052863
223	0xbe5f05c7	-0.21779548

fc1.bias f4 [32]
0	0x3d5e0ddf	0.054212447
1	0x3e18da89	0.14927115
2	0xbdb6b962	-0.08922078
3	0x3e6aeb8c	0.22941417
4	0x3e9387c9	0.28814533
5	0x3cae4b5c	0.021276169
6	0x3ea80591	0.32816747
7	0xbe75e3b0	-0.24012637
8	0x3f1062a8	0.5640054
9	0x3e56cecc	0.20977324
10	0x3eab6054	0.3347193
11	0x3de8666f	0.11347663
12	0x3e8c4790	0.27398348
13	0xbe3d2ac6	-0.18473348
14	0x3f103e8d	0.56345445
15	0xbed7ef6b	-0.4217485
16	0x3ebef43e	0.37295717
17	0x3e051b18	0.12998617
18	0xbe3926c3	-0.18081193
19	0x3edaef6e	0.42760795
20	0x3ec6dc3f	0.3883991
21	0xbe1b7884	-0.15182692
22	0xbe51e102	-0.2049599
23	0x3dd0935a	0.10184355
24	0x3f07b323	0.53007716
25	0xbd082f1d	-0.033248056
26	0xbdbf2716	-0.09333627
27	0xbe3b3536	-0.18282017
28	0x3e97aaae	0.29622406
29	0xbe1ca9fd	-0.1529922
30	0xbeb3f283	-0.3514596
31	0x3e09aec8	0.1344558

fc2.weight f4 [16, 32]
0	0x3d66a6a9	0.056311283
1	0x3d0c3e63	0.034239184
2	0x3d6314b7	0.055439677
3	0xbdb1153a	-0.08646627
4	0xbe5c8a43	-0.21537118
5	0xbc737cf6	-0.014861336
6	0xbcddac7c	-0.027059786
7	0x3de40465	0.11133651
8	0x3ac1cfb6	0.0014786634
9	0xbd745d17	-0.05965909
10	0x3e276096	0.16345438
11	0x3da0966e	0.07841192
12	0x3e29677b	0.16543381
13	0xbd8d3f56	-0.06896846
14	0x3e13d1fb	0.1443557
15	0xbe0d484c	-0.1379711
16	0x3e2df9e8	0.16989863
17	0xbe2f8fdc	-0.17144722
18	0xbe389d08	-0.18028653
19	0x3ce4a920	0.027912676
20	0x3e1457c6	0.14486608
21	0xbe0389e6	-0.12845573
22	0xbe0ac5fb	-0.13552086
23	0xbd2e4152	-0.042542763
24	0x3d4ae3f4	0.0495338
25	0xbe0202e1	-0.1269641
26	0x3d74052d	0.05957525
27	0x3e2deddc	0.16985267
28	0x3dbd69ca	0.09248693
29	0xbd21522a	-0.039385
30	0xbe457468	-0.19282687
31	0x3dd32c88	0.10311228
32	0x3db955e2	0.09049584
33	0xbe06a98f	-0.13150619
34	0xbe191115	-0.14947923
35	0xbdd5666e	-0.104199275
36	0x3dbd680a	0.092483595
37	0x3c10ab9d	0.008829978
38	0x3e0873b1	0.13325383
39	0xbce29658	-0.02765958
40	0x3e0e40a9	0.13891853
41	0x3e1f4155	0.15552266
42	0xbe356599	-0.17714538
43	0x3db4e2dd	0.08832333
44	0x3deb9fd7	0.115050964
45	0xbda7f0fc	-0.08200261
46	0x3df15791	0.1178428
47	0xbde9b7a7	-0.11411982
48	0x3d816e7e	0.06319903
49	0xbd35c22c	-0.04437463
50	0x3d836d14	0.064172894
51	0x3e5a61c6	0.2132636
52	0xbddfa5e6	-0.109203145
53	0x3d35b53a	0.044362284
54	0xbdcfd79a	-0.101485446
55	0xbe0cbeec	-0.13744706
56	0x3d3d362a	0.046194233
57	0x3e13f646	0.14449415
58	0xbdc8c5e0	-0.09803367
59	0x3d9b77cd	0.075912096
60	0x3d539ec8	0.051665097
61	0xbbe61411	-0.007021435
62	0x3c6bf0a9	0.01440064
63	0x3d9cc743	0.07655194
64	0xbd4beffc	-0.049789414
65	0x3d1294ae	0.035786323
66	0x3d02b77e	0.031913273
67	0x3dfd6c28	0.12374145
68	0x3d8f27ee	0.06990038
69	0x3e217669	0.15767826
70	0xbe280d02	-0.16411212
71	0xbdd2842e	-0.102791175
72	0x3e0febb2	0.14054754
73	0xbd4713ea	-0.048602976
74	0x3d670830	0.056404293
75	0xbe0a6c2f	-0.13517831
76	0x3e30eaba	0.17277041
77	0x3e2d0885	0.16897781
78	0x3d49fcf0	0.049313486
79	0xbde7e81c	-0.11323568
80	0xbd877b5a	-0.06615324
81	0x3e02d06f	0.12774824
82	0x3d2028c8	0.039101392
83	0xbd8bff31	-0.06835783
84	0xbd46558c	-0.048421428
85	0xbdb61cde	-0.08892225
86	0xbdeca4f9	-0.115549035
87	0x3e11ef64	0.14251477
88	0x3e1ac9a3	0.15115981
89	0xbe0c0949	-0.13675417
90	0x3ddf2558	0.10895795
91	0xbe0f48b9	-0.13992585
92	0x3e1ead43	0.15495782
93	0x3bcb23c7	0.0061993334
94	0xbdbe3a0f	-0.092884175
95	0x3caa4e29	0.020789223
96	0xbde4d766	-0.111738965
97	0xbd093643	-0.033499014
98	0x3e0c566d	0.13704844
99	0x3ccadeab	0.02476438
100	0x3d350e71	0.044203226
101	0xbd356d50	-0.0442937
102	0x3d9e500e	0.07730113
103	0x3dbf48ae	0.093400344
104	0xbe3838c0	-0.17990398
105	0xbc4cbaf8	-0.012495749
106	0x3d3a34ca	0.0454605
107	0x3d1f4ee1	0.038893584
108	0x3b63562c	0.0034688814
109	0xbe1c7758	-0.15279901
110	0xbc59b1f7	-0.013287059
111	0x3dff16b6	0.12455504
112	0xbd56a23e	-0.05240082
113	0x3c52e11a	0.012871051
114	0xbc3f9b2f	-0.0116947135
115	0x3dbe9e50	0.093075395
116	0xbd4d7964	-0.050164595
117	0x3dbf068d	0.09327421
118	0xbe5c82cf	-0.21534275
119	0x3d81e7be	0.063430294
120	0x3e4a4e36	0.19756398
121	0xbdb8867c	-0.09010026
122	0x3d9b601d	0.075866915
123	0xbe293f62	-0.16528085
124	0x3c8db2c7	0.017297162
125	0x3d4435df	0.047902938
126	0xbcf64510	-0.030062228
127	0xbdc57836	-0.09642069
128	0xbc5fb017	-0.013652823
129	0x3d105e05	0.035245914
130	0x3cd18aba	0.025578845
131	0x3db73b33	0.08946838
132	0x3d5a4257	0.053285923
133	0xbba054ff	-0.004892945
134	0x3d6a1807	0.05715182
135	0xbd74b0c1	-0.05973888
136	0x3ce829f7	0.028340323
137	0xbd9cb7b7	-0.07652228
138	0x3de87a31	0.11351431
139	0xbda45f8b	-0.08026036
140	0xbdfcb350	-0.12338889
141	0x3d36595c	0.044518813
142	0x3e26d0bb	0.16290562
143	0x3de43d9f	0.11144566
144	0xbd97f38f	-0.07419502
145	0x3d064f33	0.032790374
146	0xbc93d3b6	-0.018045288
147	0xbd5f8ee9	-0.05457965
148	0x3d95eb53	0.07320275
149	0x3cade0db	0.021225384
150	0xbd4dbfb6	-0.050231658
151	0x3e03487f	0.12820624
152	0xbd7c14d2	-0.061543293
153	0xbd931ef8	-0.07183641
154	0x3cc54224	0.02407939
155	0xbe275454	-0.16340762
156	0x3d842c66	0.06453781
157	0xbaf730c4	-0.0018859138
158	0x3c834b87	0.016027225
159	0xbe02228a	-0.12708488
160	0xbd5b7fdd	-0.053588737
161	0x3dd58f5e	0.10427736
162	0x3daa765e	0.08323358
163	0x3d615dc4	0.055021062
164	0x3de5fc71	0.1122979
165	0x3d56f043	0.052475225
166	0xbdf976f1	-0.121808894
167	0x3c8e2c5b	0.017355135
168	0x3dd09179	0.10183997
169	0x3c6c56a1	0.014424951
170	0x3b788588	0.0037921388
171	0xbda94a6a	-0.082661465
172	0xbd3b75ce	-0.045766644
173	0x3e08cb73	0.1335886
174	0x3de07e51	0.10961593
175	0xbdad18f6	-0.084520265
176	0x3d3bb42a	0.045826115
177	0xbde563da	-0.11200686
178	0x3d8caeb7	0.06869262
179	0xbdfa0867	-0.12208634
180	0x3cc7cf29	0.024390774
181	0xbe787556	-0.2426351
182	0x3dc5ad07	0.09652143
183	0xbd7b4b72	-0.061351247
184	0x3d86b2e9	0.06577093
185	0x3b19d753	0.002347429
186	0xbc0e01c4	-0.008667413
187	0xbd505901	-0.05086613
188	0x3cae9345	0.021310458
189	0x3d71e08d	0.05905204
190	0x3d2ed285	0.042681236
191	0x3b968349	0.004593287
192	0x3e618949	0.22025026
193	0xbc171ddd	-0.009223429
194	0x3de9762e	0.11399494
195	0xbe0a882f	-0.13528512
196	0xbd575f87	-0.052581336
197	0x3dcb2c38	0.099205434
198	0x3dad50ea	0.08462699
199	0xbe048f2a	-0.12945238
200	0x3d46ed5b	0.048566204
201	0x3df337cc	0.11875877
202	0x3b67a5bc	0.0035346588
203	0xbd5d4cb7	-0.05402824
204	0x3d4a3e2c	0.049375698
205	0x3e0b63e0	0.13612318
206	0xbe01c876	-0.12674126
207	0xbe0ffffc	-0.14062494
208	0xbbf4572e	-0.0074566817
209	0xbe0305be	-0.12795159
210	0x3daaf197	0.08346861
211	0x3d071dec	0.03298752
212	0x3d8658dd	0.06559918
213	0x3d1210ce	0.035660557
214	0xbdfdf20c	-0.123996824
215	0xbde57eec	-0.11205849
216	0x3ce0fa1c	0.027463011
217	0xbe15b029	-0.14617981
218	0x3e01571a	0.12630883
219	0xbbeea9a4	-0.0072834063
220	0x3e0084a4	0.12550598
221	0x3d207a94	0.0391794
222	0xbdb47e46	-0.08813147
223	0x3d194cfb	0.03742693
224	0xbe236af3	-0.15958767
225	0x3e1f6a9b	0.1556801
226	0xbbe8a159	-0.0070993123
227	0x3c801c6e	0.015638556
228	0x3d6029e5	0.054727454
229	0xbd376b9c	-0.04478036
230	0xbd7de882	-0.061989315
231	0x3ec8091c	0.3906945
232	0x3e4bee04	0.19915015
233	0xbd8f0f5e	-0.06985353
234	0xbe95decc	-0.29271543
235	0x3e1cc7ff	0.15310667
236	0x3ca6374e	0.020290043
237	0xbcd6622e	-0.026169863
238	0xbe088e0a	-0.13335434
239	0xbd6b2d90	-0.0574165
240	0x3d7abbc7	0.061214235
241	0x3cc824ce	0.024431612
242	0xbdc4acef	-0.09603297
243	0x3cc7a47a	0.02437042
244	0xbe65e952	-0.22452286
245	0xbdae4b33	-0.08510437
246	0xbcbbb399	-0.022912787
247	0x3e28ed4d	0.16496773
248	0xbd33f3d9	-0.043933723
249	0x3d22d97d	0.039758194
250	0x3e09d2df	0.13459347
251	0xbe4d9ded	-0.20079775
252	0x3963c33d	0.00021721139
253	0xbe62f5f3	-0.22164135
254	0xbd00795f	-0.03136575
255	0xbc61fa0b	-0.013792525

fc2.bias f4 [16]
0	0x3e861ed4	0.26195395
1	0x3d08cf40	0.033400774
2	0x3c620c4a	0.013796875
3	0xbb901ba8	-0.004397828
4	0x3e365047	0.17804061
5	0xbda32546	-0.07966094
6	0x3d4cdaad	0.050013233
7	0x3d81e24f	0.06341993
8	0x3e0af4cd	0.13569947
9	0x3db35826	0.08757047
10	0x3df0e9fa	0.117633775
11	0xbce700ae	-0.028198566
12	0xbc3a3ecd	-0.011367512
13	0x3ea14a74	0.31502116
14	0xbd34a8e7	-0.04410639
15	0xbcf76944	-0.030201562

fc3.weight f4 [1, 16]
0	0x3de5e8b7	0.112260275
1	0x3e3e3df4	0.1857832
2	0x3d988243	0.074467205
3	0xbc413a74	-0.0117937215
4	0x3e442650	0.1915524
5	0xbd6477df	-0.05577838
6	0xbd9ed6e3	-0.0775583
7	0x3bf41d6d	0.007449797
8	0xbc309b42	-0.010779204
9	0xbd2c6271	-0.04208607
10	0x3cd9172c	0.026500307
11	0xbc926c66	-0.017873954
12	0x3c77c504	0.015122656
13	0x3d58b674	0.052908376
14	0xbc0213d2	-0.007939296
15	0x3d918e69	0.07107241
