logs/sdf_single_scene_3_spheres/state_16.pt (torch, 13071 bytes, 12 tensors)

fc1.weight f4 [32, 7]
00000000: d118 1f3e 6384 62be b4dd 8ebe e67b a93c
00000010: 6ddf 2c3e 7354 8dbe ffef f0bd 2825 b73d
00000020: 7d30 143e 5562 263e fd0f 70bd 24c1 573e
00000030: 021f 063e f358 b13c c1c6 963e bce9 0ebe
00000040: f4bd 55be bb11 813e 24f0 403e c872 33be
00000050: b36d ba3e ed28 f5bd b92c bf3e 36bb b63d
00000060: d95e 8ebe 5805 3b3e 0d7f 96be ed7e 0cbe
00000070: 235f 38bb d341 40be 5dff 17be 19d3 263e
00000080: ca72 443e d8fc a4bd b28e ac3e 1b19 5ebe
00000090: 959f 82be fa7b 73be dd88 d73b a364 03be
000000a0: b104 88be 1a68 123d 60d2 4e3c edaa f9bd
000000b0: 804b 4fbd ac98 12be 1b39 883e 2d42 99be
000000c0: ea7f 11bd ae9b 4e3e 2fd6 6f3d a735 8e3e
000000d0: 1767 063e af2f 8ebe cdd1 803e 8415 92be
000000e0: 9495 753e f426 91bd 3d36 eebd 3d5b f23d
000000f0: f22f 7b3e aa17 5cbe 709a adbe 82c5 ab3e
00000100: 833f 1e3d 352e bf3e 6285 fd3d c526 8cbe
00000110: 1406 3ebe c1fb 9a3e a5c4 dc3c 7cff 8a3d
00000120: 09ae 103e 4edf 9a3d 2770 95bd 1c41 dabc
00000130: f412 d2bd 5bc0 aa3c 3c58 8ebe af8a 24be
00000140: e337 92bd a475 a6bd fea3 863e e16e 84bd
00000150: 0517 82be 1eed d33e 40a6 86be d744 95be
00000160: 1e58 a7be a00e 11be 67b3 f43c 740a 353e
00000170: 7ed4 70bd 8aa5 85be abf2 723c 1336 1c3e
00000180: cd84 40be 2d0c 783e e527 1b3e ac4e bb3d
00000190: 042c 3ebd 0485 a2be 0b6c 813d 3f3b d9bb
000001a0: ad8c d43d b07e e8bd 4fb7 473e 2842 c73e
000001b0: edf6 87bd a10c a4be 4953 99bd 4e2f cc3d
000001c0: c9ec 1cbe 72a8 c0be d7a5 c53e 48d7 34be
000001d0: f018 9e3e 82bc 34be 76a9 45bc 6301 8ebe
000001e0: e76f c4bd 84ec 3d3e 0da3 43be 234f a4bd
000001f0: 1de2 883e ee52 28be 8895 77bd 6fa4 3abe
00000200: 024c 213d 317e 55bd e15e 023e db48 b43e
00000210: 1d54 0f3d a61b 23be 0f57 223e 873e 4c3e
00000220: de3f 1fbc 6b35 5abe 8d57 c03d 6a17 293e
00000230: c3d8 0bbd 8955 8b3d 7e4f 2f3d ed30 5abe
00000240: a130 b63d 09d3 3bbe e977 1c3e 4f89 fc3d
00000250: 72b0 203e 1011 01be 910c b5be 3dfb b83d
00000260: 8168 6b3e 75be 44be 5e0d 7b3d 2198 9fbd
00000270: 8888 673e c1ee dd3c 1bf3 93bd f8cb a33e
00000280: e6fb 613c c625 abbd aacb 783d bed9 e63d
00000290: be0a 2e3e 486f 043e 52a9 593e 7cb2 4d3c
000002a0: ce3c 4a3d 9399 e7be 253f 7e3e b582 bfbb
000002b0: 9790 a4bd ad2b 263e 4fe9 273e d43e 5e3e
000002c0: 64de a4be 3bf9 533b 3aa5 8a3e da0e 303e
000002d0: a477 543e f4ee b8bd 6c93 c0be 93c3 7dbe
000002e0: ed49 cdbc 21c7 2b3e 1ec2 bfbe 9a9b 7d3e
000002f0: ecf6 ba3e 514f a73c e0a8 5a3e 2c6f b0be
00000300: 554e 36bd b445 353e b044 02bf 1eba 853d
00000310: f20d 3ebe 1cba b73e 19d1 9b3e 468f 343e
00000320: 2fc4 84be df09 463e 907e 4d3d fe86 4b3e
00000330: 01b3 3f3c 5c1b 7e3c c1e2 eebc 0aba 2abd
00000340: d0f9 ba3e 4d2f f4bd 76c9 62be 8680 dbbd
00000350: e820 593d f97a c6bc dd11 5cbe 134b 423e
00000360: bd3c 9c3e b2f0 37be c62d 8bbd c1ba 11be
00000370: 3a15 b6be f283 97bd d2ab 173e 4164 57bd
0.1553681 -0.22120814 -0.2790352 0.020688962 0.16882105 -0.27603492 -0.117645256 0.08942634
0.14471622 0.16248448 -0.058608998 0.21069771 0.13097766 0.02164886 0.29448512 -0.1395635
-0.20873243 0.2520884 0.18841606 -0.17524254 0.3641182 -0.119706966 0.37338808 0.089224264
-0.27806738 0.18263757 -0.29393807 -0.13720293 -0.0028132878 -0.1877511 -0.14843507 0.16291465
0.19184414 -0.080560386 0.33702618 -0.21689264 -0.25512376 -0.23777762 0.0065775947 -0.12831359
-0.2656608 0.03574381 0.0126233995 -0.12190805 -0.05060911 -0.14316052 0.26606068 -0.299333
-0.03552238 0.20176575 0.05855387 0.27775308 0.13125263 -0.27770755 0.25160065 -0.2853204
0.23982841 -0.07087508 -0.11631439 0.118338086 0.24530008 -0.21493402 -0.3390689 0.33549124
0.03863479 0.3733994 0.123789564 -0.2737333 -0.18557006 0.30270198 0.026949236 0.06787011
0.14128889 0.07562123 -0.07296782 -0.026642375 -0.10257521 0.020843675 -0.27801692 -0.16068529
-0.07139566 -0.08127907 0.2629699 -0.06466461 -0.25408188 0.41391844 -0.26298714 -0.29154083
-0.32684416 -0.14165735 0.029870702 0.17679769 -0.0587964 -0.2610286 0.014828364 0.15255003
-0.1880066 0.24223395 0.15151937 0.09145865 -0.046428695 -0.31742108 0.06319436 -0.006629377
0.10378394 -0.11352289 0.1950352 0.3891766 -0.06638894 -0.32040885 -0.074865885 0.0996996
-0.15324701 -0.37628514 0.38603088 -0.17660248 0.308784 -0.17650035 -0.012064328 -0.27735433
-0.09591656 0.18547255 -0.19105168 -0.08022907 0.2673501 -0.16437885 -0.06044534 -0.18226789
0.039379127 -0.0521223 0.12731506 0.35211834 0.034992326 -0.15928516 0.15853523 0.19945727
-0.009719817 -0.2130944 0.09391699 0.16512838 -0.034142267 0.06803424 0.04280042 -0.21307726
0.08895994 -0.18342222 0.15280117 0.12330877 0.15692309 -0.12604165 -0.3536115 0.09032295
0.22989084 -0.19213279 0.061292045 -0.07792688 0.22610676 0.027091386 -0.07224103 0.31991553
0.013792967 -0.08356814 0.060741104 0.11272 0.16996285 0.12933075 0.21255997 0.012554761
0.049374394 -0.45234355 0.24828775 -0.005844439 -0.08035391 0.16227598 0.16397594 0.21703655
-0.3220092 0.0032344598 0.27079183 0.17193165 0.20748764 -0.09029952 -0.37612474 -0.24781637
-0.025059665 0.1677518 -0.37452787 0.24766389 0.3651651 0.020423563 0.21353483 -0.34459817
-0.044508297 0.17702371 -0.5088606 0.0652964 -0.18560007 0.35884178 0.30432966 0.1763278
-0.25930926 0.19339703 0.050169528 0.19875714 0.011700393 0.015509453 -0.029160859 -0.041681327
0.36518717 -0.119230844 -0.22147164 -0.10717873 0.053009897 -0.02422856 -0.2149119 0.18973951
0.3051509 -0.17962912 -0.0679584 -0.14231397 -0.3556307 -0.073982134 0.14811638 -0.052585844

fc1.bias f4 [32]
00000000: 6871 0e3f 8a9d fdbd 5bc8 cc3e ad79 043f
00000010: 6c2a 963e edae 103f 5181 003e e1a5 5e3e
00000020: 0e89 33be 6325 51be 573b ce3e 0549 e43e
00000030: a348 e33e 3c60 0dbd 3728 0f3f d906 513e
00000040: 1b9e ea3e 93fc ec3e d1f6 27bb dde1 e73e
00000050: 2766 0a3f 9c44 a63e a025 57be cfb7 163f
00000060: a8cc 023e 55dd 073f 1005 42be 1067 523e
00000070: 1497 7cbd f14c fb3e b1fd 363d 1b12 a23e
0.55641794 -0.12383564 0.3999661 0.5174816 0.2932924 0.56516916 0.1254933 0.21742965
-0.17532751 -0.20424418 0.40279648 0.4458696 0.44391355 -0.034515604 0.5592074 0.20412768
0.4582375 0.4628645 -0.0025629292 0.45289508 0.5406212 0.3247422 -0.21010447 0.5887422
0.12773383 0.530721 -0.18947244 0.20547128 -0.061667517 0.4908214 0.044675533 0.31654438

fc2.weight f4 [16, 32]
00000000: 5eca 0abd 89f8 753d aeb4 e43d a305 cb3d
00000010: 1620 a73c f067 b53d a287 9a3c d38c f3bc
00000020: 9df4 87ba 95c8 ae3c 22a6 2e3e c488 553e
00000030: bd0c 993d 52f9 9ebd fea7 223e b131 153c
00000040: 6506 4c3d ce97 523d 107a 87bd c21d 8b3d
00000050: 7eb3 b5bd f473 dfbb b88b c6bd b40f 013e
00000060: ea62 fb38 e31e fd3d a642 9fb9 cec1 163e
00000070: e376 373d 550f 2dbc ccfd a83d d704 6dbd
00000080: dd52 ae3d 821e 1a3e 4d24 003e 9cda 383e
00000090: 0bc0 a43d 6b7e bf3d cfdd dd3c 27b1 cf3d
000000a0: 87fb 2a3e ffb1 9e3d 9466 ae3d c78e 5a3e
000000b0: 2583 353e 637e 783d 1936 21bd 6663 bd3c
000000c0: 9e97 8e3d 7028 1ebd 8304 643e 344e 1f3e
000000d0: aa01 a83d 32a8 38bd 3cae 243d cbab 32bd
000000e0: 2937 fc3c 06d0 b53c bf84 273d 65ab 553d
000000f0: 3a07 573c de6b cb3d f33b dd3a c5a0 b6bc
00000100: 72b2 d43c b247 143e afbb 88bb 4602 cb3b
00000110: 174b 1c3e 9c2f d23c 5a31 973c 8cee fa3d
00000120: 8d2b 023e bb72 b83d 7d9b bcbd 8782 893d
00000130: 3248 ab3d 3df4 383d 747c c73c 6afc 363d
00000140: ee99 783d 50c8 4b3d 9f30 563c fe0d f7bd
00000150: c7d1 863d b188 243d ef65 453d 8aa5 a7bd
00000160: fdce ca3d fef1 1fbd a971 793d 7fd9 413d
00000170: 5165 0c3e 12df 663d cb24 bf3c 6853 8cbb
00000180: 41b0 923c 9ec3 2fbc 161d 043d 7b7e 973d
00000190: 84ce 673d e913 d43d f66d a8bc a126 a13d
000001a0: a601 013e d072 973d 7c55 813d e6cc ef3d
000001b0: 003d f43d 9748 033e 7a93 75b9 bed1 a03c
000001c0: 7815 6b3d 4fc6 0bbd 4cff 253e 4dfc 06bb
000001d0: 33b6 eb3d 2826 113e 1862 2f3e 5e5e 71bd
000001e0: 5a1a 953d b467 b0bb 1ecd ba3d 0a51 1cbd
000001f0: 1f41 c63d 9a2b 8ebd c1fb 71bd 0f1b c7bd
00000200: f4ff 043e 6c73 243c 94d5 073b b196 8c3d
00000210: 3629 0c3e f17d 633d ccff 0cbd 6084 183e
00000220: 648b da3d cf50 943d 0f4b 293e 0d13 433e
00000230: 3a95 763d 2c10 2b3c 29cf 403e 3e89 31bc
00000240: 4ece 5a3d 5afc 65bc 6613 1d3e 76d3 463e
00000250: f2a2 0f3c 8c03 d63c 6e33 dcbc 586f 153d
00000260: 8ed6 c53d 5035 6ebd 77a7 f93d f6ca 593d
00000270: ffbd d33b 8d12 31bd bef2 1dbe d1d0 74bd
00000280: 7d76 2cbe b63a 7abd 6e17 8ebe 7e9d bdbd
00000290: a3a2 f2bd 5ac8 8dbe b1f7 cd3d 46db 14bd
000002a0: cdf9 213e 15f6 a3be ce27 303e 0262 3ebe
000002b0: 2064 c43d 7689 2ebe 4dfb 283d d352 d93c
000002c0: f975 89bd 2244 25be 428a e13d 8632 403d
000002d0: d7f4 423e 0d9c bb3c e6f5 3abe 20e8 aa3d
000002e0: 6d6e 1bbe 5987 7d3d ae0d f6bd b588 363d
000002f0: 3ee0 a2be ece4 0d3c b902 17bd 27d0 08be
00000300: 7bb5 b63d 6c4c b8bc 7b60 323c 772f b7bc
00000310: 2bbd 6e3d ef2f ca3c b4aa 86bd 6a18 2d3d
00000320: 7e75 27be 753d 65bd 9a5c 243e 7467 313e
00000330: 4c94 023e 2f54 1cbe 2d9f 31be 91bb 9bbd
00000340: dacf f9bc 7528 86bd a1bf 003e b4c0 d03c
00000350: 22d0 883c 4b0d aebd 53e3 0cbe 8e01 37bc
00000360: 750c 0e3e d719 1cbe e58f f03b 4fbc 1e3e
00000370: 8041 4e3d 9ec6 283c fc77 5c3d 89ae dabd
00000380: 4a84 e73c f19e a8bd ecc0 fdbb 1024 193d
00000390: 2da2 f33d cc82 8f3d 3d6c aebb 39c3 aabd
000003a0: 49a1 953c 7764 5e3d 94d2 8a3b 3126 afbb
000003b0: a1aa 623d e80b c13c 646e 9c3d 0379 8a3c
000003c0: 4995 bc3c 87eb 1c3e 8f56 cfbd 9130 44bd
000003d0: 9e56 cd3d 6bf1 b2bc 5ee8 d93d d9cb ca3c
000003e0: 1947 0dbd 6820 ba3d b062 c9bc 6c02 083d
000003f0: 71c2 e93c 0f52 493e e845 1f3d 54e6 acbd
-0.0338844 0.060051475 0.111672744 0.099131845 0.020401042 0.08857715 0.018863503 -0.029730236
-0.0010372583 0.02133588 0.17055562 0.20852953 0.07473133 -0.07762398 0.15884396 0.009106086
0.049810786 0.051414303 -0.066150784 0.06792785 -0.08872126 -0.0068192426 -0.09694618 0.12603647
0.00011987037 0.12359407 -0.000303765 0.14722368 0.044791114 -0.0105627375 0.08251533 -0.057865944
0.08511899 0.150507 0.12513848 0.18052143 0.08044442 0.09350284 0.027083306 0.10141211
0.16697513 0.07748794 0.08515659 0.21343528 0.17725809 0.060667407 -0.039358232 0.023118686
0.069625124 -0.038612783 0.22267346 0.15557176 0.082034424 -0.04508228 0.040205225 -0.043620866
0.030788021 0.02219392 0.04089808 0.052165408 0.013124282 0.099326834 0.0016878828 -0.022293458
0.025963996 0.14480475 -0.0041727643 0.0061953394 0.1526302 0.025657468 0.01845615 0.122525305
0.12711926 0.09006258 -0.092093445 0.06714349 0.083633795 0.0451548 0.024351336 0.044674315
0.060693674 0.04975158 0.013073116 -0.12063216 0.065829806 0.04016942 0.048192915 -0.08185871
0.09902761 -0.03904914 0.06089941 0.04732656 0.13710524 0.05636508 0.023332974 -0.0042824037
0.01790631 -0.010727791 0.0322543 0.07397171 0.056593433 0.1035536 -0.020560246 0.07868696
0.12598285 0.073949456 0.06315133 0.11709003 0.11925697 0.1282066 -0.0002341996 0.019631263
0.05739352 -0.03412467 0.1621067 -0.002059716 0.11509361 0.14174712 0.17127264 -0.058927886
0.07280417 -0.005383456 0.09121154 -0.038163222 0.096803896 -0.0694191 -0.05907798 -0.09721958
0.12988263 0.010037284 0.0020726668 0.068646796 0.13687596 0.05554003 -0.034423634 0.14894247
0.10671118 0.072419755 0.16532539 0.19050236 0.060200907 0.010440867 0.18829025 -0.010835944
0.053419404 -0.014037216 0.15339431 0.19416603 0.0087668765 0.026124738 -0.026879992 0.03648314
0.09660064 -0.05815631 0.121901445 0.053172074 0.0064618583 -0.043230582 -0.1542463 -0.059769455
-0.16842075 -0.061091147 -0.2775225 -0.09258555 -0.11847427 -0.2769192 0.10057009 -0.036341928
0.15817948 -0.32023683 0.17202684 -0.18592075 0.0958941 -0.17044625 0.041255284 0.026528751
-0.067119546 -0.16139272 0.11012699 0.046923183 0.19038711 0.02290156 -0.18257865 0.083450556
-0.15178843 0.061896656 -0.12014328 0.044563968 -0.31811708 0.008660536 -0.03686783 -0.13360654
0.089213334 -0.022497378 0.010887261 -0.0223615 0.058285873 0.02468106 -0.06575528 0.04225961
-0.16353413 -0.055966813 0.1605095 0.1732462 0.12751883 -0.15266488 -0.17345877 -0.07604135
-0.03049462 -0.06550685 0.125731 0.025482513 0.016700808 -0.08498629 -0.13758592 -0.011169804
0.1387194 -0.15244232 0.0073413723 0.15501522 0.050355434 0.01030126 0.053825364 -0.10677821
0.028261323 -0.08233441 -0.0077439453 0.037387908 0.11896167 0.070073694 -0.0053229616 -0.08338017
0.018265383 0.05429503 0.0042365286 -0.005345129 0.055338506 0.023565248 0.07638243 0.016903406
0.023020403 0.15324222 -0.101239316 -0.04789788 0.100262865 -0.021843633 0.10640024 0.024755405
-0.034491632 0.09088212 -0.02458319 0.033205435 0.0285351 0.19660209 0.038885027 -0.08442369

fc2.bias f4 [16]
00000000: 6e94 9a3e 9999 813e 803e 8fbe ec56 b5be
00000010: 13b0 113e 7359 813d e413 7c3d 4d38 7b3e
00000020: 0e1a 383c 3888 b2be b40c ce3e 191b 12bc
00000030: 6b9b 8d3d 38df 8c3d ed6b 603e 6430 353e
0.30191368 0.25312498 -0.2797737 -0.3541788 0.14227323 0.06315889 0.061542407 0.24533196
0.011236681 -0.34869552 0.40244067 -0.008917593 0.06914409 0.06878513 0.2191617 0.17694241

fc3.weight f4 [21, 16]
00000000: 01f3 ca3d ef94 c3bc 5282 b2bd cfa9 1cbe
00000010: 3d35 573d 752f 14bd aa9f 323d 57ec b03d
00000020: fade 49bd f1fa 05be 032e 063e 5dbf 0abd
00000030: 7c3e 74bd 6eb2 80bd 85af 17be 5408 d23d
00000040: fdef 043e 88ae 29bd 0bd2 8abd a0e6 5dbe
00000050: aad9 ad3d 627e 29bd 6f2b 553d 9478 c13d
00000060: 943b 84bd a3d6 0dbe 8802 373e 573c e5bc
00000070: 850e 80bd 983c 9fbd 1734 08be 0805 453d
00000080: 4ae3 973d 0c0a 093e 032c 55bd 3caa 36be
00000090: e867 793d 8027 55bd 6d2b 813d 4be0 9f3c
000000a0: 826f 85bd 5b4d e9bd b73d f4bc d4c4 dfbc
000000b0: dabe 86bd b7bc c3bc bb64 233e 3382 40bc
000000c0: 8b15 bf3d 55d7 983c 12bb 41bd 2e1d 11be
000000d0: ed95 1d3c 4c6d 52bd 0fc4 5d3d 39e3 a33b
000000e0: 394a 92bd db50 2bbe ecc8 433e 3fc5 21bd
000000f0: 6766 8cbd 1ef2 6c3d c06e 0dbd 837c 39bd
00000100: 7277 1b3e 2e9c 6d3d 903a 69bd 133d 38be
00000110: e368 b03c e77a 99bd a059 8c3d b376 3e3c
00000120: 7989 c0bd 19ab 53be 6513 013e f073 58bd
00000130: d456 bebd 00ab 993d 13ec 903c 0599 033b
00000140: 5c78 143d b66b 4a3d e175 bdbc 68c1 dfbc
00000150: 4d7b 463d 1c55 fbbc 36aa 243c a112 df3c
00000160: 6204 32bd 49c9 79bc 7278 b6bd 8a46 3ebc
00000170: be2f 25bd 2575 043e 5ede 8a3d 60d0 bf3c
00000180: 7291 ed3d 8447 6b3e dca9 56be 0c3e 4fbe
00000190: 9ef4 ab3d 96d4 88be ddce 033e a828 d03d
000001a0: dbd5 48be 711b 68be f19e 06be bdab 22be
000001b0: ebfd 51be a3af 973e e02c 663e 56c5 1b3e
000001c0: 13fb 3b3d f196 eb3d 132c b4bd 640d febd
000001d0: d90f 21bd 941b 86be a668 663d 469d 2dbc
000001e0: 9e91 e7bd 4bb8 5dbe bd6d 263e cc65 33be
000001f0: 1ee9 03be 29f5 533e 0c80 a6bd e05e 183d
00000200: a18a bc3c 45f4 353c 0d52 28bd 353b 0bbe
00000210: 741e 74bb 65c4 80be 9c7d 813d 1c04 d43d
00000220: 4be2 fdbd ae15 9fbd 664b 453d 8f0c 05be
00000230: cbc7 c8bd 15c8 b53e 87c6 83bc 482e a63d
00000240: 7820 0abd ad4f 5b3d 7a5b 2fbe 644e 86be
00000250: d58f 20bd aa64 b1be 047a ed3d 12b8 003d
00000260: 7a62 36be 6dee 09be 5089 a33d 718e 46be
00000270: 1b99 6ebe 5f0b 8a3e f11b 543d 37e0 853e
00000280: 66a8 0d3e 28b9 d13c 1f73 4abd dbc0 7ebe
00000290: eed9 873d 9b67 aabe 3405 8d3d cf0c 2a3e
000002a0: 96f5 45be 9514 06be bd1b 703b 0dd2 5abe
000002b0: d9fa 3fbe 5062 c03e 390d 8fbd 8284 333e
000002c0: 976c 0e3e e567 0d3e 00dd 24be 66df 43be
000002d0: 185c 4c3e 9fd2 b9be 0b9b 8a3d ee8c 433e
000002e0: 26ba 57be dcd6 18be 7493 abbd 3c7f 3abe
000002f0: ad38 4bbe d5fe ad3e 87ba c33c c886 a63d
00000300: cc6d 7f3e 0150 4b3e e044 27be cfcc a2be
00000310: ab9f fc3d c015 e8be 84b9 d63d fcbf 49bd
00000320: a101 71be 2a79 8fbe c6bf b0bc 8d10 7dbe
00000330: 576c 96be ec7e 873e 5d63 503e ae72 c73d
00000340: 9fe3 9a3e 7a32 8a3e 33b4 c5bd c371 9bbe
00000350: b298 7c3d c29b 0abf 2ccd a63d 66e8 983d
00000360: 59c9 89be 76f5 bbbe 5695 82bd a3d8 afbe
00000370: a3d8 93be b1b2 103e cf23 24bd 29a2 5a3e
00000380: 3a9c 9b3d 38c7 423e c6f5 ecbd 0008 81be
00000390: d852 223e e165 cfbe ca07 8f3d 456b 313e
000003a0: 17a1 71be f51b 16be 7b28 4bbd 778c 7fbe
000003b0: 2cb8 77be d7b4 823e 6306 ae3c 5c2a 623d
000003c0: 3faf babd 5149 19bd 6ac8 4dbe 6e43 99be
000003d0: e7b2 453e 53a8 6dbe 665e 033e b40e 5f3e
000003e0: 7020 4fbe ad0c f9bc 9647 893e 8b0b 80be
000003f0: ca4b 9dbe 3315 a13e 27c1 c03c 4bb5 d0bd
0.099096306 -0.023874728 -0.08716263 -0.15299152 0.052541006 -0.03617807 0.0436093 0.08638828
-0.049284913 -0.13084008 0.1310349 -0.033873904 -0.059629902 -0.06284033 -0.14813049 0.10255495
0.12982173 -0.04142621 -0.06778344 -0.21670008 0.08488782 -0.041380294 0.052043375 0.094468266
-0.06456676 -0.13851409 0.1787206 -0.027982874 -0.062527694 -0.07775229 -0.1330112 0.0481005
0.07416399 0.13382739 -0.052043926 -0.17838377 0.06089011 -0.052039623 0.06307111 0.01951613
-0.06515409 -0.113917075 -0.029814584 -0.027315535 -0.06579371 -0.023893697 0.15956394 -0.011749792
0.09330281 0.018657366 -0.047297545 -0.14171287 0.009618265 -0.051373765 0.054142054 0.0050014523
-0.07143063 -0.16730063 0.19119614 -0.03949475 -0.06855469 0.05784809 -0.034529448 -0.04528476
0.15182284 0.058010273 -0.056940615 -0.17992048 0.021534389 -0.07494145 0.06853032 0.01162498
-0.09401221 -0.20670737 0.12605055 -0.05284494 -0.09293905 0.07503319 0.017690694 0.002008022
0.036247596 0.049419127 -0.023127498 -0.027313903 0.048457433 -0.030680232 0.010050347 0.027230563
-0.04346121 -0.015245744 -0.08909692 -0.0116134975 -0.040328734 0.12935312 0.067806944 0.02341479
0.11600007 0.229765 -0.20963234 -0.20238513 0.083962664 -0.2672469 0.12871881 0.101640046
-0.1961283 -0.22666718 -0.13146569 -0.15885825 -0.20507018 0.29626188 0.22478056 0.15211996
0.04589374 0.11503399 -0.08797469 -0.12404898 -0.039321754 -0.26192915 0.056252144 -0.010596579
-0.11307071 -0.21652333 0.162528 -0.17519301 -0.12881896 0.2069899 -0.08129892 0.037199855
0.023015322 0.011105602 -0.041093875 -0.13596804 -0.0037249597 -0.25149837 0.06322786 0.10352346
-0.123966776 -0.07767807 0.04816761 -0.12993072 -0.098037325 0.35504213 -0.016085876 0.08114296
-0.03372237 0.05354278 -0.1712474 -0.26231682 -0.03919967 -0.34647113 0.11595538 0.031425543
-0.17811003 -0.13469858 0.07985175 -0.19390275 -0.23300593 0.269618 0.05178446 0.26147625
0.1383377 0.025600985 -0.049426194 -0.24878256 0.06633364 -0.3328217 0.06885758 0.16606449
-0.19331965 -0.13093789 0.0036637627 -0.2136919 -0.18748035 0.37575006 -0.06984944 0.17531016
0.13908611 0.13809164 -0.1609993 -0.19128188 0.19957006 -0.36293504 0.06767853 0.19096729
-0.21067104 -0.14925712 -0.08377734 -0.18212599 -0.19845839 0.33983484 0.023892654 0.08131176
0.24944228 0.19854738 -0.16334867 -0.31796882 0.12335142 -0.45329094 0.10484603 -0.049255356
-0.23535778 -0.28022128 -0.02157582 -0.24713345 -0.29379532 0.2646402 0.20350404 0.0973867
0.30251786 0.26991636 -0.09653511 -0.3036023 0.06166906 -0.5414392 0.08144602 0.074662015
-0.2691143 -0.3671071 -0.0637614 -0.34344968 -0.28876218 0.14130665 -0.040073212 0.21350922
0.07598157 0.19021308 -0.11570315 -0.25201416 0.15851915 -0.40507415 0.069839075 0.17326076
-0.23596607 -0.14659102 -0.049599152 -0.24955927 -0.2419135 0.25528595 0.02124328 0.05521618
-0.09115457 -0.037423436 -0.20095983 -0.29934257 0.19306527 -0.23208742 0.12828979 0.21782953
-0.20227218 -0.030401552 0.26812428 -0.25008807 -0.30721885 0.31461486 0.023529602 -0.10190829

fc3.bias f4 [21]
00000000: 736a c73e f45e 353e f000 003e 4988 c63e
00000010: d830 363e 9a07 b73e ae84 933d a72a a23e
00000020: c6a6 6f3e 08c5 603e 4491 6c3e 799c 153c
00000030: 5a94 0b3d 25d2 bd3c 08d2 043e 1c1a a73e
00000040: 4533 c23e 2087 213c 26fe 213e 7419 6c3e
00000050: e52d 9d3b
0.38948402 0.17712003 0.12500358 0.38775852 0.1779207 0.35747987 0.07203041 0.31673166
0.23403463 0.21950161 0.2310229 0.009131544 0.034077026 0.023171494 0.12970746 0.32637107
0.3792974 0.0098588765 0.15819606 0.23056585 0.004796731

fc1.weight f4 [32, 7]
00000000: a1cd 1e3e 593b 62be 1663 8ebe 50c6 a83c
00000010: 31ee 2c3e 4d69 8dbe dde1 f1bd 3f4b b73d
00000020: 86dd 133e 2549 263e 2f65 70bd e9dd 573e
00000030: c169 063e 3198 ab3c 5e08 973e 4ea5 0ebe
00000040: 4ed0 55be 72a0 803e 4790 403e e9d2 33be
00000050: be68 ba3e 4baf f3bd e032 bf3e 918b b63d
00000060: 237f 8ebe 3069 3b3e 5b62 96be c48f 0cbe
00000070: 49c8 23bb 2631 40be 181a 18be e4c8 263e
00000080: b5e4 443e a0d0 a4bd 3fd8 ac3e e72d 5ebe
00000090: 97cf 82be 4a75 73be 51b6 dd3b b5f4 02be
000000a0: 1d0c 88be 6033 133d f49b 4e3c 9ac6 f8bd
000000b0: 6fce 4dbd becf 12be 9925 883e c176 99be
000000c0: cfb6 0fbd 7c76 4f3e 9737 713d d3d5 8d3e
000000d0: 4d31 073e 2f30 8ebe bfee 803e 6d2d 92be
000000e0: 9bb5 753e 0fdc 90bd d5fd ecbd 0510 f13d
000000f0: ad9a 7b3e cbba 5bbe 22bd adbe fcab ab3e
00000100: d058 113d c8a1 bf3e 4df1 fd3d 7d0b 8cbe
00000110: 7727 3dbe 50c8 9a3e 9a42 de3c a07b 8a3d
00000120: 7f85 103e f6ff 9a3d 0558 96bd be92 d5bc
00000130: 2028 d1bd dfac aa3c 1846 8ebe 8884 24be
00000140: d080 92bd efbc a5bd 85a5 863e 0e16 84bd
00000150: d327 82be b8bd d33e b5a0 86be 6416 95be
00000160: 436e a7be 4500 11be 9b00 f53c 4e3c 353e
00000170: cfd5 73bd e1fd 85be 90f5 7c3c 44a5 1b3e
00000180: acf5 3fbe 70e1 773e a540 1b3e 9670 bb3d
00000190: ebc8 3fbd 7c6e a2be 5f74 823d 2de3 e9bb
000001a0: e74a d53d f4be e9bd ff1c 483e 03f0 c63e
000001b0: c97b 88bd 2ec4 a3be 100c 98bd bf2f ce3d
000001c0: 109e 1bbe 013f c1be ed6a c53e 4c6e 36be
000001d0: 9ca0 9d3e fd39 35be 5e6b 37bc 394f 8ebe
000001e0: 5a72 c4bd fc06 3e3e 179c 43be 46cd a3bd
000001f0: 0ad6 883e 0501 28be fcc4 78bd b293 3abe
00000200: 152a 223d 00ae 56bd fea1 023e fc55 b43e
00000210: 7a5d 103d 46b6 23be f879 223e 2434 4c3e
00000220: 81d4 1cbc 3064 5abe b1d7 c03d f94d 293e
00000230: 2d41 12bd 0f83 8d3d a0c9 2c3d c01e 5abe
00000240: c405 b73d 5fc8 3cbe 3423 1d3e c393 fb3d
00000250: 9184 213e 8647 01be d4ff b4be 8db2 b93d
00000260: d35d 6b3e 6eda 45be bceb 7a3d e48f 9fbd
00000270: 0680 673e 2ad8 db3c 2c94 93bd c6e3 a33e
00000280: 7d73 5f3c 0c8c abbd f0c5 793d 4655 e73d
00000290: 0a01 2e3e b775 043e 5782 593e b8a3 4c3c
000002a0: 6c57 493d 6ca6 e7be fdae 7e3e 9ba1 cebb
000002b0: 80ac a4bd 9b63 263e 7e9c 273e fd5a 5e3e
000002c0: d443 a5be f798 703b 7157 8a3e 7571 303e
000002d0: ae3e 543e 4bdf b7bd 6491 c0be ff0c 7ebe
000002e0: 51e0 cbbc eb0d 2c3e 35d3 bfbe 9e9f 7d3e
000002f0: ffbe ba3e f1dd a33c a987 5a3e c63a b0be
00000300: 51bf 34bd a538 353e 8150 02bf 14dd 863d
00000310: ed88 3dbe e231 b73e a862 9c3e f74e 343e
00000320: f38f 84be 7ffa 453e 24e3 503d 04b5 4b3e
00000330: bada 423c 567a 793c 94cd ecbc cbdb 2abd
00000340: 7ce2 ba3e 5830 f4bd 66db 62be 2cad dbbd
00000350: 304f 593d e77c c4bc 11d9 5bbe 6f38 423e
00000360: 3941 9c3e 848f 38be a8ac 8abd 14ec 11be
00000370: c418 b6be aa3e 97bd e8e4 173e 823e 59bd
0.15508129 -0.22092952 -0.27809972 0.020602375 0.16887738 -0.276194 -0.11810658 0.08949899
0.14439973 0.1623884 -0.058690246 0.21080746 0.1312628 0.020946594 0.2949857 -0.13930246
-0.20880243 0.2512241 0.18805037 -0.17560925 0.36408037 -0.11898669 0.37343502 0.08913339
-0.27831373 0.18301845 -0.29371914 -0.13726717 -0.0024991205 -0.18768749 -0.14853704 0.16287571
0.1922787 -0.080476046 0.33758733 -0.21697198 -0.25549003 -0.23775211 0.0067661186 -0.12788661
-0.26571742 0.035937667 0.012610424 -0.12147255 -0.0502457 -0.1433706 0.26591185 -0.29973415
-0.03508645 0.20260042 0.058890905 0.27702197 0.132024 -0.27771136 0.2518215 -0.28550282
0.23995058 -0.07073223 -0.11571852 0.117706336 0.24570723 -0.21457975 -0.3393336 0.3352965
0.03548509 0.37428117 0.1239954 -0.27352515 -0.18472086 0.3023095 0.027131367 0.06761861
0.14113425 0.07568352 -0.07341007 -0.026070949 -0.10212731 0.020834384 -0.27787852 -0.16066182
-0.07153475 -0.08092677 0.26298156 -0.06449519 -0.25421008 0.4135568 -0.26294485 -0.29118645
-0.3270131 -0.14160259 0.029907515 0.17698786 -0.059530076 -0.26170257 0.015439406 0.15199763
-0.1874606 0.24207091 0.15161379 0.091523334 -0.04682247 -0.31724918 0.06369852 -0.007137677
0.10414677 -0.114133745 0.19542311 0.3885499 -0.06664235 -0.3198561 -0.07424176 0.100677006
-0.15197015 -0.3774338 0.3855814 -0.17815512 0.30786598 -0.17697902 -0.011195032 -0.27794817
-0.09592123 0.18557352 -0.19102512 -0.07998137 0.267258 -0.16406639 -0.060734734 -0.18220404
0.039590914 -0.052412033 0.12757108 0.3522185 0.035245396 -0.159875 0.1586684 0.19941765
-0.009572149 -0.21327281 0.0941614 0.1653365 -0.035706688 0.06909763 0.042184472 -0.21300793
0.089366466 -0.1843581 0.1534546 0.12284043 0.15773226 -0.1262494 -0.3535143 0.09067259
0.2298501 -0.19321606 0.06125997 -0.07791117 0.22607431 0.026836473 -0.07205996 0.32009715
0.013638374 -0.08376321 0.060979784 0.112955615 0.16992584 0.1293553 0.21241127 0.0124902055
0.049155638 -0.45244157 0.2487144 -0.006305886 -0.08040714 0.16248934 0.16368291 0.21714397
-0.3227831 0.0036712268 0.27019837 0.1723078 0.20727035 -0.08978137 -0.37610924 -0.24809645
-0.024887236 0.16802184 -0.37465826 0.2476792 0.36473843 0.02000329 0.21340813 -0.3441984
-0.044127766 0.1769739 -0.5090409 0.06585136 -0.18509264 0.35780245 0.3054402 0.17608248
-0.25891075 0.19333838 0.05099787 0.1989327 0.011892969 0.015226921 -0.028906621 -0.041713517
0.3650092 -0.11923283 -0.22154006 -0.10726389 0.053054035 -0.02398534 -0.21469523 0.1896684
0.3051851 -0.18023497 -0.06771213 -0.14250213 -0.3556577 -0.07384999 0.14833415 -0.053038128

fc1.bias f4 [32]
00000000: 888b 0e3f df8a fdbd c5cd cc3e 1c42 043f
00000010: 9336 963e 35a1 103f d33f 003e 2fed 5d3e
00000020: 46a9 33be f3c1 50be 447d ce3e b268 e43e
00000030: b23f e33e 984f 0cbd 28f9 0e3f ad2f 513e
00000040: c370 ea3e c2cf ec3e 5d62 15bb eab2 e73e
00000050: dd33 0a3f 7748 a63e f116 57be 99af 163f
00000060: e1a0 023e 5bec 073f 307c 42be 0b2e 523e
00000070: f10a 7abd f50d fb3e 41e9 353d 280c a23e
0.5568166 -0.12380003 0.4000074 0.51663375 0.29338512 0.5649598 0.12524347 0.2167251
-0.17545041 -0.20386486 0.40329945 0.44611126 0.44384533 -0.034255594 0.5584893 0.20428343
0.45789155 0.46252257 -0.0022794225 0.45253688 0.5398539 0.3247716 -0.21004845 0.5886169
0.12756683 0.53095025 -0.18992686 0.20525376 -0.06104559 0.49034086 0.0444119 0.316499

fc2.weight f4 [16, 32]
00000000: 6523 0cbd ab6a 763d d802 e43d 8d4b cb3d
00000010: c13c a73c 5e56 b53d f730 9b3c c13d f6bc
00000020: da99 88ba 4b92 ad3c 8020 2f3e 6d75 553e
00000030: fab6 983d 44a6 9fbd 555e 223e b0b2 153c
00000040: 72c3 4b3d 02d7 523d 290d 88bd 6f5d 8b3d
00000050: bb40 b6bd dfc7 e7bb 67e6 c6bd d3ee 003e
00000060: b6d1 b039 34a6 fc3d bc7d abb9 33bf 163e
00000070: 05ff 373d 43d2 31bc a9e8 a83d 2241 6dbd
00000080: 675f ae3d 5931 1a3e dafa ff3d 05dc 383e
00000090: 26c4 a43d 8f3f bf3d bf7e de3c 1f14 cf3d
000000a0: d844 2b3e a45e 9f3d f2f8 ae3d 0276 5a3e
000000b0: 2a38 353e cead 783d 5464 22bd 7c56 bd3c
000000c0: a57e 8e3d f9d4 1ebd befc 633e 8990 1f3e
000000d0: 16f9 a73d 062d 3abd 8705 253d c2ec 32bd
000000e0: dc09 fd3c d2f2 b13c f13a 263d 0f26 543d
000000f0: 4444 533c 84ef ca3d de76 c33a 3958 b8bc
00000100: 13b3 d53c 5c76 143e c143 7cbb db35 ce3b
00000110: 5a82 1c3e ce6e d33c 2358 993c fd6f fb3d
00000120: b02f 023e 4d00 b83d 8525 bdbd eae1 893d
00000130: 2bfc ab3d 58cb 383d 6b93 c83c 3d1e 373d
00000140: 20d3 773d 1671 4c3d 6cc5 573c 1231 f7bd
00000150: 4dbb 863d fa85 253d 435b 443d 3253 a7bd
00000160: 23a5 ca3d cb5e 1fbd f56e 783d 0bbb 433d
00000170: 318e 0c3e 6dc3 673d def6 c03c 2f09 86bb
00000180: 6210 943c a219 30bc f60b 053d 1dbb 973d
00000190: 967e 673d 3c40 d43d 54a8 a5bc 70af a13d
000001a0: c91b 013e 1016 973d c0c9 803d 2822 f03d
000001b0: 3db5 f43d be8b 033e cc6a 9cb7 7773 a03c
000001c0: 2d38 6a3d 3665 0bbd c337 263e 6db9 0cbb
000001d0: a1f3 eb3d e06e 113e 4759 2f3e e229 71bd
000001e0: ea32 953d 3dd3 a6bb 1aaf ba3d 37e1 1abd
000001f0: 3531 c63d 8aa4 8dbd b160 71bd 31c8 c6bd
00000200: 9fea 043e c72d 213c e79e cb3a ea9f 8c3d
00000210: 6581 0c3e d102 633d acb3 0ebd 6a3a 183e
00000220: 641b db3d bfa9 943d 78a6 293e 46ee 423e
00000230: cb3e 753d 6bea 2a3c 069e 403e e664 32bc
00000240: adba 5b3d b4fc 67bc c2de 1c3e 3812 473e
00000250: 894f 0d3c 41aa d33c d380 dcbc 58b8 143d
00000260: b73d c53d 9994 6fbd 7b3b fa3d 15f9 593d
00000270: e5b2 d23b 345c 32bd ed2c 1ebe fe7d 75bd
00000280: ca3f 2cbe ea69 7abd ff43 8ebe 4f86 bdbd
00000290: 1818 f3bd 980f 8dbe 4344 ce3d 5de6 14bd
000002a0: 5aaa 213e 3a3a a2be 46d8 2f3e aa1a 3ebe
000002b0: d305 c43d 7176 2ebe fbc9 283d dd0e d53c
000002c0: fcc5 88bd 95f2 24be a89d e33d 9cd1 3c3d
000002d0: baed 423e 1b40 bc3c 57ad 3abe 6ba9 aa3d
000002e0: 2580 1abe cc16 7c3d 8c29 fbbd 2dcc 363d
000002f0: 75a6 a1be d071 0c3c 6fc3 1abd c16f 08be
00000300: 9c93 b53d 0738 b8bc 412e 323c 7c53 bbbc
00000310: d2b0 6e3d 1b13 c63c 2ec3 88bd 818f 2a3d
00000320: 5234 27be 6778 67bd 6ccc 243e ae43 313e
00000330: 597b 023e a868 1bbe fd82 31be 7af9 9bbd
00000340: c61f f7bc ffbf 86bd 4c77 003e 0fce d03c
00000350: 614c 883c bf40 aebd 1211 0dbe 1ac6 36bc
00000360: 01c4 0d3e 7a44 1cbe 9f8e e93b fd59 1e3e
00000370: ab07 4e3d 65f6 293c 5ff4 5b3d 5747 dbbd
00000380: 6ff6 e63c 18f8 a8bd 0f2a 09bc 9b8a 183d
00000390: 021d f33d b94a 8f3d 2a0d c1bb 3482 abbd
000003a0: 5cde 923c b460 5f3d c8a1 913b 09b8 b6bb
000003b0: 785d 623d a833 c03c 5c1c 9c3d a72b 8b3c
000003c0: 2b3d c03c e8d0 1c3e a5d7 cfbd 1127 44bd
000003d0: 8d4d cd3d 5ba9 b4bc d7a9 da3d ce23 c93c
000003e0: 7532 0ebd f3d6 b93d 014b c6bc b390 073d
000003f0: 9db4 e93c f31f 493e 1c91 1d3d b15c adbd
-0.034213442 0.06016032 0.11133355 0.099265195 0.020414712 0.08854364 0.018944247 -0.030058743
-0.0010421828 0.021187922 0.17102242 0.20845576 0.07456775 -0.077953845 0.15856297 0.009136841
0.049746938 0.05147458 -0.06643135 0.068049304 -0.08899065 -0.007073387 -0.097119145 0.12591104
0.00033725583 0.12336388 -0.0003270934 0.14721374 0.04492094 -0.010853353 0.082475014 -0.057923444
0.0851429 0.15057887 0.12499018 0.18052681 0.08045225 0.09338295 0.027160047 0.1011126
0.1672548 0.07781723 0.08543576 0.21334079 0.17697206 0.060712628 -0.03964646 0.023112528
0.06957749 -0.038777325 0.22264382 0.1558248 0.08201806 -0.045453094 0.040288474 -0.04368282
0.03088849 0.021722231 0.040583555 0.051794108 0.012894694 0.09908965 0.0014912745 -0.022503005
0.026086366 0.14498276 -0.0038492533 0.006293041 0.152841 0.025809672 0.018718785 0.122772194
0.12713504 0.08984432 -0.09235672 0.06732543 0.083977066 0.0451158 0.024484357 0.04470657
0.06050408 0.049912535 0.013169628 -0.12069906 0.065786935 0.040410973 0.047938596 -0.08170165
0.098947786 -0.03890876 0.060652692 0.0477858 0.13726117 0.056582857 0.023555215 -0.0040904502
0.018074218 -0.010748299 0.03248211 0.07408736 0.056517206 0.10363814 -0.020221867 0.0789479
0.12608255 0.07377255 0.06288481 0.11725265 0.11948631 0.12846276 -1.864638e-05 0.019586308
0.05718248 -0.03403207 0.16232209 -0.0021472827 0.11521078 0.14202452 0.171239 -0.058877833
0.07285102 -0.0050910995 0.09115429 -0.037812438 0.09677354 -0.06916149 -0.058930103 -0.09706152
0.12980126 0.009837574 0.0015535027 0.06866439 0.13721235 0.055422608 -0.034839317 0.14866033
0.10698584 0.07258939 0.16567409 0.19036207 0.059874337 0.010431866 0.18810281 -0.010888314
0.053644825 -0.01415937 0.1531935 0.19440544 0.00862492 0.02583802 -0.026916897 0.036308616
0.09630912 -0.058491323 0.12218376 0.05321606 0.0064300173 -0.043544963 -0.15446825 -0.05993461
-0.16821209 -0.061136164 -0.27786252 -0.09254133 -0.1186983 -0.2755096 0.10071614 -0.036352504
0.1578764 -0.31685048 0.17172346 -0.18564859 0.095714234 -0.1703737 0.04120825 0.026008064
-0.066783875 -0.16108163 0.11114055 0.046098337 0.19035998 0.022979787 -0.18230186 0.08333095
-0.15087946 0.06154518 -0.12263784 0.04462831 -0.3157231 0.008572057 -0.037784036 -0.1332388
0.08866045 -0.022487653 0.010875286 -0.022866957 0.058274098 0.024179032 -0.066778526 0.041640762
-0.16328552 -0.05651131 0.16093606 0.17310974 0.12742366 -0.15176642 -0.17335124 -0.07615943
-0.030166518 -0.06579589 0.12545508 0.025488881 0.016637983 -0.08508443 -0.13776043 -0.0111556295
0.13844301 -0.15260497 0.0071275975 0.15464015 0.05030028 0.010373686 0.053699847 -0.10706966
0.02819368 -0.08250445 -0.008371844 0.03724156 0.11870767 0.06996674 -0.005891462 -0.08374444
0.017928295 0.054535583 0.0044443347 -0.005576138 0.05526492 0.023462132 0.076225966 0.016988588
0.023466667 0.15314066 -0.10148553 -0.04788882 0.10024557 -0.022053411 0.10676926 0.024553206
-0.03471609 0.090742014 -0.024205687 0.03309698 0.028528506 0.19641094 0.038468465 -0.08464945

fc2.bias f4 [16]
00000000: 8d6a 9a3e 916d 813e 861b 8fbe f131 b5be
00000010: c96d 113e 082b 813d dab3 7b3d d2f8 7a3e
00000020: 6e80 393c 7c64 b2be 27f1 cd3e e5df 14bc
00000030: 592f 8e3d 4b5a 8b3d 3d31 603e afd8 343e
0.30159417 0.25278905 -0.27950686 -0.35389665 0.14202036 0.06307036 0.061450817 0.2450898
0.011322124 -0.34842288 0.40223047 -0.009086584 0.069426246 0.068043314 0.21893783 0.17660783

fc3.weight f4 [21, 16]
00000000: 03a0 cb3d ccf4 c2bc c60f b4bd dc92 1cbe
00000010: a1f7 583d f1af 13bd 0367 333d 862a b23d
00000020: ab8c 49bd e646 06be 064a 063e db1d 0abd
00000030: 0d0c 75bd 9d5c 82bd 2a35 17be 40bb d23d
00000040: f055 053e a554 29bd b70e 8bbd 6d8f 5ebe
00000050: ce8f ae3d 7100 29bd 4a8e 553d d2d7 c23d
00000060: e9da 83bd 8efb 0dbe cf15 373e 3bec e0bc
00000070: c3ab 7fbd 7aaa a1bd b6c0 07be 86c1 453d
00000080: 01c5 973d 738d 093e 4d83 54bd 7306 38be
00000090: 928e 793d 1ecb 55bd 899b 813d f93e a23c
000000a0: 6727 85bd 70a3 e9bd 8d20 f2bc abce dcbc
000000b0: fc7e 86bd f5ad c8bc 6e31 243e a23a 3dbc
000000c0: 7683 bf3d 84a0 9b3c cf0f 40bd 526f 11be
000000d0: 6eb9 183c 44bf 52bd 4f78 5e3d 821b ac3b
000000e0: ac09 92bd aec7 2bbe bdf2 433e d99b 22bd
000000f0: c6c2 8bbd 1252 683d 272b 0cbd 8e75 39bd
00000100: e6c0 1b3e 4193 6e3d aa99 67bd 37c1 38be
00000110: 31df ad3c ede6 99bd abad 8c3d 78ca 423c
00000120: f410 c0bd dc0f 54be b73b 013e a298 58bd
00000130: ab7a bdbd c933 983d 1cac 943c d061 0b3b
00000140: 668b 143d c666 4a3d 9211 bebc 49db e1bc
00000150: 5ad0 473d f61d fcbc caa7 213c 4b50 de3c
00000160: 859d 31bd 6ac5 75bc bc81 b6bd 5da9 39bc
00000170: 9983 24bd 1936 053e abe1 8a3d c298 c03c
00000180: b80b ed3d 4217 6b3e f222 57be 662d 4fbe
00000190: d2db ab3d ce11 88be bdb0 033e fbe5 cf3d
000001a0: 353b 48be 0747 68be a4c1 06be 9c57 22be
000001b0: d567 51be 72df 963e 2b37 663e feb5 1b3e
000001c0: 9f1f 3b3d 0880 eb3d 4e7b b4bd fde0 fdbd
000001d0: 39f8 21bd cf3d 86be c07c 663d 0b61 32bc
000001e0: 5982 e8bd 6b22 5ebe 1043 263e 603d 34be
000001f0: 76fc 03be aee4 4e3e 440e a7bd da4a 173d
00000200: 5a48 bb3c 85cf 303c cd51 28bd 4e48 0bbe
00000210: 6664 83bb 3b6e 80be 2675 813d b5fa d33d
00000220: e0ce fdbd 6d64 9fbd 5d88 443d c30c 05be
00000230: fd15 c8bd cbae b43e d9b0 84bc 3bcf a53d
00000240: 1184 0bbd d51e 5a3d 2879 2fbe d85c 86be
00000250: 6812 21bd c6d0 afbe 93eb ec3d 15e2 fd3c
00000260: 6862 36be 67c8 09be 144d a33d 7628 47be
00000270: f828 6ebe a443 873e 7145 543d 45e5 853e
00000280: 7d8a 0d3e 621a cf3c b798 4abd 10ff 7ebe
00000290: f089 873d 9e01 a9be 9586 8c3d c5eb 293e
000002a0: 4fae 45be e807 06be 85b9 5f3b 1643 5abe
000002b0: 1621 3fbe e45c be3e 9389 8fbd 044f 333e
000002c0: 0140 0e3e 3d3b 0d3e 9758 25be bed9 43be
000002d0: ad80 4c3e 130f b9be d7a5 893d 305b 433e
000002e0: 17fc 56be 6fd4 18be 521d acbd 16e9 38be
000002f0: d834 4abe 208d ab3e cb84 c03c dbf6 a53d
00000300: 0046 7f3e 302f 4b3e ac7a 27be ebe4 a2be
00000310: 7280 fc3d d041 e6be dda9 d53d 04ba 4bbd
00000320: 19f8 6fbe c364 8fbe f640 b2bc 5ed4 7bbe
00000330: 408d 95be e03b 843e 9e1f 503e 6a20 c73d
00000340: 64d6 9a3e 9a28 8a3e 45d6 c5bd 038a 9bbe
00000350: 35ed 7b3d b6f4 09bf 3f2b a63d f138 983d
00000360: 5d3f 89be 92ec bbbe 6711 83bd 4119 afbe
00000370: 1e69 93be 356e 093e 53bf 25bd 655a 5a3e
00000380: 8433 9b3d c5ba 423e 5b3e edbd 2317 81be
00000390: fc56 223e 22c7 cdbe 0722 8e3d f42f 313e
000003a0: 2b83 70be 37fb 15be a217 4cbd bd1b 7ebe
000003b0: e5cc 76be dae7 7e3e 2f8a aa3c fff5 603d
000003c0: ab36 bbbd 3ed7 19bd 51f7 4dbe 4a3a 99be
000003d0: 2cb4 453e 92ba 67be 2bbc 023e 51e6 5e3e
000003e0: 2f60 4cbe bb5a f7bc f031 893e d90f 7fbe
000003f0: d0aa 9cbe 3b33 9d3e f5a8 be3c 5719 d1bd
0.09942629 -0.023798369 -0.08792071 -0.15290397 0.052970532 -0.036056463 0.04379941 0.08699517
-0.049206417 -0.13112983 0.13114175 -0.03371988 -0.059825946 -0.06365321 -0.14766374 0.10289621
0.13021064 -0.04134049 -0.06789916 -0.217344 0.08523522 -0.041260187 0.05213765 0.09513821
-0.06438238 -0.13865492 0.17879413 -0.027456393 -0.062419664 -0.07893844 -0.13257107 0.04828026
0.074106224 0.13432865 -0.05188303 -0.1797121 0.06092698 -0.05219566 0.06328494 0.019805418
-0.06501656 -0.11408126 -0.029556537 -0.026954016 -0.06567189 -0.024497012 0.16034481 -0.011549624
0.09351246 0.018997438 -0.046890076 -0.14202622 0.009321554 -0.051451936 0.054313954 0.0052523026
-0.07130751 -0.1677539 0.19135566 -0.03969941 -0.068242595 0.056718893 -0.03422084 -0.045278125
0.15210304 0.0582459 -0.05654303 -0.18042456 0.02122459 -0.07514749 0.06869062 0.011889093
-0.093782336 -0.20709175 0.12620436 -0.052879937 -0.09251913 0.07431752 0.018148474 0.0021268018
0.036265753 0.04941442 -0.023201738 -0.027570384 0.048782684 -0.030776005 0.009866664 0.027137896
-0.043363113 -0.01500068 -0.089114636 -0.011331883 -0.040164564 0.13008918 0.06781324 0.02351034
0.11574501 0.22958091 -0.21009424 -0.20232162 0.08391537 -0.26576084 0.12860389 0.10151287
-0.19553836 -0.22683345 -0.13159806 -0.15853733 -0.20449765 0.2946735 0.22481982 0.15206143
0.045684453 0.114990294 -0.08812581 -0.12396429 -0.039543364 -0.2621903 0.056271315 -0.010887395
-0.11352987 -0.21692817 0.1623652 -0.17601538 -0.12889275 0.20204422 -0.08157018 0.03693662
0.022861648 0.010791664 -0.041093636 -0.13601801 -0.004009771 -0.250841 0.063211724 0.10350553
-0.12392974 -0.077828266 0.04798161 -0.1299315 -0.09769819 0.35289606 -0.016197609 0.08096167
-0.034061495 0.05325206 -0.17136061 -0.2624271 -0.039324194 -0.3433897 0.1156837 0.030991593
-0.17810977 -0.13455354 0.07973686 -0.19449028 -0.23257816 0.26418793 0.051824037 0.2615148
0.1382236 0.025281135 -0.049462046 -0.24901986 0.06618106 -0.33009046 0.06861607 0.16593845
-0.19304775 -0.13088953 0.0034137678 -0.21314654 -0.18664965 0.37180245 -0.07008662 0.17510611
0.13891603 0.13792129 -0.16147076 -0.19126031 0.19970961 -0.36144313 0.067210846 0.19077754
-0.20994602 -0.14924787 -0.0840403 -0.18057665 -0.19746721 0.33506107 0.02350082 0.081037246
0.24929047 0.1984222 -0.1635539 -0.31815276 0.123291865 -0.44972086 0.104327895 -0.049737945
-0.23434485 -0.28006563 -0.021759491 -0.2459273 -0.29209328 0.2582693 0.20324561 0.09722979
0.30241692 0.26984102 -0.09660009 -0.30378732 0.061505515 -0.53889024 0.08113717 0.07432736
-0.26806155 -0.36703926 -0.063998036 -0.34198955 -0.28791136 0.13420947 -0.040465664 0.21323545
0.07578185 0.1901656 -0.11584159 -0.25212964 0.15853494 -0.4019099 0.06940084 0.17303449
-0.23487537 -0.14646612 -0.049827226 -0.24815269 -0.24101599 0.24893132 0.020817844 0.0549221
-0.091412865 -0.037558787 -0.20113875 -0.29927284 0.19307011 -0.22629765 0.12767093 0.21767546
-0.19958566 -0.03019463 0.26795912 -0.24908389 -0.3059907 0.30703148 0.023273924 -0.10209911

fc3.bias f4 [21]
00000000: 79cf c63e a731 343e 9788 fd3d 0039 c63e
00000010: b262 353e c4f4 b63e ae39 923d 4106 a23e
00000020: 8067 6f3e bd6f 603e 5247 6c3e 1f48 103c
00000030: 078c 0a3d 419f bb3c 0ca7 043e cf0d a73e
00000040: 9c22 c23e d105 1e3c c8d3 213e dbe9 6b3e
00000050: 3aa5 973b
0.38830164 0.17597066 0.12379568 0.38715363 0.1771343 0.35733616 0.07139908 0.31645396
0.23379326 0.21917625 0.23074082 0.0088062575 0.033824947 0.022903087 0.12954348 0.32627723
0.3791703 0.009644941 0.15803444 0.23038428 0.004627851
