logs/sdf_single_scene_3_spheres/state_61.pt (torch, 13071 bytes, 12 tensors)

fc1.weight f4 [32, 7]
00000000: 9064 323e 4dec 8dbe 5270 a4be 03c9 adbc
00000010: 71a0 283e 2277 92be ec37 f3bd fd0c 073e
00000020: e2a6 2d3e 4215 1c3e bbe3 b8bd d6c1 5f3e
00000030: 4100 bd3d 292b 3e3d b7bf a63e 26b2 11be
00000040: 2f2a 4ebe 6a4c aa3e 1eef 633e d8ec 07be
00000050: 698a b63e 9b7c 21be b837 a93e d5d7 e23d
00000060: 86c0 86be e821 0d3e 8406 9bbe 76ea a2bd
00000070: a0d1 47bd 6af2 5abe 6461 ddbd c26c 033e
00000080: 05db fe3d e188 adbd 2d8c a33e d3e8 80be
00000090: 140b 7cbe e18a 7bbe b83d 5abb f505 e6bd
000000a0: bfec a1be 9977 88bc 90f9 1cbd c509 31be
000000b0: d79f 5bbd 4a50 debd 67c3 923e cb68 9abe
000000c0: bb4a 01bc 42a3 fa3d dc53 dd3d 8771 b83e
000000d0: 7b26 853d d535 99be 0188 943e 807d 89be
000000e0: 7145 393e 00db 19be 240a 08be ba19 093e
000000f0: 470f 5f3e 75fc 82be 264c adbe 3741 c13e
00000100: 6327 013e 97ae ab3e 80f8 043e ec70 8cbe
00000110: 2f1a 88be feed 993e 6812 6ebc 5304 a33d
00000120: d41f 433e 083e 263d cd52 8dbd 5ad7 adbd
00000130: 1dca 12be 8084 2d3d 6213 8abe df01 02be
00000140: b01d d9b9 ba38 b3bd 0a34 833e 678e cdbd
00000150: 40dc 77be 0835 013f b55b 88be 652a 91be
00000160: 2f78 9fbe 99a5 febd f7ce 003c ad26 343e
00000170: c169 a4bc 18ba 81be fc6f 09bd 1c8e 293e
00000180: d6f6 4bbe 9704 773e 2027 243e 67d4 043e
00000190: f8ab 23bc 98fd 9bbe f4a5 e73c 40e4 c83c
000001a0: 364a a13d 283c 27bd c48a 593e 9d9d de3e
000001b0: 51f9 22bb 7e1e c3be 0ffd c7bd c173 003e
000001c0: cc19 39be 1e1a 93be 185b cc3e 7831 83bd
000001d0: ef59 923e 7b63 12be 921d 56bd 0175 6cbe
000001e0: 21f0 ccbd 54d2 423e 4bb2 27be 4898 e8bd
000001f0: 4123 8d3e b0f2 19be 0760 23bd 0dc9 47be
00000200: a4b7 c23b 6320 97bd 2260 ff3d 3695 b03e
00000210: 5124 9e3c cb92 fcbd d32b 623e 22ed 723e
00000220: 4cdd 10bd 1bf8 55be 7224 a53d d655 293e
00000230: b460 9d3a 4ce9 4a3c 24c8 373d 0ba1 40be
00000240: 0fae 003e 3f87 1fbe 62e1 2b3e 7543 413e
00000250: da5b d33d ee80 c0bd 4a4d bcbe 8ef1 853d
00000260: e537 5f3e 72d1 07be 14e9 9c3d 62cf 6fbd
00000270: 5d06 6d3e 267d 403d 6b99 8fbd 4f13 ab3e
00000280: 6fe7 cf3c 39aa 86bd 8f67 393c baa1 1b3e
00000290: ca79 273e 8090 df3d 8be3 6f3e 30aa 593d
000002a0: 5d5c 933d 6574 dbbe 40f2 373e cc71 283d
000002b0: aded 55bc 5b7b ee3d d422 763e 6043 3f3e
000002c0: b360 85be 13bb 0b3d a191 9c3e bd1c 1f3e
000002d0: 2283 743e 9d58 24be ad23 d3be fa54 6ebe
000002e0: 79fc 62bd 435f bb3d b8a9 c6be 979e 563e
000002f0: 4a97 d83e 5e63 1f3d 9f47 673e 54de b6be
00000300: 6603 1ebd 77bf 4b3e 149f 02bf 7c01 8c3d
00000310: 9a0d 49be aab0 d83e 1b97 923e 3ff8 393e
00000320: 9243 90be 7e09 6d3e ee2d f33c cc0a 453e
00000330: 8a01 943b 01d0 f33c 5f64 05bd 850f 42bd
00000340: 892f c03e 060a 00be 41b1 6dbe 756c b6bd
00000350: 3177 403d 9004 5bbd 3d60 73be 8b44 343e
00000360: 6792 a03e 8c15 09be 6d1d adbd a3bc 12be
00000370: 9c2e abbe 5495 d9bd 278b 1d3e 2dd1 b4b9
0.17421174 -0.27719346 -0.32116944 -0.021214014 0.16467454 -0.28606516 -0.118759006 0.13188548
0.16958192 0.15242484 -0.09027811 0.21851286 0.09228564 0.04642788 0.32568142 -0.14228114
-0.2013328 0.33261424 0.22259185 -0.13273942 0.35652474 -0.1577019 0.33050323 0.11076323
-0.2631876 0.13782465 -0.3027841 -0.07954876 -0.0487839 -0.21381536 -0.108095914 0.12834457
0.124441184 -0.08473373 0.31942883 -0.2517763 -0.24613601 -0.24564697 -0.0033300947 -0.11231605
-0.31625935 -0.016658591 -0.03832394 -0.17288883 -0.053619232 -0.10855158 0.28664705 -0.30158076
-0.007891352 0.1223817 0.108070105 0.36024114 0.0650148 -0.29923883 0.29010013 -0.2685356
0.18092896 -0.15024948 -0.13285118 0.1338872 0.21783172 -0.25583234 -0.3384716 0.37745067
0.12612681 0.3353164 0.1298542 -0.27429903 -0.26582476 0.30064386 -0.014530756 0.07959809
0.1905511 0.0405865 -0.069005586 -0.08488341 -0.14334913 0.04236269 -0.26967913 -0.12696026
-0.00041411584 -0.08751054 0.2562564 -0.10036927 -0.24205112 0.50471544 -0.26632467 -0.28352657
-0.3114638 -0.12433929 0.007861844 0.17592879 -0.020069959 -0.2533729 -0.033554062 0.16558117
-0.19918379 0.24122845 0.1603055 0.1297165 -0.009989731 -0.30466914 0.028277375 0.0245229
0.07875483 -0.040828854 0.21244341 0.43479624 -0.0024867842 -0.381092 -0.09765064 0.12544157
-0.18076247 -0.28730863 0.3991325 -0.0640592 0.2858424 -0.14295761 -0.052274294 -0.23091508
-0.100067385 0.19025546 -0.16376607 -0.1135717 0.2756596 -0.15033984 -0.0398865 -0.19510289
0.005942302 -0.07379224 0.12469508 0.3448884 0.019304426 -0.12332686 0.2208703 0.23723271
-0.035367295 -0.20895426 0.08063592 0.1653665 0.0012006969 0.012384724 0.044868603 -0.18811433
0.12566398 -0.15578936 0.16785195 0.18873389 0.10320254 -0.093995914 -0.36777717 0.065402135
0.21798666 -0.13263491 0.076616436 -0.058547385 0.23146959 0.04699435 -0.07011684 0.3341317
0.02537891 -0.06575436 0.011316194 0.15198413 0.16355053 0.10916233 0.23426645 0.05314082
0.07195351 -0.4286224 0.17963505 0.04112415 -0.013057155 0.11644622 0.24036723 0.18678045
-0.26050338 0.034113955 0.30579856 0.15538307 0.23878148 -0.16049428 -0.41238156 -0.23274603
-0.055416558 0.09149029 -0.3880136 0.20958935 0.42302924 0.038913123 0.22585915 -0.35716498
-0.03857746 0.19897257 -0.51023984 0.068362206 -0.19634095 0.42322284 0.2863091 0.18161105
-0.28176552 0.23148152 0.029684987 0.192424 0.004516785 0.02976227 -0.032566424 -0.04737808
0.37536266 -0.12503824 -0.23212148 -0.08907405 0.04698867 -0.053471148 -0.2376718 0.17604272
0.31361696 -0.13387126 -0.08452878 -0.14329772 -0.33433998 -0.10624185 0.15385114 -0.00034488123

fc1.bias f4 [32]
00000000: dce1 fc3e ae8f e9bd 2d87 903e 9b2d 263f
00000010: d9d7 963e 1504 023f bed6 f53d 9afe 833e
00000020: 2c93 2abe 0ba9 78be 093f a93e 965c dc3e
00000030: bb79 d53e 59e6 a8bd 962e 143f f0b6 0b3e
00000040: 46b5 1d3f 82bc f43e 2c7e a5bd c91c df3e
00000050: 067e 063f 023a 9c3e 8a56 28be ea38 133f
00000060: 4523 603e 91d9 f73e 5a3e ebbd c7e4 2e3e
00000070: 907e 16be bb12 ff3e 19cc 2e3d 325d a53e
0.49391067 -0.11404358 0.2822813 0.6491334 0.29461554 0.5078748 0.120038494 0.25780183
-0.16657704 -0.24283235 0.33055905 0.43039387 0.41694435 -0.0824706 0.57883584 0.13644004
0.61604726 0.4780007 -0.08080706 0.4357665 0.52536047 0.30513006 -0.16439262 0.5750872
0.21888454 0.48408177 -0.11486502 0.17079459 -0.14696717 0.49818978 0.04267511 0.32297665

fc2.weight f4 [16, 32]
00000000: 20b3 fdbb bb40 463c a717 ea3d 87a3 bd3d
00000010: bbed 8a3c 72cc de3d 9a4f 653c 5554 06bd
00000020: 292b 5bbb 7b78 033d 84df d03d f75d 423e
00000030: c165 a13d 7622 53bd 5d87 283e 2548 dc3b
00000040: f5a0 343d 77b4 233d eecf 28bd be48 833d
00000050: 0b02 3ebd 74b8 0dbc fbe6 87bd 8b3e 0c3e
00000060: 8594 cebc 30b6 e23d 45b6 a9bb 64ea f93d
00000070: bd62 d73c 9b27 e1ba bd31 a73d c7fe 56bd
00000080: ee8a 913d 47b1 0c3e ba96 fc3d b887 2a3e
00000090: 25a3 883d 6dab bd3d 294a 153c a25c d63d
000000a0: af0c fa3d f990 8b3d 6ca2 983d 166f 473e
000000b0: f083 2e3e 3c28 233d 7537 e1bc e14d cd3c
000000c0: bbe3 af3d 47ae 20bd 91ea 4c3e f664 083e
000000d0: e272 a03d a06a 07bd e801 343d 163f 3ebd
000000e0: 9ab4 f93c de95 593d 8621 9b3d e026 763d
000000f0: 60d4 0d3d 16b3 e23d 5322 893c 6569 d7bc
00000100: 5e4a b23c 1b6b 133e cd2c b4bc 06cb 9e3b
00000110: cd5a 173e 0d41 133b 5b30 c7ba 419c 023e
00000120: 2c41 103e 46f3 a43d 19a2 c5bd a25d 7e3d
00000130: 8115 533d 2f76 8b3d 863d 9a3c c2bd 6a3d
00000140: 559d a03d 88c8 403d a355 db3c 225f 04be
00000150: 8d05 693d 0678 1b3d 148c b03d ee7d b8bd
00000160: e136 ca3d 4409 18bd 8682 993d 0600 84bc
00000170: 84c6 0d3e 4f14 253d 7882 9dbc 1782 2cbc
00000180: 81a8 8c3c c3db 283a 45ec f83c e0d3 803d
00000190: 2ee9 963d 3e96 d33d 1010 67bd d95f b13d
000001a0: 7a9c f53d d539 a03d 5656 523d d7cf 053e
000001b0: b1bf e53d 8dda ed3d 034c 15bb 6510 263d
000001c0: 551c a33d c636 fcbc 6ad6 1e3e 7925 9cbb
000001d0: bd9f b83d 550b 133e 8aba 3d3e 2a1f 6ebd
000001e0: 05ff 783d d398 51bc b438 d83d 498f 8ebd
000001f0: 29df d33d 1b3f 9dbd 988e a1bd c8bb c3bd
00000200: b6f3 f43d b9b3 f33b d655 c63c 5d5c 4e3d
00000210: 94d7 a83d f171 7a3d 3156 b93c db98 1c3e
00000220: c0d4 913d 0492 853d 7627 153e d0f5 363e
00000230: 4b0b 913d e5af bcbb 4b13 3b3e 1009 4abc
00000240: 08e7 2f3d 21f3 72bc e3ec 2e3e b727 283e
00000250: 4da8 033d bc49 c63c cbee 0bbd 550e 863d
00000260: dc11 f63d 6a28 0bbd eb36 ca3d 5cda c83c
00000270: a057 b13b b06f d7bc b750 ecbd eb5f 74bd
00000280: c244 50be ec4a 64bd cec5 80be 1394 ecbd
00000290: 02a0 f7bd 035e eebe 0a2e 163e 8971 edbb
000002a0: b06a 1a3e e8b7 0abf 40e1 463e 6e6f 03be
000002b0: 874e 123e 8461 29be 7903 193d 6be2 783e
000002c0: 1c7f 8bbd ac02 49be 7028 5e3d 2c73 9c3d
000002d0: e41d 2d3e ed65 eb3c 3361 ddbd 7203 903d
000002e0: 3ef0 92be 1343 973d 0de8 933d 34b4 903d
000002f0: 228b 4dbf bbb9 a53c dd57 b8bc 4318 3bbe
00000300: 4295 063e 3abf 9cbd 3021 913d af7d 78bd
00000310: 4e58 0a3d 53ea 563d 2d90 18b7 bfa6 d73d
00000320: 78d5 43be e8c7 58bd 301b e43d f0f0 2b3e
00000330: 9d5e 013e 53e4 64be e42e 40be 24c9 28bd
00000340: c68b 87bd dce6 03bd 556b ef3d 95d5 4f3d
00000350: 9bf1 6a3d e7ad e3bd 3aa8 27be 8ebe 47bc
00000360: b70d 173e b44a dfbd 745a 263d 6995 443e
00000370: 81e7 153d 994f 75bc 8b58 813d 369f b9bd
00000380: c5b7 a83c aa4a 72bd 30ec 0c3d c029 0d3d
00000390: 199d d53d c4d9 623d c58f 5d3d d8c6 90bd
000003a0: 2b55 be3c 9399 7e3d fcc9 6a3d a906 73bb
000003b0: 3294 1a3d 6170 133c f7f4 a53d 3a38 2b3c
000003c0: 98aa 4fbc 8fca 173e 4d03 bbbd 80dc 06bd
000003d0: 11c8 e83d af70 c9bc 2f5d 553d 446c 173d
000003e0: fb13 2ebb 3ec8 ac3d 3eed 9abd 900b 083d
000003f0: 80d9 bc3c 9595 523e 00da c33d 6a9e a6bd
-0.0077423006 0.012100394 0.114302926 0.09259706 0.016959062 0.108788386 0.013996029 -0.03279527
-0.0033442474 0.03209732 0.10198882 0.18981157 0.07880736 -0.051546536 0.16457887 0.0067224675
0.044098813 0.039967027 -0.041213922 0.06410359 -0.046388667 -0.008649934 -0.06635853 0.13695733
-0.025217304 0.11069906 -0.005179199 0.122029096 0.0262922 -0.0017177941 0.08163784 -0.05248907
0.07106577 0.13739501 0.12333436 0.16653335 0.06671742 0.092612125 0.009111919 0.10466887
0.122094505 0.06814761 0.074528545 0.1947597 0.17042518 0.039833292 -0.027492264 0.02506155
0.08588358 -0.039228704 0.20011355 0.13319764 0.07834412 -0.03306067 0.04394713 -0.046446882
0.030481625 0.05312144 0.075747535 0.060095668 0.034626365 0.11069314 0.01674 -0.026295373
0.021763977 0.14396326 -0.021994019 0.0048459796 0.14780731 0.0022469193 -0.0015196906 0.12754919
0.14087361 0.08054213 -0.09650058 0.062101014 0.05153418 0.06809651 0.018828165 0.057309873
0.07842509 0.04706624 0.026774233 -0.12926915 0.05689006 0.03795626 0.08620468 -0.09008394
0.098737486 -0.03711821 0.074955985 -0.016113292 0.13845259 0.04030257 -0.019227251 -0.010529063
0.017170193 0.00064414385 0.0303861 0.06290412 0.07368694 0.10331391 -0.056411803 0.086608596
0.11992736 0.078235306 0.051351868 0.13067566 0.11218203 0.11613951 -0.0022780902 0.04054298
0.07964388 -0.030787837 0.1551148 -0.0047652093 0.09014843 0.14359792 0.1852819 -0.05813519
0.06079008 -0.012792784 0.1055769 -0.06960923 0.10345299 -0.07678052 -0.07888526 -0.09557301
0.11960547 0.007437196 0.024210852 0.050381053 0.08244243 0.06114382 0.022624107 0.15292685
0.07120657 0.06521991 0.14565834 0.17867208 0.07082232 -0.005758273 0.18269078 -0.012331262
0.042944938 -0.014828474 0.17082553 0.164214 0.032142926 0.024205081 -0.034163278 0.06545702
0.12015125 -0.03397409 0.09873756 0.024518184 0.005412057 -0.026298374 -0.11538833 -0.059661787
-0.20338729 -0.055735514 -0.25150913 -0.115516804 -0.12091066 -0.465561 0.14666 -0.0072462005
0.1507976 -0.5418687 0.19421864 -0.12835476 0.14287768 -0.16541106 0.037356827 0.24305122
-0.068113536 -0.19629925 0.054237783 0.07639155 0.16905934 0.028735125 -0.10809555 0.07031907
-0.28698915 0.0738584 0.072219945 0.07065621 -0.80290425 0.020230165 -0.022502834 -0.18270974
0.13142875 -0.07653661 0.07086408 -0.060666736 0.03377562 0.052469563 -9.093475e-06 0.10529851
-0.191244 -0.05292502 0.11137998 0.16791129 0.12633748 -0.22352724 -0.18767887 -0.041207448
-0.066184565 -0.032202587 0.11690394 0.050740797 0.05735932 -0.111171536 -0.16372767 -0.012191428
0.14751326 -0.1090292 0.040613607 0.1919762 0.036597732 -0.014972591 0.06315716 -0.0906357
0.02059544 -0.059153236 0.034404933 0.034463644 0.104303546 0.05538346 0.054092187 -0.070691764
0.02323397 0.06215818 0.057321534 -0.0037082827 0.037738986 0.008998961 0.08103364 0.010450417
-0.01267495 0.14823364 -0.09131489 -0.03292513 0.11366285 -0.024589865 0.05209082 0.036968485
-0.0026562202 0.08436631 -0.075647816 0.03321415 0.02305293 0.20564874 0.095630646 -0.08135684

fc2.bias f4 [16]
00000000: a9cc 9d3e 1c7b 843e 04fc 8fbe 581f b2be
00000010: e9c2 093e 254e 353d b2eb 433d ac2c 6b3e
00000020: aa5b 7abb 9a0b adbe 0225 c53e 21e0 933c
00000030: ac8d 7f3d d66e 123e b812 523e ff5f 383e
0.30820206 0.25875175 -0.2812196 -0.34789538 0.13453259 0.044263978 0.0478322 0.2296626
-0.0038201609 -0.33797914 0.38504797 0.018051209 0.06239097 0.14300093 0.20514953 0.1800537

fc3.weight f4 [21, 16]
00000000: 7a89 6b3d e5a2 04bd c991 98bc 56fc adbd
00000010: b387 c53b 1449 68b9 968b 3b3b fb76 873c
00000020: a95f d8bb 939f b6bd 395b 043e 9a91 83bc
00000030: 1840 5eba 2273 b5bc d2cb 4cbe 0546 a43d
00000040: 8c34 b93d 4660 47bd 11f3 86bc 2977 d7bd
00000050: 3363 043d 94ad 45bb 793b c83b 3edd e03a
00000060: 4cdb 81bc 1e13 dabd ed5b 333e 3238 92bc
00000070: 70ec d3bb f98b 0bbd 4242 50be b118 1b3d
00000080: e2ab bc3d f8e4 b33d 68f3 b63a b9e9 d9bc
00000090: f649 b23c bfd8 38bc ec64 7e3b 4b85 5fbd
000000a0: cff6 16bc 4553 adbd cdac 42bd 8002 9abc
000000b0: fa88 9dbb 1c35 1fbd c514 813d 3492 27bc
000000c0: 56c0 a13d 7d5a 1ebc 9b09 0ebd ebc4 83bd
000000d0: 9a5d c23c 5195 8cbd e749 ae3c 6dd3 0ebd
000000e0: e17c 81bd 7f7b 01be bb45 333e 0da4 57bd
000000f0: 91d2 5ebd 2291 7f3d 04bf b1bd 4033 41bd
00000100: 530b 033e 0525 283d 63ed 19bd c8fe 9dbd
00000110: a17d 043d 7f33 a7bd b25f d23c ad65 22bd
00000120: 3256 9dbd 51c5 29be f7d0 e23d 4f67 8abd
00000130: c868 87bd bb1d 8e3d 08a4 6abd 1a60 42bc
00000140: 6d27 d63c ac37 613d 3aa5 3abc 10b8 87bb
00000150: 9c58 c53c 0c12 70bd 5548 613c 38b5 e53c
00000160: 1ed7 43bd 0772 9abc 6784 b1bd 039e 0fbd
00000170: 8fed 22bd e04a c03d e3cf 773d b18d 6e3c
00000180: dc86 033e 76bb 793e 9062 11be 1f97 49be
00000190: 976a 943d 2c5f c6be 3080 ec3d 7610 833d
000001a0: 285a 81be 0fa0 63be e865 11be 2ddc 81be
000001b0: 5a04 6cbe 2800 d03e 35d8 243e f189 0a3e
000001c0: 99dd 2b3d 311f d03d 1341 b6bd 2dd5 09be
000001d0: 2347 dbbc eb3b b7be 4669 853d 6aed 8bb9
000001e0: 0a98 2dbe 7eb5 54be c9c2 203e 0f36 80be
000001f0: b24c 28be 23b0 eb3e 863a 9cbd b68c 333d
00000200: 8fd5 6d3c ecd4 f93c 4841 8ebd 7a05 07be
00000210: 474d 823c 9227 bebe 4149 8e3d 7239 ba3d
00000220: 1a54 3abe 9329 a6bd 1d15 3a3d 219e 62be
00000230: 6506 18be dfc1 f43e 9dce fcbc 0672 9f3d
00000240: 9aca 4cbc 59ed 9a3d 8045 2fbe 2cff 76be
00000250: cdd2 10bd 0c07 21bf 05d3 0c3e 5acf 813d
00000260: b09d 8fbe 35a5 27be 6f49 8d3d 9522 a1be
00000270: 1039 9cbe 8ccb 2f3f 358c 543c 5d83 6e3e
00000280: 9311 f73d b142 2d3d 0236 b6bd 00d1 6abe
00000290: e9ee 853d a2fa 19bf 9e31 d53d 47e9 243e
000002a0: 4a7a 8ebe b80c 16be d934 de3b c677 bfbe
000002b0: dff2 8bbe e074 303f 75a0 90bd dafc 303e
000002c0: 53d2 013e 4924 0d3e 2933 02be 4aa4 62be
000002d0: b73d 213e 1b95 1cbf 7655 e63d 046a 423e
000002e0: adef 9bbe 218e 20be 0740 a3bd 9bab b9be
000002f0: a0ca 90be 6eeb 2b3f 7f51 113d 0ed2 b33d
00000300: b00d 793e 4d50 463e fbc5 24be 27b6 9ebe
00000310: ea4d d73d 277d 71bf 9ee6 323e eaab 69bb
00000320: 4253 c2be bec1 9dbe 5c76 a9bc d9fa fbbe
00000330: bc28 ebbe 4aea 7b3f 1d49 5d3e 68b2 c03d
00000340: b09e 913e c71c 813e 2c1e 0fbe 3de1 8fbe
00000350: a870 6d3d fa8e 72bf a25f 0f3e 44cb c53d
00000360: ec18 cbbe 212d c5be 0db5 6bbd 2d9d 1abf
00000370: f920 d7be bc88 683f b8f9 e3bb e33d 663e
00000380: 309b 993d a2c1 2a3e 259e 18be 22b1 77be
00000390: fe2f 0a3e 6f7c 5dbf 16cb 043e dda2 3e3e
000003a0: 001f b4be be30 29be ce5c 37bd f740 f9be
000003b0: a661 c5be fc6d 5b3f 4eb7 6c3d 1e2e 933d
000003c0: 131a 9dbd dfe6 3dbd 0dbb 59be fe96 a3be
000003d0: b9d2 323e e283 78bf 923c 443e b95d 683e
000003e0: d89a cabe b205 42bd af9b 883e 2971 06bf
000003f0: 90a9 07bf f872 933f c9a8 233d f8b1 c3bd
0.057504155 -0.03238191 -0.018624203 -0.08495395 0.0060281395 -0.00022152468 0.0028617135 0.016536226
-0.0066032005 -0.08917155 0.12925424 -0.01606064 -0.00084781786 -0.022149626 -0.19999626 0.08021168
0.09043226 -0.048675798 -0.016473325 -0.10520775 0.032321166 -0.0030163275 0.0061106053 0.0017155779
-0.01585164 -0.106481776 0.17515536 -0.017849062 -0.0064673945 -0.034069035 -0.20337775 0.037865344
0.092124715 0.08783907 0.0013958039 -0.026600705 0.021763783 -0.011282145 0.0038817478 -0.054570477
-0.009214117 -0.08463148 -0.047528077 -0.01880002 -0.0048075886 -0.03886901 0.063027896 -0.010227729
0.07898013 -0.009665129 -0.03467713 -0.064340435 0.023726273 -0.06864417 0.021275474 -0.0348696
-0.06322647 -0.12644766 0.17507069 -0.052646685 -0.05440003 0.06239427 -0.086790115 -0.047168016
0.12797289 0.04105093 -0.037579905 -0.07714611 0.03234637 -0.08164119 0.025680397 -0.039647747
-0.07682456 -0.16579176 0.11075013 -0.06757986 -0.06611782 0.069392644 -0.05728534 -0.011863733
0.026141847 0.054984733 -0.011391932 -0.004141815 0.024090104 -0.05861096 0.013750155 0.028040513
-0.047812574 -0.0188532 -0.08667832 -0.0350628 -0.039777335 0.09389281 0.06050099 0.014560149
0.12844414 0.24387917 -0.14197755 -0.19686554 0.07246893 -0.38744485 0.11547887 0.06399624
-0.25264096 -0.22229026 -0.1419903 -0.25363293 -0.23048535 0.4062512 0.16098101 0.13529183
0.04195938 0.10162199 -0.08899131 -0.13460226 -0.026767319 -0.357879 0.0651422 -0.00026689033
-0.1695253 -0.20772359 0.15699305 -0.25041243 -0.16435507 0.4603282 -0.0762835 0.043835364
0.014516248 0.030497037 -0.06946045 -0.13185683 0.01590599 -0.37139565 0.06947566 0.09092988
-0.18196145 -0.081133984 0.04543029 -0.22130634 -0.1484619 0.47804162 -0.03086024 0.0778542
-0.012499476 0.07564802 -0.17116356 -0.24120778 -0.035357285 -0.6290138 0.13752373 0.06338377
-0.28049994 -0.16371615 0.06898772 -0.31471696 -0.30512285 0.6866996 0.012972881 0.23292299
0.12063899 0.04229993 -0.0889702 -0.2293129 0.06539709 -0.6014806 0.10409854 0.16104613
-0.27827674 -0.1465329 0.0067812023 -0.37396067 -0.27333733 0.6892834 -0.07061855 0.17283955
0.12677889 0.13783373 -0.12714829 -0.22132984 0.15746199 -0.61165017 0.11246769 0.18985754
-0.30456296 -0.15679218 -0.079711966 -0.36263737 -0.2827959 0.6715611 0.03547811 0.08780299
0.24321628 0.1936657 -0.16091149 -0.30998346 0.10512908 -0.9433159 0.17470786 -0.0035655447
-0.37954146 -0.30811876 -0.020686321 -0.4921482 -0.45929515 0.9840437 0.21609922 0.09409028
0.2844138 0.25217268 -0.13976353 -0.2810153 0.057968765 -0.94749415 0.14001325 0.096579105
-0.3966745 -0.38510993 -0.05754571 -0.6039608 -0.42017344 0.9083364 -0.006957259 0.22484545
0.07500303 0.16675428 -0.14904077 -0.24188665 0.1349487 -0.86517996 0.12968096 0.18616815
-0.351799 -0.165225 -0.04476624 -0.48682377 -0.38551062 0.857147 0.057792 0.071865305
-0.07670989 -0.046362754 -0.2126276 -0.31951135 0.17463197 -0.9707624 0.1916373 0.22692002
-0.3957126 -0.047368713 0.26681277 -0.5251642 -0.52993107 1.1519461 0.039955888 -0.09555429

fc3.bias f4 [21]
00000000: ae75 163f 7c07 cb3e 648b ae3e 8b85 043f
00000010: 7900 b33e cd90 c83e d420 2f3e 468e a33e
00000020: d626 6e3e a21d 6d3e 64ea 6b3e 2a08 c23c
00000030: 640b eb3c 3f54 2b3c 7157 cd3d 8b93 933e
00000040: 3787 ae3e 06c8 3aba 2936 153e f203 5a3e
00000050: da4d c0b9
0.58773315 0.39654148 0.34090722 0.5176627 0.34961298 0.39172974 0.17102367 0.31944484
0.23257002 0.23155835 0.23038632 0.023685534 0.028691955 0.010457098 0.10026444 0.28823504
0.34087536 -0.0007125143 0.14571442 0.21290568 -0.00036679098

fc1.weight f4 [32, 7]
00000000: 0e09 323e dcd7 8dbe 307b a4be 8d68 adbc
00000010: 356f 283e 5861 92be 47c7 f2bd f3f2 063e
00000020: afc8 2d3e 4b2f 1c3e 03b6 b8bd 6d95 5f3e
00000030: 06cd bc3d 4ee2 3e3d f2af a63e 5f92 11be
00000040: d223 4ebe 85eb a93e 6146 643e 0bea 07be
00000050: bdb2 b63e d475 21be 0155 a93e 8fc2 e23d
00000060: 04f6 86be 5bd6 0c3e 6aeb 9abe 69dc a3bd
00000070: 2743 48bd 9ecb 5abe cf15 debd c8c7 033e
00000080: 1fe1 fe3d 7b1d aebd 3b84 a33e 24c0 80be
00000090: aae5 7bbe b652 7bbe 990b 5ebb 5511 e6bd
000000a0: 160f a2be fe0e 85bc f540 1dbd f215 31be
000000b0: 6ff7 5bbd be6b debd 49ac 923e fa70 9abe
000000c0: bc66 00bc a2e9 f93d 2f42 dd3d df6e b83e
000000d0: 5a79 853d f306 99be 0160 943e b486 89be
000000e0: c33c 393e 91c5 19be 8d5d 08be 4f39 093e
000000f0: 2928 5f3e 97eb 82be 0c4e adbe 784f c13e
00000100: ed4c 013e e8af ab3e ceb1 043e e75e 8cbe
00000110: 6ee8 87be 5008 9a3e 188f 6ebc c9ab a23d
00000120: ef04 433e abe3 263d 2cd9 8cbd 5bdc adbd
00000130: 7392 12be be23 2d3d 8318 8abe 020c 02be
00000140: 0761 eeb9 b586 b3bd 742a 833e 19c5 cdbd
00000150: ec19 78be 6f2a 013f ea50 88be b33b 91be
00000160: 3857 9fbe 729f febd 9a96 023c 8f1d 343e
00000170: 7d0e a5bc a9ae 81be e2b5 08bd ea67 293e
00000180: 5a17 4cbe 72f2 763e d922 243e 8b89 043e
00000190: 4b00 26bc 1d10 9cbe 97dc ea3c 76be c93c
000001a0: 9ce9 a13d ce73 28bd 341c 593e 35a7 de3e
000001b0: e1d7 18bb a222 c3be b03a c8bd 0e16 003e
000001c0: cb25 39be 6429 93be e660 cc3e 9477 83bd
000001d0: 627b 923e 602e 12be a431 55bd 84aa 6cbe
000001e0: 832d cdbd b295 423e 0ae4 27be 36c2 e7bd
000001f0: 082c 8d3e 14f1 19be e44a 24bd e7ba 47be
00000200: 11a2 bf3b 2dc6 96bd 8db5 fe3d b589 b03e
00000210: fde6 9f3c 4d73 fcbd 39af 613e 81e1 723e
00000220: f7b7 10bd c8c3 55be c4e8 a43d 4c37 293e
00000230: 0a76 943a 367a 4a3c 4d38 373d f1a4 40be
00000240: b2d9 003e 0e94 1fbe 9108 2c3e 592c 413e
00000250: 0082 d33d 7acf c0bd d348 bcbe e4d5 853d
00000260: 1944 5f3e a3eb 07be 08dd 9c3d 4499 6fbd
00000270: 34fa 6c3e 83da 3f3d 2801 90bd 5b04 ab3e
00000280: d7d7 cf3c 3cc1 86bd a721 383c 0e59 1b3e
00000290: 616a 273e b8cb df3d 5af1 6f3e 1187 593d
000002a0: 9923 933d 3089 dbbe 7add 373e e02f 283d
000002b0: f504 54bc 53e6 ee3d 5cf3 753e 6a44 3f3e
000002c0: bf3e 85be cb3f 0b3d 1d97 9c3e 4c0b 1f3e
000002d0: 9a62 743e 824e 24be ee10 d3be b349 6ebe
000002e0: 1c2e 62bd 2db5 bb3d 38b5 c6be 3ea4 563e
000002f0: 757f d83e 2f87 1e3d 3f28 673e 10d9 b6be
00000300: 6e24 1fbd 1ba8 4b3e 51a1 02bf 7e26 8c3d
00000310: 890b 49be eeb8 d83e 78a6 923e ee11 3a3e
00000320: c723 90be 57ec 6c3e 8cfd f33c eb06 453e
00000330: e25b 8f3b 542d f33c d779 05bd 6ed2 40bd
00000340: 5837 c03e a6c7 ffbd fcc0 6dbe a79c b6bd
00000350: 6dc0 3f3d b8fe 5abd 4822 73be d177 343e
00000360: c88b a03e 7d04 09be 1bb4 acbd 6aa7 12be
00000370: 6442 abbe 3bf6 d9bd 1f64 1d3e 8886 12ba
0.17386267 -0.2770375 -0.32125235 -0.021168018 0.16448672 -0.28589892 -0.118544154 0.13178615
0.16971086 0.15252416 -0.09019091 0.21834345 0.092187926 0.04660254 0.3255611 -0.14215992
-0.20130852 0.331875 0.22292472 -0.13272874 0.3568324 -0.15767604 0.33072665 0.11072265
-0.2635957 0.13753645 -0.30257732 -0.08001024 -0.048892166 -0.21366736 -0.108440034 0.12869179
0.12445282 -0.08501717 0.3193682 -0.25146592 -0.24599329 -0.2454327 -0.0033881424 -0.112337746
-0.31652135 -0.0162425 -0.038392026 -0.17293528 -0.053702768 -0.10860394 0.28647068 -0.3016432
-0.007836994 0.12202765 0.10803639 0.36022088 0.065172866 -0.29888114 0.28979495 -0.26860583
0.18089585 -0.15016772 -0.13316937 0.13400768 0.21792664 -0.25570366 -0.33848608 0.37755942
0.12627001 0.33532643 0.12958452 -0.27416155 -0.26544517 0.30084467 -0.014560483 0.07942922
0.19044851 0.040744465 -0.0687736 -0.08489295 -0.14313678 0.042270415 -0.26971826 -0.12699893
-0.00045467188 -0.08765928 0.25618327 -0.10047359 -0.24228638 0.50455374 -0.26624233 -0.2836586
-0.3112123 -0.124327555 0.0079704765 0.175894 -0.02014851 -0.25328568 -0.033376582 0.16543546
-0.19930783 0.24115923 0.16028918 0.12943093 -0.010131906 -0.30481043 0.028669639 0.024626952
0.079058856 -0.041126065 0.21202165 0.43486944 -0.0023322033 -0.3811236 -0.09776819 0.12508413
-0.18080823 -0.28742516 0.39917678 -0.06419292 0.2860976 -0.14275503 -0.052049294 -0.23111922
-0.10018446 0.19002417 -0.16395584 -0.1131634 0.27572656 -0.1503337 -0.040110484 -0.19504891
0.0058481772 -0.07362018 0.12436972 0.34480062 0.019519323 -0.123266794 0.22039498 0.23718835
-0.035331693 -0.20875466 0.08052209 0.16525 0.0011326682 0.012358239 0.044731427 -0.1881292
0.12583044 -0.15583822 0.16800143 0.18864574 0.1032753 -0.09414573 -0.3677431 0.06534937
0.21803321 -0.13273482 0.07659346 -0.058495775 0.2314232 0.04683925 -0.070314705 0.3340176
0.025371475 -0.06579825 0.011238492 0.1517069 0.16349174 0.10927528 0.23431912 0.053107325
0.07184524 -0.42878103 0.1795558 0.041061282 -0.012940635 0.116650246 0.24018615 0.18678442
-0.26024434 0.033996385 0.3058404 0.15531653 0.23865739 -0.16045573 -0.41223854 -0.23270302
-0.055219755 0.09165416 -0.38810134 0.20961091 0.42284742 0.03870314 0.22573946 -0.3571248
-0.0388531 0.19888346 -0.510274 0.06843279 -0.19633307 0.4232859 0.2864263 0.18170902
-0.28152296 0.23137031 0.029783987 0.1924092 0.004374967 0.0296847 -0.0325869 -0.04707568
0.37542224 -0.12489252 -0.23218149 -0.08916598 0.04681437 -0.053465575 -0.23743546 0.17623831
0.31356645 -0.13380618 -0.0843279 -0.14321676 -0.3344909 -0.10642668 0.15370224 -0.0005589505

fc1.bias f4 [32]
00000000: ee12 fd3e 3e86 e9bd 03c9 903e e825 263f
00000010: 4075 963e f21b 023f 5aed f53d 3eff 833e
00000020: d682 2abe 035a 78be 5c41 a93e fb46 dc3e
00000030: f5a0 d53e 62e2 a8bd 673a 143f 1cd8 0b3e
00000040: ca98 1d3f a1c8 f43e f556 a5bd 3b12 df3e
00000050: a976 063f af41 9c3e 1759 28be c846 133f
00000060: cdb2 5f3e e401 f83e f67c ebbd 89f2 2e3e
00000070: 9f3f 16be 981a ff3e ff19 2f3d f36f a53e
0.49428505 -0.11402558 0.2827836 0.6490159 0.2938633 0.5082389 0.12008162 0.25780672
-0.16651472 -0.24253087 0.33057678 0.43022904 0.41724363 -0.08246304 0.57901615 0.13656658
0.6156126 0.47809318 -0.08073226 0.43568596 0.5252481 0.30518863 -0.16440235 0.5752988
0.21845551 0.48438942 -0.11498444 0.17084707 -0.14672707 0.49824977 0.0427494 0.32311973

fc2.weight f4 [16, 32]
00000000: 0d81 fdbb 5618 4b3c d036 ea3d e89a bd3d
00000010: a845 8c3c 5ff5 de3d 871e 6a3c 506c 06bd
00000020: 9459 5ebb 4931 033d 7df9 d03d 388a 423e
00000030: 103d a13d 4950 53bd f797 283e ac60 d53b
00000040: c61b 353d 7d09 243d ee4e 28bd 8b43 833d
00000050: 46c9 3dbd b50a 0cbc 23e7 87bd 5e58 0c3e
00000060: 6952 cdbc 1118 e33d ebe9 a7bb 2752 fa3d
00000070: f303 d73c 8835 dcba 1b50 a73d d4c6 56bd
00000080: aab3 913d 85e3 0c3e 6bcf fc3d b689 2a3e
00000090: 2113 893d fddd bd3d 0c4a 1a3c 1d44 d63d
000000a0: cf51 fa3d 4279 8b3d d87f 983d f697 473e
000000b0: a96e 2e3e fb97 233d a51c e1bc e566 cb3c
000000c0: e9f8 af3d 0b8a 20bd 4033 4d3e 2769 083e
000000d0: cbe0 a03d db42 07bd 4824 343d 8998 3dbd
000000e0: 7b6b fa3c fafb 593d 1110 9b3d d56d 763d
000000f0: a12f 0d3d cec4 e23d ca48 893c 87bf d6bc
00000100: 5bac b13c 4e37 133e 7f2a b5bc 4f05 9f3b
00000110: 4c2c 173e 1778 113b 73ff e7ba 9d93 023e
00000120: a10a 103e fa1e a53d 2c46 c5bd dadf 7d3d
00000130: f28c 533d bf32 8b3d 7ac8 993c 046c 6b3d
00000140: 104b a03d e483 403d 3644 d93c 6245 04be
00000150: 8a7d 683d 5704 1b3d 320e b03d ebbb b8bd
00000160: cfff c93d 57d2 18bd 8d62 993d 6376 84bc
00000170: 81e0 0d3e 3ae6 243d 20b7 9cbc a8ea 2dbc
00000180: f514 8c3c a58f fd39 2fac f73c c202 813d
00000190: 4b8d 963d 946b d33d f29e 67bd 3767 b13d
000001a0: 4a95 f53d 5c59 a03d ff33 533d 13a6 053e
000001b0: 2311 e63d 11c8 ed3d 1614 1abb eea5 263d
000001c0: 07d7 a23d 1593 fcbc 5aa9 1e3e e053 99bb
000001d0: 2e73 b83d f0ef 123e 0694 3d3e cd7c 6ebd
000001e0: 6894 783d 128b 54bc cc0e d83d 4b33 8ebd
000001f0: 1534 d43d 335b 9dbd 467f a1bd 20e4 c3bd
00000200: 6704 f53d 60d9 fa3b 4b14 c73c c474 4e3d
00000210: 127f a93d 7e90 7a3d f76b ba3c 2f85 1c3e
00000220: 37fc 913d b46b 853d 8ff3 143e 2c17 373e
00000230: 46d6 903d fa26 babb 882a 3b3e e5ad 4dbc
00000240: 160e 303d 8721 72bc 6215 2f3e 0535 283e
00000250: 5208 043d 8b1d c73c 574a 0bbd 621f 863d
00000260: 8a3f f63d e4c7 0abd 8e68 ca3d fa04 ca3c
00000270: c2ba ad3b 3b5a d7bc 7573 ecbd 1a15 74bd
00000280: 9efa 4fbe 13d7 64bd 30e8 80be 8a99 ecbd
00000290: 0e21 f8bd d25d eebe 97d9 153e 118e f0bb
000002a0: 39c3 1a3e 9fbe 0abf 06c5 463e f874 03be
000002b0: 6d24 123e c504 29be 92ff 183d 410d 783e
000002c0: c4e8 8bbd 300d 49be 413a 5e3d abad 9b3d
000002d0: 6514 2d3e 992c eb3c d5bd debd a7ad 8f3d
000002e0: 4b92 92be a474 973d a6b7 923d a4ba 903d
000002f0: 0d27 4dbf 59be a53c 55a5 b8bc f5c5 3abe
00000300: b58b 063e 6f7e 9cbd ee17 913d a5bd 77bd
00000310: 759d 0b3d 845e 573d 2f7a dd39 cb2f d73d
00000320: 2df1 43be 8cff 58bd 0567 e43d 28fa 2b3e
00000330: 8750 013e 20ac 64be c854 40be 6cb2 29bd
00000340: ad35 87bd 544e 04bd 34cb ef3d 9eb7 4e3d
00000350: 17ef 693d b095 e3bd 5481 27be bbdd 48bc
00000360: 270d 173e 286e dfbd 2de1 253d 2d76 443e
00000370: e157 163d ab62 75bc c91c 813d a5ad b9bd
00000380: 5f97 a83c 88fc 71bd 9430 0d3d b744 0d3d
00000390: bc18 d63d ac33 633d 2f06 5e3d cff3 90bd
000003a0: 75ee be3c 9009 7e3d f53e 693d 4be2 6dbb
000003b0: 3e57 1a3d aa06 153c f901 a63d c04b 283c
000003c0: 4030 4dbc a6db 173e 89a7 babd f64c 07bd
000003d0: bffb e83d f8d7 c8bc 387c 563d 3ac9 173d
000003e0: c60f 2bbb 7936 ad3d cc8b 9abd 0afd 073d
000003f0: 98b1 bb3c 7b9b 523e cc91 c33d c87f a6bd
-0.0077363313 0.012395939 0.11436236 0.09258062 0.017123058 0.108866446 0.014289505 -0.03281814
-0.0033927904 0.032029424 0.10203836 0.18998039 0.07872975 -0.051590238 0.1646422 0.0065117683
0.04421594 0.04004811 -0.0410909 0.06409367 -0.046334527 -0.008547475 -0.06635883 0.13705584
-0.02506371 0.11088575 -0.0051243207 0.122227006 0.026247 -0.0016800622 0.08169576 -0.05243571
0.07114346 0.13758667 0.12344249 0.16654095 0.06693102 0.092708565 0.009417068 0.1046221
0.12222635 0.068102375 0.07446259 0.19491562 0.17034401 0.03993986 -0.02747948 0.024829337
0.08592398 -0.039194148 0.20039082 0.13321362 0.07855376 -0.033022743 0.043979913 -0.046288047
0.030568829 0.05321882 0.07571424 0.060163338 0.03446925 0.11072694 0.016758341 -0.026214374
0.02168863 0.14376566 -0.02211499 0.0048529278 0.14762992 0.0022196823 -0.0017700031 0.12751622
0.14066555 0.08062549 -0.09632525 0.06198106 0.051648088 0.067967884 0.018772352 0.05747606
0.07826817 0.04700078 0.026521783 -0.12917092 0.05676035 0.037845936 0.085964575 -0.090202175
0.09863245 -0.03730997 0.074895 -0.016169732 0.13855173 0.040258624 -0.01913029 -0.010615028
0.017099837 0.00048362944 0.03023347 0.06299354 0.07351168 0.10323253 -0.056548066 0.08662265
0.11991365 0.07829544 0.05156326 0.13051634 0.11233737 0.11610425 -0.0023510507 0.040685587
0.079511695 -0.030831853 0.1549429 -0.004679188 0.09006344 0.14349341 0.18513498 -0.058224488
0.060688406 -0.01297261 0.10549697 -0.06943377 0.10361496 -0.076834105 -0.078856036 -0.09564996
0.1196373 0.0076553077 0.024301669 0.050404325 0.0827619 0.061172955 0.02275656 0.1528518
0.07128184 0.06514683 0.14546035 0.17879933 0.070721194 -0.005680916 0.18277943 -0.012553667
0.042982183 -0.014778501 0.17098 0.16426475 0.032234497 0.02430608 -0.034006443 0.065489545
0.12023838 -0.033882037 0.098832235 0.024660576 0.0053018043 -0.026288142 -0.11545459 -0.059590437
-0.20310447 -0.055869173 -0.25177145 -0.11552723 -0.1211568 -0.46555954 0.14633785 -0.0073411544
0.15113534 -0.54197115 0.19411096 -0.12837589 0.14271708 -0.16505726 0.037353106 0.24223806
-0.06831506 -0.19633937 0.054254774 0.07601484 0.16902311 0.02870779 -0.10876051 0.070155434
-0.28627238 0.07395294 0.071639344 0.07066849 -0.8013771 0.020232366 -0.022539774 -0.18239577
0.13139232 -0.07641303 0.07084642 -0.060483593 0.03408571 0.05258037 0.0004224344 0.10507163
-0.1913497 -0.052978083 0.11152462 0.16794646 0.12628375 -0.22331285 -0.18782341 -0.041429922
-0.06602035 -0.032301262 0.1170868 0.05046808 0.05711278 -0.11112535 -0.16357929 -0.012259896
0.14751111 -0.109096825 0.040497947 0.19185705 0.0367049 -0.014977138 0.063043185 -0.09066323
0.020579992 -0.059078723 0.034470156 0.03448936 0.104539365 0.0554692 0.054205116 -0.07077753
0.023307065 0.06202084 0.056944806 -0.0036298211 0.037680857 0.009095827 0.08105845 0.010271966
-0.012523711 0.14829883 -0.09113986 -0.03303238 0.11376142 -0.024517044 0.052364558 0.03705714
-0.002610193 0.084576555 -0.075461954 0.0332003 0.022911832 0.20567124 0.09549293 -0.08129841

fc2.bias f4 [16]
00000000: 6ad9 9d3e e886 843e 5a11 90be c831 b2be
00000010: d8e6 093e d283 353d 8ae2 433d 985a 6b3e
00000020: 1b62 86bb b91f adbe 693e c53e 4687 913c
00000030: 597c 7f3d 155b 123e 8638 523e f67b 383e
0.30829936 0.25884175 -0.28138238 -0.34803605 0.13466966 0.044315167 0.047823466 0.22983778
-0.0041010506 -0.33813265 0.38524178 0.017764699 0.062374447 0.14292558 0.20529374 0.18016037

fc3.weight f4 [21, 16]
00000000: ab0b 6c3d 026f 04bd 81c9 98bc 6b43 aebd
00000010: 8ca0 c93b 2c37 1aba 9bd3 443b 7ae8 873c
00000020: bdc7 e0bb 12a7 b6bd 4952 043e 6dfe 82bc
00000030: dd7b 81ba 29b6 b4bc 0ed4 4cbe a650 a43d
00000040: cd6f b93d 6232 47bd 52b8 87bc e1e2 d7bd
00000050: 422a 053d 68bd 5fbb 132f ce3b 6828 ef3a
00000060: d163 84bc ff11 dabd 8455 333e e1c0 91bc
00000070: 973b dabb b635 0bbd f038 50be 4b0a 1b3d
00000080: a9aa bc3d 402a b43d 6890 a73a 4f31 dbbc
00000090: 76d6 b33c 7c2a 3ebc 7eae 843b 2342 5fbd
000000a0: 73a3 1bbc 2f54 adbd f8b1 42bd 76dc 98bc
000000b0: 6aab a3bb 6dad 1ebd 2c2a 813d 64b6 28bc
000000c0: e3eb a13d e3e3 1cbc 91e6 0ebd f03e 84bd
000000d0: 32f2 c23c 5ce8 8bbd fbed ae3c a848 0ebd
000000e0: f113 81bd 27a6 01be 4257 333e d18c 57bd
000000f0: 6ba8 5fbd 7f93 7e3d 7c70 b1bd ca1a 41bd
00000100: af2b 033e ff7d 283d 5608 1bbd 43a0 9ebd
00000110: d0f5 043d bd89 a6bd f57a d33c 57a6 21bd
00000120: 3202 9dbd 0ff1 29be 1cf7 e23d 3062 8abd
00000130: e503 88bd b7a3 8d3d cbcc 69bd cb65 41bc
00000140: b9e5 d63c b143 613d ffe2 3bbc af09 8bbb
00000150: e9ec c53c afab 6ebd d595 613c dd49 e63c
00000160: 0ca9 42bd 1042 9bbc b476 b1bd 34a0 0fbd
00000170: be00 23bd bfca bf3d 950d 783d 5351 6f3c
00000180: e07f 033e 34af 793e 06a0 11be 13b7 49be
00000190: 948c 943d df01 c6be 53c5 ec3d a46c 833d
000001a0: 7011 81be 03a4 63be d155 11be cc89 81be
000001b0: 610f 6cbe a7c8 cf3e 5720 253e 4c9d 0a3e
000001c0: d643 2c3d 214a d03d a02b b6bd bbd5 09be
000001d0: 673d dbbc e8cd b6be 4a5b 853d 0579 3eb9
000001e0: 51da 2cbe dcb6 54be 86da 203e 209b 7fbe
000001f0: 5e28 28be df84 eb3e b507 9cbd eec4 333d
00000200: 0597 6f3c a0cd f93c 4d05 8ebd d008 07be
00000210: c657 823c bbb9 bdbe 104f 8e3d b968 ba3d
00000220: 1197 39be c717 a6bd fe69 3a3d 74e9 61be
00000230: 65d7 17be 4897 f43e 86b5 fbbc e39d 9f3d
00000240: fcc7 4dbc efc2 9a3d 683d 2fbe df18 77be
00000250: 4cdc 10bd b4b2 20bf dabe 0c3e faa3 813d
00000260: 9031 8fbe 9f98 27be 4561 8d3d 52ac a0be
00000270: ed07 9cbe 9695 2f3f 8720 573c d79d 6e3e
00000280: 6362 f73d b15a 2d3d 67cb b5bd c0d6 6abe
00000290: 1017 863d 0caf 19bf b81e d53d a006 253e
000002a0: d611 8ebe 83fb 15be 65e6 e03b 7dfc bebe
000002b0: 1cce 8bbe f148 303f 8063 90bd 8b17 313e
000002c0: 1afa 013e 7e3a 0d3e 8f2d 02be 3c8b 62be
000002d0: cc72 213e 2543 1cbf 8e62 e63d e78e 423e
000002e0: 3287 9bbe 8384 20be 730c a3bd 8c36 b9be
000002f0: 25a9 90be feba 2b3f ccd0 113d b900 b43d
00000300: d30b 793e 3f4e 463e 9bbd 24be 59be 9ebe
00000310: 096b d73d e0f6 70bf 2dab 323e cd07 73bb
00000320: 29ea c1be c0c5 9dbe be99 a9bc 2f64 fbbe
00000330: 52c8 eabe 1076 7b3f c43e 5d3e 18b3 c03d
00000340: 11b4 913e 6c31 813e 73d6 0ebe 43e6 8fbe
00000350: e8d9 6d3d 931c 72bf 7a39 0f3e 0beb c53d
00000360: 93a8 cabe b423 c5be b764 6bbd e947 1abf
00000370: 5ad6 d6be d119 683f 361c e4bb a04d 663e
00000380: 9cdd 993d 51f4 2a3e c45a 18be e9b0 77be
00000390: ac59 0a3e 2501 5dbf c9af 043e a6b6 3e3e
000003a0: 1ebb b3be 1517 29be 4ffa 36bd f8aa f8be
000003b0: 8516 c5be 7d18 5b3f a5b5 6c3d 1f49 933d
000003c0: cf3d 9dbd 17de 3dbd d2a8 59be a899 a3be
000003d0: 27d3 323e 31da 77bf 4b04 443e 2d48 683e
000003e0: 4738 cabe 8942 42bd e797 883e 2422 06bf
000003f0: 286f 07bf 1339 933f 524a 233d 25d2 c3bd
0.057628315 -0.032332428 -0.018650772 -0.08508953 0.006153172 -0.0005882855 0.0030033353 0.016590346
-0.006859748 -0.08918585 0.12922014 -0.01599046 -0.0009878833 -0.022059517 -0.20002767 0.08023195
0.090545274 -0.048632033 -0.016567383 -0.105413206 0.032511003 -0.0034139995 0.006292233 0.0018246295
-0.016160877 -0.10647964 0.1751309 -0.017792167 -0.0066599357 -0.03398677 -0.2033422 0.037851613
0.09212238 0.08797121 0.0012784125 -0.02675691 0.021952849 -0.011606809 0.0040491214 -0.054506432
-0.009499419 -0.08463322 -0.047533005 -0.018659811 -0.0049947994 -0.03873961 0.06306872 -0.010297392
0.0790632 -0.009575817 -0.034887854 -0.06457317 0.023797128 -0.068314284 0.021353712 -0.03473726
-0.06302632 -0.12661038 0.17513755 -0.052624527 -0.054603975 0.062152382 -0.08664033 -0.04714469
0.12809633 0.041135784 -0.037849747 -0.07745411 0.032460988 -0.0813174 0.025815466 -0.039465275
-0.07666434 -0.16595863 0.110822886 -0.06757009 -0.06641368 0.06915992 -0.05708007 -0.0118040545
0.026232587 0.054996196 -0.011467694 -0.0042430977 0.02416082 -0.0582692 0.013768633 0.028111393
-0.047524497 -0.0189524 -0.08665219 -0.03506489 -0.03979563 0.093648426 0.060559828 0.014606792
0.12841749 0.24383241 -0.142212 -0.19698744 0.07253376 -0.38673303 0.11561074 0.06417206
-0.25208616 -0.22230534 -0.14192893 -0.25300443 -0.23052742 0.40582773 0.16125618 0.13536566
0.04205688 0.10170389 -0.088950396 -0.13460438 -0.026762677 -0.3570397 0.06511553 -0.00018164895
-0.16880156 -0.2077288 0.1570836 -0.24961519 -0.16421649 0.4599981 -0.076186575 0.04388898
0.014623408 0.030493557 -0.06934605 -0.13186955 0.015910994 -0.37055764 0.06948674 0.091020055
-0.18124034 -0.08110004 0.04551124 -0.22061712 -0.1482826 0.47771668 -0.030726206 0.077937864
-0.012559887 0.07556712 -0.17113268 -0.24130581 -0.03536634 -0.6277268 0.13744679 0.06330104
-0.279675 -0.16366814 0.06903318 -0.3138147 -0.30474797 0.68587625 0.013130314 0.23302399
0.12079313 0.04232282 -0.088766865 -0.22933483 0.065473676 -0.60032725 0.1040625 0.16115808
-0.27747983 -0.14646725 0.0068634027 -0.37302008 -0.27305686 0.688613 -0.07050228 0.17294137
0.12693062 0.13791844 -0.12712692 -0.22123426 0.15766448 -0.61039954 0.112492666 0.18999825
-0.30376583 -0.15675549 -0.07961359 -0.36174428 -0.28254047 0.670822 0.035599515 0.087892
0.24320917 0.19365786 -0.16087954 -0.310046 0.10518462 -0.941267 0.17448111 -0.0037083507
-0.37873963 -0.30814934 -0.020703193 -0.49099872 -0.45855957 0.98227024 0.21605974 0.094091594
0.28457692 0.25233018 -0.13948993 -0.28105363 0.05806914 -0.9457485 0.1398677 0.096639715
-0.39581737 -0.38503802 -0.057469096 -0.60265976 -0.41960412 0.9066439 -0.006961371 0.22490549
0.07512972 0.16694762 -0.14878374 -0.2418858 0.1351077 -0.8632987 0.12957682 0.18624362
-0.35103697 -0.16512711 -0.044672307 -0.4856794 -0.38493744 0.8558424 0.057790417 0.07191681
-0.07677805 -0.04635438 -0.21255806 -0.31953168 0.1746336 -0.9681731 0.19142263 0.22683783
-0.3949606 -0.047426734 0.26678392 -0.52395844 -0.52903986 1.1501793 0.0398658 -0.09561566

fc3.bias f4 [21]
00000000: f152 163f 6cb3 ca3e ec47 ae3e d26d 043f
00000010: 2fc0 b23e 648b c83e f2bc 2e3e d898 a33e
00000020: 5640 6e3e c115 6d3e 1d07 6c3e 9d6c c23c
00000030: 1456 eb3c 8067 2e3c 71e0 cd3d 58a8 933e
00000040: 67ae ae3e 0aa1 0dba 2145 153e d73f 5a3e
00000050: bd86 53b9
0.5872031 0.39590013 0.34039247 0.5173007 0.3491225 0.39168847 0.17064264 0.31952548
0.2326673 0.2315283 0.23049589 0.023733431 0.028727569 0.0106447935 0.100525744 0.28839374
0.34117433 -0.000540272 0.14577152 0.21313415 -0.00020172722
