logs/sdf_single_scene_3_spheres/state_100.pt (torch, 13085 bytes, 12 tensors)

fc1.weight f4 [32, 7]
0	0x3e38605e	0.18005511
1	0xbe9bae80	-0.3040657
2	0xbea1fc65	-0.31637874
3	0xbd64d63a	-0.055868365
4	0x3e1ee224	0.15515953
5	0xbe96b900	-0.2943802
6	0xbe0ad2a3	-0.13556914
7	0x3e140f4e	0.14458963
8	0x3e2efbd6	0.17088255
9	0x3e1e4c66	0.15458831
10	0xbdd4e673	-0.10395517
11	0x3e662f3d	0.22478957
12	0x3db06fa1	0.086150415
13	0x3d2219da	0.039575435
14	0x3ea1aa26	0.31575125
15	0xbe14bd59	-0.14525355
16	0xbe3b5d02	-0.18297198
17	0x3ec530bf	0.38513753
18	0x3e58f430	0.211869
19	0xbdfa7894	-0.1223003
20	0x3eb5ff33	0.35546264
21	0xbe245e7a	-0.16051665
22	0x3ea7c057	0.3276393
23	0x3de54b9b	0.11196061
24	0xbe84b278	-0.2591741
25	0x3e0aee41	0.13567449
26	0xbe9c5164	-0.30530846
27	0xbda8bfb3	-0.08239689
28	0xbd255472	-0.040363736
29	0xbe719d41	-0.23595144
30	0xbd8b7a7e	-0.06810473
31	0x3e0efe54	0.13964206
32	0x3ddcbdbd	0.10778377
33	0xbda211fb	-0.07913586
34	0x3ea63606	0.32463092
35	0xbe8993b5	-0.26870504
36	0xbe6e84a3	-0.23292784
37	0xbe7f23e7	-0.2491604
38	0xbc73d9f0	-0.014883503
39	0xbdddfa1e	-0.10838722
40	0xbea00a63	-0.31257924
41	0xbd1c0c42	-0.038097627
42	0xbd4fd83c	-0.050743327
43	0xbe33a101	-0.17541887
44	0xbd84da3a	-0.06486936
45	0xbdad6414	-0.08466354
46	0x3e8fed65	0.28110805
47	0xbea1946f	-0.31558558
48	0x3c8d83d3	0.017274773
49	0x3de8c4b5	0.11365644
50	0x3dbce4be	0.092233166
51	0x3ecbc1f1	0.39796403
52	0x3d6dda23	0.05806936
53	0xbe9d16fc	-0.30681598
54	0x3ea35e47	0.31907865
55	0xbe8b3312	-0.271874
56	0x3e442ebc	0.19158453
57	0xbe2fcf71	-0.17168976
58	0xbe0a9746	-0.13534269
59	0x3df92876	0.121659204
60	0x3e5deec3	0.21673112
61	0xbe8eacd0	-0.2786622
62	0xbea873cc	-0.32900846
63	0x3ec2d075	0.38049665
64	0x3e131b65	0.14365919
65	0x3eacea75	0.33772627
66	0x3dfe01e2	0.12402703
67	0xbe8cf53a	-0.27530843
68	0xbe8b93dd	-0.27261248
69	0x3e9c6646	0.30546778
70	0xbc73d34f	-0.014881923
71	0x3da180cc	0.07885894
72	0x3e51f339	0.20502938
73	0x3cedc53a	0.029024709
74	0xbd933d6f	-0.07189452
75	0xbdade609	-0.08491141
76	0xbe2098fc	-0.15683359
77	0x3d5ec49e	0.054386728
78	0xbe7ff89d	-0.24997182
79	0xbe09be31	-0.13451459
80	0x3c9d50fb	0.019203654
81	0xbdbe5f65	-0.09295539
82	0x3e84b351	0.25918058
83	0xbde30589	-0.1108504
84	0xbe731fd7	-0.23742615
85	0x3f032c8a	0.51239836
86	0xbe8a7286	-0.270405
87	0xbe914324	-0.28371537
88	0xbe9c01ee	-0.30470222
89	0xbdfcfe88	-0.123532355
90	0x3bbf742b	0.0058427057
91	0x3e3d6287	0.18494616
92	0xbbd322fe	-0.0064433804
93	0xbe87b13a	-0.265024
94	0xbd143509	-0.03618339
95	0x3e2a1ef0	0.16613364
96	0xbe4ea008	-0.20178235
97	0x3e749f7b	0.23888962
98	0x3e2afb34	0.16697389
99	0x3e12420b	0.14283006
100	0x3b764a52	0.003758092
101	0xbe97d256	-0.2965266
102	0x3a3ceaf5	0.0007206642
103	0x3d1f11cf	0.038835343
104	0x3d56c9fa	0.052438714
105	0xbb7a1d33	-0.0038164377
106	0x3e6636da	0.22481862
107	0x3eefe3ca	0.46853477
108	0xbbbfedbf	-0.005857199
109	0xbec2a4f3	-0.3801647
110	0xbdcd972d	-0.100386
111	0x3e174965	0.14774092
112	0xbe35e8b6	-0.17764553
113	0xbe893aaf	-0.26802585
114	0x3eb8f042	0.36120802
115	0xbcdd8cb3	-0.02704463
116	0x3e6f713d	0.2338304
117	0xbe282d50	-0.16423535
118	0xbd9dd27a	-0.07706161
119	0xbe559e65	-0.20861204
120	0xbdd4e1f7	-0.10394662
121	0x3e620872	0.22073534
122	0xbe1fd7a0	-0.15609598
123	0xbde846c4	-0.113416225
124	0x3e9415a6	0.28922766
125	0xbe004a2a	-0.12528291
126	0xbd3be9de	-0.04587733
127	0xbe36c58b	-0.17848794
128	0x3b7d0808	0.0038609523
129	0xbd966043	-0.07342579
130	0x3dd6b13a	0.10483022
131	0x3eb14cf3	0.3462902
132	0x3c19fec3	0.009399119
133	0xbe0bbe3e	-0.1364679
134	0x3e834dcb	0.2564529
135	0x3e75c2ab	0.24000041
136	0xbd197afc	-0.037470803
137	0xbe4ec25f	-0.20191334
138	0x3dc7cb9b	0.097556315
139	0x3e3d3c77	0.18480097
140	0x3c0ed582	0.008717896
141	0xbc956a2f	-0.018239109
142	0x3cd350a1	0.025795283
143	0xbe370433	-0.17872696
144	0x3e0b5b93	0.13609152
145	0xbe2194d3	-0.15779428
146	0x3e18b555	0.14912923
147	0x3e5b2855	0.21402104
148	0x3ddfe799	0.109328456
149	0xbd9c930e	-0.07645236
150	0xbec076b1	-0.37590554
151	0x3d66aac8	0.056315213
152	0x3e56e7f2	0.20986918
153	0xbde648c1	-0.112443455
154	0x3d9a65ee	0.07538973
155	0xbd60b850	-0.054863274
156	0x3e7a2eba	0.24431887
157	0x3d63c0fe	0.055603974
158	0xbd8d77d6	-0.069076225
159	0x3eaf8eb9	0.34288576
160	0x3cf33fda	0.029693533
161	0xbd7b4ccf	-0.061352547
162	0x3bd7c74f	0.0065850387
163	0x3e268388	0.16261113
164	0x3e200f8a	0.15630928
165	0x3ddc120c	0.1074563
166	0x3e77ed93	0.24211721
167	0x3d631b4e	0.05544596
168	0x3d97d6e3	0.07414033
169	0xbee0a41f	-0.43875214
170	0x3e331263	0.17487483
171	0x3d4d1529	0.050069008
172	0xbc2ac6c0	-0.010423362
173	0x3de0f35e	0.109839186
174	0x3e7dae74	0.2477358
175	0x3e460165	0.1933647
176	0xbe8ea4ac	-0.2786001
177	0x3d2b1f6f	0.041778024
178	0x3e97fe58	0.29686236
179	0x3e20b240	0.15692997
180	0x3e8a11ae	0.26966614
181	0xbe3ff32b	-0.18745105
182	0xbed530e4	-0.41638863
183	0xbe605614	-0.21907836
184	0xbd77cc01	-0.060497288
185	0x3da2eb8a	0.07955082
186	0xbece4151	-0.40284207
187	0x3e4aadcb	0.1979286
188	0x3ee1b506	0.44083422
189	0x3d5e5766	0.05428257
190	0x3e68c83a	0.2273263
191	0xbeb99afc	-0.36251056
192	0xbd27cd78	-0.040967435
193	0x3e5571d6	0.20844206
194	0xbf031fe1	-0.5122052
195	0x3d8e4b11	0.069479115
196	0xbe4f4ccd	-0.20244141
197	0x3ee14ea0	0.440053
198	0x3e998fde	0.29992574
199	0x3e2fd526	0.17171153
200	0xbe9514ff	-0.2911758
201	0x3e6c0f85	0.23052795
202	0x3cf2c844	0.02963651
203	0x3e440799	0.19143523
204	0x3b466dfe	0.0030277963
205	0x3cdd6d34	0.027029611
206	0xbd0d471b	-0.03449164
207	0xbd4bb9cb	-0.049737733
208	0x3ec75a44	0.38936055
209	0xbe0340ce	-0.1281769
210	0xbe73cc87	-0.2380849
211	0xbda7bfe4	-0.08190897
212	0x3d452e42	0.048139818
213	0xbd714eb6	-0.058912955
214	0xbe7d99ab	-0.24765651
215	0x3e32a68b	0.17446344
216	0x3ea3b3bc	0.31973064
217	0xbe0b25ea	-0.13588682
218	0xbdd71185	-0.105013885
219	0xbe1aa0bb	-0.15100376
220	0xbe9cd37c	-0.306301
221	0xbdf6facd	-0.12059555
222	0x3e3d3c2c	0.18479985
223	0x3b616779	0.003439395

fc1.bias f4 [32]
0	0x3eec5107	0.4615557
1	0xbe03d7c0	-0.12875271
2	0x3e94dae1	0.2907324
3	0x3f2a621f	0.6655597
4	0x3ea51c21	0.32248023
5	0x3eed7af1	0.4638286
6	0x3e3bc36b	0.18336265
7	0x3e41fa0d	0.18943043
8	0xbe210b88	-0.15727055
9	0xbe8a622a	-0.27028018
10	0x3ea041cb	0.31300196
11	0x3edeb21f	0.4349527
12	0x3ecefd7a	0.40427762
13	0xbdcf49aa	-0.10121472
14	0x3f137658	0.57602453
15	0x3d1fe5c0	0.039037466
16	0x3f35e729	0.7105585
17	0x3ef55fd1	0.47924665
18	0xbdf83690	-0.12119782
19	0x3edc1823	0.42987165
20	0x3f0cc37a	0.54985774
21	0x3e953fe9	0.29150322
22	0xbe176e3d	-0.14788146
23	0x3f134df7	0.5754084
24	0x3e6f34bf	0.23359965
25	0x3ee48b36	0.4463746
26	0xbdc559d9	-0.09636278
27	0x3e1ee2e4	0.1551624
28	0xbe390652	-0.18068817
29	0x3effe95b	0.49982724
30	0x3d29b790	0.041434824
31	0x3eab7aba	0.3349207

fc2.weight f4 [16, 32]
0	0x396abb6d	0.000223858
1	0xbbb77f4e	-0.0055998927
2	0x3df34556	0.11878459
3	0x3dcbd4f2	0.099527255
4	0x3c921afb	0.01783513
5	0x3de4a579	0.11164374
6	0x3c6ffa6f	0.01464711
7	0xbd0da4d5	-0.034581024
8	0x3c27a693	0.0102325855
9	0x3d08c4c1	0.033390764
10	0x3db03d70	0.08605468
11	0x3e39299c	0.18082279
12	0x3da10d4d	0.07863865
13	0xbd0af63e	-0.03392624
14	0x3e274378	0.16334331
15	0x3c6b7dfe	0.014373301
16	0x3d2d3fc7	0.04229715
17	0x3d18257d	0.037145127
18	0xbce1f8cf	-0.027584461
19	0x3d71bdff	0.059019085
20	0xbcfd30cc	-0.030907057
21	0xbc57a64d	-0.013162208
22	0xbd3d63ef	-0.046237882
23	0x3e12a3f8	0.14320362
24	0xbcefe88e	-0.029285695
25	0x3dd5d66a	0.10441287
26	0xbbe4f624	-0.00698735
27	0x3dcbded3	0.0995461
28	0x3c872a5d	0.016499693
29	0x3bb95347	0.0056556794
30	0x3d9a5737	0.07536166
31	0xbd3cb5cf	-0.046071824
32	0x3d8c6d36	0.06856768
33	0x3e07fb4e	0.13279459
34	0x3e0354bb	0.12825291
35	0x3e2bab56	0.16764578
36	0x3d821e57	0.06353443
37	0x3dc23667	0.09483033
38	0x3be08a24	0.006852405
39	0x3dd5baaa	0.10435994
40	0x3de586d1	0.11207355
41	0x3d86fdf9	0.0659141
42	0x3d8f1daa	0.0698808
43	0x3e40e70b	0.18838136
44	0x3e2d210b	0.16907136
45	0x3d142f6a	0.03617803
46	0xbcbb63c7	-0.022874726
47	0x3cff3b04	0.03115607
48	0x3dbfa2cc	0.09357223
49	0xbd0adc49	-0.033901487
50	0x3e4318bb	0.19052403
51	0x3dfe02ba	0.12402864
52	0x3d8f82b7	0.07007354
53	0xbce5ada9	-0.02803691
54	0x3d6a969a	0.05727253
55	0xbd52c7c0	-0.051460028
56	0x3d0f4149	0.03497437
57	0x3d81acb8	0.063317716
58	0x3db0d1ed	0.0863379
59	0x3d5eccc7	0.05439451
60	0x3d1d7eac	0.03845088
61	0x3dee9fbf	0.11651563
62	0x3c846941	0.01616347
63	0xbcd1ecc8	-0.025625601
64	0x3c673053	0.0141106425
65	0x3e22bd78	0.15892589
66	0xbcbb6947	-0.022877349
67	0x3b5a0e2a	0.0033272603
68	0x3e1ec69e	0.15505454
69	0xbb7f5c92	-0.0038965088
70	0xbc1121e8	-0.008858182
71	0x3e0f67d7	0.14004456
72	0x3e27c6bf	0.1638441
73	0x3da7a55c	0.08185837
74	0xbddd2977	-0.107989244
75	0x3d801424	0.062538415
76	0x3d5d656f	0.054051813
77	0x3d8a67f5	0.067581095
78	0x3c71bfc0	0.014755189
79	0x3d62aacc	0.055338666
80	0x3dadaa00	0.084796906
81	0x3d57b68a	0.052664317
82	0x3d1ffb06	0.039057754
83	0xbe07eabc	-0.13273138
84	0x3d51be9e	0.051207177
85	0x3d252f39	0.04032824
86	0x3ddc87e9	0.1076811
87	0xbdbad5ae	-0.091227874
88	0x3dbd1250	0.092320085
89	0xbd0775f0	-0.03307146
90	0x3db01b4a	0.08598955
91	0xbba5e33b	-0.0050624884
92	0x3e165462	0.14680627
93	0x3cfddabd	0.030988092
94	0xbcf988a4	-0.030460663
95	0xbbc06c46	-0.005872282
96	0x3c97e379	0.018541085
97	0x3c27d0ba	0.010242635
98	0x3d1868ce	0.037209325
99	0x3d73fde8	0.059568316
100	0x3d9e31b1	0.07724322
101	0x3dbe37f3	0.09288015
102	0xbd77b6c3	-0.06047703
103	0x3dbb9230	0.091587424
104	0x3df4f611	0.11960996
105	0x3da50378	0.08057302
106	0x3d25847c	0.04040955
107	0x3e0b0d0a	0.13579193
108	0x3dc7a0ef	0.097474925
109	0x3dde7f9c	0.10864183
110	0x3b214f1d	0.0024613806
111	0x3d43d000	0.047805786
112	0x3db7c4ad	0.0897306
113	0xbce16cbc	-0.027517669
114	0x3e1da420	0.1539464
115	0xbc05690b	-0.00814272
116	0x3db4df1f	0.088316195
117	0x3e1a682d	0.15078802
118	0x3e4408b8	0.19143951
119	0xbd7bc9e5	-0.06147184
120	0x3d5ed1b6	0.054399215
121	0xbc14b5f4	-0.009076584
122	0x3dda7a19	0.106678195
123	0xbdc6e3fa	-0.09711452
124	0x3dd2a239	0.10284848
125	0xbda828de	-0.0821092
126	0xbdadcf6a	-0.08486827
127	0xbdbef358	-0.09323758
128	0x3df783b4	0.12085667
129	0x3b11d73e	0.0022253538
130	0x3cc8b4b3	0.024500227
131	0x3d4483e4	0.047977343
132	0x3d7d55ff	0.06184959
133	0x3d8ae566	0.067820355
134	0x3d1d1022	0.038345464
135	0x3e1b56a3	0.15169768
136	0x3d8c0c4a	0.068382815
137	0x3d87b027	0.06625395
138	0x3e1e1376	0.15437111
139	0x3e316230	0.17322612
140	0x3d94ed85	0.07271866
141	0x3aeb2419	0.0017939835
142	0x3e3895d9	0.18025912
143	0xbbacb46b	-0.005270531
144	0x3d55ccce	0.05219727
145	0xbcaf54dc	-0.021402769
146	0x3e35fcdf	0.17772244
147	0x3e178786	0.14797792
148	0x3d311f03	0.043242466
149	0x3cad197c	0.021130316
150	0xbd2f3e18	-0.042783827
151	0x3da73764	0.08164862
152	0x3e029b11	0.12754466
153	0xbcd1e382	-0.02562118
154	0x3dc2aa29	0.09505112
155	0x3c3285d8	0.010896169
156	0xbaf53323	-0.0018707257
157	0xbc759cea	-0.0149910245
158	0xbdd264e8	-0.102731526
159	0xbd7bb085	-0.06144764
160	0xbe495daa	-0.19664636
161	0xbd7da8dd	-0.06192862
162	0xbe88cc4c	-0.26718366
163	0xbe0178ef	-0.12643789
164	0xbe2f6f3e	-0.1713228
165	0xbecc8deb	-0.39952025
166	0x3e36bdfc	0.17845911
167	0xbc6cad85	-0.014445667
168	0x3e0a914f	0.13531993
169	0xbf0ecd5c	-0.55782104
170	0x3e39e457	0.18153511
171	0xbda57c55	-0.08080355
172	0x3e20436f	0.15650724
173	0xbe626408	-0.22108471
174	0x3cff6a6c	0.031178676
175	0x3eac53f7	0.3365781
176	0xbd86a24d	-0.06573925
177	0xbe4cd5d7	-0.20003448
178	0x3daa0e23	0.083034776
179	0x3dd956dc	0.1061227
180	0x3e2a903d	0.16656585
181	0x3d06fad0	0.032954037
182	0xbdb55e7b	-0.08855911
183	0x3da979ad	0.08275161
184	0xbee77113	-0.45203456
185	0x3d669663	0.056295764
186	0x3de4e79a	0.11176987
187	0x3d789984	0.06069328
188	0xbf7f564f	-0.9974107
189	0x3ca041de	0.019562658
190	0xbc054f52	-0.008136587
191	0xbe78f36b	-0.24311607
192	0x3e19c52a	0.15016618
193	0xbdeaff6d	-0.114745
194	0x3db820ba	0.08990617
195	0xbdaabbc7	-0.08336597
196	0xbc50b18a	-0.012737641
197	0x3d5aa4cb	0.053379815
198	0xbcb57efc	-0.022155277
199	0x3dfbbd15	0.12291924
200	0xbe52f82f	-0.20602487
201	0xbd7e4c56	-0.06208452
202	0x3d8f8a15	0.07008759
203	0x3e2eb8a7	0.17062627
204	0x3de2b96d	0.110705234
205	0xbe6ea964	-0.23306805
206	0xbe3ad7d5	-0.18246396
207	0xbc66eca9	-0.01409451
208	0xbd8a096b	-0.067400776
209	0xbcce2e60	-0.025168598
210	0x3ddaaad1	0.10677112
211	0x3d89887a	0.06715484
212	0x3db4b8af	0.08824288
213	0xbe012969	-0.12613453
214	0xbe460a7b	-0.19339935
215	0x3c13ad76	0.009013524
216	0x3e117288	0.14203846
217	0xbdc84712	-0.097791806
218	0x3d42f55a	0.047597267
219	0x3e5b2445	0.21400554
220	0x3a55b397	0.0008152066
221	0xbc71cbfd	-0.014758107
222	0x3d9b8a0d	0.075946905
223	0xbdb3c6ca	-0.087781504
224	0x3cbc8b8e	0.023015764
225	0xbd3585d6	-0.04431709
226	0x3d185908	0.03719428
227	0x3cdea090	0.027176172
228	0x3db89c0c	0.090141386
229	0x3d53f565	0.0517477
230	0x3d8e0983	0.06935408
231	0xbd845512	-0.064615384
232	0x3c81f082	0.015861753
233	0x3d901da1	0.07036901
234	0x3db68e7a	0.08913894
235	0x3ad45cbf	0.0016201957
236	0x3d10db29	0.035365257
237	0x3c175ba1	0.009238155
238	0x3daf4108	0.085573256
239	0x3c241e9a	0.010017062
240	0xbcae6042	-0.021286134
241	0x3e111012	0.14166287
242	0xbdb44896	-0.08802907
243	0xbcd5bf73	-0.026092267
244	0x3def9dce	0.11700021
245	0xbcc0d73c	-0.023540132
246	0x3ce373f1	0.027765246
247	0x3d47ebb4	0.04880877
248	0x3c01163b	0.007878835
249	0x3da4027a	0.08008285
250	0xbdbf87b8	-0.09352058
251	0x3d34f05a	0.04417453
252	0x3cc9da94	0.024640359
253	0x3e5f278a	0.21792427
254	0x3df48dde	0.119411215
255	0xbdaba573	-0.08381166

fc2.bias f4 [16]
0	0x3e9e12a1	0.30873588
1	0x3e8522ee	0.26003212
2	0xbe8aafd1	-0.27087262
3	0xbead830d	-0.33889046
4	0x3e008900	0.12552261
5	0x3d2996f6	0.041403733
6	0x3d4a51c4	0.049394384
7	0x3e5bc982	0.21463588
8	0x3bc5b53a	0.006033567
9	0xbea8bf7f	-0.329586
10	0x3ebae24b	0.36500773
11	0x3cc24471	0.023714276
12	0x3d4e9014	0.050430372
13	0x3e336d2e	0.17522117
14	0x3e41cc89	0.1892568
15	0x3e3695d9	0.178306

fc3.weight f4 [21, 16]
0	0x3d0c6069	0.03427163
1	0xbd335754	-0.043784454
2	0xbc82d140	-0.015968919
3	0xbd5851d1	-0.0528124
4	0xbc67e2c5	-0.014153187
5	0x3c93ee7f	0.01805806
6	0x3aae3464	0.001329076
7	0x3b80f9ec	0.003936043
8	0x3b406ee8	0.002936298
9	0xbd976f79	-0.073943086
10	0x3e05bcd9	0.13060321
11	0xbc0689a4	-0.008211527
12	0x3be04bef	0.0068449895
13	0xbbee20e4	-0.0072671045
14	0xbe455339	-0.19270028
15	0x3d94d5c3	0.07267334
16	0x3d86fc91	0.06591142
17	0xbd7667d7	-0.060157623
18	0xbc00e043	-0.007865968
19	0xbd855930	-0.06511152
20	0x3b03cc04	0.0020110616
21	0x3c9e5e29	0.019332008
22	0x3aff2b63	0.0019467886
23	0xbc8b9bca	-0.01704206
24	0x3a8a0dac	0.0010532639
25	0xbdbebb92	-0.0931312
26	0x3e338894	0.17532569
27	0xbc190be8	-0.009341218
28	0x3bd7c540	0.0065847933
29	0xbc91eca9	-0.017813044
30	0xbe4f9e9e	-0.20275351
31	0x3d151d81	0.03640509
32	0x3da9ac4c	0.08284816
33	0x3d8c05ee	0.068370685
34	0x3c7dab2c	0.015482705
35	0xbb9721f3	-0.0046122014
36	0xbb1b0804	-0.00236559
37	0x3bc17735	0.005904103
38	0xb93f0de8	-0.0001822036
39	0xbd86c90e	-0.06581317
40	0x3bb2d289	0.0054572267
41	0xbd922942	-0.071367756
42	0xbd471fa4	-0.04861416
43	0xbc4ce5a1	-0.01250592
44	0x3bc28407	0.005936149
45	0xbcc9a942	-0.024616841
46	0x3d81a7b5	0.06330816
47	0xbad08fbd	-0.0015911978
48	0x3d887d1f	0.0666449
49	0xbc9fa1c0	-0.019486308
50	0xbc90814c	-0.017639779
51	0xbd25b913	-0.040459704
52	0x3c37fcfd	0.011229751
53	0xbdb4c322	-0.08826281
54	0x3c68eff3	0.014217365
55	0xbd3607e2	-0.04444111
56	0xbd508db5	-0.050916392
57	0xbde226a6	-0.11042528
58	0x3e2d0caa	0.16899362
59	0xbd7d2648	-0.061804086
60	0xbd1ee3c6	-0.03879144
61	0x3d8889be	0.06666897
62	0xbdca69b7	-0.09883445
63	0xbd442da0	-0.047895074
64	0x3de39b15	0.11113564
65	0x3d011248	0.031511575
66	0xbc7471cb	-0.0149197085
67	0xbd354ee8	-0.044264704
68	0x3c5c50ec	0.013447028
69	0xbdce094f	-0.10060369
70	0x3c756029	0.01497654
71	0xbd608186	-0.054811023
72	0xbd69a0cb	-0.05703811
73	0xbe178b0c	-0.14799136
74	0x3dd7b002	0.10531618
75	0xbd9d8963	-0.0769222
76	0xbd338fab	-0.043838184
77	0x3d970ff9	0.073760934
78	0xbd94db6e	-0.072684154
79	0xbc8396a4	-0.016063042
80	0x3c85fcf8	0.016355976
81	0x3d6b4759	0.05744109
82	0xbc0d2353	-0.008614379
83	0xba4f36b9	-0.00079045777
84	0x3c97d495	0.018533984
85	0xbdb1a2ed	-0.08673654
86	0x3c3529c1	0.011057318
87	0x3ccf0a44	0.02527345
88	0xbd3e4b44	-0.046458498
89	0xbc5949ed	-0.013262254
90	0xbdafe579	-0.0858869
91	0xbd3e799e	-0.046502702
92	0xbd0a74f9	-0.03380296
93	0x3dc3d2a9	0.095616646
94	0x3d72188e	0.05910545
95	0x3c4595d4	0.012059648
96	0x3e079049	0.13238634
97	0x3e820f29	0.2540219
98	0xbdd73d21	-0.10509706
99	0xbe2fc2aa	-0.17164102
100	0x3d7ad568	0.061238676
101	0xbef1146a	-0.47085887
102	0x3dc8e462	0.098091856
103	0x3d35f076	0.044418775
104	0xbe8329f9	-0.2561796
105	0xbe66346e	-0.22480938
106	0xbe185bcb	-0.14878766
107	0xbeb1c99b	-0.34724125
108	0xbe4bfb58	-0.19920099
109	0x3efcfa2c	0.49409616
110	0x3dfe3b5b	0.12413665
111	0x3e010176	0.12598214
112	0x3d1920ca	0.037384786
113	0x3dd12816	0.10212724
114	0xbdbcb8a8	-0.09214908
115	0xbe0a5ac3	-0.13511185
116	0xbc917e5d	-0.01776045
117	0xbeeae5da	-0.45878488
118	0x3d9097fc	0.07060239
119	0x39d925b4	0.00041417556
120	0xbe4d0bbe	-0.2002401
121	0xbe524362	-0.20533517
122	0x3e1dcea5	0.1541086
123	0xbebaef05	-0.36510482
124	0xbe2e0acc	-0.16996306
125	0x3f0baddc	0.54562163
126	0xbda6e931	-0.081499465
127	0x3d3aa140	0.045563936
128	0x3bf4240b	0.0074505857
129	0x3d31015e	0.043214194
130	0xbda027a2	-0.07820059
131	0xbe05ded4	-0.13073283
132	0x3ccc3c10	0.024930984
133	0xbef54c59	-0.4790981
134	0x3d923c0b	0.071403585
135	0x3dbc4ee7	0.09194737
136	0xbe59d940	-0.2127428
137	0xbdaa6824	-0.083206445
138	0x3d33f857	0.043938007
139	0xbea96604	-0.33085644
140	0xbe1a88c3	-0.15091233
141	0x3f0ec322	0.557665
142	0xbd276892	-0.04087121
143	0x3d99df5c	0.075133055
144	0xbb96da53	-0.004603663
145	0x3dbaf2f4	0.09128371
146	0xbe2e3410	-0.17012048
147	0xbe623f1a	-0.22094384
148	0xbcfb5770	-0.030681342
149	0xbf49fc12	-0.78900254
150	0x3e0f51a6	0.1399599
151	0x3d9f64d8	0.07782906
152	0xbeae9c35	-0.34103552
153	0xbe308db8	-0.17241561
154	0x3d834d2b	0.06411203
155	0xbef4c9db	-0.47810254
156	0xbea13afd	-0.31490317
157	0x3f59b4de	0.85041606
158	0xbc262493	-0.010140556
159	0x3e60b120	0.21942568
160	0x3ddf6eb0	0.10909784
161	0x3d5cd9ac	0.053918526
162	0xbddd1076	-0.10794155
163	0xbe62371c	-0.22091335
164	0x3d8a4546	0.06751494
165	0xbf441c9e	-0.76606166
166	0x3decef8c	0.115691274
167	0x3e21d3ee	0.15803501
168	0xbea84d24	-0.32871354
169	0xbe17c9c4	-0.14823061
170	0x3c03c70c	0.008043062
171	0xbf0a347e	-0.53986347
172	0xbe94d535	-0.29068914
173	0x3f57ebf3	0.84344405
174	0xbd9ae779	-0.07563681
175	0x3e2ed7d7	0.17074524
176	0x3df15939	0.11784596
177	0x3e123d73	0.14281254
178	0xbdf5bffa	-0.11999507
179	0xbe648a2d	-0.22318335
180	0x3e1403e5	0.1445461
181	0xbf4ba534	-0.79548955
182	0x3df6f81b	0.12059041
183	0x3e3b4b38	0.18290412
184	0xbeb0b522	-0.34513193
185	0xbe1bcfb7	-0.15215956
186	0xbda18a58	-0.07887715
187	0xbf0467b7	-0.51720756
188	0xbe939300	-0.2882309
189	0x3f534770	0.8253088
190	0x3cfc8217	0.03082375
191	0x3db898fe	0.09013556
192	0x3e76a885	0.24087723
193	0x3e45e1a4	0.19324356
194	0xbe2a8cac	-0.16655225
195	0xbe98fc90	-0.2988019
196	0x3dc3e001	0.0956421
197	0xbfa01992	-1.2507803
198	0x3e4efc05	0.20213325
199	0x3c84085e	0.016117271
200	0xbeee518a	-0.46546584
201	0xbe9e5b35	-0.3092896
202	0xbca3596f	-0.019940106
203	0xbf3b49bf	-0.731594
204	0xbf01d09f	-0.50708956
205	0x3fa596fa	1.2936699
206	0x3e611160	0.21979284
207	0x3dbc732a	0.09201653
208	0x3e8cdf50	0.27514124
209	0x3e79dc36	0.2440041
210	0xbe32c83f	-0.174592
211	0xbe88c8a7	-0.26715586
212	0x3d67a415	0.056552965
213	0xbf9e8b58	-1.2386274
214	0x3e34f27a	0.17670622
215	0x3dd00c5f	0.101586096
216	0xbef61934	-0.48066103
217	0xbec3e92a	-0.38263828
218	0xbd5c836c	-0.05383627
219	0xbf5d8547	-0.8653149
220	0xbef3e454	-0.47635138
221	0x3f9ae9a3	1.210255
222	0x3c091629	0.0083671
223	0x3e6bc2f1	0.23023583
224	0x3d95ef56	0.0732104
225	0x3e1ecb88	0.15507329
226	0xbe34e039	-0.17663659
227	0xbe6b4b1e	-0.22977874
228	0x3e028224	0.12744957
229	0xbf94804b	-1.1601652
230	0x3e22a9f9	0.15885152
231	0x3e46a5c2	0.19399169
232	0xbed86265	-0.4226257
233	0xbe28e1c2	-0.1649237
234	0xbd28009d	-0.04101621
235	0xbf39e920	-0.72621346
236	0xbedd20ee	-0.43189186
237	0x3f8ed77b	1.115951
238	0x3d9b8057	0.07592838
239	0x3da6207e	0.08111666
240	0xbd93da87	-0.07219415
241	0xbd586516	-0.052830778
242	0xbe68a32e	-0.22718498
243	0xbea2545e	-0.31704992
244	0x3e2e9082	0.17047313
245	0xbfad136f	-1.3521556
246	0x3e5eac0d	0.2174532
247	0x3e761b8f	0.2403395
248	0xbefb72b9	-0.49110964
249	0xbd399365	-0.045306582
250	0x3e893051	0.26794675
251	0xbf49a18b	-0.7876212
252	0xbf1616fa	-0.5862881
253	0x3fbae28e	1.4600389
254	0x3d52f814	0.051506117
255	0xbdb870cf	-0.090058915

fc3.bias f4 [21]
0	0x3f2490f6	0.6428369
1	0x3eee6453	0.46560916
2	0x3ec5cc4c	0.3863243
3	0x3f12f3d5	0.5740331
4	0x3ed9bb43	0.42525682
5	0x3ed042aa	0.4067586
6	0x3e71d10a	0.23614898
7	0x3ea5e137	0.32398388
8	0x3e6de174	0.23230535
9	0x3e76628a	0.24061027
10	0x3e6e9b46	0.2330142
11	0x3d23d699	0.03999958
12	0x3cc836d4	0.024440207
13	0x3a4662bd	0.0007567814
14	0x3da30d87	0.079615645
15	0x3e84aa62	0.25911242
16	0x3e9cd07e	0.30627817
17	0xbb934e1b	-0.004495395
18	0x3e09b726	0.13448772
19	0x3e46d32f	0.19416498
20	0xbac1143f	-0.0014730765

fc1.weight f4 [32, 7]
0	0x3e386216	0.18006167
1	0xbe9bbc73	-0.30417213
2	0xbea20344	-0.31643116
3	0xbd64a42d	-0.055820633
4	0x3e1edecf	0.15514682
5	0xbe96b60c	-0.29435766
6	0xbe0ac088	-0.13550007
7	0x3e1419a0	0.144629
8	0x3e2f0177	0.17090403
9	0x3e1e49a7	0.15457784
10	0xbdd4f2d3	-0.103978775
11	0x3e66337f	0.22480582
12	0x3db08761	0.086195715
13	0x3d2194d0	0.03944856
14	0x3ea1a710	0.3157277
15	0xbe14cd51	-0.14531447
16	0xbe3b4d75	-0.18291266
17	0x3ec52a83	0.38508996
18	0x3e59140b	0.21199052
19	0xbdfa5654	-0.12223497
20	0x3eb60723	0.3555232
21	0xbe242947	-0.16031371
22	0x3ea7ba67	0.327594
23	0x3de56718	0.11201304
24	0xbe84b9b1	-0.2592292
25	0x3e0b0062	0.13574365
26	0xbe9c5b63	-0.30538473
27	0xbda8a89b	-0.08235284
28	0xbd25f840	-0.040519953
29	0xbe715101	-0.23566057
30	0xbd8b810d	-0.06811724
31	0x3e0ecb4b	0.13944738
32	0x3ddcbafa	0.107778504
33	0xbda16978	-0.07881445
34	0x3ea6351e	0.324624
35	0xbe898137	-0.26856396
36	0xbe6e9d7e	-0.23302266
37	0xbe7f7098	-0.24945295
38	0xbc75f06b	-0.015010933
39	0xbdddd3f8	-0.108314455
40	0xbe9fe47a	-0.31229
41	0xbd1a5b50	-0.03768474
42	0xbd509b13	-0.05092914
43	0xbe339933	-0.1753891
44	0xbd84f030	-0.06491125
45	0xbdada281	-0.08478261
46	0x3e8fdd65	0.28098598
47	0xbea1899e	-0.31550306
48	0x3c8d941f	0.017282544
49	0x3de8f1ef	0.1137427
50	0x3dbdd3da	0.09268923
51	0x3ecbb4d4	0.39786398
52	0x3d6d89f6	0.057992898
53	0xbe9d169c	-0.30681312
54	0x3ea3649f	0.31912705
55	0xbe8b41e0	-0.27198696
56	0x3e443644	0.19161326
57	0xbe2faeb7	-0.17156492
58	0xbe0a8f8d	-0.13531323
59	0x3df8da5f	0.12151026
60	0x3e5e302e	0.21698067
61	0xbe8e8cf2	-0.27841908
62	0xbea87a8e	-0.32906002
63	0x3ec2e5f0	0.38066053
64	0x3e13422f	0.14380716
65	0x3eaccc92	0.33749825
66	0x3dfe040c	0.12403116
67	0xbe8cfd5b	-0.27537045
68	0xbe8b859a	-0.27250367
69	0x3e9c5553	0.30533847
70	0xbc756497	-0.014977596
71	0x3da15e26	0.078792855
72	0x3e51fbb9	0.20506181
73	0x3cef217f	0.029190777
74	0xbd93542a	-0.071937874
75	0xbdae2029	-0.08502228
76	0xbe207b6f	-0.15672086
77	0x3d5f592f	0.05452841
78	0xbe801229	-0.25013855
79	0xbe09af06	-0.13445672
80	0x3c9a2cdb	0.018820217
81	0xbdbe125e	-0.09280847
82	0x3e84b2dd	0.25917712
83	0xbde3010a	-0.110841826
84	0xbe7314d1	-0.2373841
85	0x3f0327b6	0.5123247
86	0xbe8a775c	-0.2704419
87	0xbe9147e5	-0.28375164
88	0xbe9c0685	-0.30473724
89	0xbdfcd4e1	-0.12345291
90	0x3bbe7232	0.005811953
91	0x3e3d700d	0.18499775
92	0xbbcc8e12	-0.006242522
93	0xbe87ab62	-0.26497942
94	0xbd14898d	-0.03626399
95	0x3e2a22df	0.16614865
96	0xbe4ea174	-0.20178777
97	0x3e747a8c	0.23874873
98	0x3e2aefea	0.16693082
99	0x3e1217f8	0.14266956
100	0x3b71f11c	0.0036917394
101	0xbe97d629	-0.2965558
102	0x3a5a0de7	0.00083181116
103	0x3d1e4a5b	0.03864513
104	0x3d57badf	0.05266845
105	0xbb775c26	-0.0037744134
106	0x3e663665	0.22481687
107	0x3eefd538	0.4684236
108	0xbbc1e216	-0.005916844
109	0xbec2979a	-0.38006288
110	0xbdcdc7df	-0.10047888
111	0x3e175cd8	0.14781511
112	0xbe35c10f	-0.17749427
113	0xbe895b01	-0.26827243
114	0x3eb8eea7	0.36119577
115	0xbcde770c	-0.027156375
116	0x3e6fd00a	0.23419204
117	0xbe27eca1	-0.1639886
118	0xbd9dd7bc	-0.07707164
119	0xbe55c223	-0.20874839
120	0xbdd5163d	-0.10404632
121	0x3e61e45d	0.2205977
122	0xbe1fef1b	-0.15618555
123	0xbde86994	-0.113482624
124	0x3e9416b3	0.28923568
125	0xbe002747	-0.12514983
126	0xbd3b09a3	-0.045663487
127	0xbe36f071	-0.17865159
128	0x3b807afa	0.00392091
129	0xbd9683b1	-0.07349337
130	0x3dd729db	0.1050603
131	0x3eb14869	0.34625557
132	0x3c187bbd	0.009306845
133	0xbe0ba9c8	-0.13638985
134	0x3e831b72	0.25606877
135	0x3e75ffa0	0.24023294
136	0xbd1971d4	-0.03746207
137	0xbe4eed2b	-0.2020766
138	0x3dc7b01e	0.097503886
139	0x3e3d202b	0.18469302
140	0x3c0e46ff	0.008683919
141	0xbc9691e5	-0.018380115
142	0x3cd33786	0.025783312
143	0xbe3701e6	-0.17871818
144	0x3e0b5b9e	0.13609168
145	0xbe218a0b	-0.15775315
146	0x3e18bcc1	0.14915754
147	0x3e5b2eab	0.21404521
148	0x3de03b01	0.10948754
149	0xbd9ce201	-0.07660294
150	0xbec0752c	-0.37589395
151	0x3d66af31	0.05631942
152	0x3e57077e	0.20998952
153	0xbde6d1cc	-0.11270484
154	0x3d9a6f0b	0.07540711
155	0xbd605a8f	-0.054773863
156	0x3e7a25aa	0.2442843
157	0x3d637514	0.055531576
158	0xbd8d91e4	-0.06912592
159	0x3eaf8c7b	0.34286866
160	0x3cf2e195	0.029648582
161	0xbd7bae19	-0.06144533
162	0x3bd483ca	0.006485437
163	0x3e266eca	0.162532
164	0x3e203f95	0.15649255
165	0x3ddc2275	0.1074876
166	0x3e77c297	0.24195324
167	0x3d63fe71	0.055662576
168	0x3d97c480	0.07410526
169	0xbee0adfd	-0.43882743
170	0x3e32e6e0	0.17470884
171	0x3d4cbbb7	0.049983706
172	0xbc2cf828	-0.010557212
173	0x3de176d0	0.1100899
174	0x3e7db042	0.24774268
175	0x3e46176b	0.19344871
176	0xbe8e81e8	-0.27833486
177	0x3d2b1a22	0.04177297
178	0x3e980fb5	0.29699484
179	0x3e20afb9	0.15692033
180	0x3e89e3f5	0.2693173
181	0xbe3fab3c	-0.18717664
182	0xbed5260b	-0.41630587
183	0xbe603d5d	-0.21898408
184	0xbd779413	-0.06044395
185	0x3da36c4e	0.07979642
186	0xbece4173	-0.4028431
187	0x3e4ac1b5	0.19800456
188	0x3ee19f9e	0.4406709
189	0x3d5d9124	0.054093495
190	0x3e689c3e	0.22715852
191	0xbeb99e25	-0.36253467
192	0xbd27fcb4	-0.04101248
193	0x3e555604	0.20833594
194	0xbf032381	-0.5122605
195	0x3d8ee17c	0.069766015
196	0xbe4f3e78	-0.20238674
197	0x3ee14e99	0.44005278
198	0x3e997db9	0.2997873
199	0x3e2fc1f4	0.17163831
200	0xbe9527f2	-0.29132038
201	0x3e6c362e	0.23067543
202	0x3cf2b723	0.029628342
203	0x3e43eb55	0.19132741
204	0x3b3c5851	0.0028739164
205	0x3cdda979	0.02705835
206	0xbd0d34f3	-0.034474324
207	0xbd4bd635	-0.04976483
208	0x3ec7454e	0.38920063
209	0xbe031bdd	-0.12803598
210	0xbe73c35d	-0.23804994
211	0xbda7ef1f	-0.081999056
212	0x3d44fc06	0.04809191
213	0xbd70f9dd	-0.05883204
214	0xbe7d6f64	-0.24749523
215	0x3e329406	0.17439279
216	0x3ea3c40b	0.31985506
217	0xbe0b0665	-0.13576658
218	0xbdd6c55a	-0.104868606
219	0xbe1a9ac8	-0.15098107
220	0xbe9ce8cc	-0.3064636
221	0xbdf6d555	-0.120524086
222	0x3e3cfa36	0.18454823
223	0x3b62cbdc	0.0034606373

fc1.bias f4 [32]
0	0x3eec5ef3	0.4616619
1	0xbe03bda6	-0.12865314
2	0x3e94e263	0.2907897
3	0x3f2a5b19	0.66545254
4	0x3ea50e25	0.32237354
5	0x3eed9e38	0.46409774
6	0x3e3b59f8	0.18296039
7	0x3e426f20	0.18987703
8	0xbe211941	-0.1573229
9	0xbe8a5561	-0.27018264
10	0x3ea03cbc	0.31296337
11	0x3edea564	0.43485558
12	0x3ecf1e1c	0.4045266
13	0xbdcf40ce	-0.101197824
14	0x3f1375e5	0.5760177
15	0x3d212caf	0.039349254
16	0x3f35d9ca	0.71035445
17	0x3ef56330	0.47927237
18	0xbdf7a4c9	-0.12091977
19	0x3edc253e	0.42997164
20	0x3f0cc510	0.54988194
21	0x3e955440	0.2916584
22	0xbe177a76	-0.14792809
23	0x3f134645	0.575291
24	0x3e6f6744	0.23379236
25	0x3ee49774	0.446468
26	0xbdc5e3b3	-0.09662571
27	0x3e1f051e	0.15529296
28	0xbe38d10c	-0.18048495
29	0x3effe7b9	0.49981478
30	0x3d29c873	0.04145093
31	0x3eab5384	0.33462155

fc2.weight f4 [16, 32]
0	0x39508ba7	0.0001988845
1	0xbbba563f	-0.005686551
2	0x3df35eb1	0.11883295
3	0x3dcbb804	0.099472076
4	0x3c936c8b	0.017996093
5	0x3de4d2ec	0.11173043
6	0x3c704ea7	0.01466719
7	0xbd0e090a	-0.03467659
8	0x3c2599b9	0.010107451
9	0x3d082b70	0.03324455
10	0x3db045d1	0.086070664
11	0x3e392344	0.18079859
12	0x3da0f037	0.07858317
13	0xbd0af9f7	-0.03392979
14	0x3e27363a	0.1632928
15	0x3c6b18bc	0.014349159
16	0x3d2d6993	0.04233701
17	0x3d17feea	0.03710834
18	0xbce3029a	-0.027711201
19	0x3d71dd49	0.059048925
20	0xbcfd357b	-0.03090929
21	0xbc58fa73	-0.0132433055
22	0xbd3e1be3	-0.046413314
23	0x3e1298b4	0.14316064
24	0xbcef6b10	-0.029225856
25	0x3dd5c3bf	0.10437726
26	0xbbe284d8	-0.006912809
27	0x3dcbf9fc	0.0995979
28	0x3c8720e4	0.016495176
29	0x3bb4e441	0.005520374
30	0x3d9a702f	0.075409286
31	0xbd3d17fb	-0.046165448
32	0x3d8c7ec6	0.068601176
33	0x3e07d8cd	0.13266297
34	0x3e035a18	0.12827337
35	0x3e2ba6da	0.16762868
36	0x3d826aef	0.06368052
37	0x3dc25cc1	0.09490348
38	0x3be13b0d	0.0068734945
39	0x3dd59013	0.104278706
40	0x3de5765a	0.112042144
41	0x3d86ba43	0.06578495
42	0x3d8f133a	0.06986089
43	0x3e40e313	0.18836622
44	0x3e2d2082	0.16906932
45	0x3d147fee	0.036254816
46	0xbcbbc89d	-0.022922808
47	0x3cff3855	0.03115479
48	0x3dbf941b	0.09354421
49	0xbd0b20ff	-0.033967014
50	0x3e4314be	0.19050881
51	0x3dfe21cc	0.1240879
52	0x3d8fbb04	0.07018092
53	0xbce67241	-0.028130652
54	0x3d69ef65	0.05711307
55	0xbd52c092	-0.05145318
56	0x3d0f3d19	0.034970377
57	0x3d81717c	0.063204736
58	0x3db0f2bd	0.08640049
59	0x3d5ed379	0.054400895
60	0x3d1d61d3	0.03842337
61	0x3dee6cda	0.116418555
62	0x3c84d709	0.016215818
63	0xbcd2308f	-0.02565792
64	0x3c67ff22	0.0141599495
65	0x3e22c4f1	0.1589544
66	0xbcbc1860	-0.022960842
67	0x3b5f850d	0.0034106404
68	0x3e1e89cd	0.15482254
69	0xbb805fec	-0.003917685
70	0xbc113a50	-0.008864
71	0x3e0f7787	0.1401044
72	0x3e27ce1f	0.16387223
73	0x3da7db36	0.08196108
74	0xbddcecca	-0.107873514
75	0x3d804132	0.06262435
76	0x3d5db54d	0.05412798
77	0x3d8a36f2	0.06748761
78	0x3c734256	0.014847359
79	0x3d62c7e9	0.05536643
80	0x3dad9918	0.08476466
81	0x3d57dc81	0.052700523
82	0x3d1fe371	0.039035264
83	0xbe07e680	-0.13271523
84	0x3d51898a	0.051156558
85	0x3d259a83	0.040430557
86	0x3ddc8c9f	0.10769009
87	0xbdbad0ca	-0.091218546
88	0x3dbd1217	0.09231966
89	0xbd07423e	-0.033022158
90	0x3dafdf8b	0.08587559
91	0xbba6bc00	-0.0050883293
92	0x3e1654f5	0.14680846
93	0x3cff26e8	0.031146482
94	0xbcf9566a	-0.030436713
95	0xbbbf3f4f	-0.0058364044
96	0x3c978a7b	0.01849865
97	0x3c298030	0.010345504
98	0x3d181e25	0.037138123
99	0x3d744d7f	0.05964422
100	0x3d9dc10a	0.07702835
101	0x3dbe34c3	0.09287407
102	0xbd780f69	-0.06056157
103	0x3dbbc77e	0.091689095
104	0x3df5003a	0.11962934
105	0x3da54556	0.080698654
106	0x3d25eb99	0.040507887
107	0x3e0b20b9	0.13586701
108	0x3dc81c7c	0.09771058
109	0x3dde61db	0.10858508
110	0x3b25b2e6	0.0025283634
111	0x3d43b9f1	0.04778475
112	0x3db799f7	0.08964913
113	0xbce11fbe	-0.027480956
114	0x3e1db323	0.15400366
115	0xbc04d00e	-0.008106245
116	0x3db4ae1a	0.0882227
117	0x3e1a825f	0.15088795
118	0x3e441f66	0.19152603
119	0xbd7b7e73	-0.06139989
120	0x3d5ece04	0.05439569
121	0xbc13b8ca	-0.009016225
122	0x3dda6489	0.10663707
123	0xbdc67b08	-0.09691435
124	0x3dd2c417	0.102913074
125	0xbda7cc57	-0.081932716
126	0xbdadd1ae	-0.08487259
127	0xbdbed561	-0.093180425
128	0x3df78745	0.120863475
129	0x3b085e87	0.0020808296
130	0x3cc942d3	0.024567997
131	0x3d445027	0.047928
132	0x3d7e57aa	0.06209532
133	0x3d8b079e	0.06788562
134	0x3d1cf205	0.038316745
135	0x3e1b3e4c	0.15160483
136	0x3d8be3b0	0.06830537
137	0x3d876aa3	0.06612136
138	0x3e1dfebb	0.15429203
139	0x3e315adf	0.17319821
140	0x3d94cecd	0.072660066
141	0x3aeeca83	0.0018218312
142	0x3e388303	0.18018727
143	0xbbade462	-0.0053067664
144	0x3d55a2d9	0.052157257
145	0xbcaf71eb	-0.021416625
146	0x3e35e6db	0.17763846
147	0x3e1793aa	0.14802423
148	0x3d3114b6	0.043232642
149	0x3cac4a65	0.021031568
150	0xbd2f8672	-0.042852826
151	0x3da705b7	0.08155387
152	0x3e029cfc	0.12755197
153	0xbcd2a599	-0.025713729
154	0x3dc2c0cc	0.09509429
155	0x3c32fe4f	0.01092489
156	0xbaf6fa1b	-0.0018842848
157	0xbc783265	-0.015148734
158	0xbdd27a88	-0.10277277
159	0xbd7bdb74	-0.061488584
160	0xbe496697	-0.19668041
161	0xbd7dbcd5	-0.061947662
162	0xbe88e1c0	-0.26734734
163	0xbe01781d	-0.12643476
164	0xbe2f3ab3	-0.17112236
165	0xbecc860b	-0.39946017
166	0x3e369180	0.17828941
167	0xbc6c1a84	-0.014410619
168	0x3e0ab2c1	0.13544752
169	0xbf0ed0a7	-0.5578713
170	0x3e39ff94	0.18163902
171	0xbda5c504	-0.080942184
172	0x3e201b6c	0.1563546
173	0xbe629086	-0.22125444
174	0x3cff5366	0.031167697
175	0x3eac42ec	0.33644807
176	0xbd8686a7	-0.06568652
177	0xbe4cc401	-0.19996645
178	0x3da97076	0.08273403
179	0x3dd901fc	0.105960816
180	0x3e2a7cde	0.16649196
181	0x3d06bedd	0.032896865
182	0xbdb5180b	-0.088424765
183	0x3da9688c	0.08271894
184	0xbee75f07	-0.45189688
185	0x3d6747be	0.056464903
186	0x3de3fe76	0.11132519
187	0x3d78629c	0.060640916
188	0xbf7f41f9	-0.9971004
189	0x3ca08435	0.019594291
190	0xbc0b2c0e	-0.00849439
191	0xbe78be02	-0.24291232
192	0x3e19e31e	0.15028045
193	0xbdeaebfb	-0.11470791
194	0x3db81a9e	0.08989452
195	0xbdaac9cb	-0.0833927
196	0xbc4b41e0	-0.012405843
197	0x3d5ab7a0	0.053397775
198	0xbcb4591e	-0.02201515
199	0x3dfb65b0	0.12275255
200	0xbe52c175	-0.2058161
201	0xbd7ea130	-0.06216544
202	0x3d8fbeb9	0.07018799
203	0x3e2ead6f	0.17058347
204	0x3de2a6ba	0.11066957
205	0xbe6e829f	-0.23292015
206	0xbe3ae8a6	-0.18252811
207	0xbc688655	-0.0141921835
208	0xbd8a1766	-0.06742744
209	0xbccebb8f	-0.02523592
210	0x3ddaba54	0.106800705
211	0x3d897901	0.06712533
212	0x3db4ac42	0.08821918
213	0xbe0128e7	-0.1261326
214	0xbe45ea58	-0.19327676
215	0x3c125d42	0.008933367
216	0x3e118138	0.1420945
217	0xbdc82bce	-0.0977398
218	0x3d430d12	0.047619887
219	0x3e5b4d29	0.21416153
220	0x3a6fdd9a	0.00091501477
221	0xbc73229c	-0.0148397945
222	0x3d9b73e8	0.07590467
223	0xbdb3d5a8	-0.08780986
224	0x3cbcc651	0.023043783
225	0xbd365ac2	-0.044520147
226	0x3d18a69c	0.037268266
227	0x3cde98eb	0.027172526
228	0x3db9158a	0.090373114
229	0x3d545df2	0.051847406
230	0x3d8e06ea	0.069349125
231	0xbd849c03	-0.064750694
232	0x3c81a076	0.015823584
233	0x3d8fd1ef	0.070224635
234	0x3db6421e	0.088993296
235	0x3ac79dbd	0.0015229505
236	0x3d10ab5f	0.035319682
237	0x3c18ad11	0.009318606
238	0x3daf16ae	0.08549248
239	0x3c245fe7	0.0100326305
240	0xbcae14ef	-0.021250216
241	0x3e110c13	0.14164762
242	0xbdb46b60	-0.08809543
243	0xbcd60168	-0.026123717
244	0x3defc184	0.11706832
245	0xbcc1b587	-0.02364613
246	0x3ce33880	0.027736902
247	0x3d4787ce	0.048713498
248	0x3c00fcf9	0.007872813
249	0x3da3e55c	0.08002731
250	0xbdbf52c3	-0.093419574
251	0x3d3491f6	0.04408451
252	0x3cc96873	0.024585938
253	0x3e5efac9	0.21775354
254	0x3df46260	0.11932826
255	0xbdabb0a6	-0.083833024

fc2.bias f4 [16]
0	0x3e9e109c	0.30872047
1	0x3e852283	0.26002893
2	0xbe8ab156	-0.27088422
3	0xbead7fe3	-0.33886632
4	0x3e008d79	0.12553968
5	0x3d29b13a	0.041428782
6	0x3d4a46d0	0.04938394
7	0x3e5bd4e7	0.21467935
8	0x3bc0f05f	0.0058880295
9	0xbea8c329	-0.32961395
10	0x3ebae9e2	0.36506563
11	0x3cc3fc2e	0.02392396
12	0x3d4e45d5	0.050359566
13	0x3e33235d	0.17493959
14	0x3e41d06d	0.18927164
15	0x3e369790	0.17831254

fc3.weight f4 [21, 16]
0	0x3d0c938d	0.034320403
1	0xbd333a57	-0.04375681
2	0xbc82ad1c	-0.015951686
3	0xbd58cdca	-0.05293063
4	0xbc670e7f	-0.014102577
5	0x3c94da11	0.018170388
6	0x3aae1c0e	0.0013283507
7	0x3b815715	0.0039471486
8	0x3b3d541e	0.002888925
9	0xbd9792e6	-0.074010655
10	0x3e05b3e6	0.13056907
11	0xbc0589b8	-0.0081505105
12	0x3bdc9199	0.006731224
13	0xbbf037fe	-0.0073308935
14	0xbe456b70	-0.19279265
15	0x3d94d557	0.07267254
16	0x3d8720ac	0.065980285
17	0xbd764884	-0.06012775
18	0xbc00cd32	-0.007861422
19	0xbd85a607	-0.06525808
20	0x3b097d9e	0.0020979415
21	0x3c9f413b	0.019440284
22	0x3aff4d1a	0.0019477934
23	0xbc8b5f18	-0.017013118
24	0x3a829cf0	0.0009964984
25	0xbdbee078	-0.09320158
26	0x3e337fa2	0.17529157
27	0xbc17f6a8	-0.009275116
28	0x3bd3f022	0.006467835
29	0xbc9293af	-0.017892687
30	0xbe4fb4cd	-0.20283814
31	0x3d14f98b	0.036370795
32	0x3da9b52d	0.0828651
33	0x3d8c1cca	0.068414286
34	0x3c7d474d	0.015458894
35	0xbb98892c	-0.004655024
36	0xbb17ec62	-0.0023181667
37	0x3bc4f339	0.0060104397
38	0xb950107e	-0.0001984257
39	0xbd86c7da	-0.065810874
40	0x3bb1f900	0.0054312944
41	0xbd924aa9	-0.071431465
42	0xbd47395f	-0.048638698
43	0xbc4b777c	-0.012418624
44	0x3bbf8635	0.005844856
45	0xbcca3d8d	-0.024687553
46	0x3d81899c	0.06325075
47	0xbad91cf2	-0.0016564413
48	0x3d88bf71	0.066771396
49	0xbc9ee5d9	-0.01939671
50	0xbc90e821	-0.017688813
51	0xbd2616a5	-0.04054894
52	0x3c399f81	0.011329533
53	0xbdb4e862	-0.08833386
54	0x3c6ae1ff	0.014336108
55	0xbd35c616	-0.044378363
56	0xbd5042d7	-0.050844993
57	0xbde23366	-0.1104496
58	0x3e2d1bc4	0.16905123
59	0xbd7d8a3c	-0.06189941
60	0xbd1ec17d	-0.038758744
61	0x3d888f72	0.06667985
62	0xbdca5304	-0.09879115
63	0xbd441196	-0.047868334
64	0x3de3f182	0.11130048
65	0x3d0185fe	0.031621926
66	0xbc75481c	-0.0149708055
67	0xbd35ba53	-0.044367146
68	0x3c5ea2fd	0.013588664
69	0xbdce3498	-0.10068625
70	0x3c7741ae	0.015091343
71	0xbd60142a	-0.05470673
72	0xbd698f87	-0.057021644
73	0xbe179084	-0.14801222
74	0x3dd7d3f0	0.10538471
75	0xbd9dc68c	-0.077038854
76	0xbd3360a0	-0.04379332
77	0x3d971ed6	0.07378928
78	0xbd94bdfe	-0.07262801
79	0xbc832c5c	-0.016012363
80	0x3c86d851	0.01646057
81	0x3d6b6cdf	0.057476874
82	0xbc0d8131	-0.008636759
83	0xba500147	-0.00079347607
84	0x3c984d57	0.018591566
85	0xbdb1a8a6	-0.08674745
86	0x3c369ce9	0.011145809
87	0x3ccf7035	0.02532206
88	0xbd3dfec8	-0.046385556
89	0xbc58f2a2	-0.013241442
90	0xbdafd29c	-0.085850924
91	0xbd3f0ef6	-0.046645127
92	0xbd0a2d19	-0.033734415
93	0x3dc3e902	0.09565927
94	0x3d723b55	0.059138615
95	0x3c46518f	0.012104406
96	0x3e07968d	0.13241024
97	0x3e820d8b	0.25400957
98	0xbdd7ab21	-0.10530687
99	0xbe2fea46	-0.17179212
100	0x3d7b28c9	0.061318193
101	0xbef0eec9	-0.4705718
102	0x3dc93fe6	0.09826641
103	0x3d3629b8	0.04447338
104	0xbe83046a	-0.25589305
105	0xbe662b0c	-0.22477359
106	0xbe185272	-0.148752
107	0xbeb1ae99	-0.3470352
108	0xbe4c1fa4	-0.19933945
109	0x3efca3a0	0.49343586
110	0x3dfe7d79	0.12426276
111	0x3e010c98	0.1260246
112	0x3d198290	0.03747803
113	0x3dd13fba	0.10217233
114	0xbdbcd747	-0.092207484
115	0xbe0a607c	-0.13513368
116	0xbc915968	-0.017742828
117	0xbeeaad17	-0.45835182
118	0x3d90a0bc	0.07061908
119	0x39ed3383	0.00045242542
120	0xbe4ccb6c	-0.19999474
121	0xbe523ccc	-0.20531005
122	0x3e1dde3b	0.15416805
123	0xbebacc65	-0.36484066
124	0xbe2df358	-0.1698736
125	0x3f0b8899	0.54505306
126	0xbda6c32c	-0.08142695
127	0x3d3acbca	0.045604505
128	0x3bf6b87e	0.0075293174
129	0x3d30e448	0.043186456
130	0xbda04bab	-0.078269325
131	0xbe05e6e1	-0.13076355
132	0x3ccc2cd2	0.024923716
133	0xbef5132e	-0.47866195
134	0x3d92457d	0.0714216
135	0x3dbc4faf	0.09194886
136	0xbe59838b	-0.21241586
137	0xbdaa58a8	-0.08317691
138	0x3d34167d	0.04396676
139	0xbea9437c	-0.330593
140	0xbe1a7310	-0.15082955
141	0x3f0ea326	0.55717695
142	0xbd27261e	-0.040807836
143	0x3d99f1d9	0.07516832
144	0xbb98a4b3	-0.0046583056
145	0x3dbabeea	0.09118445
146	0xbe2e531a	-0.17023888
147	0xbe6263b0	-0.2210834
148	0xbcfbb286	-0.030724775
149	0xbf49ddf1	-0.7885428
150	0x3e0f63a1	0.14002849
151	0x3d9f2a87	0.07771783
152	0xbeae55ca	-0.34049827
153	0xbe309090	-0.17242646
154	0x3d83446e	0.06409536
155	0xbef48829	-0.47760132
156	0xbea138d9	-0.31488684
157	0x3f59655b	0.8492028
158	0xbc253947	-0.010084457
159	0x3e60b6bd	0.21944709
160	0x3ddfa785	0.10920624
161	0x3d5ccb92	0.053905077
162	0xbddd0a1c	-0.10792944
163	0xbe623ba5	-0.22093065
164	0x3d8a5780	0.067549706
165	0xbf43f767	-0.7654938
166	0x3decff8c	0.11572179
167	0x3e21e13c	0.15808576
168	0xbea813c9	-0.32827595
169	0xbe17c593	-0.14821462
170	0x3c044094	0.008072037
171	0xbf0a112e	-0.53932464
172	0xbe94c504	-0.2905656
173	0x3f57ab62	0.84245884
174	0xbd9aca8f	-0.07558166
175	0x3e2ee30a	0.17078796
176	0x3df18961	0.11793781
177	0x3e123f3f	0.14281939
178	0xbdf5ecbb	-0.120080434
179	0xbe648fa8	-0.22320426
180	0x3e1416e9	0.14461865
181	0xbf4b7d7f	-0.79488367
182	0x3df716f7	0.12064927
183	0x3e3b5b39	0.18296517
184	0xbeb072d1	-0.34462598
185	0xbe1bd0d9	-0.15216388
186	0xbda17f4e	-0.078856096
187	0xbf044670	-0.5166998
188	0xbe93845b	-0.28811917
189	0x3f530f0d	0.8244484
190	0x3cfcd9a2	0.030865494
191	0x3db89ec7	0.090146594
192	0x3e769ee7	0.24084054
193	0x3e45d3ea	0.1931912
194	0xbe2a9ac3	-0.166606
195	0xbe990d34	-0.29892886
196	0x3dc3dbb1	0.09563387
197	0xbf9ffa6c	-1.2498298
198	0x3e4ef580	0.20210838
199	0x3c82fd80	0.015990019
200	0xbeedf1d9	-0.46473578
201	0xbe9e664d	-0.30937424
202	0xbca3d148	-0.019997254
203	0xbf3b0dc5	-0.73067886
204	0xbf01c1b0	-0.5068617
205	0x3fa55457	1.2916363
206	0x3e60ff92	0.21972492
207	0x3dbc5ab4	0.09196988
208	0x3e8ce491	0.27518132
209	0x3e79e206	0.24402627
210	0xbe32ad2d	-0.17448874
211	0xbe88d1a2	-0.26722437
212	0x3d67aa89	0.05655912
213	0xbf9e6e07	-1.2377328
214	0x3e34e1ed	0.17664309
215	0x3dd00a0b	0.101581655
216	0xbef5b825	-0.47992054
217	0xbec3f2be	-0.38271135
218	0xbd5c9d11	-0.053860728
219	0xbf5d417a	-0.86428034
220	0xbef3b5e3	-0.47599706
221	0x3f9ab128	1.2085314
222	0x3c07fba2	0.00829974
223	0x3e6bbabe	0.23020455
224	0x3d95f1e7	0.0732153
225	0x3e1ed375	0.15510352
226	0xbe34d1cc	-0.17658156
227	0xbe6b60a6	-0.22986087
228	0x3e0286ec	0.12746781
229	0xbf94637e	-1.1592863
230	0x3e229710	0.15877938
231	0x3e469d7d	0.19396015
232	0xbed80057	-0.4218776
233	0xbe28f37e	-0.16499135
234	0xbd282026	-0.041046284
235	0xbf39acfe	-0.7252959
236	0xbedcf267	-0.43153688
237	0x3f8ea540	1.114418
238	0x3d9b5539	0.07584614
239	0x3da605f0	0.08106601
240	0xbd9407a9	-0.072280236
241	0xbd589a05	-0.05288126
242	0xbe68afb1	-0.22723271
243	0xbea26743	-0.31719407
244	0x3e2e8077	0.17041193
245	0xbface99d	-1.3508793
246	0x3e5e958a	0.21736732
247	0x3e75f66f	0.24019788
248	0xbefb0dca	-0.49033958
249	0xbd3a1bf4	-0.045436814
250	0x3e892501	0.26786044
251	0xbf49584c	-0.78650355
252	0xbf160807	-0.58606
253	0x3fbaa1a3	1.4580578
254	0x3d526e88	0.051374942
255	0xbdb8a723	-0.09016254

fc3.bias f4 [21]
0	0x3f24825a	0.642614
1	0x3eee4194	0.46534407
2	0x3ec5b864	0.3861724
3	0x3f12ebb6	0.57390916
4	0x3ed9a483	0.42508325
5	0x3ed044fc	0.4067763
6	0x3e7198ee	0.23593494
7	0x3ea5e8cc	0.32404172
8	0x3e6defd8	0.23236024
9	0x3e765609	0.24056257
10	0x3e6ea6b7	0.23305784
11	0x3d23ba35	0.039972503
12	0x3cc80df0	0.024420708
13	0x3a51d36a	0.00080042204
14	0x3da33d64	0.07970694
15	0x3e84b3c4	0.259184
16	0x3e9ce2c0	0.30641747
17	0xbb9352e3	-0.004495965
18	0x3e09af02	0.13445666
19	0x3e46dbf2	0.1941984
20	0xbac7c872	-0.0015242232
