logs/sdf_single_scene_3_spheres/state_8.pt (torch, 12609 bytes, 12 tensors)

fc1.weight f4 [32, 7]
000000 f0 71 09 3e 7d c9 51 be b2 68 84 be 0a a7 28 3c
       0.1342237 -0.20487018 -0.25861126 0.0102937315
000010 88 b0 2f 3e d2 24 8f be 28 f0 06 be 2f d7 cd 3d
       0.17157185 -0.2795778 -0.1317755 0.10050809
000020 fa 91 db 3d 63 23 30 3e 7c 66 68 bd 21 0e 5d 3e
       0.10721202 0.17200999 -0.05673836 0.21587421
000030 d5 ad 0f 3e f8 40 f4 bc 27 6b 9d 3e 20 73 05 be
       0.14031155 -0.029816136 0.30745813 -0.13032198
000040 b3 e8 6c be 0c 98 78 3e ed 17 3a 3e 5f 1e 2e be
       -0.23135643 0.24276751 0.1817319 -0.17003773
000050 6b ee be 3e 8e b7 df bd 8f a5 c0 3e 5d ed b3 3d
       0.37291273 -0.10923682 0.3762631 0.08785508
000060 d9 f7 96 be 83 2a 38 3e fa e1 8e be 30 d8 0b be
       -0.29485968 0.17984967 -0.2790678 -0.13656688
000070 4f fd 14 3c 94 69 45 be 1b 85 11 be bd d9 2b 3e
       0.009093597 -0.19278556 -0.14210932 0.1678228
000080 58 ed 4b 3e 1b f7 92 bd 5a 76 b5 3e 8c d0 65 be
       0.19914758 -0.07176038 0.35441858 -0.22442836
000090 c1 e4 8c be 1f 17 7e be 80 2d 6b 3c 80 ba 05 be
       -0.27518275 -0.24813507 0.01435411 -0.13059425
0000a0 29 0f 84 be 58 64 26 3d 13 35 1a 3d bc 60 f1 bd
       -0.25792816 0.04062304 0.03764827 -0.11786029
0000b0 fd 0c 0b bd ec 37 1f be d8 25 88 3e 4c 87 92 be
       -0.033947933 -0.15548676 0.26591372 -0.28618848
0000c0 48 ec a6 bc f8 88 73 3e 1a b4 a1 3d 0a 07 86 3e
       -0.02037634 0.23782718 0.0789568 0.26177245
0000d0 18 58 2a 3e 68 e5 96 be 24 91 83 3e 7b 62 86 be
       0.16635168 -0.29471898 0.2569667 -0.2624701
0000e0 8b 32 68 3e ff fa dd bc 95 4a b1 bd c6 3f c9 3d
       0.2267553 -0.027097223 -0.086568035 0.09826617
0000f0 6f 10 89 3e 22 ee 4a be fc c8 b7 be 98 e1 aa 3e
       0.2677035 -0.19817403 -0.35895526 0.3337524
000100 a8 4b 83 bd ef a4 be 3e 59 66 d2 3d 11 a3 9d be
       -0.06410915 0.3723521 0.102734275 -0.30788472
000110 09 19 18 be a6 26 98 3e fd d2 22 3d fb db 93 3d
       -0.148533 0.29716986 0.039751995 0.07219692
000120 66 28 19 3e 5e ae ad 3d 7b cf aa bd 7a ab 33 bc
       0.14956817 0.084805235 -0.08340355 -0.010966176
000130 c8 1f b6 bd df 78 ca 3c 7e d3 8e be 08 22 24 be
       -0.088927805 0.024715839 -0.2789573 -0.16028607
000140 ce cf a7 bd d5 bc b7 bd 33 73 85 3e 3b a3 6c bd
       -0.081939325 -0.08971564 0.26064453 -0.057772856
000150 26 15 85 be 22 6a c3 3e 4c 2b 8f be 66 d8 85 be
       -0.25992697 0.3816691 -0.2796272 -0.2614166
000160 bf 3e a5 be f5 9f fb bd 5e 50 37 3d 95 cd 41 3e
       -0.32274434 -0.12286369 0.04475438 0.1892608
000170 b9 3d 9b bd 00 32 8a be ce ad 07 3d 10 17 0a 3e
       -0.07580132 -0.26991272 0.033124737 0.1348536
000180 72 f0 38 be 59 da 6d 3e dc 70 2a 3e bf f8 de 3d
       -0.18060473 0.23227824 0.16644615 0.10887288
000190 d3 88 aa bd 84 aa a1 be e8 97 c4 3d 4e 51 88 bc
       -0.083268784 -0.31575406 0.09599286 -0.016640332
0001a0 78 99 f3 3d 0f c8 0b be 6c 32 29 3e ef a5 c4 3e
       0.11894506 -0.13650535 0.1652314 0.38407847
0001b0 7c 27 af bd 7f 42 9f be b3 e1 7b bd 81 62 02 3e
       -0.08552453 -0.3110542 -0.06149454 0.12732889
0001c0 fe 6b 06 be a7 55 cf be d0 85 b9 3e 53 2f 67 be
       -0.13127133 -0.40495035 0.36234903 -0.22576647
0001d0 4f 3d 93 3e 84 7b 35 be 21 eb 1d 3c 98 0a 99 be
       0.28757712 -0.17722899 0.009638579 -0.29890895
0001e0 55 92 a9 bd b8 f9 33 3e 3d ac 4b be 7f 3d 85 bd
       -0.08279864 0.17575729 -0.19889922 -0.0650587
0001f0 5a c8 8c 3e 07 36 27 be 02 05 a4 bd d8 30 38 be
       0.27496606 -0.16329204 -0.08008768 -0.17987382
000200 8a c1 76 3d 24 e7 76 bd 16 fc 11 3e 66 0c b3 3e
       0.060243167 -0.060279027 0.1425632 0.34970397
000210 2f bb 66 3d e3 8a 3f be 42 56 33 3e fb 74 42 3e
       0.056330856 -0.18705325 0.17513373 0.18989937
000220 92 29 5a bc cf 61 63 be ef bd ea 3d 26 26 25 3e
       -0.013315575 -0.2220528 0.11462008 0.16127834
000230 bc 9d b0 bd 7b ec d1 3d a5 66 db 3c 16 20 61 be
       -0.086238354 0.10250183 0.026782343 -0.21984896
000240 59 95 c2 3d d4 30 4b be e8 d2 2f 3e 9b 81 d6 3d
       0.09501142 -0.19842845 0.17170298 0.10473939
000250 88 cf 48 3e 42 19 08 be 3a bd af be 10 40 e7 3d
       0.19610417 -0.13290885 -0.34324056 0.11291516
000260 14 a2 64 3e 07 b3 6c be 56 6d 82 3d f0 22 9c bd
       0.22327453 -0.23115169 0.063685104 -0.07623851
000270 6f 36 69 3e a1 cd 4c 3c 07 5b 82 bd 25 ce a6 3e
       0.22774671 0.012500198 -0.06365018 0.3257915
000280 c7 fb e3 bb 44 3a c7 bd 2f e6 b5 3d 46 b6 ec 3d
       -0.0069575044 -0.0972791 0.08881795 0.115582034
000290 1e bb 2f 3e 58 d0 03 3e 26 3e 59 3e 3f 04 b2 b8
       0.17161223 0.12872446 0.21215114 -8.488492e-05
0002a0 76 e6 35 3d 9d ca ed be 8a 01 86 3e 01 0f ea bc
       0.044409238 -0.46443644 0.2617305 -0.028571608
0002b0 1e ba b4 bd c2 25 2a 3e cf a7 2a 3e 34 da 63 3e
       -0.088245615 0.16615966 0.16665576 0.22251207
0002c0 5c c4 b6 be ba 59 fc 3b 72 64 82 3e 45 93 3b 3e
       -0.35696685 0.007701126 0.2546726 0.18317898
0002d0 2a 81 4e 3e 0d 2a b4 bd a4 2a c2 be bb 36 89 be
       0.2016646 -0.08797083 -0.37923157 -0.2679957
0002e0 49 39 ac bc 0e 4d 3f 3e ad cc c7 be c9 59 7b 3e
       -0.02102341 0.18681738 -0.39023343 0.24545969
0002f0 7f 67 a9 3e 56 8e 59 bb d3 36 62 3e 9d a2 ae be
       0.33086774 -0.003319641 0.22091226 -0.3410844
000300 b4 08 24 bd 5d 25 34 3e 6a 25 fd be a4 43 c8 3d
       -0.040047362 0.17592378 -0.49442607 0.097785264
000310 a0 0b 23 be fb f6 a8 3e 29 5a b4 3e ea 6a 21 3e
       -0.15922403 0.3300093 0.35225037 0.1576344
000320 5a 52 7e be 42 9b 45 3e ab 95 a9 3d db b5 5b 3e
       -0.24836102 0.19297507 0.082805 0.21456091
000330 76 2a 19 3d 69 20 93 ba a7 bc bd bc d4 57 51 bd
       0.03739401 -0.0011224869 -0.023161246 -0.05110915
000340 12 f9 bc 3e 8a 68 00 be 4c a0 67 be eb 50 e2 bd
       0.36908776 -0.12539878 -0.22619742 -0.1105059
000350 51 a8 42 3d c6 78 2e bc 1b 8f 47 be 3c 8e 44 3e
       0.0475238 -0.010648912 -0.19488184 0.19194883
000360 85 fd 9c 3e a1 8e 56 be 56 ef 4b bd 65 a7 10 be
       0.3066217 -0.20952846 -0.049788795 -0.14126356
000370 5a b6 b8 be b7 99 8e bd 54 53 13 3e d9 53 82 bd
       -0.36076623 -0.069629125 0.14387256 -0.06363649

fc1.bias f4 [32]
000000 cd 85 14 3f 41 01 f9 bd b7 b3 c2 3e ea 39 f5 3e
       0.58016664 -0.12158442 0.38027737 0.47895747
000010 2c 33 90 3e c9 6a 0e 3f c2 7d fb 3d fd f2 3b 3e
       0.2816404 0.5563169 0.12279846 0.18354411
000020 1d 90 3d be fd f9 43 be ea bb d7 3e 62 36 e6 3e
       -0.18512006 -0.19138332 0.42135555 0.44963366
000030 ce 37 f2 3e 76 fe b8 bc f0 91 07 3f b3 65 58 3e
       0.473082 -0.022582274 0.5295706 0.21132545
000040 1d 7a e4 3e 38 99 e7 3e 2b 42 bc 3b e3 da e2 3e
       0.44624415 0.45234084 0.0057451925 0.44307622
000050 5e 60 05 3f f5 b6 a0 3e ea 6a 49 be c5 9d 14 3f
       0.5210017 0.31389585 -0.1966969 0.5805324
000060 09 47 f9 3d bb f8 08 3f 87 05 59 be d6 d6 4c 3e
       0.12171752 0.5350453 -0.21193515 0.20003828
000070 5d 00 0e bd 4f d0 f1 3e 8d 7a fa 3c 26 79 a0 3e
       -0.034668315 0.4722924 0.030576015 0.3134243

fc2.weight f4 [16, 32]
000000 cb 5e 20 bd 04 80 8e 3d 8b d4 c8 3d b2 b6 de 3d
       -0.0391529 0.06958011 0.09806164 0.1087469
000010 a8 45 bf 3c f7 6e c6 3d 20 ba b5 3c fb d3 2f bd
       0.023348644 0.096891336 0.022183478 -0.04292677
000020 23 82 b3 3b 27 6f 4f 3c d2 bf 4b 3e 44 e0 5a 3e
       0.00547816 0.012660778 0.19897392 0.21374613
000030 96 6d 93 3d b5 02 a5 bd 9c 10 22 3e d6 fd 42 3c
       0.07198636 -0.08057157 0.15826648 0.0119013395
000040 18 61 3b 3d b3 c3 74 3d bd 0e 97 bd 13 24 9f 3d
       0.045746893 0.059756946 -0.07375858 0.077705525
000050 52 51 c4 bd e6 19 f9 bb 0e 2c cb bd 45 8e 00 3e
       -0.09585823 -0.0076019643 -0.09920512 0.12554272
000060 fc a6 87 3c 80 f5 fa 3d 25 02 7f ba 85 a9 1b 3e
       0.016559117 0.12253857 -0.00097277976 0.15201385
000070 20 cc 41 3d 32 69 52 bc 78 9e a4 3d 27 ad 55 bd
       0.04731381 -0.012842463 0.08038038 -0.052167084
000080 8d f5 c4 3d 0b df 1f 3e 0c 24 00 3e ed 22 3c 3e
       0.096171476 0.15612428 0.12513751 0.18372698
000090 a0 1d ae 3d 02 75 c5 3d dc af e2 3c 01 ff bc 3d
       0.08501744 0.09641458 0.027671747 0.09228326
0000a0 1b 0d 3f 3e 1e e4 b1 3d 5a d7 d9 3d e9 20 61 3e
       0.18657343 0.08686088 0.10636778 0.2198521
0000b0 87 63 33 3e 82 39 a3 3d 05 46 32 bd 6b 35 a2 3c
       0.17518435 0.07969953 -0.043523807 0.019800862
0000c0 67 6e 86 3d 84 e9 23 bd 0a 3e 68 3e fc 35 2d 3e
       0.06564026 -0.04001762 0.22679916 0.16915125
0000d0 84 31 af 3d 8c a5 45 bd 58 83 30 3d 5c 16 1f bd
       0.08554366 -0.04825358 0.04309401 -0.038839683
0000e0 72 02 08 3d ab 42 02 3c 6f f1 c7 3c 58 f8 2c 3d
       0.033205457 0.007950465 0.024407117 0.042229027
0000f0 82 ca 0a 3a 75 f0 cf 3d 53 4b 23 bc dd 01 b2 bc
       0.0005294458 0.101532854 -0.009966689 -0.021729404
000100 e1 12 9c 3c 00 81 1d 3e b4 86 d2 3b 88 44 02 3c
       0.01905197 0.15381241 0.0064247493 0.007950909
000110 88 39 25 3e 44 ff c9 3c 74 3d db 3c 86 37 01 3e
       0.16135228 0.024657853 0.026762702 0.12618837
000120 1d f3 f7 3d df 49 b0 3d 67 4a eb bd 9d ce 81 3d
       0.12106917 0.0860784 -0.114888005 0.063382365
000130 3f 64 b9 3d aa 3a ec 3c 2c fc b5 3c f5 81 49 3d
       0.090523235 0.028836567 0.022214971 0.049196202
000140 58 a7 51 3d 6d 61 4d 3d 18 cd 4d 3c 59 53 ff bd
       0.051184982 0.05014174 0.012561105 -0.12467069
000150 f0 2b 79 3d b3 de 1d 3d 89 2a 19 3d 91 d1 a7 bd
       0.060832918 0.03854246 0.03739408 -0.081942685
000160 9c f8 c5 3d 81 c5 2f bd f9 e8 48 3d bc 81 62 3d
       0.09666559 -0.042912964 0.049050305 0.055299506
000170 ed 9e 16 3e d7 e3 5b 3d cf f5 0c 3d ae 3e b0 bb
       0.14709063 0.053684082 0.03441411 -0.0053785658
000180 77 1b 86 3c b8 b5 7c bc 0d e8 1d 3d 14 41 9b 3d
       0.016370518 -0.0154241845 0.03855138 0.07580772
000190 83 8c 51 3d 18 03 cc 3d dd 65 bd bb 93 58 ab 3d
       0.051159393 0.099615276 -0.0057799653 0.083665036
0001a0 e9 b0 fb 3d bd 97 8d 3d bd c8 1f 3d a4 49 e9 3d
       0.12289602 0.069137074 0.0390098 0.11390999
0001b0 26 07 f9 3d b1 98 03 3e 93 af 9e ba b8 2c 8e 3c
       0.121595666 0.12851216 -0.0012106769 0.017355308
0001c0 da 80 3a 3d 69 fa 14 bd fe 61 2b 3e 50 ff 09 bc
       0.04553304 -0.036371622 0.167366 -0.008422688
0001d0 97 a4 ee 3d b6 b9 11 3e 79 05 2c 3e 59 44 81 bd
       0.11652487 0.14231 0.16798963 -0.063118644
0001e0 13 81 92 3d 47 e2 ab bb e7 23 ba 3d 5a a5 da bc
       0.07153525 -0.00524548 0.09088879 -0.026690174
0001f0 80 3a cc 3d f0 e8 90 bd 95 38 4e bd e0 26 ca bd
       0.099720955 -0.07075679 -0.05034693 -0.09870696
000200 0f 42 09 3e bd 2f 34 3a aa b2 a3 bc 4d 22 8f 3d
       0.13404106 0.00068735686 -0.019982655 0.06988964
000210 63 4e 1b 3e 32 08 5e 3d 68 cc 43 bd d0 a7 13 3e
       0.15166621 0.054207034 -0.04780236 0.14419484
000220 72 a2 02 3e 7f b2 98 3d e1 09 43 3e 3e c0 47 3e
       0.1275728 0.074559204 0.19046737 0.19506928
000230 59 b3 4d 3d da 20 ae 3c 1d a8 42 3e e1 4e 6a bc
       0.050219867 0.0212559 0.19009443 -0.014301033
000240 23 b3 83 3d f5 63 5a bc b4 a3 19 3e 18 07 53 3e
       0.06430652 -0.013329496 0.15003854 0.20608175
000250 f9 d8 78 3b 9a 12 ca 3c 6d 1f d0 bc 10 4b 06 3d
       0.0037971123 0.024667073 -0.02540561 0.03278643
000260 a5 8e b3 3d 4c 5d 77 bd 34 cc 0b 3e dd 85 77 3d
       0.08767442 -0.06039171 0.13652116 0.060430396
000270 07 de 02 ba 1b 3d 38 bd 27 96 27 be c9 09 71 bd
       -0.0004992191 -0.04498015 -0.16365872 -0.058847222
000280 74 fa 17 be a1 9a 94 bd bf 58 8f be a5 8d bf bd
       -0.14841634 -0.072560556 -0.27997395 -0.093531884
000290 ea 1b 17 be 94 64 55 be 5e 34 d1 3d f8 25 0d bd
       -0.14756742 -0.20839149 0.102150664 -0.034460038
0002a0 a0 73 1c 3e 5b 68 05 be 76 1d 21 3e e3 f8 2a be
       0.15278482 -0.1302809 0.15733895 -0.16696505
0002b0 eb 26 bf 3d 0c c8 06 be 10 15 0f 3d 26 be 27 bc
       0.09333595 -0.1316225 0.034932196 -0.010238206
0002c0 40 38 85 bd 59 4a 19 be b2 32 10 3e cd 84 7a bc
       -0.065048695 -0.14969768 0.14081839 -0.015290451
0002d0 3e 2c 39 3e f1 48 e3 3c 60 ab 15 be c5 2c 9d 3d
       0.18083283 0.027744742 -0.14616156 0.07674555
0002e0 84 88 f2 bd d5 a4 46 3d 49 31 19 be 3d 21 83 3d
       -0.118424445 0.04849704 -0.14960207 0.06402824
0002f0 28 c6 68 be c0 38 ed 3b eb 1c 80 bd d9 26 ec bd
       -0.2273184 0.007239431 -0.06255516 -0.11530847
000300 72 c6 b3 3d 49 9e fd bc 72 a8 20 3c f0 ea 4e bd
       0.08778085 -0.030959265 0.0098057855 -0.050517023
000310 f1 8b 4e 3d a6 1a 54 3c f6 4d b3 bd 46 88 df 3c
       0.050426427 0.012945807 -0.08755104 0.02728666
000320 d6 58 3d be 00 13 b2 bd 88 7b 42 3e 17 33 30 3e
       -0.1849092 -0.0869503 0.18992436 0.17206989
000330 48 45 fd 3d 81 43 e0 bd a2 f7 24 be e6 1d 91 bd
       0.1236673 -0.10950375 -0.1611009 -0.07085781
000340 01 76 dd bb 9a 9c 9a bd 91 04 df 3d 53 4e e9 3c
       -0.006758452 -0.07549401 0.10889543 0.02847973
000350 dd 3c 9a 3c e4 ff bc bd 89 b8 10 be fa b8 50 bc
       0.01882785 -0.09228495 -0.14132895 -0.012739414
000360 c3 03 08 3e 1a 79 1b be 6b a5 cc b9 61 4c 0a 3e
       0.13282685 -0.15182915 -0.00039033158 0.13505699
000370 6d b4 6f 3d 40 f2 96 3c 6c e6 46 3d 65 44 f0 bd
       0.058521677 0.01842606 0.04855959 -0.11731795
000380 9b 60 0d 3d 03 5f b4 bd bc 68 f9 bc b8 bb 05 3d
       0.03451596 -0.088071845 -0.030445449 0.032649726
000390 0c 04 e5 3d de 9d 8f 3d 68 82 f8 bc 2e fc c6 bd
       0.111824125 0.07012533 -0.03033562 -0.09716068
0003a0 90 e6 e9 3b b9 23 7d 3d 15 86 ae 3c 60 24 e6 bb
       0.007138081 0.061801646 0.02130417 -0.007023379
0003b0 92 f6 7b 3d 40 d8 08 3d 3e ac 9f 3d d6 e2 b5 3c
       0.061514445 0.033409357 0.077965245 0.02220289
0003c0 32 e2 3e 3d 06 4d 1c 3e c6 79 de bd 64 42 3c bd
       0.046602435 0.15263757 -0.1086307 -0.045961753
0003d0 ef f5 d8 3d 41 cd b2 bc bb 07 fa 3d 5b bf ab 3c
       0.10593783 -0.021826388 0.12208506 0.020965269
0003e0 99 9b 2e bd 6a 37 c5 3d f2 96 04 bc 95 07 29 3d
       -0.04262886 0.0962971 -0.008092629 0.041266996
0003f0 63 08 c6 3c 8a 53 4a 3e d7 9d a0 3c 39 24 b3 bd
       0.024173921 0.1975843 0.019606514 -0.08747143

fc2.bias f4 [16]
000000 52 71 95 3e d5 75 78 3e e4 ea 8b be 96 d0 b1 be
       0.2918802 0.242637 -0.27327645 -0.3472945
000010 64 82 0a 3e e8 80 76 3d 85 ad 77 3d 05 00 74 3e
       0.13526303 0.06018153 0.060468215 0.23828132
000020 fa ce 0a 3c 30 2d ae be 8f 06 cb 3e 75 5c 49 bc
       0.008472199 -0.3401885 0.3965344 -0.01229011
000030 c7 83 96 3d f3 1d 3e 3d 53 82 59 3e b1 30 2a 3e
       0.07349353 0.04641528 0.21241121 0.16620137

fc3.weight f4 [21, 16]
000000 6c 89 e2 3d cd 8f d3 bc 2a 54 04 be 12 f1 09 be
       0.110613674 -0.025825405 -0.12922731 -0.13470867
000010 f2 c4 94 3d 83 96 3d bd f7 e1 4b 3d 13 1c d9 3d
       0.07264127 -0.046286117 0.049776044 0.10601058
000020 85 a6 24 bd 2f c5 17 be 82 4b 04 3e 17 43 d5 bc
       -0.040197868 -0.14821313 0.12919429 -0.026032967
000030 c3 c7 79 bd e8 88 01 be ca 37 11 be fa 58 e9 3d
       -0.060981523 -0.12649882 -0.14181438 0.11393924
000040 24 7f 17 3e 97 5c 2f bd 5f cc 88 bd fd 6c 79 be
       0.14794594 -0.04281291 -0.06679606 -0.24357982
000050 d2 7e ca 3d 1e 45 32 bd 79 93 60 3d cc 87 f5 3d
       0.0988747 -0.043522947 0.05482814 0.11988792
000060 c1 ac 3d bd 66 d5 13 be 4b 21 34 3e 2c f1 fc bb
       -0.04630733 -0.14436874 0.17590825 -0.0077191796
000070 4d 3a 3f bd 02 a0 20 be 15 0c 02 be bd 00 52 3d
       -0.04668646 -0.15686038 -0.12699921 0.051270235
000080 6e bd 92 3d 37 e4 1f 3e bf 57 1d bd ce 13 78 be
       0.07165037 0.15614401 -0.03841376 -0.24226305
000090 a0 4d 5b 3d ba 03 82 bd 52 7e 9a 3d db 71 9b 3c
       0.053540826 -0.06348367 0.07543625 0.018975189
0000a0 fd 4e 80 bd 20 a0 f5 bd ec 57 bf bc b4 7f a6 bc
       -0.06265066 -0.11993432 -0.023357354 -0.020324565
0000b0 bd fa 44 bd 58 54 8e bd 51 96 3a 3e 69 ec ec bb
       -0.048090685 -0.06949681 0.18221404 -0.0072303307
0000c0 a1 c0 d4 3d fb f3 06 3d 6d de ed bc 95 80 1e be
       0.103883035 0.03294752 -0.029036725 -0.15478738
0000d0 48 46 3b bc 24 3a 95 bd 6d 63 8f 3d 7b 0d 73 3c
       -0.011430331 -0.0728648 0.07001386 0.014834757
0000e0 cd ab 9b bd b8 72 45 be 40 10 48 3e 46 8f 8b bd
       -0.07601128 -0.19282043 0.19537449 -0.068144366
0000f0 f8 c3 62 bd 06 57 29 bd bd 83 d7 bc 7a 67 4b bd
       -0.05536267 -0.041342758 -0.026307935 -0.04965923
000100 d4 28 29 3e 8c 75 88 3d c5 0c 1a bd a7 91 4d be
       0.16519481 0.06663045 -0.037609834 -0.20075093
000110 25 e1 56 3a 2f 49 ae bd cb 10 af 3d 48 31 a5 3c
       0.00081970013 -0.085100524 0.08548125 0.0201651
000120 bc 1f b4 bd 5a 1f 6a be 45 6c 04 3e 9f 51 98 bd
       -0.08795115 -0.22863522 0.12931927 -0.07437443
000130 59 bf 95 bd d4 bc 0a 3d 79 b9 01 3d 5c 86 49 3b
       -0.07311887 0.033871487 0.03167102 0.003075025
000140 51 47 11 3d e9 71 46 3d ed 5e e7 bc 0d 8d 30 bd
       0.035468403 0.048448477 -0.028243506 -0.043103267
000150 4c 9e 87 3d d0 8e 87 bd 0d bf 01 3a fe 64 9d 3c
       0.066219896 -0.06619036 0.0004949428 0.019213196
000160 ba f0 e5 bc 54 7d 80 bb 7e 29 bb bd 98 8d 4e 3c
       -0.028068889 -0.0039211903 -0.091387734 0.012607001
000170 75 df 0c bd 7b b3 22 3e 17 1b 86 3d d6 22 e1 3c
       -0.034392793 0.15888779 0.06548136 0.027482431
000180 71 08 e6 3d e7 dc 6a 3e 06 4e 64 be 5e d2 43 be
       0.11232079 0.2293583 -0.22295389 -0.19123217
000190 82 52 b4 3d b0 40 ee bd bf db 09 3e 4e 48 d0 3d
       0.088047996 -0.11633432 0.13462733 0.10170041
0001a0 75 d0 f8 bd 77 7a 6a be 31 88 06 be 62 d6 0c be
       -0.12149135 -0.22898279 -0.1313789 -0.13753656
0001b0 f4 c2 3e be 6d 39 6d 3e e0 0a 6c 3e b5 f1 1f 3e
       -0.18629056 0.23166437 0.23051023 0.15619548
0001c0 25 88 37 3d 3f 90 fa 3d e5 7e b7 bd 6c d3 e3 bd
       0.044807572 0.12234544 -0.0895975 -0.1112431
0001d0 ef 62 26 bd a1 e3 8c be d5 ef 87 3d 58 a5 6f bc
       -0.040621694 -0.27517417 0.06637541 -0.014626823
0001e0 d0 01 28 be 5b 24 68 be 83 78 27 3e 85 a2 60 be
       -0.16406941 -0.22670119 0.16354565 -0.21936996
0001f0 ef ed 1c be 7e dd 98 bc a5 74 ae bd ea cd 0a 3d
       -0.1532514 -0.018660303 -0.08518342 0.03388778
000200 86 e5 c4 3c d2 f9 9c 3b e6 70 0d bd 18 80 05 be
       0.024035227 0.004790523 -0.034531496 -0.13037145
000210 34 37 19 bc 7b 7a 56 be 7d 4e 8e 3d 32 73 e9 3d
       -0.00935154 -0.2094516 0.06948564 0.11398925
000220 4d 34 0e be 4f ef 99 bd e9 aa 42 3d 4f 81 df bd
       -0.13887139 -0.075163476 0.047526274 -0.109133355
000230 c4 8e af bd 54 ae 82 3e 0e d7 52 bc 80 bc a5 3d
       -0.08572152 0.25523627 -0.012868656 0.08092594
000240 e1 2b 2e bd 09 c8 42 3d 1b ad 2d be f3 00 85 be
       -0.042522315 0.04755405 -0.16960566 -0.25977287
000250 ee e9 19 bd 7b 20 14 be a3 df e5 3d 2c 42 9a 3c
       -0.03757661 -0.14465515 0.11224296 0.018830381
000260 7b af 65 be 59 33 f5 bd 13 e2 a6 3d 25 bb 7e be
       -0.22430222 -0.119726844 0.08148589 -0.24876077
000270 8a 55 57 be f4 ff 35 3d 38 46 77 3d 12 d0 8a 3e
       -0.21028724 0.04443355 0.0603697 0.2711187
000280 b5 f1 10 3e 86 39 9d 3c 23 6e 28 bd d6 a8 7e be
       0.14154704 0.019192468 -0.04112066 -0.24869093
000290 14 be 8d 3d ee f4 1f be e7 2b 84 3d 50 5a 30 3e
       0.0692102 -0.15620777 0.06453686 0.17221951
0002a0 6a a0 52 be 8a 67 f4 bd d0 d6 6c 3a 7b 52 5a be
       -0.20569006 -0.11933811 0.0009034695 -0.21320526
0002b0 36 39 fd bd 1a 55 6a 3e db fb 91 bd 4a b7 33 3e
       -0.12364428 0.22884026 -0.07128116 0.17550388
0002c0 61 bb 0f 3e 34 aa 0e 3e 4a 96 32 be 0a 67 39 be
       0.14036323 0.13932115 -0.17440143 -0.18105713
0002d0 77 ad 5b 3e 9f ee 8f be f8 a3 56 3d 73 eb 45 3e
       0.2145289 -0.2811174 0.052402467 0.19328098
0002e0 f7 74 32 be 0f eb 0d be 79 e0 b2 bd e2 ec b4 bd
       -0.17427431 -0.13859199 -0.08734221 -0.08834244
0002f0 11 34 ee bd b5 50 19 3e 10 81 68 3c 27 55 9f 3d
       -0.11631025 0.14972194 0.014190927 0.077799134
000300 b8 18 7f 3e f0 90 4c 3e 43 7e 29 be d5 a6 a2 be
       0.24911773 0.19977164 -0.16552071 -0.31767908
000310 20 65 04 3e af 5e 8b be b6 01 bf 3d ca 49 83 bd
       0.12929201 -0.27220675 0.09326498 -0.064105585
000320 24 bf 47 be 4b 94 8a be 8c 57 ba bc e2 d5 2e be
       -0.19506508 -0.27066264 -0.022746824 -0.17073777
000330 28 bb 26 be d1 6e 0a 3d c2 65 4c 3e ef 66 c9 3d
       -0.16282332 0.03379709 0.19960693 0.09834086
000340 a2 01 9d 3e 3c bc 8c 3e 1c d6 c0 bd 98 aa 99 be
       0.30665308 0.2748736 -0.09415838 -0.30012965
000350 e9 31 81 3d 16 19 d3 be 60 e3 a6 3d 64 fb 8d 3d
       0.06308348 -0.41230077 0.08148837 0.069327146
000360 a0 21 4d be 5b 2d b5 be 5d 98 87 bd 7b f4 91 be
       -0.20032358 -0.35386166 -0.06620858 -0.28506836
000370 7f e9 6f be 2d 61 c3 bd ec 52 48 bd 1f ed 56 3e
       -0.23428915 -0.09540019 -0.048907205 0.20988892
000380 79 70 99 3d 23 e7 47 3e 62 89 ef bd b4 2c 7f be
       0.074921556 0.19521765 -0.116961256 -0.24919397
000390 18 be 2b 3e ed 29 81 be 4c 6b 81 3d 12 e7 30 3e
       0.16771734 -0.252273 0.063192934 0.17275646
0003a0 57 26 30 be 80 59 0a be 2a 16 56 bd 14 12 39 be
       -0.17202125 -0.13510704 -0.05226723 -0.18073303
0003b0 ce 9e 5b be 04 ce c2 3c 11 62 2e 3c b3 24 4e 3d
       -0.21447298 0.023779877 0.010643498 0.050327968
0003c0 98 1b c5 bd 4a ec 1b bd 46 28 52 be df 7a 95 be
       -0.09624404 -0.03806714 -0.20523176 -0.29195306
0003d0 6f f9 4b 3e 5f 58 e0 3c 01 a4 d9 3d d3 3b 60 3e
       0.1991937 0.027385889 0.106269844 0.21897821
0003e0 50 c1 fd bc 53 bd 59 bc 58 a3 88 3e 33 49 45 be
       -0.030975968 -0.013289767 0.2668712 -0.19266205
0003f0 43 eb 86 be bf a4 c2 3c ab 94 9c 3c 52 9b d4 bd
       -0.26351365 0.023760198 0.01911386 -0.103811875

fc3.bias f4 [21]
000000 cd c6 aa 3e 52 f2 00 3e ad 3f 96 3d 91 d6 b8 3e
       0.33354798 0.12592438 0.07336364 0.361012
000010 0b e7 12 3e d9 b7 b3 3e e7 87 4f 3d 14 f3 9e 3e
       0.14345948 0.35101202 0.050666716 0.3104483
000020 da 56 6a 3e c2 79 56 3e 5d cd 64 3e 3f 34 88 39
       0.22884694 0.20944884 0.22343965 0.00025978868
000030 13 3e df 3c 7d 72 78 3c 13 3c 02 3e ad d1 a6 3e
       0.027251279 0.015164015 0.12718229 0.32581845
000040 ac f2 c0 3e 6f c9 7c 3b 1d e9 1c 3e 42 33 65 3e
       0.37685144 0.0038572212 0.153233 0.22382835
000050 c3 cf f6 37
       2.9422232e-05

fc1.weight f4 [32, 7]
000000 8a c5 08 3e c5 02 51 be 38 e3 83 be 29 49 1d 3c
       0.13356605 -0.20411213 -0.25759292 0.009599962
000010 ed e7 2f 3e f7 33 8f be cb 4b 08 be 30 16 cf 3d
       0.17178316 -0.27969334 -0.13310163 0.10111654
000020 ca cc d9 3d 77 c0 30 3e b5 57 68 bd a4 f8 5c 3e
       0.106347635 0.1726092 -0.05672427 0.21579224
000030 94 32 10 3e de 22 ff bc e0 a3 9d 3e 1e b6 04 be
       0.14081794 -0.031144556 0.3078909 -0.12960097
000040 a7 5c 6d be ca 17 79 3e 4b 14 3a 3e 71 98 2d be
       -0.23179875 0.24325481 0.18171804 -0.16952683
000050 4b 2c bf 3e f6 27 de bd 44 d1 c0 3e 9f 56 b3 3d
       0.3733848 -0.10847466 0.37659657 0.08756756
000060 f8 51 97 be 0d 27 38 3e 2c 87 8e be ca 24 0c be
       -0.29554725 0.17983647 -0.27837503 -0.13685909
000070 e7 84 0d 3c c7 27 45 be 22 44 11 be a7 7c 2c 3e
       0.008637643 -0.19253455 -0.14186147 0.16844426
000080 76 9a 4b 3e ab 10 91 bd 3f ec b5 3e 0b 1f 66 be
       0.19883141 -0.07083257 0.35531804 -0.2247278
000090 5e 44 8d be a4 59 7e be 47 f1 66 3c fc 3b 06 be
       -0.27591223 -0.24838883 0.014095611 -0.1310882
0000a0 cb db 83 be 11 11 24 3d 09 d2 1b 3d 07 03 f1 bd
       -0.25753626 0.04005534 0.038042102 -0.117681555
0000b0 da 9d 06 bd 46 2e 1f be 8c 61 88 3e 47 52 92 be
       -0.032865383 -0.15544996 0.26636922 -0.28578398
0000c0 16 89 a4 bc d1 b9 74 3e 0a 28 a3 3d c8 bb 85 3e
       -0.020084899 0.23899008 0.07966621 0.26119828
0000d0 96 55 2b 3e a7 5f 97 be 4d b7 83 3e 88 b0 85 be
       0.16731867 -0.29565164 0.25725785 -0.26111245
0000e0 e4 dc 67 3e 26 d2 d2 bc 96 de ae bd 4d 91 c7 3d
       0.22642857 -0.025734972 -0.08538549 0.09744511
0000f0 6b 4f 89 3e 54 d6 49 be 57 83 b8 be f9 26 ab 3e
       0.26818404 -0.19710666 -0.36037704 0.3342817
000100 ac 3f 84 bd 32 58 be 3e 3e c8 cf 3d f3 36 9e be
       -0.06457457 0.37176663 0.10145615 -0.30901298
000110 0c d9 17 be 79 7f 98 3e 4a 2f 24 3d 9b a0 94 3d
       -0.1482889 0.29784754 0.04008416 0.072571956
000120 a1 96 19 3e e7 da ad 3d 9e 55 ac bd 60 df 2d bc
       0.14998867 0.08489018 -0.08414768 -0.010612339
000130 c5 c7 b5 bd ce 09 cb 3c 2d 14 8f be e9 91 24 be
       -0.08875994 0.024784949 -0.2794508 -0.16071285
000140 6d 97 a8 bd 06 14 b9 bd 70 64 85 3e a9 f0 6c bd
       -0.08232007 -0.09037022 0.2605319 -0.0578467
000150 db 59 85 be ef d6 c2 3e 22 8c 8f be 6b 09 85 be
       -0.26045117 0.38054606 -0.280366 -0.25983748
000160 2b 07 a5 be f7 fa f9 bd fa 1f 38 3d b3 1e 43 3e
       -0.3223203 -0.12206071 0.04495237 0.1905468
000170 f8 89 9b bd 08 2d 8a be 5e 78 0c 3d 17 b4 09 3e
       -0.07594675 -0.2698748 0.03429448 0.13447605
000180 eb 08 39 be b5 e9 6c 3e 60 12 2b 3e b4 e6 df 3d
       -0.18069808 0.23136027 0.16706228 0.10932675
000190 ef 79 ad bd 94 a1 a1 be 3d 69 c6 3d e6 07 8a bc
       -0.084705226 -0.31568587 0.09688041 -0.01684947
0001a0 08 cb f4 3d 6e 27 0c be f5 ab 27 3e cb d2 c4 3e
       0.11952788 -0.13686916 0.1637419 0.38442072
0001b0 6f 15 b0 bd e3 6b 9f be 51 5a 7a bd 48 a4 02 3e
       -0.08597838 -0.31137 -0.06112129 0.12757981
0001c0 3f 06 06 be 22 b3 cf be 06 fd b8 3e 03 bd 68 be
       -0.1308832 -0.40566355 0.36130542 -0.22728352
0001d0 8a bc 92 3e 00 57 35 be ae 04 22 3c 85 41 99 be
       0.2865947 -0.17708969 0.009888811 -0.299328
0001e0 72 47 a8 bd 7e b6 33 3e 71 f4 4b be 40 6b 85 bd
       -0.08216752 0.17550084 -0.19917466 -0.06514597
0001f0 1b e2 8c 3e 53 ae 27 be 58 4e a5 bd 08 4f 38 be
       0.27516255 -0.16375093 -0.080715835 -0.17998898
000200 ef fa 78 3d 51 9b 77 bd e7 bc 12 3e cf 0a b3 3e
       0.060786184 -0.060450856 0.14329873 0.34969184
000210 57 ac 69 3d 32 6c 40 be 89 0c 34 3e ea 56 42 3e
       0.05704912 -0.18791273 0.17582907 0.18978468
000220 92 f5 5c bc 3d b3 63 be 74 02 ec 3d 05 cc 24 3e
       -0.013486283 -0.22236343 0.115239054 0.16093452
000230 4d a9 b3 bd 38 30 d3 3d 77 18 d7 3c c8 7d 61 be
       -0.08772526 0.10311931 0.026256783 -0.22020638
000240 db bb c3 3d 13 65 4b be d3 88 30 3e 8e 34 d5 3d
       0.09557315 -0.19862776 0.17239694 0.10410415
000250 4f 11 4a 3e 73 d4 07 be 76 85 af be c3 a2 e8 3d
       0.19733165 -0.13264637 -0.3428151 0.11359169
000260 67 85 64 3e db 7a 6d be 83 d7 83 3d 02 1c 9c bd
       0.22316514 -0.23191397 0.0643759 -0.076225296
000270 cd 30 69 3e 1e 31 3b 3c 7a 58 80 bd 69 07 a7 3e
       0.22772522 0.011425285 -0.062668756 0.3262284
000280 78 be 01 bc 3c c6 c8 bd af 95 b8 3d 95 4f ed 3d
       -0.007918946 -0.09803435 0.09012925 0.11587445
000290 02 41 30 3e 00 e9 03 3e 58 07 59 3e d8 fd de b9
       0.17212299 0.12881851 0.21194208 -0.00042532268
0002a0 5b a9 36 3d e4 12 ee be 52 26 86 3e dc 96 ee bc
       0.044595104 -0.46498787 0.2620111 -0.02912467
0002b0 44 88 b5 bd 59 32 2a 3e b0 c3 2a 3e 08 1a 64 3e
       -0.08863881 0.16620769 0.16676211 0.22275555
0002c0 a4 40 b7 be f6 9a ef 3b 60 63 82 3e f0 d3 3b 3e
       -0.35791504 0.007312174 0.25466442 0.18342566
0002d0 9f 17 4e 3e f0 d8 b5 bd fe 39 c2 be 96 bc 89 be
       0.20126198 -0.08879268 -0.3793487 -0.26901692
0002e0 cd 8c a8 bc 2a 40 40 3e b3 07 c8 be 4d ac 7a 3e
       -0.020574952 0.18774477 -0.39068374 0.2447979
0002f0 41 22 a9 3e 0b 7f 5a bb 39 46 62 3e 86 7a ae be
       0.33033946 -0.0033339884 0.220971 -0.34077853
000300 2b 8d 23 bd 6a f2 34 3e d0 0f fd be d4 e0 ca 3d
       -0.03992955 0.17670599 -0.49426126 0.09906164
000310 fa 1a 22 be 21 9b a8 3e 5c 54 b5 3e b3 33 21 3e
       -0.15830603 0.32930854 0.35415924 0.15742378
000320 87 ce 7d be 9d ce 45 3e 90 8c a9 3d 99 25 5c 3e
       -0.24785815 0.19317098 0.08278763 0.21498717
000330 5f cf 1c 3d 3d 53 d1 ba 7a 16 bd bc db 79 53 bd
       0.038283702 -0.0015970242 -0.023082007 -0.051629882
000340 60 0f bd 3e de 92 00 be 82 1d 68 be 59 d7 e2 bd
       0.36925793 -0.12556025 -0.22667506 -0.110762306
000350 dc 13 41 3d 09 b1 24 bc fa 03 47 be 3b 81 44 3e
       0.04713808 -0.010051974 -0.1943511 0.19189923
000360 30 d3 9c 3e 45 3b 57 be 90 1c 4a bd 52 b5 10 be
       0.30629873 -0.21018703 -0.049343646 -0.14131668
000370 cd d9 b8 be ac be 8e bd 1d 33 13 3e 61 93 82 bd
       -0.3610367 -0.069699615 0.14374967 -0.063757665

fc1.bias f4 [32]
000000 fb b5 14 3f e7 75 f8 bd 26 1a c2 3e f8 d4 f4 3e
       0.5809018 -0.12131863 0.37910575 0.47818732
000010 84 ba 8f 3e 8e 65 0e 3f 30 d5 fa 3d dc e7 3a 3e
       0.28071988 0.5562371 0.122476935 0.1825251
000020 53 0a 3d be 4a 6c 43 be d2 ec d7 3e af 0a e6 3e
       -0.1846097 -0.19084278 0.42172867 0.44930026
000030 9c a8 f2 3e 27 54 b6 bc 6a 4c 07 3f d6 0f 59 3e
       0.47394264 -0.022256924 0.52850974 0.21197447
000040 a1 78 e4 3e 63 4c e7 3e 20 0f c2 3b f4 86 e2 3e
       0.44623283 0.45175466 0.005922213 0.44243586
000050 0b 2d 05 3f 6f 95 a0 3e 36 43 48 be 66 6e 14 3f
       0.52021855 0.3136401 -0.19556889 0.57980955
000060 f0 eb f8 3d fc ef 08 3f b6 19 5a be 58 4b 4c 3e
       0.121543765 0.5349119 -0.2129887 0.19950616
000070 eb 89 0b bd 13 89 f1 3e 98 4e f4 3c af a3 a0 3e
       -0.034067076 0.47174892 0.029822633 0.3137488

fc2.weight f4 [16, 32]
000000 1a b4 20 bd 83 e1 8e 3d 3d 86 c7 3d 66 39 df 3d
       -0.03923426 0.06976607 0.09742401 0.1089962
000010 24 e8 bd 3c b8 9a c7 3d c7 4f b6 3c 26 5a 32 bd
       0.023181982 0.09746307 0.022254838 -0.043543003
000020 48 2e bf 3b 10 ec 4d 3c fe a2 4c 3e f9 00 5b 3e
       0.0058343746 0.012568489 0.19984052 0.2138709
000030 1e ed 92 3d 49 e7 a4 bd 06 2b 22 3e b9 0d 43 3c
       0.07174133 -0.08051927 0.15836725 0.011905127
000040 0e 29 3b 3d aa a8 75 3d b6 ab 97 bd 8d a3 9f 3d
       0.04569345 0.059975304 -0.07405798 0.07794867
000050 82 e8 c4 bd ea 3d fa bb a5 73 cb bd 62 7f 00 3e
       -0.0961466 -0.0076367753 -0.09934167 0.12548593
000060 74 79 8c 3c 96 3c fb 3d e7 0b 8f ba 5f bc 1b 3e
       0.017147757 0.12267415 -0.0010913581 0.15208577
000070 ce a7 40 3d af 0f 53 bc 85 6a a4 3d f9 3b 55 bd
       0.04703503 -0.012882157 0.080281295 -0.052059148
000080 c5 93 c5 3d a6 e3 1f 3e 60 22 00 3e 80 13 3c 3e
       0.096473254 0.15614185 0.12513113 0.18366814
000090 32 e9 ad 3d 10 3a c6 3d ea 69 e3 3c 46 8d bc 3d
       0.08491744 0.09679043 0.027760465 0.09206633
0000a0 5d 7e 3f 3e ba 76 b2 3d be 77 db 3d a7 4f 61 3e
       0.18700548 0.087140515 0.107161984 0.22003041
0000b0 97 5f 33 3e 44 2a a5 3d 10 b5 32 bd 05 75 a0 3c
       0.17516933 0.08064702 -0.043629706 0.01958705
0000c0 aa 88 86 3d 98 d8 23 bd f8 34 68 3e 4f 92 2d 3e
       0.06569035 -0.04000148 0.22676456 0.16950344
0000d0 0c 45 af 3d 3f e7 45 bd 80 0a 30 3d a8 f7 1e bd
       0.085580915 -0.048316237 0.042978764 -0.038810402
0000e0 35 1b 08 3d ce ad f4 3b d5 9d c2 3c bd 7c 2b 3d
       0.03322907 0.007467008 0.0237569 0.041867007
0000f0 4d 49 33 b9 45 3b d0 3d 58 45 2b bc 36 01 b2 bc
       -0.00017098077 0.10167555 -0.010453545 -0.021729093
000100 46 8d 9a 3c 13 17 1e 3e 5a 7b df 3b 16 73 05 3c
       0.018866193 0.1543849 0.0068201246 0.008145114
000110 77 b5 25 3e 9e 9d c8 3c 1d 8e db 3c d5 28 01 3e
       0.16182505 0.02448922 0.026801163 0.12613232
000120 44 41 f8 3d d8 03 b0 3d f6 05 ed bd 9c 98 81 3d
       0.121218234 0.08594483 -0.115734026 0.06327936
000130 de c9 b9 3d 1a b0 e5 3c 50 a4 b5 3c c1 59 4a 3d
       0.09071706 0.028038073 0.022173077 0.049402002
000140 09 30 50 3d b7 5e 4d 3d c8 4c 50 3c 47 78 ff bd
       0.05082706 0.050139155 0.012713619 -0.12474113
000150 f7 cf 78 3d f5 de 1d 3d 3d 79 18 3d 6c 8f a7 bd
       0.060745206 0.038542707 0.037224997 -0.081816524
000160 70 ee c5 3d f1 16 30 bd d5 d6 47 3d d6 6d 62 3d
       0.09664619 -0.04299063 0.048788864 0.05528053
000170 92 26 17 3e cb 76 5b 3d 00 8b 0e 3d 2a fa af bb
       0.14760807 0.053580087 0.03480053 -0.005370398
000180 72 db 85 3c 80 c5 7c bc 86 1b 1f 3d 1f 5f 9b 3d
       0.016339991 -0.015427947 0.038844608 0.07586502
000190 ca ac 51 3d a5 53 cb 3d 89 84 b5 bb 69 9f ab 3d
       0.051190175 0.09928063 -0.005539481 0.083800144
0001a0 93 8f fb 3d d5 32 8d 3d 5a 1f 1c 3d 86 13 e9 3d
       0.12283244 0.06894461 0.038115837 0.11380677
0001b0 ec 3d f9 3d 1e 6d 03 3e a8 f2 ad ba c5 86 8e 3c
       0.12170014 0.12834594 -0.001327117 0.017398247
0001c0 6d 2a 38 3d 6d 69 15 bd fe a7 2b 3e 1d c2 0b bc
       0.044962335 -0.036477495 0.16763303 -0.008530167
0001d0 7c cd ee 3d ff ba 11 3e e4 0c 2c 3e cd 66 81 bd
       0.11660287 0.1423149 0.16801792 -0.06318436
0001e0 fc 42 92 3d 31 6e b1 bb f6 7c ba 3d da ee d7 bc
       0.071416825 -0.005414747 0.09105866 -0.02635901
0001f0 b7 37 cd 3d 03 20 91 bd 42 c2 4c bd d1 33 ca bd
       0.100203924 -0.07086184 -0.049989946 -0.098731644
000200 ea 41 09 3e bd 6f 84 38 bf 13 aa bc bb 07 8f 3d
       0.1340405 6.3150634e-05 -0.020761369 0.06983896
000210 16 79 1b 3e 19 05 5e 3d ce 6c 44 bd b0 92 13 3e
       0.1518291 0.05420408 -0.047955327 0.14411426
000220 08 1d 03 3e 8c dc 98 3d 9a f0 43 3e b8 e3 47 3e
       0.12804043 0.07463941 0.19134751 0.19520462
000230 29 46 4c 3d e5 57 b2 3c 94 bd 42 3e 60 60 6d bc
       0.049871597 0.021770427 0.19017631 -0.01448831
000240 c0 8c 84 3d 90 d8 59 bc bf 6b 19 3e f2 57 53 3e
       0.064721584 -0.013296261 0.14982508 0.20639017
000250 cc 7a 67 3b 02 2e c9 3c be 92 d0 bc be 4f 05 3d
       0.0035320995 0.024558071 -0.025460597 0.03254675
000260 1a 35 b3 3d 1a 2e 77 bd cc 36 0c 3e 6e ac 78 3d
       0.08750363 -0.0603467 0.13692778 0.060711317
000270 de c8 85 ba 3e 59 38 bd 2f d6 27 be 59 1e 71 bd
       -0.0010206958 -0.045006983 -0.16390298 -0.058866832
000280 4b 7f 17 be 92 fe 94 bd 10 d0 8e be 50 af bf bd
       -0.14794652 -0.07275118 -0.27893114 -0.0935961
000290 5f 3e 18 be 45 30 53 be 15 ef d0 3d 8e fd 0b bd
       -0.14867543 -0.20623882 0.10201851 -0.034177355
0002a0 e8 a6 1c 3e 02 e3 fe bd e9 e7 20 3e 9c b7 2a be
       0.15298045 -0.12445642 0.15713467 -0.16671604
0002b0 e0 81 be 3d 06 fa 03 be 2d 41 0d 3d 4a c9 2f bc
       0.093021154 -0.12888345 0.034485985 -0.010729143
0002c0 03 11 85 bd 6c dd 18 be fb 09 11 3e 2e 65 8d bc
       -0.06497385 -0.14928216 0.14163963 -0.01726016
0002d0 e8 ac 38 3e 5b 9e e3 3c 8f 88 13 be a8 cb 9d 3d
       0.18034708 0.02778547 -0.14407562 0.0770486
0002e0 f6 8d f1 bd e7 b7 46 3d 9d 31 19 be 3e 36 85 3d
       -0.11794655 0.048515227 -0.14960332 0.065044865
0002f0 a1 95 65 be 1e 40 ec 3b 2b f0 7e bd cb ec eb bd
       -0.2242036 0.007209792 -0.06224076 -0.11519774
000300 ad a4 b4 3d 57 7d 01 bd 1b ba 16 3c 29 a0 51 bd
       0.08820472 -0.031613674 0.009199644 -0.05117813
000310 f2 ec 4b 3d 02 e1 51 3c 3e 0d b2 bd 34 dc dd 3c
       0.049786516 0.012809994 -0.08693932 0.02708254
000320 51 d5 3d be a6 10 b4 bd 0c 4a 43 3e 63 29 30 3e
       -0.18538405 -0.08792238 0.19071215 0.17203288
000330 9c dd fc 3d 72 57 de bd e0 97 24 be 3a 4b 91 bd
       0.12346956 -0.108565226 -0.1607356 -0.070944265
000340 61 e4 c8 bb 04 20 9b bd 19 0c de 3d b1 a4 e8 3c
       -0.0061307405 -0.07574466 0.10842151 0.028398843
000350 4e d1 99 3c 46 94 bd bd 29 bb 10 be 7a 11 53 bc
       0.018776562 -0.092567965 -0.14133896 -0.012882585
000360 f1 e0 07 3e 17 7b 1b be 21 c0 17 ba 7a 2a 0a 3e
       0.13269402 -0.15183674 -0.00057888223 0.13492766
000370 de ed 70 3d d5 32 98 3c 47 f6 45 3d 53 c5 f0 bd
       0.058820598 0.018578926 0.04833057 -0.117563866
000380 1c a7 0d 3d 56 36 b5 bd 03 85 fe bc 55 d3 04 3d
       0.034583196 -0.088482544 -0.031069284 0.032428104
000390 64 47 e4 3d f4 ac 8f 3d 92 a7 fd bc 89 ba c7 bd
       0.11146429 0.0701541 -0.030963693 -0.09752376
0003a0 88 ba d3 3b 7d 3f 7e 3d bd c6 b3 3c 4c e0 e8 bb
       0.0064614452 0.062072266 0.021945352 -0.0071068164
0003b0 cf d3 7c 3d 15 87 0b 3d 69 c8 9f 3d 0e 51 b7 3c
       0.061725434 0.03406437 0.07801897 0.022377517
0003c0 b5 58 42 3d ad 46 1c 3e 52 4a df bd e9 40 3c bd
       0.04744788 0.15261336 -0.10902847 -0.04596034
0003d0 2c 5b d9 3d d6 6e b3 bc 0c ac fa 3d af 90 a9 3c
       0.10613093 -0.021903437 0.122398466 0.020698873
0003e0 cb 47 2f bd cf b8 c5 3d 07 47 fe bb 18 2d 2b 3d
       -0.042793076 0.0965439 -0.007759932 0.04179105
0003f0 c7 89 c2 3c 6d 5b 4a 3e 5c 56 9b 3c 73 74 b3 bd
       0.023747338 0.19761439 0.018962078 -0.08762445

fc2.bias f4 [16]
000000 b4 34 95 3e 00 fb 77 3e ac ba 8b be 29 a7 b1 be
       0.29141772 0.24216843 -0.27290857 -0.34697846
000010 81 21 0a 3e 78 52 76 3d 25 a4 76 3d 55 9d 73 3e
       0.13489343 0.060137242 0.060215134 0.23790486
000020 82 b3 09 3c 93 f6 ad be ad d9 ca 3e f3 2b 4b bc
       0.008404614 -0.33977184 0.39619198 -0.012400615
000030 10 30 97 3d ec 44 3c 3d 51 21 59 3e 11 b4 29 3e
       0.07382214 0.045964167 0.21204115 0.16572596

fc3.weight f4 [21, 16]
000000 de ca e3 3d c9 a5 d4 bc a5 e3 05 be 5b ca 08 be
       0.11122678 -0.025957959 -0.13075121 -0.13358442
000010 ad aa 96 3d 44 ac 3f bd e7 a1 4a 3d 51 96 da 3d
       0.073567726 -0.046795145 0.04947081 0.10673202
000020 fc c8 20 bd ed 83 18 be 3b 3d 04 3e e8 d1 d4 bc
       -0.039254174 -0.14894076 0.12913983 -0.025978997
000030 f0 ac 77 bd 51 d2 04 be 20 36 11 be 59 4c ea 3d
       -0.06046766 -0.12970854 -0.14180803 0.114403434
000040 bf 6e 18 3e 6f f1 2f bd 5e 50 88 bd c3 33 7a be
       0.14885996 -0.04295486 -0.06655954 -0.24433808
000050 ff b8 cb 3d b3 24 29 bd da a9 5e 3d f4 99 f7 3d
       0.099473946 -0.041294765 0.0543612 0.12089911
000060 4f aa 37 bd 7d f9 13 be 8e 07 34 3e fc df e9 bb
       -0.044840153 -0.14450641 0.17581007 -0.0071372967
000070 fe fb 3a bd 08 9e 23 be 5a 0b 02 be b2 98 52 3d
       -0.045650475 -0.15978253 -0.12699643 0.051415153
000080 71 0b 93 3d 2b ab 20 3e f4 6b 1a bd a1 14 7a be
       0.07179917 0.15690295 -0.03770061 -0.24421932
000090 7a 1f 5a 3d 02 08 80 bd a8 ad 9a 3d da 9d 9a 3c
       0.053252675 -0.06251527 0.075526536 0.018874098
0000a0 5e d7 7e bd 1b d3 f5 bd 9c 8b bd bc ba 57 a8 bc
       -0.06221711 -0.12003156 -0.02313786 -0.020549644
0000b0 e7 fe 40 bd 29 32 92 bd 97 32 3b 3e 34 de e5 bb
       -0.047118094 -0.071384735 0.18281017 -0.007015014
0000c0 f2 97 d5 3d 4d 89 08 3d d7 3f e8 bc 8a b6 1e be
       0.10429372 0.033334065 -0.028350754 -0.1549932
0000d0 13 fd 46 bc 3c 6a 9a bd c9 0e 91 3d 69 83 79 3c
       -0.0121452985 -0.07539794 0.07082898 0.0152290845
0000e0 64 13 9c bd c7 83 46 be 5f 26 48 3e 04 ce 8f bd
       -0.07620886 -0.19386207 0.19545887 -0.07021716
0000f0 6d c1 65 bd af 1e 35 bd f9 39 d6 bc bc 37 4c bd
       -0.05609267 -0.044218715 -0.02615069 -0.04985784
000100 02 b4 29 3e 27 d9 88 3d 35 0a 17 bd 5b 04 4e be
       0.16572574 0.066820435 -0.03687497 -0.20118849
000110 4a f0 25 39 9e 99 ad bd b1 b1 b0 3d f2 f6 a7 3c
       0.00015825141 -0.08476566 0.08627642 0.020503495
000120 65 8d b2 bd 99 15 6b be f8 79 04 3e 97 a3 9c bd
       -0.08718375 -0.22957458 0.12937152 -0.0764839
000130 e6 58 97 bd 45 f5 0c 3d 10 1c 03 3d e7 76 49 3b
       -0.07390003 0.034413595 0.032009184 0.0030741037
000140 9b 3d 11 3d 14 4e 46 3d 39 f4 e8 bc 18 ce 32 bd
       0.035459142 0.048414305 -0.028436767 -0.043653578
000150 94 fc 88 3d 69 87 90 bd f9 3f b4 39 4a a2 9a 3c
       0.066888005 -0.070570774 0.0003437994 0.018876214
000160 1b b3 e5 bc bd 5e 67 bb d7 59 bb bd 00 96 60 3c
       -0.028039506 -0.003530427 -0.09147995 0.013707638
000170 7f 64 0e bd 23 b8 24 3e d0 d7 85 3d 26 3a e2 3c
       -0.03476381 0.16085868 0.065353036 0.027615618
000180 53 e8 e5 3d d9 dc 6a 3e 73 80 64 be 22 57 43 be
       0.11225953 0.22935809 -0.22314624 -0.19076207
000190 57 ba b4 3d 6b 70 de bd f7 9e 0a 3e 9c 62 d0 3d
       0.08824604 -0.10861286 0.13537203 0.10175058
0001a0 ce 93 ee bd 6f e0 6a be 42 84 06 be a6 78 0b be
       -0.11649285 -0.22937177 -0.1313639 -0.13620242
0001b0 a3 63 3f be 36 0d 6c 3e 4b 3e 6c 3e 85 23 20 3e
       -0.18690352 0.23051915 0.23070638 0.1563855
0001c0 72 86 37 3d 0d 2a fb 3d 5d 62 b7 bd a6 d4 e2 bd
       0.04480595 0.1226388 -0.08954308 -0.11075716
0001d0 71 07 26 bd 9c 62 8d be f1 89 89 3d ee 45 70 bc
       -0.04053444 -0.27614295 0.06715763 -0.01466511
0001e0 3c 76 28 be a3 8f 68 be 62 92 27 3e 12 92 61 be
       -0.16451353 -0.22711043 0.16364434 -0.22028378
0001f0 2e d2 1f be 78 03 c8 bc d1 84 ae bd 95 ca 0a 3d
       -0.15607521 -0.024415717 -0.085214265 0.033884604
000200 3b 8d c5 3c 31 bb 98 3b 19 f7 0b bd 7f 36 05 be
       0.024115195 0.004660987 -0.034171198 -0.1300907
000210 bf 98 1a bc 14 58 55 be fe 49 8f 3d 85 85 ea 3d
       -0.009435832 -0.2083438 0.06996535 0.11451248
000220 73 c7 0d be 96 d1 99 bd dc e9 42 3d 79 7a db bd
       -0.13845615 -0.075106785 0.047586307 -0.10716719
000230 f8 6c b0 bd 50 76 81 3e 4f 2a 4f bc e1 f0 a5 3d
       -0.08614534 0.25285578 -0.0126443645 0.08102585
000240 42 4b 2f bd 5c 28 42 3d ca 77 2d be c6 e7 84 be
       -0.04279638 0.04740177 -0.16940227 -0.2595808
000250 01 83 19 bd c5 a4 0c be 9a d4 e5 3d 13 87 97 3c
       -0.03747845 -0.1373473 0.11222191 0.018497026
000260 da 69 67 be d4 2c f4 bd 14 10 a7 3d 98 b4 80 be
       -0.22598973 -0.11922613 0.081573635 -0.25137782
000270 bb b7 56 be 07 a4 1e 3d 39 9d 78 3d c9 01 8b 3e
       -0.20968525 0.038730647 0.060696814 0.271498
000280 f9 1a 11 3e 69 cc 9b 3c a1 2f 27 bd 3a 9f 7e be
       0.14170446 0.019018369 -0.040816907 -0.24865428
000290 28 0d 8e 3d 4d 3f 19 be 2e d6 83 3d 34 ba 30 3e
       0.06936103 -0.14965554 0.06437336 0.17258531
0002a0 60 4a 52 be bf a6 f3 bd 29 56 62 3a 63 4d 5b be
       -0.20536184 -0.11897039 0.00086340547 -0.2141624
0002b0 4c f8 f6 bd bb 45 67 3e 9b e3 91 bd 07 ce 33 3e
       -0.120590776 0.22585194 -0.071234904 0.17559062
0002c0 d7 db 0f 3e e3 bd 0e 3e 81 09 33 be c8 0e 39 be
       0.14048706 0.13939624 -0.17484094 -0.18072045
0002d0 b6 25 5c 3e bf a7 8e be 4c e3 54 3d d7 20 46 3e
       0.2149876 -0.27862355 0.05197458 0.19348465
0002e0 6e 03 30 be bc 78 0d be 77 0a b3 bd 5a 8c ad bd
       -0.17188808 -0.13815588 -0.087422304 -0.084740356
0002f0 4d 5b e5 bd 38 48 15 3e a7 60 64 3c d0 35 9f 3d
       -0.11199055 0.1457833 0.013939059 0.07773936
000300 2d 07 7f 3e 71 87 4c 3e 3f b1 29 be 8f ab a2 be
       0.24905081 0.19973542 -0.1657152 -0.31771514
000310 d7 88 04 3e cd 91 88 be 5b 60 be 3d 2e 50 84 bd
       0.12942825 -0.26673737 0.09295722 -0.064606056
000320 3a e1 45 be 8e 84 8a be 4f 2a bb bc 70 82 2b be
       -0.19324198 -0.27054256 -0.022847323 -0.16748977
000330 04 62 20 be 40 ca ef 3c 6d 3d 4c 3e 48 64 c9 3d
       -0.1566239 0.029271245 0.19945307 0.0983358
000340 71 10 9d 3e ad c8 8c 3e 1a 27 c1 bd c1 9f 99 be
       0.30676606 0.27496853 -0.09431286 -0.30004695
000350 34 1b 81 3d 7d 0d d1 be f5 08 a7 3d ca a6 8d 3d
       0.06304017 -0.40830603 0.08156005 0.06916578
000360 00 f1 49 be f6 ee b4 be f5 e1 87 bd 40 16 91 be
       -0.1972084 -0.35338563 -0.06634895 -0.28337288
000370 94 8a 6d be 8d 8f cc bd 97 99 49 bd 3f c3 56 3e
       -0.23197395 -0.09988318 -0.04921874 0.20972918
000380 07 49 99 3d 4b f9 47 3e 4b e8 ef bd a4 2e 7f be
       0.07484632 0.19528691 -0.11714228 -0.24920136
000390 b0 f7 2b 3e c6 fc 7d be f4 b6 81 3d 67 e3 30 3e
       0.16793704 -0.24803457 0.06333724 0.17274247
0003a0 48 88 2d be 79 1d 0a be b8 b1 56 bd 1b f1 36 be
       -0.16946518 -0.13487805 -0.05241558 -0.17865412
0003b0 b9 9a 5b be a5 41 9a 3c 8c aa 28 3c 23 5e 4d 3d
       -0.21445741 0.01883013 0.010294568 0.050138604
0003c0 5c 82 c5 bd 9a 4d 1c bd dd 6f 52 be 6c 6e 95 be
       -0.09644005 -0.038159944 -0.20550485 -0.29185808
0003d0 6d 12 4c 3e 38 d6 0b 3d 21 7b d8 3d ec 43 60 3e
       0.19928904 0.03413984 0.1057036 0.2190091
0003e0 19 de d1 bc 7c e1 50 bc a7 97 88 3e e2 4b 43 be
       -0.0256186 -0.012749072 0.26678202 -0.19071916
0003f0 31 41 86 be 7f e2 8e 3c c2 48 9b 3c ed ce d4 bd
       -0.26221612 0.017441986 0.018955592 -0.103910305

fc3.bias f4 [21]
000000 7b f7 a9 3e 0e 13 ff 3d a3 9a 93 3d 2e 73 b8 3e
       0.33196625 0.12454806 0.07207229 0.36025375
000010 0d eb 11 3e 8a 9e b3 3e 9f fc 4c 3d 2b da 9e 3e
       0.14249821 0.35081893 0.050045606 0.31025824
000020 f1 2a 6a 3e b9 13 56 3e 0e 7f 64 3e 76 14 b1 b8
       0.22867943 0.20905961 0.22314093 -8.443829e-05
000030 06 42 dc 3c b9 42 71 3c 41 ff 01 3e 41 bc a6 3e
       0.026886951 0.014725381 0.12695028 0.325655
000040 d1 cd c0 3e 5d 1e 64 3b f6 9b 1c 3e b7 c7 64 3e
       0.37657025 0.0034808137 0.1529387 0.2234181
000050 36 c3 94 b9
       -0.00028374203
