logs/sdf_single_scene_3_spheres/state_84.pt (torch, 13071 bytes, 12 tensors)

fc1.weight f4 [32, 7]
00000000: d061 3d3e 6f26 98be 5911 a2be 5f5e 3ebd
00000010: 4194 1e3e 820e 97be 1491 08be e43d 123e
00000020: 9ea2 2c3e 3292 1c3e 5c57 cbbd 0662 623e
00000030: 92af b33d 48a1 1e3d d93d a13e deb1 17be
00000040: 1c02 3ebe c73a c23e 8ac3 533e 3388 f3bd
00000050: 6126 b73e 9f78 23be c840 a63e a6d5 e53d
00000060: 3834 85be 3623 0b3e bd7a 9cbe cb0a a6bd
00000070: 5c59 2cbd 8410 60be f0bb b6bd 9b36 113e
00000080: d803 e83d 1d55 8cbd e922 a43e 493a 88be
00000090: e2cb 6fbe 3041 82be ea49 26bc 07a1 d9bd
000000a0: dce2 9dbe ec81 00bd 207a 4ebd 9d16 30be
000000b0: 0710 7cbd 8569 cabd c3fa 903e af5e 9fbe
000000c0: bb92 623c 3299 ef3d 6cc5 d13d 00ae c03e
000000d0: f512 7f3d 047e a0be a152 9f3e a5d9 8abe
000000e0: a7cf 3f3e 9459 28be 3d80 0bbe eeea fc3d
000000f0: 14b8 5b3e d260 8bbe ab6c a9be 2577 c23e
00000100: ffc3 113e f148 aa3e 27bb 023e 2bb3 8bbe
00000110: a0dd 8bbe d127 9c3e dc68 78bc 3a2e a73d
00000120: d795 4d3e 68c9 fa3c 97e9 90bd 9b42 b4bd
00000130: 5047 1bbe 7247 373d 69a9 87be 42e0 05be
00000140: 6f10 103b b7b2 bcbd fc46 833e ead9 d3bd
00000150: 4e36 75be b172 033f e072 8abe 0121 92be
00000160: 36f8 9cbe ef9b fbbd 36b4 153c e8af 383e
00000170: c54e 13bc 0343 86be 217c 20bd 1d17 283e
00000180: 5aa5 4ebe 1dc7 723e adf7 293e 12da 113e
00000190: e773 a7ba b4fc 99be 7d24 583c 0192 063d
000001a0: 829c 783d 10c3 1abc 0497 5f3e 0fea ea3e
000001b0: 240b d7bb 0cee c1be b204 dcbd 93a6 143e
000001c0: df2d 38be 55de 8ebe 87a7 bc3e 7835 16bd
000001d0: c3df 803e e598 1bbe 6d63 82bd 7dde 5ebe
000001e0: b486 d0bd 1deb 543e 8590 22be b46b ecbd
000001f0: f761 923e 16ff 0abe 40c0 14bd 8fb3 42be
00000200: d024 093c 9411 99bd 57b0 f33d 8e24 af3e
00000210: ba22 373c 919d 05be bd1f 7e3e 680f 753e
00000220: a901 18bd c1a8 4fbe f22c bf3d d0ea 353e
00000230: ab79 093c 6fc0 95bc 35a5 cb3c 3aec 39be
00000240: 9b3d 0b3e 8da9 1fbe 0c78 193e 199f 4e3e
00000250: 37b7 e73d fb2d adbd ccc7 bdbe 9b04 6e3d
00000260: 2b28 5c3e b6b4 febd aa69 9a3d 4833 62bd
00000270: db6c 763e 68ee 5f3d d96c 8fbd 97b0 ad3e
00000280: 723a e93c a12c 80bd 53e0 fe3b fc9a 1f3e
00000290: 5029 253e 669d da3d d27e 763e 5e42 6a3d
000002a0: 2336 963d a74c dfbe 2101 383e 9667 543d
000002b0: 9281 61bc ab9f ea3d ecde 7d3e be22 483e
000002c0: 2aa9 8abe 9b03 263d 946f 993e ff38 203e
000002d0: 65f6 823e b218 32be 3844 d4be 32ff 5fbe
000002e0: 5404 70bd d672 ae3d b748 ccbe 5662 4e3e
000002f0: 493d e03e 82a0 513d ee05 683e bfa7 b7be
00000300: ecc8 2cbd 15c3 563e 8d67 03bf 67ae 913d
00000310: 17b6 4fbe 0ac8 df3e 9977 983e 22ed 323e
00000320: 24bc 94be cad4 693e dfd2 f73c 539f 433e
00000330: 05df 8c3b 2cd0 e73c ed0d 12bd 16d6 49bd
00000340: 65e8 c33e 6f2a 03be 086d 71be 8d23 abbd
00000350: 8ba3 423d ea73 64bd 132c 7abe 5f4e 333e
00000360: 826c a23e 5e8e 06be 7ad0 cabd 1732 15be
00000370: df35 a3be 5aaf f3bd 96cc 313e 665b 803b
0.18494344 -0.29716823 -0.3165386 -0.046476718 0.15486242 -0.29503256 -0.13336593 0.14281422
0.16858909 0.15290144 -0.09928772 0.22107705 0.08773722 0.03872803 0.314925 -0.14813945
-0.18555492 0.3793547 0.20680061 -0.11891212 0.35771468 -0.15963982 0.324713 0.11222391
-0.26016402 0.1358765 -0.30562392 -0.08107527 -0.042077407 -0.218813 -0.08922565 0.14180987
0.11328858 -0.068521716 0.32057884 -0.26606968 -0.23417619 -0.2544036 -0.010149458 -0.10626417
-0.30837142 -0.031373903 -0.050409436 -0.17196126 -0.061538722 -0.098834075 0.28316316 -0.31126925
0.013828929 0.116991416 0.10242733 0.3763275 0.06227394 -0.31346142 0.31117728 -0.27119175
0.18731557 -0.16440421 -0.13623138 0.12349497 0.21456939 -0.27222306 -0.3309072 0.37981525
0.14234923 0.33258775 0.12766705 -0.27285132 -0.27317524 0.30499128 -0.015161719 0.08163114
0.2007669 0.030613616 -0.07075804 -0.088017665 -0.15163922 0.04474587 -0.26496437 -0.13073829
0.0021982451 -0.09213775 0.25640094 -0.10344298 -0.23946497 0.5134688 -0.27040768 -0.28540805
-0.3065812 -0.12285601 0.009137204 0.18035853 -0.008990948 -0.26223 -0.03918088 0.16415067
-0.20180264 0.23708768 0.16598387 0.14243343 -0.001277563 -0.3007561 0.013192293 0.032854084
0.060696132 -0.009445921 0.21834952 0.45881698 -0.0065626074 -0.37876928 -0.10743083 0.14516668
-0.17986248 -0.27904 0.36846563 -0.036672086 0.25170717 -0.15195043 -0.0636662 -0.2176456
-0.101819426 0.20792814 -0.15875442 -0.1154398 0.28590366 -0.1357387 -0.036316156 -0.19013809
0.008370593 -0.07474056 0.118988685 0.34207577 0.011177713 -0.13048388 0.24816795 0.23931658
-0.03711096 -0.20279218 0.093347445 0.17765355 0.008390824 -0.018280236 0.02485905 -0.1815652
0.1359772 -0.15592022 0.149872 0.20177878 0.11314242 -0.08456036 -0.37066495 0.05810986
0.21499698 -0.124368116 0.07539685 -0.055224687 0.24064963 0.05467072 -0.07003183 0.3392379
0.028470252 -0.06258512 0.0077782064 0.15586466 0.1612904 0.106745526 0.24071816 0.0571922
0.073345445 -0.4361317 0.1796918 0.0518566 -0.013763802 0.114562355 0.24792069 0.19544503
-0.27082187 0.040530782 0.2996794 0.15646742 0.2557861 -0.17392233 -0.41458297 -0.21874693
-0.058597878 0.08517997 -0.39899227 0.201547 0.43796757 0.051178463 0.22658512 -0.35870168
-0.0421838 0.20972855 -0.5132988 0.07113343 -0.20284306 0.43707305 0.29778746 0.17473271
-0.2904979 0.22835079 0.030251918 0.19103746 0.004299047 0.028297506 -0.035657812 -0.049276434
0.3826324 -0.12809156 -0.23576748 -0.0835639 0.047519248 -0.055774607 -0.24430875 0.17510365
0.3172341 -0.13140246 -0.09903045 -0.14569889 -0.31877038 -0.1189868 0.173632 0.0039171455

fc1.bias f4 [32]
00000000: 7025 ef3e 8c75 fabd 7aab 943e bc20 293f
00000010: e8e3 9f3e 27d2 f43e f3a6 133e 2002 5c3e
00000020: 2da2 27be 0f1d 85be 1eb3 a23e 3cbb dc3e
00000030: c303 d13e cb96 cbbd f38e 133f 1b8a 963d
00000040: a411 2e3f 66d9 f33e 03eb d9bd da61 dd3e
00000050: c3d5 0a3f aeb9 993e d408 1cbe e105 133f
00000060: c02d 733e b6bb ed3e e2ad d9bd 95af 2a3e
00000070: 6e69 2bbe 1c3b ff3e ce69 2b3d a2a7 a53e
0.4670825 -0.122294515 0.29037076 0.66065574 0.31228566 0.47816584 0.14419155 0.21485186
-0.16370459 -0.25998732 0.3177728 0.43111598 0.40823182 -0.09940871 0.5764 0.0735056
0.6799567 0.476268 -0.10640528 0.43238717 0.54232424 0.30024475 -0.15237743 0.57430845
0.23747921 0.46432275 -0.10628869 0.16668542 -0.16739437 0.49849784 0.04184895 0.32354456

fc2.weight f4 [16, 32]
00000000: 53b2 63bb d3f3 baba 6bb2 ef3d 686d c53d
00000010: 568a 823c cb29 e53d 598f 523c 100a 08bd
00000020: 7be6 da3b 0e40 053d 97bf b83d 7a63 3c3e
00000030: ff93 a23d 77b9 25bd 00dd 273e 859e 503c
00000040: caaf 2f3d d4af 1b3d 4e6a 0bbd 8efa 783d
00000050: d846 13bd 72b4 3bbc 9b1f 5ebd bc33 103e
00000060: 884d e0bc 1854 dc3d 293e dcbb e57c da3d
00000070: e59e a03c d8be 3f3b 600d 9f3d 4de6 4bbd
00000080: f7f1 8a3d 18a9 083e e3b4 013e 34a8 2a3e
00000090: e764 813d 4cf3 c03d 5911 ad3b e840 d73d
000000a0: 83a7 e93d ff8e 883d 754f 8e3d bbdf 423e
000000b0: 02b1 2e3e 9dc9 193d 648c c6bc 9e27 fb3c
000000c0: 2427 b83d 7152 14bd fde6 453e 279e 023e
000000d0: 58e5 973d c6c6 f4bc d798 533d bcad 47bd
000000e0: fbb6 083d 9959 733d 2984 a93d e9fb 643d
000000f0: cc38 1b3d 5f22 eb3d 8e04 8c3c 5c3e dabc
00000100: cfdd 973c 9b15 1d3e f0be afbc 6ad7 c03b
00000110: 153c 1b3e 0d42 38bb 843f babb f50e 0a3e
00000120: 73d5 203e 2c7d a53d 49c1 d1bd 6864 803d
00000130: 1acb 553d d578 893d 87f7 8d3c 084b 673d
00000140: ce66 a93d 40d0 4c3d c482 083d 0ad7 06be
00000150: 66bd 573d 3498 233d d086 ce3d 6747 bcbd
00000160: 8cce c33d fc49 11bd d664 a53d 0fbc 3fbc
00000170: eee7 113e c92b 0f3d 2478 e2bc 6010 02bc
00000180: 8143 993c f4a8 d23b d8b6 0d3d 739f 7a3d
00000190: 0c23 9c3d 4cc1 cb3d 1af6 79bd 9af6 b63d
000001a0: 5304 f33d fe6d a33d 95ba 363d 7fb8 093e
000001b0: f2f9 d63d 12b6 e23d 257d 703a 2cda 363d
000001c0: e137 ae3d 5a29 f3bc 513b 1d3e 25d0 d6bb
000001d0: 98ad b13d 3f8f 173e a1c3 423e a184 78bd
000001e0: e224 693d 640d 44bc 6ae5 dd3d c1ab adbd
000001f0: d604 d33d d313 a3bd 4658 aabd b9e2 bfbd
00000200: 6b0e f73d c8c2 e33a d96d c93c 7054 413d
00000210: ad2c 8b3d 0d29 893d 69a1 063d fb78 1c3e
00000220: f36a 903d 9b99 873d c9ac 193e f7fc 333e
00000230: 28ae 963d 72b4 e3ba fbb5 383e c041 edbb
00000240: de76 433d bdef 95bc da2f 333e d9a4 1c3e
00000250: ad41 213d 8e34 b43c c2bd 27bd 8fc3 9a3d
00000260: 0e28 003e 92d2 dfbc 828e c23d 6c8d 823c
00000270: c694 783a 012d 9fbc 6ec9 dabd a0b0 78bd
00000280: 4a1d 4bbe 6d57 7fbd be7d 87be 76e3 fcbd
00000290: 61da 0ebe d799 ccbe 85c6 283e 85de 4ebc
000002a0: 752d 103e ab3b 09bf 987f 413e 87c8 c5bd
000002b0: fb6b 1a3e 0f7b 5dbe 7272 043d 435f a13e
000002c0: ef05 88bd a221 49be e914 973d 0d65 c33d
000002d0: a96b 293e b8b3 f73c 1082 c4bd 98af 9b3d
000002e0: c284 dabe ddb9 823d 0dd6 e83d d4a7 763d
000002f0: 40f6 76bf a2a0 9b3c c2e1 68bc 3673 5fbe
00000300: 1f53 153e 15de d1bd e80f a73d cbf7 a1bd
00000310: 5986 4f3b 5704 5a3d b88f 8cbc 2fbc ed3d
00000320: 8ef6 4cbe f483 77bd 1b3b a93d 7868 2c3e
00000330: 14ba ef3d e2bc 6cbe 0ce2 3dbe 6cac c8bc
00000340: e9d3 8bbd 39c5 debc 92ee dd3d 290e 813d
00000350: de7a a13d 175a f9bd 656b 38be 8ab2 3139
00000360: 83e5 133e e805 cdbd f1fe 413d fc71 5d3e
00000370: f709 543c d5ac 8dbc 5de6 903d 91d5 b5bd
00000380: 241c bc3c 6576 53bd a77d 173d 9a96 f03c
00000390: 0c3c c23d af7f 5e3d d338 843d c4e1 87bd
000003a0: 319f 9d3c 6918 8d3d 7f75 a03d a5a9 4fba
000003b0: e7cd 183d 1b35 153c 634e ab3d 449b 3f3c
000003c0: ff9f 9ebc 946e 143e fc0c b7bd 22f4 e7bc
000003d0: 558d f03d 48c1 c5bc 2f50 0d3d 500c 323d
000003e0: 93e3 863b 62f0 a63d 39c9 b5bd 287b 223d
000003f0: 052e c83c 4fad 593e 0707 e43d c60f a8bd
-0.003474374 -0.0014263339 0.117039524 0.09640008 0.015935104 0.11189612 0.01285156 -0.03321272
0.0066803074 0.03253179 0.09020918 0.18397322 0.07938384 -0.040460076 0.16392899 0.0127331065
0.042892255 0.03800948 -0.034036927 0.060785823 -0.035956234 -0.011456596 -0.05422936 0.14082235
-0.02738072 0.10758227 -0.0067212773 0.10668353 0.019607017 0.002925804 0.07766223 -0.04978018
0.067844324 0.13345754 0.12666659 0.16665727 0.06318074 0.09421405 0.005281609 0.10510427
0.114089034 0.06667899 0.06948749 0.19030659 0.1705971 0.03754579 -0.024236865 0.03065854
0.089918405 -0.036211435 0.19326396 0.12755643 0.07416791 -0.029879939 0.05165943 -0.04874967
0.03337763 0.05941162 0.08277161 0.055904303 0.037895963 0.11481165 0.017092016 -0.026641063
0.018538384 0.15340273 -0.02145335 0.0058850544 0.15159638 -0.0028115541 -0.005683841 0.13482268
0.15706424 0.08080515 -0.10241944 0.06269151 0.052195646 0.067125 0.017329944 0.05646804
0.082715616 0.05000329 0.033327833 -0.13167968 0.05267086 0.039940074 0.10084307 -0.091933064
0.0956088 -0.035470948 0.080758736 -0.0117025515 0.1424863 0.034953866 -0.027645178 -0.007938474
0.018708946 0.006428832 0.0345982 0.06118722 0.07623872 0.09948978 -0.061025716 0.08933754
0.11866059 0.07979964 0.044611532 0.13449286 0.10496892 0.110698834 0.00091739214 0.04464166
0.08506752 -0.029682804 0.15354659 -0.0065555745 0.086756885 0.14800738 0.19019939 -0.06067336
0.05691994 -0.011966083 0.10834773 -0.08480025 0.10303657 -0.079627655 -0.08317618 -0.09369416
0.12063297 0.0017376775 0.024588512 0.047199667 0.067956306 0.06697283 0.032868776 0.15280525
0.07051649 0.06621095 0.15007319 0.17576967 0.073574364 -0.0017372502 0.1803817 -0.007240504
0.047720782 -0.018302793 0.17498723 0.1529726 0.039369274 0.021997716 -0.04095245 0.07556831
0.1251528 -0.027322087 0.094998375 0.015936576 0.0009482618 -0.01943064 -0.10682951 -0.060715318
-0.19835392 -0.062339235 -0.2646312 -0.12348072 -0.13950492 -0.3996112 0.16481979 -0.012626295
0.1407984 -0.5360667 0.1889633 -0.09657388 0.15080254 -0.21628974 0.032335706 0.3151799
-0.06641757 -0.19641736 0.07377035 0.09540758 0.16544975 0.030237064 -0.0959512 0.07601851
-0.4267941 0.06383107 0.11368952 0.060218647 -0.964695 0.018997494 -0.014213981 -0.21821293
0.1458249 -0.10247437 0.08157331 -0.07908591 0.003166577 0.053226795 -0.017158374 0.11608159
-0.20015928 -0.060428575 0.082632266 0.16836727 0.117054135 -0.23118928 -0.18543261 -0.02449628
-0.06827528 -0.027193652 0.10836519 0.06301529 0.07884763 -0.121753864 -0.18009718 0.00016946546
0.1444302 -0.10010892 0.04736227 0.21625513 0.012941829 -0.017294327 0.07075188 -0.08878625
0.022962637 -0.05162658 0.036985066 0.029368687 0.09484109 0.054320987 0.06456151 -0.06634858
0.019240947 0.068894215 0.078349106 -0.00079217023 0.03730574 0.0091069 0.083645605 0.011694733
-0.019363401 0.14495307 -0.089380234 -0.028314654 0.11745707 -0.024140015 0.034500297 0.043468773
0.0041164844 0.08151318 -0.08876271 0.039668232 0.024436006 0.21257518 0.11134153 -0.082061335

fc2.bias f4 [16]
00000000: d4e4 9d3e 92c9 843e dd76 8cbe 4dc9 aebe
00000010: 3eda 033e fa73 2b3d dcf6 423d 6d51 613e
00000020: 4b42 ca39 4a6a aabe 72bf be3e 1419 b53c
00000030: 1c56 673d 860f 263e 37d7 473e 1328 373e
0.30838645 0.25935036 -0.27434435 -0.34137955 0.12876222 0.04185865 0.047598705 0.22003718
0.00038577834 -0.33284217 0.37255436 0.022106685 0.056478605 0.16216859 0.19515692 0.17886381

fc3.weight f4 [21, 16]
00000000: 546d 2c3d fff3 20bd 116a 78bc 7130 82bd
00000010: 33a9 f6bb 850e 623c e71e a93a 72c8 fe3b
00000020: 44c9 663a a08c a2bd 4b19 053e eddd 34bc
00000030: ed86 c03b 35e2 61bc 2833 4abe fea7 993d
00000040: 51aa 993d 8a1c 63bd de48 05bc d027 a0bd
00000050: 3b87 463c f831 653c 7b3d 2a3b 2215 3bbc
00000060: fd77 46bb 8f51 c9bd 092e 333e 8d76 41bc
00000070: e708 973b 1332 cdbc ae0d 53be 6691 143d
00000080: 5ff0 b13d 3219 993d f7e2 573c 28a2 20bc
00000090: ff3d 903b 5252 163b 3e1d 1839 04ad 80bd
000000a0: 3c0a 1c3b 3bfb 9bbd 88db 46bd 2858 6dbc
000000b0: 3127 ac3b 6f07 00bd e0b5 793d 38da a7bb
000000c0: c591 933d eca1 83bc 97fa b1bc 717a 43bd
000000d0: c91f 843c b200 acbd f6c8 873c bc4b 2abd
000000e0: 9774 5bbd 6d9b eebd b7f1 2e3e a634 68bd
000000f0: 6311 2dbd d4e5 893d 096d c5bd 161e 45bd
00000100: 003a f23d 5a37 103d 8bc5 a6bc 42e5 5dbd
00000110: 38c2 a93c cb47 c6bd d79e 963c 037f 4cbd
00000120: ac75 7dbd e4c4 1ebe 1dcf da3d b656 93bd
00000130: 8b66 47bd 3c3a 9b3d 8b5e 8fbd a391 7bbc
00000140: 357d a53c d01e 673d 4203 15bc cee7 45ba
00000150: a58d a53c 9d76 a3bd 9d33 483c e5af d83c
00000160: d65d 3abd 8a49 80bc 067e b0bd 449d 2bbd
00000170: 96c5 11bd 38fd c73d 5226 733d dec5 523c
00000180: feb7 063e d36b 803e c8ed f0bd 8a91 39be
00000190: 80ae 873d 8307 e5be ddf7 d63d b874 4d3d
000001a0: 28c5 80be f39f 64be e9d2 15be 5efb 9dbe
000001b0: 0b4e 58be 5df3 e73e 3a89 0b3e b46a 043e
000001c0: 004d 213d 6f52 d03d 33cd bbbd e40d 0abe
000001d0: c64a aabc 75ef dabe 1afe 8e3d 1615 6b37
000001e0: 5ed6 3fbe d7c5 52be 03f1 1e3e 3466 a3be
000001f0: aaee 2cbe c8ba 013f 3e1e a2bd 40b1 383d
00000200: 3337 293c 35bc 1d3d 927c 9cbd 8234 05be
00000210: d603 b53c 0936 e5be 09a4 923d ac37 ba3d
00000220: e59b 4bbe fb8a a8bd 3386 363d 76b4 92be
00000230: 345c 1bbe 3e7f 053f ba6e 17bd bc62 9c3d
00000240: 15d4 e8bb 703f af3d 9ad1 2fbe 218a 69be
00000250: 913d 05bd 431c 3ebf 9f3f 0f3e d121 943d
00000260: 0fc8 a1be d07e 2cbe 65fc 863d 4771 d3be
00000270: fdfb a2be 2ee2 463f ebae d3ba 8cbe 653e
00000280: 9ac9 e83d 37ce 4a3d 84b6 d0bd f51c 64be
00000290: bb21 893d fa9f 36bf 3f0e e83d dc41 233e
000002a0: 9540 9dbe f4d4 17be 6b22 fa3b cbe4 f0be
000002b0: c3eb 93be 72be 463f 1f7e 96bd 64b3 2f3e
000002c0: 3c12 f93d 713e 103e a1c1 f9bd ee0e 64be
000002d0: 7d67 183e 1fd7 3cbf 218a f53d a2ae 3e3e
000002e0: 422f a7be 7e03 1ebe 95c6 a1bd 5614 e7be
000002f0: 64f8 93be f2eb 423f 1456 073d bf06 b73d
00000300: 188d 773e 3fe5 453e 8e3c 28be 7d6d 9bbe
00000310: d3e0 c93d c1bb 92bf dfe5 463e 79a2 1c3c
00000320: b224 dcbe b744 9ebe 3fa1 a5bc f875 20bf
00000330: a231 ffbe 5f5c 953f 74f7 5f3e 8dbb bd3d
00000340: b081 8e3e 8890 7c3e 1dfb 24be 3d0b 8bbe
00000350: 8777 693d 5f4c 91bf b4f1 283e 4bc7 ce3d
00000360: bc7d e3be f050 c5be 2a33 62bd abd3 3ebf
00000370: ee0a ecbe 68ab 8b3f b521 533b 28bc 693e
00000380: 6c5e 973d 09e9 223e bd57 2abe 35a1 6fbe
00000390: 2ae3 043e 0b92 87bf febc 183e 4263 443e
000003a0: 50a0 c7be f963 2abe a492 2dbd 628c 1dbf
000003b0: 4745 d7be 4341 813f 14f2 8e3d b87c 9f3d
000003c0: 937d 96bd e90d 4ebd 694a 63be eeb2 a3be
000003d0: d98b 2f3e f439 9cbf 982c 563e 7688 703e
000003e0: a608 e7be e614 3dbd e8e5 883e bfca 2abf
000003f0: 7eaa 13bf 8ae3 aa3f 9c14 413d d9b3 bcbd
0.04209645 -0.039295193 -0.015162007 -0.06356896 -0.0075274943 0.013797407 0.0012902886 0.00777536
0.00088037946 -0.07936978 0.1299793 -0.011039239 0.0058754594 -0.013786842 -0.19746077 0.07502745
0.075031884 -0.05544714 -0.008135049 -0.07820094 0.012117202 0.013988964 0.0025976587 -0.011418613
-0.003028392 -0.09830009 0.1749803 -0.01180805 0.0046092155 -0.025048291 -0.20610687 0.036271475
0.08688425 0.07475509 0.013176671 -0.009804286 0.0044019218 0.002293725 0.00014506743 -0.06283
0.002380981 -0.07616278 -0.048549205 -0.01448635 0.0052536954 -0.03125709 0.060964465 -0.0051224492
0.07205538 -0.016068421 -0.021725936 -0.04772419 0.016128438 -0.0839857 0.016575318 -0.041576132
-0.053577986 -0.11650739 0.17084394 -0.056690834 -0.04225291 0.06733289 -0.096399374 -0.048124395
0.11827469 0.035209037 -0.020357868 -0.054173715 0.020722494 -0.09681662 0.018386288 -0.049925815
-0.0618798 -0.15504795 0.10684035 -0.07194273 -0.048681777 0.07579467 -0.070004545 -0.015354547
0.020201305 0.05642587 -0.009095015 -0.0007549495 0.020209143 -0.07981608 0.012219337 0.02645106
-0.045499645 -0.015660066 -0.08617787 -0.041898027 -0.035588823 0.097650945 0.059362717 0.012864558
0.13156125 0.25082263 -0.11764103 -0.18121925 0.0662508 -0.44732293 0.10496495 0.05016014
-0.25150418 -0.22326641 -0.14631237 -0.3085584 -0.21123521 0.4530286 0.13626567 0.12931329
0.039380074 0.10171973 -0.09169998 -0.13481861 -0.020787608 -0.42760816 0.0698206 1.4012001e-05
-0.18734118 -0.20583282 0.15521626 -0.31913912 -0.16887918 0.5067563 -0.079159245 0.045090914
0.010328102 0.038509566 -0.076409474 -0.13008311 0.022096556 -0.44767788 0.071601935 0.0909265
-0.19883688 -0.082296334 0.044561576 -0.28653306 -0.15171891 0.5214728 -0.03697083 0.076360196
-0.0071053603 0.085570216 -0.171698 -0.22806598 -0.032529417 -0.74261874 0.13989113 0.072330125
-0.31597945 -0.1684525 0.06591109 -0.4129736 -0.31832877 0.7768887 -0.0016150152 0.22435969
0.113665774 0.049513068 -0.10191062 -0.22276671 0.06695887 -0.71337855 0.11330842 0.15943092
-0.30713335 -0.14827329 0.0076334975 -0.47049555 -0.2889081 0.77634346 -0.073482744 0.17158276
0.12161681 0.1408632 -0.12195135 -0.2227132 0.14883228 -0.7376575 0.119892366 0.18621305
-0.32653242 -0.1543102 -0.07899205 -0.45132703 -0.28900445 0.76141274 0.033041075 0.089368336
0.24174917 0.19325732 -0.1642935 -0.3035697 0.09857335 -1.1463548 0.19423626 0.009560221
-0.42996746 -0.309118 -0.02021849 -0.62680006 -0.49842554 1.1668814 0.2187174 0.09264288
0.2783332 0.2466451 -0.16111417 -0.27157012 0.056998756 -1.1351432 0.16498452 0.10096606
-0.44431865 -0.38538313 -0.055224575 -0.7454173 -0.4610209 1.0911684 0.0032216136 0.22825682
0.073910564 0.15909208 -0.16635032 -0.2340134 0.12977281 -1.0591444 0.14915845 0.19178489
-0.38989496 -0.16639699 -0.042376176 -0.6154233 -0.42045042 1.0098041 0.069797665 0.0778746
-0.0734817 -0.050306235 -0.22196354 -0.3197245 0.17143191 -1.2205186 0.20915449 0.23489556
-0.45123786 -0.04616251 0.26737905 -0.66715616 -0.57682025 1.335069 0.047138795 -0.09213991

fc3.bias f4 [21]
00000000: 2354 203f a2d5 e33e 45e0 bf3e a569 0e3f
00000010: d38c cd3e 7bf1 cd3e 035e 5a3e 79de a43e
00000020: 72f4 6d3e aea0 723e eb17 6d3e dbd6 083d
00000030: 9b83 cf3c 0574 713b c0f4 b13d 0d1b 8a3e
00000040: b07f a33e 49b4 78bb e6dc 0d3e 4203 4e3e
00000050: 2117 caba
0.6262838 0.44498926 0.37475792 0.5562995 0.40146503 0.40223297 0.21324925 0.32200983
0.2323778 0.23694107 0.23153655 0.033408027 0.025331309 0.0036842835 0.086892605 0.26973763
0.31933355 -0.0037949255 0.13853797 0.2011843 -0.001541827

fc1.weight f4 [32, 7]
00000000: 3e71 3d3e 850c 98be 0107 a2be 8540 3dbd
00000010: a9c6 1e3e b111 97be c3a1 08be e216 123e
00000020: 30c9 2c3e 708d 1c3e d674 cbbd 2c11 623e
00000030: 7872 b33d 57de 1e3d 365f a13e c302 18be
00000040: a2e0 3dbe 6e07 c23e 0ee4 533e 79fd f2bd
00000050: a73a b73e 985b 23be ff23 a63e b49d e53d
00000060: c544 85be 2226 0b3e e182 9cbe 165e a6bd
00000070: 9457 2cbd adc6 5fbe 8d51 b7bd 9e4f 113e
00000080: 825d e83d b088 8cbd 4b10 a43e e23a 88be
00000090: 0cdb 6fbe fe47 82be b746 23bc c595 d9bd
000000a0: f3cf 9dbe 40ef ffbc 5230 4ebd c530 30be
000000b0: 55d1 7bbd b5f8 cabd 9902 913e cf50 9fbe
000000c0: 5cbd 613c 74d6 ef3d 7f38 d23d 7e8a c03e
000000d0: 9e72 7f3d d692 a0be 0029 9f3e d2d6 8abe
000000e0: 197c 3f3e aa24 28be 888a 0bbe 544b fd3d
000000f0: ec7e 5b3e 8779 8bbe 6271 a9be 0172 c23e
00000100: d8c9 113e 1547 aa3e 81f2 023e 1ca2 8bbe
00000110: 96da 8bbe cb15 9c3e 9967 79bc 041f a73d
00000120: 0d7b 4d3e 4205 fb3c 12b5 90bd 9f4d b4bd
00000130: ff4e 1bbe 7408 363d 20bf 87be 53bf 05be
00000140: 3f51 093b 2de3 bbbd 1a2d 833e 8ce9 d3bd
00000150: 5a55 75be f471 033f ca61 8abe 9013 92be
00000160: 86f8 9cbe 6905 fcbd 80ea 173c 319c 383e
00000170: ea5c 16bc 1343 86be 778a 20bd 8d10 283e
00000180: 576f 4ebe 92c0 723e 11ea 293e acb1 113e
00000190: 77bd b0ba 41fe 99be 16f4 5c3c c7c7 063d
000001a0: 8eef 783d e75b 20bc d568 5f3e 54b0 ea3e
000001b0: d71a dcbb d31f c2be ba07 dcbd 75d5 143e
000001c0: 1cea 37be c1e8 8ebe 6fd0 bc3e 3a7d 16bd
000001d0: d20b 813e 5a74 1bbe 97c0 81bd 5bd7 5ebe
000001e0: 45a0 d0bd 66c4 543e 9c84 22be c341 ecbd
000001f0: ab65 923e 8a41 0bbe af7e 14bd 30de 42be
00000200: c7da 053c 4bcc 98bd be48 f33d 0e1f af3e
00000210: b857 383c 8653 05be 7cdb 7d3e 4421 753e
00000220: 6bc2 17bd 58a7 4fbe 9926 bf3d f2c4 353e
00000230: d3a5 083c ad85 96bc 43b0 cb3c 5e1b 3abe
00000240: fd6f 0b3e 9180 1fbe 568b 193e 8d71 4e3e
00000250: 46a9 e73d 976e adbd 5cc7 bdbe 6aa7 6d3d
00000260: 3e4f 5c3e 11d5 febd 947f 9a3d 29cb 61bd
00000270: e753 763e 158b 5f3d 71d8 8fbd 90a9 ad3e
00000280: 8d11 e93c ef4c 80bd 9346 fc3b 3a9b 1f3e
00000290: 9a33 253e 40f7 da3d 7d7d 763e a352 6a3d
000002a0: 6104 963d 6949 dfbe b92a 383e 4250 543d
000002b0: 1c75 5fbc 9eb9 ea3d 7bd9 7d3e 610e 483e
000002c0: 299d 8abe 54b4 253d 217d 993e 6661 203e
000002d0: fae6 823e beca 31be 1937 d4be f5ef 5fbe
000002e0: 0e76 70bd 9165 ae3d 9d4f ccbe 497e 4e3e
000002f0: 4d2f e03e 35bf 513d 3afc 673e d29b b7be
00000300: 4821 2cbd 2dc3 563e b667 03bf 8ca7 913d
00000310: 1593 4fbe dcb7 df3e 1e7b 983e 1511 333e
00000320: 27bb 94be 61ec 693e 4d4c f73c f1a0 433e
00000330: cc9d 8a3b 9e56 e83c bae3 11bd 1ef3 48bd
00000340: 71e5 c33e 1f2f 03be ce82 71be 2061 abbd
00000350: e027 433d cf44 64bd 0507 7abe 2e42 333e
00000360: df6f a23e 7083 06be 856d cabd 8f31 15be
00000370: a557 a3be 72c6 f3bd 9ca4 313e 67bb 773b
0.1850023 -0.29697052 -0.3164597 -0.04620411 0.1550547 -0.29505685 -0.13342957 0.14266542
0.16873622 0.15288329 -0.09934394 0.22076863 0.087620676 0.03878626 0.31517953 -0.14844804
-0.18542722 0.37896293 0.20692465 -0.11864752 0.35786936 -0.15952909 0.32449338 0.1121172
-0.2602903 0.13588765 -0.30568603 -0.08123414 -0.04207571 -0.21853133 -0.089511015 0.14190528
0.1134596 -0.068620086 0.3204368 -0.26607424 -0.23423404 -0.2544555 -0.00996559 -0.106242694
-0.30822715 -0.031242013 -0.05033905 -0.17206104 -0.06147893 -0.09910718 0.28322294 -0.3111634
0.013778057 0.117108256 0.10264682 0.3760566 0.062365167 -0.31362027 0.31085968 -0.2711702
0.18699683 -0.16420236 -0.13627064 0.12367883 0.21435136 -0.27241156 -0.33094317 0.37977603
0.14237154 0.33257356 0.1278782 -0.27272117 -0.27315205 0.30485377 -0.0152224535 0.08160213
0.20066471 0.030642156 -0.070657864 -0.088038675 -0.15166853 0.044441655 -0.26513004 -0.13061266
0.0020952967 -0.0917419 0.25620347 -0.1034728 -0.2395834 0.51345754 -0.27027732 -0.2853055
-0.30658358 -0.123057194 0.009272218 0.18028332 -0.009177426 -0.2622305 -0.03919455 0.16412564
-0.2015966 0.23706272 0.16593195 0.14227933 -0.0013484199 -0.30076793 0.013485929 0.032905366
0.060775332 -0.009787536 0.21817334 0.45837653 -0.0067170667 -0.37914905 -0.10743661 0.14534552
-0.179604 -0.27911952 0.36877772 -0.03674052 0.2520433 -0.15181103 -0.06335562 -0.21761839
-0.10186819 0.20778045 -0.15870899 -0.115359806 0.28593192 -0.1359922 -0.036253627 -0.1903007
0.008169836 -0.07460841 0.11879109 0.3420338 0.0112513825 -0.13020143 0.24790758 0.23938471
-0.037050646 -0.2027868 0.09333534 0.1775091 0.008340317 -0.018374288 0.024864322 -0.18174502
0.13616939 -0.15576388 0.14994559 0.20160504 0.11311583 -0.08468359 -0.37066162 0.058020987
0.21514603 -0.12442983 0.07543865 -0.05512539 0.24055444 0.054576 -0.07023705 0.33918428
0.028450752 -0.06264674 0.007698843 0.15586558 0.16132966 0.106916904 0.24071307 0.057207715
0.07325054 -0.43610695 0.17985047 0.051834352 -0.013638761 0.11461185 0.24789993 0.19536735
-0.2707303 0.040455177 0.29978278 0.15662155 0.25566846 -0.17362496 -0.41448286 -0.2186888
-0.058706336 0.08515466 -0.3990449 0.20165361 0.43786088 0.05120774 0.2265481 -0.3586107
-0.042023927 0.20972891 -0.51330125 0.07112035 -0.20270951 0.4369496 0.2978143 0.17486985
-0.29049036 0.22844078 0.03018775 0.19104363 0.0042302366 0.028361615 -0.035617568 -0.04905998
0.38260987 -0.12810944 -0.23585054 -0.083681345 0.04764545 -0.055729683 -0.2441674 0.17505714
0.31725976 -0.13136077 -0.098841704 -0.14569686 -0.31902805 -0.11903085 0.1734795 0.003780091

fc1.bias f4 [32]
00000000: 7f36 ef3e 5e72 fabd e59b 943e 3921 293f
00000010: fac8 9f3e cee8 f43e 0b19 133e f44a 5c3e
00000020: fedc 27be 7511 85be 72bc a23e 06b1 dc3e
00000030: 19e2 d03e 5665 cbbd 3894 133f 5080 973d
00000040: 11ea 2d3f 5ee7 f33e 68fa d9bd 7e68 dd3e
00000050: f2d0 0a3f f4c8 993e 5519 1cbe d304 133f
00000060: 254e 733e aade ed3e e4b6 d9bd 6ebe 2a3e
00000070: 322f 2bbe 893d ff3e da41 2b3d e1a5 a53e
0.46721265 -0.12228845 0.29025188 0.6606632 0.3120802 0.47833866 0.14365022 0.21512967
-0.16392896 -0.2598988 0.31784397 0.43103808 0.407975 -0.09931438 0.5764804 0.073975205
0.6793528 0.47637457 -0.10643464 0.43243784 0.54225075 0.30036128 -0.15244038 0.57429236
0.23760279 0.46458942 -0.10630587 0.16674206 -0.16717222 0.49851635 0.041810848 0.32353118

fc2.weight f4 [16, 32]
00000000: cb9e 64bb e33b a9ba e2d6 ef3d 5d4c c53d
00000010: ee06 833c a320 e53d de91 523c 411a 08bd
00000020: c959 dd3b c4b1 043d 33c3 b83d cb73 3c3e
00000030: 7e6d a23d aa15 26bd a1db 273e 36fd 4d3c
00000040: f70e 303d 28c9 1b3d ba59 0bbd 7be1 783d
00000050: ff7e 13bd 9734 3bbc 2679 5ebd e93a 103e
00000060: 389c dfbc 0ba8 dc3d ce07 dcbb f3c0 da3d
00000070: a840 a03c 9316 3e3b a31e 9f3d 8613 4cbd
00000080: f60e 8b3d 27bc 083e 29c6 013e 369d 2a3e
00000090: 7b96 813d b1f4 c03d 7e60 ae3b c622 d73d
000000a0: a102 ea3d 555a 883d b522 8e3d bee8 423e
000000b0: a99d 2e3e 4deb 193d 35dc c6bc d0e0 f93c
000000c0: 553c b83d 187f 14bd 9705 463e 049b 023e
000000d0: ff0f 983d 4e08 f5bc 6c58 533d d661 47bd
000000e0: c3ee 083d 959b 733d 7765 a93d 7046 653d
000000f0: 59ae 1a3d 670e eb3d 040a 8c3c ed70 dabc
00000100: 67e3 973c 2dea 1c3e 214b b0bc 2154 c03b
00000110: b122 1b3e bc92 37bb a9dc babb 6702 0a3e
00000120: 188d 203e c0c9 a53d a898 d1bd 0159 803d
00000130: 8105 563d 1585 893d 582a 8e3c 7ede 673d
00000140: 2f10 a93d 5e95 4c3d 89e0 073d e6c9 06be
00000150: 6bb0 573d ee79 233d 253f ce3d 0b71 bcbd
00000160: 5fbb c33d 37f7 11bd 8e42 a53d 4bbd 41bc
00000170: eff1 113e 6449 0f3d 3b15 e2bc 5057 02bc
00000180: f5d3 983c 53bf ce3b f02b 0d3d 1dc1 7a3d
00000190: 10f3 9b3d 90db cb3d d424 7abd 17f7 b63d
000001a0: b3c0 f23d 86a8 a33d fb29 373d d5aa 093e
000001b0: 584d d73d 26ce e23d d250 6d3a cd3b 373d
000001c0: 5ce5 ad3d 2e67 f3bc 2222 1d3e 8e9c d4bb
000001d0: 85a1 b13d 5783 173e 3db3 423e d3c8 78bd
000001e0: 6ffb 683d d8d3 46bc 3ae9 dd3d 047d adbd
000001f0: 4d31 d33d 630f a3bd ca45 aabd 69e2 bfbd
00000200: 9615 f73d 98f0 f13a 4462 ca3c 8951 413d
00000210: 8893 8b3d 260c 893d 8c74 063d e873 1c3e
00000220: 6aba 903d 7453 873d 3d93 193e 1c0a 343e
00000230: f07a 963d def0 e8ba c2b6 383e 7caf f2bb
00000240: 87c1 433d d372 95bc d445 333e e2b0 1c3e
00000250: 7331 213d a869 b43c 3a6f 27bd 1cce 9a3d
00000260: 0133 003e 3eec debc 5c9b c23d de2e 833c
00000270: a8bb 6e3a e577 9fbc e1e0 dabd 4aaf 78bd
00000280: 9937 4bbe 4a42 7fbd c155 87be 24c2 fcbd
00000290: 4664 0ebe 12b3 ccbe 6cc0 283e 5fdf 4fbc
000002a0: 6a35 103e e027 09bf 4f7c 413e 8972 c6bd
000002b0: 5261 1a3e 2635 5dbe 368e 043d d724 a13e
000002c0: aa07 88bd 0c14 49be 22d5 963d 8f44 c33d
000002d0: ff7f 293e 5c57 f73c 4622 c5bd 5a63 9b3d
000002e0: a43e dabe 18cd 823d c32b e93d 466b 763d
000002f0: 0ec7 76bf 36e1 9a3c f40c 67bc 09fe 5ebe
00000300: d534 153e b571 d1bd dcea a63d c4ba a1bd
00000310: 7e3d 633b f2d4 593d 8ff3 8bbc c171 ed3d
00000320: e70e 4dbe 60ff 77bd 7e97 a93d e84d 2c3e
00000330: 26bf ef3d 70a3 6cbe 49f0 3dbe 89eb c9bc
00000340: 03ae 8bbd 69fb debc 6403 de3d d7db 803d
00000350: a955 a13d d754 f9bd b64a 38be df9d ce37
00000360: 3d0d 143e 404b cdbd 8ed7 413d 746d 5d3e
00000370: b089 563c ba97 8ebc 8cba 903d 92ec b5bd
00000380: 0345 bc3c 2c5e 53bd 7dd9 173d 87f4 f03c
00000390: f694 c23d 2285 5e3d c831 843d e1fe 87bd
000003a0: 8c1f 9f3c 20bc 8c3d be12 a03d 3679 53ba
000003b0: 7b74 183d 112b 153c 463e ab3d fe83 3d3c
000003c0: 6928 9dbc 5c7e 143e b7d8 b6bd 0274 e8bc
000003d0: 47a0 f03d 11bb c5bc 4df1 0d3d 4e3c 323d
000003e0: 9861 873b de46 a73d a39c b5bd 4f65 223d
000003f0: 7590 c73c 24a1 593e 79ce e33d ce0f a8bd
-0.0034884687 -0.0012911524 0.117109075 0.09633706 0.015994515 0.111878656 0.01285216 -0.033228163
0.006755088 0.032396093 0.09021606 0.18403547 0.0793104 -0.040548004 0.16392376 0.012572577
0.04298302 0.038033634 -0.034021117 0.06076191 -0.036009785 -0.011426113 -0.054314755 0.14084972
-0.02729617 0.10774239 -0.0067147976 0.106813334 0.01956208 0.0029005155 0.07769515 -0.049823307
0.06789963 0.13353024 0.12673248 0.16661534 0.0632753 0.09421671 0.0053215614 0.105046794
0.11426283 0.066578545 0.069402136 0.19034097 0.1705233 0.037577916 -0.024274925 0.030502707
0.089958824 -0.03625402 0.1933807 0.12754446 0.07424926 -0.029911187 0.051597998 -0.048677288
0.033430826 0.059474546 0.08271306 0.055975378 0.037763927 0.114773564 0.01709462 -0.026665175
0.018541051 0.15323706 -0.0215202 0.005869404 0.15149952 -0.0028011044 -0.0057025743 0.13477479
0.15678823 0.080951214 -0.10234195 0.06266976 0.052251343 0.067148365 0.017354175 0.05660867
0.0825504 0.049947135 0.033173118 -0.13162956 0.05265848 0.039911203 0.100706376 -0.09201249
0.095572226 -0.035636153 0.08069335 -0.011824916 0.14252447 0.0349821 -0.027598014 -0.007955387
0.018655756 0.0063094287 0.03446573 0.061219323 0.0761472 0.099539876 -0.06107028 0.089338474
0.11853161 0.07991128 0.04471777 0.13444073 0.10512799 0.11074476 0.00090528757 0.044734765
0.084910125 -0.029712286 0.15345052 -0.0064883893 0.086733855 0.14796196 0.19013686 -0.060738396
0.05688041 -0.012135468 0.108355 -0.084711105 0.10312138 -0.07961919 -0.083140925 -0.09369356
0.12064664 0.0018458543 0.02470506 0.0471969 0.06815249 0.0669177 0.03282599 0.1527859
0.07066806 0.06607714 0.14997573 0.17581981 0.07347667 -0.0017771979 0.18038467 -0.0074061733
0.047791984 -0.018243229 0.17507106 0.1530185 0.0393538 0.022023037 -0.04087756 0.075588435
0.12519456 -0.027212258 0.09502289 0.016013559 0.00091069425 -0.01946635 -0.106874235 -0.060714044
-0.19845428 -0.062319078 -0.26432613 -0.12341717 -0.13905439 -0.3998037 0.16479653 -0.012687533
0.14082876 -0.5357647 0.18895076 -0.096898146 0.15076187 -0.21602306 0.032362185 0.3147342
-0.06642087 -0.19636554 0.073648706 0.09534561 0.16552733 0.030193023 -0.09625678 0.07587309
-0.42625916 0.06386775 0.113853 0.060160898 -0.96397483 0.018906217 -0.014102209 -0.21776594
0.14570935 -0.10226766 0.081502646 -0.07896951 0.0034674103 0.053181596 -0.017083911 0.115939625
-0.20025216 -0.06054628 0.08280848 0.16826594 0.117063805 -0.23109221 -0.18548693 -0.024648445
-0.068202995 -0.027219491 0.108404905 0.06291931 0.078776665 -0.12174385 -0.1799725 2.4630628e-05
0.14458175 -0.100241184 0.04732471 0.21623784 0.013094351 -0.017406333 0.07066831 -0.08883013
0.022982126 -0.05160348 0.037072647 0.029413475 0.09501068 0.054326184 0.064548075 -0.06640411
0.019424222 0.068718195 0.07816075 -0.0008067073 0.03722046 0.009104506 0.08361487 0.011567114
-0.019184308 0.14501327 -0.08928054 -0.02837563 0.117493205 -0.024137052 0.03465395 0.043514542
0.004131507 0.08167814 -0.08867767 0.039647397 0.024360875 0.21252877 0.11123366 -0.082061395

fc2.bias f4 [16]
00000000: e3e4 9d3e a1c7 843e bd80 8cbe eed0 aebe
00000010: 7dea 033e 353f 2b3d caa9 423d d569 613e
00000020: bdfe 9039 0771 aabe 4bd2 be3e 2783 b43c
00000030: 974a 673d 2b09 263e f3f3 473e d628 373e
0.3083869 0.25933555 -0.2744197 -0.34143776 0.12882419 0.041808326 0.047525205 0.22013028
0.00027655615 -0.33289358 0.37269816 0.022035195 0.05646762 0.16214435 0.19526653 0.17886671

fc3.weight f4 [21, 16]
00000000: cbd7 2c3d 04b2 20bd 4a2e 77bc b35f 82bd
00000010: 3327 f3bb eaf4 603c 731c aa3a e62f 003c
00000020: 38e5 6f3a f9a6 a2bd cc18 053e ddfa 35bc
00000030: 22e4 b83b 1ace 61bc 1e3f 4abe 88bf 993d
00000040: 0de1 993d a4e0 62bd 2e90 04bc bd6e a0bd
00000050: f502 493c 11c7 633c 3565 2b3b 65fa 39bc
00000060: 8d2c 46bb ee6b c9bd 162d 333e 71a8 42bc
00000070: 8c19 8f3b 6028 cdbc fd13 53be 8999 143d
00000080: b809 b23d 5251 993d 2186 583c b4c6 20bc
00000090: 8a71 943b e9c7 113b 75ec 4839 1095 80bd
000000a0: f150 1e3b ce0a 9cbd 90ca 46bd 267d 6dbc
000000b0: 300a a53b 88dc ffbc 18ac 793d 2dc9 a8bb
000000c0: d99b 933d 9abe 83bc 917f b3bc 275d 44bd
000000d0: cb26 843c f4d3 abbd e5a6 873c 2f4a 2abd
000000e0: fe03 5cbd daf2 eebd f6ea 2e3e 7eb7 67bd
000000f0: fd08 2cbd 01cc 893d a66b c5bd 9654 45bd
00000100: 2e51 f23d 8f2e 103d f672 a8bc ffef 5ebd
00000110: fa15 aa3c 982b c6bd 717c 963c be5d 4cbd
00000120: 2822 7ebd c1f2 1ebe f7c1 da3d ca15 93bd
00000130: 5d97 46bd 5c14 9b3d da54 8fbd d016 7cbc
00000140: a1a5 a53c e8e2 663d d5b8 16bc 2973 60ba
00000150: 465d a53c b637 a3bd 4c3f 473c 899a d83c
00000160: 91dc 3abd 5e20 81bc 3695 b0bd 2954 2bbd
00000170: 7fcd 10bd 9ec7 c73d 2608 733d 5147 523c
00000180: 589d 063e fc59 803e 0d70 f1bd 41c7 39be
00000190: 5aa1 873d f7cb e4be 7d15 d73d bd7a 4d3d
000001a0: b5c7 80be 38ae 64be 18e0 15be c3bb 9dbe
000001b0: 1145 58be 83bd e73e 29a2 0b3e ff60 043e
000001c0: 6138 213d 0e38 d03d ced7 bbbd 2318 0abe
000001d0: 4202 abbc b8af dabe 37dc 8e3d c50e e1b7
000001e0: 30b3 3fbe 97d4 52be f3e9 1e3e 250f a3be
000001f0: 1bc8 2cbe 4b9d 013f cc22 a2bd 007e 383d
00000200: 52c6 283c f033 1d3d 1f83 9cbd 8745 05be
00000210: 8e27 b43c 5cf1 e4be 7075 923d 6719 ba3d
00000220: 157f 4bbe 61ae a8bd 244f 363d b162 92be
00000230: d32d 1bbe 3363 053f 9270 17bd af4a 9c3d
00000240: 6320 eabb 2f11 af3d fed7 2fbe 4ead 69be
00000250: c762 05bd 5ae3 3dbf 453c 0f3e e0fe 933d
00000260: 859f a1be b978 2cbe 6c05 873d aded d2be
00000270: 72db a2be c0b8 463f 77d1 c4ba d0cd 653e
00000280: ece4 e83d 5d8a 4a3d 7c87 d0bd bb29 64be
00000290: 5a19 893d 8b67 36bf eed4 e73d c346 233e
000002a0: be21 9dbe c0d4 17be 1de3 f93b 645c f0be
000002b0: 8fda 93be dd93 463f cb6d 96bd dfb5 2f3e
000002c0: dc12 f93d 7e2b 103e 84e7 f9bd 281b 64be
000002d0: 926b 183e 7598 3cbf e54a f53d 4eaf 3e3e
000002e0: 491c a7be 6615 1ebe cadd a1bd 7799 e6be
000002f0: 6de3 93be 2dc0 423f 9f4e 073d 82eb b63d
00000300: 629c 773e 6df1 453e 932a 28be 8471 9bbe
00000310: 770e ca3d 9484 92bf bece 463e def1 1b3c
00000320: 93dd dbbe 4b3e 9ebe 3544 a5bc ed15 20bf
00000330: 2def febe 4033 953f fe00 603e a4d9 bd3d
00000340: 3c8a 8e3e c9a0 7c3e d7c6 24be 3911 8bbe
00000350: 3092 693d 8515 91bf a1c0 283e 54c6 ce3d
00000360: d947 e3be 334d c5be d92d 62bd af64 3ebf
00000370: 2adf ebbe 557f 8b3f f8f1 4f3b 95bb 693e
00000380: 176d 973d 3dfd 223e 832e 2abe 63ad 6fbe
00000390: 7cf0 043e 485a 87bf 019c 183e 025d 443e
000003a0: 6079 c7be 0c59 2abe 7f92 2dbd 4025 1dbf
000003b0: ea17 d7be 0f19 813f 9dcd 8e3d de6e 9f3d
000003c0: 6d5e 96bd ae9c 4dbd 532a 63be 46af a3be
000003d0: 2ca3 2f3e 57f7 9bbf ba11 563e 388b 703e
000003e0: 93b9 e6be d7cc 3cbd 14ef 883e c162 2abf
000003f0: 1b88 13bf 95ba aa3f 9c2c 413d 7c9a bcbd
0.042197984 -0.03923227 -0.01508672 -0.063659094 -0.0074204444 0.013730267 0.0012978449 0.00782392
0.0009151283 -0.07942004 0.1299774 -0.011107174 0.00564243 -0.013782049 -0.1975064 0.07507235
0.07513628 -0.055390015 -0.008091016 -0.07833622 0.012268771 0.013902442 0.0026152853 -0.011351203
-0.0030238957 -0.09835039 0.17497668 -0.01188098 0.004367059 -0.025043666 -0.20613094 0.036279235
0.0869326 0.07486214 0.013215573 -0.0098129995 0.0045301365 0.00222444 0.00019161573 -0.062784314
0.0024157132 -0.07619248 -0.048533022 -0.01449517 0.005036615 -0.031233087 0.060955137 -0.005150935
0.0720746 -0.016082097 -0.021911414 -0.0479404 0.01613178 -0.08390036 0.016559074 -0.041574653
-0.053714745 -0.11667414 0.17081818 -0.056571476 -0.04200076 0.06728364 -0.09639673 -0.04817637
0.1183189 0.03520065 -0.02056263 -0.054428097 0.020762432 -0.096762836 0.018369885 -0.049894087
-0.062044293 -0.15522291 0.10681527 -0.0718189 -0.048484195 0.075722426 -0.06998606 -0.015386298
0.02022058 0.05636874 -0.009199341 -0.0008562082 0.020186078 -0.079696104 0.012161087 0.026440876
-0.045620505 -0.015762504 -0.0862221 -0.04182831 -0.035352226 0.09754871 0.059333943 0.012834386
0.1314596 0.25068653 -0.1178895 -0.18142416 0.06622572 -0.44686863 0.105021454 0.05016588
-0.25152364 -0.22332084 -0.14636266 -0.30807313 -0.21120097 0.45261773 0.13636078 0.12927626
0.039360408 0.101669416 -0.09172021 -0.1348577 -0.0208751 -0.42712188 0.069755964 -2.6828968e-05
-0.18720698 -0.20588909 0.15518932 -0.31847492 -0.16873209 0.50630635 -0.07916793 0.045042038
0.0103011895 0.03837961 -0.07642197 -0.13014804 0.021991517 -0.44715393 0.07151306 0.09086876
-0.19872697 -0.08236385 0.044509068 -0.2859092 -0.151542 0.5210449 -0.03697259 0.07631432
-0.007144974 0.085481994 -0.17172238 -0.22820017 -0.032564905 -0.74175036 0.13987835 0.07226348
-0.31567016 -0.16842927 0.06592831 -0.41196957 -0.31808048 0.77625656 -0.0015016039 0.22441792
0.113717884 0.04944836 -0.101820916 -0.22281544 0.066942886 -0.71251744 0.1131991 0.15944962
-0.30689806 -0.14827251 0.007625951 -0.46945488 -0.28877684 0.7756937 -0.0734516 0.17159222
0.121618 0.14079091 -0.12202361 -0.22275984 0.14884785 -0.7367013 0.119771756 0.18621561
-0.32638767 -0.1543785 -0.07903631 -0.4503896 -0.2888445 0.76074487 0.033033963 0.08931638
0.24180749 0.19330378 -0.16422491 -0.30360043 0.0986604 -1.144671 0.19414803 0.009518115
-0.42942485 -0.309069 -0.020174125 -0.62533456 -0.49791852 1.1656265 0.21875378 0.09270027
0.2783984 0.2467071 -0.16091476 -0.27161577 0.05702418 -1.1334692 0.16479732 0.10096422
-0.44390753 -0.3853546 -0.055219505 -0.7437238 -0.46068698 1.0898234 0.0031729918 0.22825463
0.07393854 0.15916915 -0.16619305 -0.23405986 0.12982363 -1.0574427 0.14903261 0.19176105
-0.3895979 -0.16635531 -0.042376038 -0.61384964 -0.42010432 1.0085772 0.06972811 0.07784818
-0.07342229 -0.05019825 -0.22184114 -0.3196966 0.17152089 -1.2184857 0.209052 0.23490608
-0.45063457 -0.046093788 0.26744902 -0.66556937 -0.57629555 1.333819 0.047161683 -0.09209153

fc3.bias f4 [21]
00000000: c242 203f caa9 e33e 24c6 bf3e 4356 0e3f
00000010: 7d5a cd3e bfe5 cd3e 1ff3 593e 4bd5 a43e
00000020: 7ae3 6d3e e992 723e 6311 6d3e 724b 083d
00000030: d703 d03c 7a49 753b e32e b23d 8837 8a3e
00000040: 0c9d a33e 8a89 77bb 4af3 0d3e 661f 4e3e
00000050: 9d85 caba
0.62601864 0.44465476 0.37455857 0.55600375 0.401081 0.40214345 0.2128415 0.3219398
0.23231307 0.23688854 0.23151164 0.033275075 0.025392456 0.0037427829 0.08700349 0.26995492
0.31955755 -0.0037771189 0.13862339 0.20129165 -0.0015451197
