logs/sdf_single_scene_3_spheres/state_90.pt (torch, 13071 bytes, 12 tensors)

fc1.weight f4 [32, 7]
0	0x3e3c9f0b	0.18420045
1	0xbe9937c5	-0.2992536
2	0xbea1cce1	-0.31601623
3	0xbd4e1ec3	-0.050322305
4	0x3e1df7c1	0.15426542
5	0xbe979436	-0.29605263
6	0xbe08d8bc	-0.13363928
7	0x3e131d83	0.14366727
8	0x3e2f8eae	0.17144272
9	0x3e1d880e	0.15383932
10	0xbdcd5819	-0.10026569
11	0x3e639699	0.22225417
12	0x3db37193	0.08761897
13	0x3d1fbb35	0.038996894
14	0x3ea1313c	0.31482875
15	0xbe152f80	-0.14568901
16	0xbe3a5522	-0.18196538
17	0x3ec464fd	0.38358298
18	0x3e580826	0.21096858
19	0xbdf91c6d	-0.12163625
20	0x3eb56af7	0.3543317
21	0xbe24ad57	-0.16081749
22	0x3ea73d95	0.3266417
23	0x3de6c7e8	0.11268598
24	0xbe854a03	-0.2603303
25	0x3e0cb839	0.1374215
26	0xbe9c3585	-0.30509582
27	0xbda6eccb	-0.081506334
28	0xbd27b1a3	-0.040940892
29	0xbe67d8df	-0.22641324
30	0xbd9f3b94	-0.077750355
31	0x3e0e3302	0.13886645
32	0x3de3a6f9	0.11115832
33	0xbd910ed4	-0.07082906
34	0x3ea5ed98	0.32407832
35	0xbe89159f	-0.26774308
36	0xbe6fbe8a	-0.23412529
37	0xbe825538	-0.25455642
38	0xbc418068	-0.0118104
39	0xbdd8fccb	-0.105950914
40	0xbe9d7a44	-0.30757344
41	0xbd0a8cb0	-0.033825576
42	0xbd501cf7	-0.050808873
43	0xbe3128fb	-0.17300789
44	0xbd82b9a4	-0.063830644
45	0xbdbcb68b	-0.09214505
46	0x3e90e3ff	0.28298947
47	0xbe9fcba5	-0.31210056
48	0x3c78d950	0.01518853
49	0x3deb3f4f	0.114866845
50	0x3dc98ed6	0.09841697
51	0x3ec50e48	0.38487458
52	0x3d7f4c72	0.062328763
53	0xbe9f1478	-0.31070304
54	0x3ea0de16	0.31419438
55	0xbe8bdafa	-0.27315503
56	0x3e427b63	0.18992381
57	0xbe2f1bca	-0.17100444
58	0xbe0bea6b	-0.13663642
59	0x3df75b24	0.120779306
60	0x3e5be8bd	0.21475501
61	0xbe8cfc3e	-0.27536196
62	0xbea82da9	-0.32847336
63	0x3ec2cb2c	0.38045633
64	0x3e11f853	0.14254884
65	0x3eab2b5f	0.33431527
66	0x3e015a02	0.12631992
67	0xbe8c07f9	-0.27349833
68	0xbe8c10e4	-0.27356637
69	0x3e9c3a24	0.30513108
70	0xbc7d27f5	-0.015451421
71	0x3da4031e	0.08008407
72	0x3e4fc6c9	0.20290674
73	0x3cea0218	0.028565452
74	0xbd90d38b	-0.070715986
75	0xbdb135a2	-0.08652808
76	0xbe1d7a05	-0.15378578
77	0x3d432af7	0.047648396
78	0xbe8515f1	-0.25993302
79	0xbe08a1f6	-0.13343033
80	0x3b84ee48	0.0040567257
81	0xbdc0d4f4	-0.094156176
82	0x3e849f8b	0.25902972
83	0xbdd6fb89	-0.10497195
84	0xbe7537c5	-0.23947056
85	0x3f033407	0.5125126
86	0xbe89f194	-0.26942122
87	0xbe91d3e1	-0.28481963
88	0xbe9c8478	-0.30569816
89	0xbdfdd445	-0.12394003
90	0x3c0661c5	0.008202021
91	0x3e3a864c	0.18215293
92	0xbbecf48a	-0.0072312998
93	0xbe86fe0e	-0.26365703
94	0xbd1d089a	-0.03833828
95	0x3e29caf6	0.1658133
96	0xbe4f71af	-0.2025821
97	0x3e73fd93	0.238272
98	0x3e2be38a	0.16786018
99	0x3e1283d0	0.14308095
100	0x3aca7f67	0.0015449346
101	0xbe997b03	-0.29976663
102	0x3c099dc4	0.008399431
103	0x3d0d6a18	0.034525007
104	0x3d6ea1a7	0.058259632
105	0xbb8f119d	-0.0043661133
106	0x3e61eff7	0.22064196
107	0x3eee41e0	0.46534634
108	0xbba6ff31	-0.005096339
109	0xbec188e6	-0.37799758
110	0xbdd69802	-0.10478212
111	0x3e161942	0.14658073
112	0xbe39aef1	-0.18133141
113	0xbe8c2874	-0.27374613
114	0x3eb9f3c9	0.36318806
115	0xbd0515fc	-0.03249167
116	0x3e78d2d1	0.2429917
117	0xbe2180ba	-0.15771762
118	0xbd906d48	-0.07052094
119	0xbe5a5484	-0.21321303
120	0xbdd38f1f	-0.103300326
121	0x3e5aeb14	0.21378738
122	0xbe224483	-0.15846448
123	0xbde8fcfc	-0.11376378
124	0x3e93862e	0.28813308
125	0xbe059f9b	-0.13049166
126	0xbd167ca0	-0.036739945
127	0xbe3f8f4d	-0.18707009
128	0x3c10bf59	0.008834683
129	0xbd993c59	-0.074822135
130	0x3df040d0	0.11731112
131	0x3eaec15b	0.34131894
132	0x3c3b8a35	0.011446525
133	0xbe093ef1	-0.13402916
134	0x3e8125b4	0.25224078
135	0x3e759e96	0.23986277
136	0xbd182a5b	-0.03714977
137	0xbe4f914d	-0.20270272
138	0x3dc29c0b	0.09502419
139	0x3e3947d1	0.18093802
140	0x3c070f3f	0.008243381
141	0xbc9f657f	-0.019457577
142	0x3ccf801c	0.025329642
143	0xbe37af84	-0.17938048
144	0x3e0ae791	0.13564898
145	0xbe209959	-0.15683497
146	0x3e18c6e1	0.14919616
147	0x3e54c0bb	0.20776646
148	0x3de44270	0.111454844
149	0xbda68ab3	-0.081319235
150	0xbebe6d68	-0.37192845
151	0x3d677a5c	0.056513175
152	0x3e59b257	0.21259438
153	0xbdf6633f	-0.120306484
154	0x3d9b90b9	0.07595963
155	0xbd60c60d	-0.054876376
156	0x3e77e184	0.24207121
157	0x3d61ab8f	0.05509525
158	0xbd8ec695	-0.0697147
159	0x3eae32df	0.34023187
160	0x3cee4056	0.029083412
161	0xbd803fd3	-0.062621735
162	0x3bd69cde	0.0065494617
163	0x3e21e65a	0.15810528
164	0x3e23f8ae	0.16012833
165	0x3ddc25aa	0.10749371
166	0x3e771005	0.24127205
167	0x3d695061	0.05696142
168	0x3d978244	0.07397893
169	0xbedf009b	-0.4355515
170	0x3e36707a	0.17816344
171	0x3d55577c	0.052085385
172	0xbc5d839f	-0.01352015
173	0x3dea6591	0.114451535
174	0x3e7d6d05	0.24748619
175	0x3e480764	0.1953407
176	0xbe8b6768	-0.2722733
177	0x3d2e6098	0.042572588
178	0x3e98b550	0.2982583
179	0x3e1e6c04	0.15470892
180	0x3e85ce5b	0.26134
181	0xbe380907	-0.17972194
182	0xbed4a5fc	-0.41532886
183	0xbe5f58e8	-0.21811259
184	0xbd74ba8c	-0.059748217
185	0x3daa42b8	0.08313507
186	0xbecd6b55	-0.4012095
187	0x3e4c8556	0.19972739
188	0x3ee0dfef	0.43920848
189	0x3d59a575	0.053136308
190	0x3e690a46	0.22757825
191	0xbeb8a8b2	-0.36066204
192	0xbd2c766d	-0.042105127
193	0x3e55a8a1	0.20865108
194	0xbf036942	-0.51332486
195	0x3d949ad3	0.07256093
196	0xbe4f442f	-0.20240854
197	0x3ee08776	0.43853348
198	0x3e990042	0.2988301
199	0x3e31419a	0.17310181
200	0xbe94feff	-0.29100797
201	0x3e6ada83	0.22934918
202	0x3cf5e6ff	0.030017374
203	0x3e441ddd	0.19152017
204	0x3b71c304	0.003688992
205	0x3ce5910f	0.02802327
206	0xbd125576	-0.035726033
207	0xbd4b6d03	-0.04966451
208	0x3ec531e1	0.38514617
209	0xbe030741	-0.12795736
210	0xbe717d1e	-0.23582885
211	0xbdab54f3	-0.08365812
212	0x3d43e32f	0.04782408
213	0xbd6684dd	-0.056279052
214	0xbe7b788e	-0.24557707
215	0x3e33d5ac	0.17561978
216	0x3ea30720	0.31841373
217	0xbe07d7d6	-0.13265929
218	0xbdd0a8ed	-0.1018847
219	0xbe166534	-0.14687043
220	0xbea0ea6d	-0.31428853
221	0xbdf59c99	-0.11992759
222	0x3e35efff	0.17767332
223	0x3b86aacf	0.0041097174

fc1.bias f4 [32]
0	0x3eedf7e6	0.46478194
1	0xbdfe8182	-0.124270454
2	0x3e947900	0.28998566
3	0x3f29d626	0.6634239
4	0x3ea182ad	0.3154501
5	0x3ef1a2e6	0.47194594
6	0x3e24de7f	0.161005
7	0x3e508e57	0.20366798
8	0xbe26294e	-0.16226694
9	0xbe87c252	-0.26515442
10	0x3ea1d6e6	0.31609267
11	0x3edca220	0.43092442
12	0x3ed0e63c	0.40800655
13	0xbdcca68a	-0.09992702
14	0x3f13664e	0.5757798
15	0x3d7131f7	0.05888554
16	0x3f31bf71	0.6943274
17	0x3ef468c8	0.47736192
18	0xbde21ca6	-0.110406205
19	0x3edc4cae	0.43027252
20	0x3f0bc8d9	0.54603344
21	0x3e97dbf2	0.29659992
22	0xbe1b258f	-0.15151046
23	0x3f12f77a	0.5740887
24	0x3e7195a0	0.23592234
25	0x3eea259d	0.45731822
26	0xbdd3b0b0	-0.10336435
27	0x3e24da0a	0.160988
28	0xbe323d01	-0.17406084
29	0x3eff695d	0.49885073
30	0x3d2acf1e	0.04170143
31	0x3ea6ec98	0.32602382

fc2.weight f4 [16, 32]
0	0xbb0fd248	-0.0021945406
1	0xbb5d040b	-0.0033724334
2	0x3df11215	0.11771027
3	0x3dc861e4	0.09784296
4	0x3c883678	0.016627535
5	0x3de5d080	0.11221409
6	0x3c64731c	0.01394346
7	0xbd0a3e66	-0.033750914
8	0x3c08ac35	0.008341839
9	0x3d061f4d	0.032744695
10	0x3db626e2	0.08894135
11	0x3e3af167	0.1825615
12	0x3da1ec25	0.07906369
13	0xbd1ba34a	-0.03799752
14	0x3e27958a	0.16365638
15	0x3c60d12d	0.013721746
16	0x3d302143	0.04300047
17	0x3d1a29a7	0.03763738
18	0xbd010541	-0.03149915
19	0x3d772630	0.060339153
20	0xbd0b6db8	-0.034040183
21	0xbc463dde	-0.012099711
22	0xbd4fdbb1	-0.050746623
23	0x3e115722	0.14193395
24	0xbce31e2f	-0.027724354
25	0x3dda2a61	0.106526144
26	0xbbe246c2	-0.0069054076
27	0x3dd4498e	0.10365592
28	0x3c97d434	0.018533804
29	0x3b867053	0.0041027456
30	0x3d9cfd25	0.07665471
31	0xbd482796	-0.048865877
32	0x3d8af91c	0.06785795
33	0x3e080c90	0.13286042
34	0x3e0227fd	0.12710567
35	0x3e2b1a5d	0.16709276
36	0x3d80bad1	0.062856324
37	0x3dc2094d	0.0947443
38	0x3bc28c38	0.0059371255
39	0x3dd70ab7	0.105000906
40	0x3de7acac	0.113122314
41	0x3d87ae67	0.066250615
42	0x3d8f7380	0.07004452
43	0x3e420612	0.18947628
44	0x3e2e3dd8	0.17015779
45	0x3d1677b7	0.036735263
46	0xbcc150dc	-0.023598127
47	0x3cfff72c	0.03124579
48	0x3dbb02e3	0.0913141
49	0xbd109bef	-0.03530496
50	0x3e44eda3	0.19231276
51	0x3e01604d	0.12634392
52	0x3d9474e1	0.072488554
53	0xbced66f4	-0.028979756
54	0x3d5dbe19	0.05413637
55	0xbd4c42dc	-0.04986845
56	0x3d0c26c4	0.034216657
57	0x3d79182b	0.060814064
58	0x3dac798b	0.0842162
59	0x3d61d125	0.055131096
60	0x3d1cc970	0.038278043
61	0x3ded16a5	0.11576585
62	0x3c893f5b	0.016753843
63	0xbcd89a78	-0.026440844
64	0x3c8a759d	0.016901786
65	0x3e1f4694	0.15554267
66	0xbcb6f4a8	-0.022333458
67	0x3bad6802	0.0052919397
68	0x3e1c38b5	0.15256007
69	0xbb54f795	-0.0032496203
70	0xbbee9281	-0.007280648
71	0x3e0c54d6	0.13704237
72	0x3e240ca0	0.16020441
73	0x3da5d577	0.08097356
74	0xbdd5bf68	-0.104368985
75	0x3d807e9c	0.06274149
76	0x3d58dffd	0.052947987
77	0x3d8914b3	0.06693401
78	0x3c84500f	0.016151456
79	0x3d6496c3	0.05580784
80	0x3dabaca1	0.08382536
81	0x3d50ddc9	0.05099276
82	0x3d0ec640	0.034857035
83	0xbe0770ba	-0.13226596
84	0x3d541429	0.05177704
85	0x3d22ff8f	0.0397945
86	0x3dd373fd	0.103248574
87	0xbdbc3aff	-0.0919094
88	0x3dc079c3	0.09398224
89	0xbd0d486e	-0.034492902
90	0x3da99835	0.08280984
91	0xbc138ea6	-0.009006178
92	0x3e1386f3	0.14406948
93	0x3d07df87	0.033172157
94	0xbced045f	-0.028932748
95	0xbbecdb70	-0.0072283074
96	0x3c99ef33	0.018790817
97	0x3c02618c	0.007957827
98	0x3d116e13	0.035505366
99	0x3d789082	0.06068469
100	0x3d9cea61	0.07661892
101	0x3dc75231	0.09732474
102	0xbd7a8f0a	-0.06117157
103	0x3db8df92	0.09027018
104	0x3df2abd8	0.11849183
105	0x3da46be7	0.08028393
106	0x3d2db3be	0.042407744
107	0x3e0a964d	0.13533898
108	0x3dd2ef53	0.10299554
109	0x3de03c32	0.10948981
110	0x3accdeac	0.0015630326
111	0x3d3b0b7a	0.04566524
112	0x3db110fa	0.08645816
113	0xbcedb542	-0.029017095
114	0x3e1d0ff3	0.15338115
115	0xbbf0afc1	-0.0073451702
116	0x3db24c6d	0.08705983
117	0x3e18a0b4	0.14905053
118	0x3e431cd5	0.19053967
119	0xbd797ff9	-0.06091306
120	0x3d633193	0.0554672
121	0xbc33ad92	-0.010966675
122	0x3ddd1dda	0.10796709
123	0xbdb4d6fb	-0.08830067
124	0x3dd2c95e	0.10292314
125	0xbda4f6d1	-0.08054889
126	0xbdac2766	-0.08405952
127	0xbdbee30e	-0.09320651
128	0x3df74ebf	0.120755665
129	0x3aa42c47	0.0012525403
130	0x3cc8802f	0.024475185
131	0x3d4245a6	0.047429703
132	0x3d858101	0.06518746
133	0x3d8b797c	0.06810281
134	0x3d114362	0.035464652
135	0x3e1c50b1	0.15265156
136	0x3d8f19e3	0.069873594
137	0x3d873f0c	0.06603822
138	0x3e1c0dee	0.15239689
139	0x3e33130d	0.17487736
140	0x3d968897	0.07350271
141	0xb9d79113	-0.00041116084
142	0x3e38697e	0.18008992
143	0xbbc8e435	-0.00613072
144	0x3d4ac75f	0.04950654
145	0xbc9e4762	-0.019321147
146	0x3e345f33	0.1761444
147	0x3e1a9c90	0.15098786
148	0x3d25d2ea	0.040484346
149	0x3cb176cc	0.021663092
150	0xbd29f55c	-0.04149376
151	0x3d9f924e	0.07791577
152	0x3e0176b4	0.12642938
153	0xbcd81580	-0.02637744
154	0x3dc1d450	0.094643235
155	0x3c6718d4	0.014105041
156	0x38222df7	3.8666618e-05
157	0xbc8fbd34	-0.017546274
158	0xbdd7ceeb	-0.10537513
159	0xbd7a8ea2	-0.06117118
160	0xbe49adb7	-0.19695173
161	0xbd80ae3a	-0.06283231
162	0xbe88a6f1	-0.26689866
163	0xbdffc56e	-0.124888286
164	0xbe1a8341	-0.15089132
165	0xbeca1f11	-0.39476827
166	0x3e2e3249	0.1701137
167	0xbc7a312c	-0.015270513
168	0x3e0e8603	0.13918309
169	0xbf0bc831	-0.5460234
170	0x3e3d2fb9	0.18475236
171	0xbdb5d9e2	-0.088794485
172	0x3e1d6d14	0.15373641
173	0xbe61efea	-0.22064176
174	0x3d033572	0.03203339
175	0x3ea73418	0.32656932
176	0xbd87ceba	-0.06631227
177	0xbe4a7c1c	-0.19773906
178	0x3d9c05da	0.076183036
179	0x3dcebae0	0.10094237
180	0x3e2a26f1	0.16616417
181	0x3cfe7798	0.031062886
182	0xbdbc7872	-0.092026606
183	0x3da3fd72	0.08007325
184	0xbee1f740	-0.4413395
185	0x3d7c363e	0.061575167
186	0x3de55633	0.11198082
187	0x3d7b2cfc	0.061322197
188	0xbf7a8577	-0.978599
189	0x3ca0c8d2	0.019627009
190	0xbc4d48ab	-0.012529532
191	0xbe688207	-0.22705851
192	0x3e17f32b	0.14838855
193	0xbddca841	-0.107742794
194	0x3dae4db1	0.08510912
195	0xbda48932	-0.080339804
196	0xbb56ffb4	-0.003280622
197	0x3d599df4	0.05312915
198	0xbc9cae52	-0.019126091
199	0x3df2d4b2	0.11856975
200	0xbe4f8c5b	-0.20268385
201	0xbd75ca77	-0.06000754
202	0x3da0ce1f	0.078518145
203	0x3e2d502f	0.16925119
204	0x3de94d06	0.11391644
205	0xbe6d8de4	-0.23198658
206	0xbe3d0351	-0.18458296
207	0xbca28f0b	-0.019843599
208	0xbd8b7f1e	-0.06811355
209	0xbcdc2392	-0.02687243
210	0x3ddce9ce	0.10786782
211	0x3d84f42e	0.06491886
212	0x3da886c4	0.082288295
213	0xbdfcb9a3	-0.12340095
214	0xbe3daa2f	-0.18521951
215	0x3b7739b1	0.0037723596
216	0x3e128880	0.14309883
217	0xbdc9e9cd	-0.09859047
218	0x3d427849	0.047477994
219	0x3e5e08b5	0.21683009
220	0x3bfbb5a5	0.007681566
221	0xbc847876	-0.016170722
222	0x3d949d3c	0.072565526
223	0xbdb56d9b	-0.08858796
224	0x3cbc80bf	0.02301061
225	0xbd49aa64	-0.049234763
226	0x3d194d9e	0.037427537
227	0x3ce9d195	0.02854232
228	0x3dbe1ef7	0.0928325
229	0x3d5cc091	0.053894583
230	0x3d88c88d	0.06678877
231	0xbd865899	-0.065598674
232	0x3c91e5be	0.017809745
233	0x3d8e3c21	0.069450624
234	0x3daa77d3	0.08323636
235	0xb4e09c35	-4.1836907e-07
236	0x3d171a24	0.036890164
237	0x3c1cb690	0.009565011
238	0x3dad020f	0.08447658
239	0x3c3dc35b	0.011582221
240	0xbca5e865	-0.020252416
241	0x3e13575e	0.14388797
242	0xbdb58ea8	-0.088651
243	0xbcdeccd5	-0.02719728
244	0x3df084e5	0.117440976
245	0xbcc2a8ee	-0.023762193
246	0x3d0244b5	0.031803805
247	0x3d39849c	0.04529248
248	0x3bc92b20	0.006139174
249	0x3da565a5	0.08076028
250	0xbdba3a6c	-0.09093174
251	0x3d29509e	0.04133665
252	0x3cc991bc	0.024605624
253	0x3e5bdc52	0.21470764
254	0x3deac417	0.114631824
255	0xbda91c2c	-0.082573265

fc2.bias f4 [16]
0	0x3e9dfc24	0.3085643
1	0x3e84ee1e	0.2596292
2	0xbe8bc9b5	-0.27302328
3	0xbeae236c	-0.340114
4	0x3e029c05	0.12754829
5	0x3d2f6a9c	0.04282628
6	0x3d4640b7	0.04840156
7	0x3e5f3363	0.21796946
8	0x3b16439e	0.0022928487
9	0xbea9c7cd	-0.33160248
10	0x3ebd4a78	0.36970878
11	0x3cc1fa9d	0.023679072
12	0x3d5c0ad5	0.053721268
13	0x3e2a219f	0.16614388
14	0x3e45897d	0.19290729
15	0x3e36f882	0.17868236

fc3.weight f4 [21, 16]
0	0x3d1f5645	0.038900632
1	0xbd280ff6	-0.041030847
2	0xbc784a27	-0.015154398
3	0xbd72fa4d	-0.059320737
4	0xbc268175	-0.010162701
5	0x3c85d199	0.016335296
6	0x3a933f6b	0.001123411
7	0x3bcbdaec	0.006221166
8	0x3b0cc00c	0.0021476774
9	0xbd9e5ce7	-0.077325635
10	0x3e05502e	0.13018867
11	0xbc1d20a7	-0.009590304
12	0x3bc1ffde	0.0059203943
13	0xbc401790	-0.011724368
14	0xbe489129	-0.19586624
15	0x3d978ecd	0.07400284
16	0x3d925d64	0.07146719
17	0xbd6a7b05	-0.057246227
18	0xbbf873ab	-0.007582148
19	0xbd9573a9	-0.07297451
20	0x3c039a4b	0.008032392
21	0x3c8bdbd2	0.017072592
22	0x3b0be3d0	0.0021345504
23	0xbc605298	-0.013691567
24	0xba50f830	-0.0007971553
25	0xbdc5877e	-0.09644984
26	0x3e333bf9	0.17503347
27	0xbc28067b	-0.010255451
28	0x3ba65f05	0.005077245
29	0xbcba555f	-0.022745786
30	0xbe522a0e	-0.20523855
31	0x3d13fb3c	0.036128268
32	0x3daeca48	0.08534676
33	0x3d93b547	0.0721231
34	0x3c6c84be	0.014435945
35	0xbbf4fa72	-0.0074761445
36	0x3ac8c743	0.0015318174
37	0x3b94b39e	0.0045380136
38	0xb9182f72	-0.00014513524
39	0xbd833ea0	-0.06408429
40	0x3b871813	0.004122743
41	0xbd983972	-0.07432832
42	0xbd472cdf	-0.048626777
43	0xbc58c311	-0.013230101
44	0x3bab7eda	0.0052336277
45	0xbcecafea	-0.028892476
46	0x3d7c970e	0.061667494
47	0xbb7ae42d	-0.0038282976
48	0x3d8f92ef	0.07010447
49	0xbc8e5b42	-0.0173775
50	0xbca355b4	-0.019938327
51	0xbd37372f	-0.04473036
52	0x3c684c0e	0.014178289
53	0xbdb22aed	-0.08699594
54	0x3c7f57dd	0.015584913
55	0xbd2f24af	-0.042759594
56	0xbd546671	-0.05185551
57	0xbde9e096	-0.114197895
58	0x3e2e14b8	0.17000091
59	0xbd75bd2d	-0.059994865
60	0xbd264d7b	-0.040601235
61	0x3d87c61a	0.06629582
62	0xbdc83779	-0.097762056
63	0xbd45a7d4	-0.048255756
64	0x3dece948	0.11567932
65	0x3d0a969f	0.03383505
66	0xbc92bbbd	-0.017911786
67	0xbd4d1530	-0.050069034
68	0x3c91e172	0.017807696
69	0xbdccdca7	-0.100030236
70	0x3c8a5e90	0.016890794
71	0xbd5468fc	-0.051857933
72	0xbd723b19	-0.05913839
73	0xbe1c0c57	-0.15239082
74	0x3dd94dd4	0.10610548
75	0xbd9a0828	-0.07521087
76	0xbd3e667c	-0.046484455
77	0x3d991220	0.0747416
78	0xbd92a2d1	-0.07159961
79	0xbc8269c5	-0.015919575
80	0x3c9970bd	0.018730516
81	0x3d68cbef	0.05683511
82	0xbc130441	-0.008973182
83	0xba27a168	-0.0006394596
84	0x3c9f9453	0.019479906
85	0xbdabf2b7	-0.083959036
86	0x3c409eae	0.011756582
87	0x3cd4c397	0.02597217
88	0xbd39fa05	-0.045404453
89	0xbc70c964	-0.014696453
90	0xbdb051f9	-0.08609385
91	0xbd38484d	-0.044990826
92	0xbd0d805f	-0.034546252
93	0x3dc4f2b2	0.09616603
94	0x3d725f4b	0.05917291
95	0x3c4c9662	0.012487026
96	0x3e07008e	0.13183805
97	0x3e811471	0.25210908
98	0xbde6ed62	-0.11275746
99	0xbe35a057	-0.17736946
100	0x3d83dc01	0.06438447
101	0xbeeaa35a	-0.45827752
102	0x3dd14393	0.10217967
103	0x3d42c12c	0.047547504
104	0xbe80c45f	-0.2514982
105	0xbe6565ee	-0.22402164
106	0xbe16f526	-0.14741954
107	0xbea7575b	-0.32683834
108	0xbe53c252	-0.20679596
109	0x3eed3205	0.46327224
110	0x3e0640a8	0.13110602
111	0x3e02e8cc	0.12784117
112	0x3d1e36c0	0.038626432
113	0x3dd0b483	0.1019068
114	0xbdbc756f	-0.09202086
115	0xbe0a0058	-0.13476694
116	0xbc9f7e7c	-0.019469492
117	0xbee22070	-0.44165373
118	0x3d8f9b42	0.07012035
119	0x38dc4747	0.00010503694
120	0xbe43a5f1	-0.1910627
121	0xbe528c91	-0.20561434
122	0x3e1e84fb	0.15480416
123	0xbeae5e48	-0.34056306
124	0xbe2e332b	-0.17011707
125	0x3f045678	0.5169444
126	0xbda3eda3	-0.0800431
127	0x3d39a06c	0.045319006
128	0x3c16a84c	0.009195399
129	0x3d25638c	0.04037814
130	0xbd9e71f3	-0.07736578
131	0xbe053713	-0.1300929
132	0x3cbf0583	0.023318058
133	0xbeec65c4	-0.4617139
134	0x3d925bd7	0.07146423
135	0x3dbabf29	0.09118492
136	0xbe4f814c	-0.20264167
137	0xbda93a19	-0.082630344
138	0x3d35961c	0.04433261
139	0xbe9d7679	-0.3075445
140	0xbe1b7220	-0.15180254
141	0x3f07ea25	0.5309165
142	0xbd1d9bcf	-0.03847867
143	0x3d9b8342	0.07593395
144	0xbbcc08e3	-0.0062266453
145	0x3db3d165	0.08780173
146	0xbe2f68ab	-0.17129771
147	0xbe662ba2	-0.22477582
148	0xbd018ac2	-0.03162647
149	0xbf437377	-0.7634806
150	0x3e0f0a1b	0.13968699
151	0x3d98300f	0.074310414
152	0xbea60734	-0.3242737
153	0xbe2e2cf0	-0.1700933
154	0x3d859245	0.06522039
155	0xbee37974	-0.444286
156	0xbea2cc0d	-0.31796303
157	0x3f4c3bc6	0.7977871
158	0xbba19957	-0.0049316096
159	0x3e63d951	0.22250868
160	0x3de57468	0.11203843
161	0x3d524f8e	0.0513454
162	0xbdd6198c	-0.104540914
163	0xbe62e5c7	-0.22157966
164	0x3d89defa	0.067319825
165	0xbf3cbd31	-0.73726183
166	0x3de9de44	0.11419347
167	0x3e22d43b	0.15901272
168	0xbea06efe	-0.3133468
169	0xbe17cc80	-0.14824104
170	0x3c0133e6	0.007885909
171	0xbf006027	-0.50146717
172	0xbe94c20d	-0.290543
173	0x3f4bedf5	0.7965997
174	0xbd980a51	-0.07423843
175	0x3e2f7538	0.17134559
176	0x3df65aa7	0.12029009
177	0x3e111ba6	0.14170703
178	0xbdf84a66	-0.121235654
179	0xbe641ef5	-0.22277434
180	0x3e16a2e3	0.14710574
181	0xbf436fd8	-0.76342535
182	0x3df6808c	0.12036237
183	0x3e3d81ca	0.18506542
184	0xbea9add5	-0.33140436
185	0xbe1d1b74	-0.15342504
186	0xbda197b1	-0.07890261
187	0xbef6372f	-0.48088977
188	0xbe943d04	-0.289528
189	0x3f482278	0.78177595
190	0x3d03dc86	0.03219273
191	0x3db7a9b0	0.08967912
192	0x3e773a2a	0.24143282
193	0x3e45f647	0.19332229
194	0xbe29044f	-0.1650555
195	0xbe9a5b82	-0.3014794
196	0x3dc7b7e6	0.09751873
197	0xbf98817e	-1.1914518
198	0x3e4a0629	0.19728912
199	0x3c48e6fb	0.012262101
200	0xbee20979	-0.44147852
201	0xbe9e59c8	-0.30927873
202	0xbca430b0	-0.020042747
203	0xbf2c9ef2	-0.6743003
204	0xbf00f15c	-0.50368285
205	0x3f9abf2e	1.2089593
206	0x3e607a21	0.21921588
207	0x3dbd5bdd	0.09246037
208	0x3e8dedf3	0.27720603
209	0x3e7b9de3	0.24571948
210	0xbe2a42be	-0.16627023
211	0xbe89ed59	-0.26938894
212	0x3d695171	0.056962434
213	0xbf971d9b	-1.180591
214	0x3e2d9838	0.16952598
215	0x3dd00e67	0.10158997
216	0xbee91d3a	-0.4553011
217	0xbec4de6f	-0.38450953
218	0xbd5f7431	-0.054554168
219	0xbf4c89a4	-0.7989752
220	0xbeefd0b6	-0.4683892
221	0x3f911122	1.1333354
222	0x3bb161f4	0.0054132883
223	0x3e6aa49c	0.22914356
224	0x3d96fc22	0.07372309
225	0x3e2161e4	0.15759999
226	0xbe2e5fa0	-0.17028666
227	0xbe6d8753	-0.23196153
228	0x3e040402	0.12892154
229	0xbf8d2e53	-1.1029762
230	0x3e1cb8f5	0.1530493
231	0x3e458895	0.19290383
232	0xbecc9100	-0.39954376
233	0xbe29f5ee	-0.16597721
234	0xbd2aeca0	-0.04172957
235	0xbf2a95bf	-0.66634744
236	0xbeda436d	-0.42629567
237	0x3f8629ac	1.0481467
238	0x3d943ddb	0.072383605
239	0x3da25fc8	0.07928425
240	0xbd953c56	-0.07286899
241	0xbd518543	-0.05115248
242	0xbe6547ae	-0.22390625
243	0xbea32626	-0.31865042
244	0x3e2f3e4b	0.17113607
245	0xbfa35427	-1.2760056
246	0x3e597b12	0.21238354
247	0x3e72bd82	0.23705104
248	0xbeedb57a	-0.46427518
249	0xbd3ba761	-0.04581392
250	0x3e890e19	0.26768568
251	0xbf38472b	-0.71983594
252	0xbf152a98	-0.5826812
253	0x3fb04115	1.3769861
254	0x3d4859e3	0.048913848
255	0xbdbacfee	-0.09121691

fc3.bias f4 [21]
0	0x3f221417	0.63311905
1	0x3ee834c3	0.45352754
2	0x3ec2719a	0.37977296
3	0x3f104655	0.5635732
4	0x3ed28e40	0.41124153
5	0x3ecee6ae	0.4041037
6	0x3e63ac7e	0.2223377
7	0x3ea545d8	0.3227985
8	0x3e6df6f1	0.23238732
9	0x3e741f8f	0.23840164
10	0x3e6dbdd2	0.23216942
11	0x3d135347	0.03596809
12	0x3ccc8ac7	0.024968518
13	0x3b27091a	0.0025487603
14	0x3dac2b2e	0.08406673
15	0x3e88063c	0.26567256
16	0x3ea0f87a	0.31439573
17	0xbb8758fe	-0.0041304817
18	0x3e0c4702	0.13698962
19	0x3e4b31b0	0.19843173
20	0xbacbb63c	-0.0015541981

fc1.weight f4 [32, 7]
0	0x3e3c95fe	0.18416592
1	0xbe9933c6	-0.29922312
2	0xbea1dc29	-0.3161328
3	0xbd4e2301	-0.05032635
4	0x3e1e03e0	0.15431166
5	0xbe977778	-0.29583335
6	0xbe08fe0d	-0.13378163
7	0x3e1307a3	0.14358382
8	0x3e2f6d5c	0.17131561
9	0x3e1d9dfc	0.15392298
10	0xbdcd998f	-0.100390546
11	0x3e637927	0.22214185
12	0x3db3985c	0.087692946
13	0x3d2067a4	0.03916134
14	0x3ea11bb7	0.31466457
15	0xbe153a98	-0.14573133
16	0xbe3a3022	-0.18182424
17	0x3ec4732d	0.38369122
18	0x3e582211	0.21106745
19	0xbdf8dffa	-0.12152095
20	0x3eb55a62	0.3542052
21	0xbe24891d	-0.1606793
22	0x3ea73837	0.32660076
23	0x3de6df41	0.11273051
24	0xbe854930	-0.260324
25	0x3e0ccce6	0.13750038
26	0xbe9c37a9	-0.30511215
27	0xbda70c12	-0.08156599
28	0xbd27939a	-0.04091225
29	0xbe67afae	-0.2262561
30	0xbd9f9457	-0.077919655
31	0x3e0e3512	0.13887432
32	0x3de3cc9a	0.11123009
33	0xbd90af2d	-0.07064662
34	0x3ea602df	0.32424065
35	0xbe892853	-0.26788577
36	0xbe6fab35	-0.23405154
37	0xbe82493a	-0.25446492
38	0xbc400827	-0.011720694
39	0xbdd8e8af	-0.10591256
40	0xbe9d926e	-0.3077578
41	0xbd0a0c3d	-0.033703078
42	0xbd4fc79a	-0.050727464
43	0xbe312ca1	-0.17302181
44	0xbd82dba9	-0.06389553
45	0xbdbd1130	-0.09231794
46	0x3e90e3bc	0.28298748
47	0xbe9fbe07	-0.31199667
48	0x3c7a9751	0.015294866
49	0x3deb998e	0.115038976
50	0x3dc9ba9f	0.09850048
51	0x3ec500e4	0.38477242
52	0x3d7f1ec3	0.062285196
53	0xbe9f3499	-0.31094816
54	0x3ea0d55f	0.3141279
55	0xbe8bb196	-0.27283925
56	0x3e42533c	0.18977064
57	0xbe2f16c3	-0.17098527
58	0xbe0bb966	-0.13644943
59	0x3df74ea4	0.120755464
60	0x3e5bafd5	0.21453793
61	0xbe8d1440	-0.27554512
62	0xbea81322	-0.32827097
63	0x3ec2e283	0.3806344
64	0x3e11e966	0.1424919
65	0x3eab2b39	0.33431414
66	0x3e0132e8	0.12617075
67	0xbe8c09e5	-0.273513
68	0xbe8bf5f1	-0.27336076
69	0x3e9c59b4	0.30537188
70	0xbc7db397	-0.015484712
71	0x3da46521	0.08027101
72	0x3e4f8318	0.20264852
73	0x3ceb74f7	0.028742297
74	0xbd909342	-0.07059337
75	0xbdb1b770	-0.08677566
76	0xbe1d6661	-0.15371086
77	0x3d43547e	0.047688
78	0xbe8531bb	-0.26014504
79	0xbe08a374	-0.13343602
80	0x3b842b0e	0.004033453
81	0xbdc0a811	-0.09407056
82	0x3e84907c	0.25891483
83	0xbdd7054b	-0.104990564
84	0xbe7537ba	-0.23947039
85	0x3f032ff8	0.5124507
86	0xbe8a0e00	-0.26963806
87	0xbe91c337	-0.2846925
88	0xbe9c8388	-0.305691
89	0xbdfda884	-0.123856574
90	0x3c09a5cc	0.008401345
91	0x3e3abd23	0.18236212
92	0xbbee558e	-0.0072733825
93	0xbe87062c	-0.26371896
94	0xbd1d8ba3	-0.038463246
95	0x3e29a43a	0.16566554
96	0xbe4f5dc3	-0.20250611
97	0x3e740f62	0.23833993
98	0x3e2bd810	0.1678164
99	0x3e12a635	0.14321215
100	0x3aa83f2e	0.0012836212
101	0xbe996c85	-0.29965606
102	0x3c0e839a	0.008698368
103	0x3d0cbf21	0.034361962
104	0x3d6eaeb4	0.05827208
105	0xbb95a4aa	-0.0045667486
106	0x3e61cd4a	0.22050968
107	0x3eee473d	0.46538725
108	0xbbab21ee	-0.0052225506
109	0xbec178f9	-0.37787607
110	0xbdd6c0c5	-0.104859866
111	0x3e15e177	0.1463679
112	0xbe39e4ee	-0.18153736
113	0xbe8c452f	-0.27396533
114	0x3eb9ff69	0.36327675
115	0xbd05f3b6	-0.032703124
116	0x3e78f0fc	0.24310678
117	0xbe21523f	-0.1575403
118	0xbd904dda	-0.07046099
119	0xbe5a60df	-0.21326016
120	0xbdd3467c	-0.10316178
121	0x3e5a8f9c	0.21343845
122	0xbe223813	-0.15841703
123	0xbde89720	-0.1135695
124	0x3e93774b	0.2880195
125	0xbe05da5c	-0.13071579
126	0xbd166e3c	-0.03672622
127	0xbe3fd400	-0.18733215
128	0x3c0fbb3b	0.008772667
129	0xbd993af3	-0.07481947
130	0x3df020bd	0.11724994
131	0x3eaece71	0.34141877
132	0x3c3eb4be	0.011639772
133	0xbe090c34	-0.13383561
134	0x3e812561	0.2522383
135	0x3e756958	0.23965967
136	0xbd178b80	-0.036998272
137	0xbe4f7948	-0.20261109
138	0x3dc243ee	0.09485613
139	0x3e393cef	0.1808965
140	0x3c0489b2	0.00808947
141	0xbc9fb09b	-0.019493392
142	0x3cceae0d	0.025229478
143	0xbe378692	-0.17922428
144	0x3e0afc4e	0.13572809
145	0xbe20a69b	-0.15688555
146	0x3e18b4bc	0.14912695
147	0x3e546dd6	0.20745024
148	0x3de41c52	0.11138214
149	0xbda67b76	-0.08129017
150	0xbebe7b63	-0.37203512
151	0x3d67161f	0.05641758
152	0x3e59dcc8	0.21275628
153	0xbdf6987f	-0.12040805
154	0x3d9b72ab	0.075902306
155	0xbd612c7f	-0.054974075
156	0x3e77fa4d	0.24216576
157	0x3d60b909	0.054863963
158	0xbd8f2f5c	-0.06991455
159	0x3eae3ea1	0.34032157
160	0x3cee87b3	0.02911744
161	0xbd800dc6	-0.06252627
162	0x3bd8da49	0.0066178185
163	0x3e2197dd	0.15780587
164	0x3e243106	0.16034326
165	0x3ddc4d1c	0.10756895
166	0x3e770289	0.24122061
167	0x3d694904	0.0569544
168	0x3d978118	0.073976696
169	0xbedf034a	-0.43557197
170	0x3e364d8c	0.1780302
171	0x3d55f067	0.05223122
172	0xbc5fb78d	-0.013654602
173	0x3dea35dd	0.11436055
174	0x3e7d7f03	0.24755482
175	0x3e4810b0	0.19537616
176	0xbe8b5ee8	-0.27220845
177	0x3d2d8c89	0.042370353
178	0x3e98bfa8	0.29833722
179	0x3e1ea46a	0.15492406
180	0x3e85bde9	0.26121452
181	0xbe37cda2	-0.17949536
182	0xbed49ffd	-0.4152831
183	0xbe5f67a2	-0.21816877
184	0xbd73e03e	-0.059540026
185	0x3da9fae4	0.08299807
186	0xbecd60cc	-0.40112913
187	0x3e4cc415	0.19996674
188	0x3ee0d742	0.4391423
189	0x3d5995e8	0.053121477
190	0x3e694071	0.22778489
191	0xbeb8ad65	-0.3606979
192	0xbd2cde61	-0.042204265
193	0x3e55b983	0.20871548
194	0xbf035980	-0.5130844
195	0x3d94b4d1	0.072610505
196	0xbe4f5521	-0.20247318
197	0x3ee07fd2	0.4384752
198	0x3e99218c	0.29908407
199	0x3e3119e9	0.1729504
200	0xbe950365	-0.29104152
201	0x3e6addcf	0.22936176
202	0x3cf6190b	0.030041238
203	0x3e441988	0.19150364
204	0x3b7b5eee	0.0038356143
205	0x3ce44ce7	0.027868701
206	0xbd11ac17	-0.03556451
207	0xbd4abfa3	-0.049499165
208	0x3ec51b88	0.38497567
209	0xbe03169c	-0.12801594
210	0xbe718d0b	-0.2358896
211	0xbdab4e1a	-0.08364506
212	0x3d432222	0.047639973
213	0xbd653388	-0.055957347
214	0xbe7b7d92	-0.2455962
215	0x3e339ec9	0.1754104
216	0x3ea2fe4b	0.31834635
217	0xbe07ca56	-0.13260779
218	0xbdd08c85	-0.10183052
219	0xbe163b71	-0.14671113
220	0xbea1167b	-0.31462464
221	0xbdf5ab09	-0.11995513
222	0x3e35e471	0.17762925
223	0x3b8121e9	0.00394081

fc1.bias f4 [32]
0	0x3eee2888	0.46515298
1	0xbdfe3156	-0.12411754
2	0x3e947842	0.28998
3	0x3f29d48f	0.66339964
4	0x3ea17aa6	0.31538886
5	0x3ef1c9da	0.47224313
6	0x3e246d4c	0.16057318
7	0x3e50f252	0.20404938
8	0xbe264ddc	-0.16240638
9	0xbe878a0f	-0.26472518
10	0x3ea1d623	0.31608686
11	0x3edca53c	0.43094814
12	0x3ed0f013	0.40808162
13	0xbdcc702d	-0.09982333
14	0x3f1362c0	0.57572556
15	0x3d735a4d	0.05941229
16	0x3f31a0a0	0.6938572
17	0x3ef46efd	0.47740927
18	0xbde1dfae	-0.11028992
19	0x3edc51e2	0.43031222
20	0x3f0bbc1d	0.54583913
21	0x3e97ebdd	0.29672137
22	0xbe1b18cb	-0.15146177
23	0x3f12f802	0.5740968
24	0x3e719df3	0.23595409
25	0x3eea520f	0.4576573
26	0xbdd3ca25	-0.103412904
27	0x3e253732	0.16134337
28	0xbe31ea0f	-0.17374443
29	0x3eff6696	0.49882954
30	0x3d2a3d73	0.04156251
31	0x3ea6e8b0	0.325994

fc2.weight f4 [16, 32]
0	0xbb0e3993	-0.0021701797
1	0xbb59ff51	-0.0033263753
2	0x3df109c8	0.11769444
3	0x3dc83e21	0.09777475
4	0x3c88135e	0.016610797
5	0x3de61a64	0.11235502
6	0x3c6461e5	0.0139393555
7	0xbd0accfa	-0.033886887
8	0x3c0942fc	0.008377787
9	0x3d04d35d	0.032428134
10	0x3db600f2	0.08886899
11	0x3e3af797	0.1825851
12	0x3da1d93f	0.079027645
13	0xbd1c04d1	-0.03809053
14	0x3e278167	0.16357957
15	0x3c5c5afa	0.013449425
16	0x3d2fcf70	0.042922437
17	0x3d19ad32	0.037518688
18	0xbd01b40a	-0.03166584
19	0x3d76867f	0.06018686
20	0xbd0be2a1	-0.034151677
21	0xbc46ebcf	-0.012141182
22	0xbd5104c5	-0.05102994
23	0x3e114736	0.14187321
24	0xbce419ec	-0.027844392
25	0x3dda613b	0.106630765
26	0xbbe27286	-0.006910625
27	0x3dd497c1	0.10380507
28	0x3c96da2a	0.018414576
29	0x3b837faa	0.0040130215
30	0x3d9cda74	0.07658854
31	0xbd48a449	-0.0489848
32	0x3d8b0650	0.067883134
33	0x3e0811bf	0.1328802
34	0x3e0223c6	0.12708959
35	0x3e2b1009	0.16705336
36	0x3d80aed0	0.06283343
37	0x3dc24864	0.09486464
38	0x3bc1a45f	0.005909487
39	0x3dd6d6f0	0.10490215
40	0x3de7d990	0.11320794
41	0x3d872001	0.06597901
42	0x3d8f40ad	0.06994758
43	0x3e420cb7	0.18950163
44	0x3e2e3447	0.1701213
45	0x3d166d8d	0.03672557
46	0xbcc22555	-0.023699442
47	0x3cfde558	0.030993149
48	0x3dbacbd9	0.09120912
49	0xbd1127a1	-0.035438184
50	0x3e44e177	0.19226633
51	0x3e013fea	0.12622038
52	0x3d946f0f	0.07247745
53	0xbcee0c38	-0.02905856
54	0x3d5cd6f4	0.053915933
55	0xbd4c2d3b	-0.049847823
56	0x3d0b89c4	0.03406693
57	0x3d794f8b	0.060866874
58	0x3dac53c7	0.08414417
59	0x3d620720	0.055182576
60	0x3d1c1aa9	0.038111363
61	0x3decf9b4	0.115710646
62	0x3c886c54	0.016653217
63	0xbcd95622	-0.02653033
64	0x3c8a7075	0.016899327
65	0x3e1f3faf	0.15551637
66	0xbcb6b3a9	-0.022302466
67	0x3bb0b320	0.005392447
68	0x3e1c30db	0.15253012
69	0xbb5d1b95	-0.0033738364
70	0xbbec3bde	-0.007209285
71	0x3e0c6c97	0.13713299
72	0x3e23e0f2	0.16003779
73	0x3da66971	0.0812558
74	0xbdd557c3	-0.1041713
75	0x3d8091dc	0.062778205
76	0x3d590d7e	0.052991383
77	0x3d891d36	0.06695025
78	0x3c859004	0.016304024
79	0x3d65ac6d	0.05607264
80	0x3dabd64f	0.083904855
81	0x3d515abb	0.051111918
82	0x3d0efb8e	0.03490787
83	0xbe073a66	-0.13205871
84	0x3d548e6b	0.051893633
85	0x3d2360b8	0.03988716
86	0x3dd3aa5d	0.103352286
87	0xbdbc1a6b	-0.09184726
88	0x3dc0de8d	0.09417448
89	0xbd0d93da	-0.03456483
90	0x3da978b3	0.08274975
91	0xbc156907	-0.009119279
92	0x3e13a1f6	0.14417252
93	0x3d086971	0.03330368
94	0xbcebd615	-0.028788606
95	0xbbea3807	-0.0071477923
96	0x3c999288	0.01874663
97	0x3c017ebf	0.007903754
98	0x3d11351d	0.035451043
99	0x3d78bcbd	0.06072687
100	0x3d9ce416	0.076606914
101	0x3dc74405	0.097297706
102	0xbd7a7a19	-0.061151598
103	0x3db91673	0.09037485
104	0x3df27f14	0.118406445
105	0x3da50207	0.08057027
106	0x3d2e574c	0.04256372
107	0x3e0a961a	0.13533822
108	0x3dd333d4	0.1031262
109	0x3de0523c	0.10953185
110	0x3ad545cf	0.0016271415
111	0x3d3bdf0f	0.045867022
112	0x3db11ce1	0.08648086
113	0xbcece21d	-0.028916413
114	0x3e1d285a	0.15347424
115	0xbbea9940	-0.007159382
116	0x3db26571	0.08710755
117	0x3e18a78d	0.14907666
118	0x3e43476f	0.19070219
119	0xbd795e1a	-0.060880758
120	0x3d63f3c5	0.0556524
121	0xbc35884c	-0.011079859
122	0x3ddd2f00	0.1079998
123	0xbdb49eb6	-0.08819334
124	0x3dd318a7	0.103074364
125	0xbda4cf9c	-0.08047411
126	0xbdabe32b	-0.08392938
127	0xbdbeb8b4	-0.09312573
128	0x3df77773	0.1208333
129	0x3aa3b4d3	0.0012489803
130	0x3cc8a36e	0.024491992
131	0x3d423bc4	0.04742028
132	0x3d85b061	0.06527782
133	0x3d8bbabf	0.06822728
134	0x3d11110c	0.035416648
135	0x3e1c2ac4	0.15250689
136	0x3d8f5b36	0.06999819
137	0x3d869ee4	0.06573275
138	0x3e1be25a	0.15223065
139	0x3e3313bf	0.17488001
140	0x3d967848	0.073471606
141	0xb9f3123d	-0.0004636216
142	0x3e385551	0.18001296
143	0xbbd1c00b	-0.006401067
144	0x3d4a43c6	0.04938104
145	0xbc9f0be8	-0.019414857
146	0x3e343c9a	0.17601243
147	0x3e1a8161	0.15088417
148	0x3d257cea	0.04040233
149	0x3cb10889	0.021610515
150	0xbd2aa5fc	-0.0416622
151	0x3d9f5a94	0.07780948
152	0x3e014788	0.12624943
153	0xbcd7c3a9	-0.026338415
154	0x3dc1ce84	0.09463218
155	0x3c6948a3	0.014238509
156	0xb8aac17b	-8.14227e-05
157	0xbc90b2f2	-0.017663453
158	0xbdd81f66	-0.10552864
159	0xbd7ada97	-0.06124362
160	0xbe49fd9b	-0.19725649
161	0xbd80dcf1	-0.06292141
162	0xbe88af4e	-0.26696247
163	0xbdffea3b	-0.12495848
164	0xbe1a3b44	-0.1506167
165	0xbeca33a7	-0.39492533
166	0x3e2dd750	0.16976666
167	0xbc7b37e0	-0.015333146
168	0x3e0e4638	0.13893974
169	0xbf0bd0b0	-0.54615307
170	0x3e3d300f	0.18475364
171	0xbdb69ef6	-0.08917038
172	0x3e1d454b	0.15358464
173	0xbe61fb8e	-0.22068617
174	0x3d02cb1a	0.031931974
175	0x3ea6edad	0.32603207
176	0xbd87e34d	-0.06635151
177	0xbe4a7ebf	-0.19774912
178	0x3d9be997	0.07612913
179	0x3dce5244	0.10074285
180	0x3e2a05d7	0.1660379
181	0x3cfd2e0e	0.03090575
182	0xbdbcc207	-0.09216695
183	0x3da391ae	0.079867706
184	0xbee1afb1	-0.44079354
185	0x3d7b7147	0.061387327
186	0x3de53192	0.111910954
187	0x3d7a4447	0.06110027
188	0xbf7a716b	-0.9782931
189	0x3c9f90bc	0.019478194
190	0xbc50c084	-0.012741212
191	0xbe684148	-0.22681153
192	0x3e17e416	0.14833102
193	0xbddc7f15	-0.107664265
194	0x3dadd795	0.08488385
195	0xbda46f2e	-0.08029018
196	0xbb45318c	-0.0030089347
197	0x3d5a7780	0.05333662
198	0xbc9b4109	-0.01895191
199	0x3df27318	0.11838359
200	0xbe4f589a	-0.20248643
201	0xbd763908	-0.060112983
202	0x3da100c3	0.078614734
203	0x3e2d4928	0.16922438
204	0x3de9831f	0.114019625
205	0xbe6dbe0b	-0.23217027
206	0xbe3d29a9	-0.18472923
207	0xbca4c28c	-0.020112298
208	0xbd8b8633	-0.06812706
209	0xbcdcb781	-0.02694297
210	0x3ddcce95	0.1078159
211	0x3d84abb2	0.06478061
212	0x3da829ef	0.08211123
213	0xbdfccfae	-0.12344299
214	0xbe3d9b8e	-0.1851637
215	0x3b6f0ec8	0.0036477316
216	0x3e127cfa	0.14305487
217	0xbdc9f376	-0.098608896
218	0x3d4275e6	0.047475718
219	0x3e5df6bd	0.21676154
220	0x3bfe96b1	0.0077694287
221	0xbc853d4c	-0.01626458
222	0x3d9464da	0.072457984
223	0xbdb584da	-0.0886323
224	0x3cbcfb74	0.023069121
225	0xbd4a0afe	-0.04932689
226	0x3d19496b	0.037423532
227	0x3ce9efaf	0.028556673
228	0x3dbe3934	0.092882544
229	0x3d5d6900	0.054055214
230	0x3d88a8d6	0.06672828
231	0xbd86b094	-0.06576648
232	0x3c92fa43	0.0179416
233	0x3d8d9b00	0.069143295
234	0x3da9f57f	0.08298778
235	0xb87a747f	-5.971314e-05
236	0x3d16fcfd	0.036862362
237	0x3c1c3a3e	0.00953537
238	0x3dacc61a	0.084362224
239	0x3c3a053a	0.011353785
240	0xbca65e1d	-0.020308549
241	0x3e133dc1	0.14379026
242	0xbdb5d405	-0.0887833
243	0xbce074d6	-0.027399462
244	0x3df06a2f	0.11739003
245	0xbcc35158	-0.023842499
246	0x3d01db63	0.031703364
247	0x3d3917dd	0.045188773
248	0x3bc28368	0.005936075
249	0x3da5905b	0.08084174
250	0xbdba23af	-0.09088837
251	0x3d29503b	0.04133628
252	0x3cc83dcd	0.024443531
253	0x3e5bbad1	0.21457984
254	0x3dea5245	0.11441473
255	0xbda94478	-0.082650125

fc2.bias f4 [16]
0	0x3e9dfaaa	0.30855304
1	0x3e84ed1b	0.25962147
2	0xbe8bc9aa	-0.27302295
3	0xbeae2764	-0.34014428
4	0x3e02a67b	0.1275882
5	0x3d2ec3a2	0.04266704
6	0x3d4630d9	0.04838643
7	0x3e5f42a1	0.2180276
8	0x3b1ca4c0	0.002390191
9	0xbea9cc0d	-0.3316349
10	0x3ebd5488	0.36978555
11	0x3cc108c2	0.023563746
12	0x3d5ca331	0.05386657
13	0x3e2a2062	0.16613916
14	0x3e459e02	0.19298556
15	0x3e36f83b	0.1786813

fc3.weight f4 [21, 16]
0	0x3d1fd8a5	0.039024968
1	0xbd27b7f8	-0.04094693
2	0xbc77e54d	-0.015130353
3	0xbd736905	-0.059426326
4	0xbc24d355	-0.010060151
5	0x3c84024c	0.016114376
6	0x3a9ddded	0.0012044288
7	0x3bcdd92c	0.0062819924
8	0x3afc617c	0.0019255127
9	0xbd9e5ec6	-0.0773292
10	0x3e0553de	0.13020274
11	0xbc1a860c	-0.009431373
12	0x3bcab5d2	0.0061862255
13	0xbc413b1c	-0.011793878
14	0xbe489bfe	-0.19590756
15	0x3d97aa78	0.07405561
16	0x3d92ae48	0.07162148
17	0xbd6a1062	-0.05714453
18	0xbbf7e7c6	-0.0075654713
19	0xbd95b4d0	-0.07309878
20	0x3c06449f	0.0081950715
21	0x3c89dfce	0.016830351
22	0x3b12831b	0.0022355977
23	0xbc5eb988	-0.013594039
24	0xba89045a	-0.0010453567
25	0xbdc57ddb	-0.09643146
26	0x3e3344c3	0.175067
27	0xbc259a52	-0.010107594
28	0x3baec97d	0.005334078
29	0xbcbb0a9f	-0.022832213
30	0xbe522bbf	-0.205245
31	0x3d142287	0.03616574
32	0x3daeeed1	0.08541644
33	0x3d93ed48	0.07222992
34	0x3c6c3bb7	0.014418534
35	0xbbf64b11	-0.007516273
36	0x3ad67910	0.0016362984
37	0x3b8ecc83	0.004357876
38	0xb8119f9e	-3.471935e-05
39	0xbd83255b	-0.06403609
40	0x3b7fe6ef	0.003904756
41	0xbd983c40	-0.07433367
42	0xbd4717db	-0.048606735
43	0xbc5613af	-0.013066216
44	0x3bb3caa4	0.005486803
45	0xbced428c	-0.028962396
46	0x3d7c883a	0.061653353
47	0xbb7c96c4	-0.0038542012
48	0x3d8fc2ee	0.07019602
49	0xbc8dd6ec	-0.017314397
50	0xbca39661	-0.019969167
51	0xbd379770	-0.044822156
52	0x3c69b77f	0.01426494
53	0xbdb1bda4	-0.08678749
54	0x3c7f5b86	0.015585786
55	0xbd2ed849	-0.042686734
56	0xbd541ce1	-0.051785354
57	0xbdea0e94	-0.11428562
58	0x3e2e2254	0.17005283
59	0xbd759de5	-0.059965033
60	0xbd27867a	-0.04089973
61	0x3d87b33f	0.06625985
62	0xbdc8131a	-0.09769268
63	0xbd4589d5	-0.04822715
64	0x3ded2a16	0.11580293
65	0x3d0ae766	0.033912085
66	0xbc931611	-0.017954858
67	0xbd4d9280	-0.05018854
68	0x3c92ea44	0.017933972
69	0xbdcc6116	-0.09979455
70	0x3c8ab692	0.01693276
71	0xbd53fb86	-0.051753543
72	0xbd720895	-0.059090216
73	0xbe1c225b	-0.1524748
74	0x3dd96bb8	0.10616249
75	0xbd9a00fd	-0.0751972
76	0xbd3f933f	-0.046771284
77	0x3d9907a9	0.07472164
78	0xbd92783d	-0.0715184
79	0xbc820042	-0.015869264
80	0x3c99e74d	0.01878705
81	0x3d68be52	0.05682213
82	0xbc134c73	-0.008990395
83	0xba2f582c	-0.0006688859
84	0x3c9fc83a	0.019504655
85	0xbdab7334	-0.083715826
86	0x3c401d4b	0.011725734
87	0x3cd4ff15	0.026000539
88	0xbd397823	-0.045280587
89	0xbc71c1bd	-0.014755663
90	0xbdb05172	-0.086092845
91	0xbd3864ee	-0.04501813
92	0xbd0e9dff	-0.034818646
93	0x3dc4fd2e	0.09618603
94	0x3d726e30	0.059187114
95	0x3c4cdaa8	0.012503304
96	0x3e071431	0.13191296
97	0x3e8117e3	0.25213537
98	0xbde740fa	-0.1129169
99	0xbe35c2a8	-0.17750037
100	0x3d841b02	0.06450464
101	0xbeea725c	-0.45790374
102	0x3dd1a973	0.10237398
103	0x3d4363cf	0.047702607
104	0xbe80d1f5	-0.25160185
105	0xbe65556f	-0.22395872
106	0xbe16daa0	-0.14731836
107	0xbea6ea59	-0.32600668
108	0xbe53fb6c	-0.20701379
109	0x3eed0252	0.46290833
110	0x3e067d1b	0.13133661
111	0x3e0305ec	0.12795228
112	0x3d1e4e6a	0.038649
113	0x3dd0a541	0.1018777
114	0xbdbca8d0	-0.09211886
115	0xbe0a1e32	-0.13488081
116	0xbca022be	-0.019547816
117	0xbee1d908	-0.44110894
118	0x3d8fc57f	0.07020091
119	0x38af1097	8.3477404e-05
120	0xbe439f11	-0.19103648
121	0xbe5299e9	-0.20566525
122	0x3e1e81ac	0.15479153
123	0xbeadef92	-0.3397184
124	0xbe2e35ef	-0.17012762
125	0x3f043e94	0.51657987
126	0xbda3ec1b	-0.08004018
127	0x3d397a86	0.045282863
128	0x3c171daf	0.009223386
129	0x3d25021b	0.04028521
130	0xbd9ea2da	-0.07745905
131	0xbe055696	-0.13021311
132	0x3cbe5d93	0.023237979
133	0xbeec20be	-0.4611873
134	0x3d9275aa	0.07151349
135	0x3dbaae5b	0.09115287
136	0xbe4f79c2	-0.2026129
137	0xbda955fe	-0.08268355
138	0x3d357bea	0.044307627
139	0xbe9d096b	-0.30671248
140	0xbe1b88cf	-0.15188907
141	0x3f07d79f	0.53063387
142	0xbd1d87a0	-0.03845942
143	0x3d9b787c	0.0759134
144	0xbbcb9315	-0.006212602
145	0x3db3b24f	0.08774244
146	0xbe2f88fb	-0.17142098
147	0xbe66600a	-0.22497573
148	0xbd01ac15	-0.03165825
149	0xbf43445d	-0.7627619
150	0x3e0f1f4d	0.13976784
151	0x3d981b43	0.07427075
152	0xbea5fb0c	-0.32418096
153	0xbe2e2430	-0.17005992
154	0x3d85a404	0.06525424
155	0xbee2e08f	-0.4431195
156	0xbea2e6e0	-0.3181677
157	0x3f4c1231	0.7971526
158	0xbb9da291	-0.004810639
159	0x3e63eb06	0.22257623
160	0x3de57ef7	0.11205857
161	0x3d51d06e	0.051224165
162	0xbdd649dc	-0.10463306
163	0xbe631d84	-0.22179228
164	0x3d89b02f	0.067230575
165	0xbf3c8515	-0.7364057
166	0x3de9f865	0.114243306
167	0x3e22c9da	0.15897313
168	0xbea06af5	-0.31331602
169	0xbe17e60a	-0.14833847
170	0x3bfffb31	0.007811927
171	0xbf0016a4	-0.50034547
172	0xbe94c9ad	-0.29060116
173	0x3f4bc40a	0.79596007
174	0xbd98200e	-0.07427989
175	0x3e2f64ee	0.17128345
176	0x3df669f6	0.12031929
177	0x3e110814	0.14163238
178	0xbdf8b064	-0.12143019
179	0xbe644baa	-0.22294489
180	0x3e16a122	0.14709905
181	0xbf43354d	-0.76253206
182	0x3df6983a	0.12040754
183	0x3e3d830d	0.18507023
184	0xbea9b0d0	-0.3314271
185	0xbe1d3a6e	-0.1535432
186	0xbda1b2c6	-0.078954265
187	0xbef5ab99	-0.4798248
188	0xbe944f09	-0.2896655
189	0x3f47fc7b	0.7811963
190	0x3d03c8bd	0.03217386
191	0x3db7886c	0.08961567
192	0x3e7743c7	0.24146949
193	0x3e45f294	0.19330817
194	0xbe292d30	-0.16521144
195	0xbe9a7997	-0.3017089
196	0x3dc7b5dc	0.09751484
197	0xbf984e45	-1.1898886
198	0x3e4a0bb6	0.1973103
199	0x3c4772b8	0.012173347
200	0xbee1f1ff	-0.4412994
201	0xbe9e5e95	-0.30931535
202	0xbca4625f	-0.020066438
203	0xbf2c40e1	-0.672865
204	0xbf00f68e	-0.5037621
205	0x3f9a9392	1.2076285
206	0x3e60711a	0.21918145
207	0x3dbd5205	0.092441596
208	0x3e8de959	0.27717093
209	0x3e7b8b3d	0.24564834
210	0xbe2a4fd2	-0.16632012
211	0xbe8a13d9	-0.26968268
212	0x3d68d7cb	0.05684642
213	0xbf96ea7a	-1.1790307
214	0x3e2d84f0	0.16945243
215	0x3dcfd5ca	0.10148199
216	0xbee90c66	-0.45517272
217	0xbec4f51b	-0.3846825
218	0xbd5ff8f1	-0.05468077
219	0xbf4c1dce	-0.7973298
220	0xbeefc9c1	-0.46833614
221	0x3f90e5dc	1.1320148
222	0x3babaa82	0.005238832
223	0x3e6a806e	0.22900555
224	0x3d96e37d	0.07367609
225	0x3e2157a9	0.15756096
226	0xbe2e79f9	-0.17038716
227	0xbe6dd314	-0.23225051
228	0x3e03efa5	0.12884386
229	0xbf8cfe1f	-1.1015052
230	0x3e1cad26	0.15300426
231	0x3e456b9e	0.19279334
232	0xbecc82cb	-0.39943537
233	0xbe2a1bed	-0.16612215
234	0xbd2b61a9	-0.041841183
235	0xbf2a330a	-0.6648413
236	0xbeda49f5	-0.4263455
237	0x3f8602df	1.0469626
238	0x3d93e38b	0.07221135
239	0x3da215fb	0.07914349
240	0xbd9540fe	-0.07287787
241	0xbd5185be	-0.051152937
242	0xbe656a7c	-0.22403902
243	0xbea3428b	-0.31886706
244	0x3e2f32e2	0.17109254
245	0xbfa314a0	-1.2740669
246	0x3e59808d	0.21240444
247	0x3e72a5db	0.23696081
248	0xbeed9480	-0.4640236
249	0xbd3bf21c	-0.04588519
250	0x3e89084f	0.2676415
251	0xbf37dfcc	-0.7182586
252	0xbf1531c2	-0.5827905
253	0x3fb014fc	1.3756404
254	0x3d47f8da	0.048821308
255	0xbdbaf4d9	-0.09128732

fc3.bias f4 [21]
0	0x3f2206e8	0.6329179
1	0x3ee81548	0.45328736
2	0x3ec25f3c	0.37963283
3	0x3f1039b1	0.5633803
4	0x3ed26c04	0.41098034
5	0x3ecee130	0.4040618
6	0x3e637895	0.22213967
7	0x3ea543b3	0.32278213
8	0x3e6df8b1	0.232394
9	0x3e74222a	0.23841158
10	0x3e6db479	0.23213376
11	0x3d13014a	0.0358899
12	0x3cccfb23	0.025022095
13	0x3b262108	0.0025349278
14	0x3dac4b3b	0.084127866
15	0x3e881b4e	0.26583332
16	0x3ea103e5	0.31448284
17	0xbb87e487	-0.0041471156
18	0x3e0c6038	0.1370858
19	0x3e4b3c5b	0.19847243
20	0xbacf4c5d	-0.0015815605
