logs/sdf_single_scene_3_spheres/state_23.pt (torch, 13071 bytes, 12 tensors)

fc1.weight f4 [32, 7]
000000 0d e0 21 3e bf 74 75 be e2 94 96 be e5 6c 9e 3c
       0.15808125 -0.23970316 -0.29410464 0.019339034
000010 8b 7d 25 3e e7 d5 8d be 14 62 e3 bd 08 2b cb 3d
       0.16161172 -0.27702257 -0.11102691 0.09920317
000020 e2 ce 19 3e 09 1e 1e 3e db cf 74 bd 75 77 58 3e
       0.15020326 0.15441145 -0.05976854 0.21139319
000030 1a 32 fd 3d 70 4a 14 3d 1b d1 96 3e 2f eb 05 be
       0.12363072 0.0362038 0.2945641 -0.13077997
000040 fe 2e 4f be a4 36 87 3e c3 37 49 3e c0 d2 2c be
       -0.2023277 0.26408875 0.19650178 -0.1687727
000050 9d 2d bd 3e e8 87 16 be dd 73 bb 3e d0 0b bf 3d
       0.36948863 -0.14700282 0.36611834 0.09328425
000060 3e 83 90 be 94 5f 2c 3e 3f 73 96 be 2c 5b 04 be
       -0.2822513 0.16833335 -0.293848 -0.12925404
000070 c5 59 98 bc 96 9d 44 be 99 50 14 be e4 cd 24 3e
       -0.018597493 -0.1920074 -0.1448387 0.16094166
000080 10 aa 3c 3e b0 d2 a9 bd 9a 38 aa 3e 1e c2 58 be
       0.18424249 -0.082921386 0.3324631 -0.211678
000090 de 72 80 be 1b 71 70 be d6 67 2a 3b 69 e4 09 be
       -0.25087637 -0.23480646 0.0026001832 -0.13466038
0000a0 49 16 8a be c7 cb c2 3c 77 90 45 bb 00 7e 0e be
       -0.26970127 0.02377881 -0.0030145922 -0.13915253
0000b0 54 6a 65 bd 30 de 06 be 6f 67 8b 3e 60 55 99 be
       -0.056009606 -0.13170695 0.2722735 -0.29947948
0000c0 b5 1b c2 bc bb 26 32 3e 30 ac 79 3d f5 6c 98 3e
       -0.023694852 0.17397587 0.060955226 0.29770628
0000d0 42 5a cf 3d 1a 1c 94 be a0 6c 81 3e fe 0b 8b be
       0.10124637 -0.2892769 0.25278187 -0.27157587
0000e0 ed e6 6f 3e 61 df aa bd 76 cc 05 be 21 b9 06 3e
       0.23427935 -0.083433874 -0.13066277 0.13156559
0000f0 c4 13 74 3e 94 cc 5a be 18 70 ab be ac 64 b4 3e
       0.23835665 -0.21367103 -0.33483958 0.35233057
000100 f3 a6 a8 3d 7a 0e b9 3e c6 61 13 3e 9c 12 8c be
       0.08234968 0.36143857 0.14392766 -0.27357948
000110 a2 59 4d be 66 dc 9a 3e aa 07 bb 3c f1 9f a2 3d
       -0.20053723 0.30246276 0.022830803 0.07940663
000120 62 9d 18 3e 63 77 93 3d f9 42 81 bd a2 67 23 bd
       0.14903787 0.072005056 -0.06311602 -0.039893754
000130 3a 1f de bd d7 02 95 3c 69 85 8d be 96 7c 1f be
       -0.108458 0.01818983 -0.27640846 -0.1557487
000140 ad 86 81 bd bc 87 b6 bd b4 77 86 3e c0 b5 91 bd
       -0.063245155 -0.08912608 0.262632 -0.07114744
000150 a7 ee 7d be 27 b5 de 3e 45 97 85 be 5a 53 9b be
       -0.2479807 0.43497583 -0.26091972 -0.3033703
000160 ca 7c a5 be 75 26 10 be d9 ec de 3c 19 c3 29 3e
       -0.3232177 -0.1407717 0.027212547 0.1657833
000170 cb 7f 1c bd fd 62 82 be c9 5d 22 bc 6f 5f 25 3e
       -0.03820781 -0.25466147 -0.009910055 0.16149686
000180 fe 91 52 be d0 38 79 3e 5e 97 17 3e f8 2f bc 3d
       -0.20563504 0.24338078 0.14803836 0.09188837
000190 b6 75 07 bd ef 2f a2 be 20 dd 53 3d 25 91 57 3a
       -0.033071242 -0.31677195 0.051724553 0.00082232273
0001a0 ab 2b cb 3d 64 86 c7 bd f0 36 4c 3e e3 e7 ce 3e
       0.099204384 -0.0974243 0.19942832 0.4041129
0001b0 57 c5 4d bd 2b 44 a9 be ca 5d b1 bd 29 f2 c4 3d
       -0.050237026 -0.3305982 -0.08660467 0.09616501
0001c0 2c 82 31 be ce c8 b0 be e5 c7 ca 3e 79 a2 10 be
       -0.17334813 -0.34528202 0.39605632 -0.14124478
0001d0 75 ad a9 3e af 49 28 be a3 5f fc bc 8b 5f 86 be
       0.3314015 -0.16434358 -0.030807322 -0.26244769
0001e0 f6 e2 c7 bd 08 00 3d 3e a6 ba 40 be 82 da b8 bd
       -0.09760086 0.18457043 -0.188212 -0.09026052
0001f0 c0 c9 87 3e 07 b5 2b be 02 cd 55 bd 7a 35 3d be
       0.2652111 -0.16768275 -0.052197464 -0.18477431
000200 78 54 07 3d 12 a0 4a bd 5c d8 00 3e 43 f9 b3 3e
       0.03303954 -0.04946906 0.12582535 0.3515111
000210 c7 51 ee 3c be 34 10 be c9 dc 27 3e 65 d6 58 3e
       0.029091729 -0.1408262 0.16392817 0.21175535
000220 d8 8e 4f bc 4f ac 53 be 36 99 a9 3d 7e e4 24 3e
       -0.012668334 -0.206712 0.08281176 0.16102788
000230 28 9e a6 bc d3 32 68 3d ff 80 49 3d 5f 2a 56 be
       -0.020339087 0.056689095 0.049195286 -0.20914601
000240 80 24 b2 3d ea 52 2d be 6a 84 15 3e a7 f9 10 3e
       0.08698368 -0.1692616 0.14601293 0.14157735
000250 14 cb 06 3e 84 68 f8 bd 37 84 b8 be c7 35 a6 3d
       0.13163406 -0.1212931 -0.36038372 0.08115726
000260 d9 de 6b 3e 79 e1 2e be 9e f7 8c 3d 37 d1 97 bd
       0.23034228 -0.17078198 0.06883167 -0.074129514
000270 31 1d 67 3e cb ae e5 3c 47 96 9d bd b9 06 a4 3e
       0.2256973 0.02803745 -0.07694679 0.3203638
000280 c3 35 99 3c a6 7c a3 bd 89 3f 42 3d 08 9b ec 3d
       0.018702393 -0.07982759 0.047423873 0.11553007
000290 f9 5b 2c 3e f3 98 01 3e 73 d4 5b 3e f1 af ad 3c
       0.1683196 0.12656002 0.21467762 0.02120206
0002a0 ff fd 74 3d f6 c6 e4 be a9 14 73 3e 25 de 4d 3c
       0.059812542 -0.44683045 0.2373835 0.01256517
0002b0 e6 b0 87 bd 8b 0c 1f 3e ed 6b 2d 3e d5 b0 54 3e
       -0.066255376 0.15532129 0.16935702 0.20770581
0002c0 87 ee 9c be 16 53 27 3b f7 e5 90 3e 43 2e 2e 3e
       -0.30650732 0.00255317 0.2830045 0.17009835
0002d0 84 eb 59 3e 69 80 d2 bd 24 8d c3 be ec 28 75 be
       0.21281248 -0.102783985 -0.3819362 -0.23941392
0002e0 6c fd 03 bd 49 a5 1f 3e 91 5f c0 be 0f 99 76 3e
       -0.032224104 0.15590395 -0.3757291 0.24081825
0002f0 42 63 c1 3e f9 ff c2 3c aa 9b 5c 3e 40 00 b1 be
       0.3777104 0.023803698 0.21543756 -0.34570503
000300 70 41 4a bd 2f 35 39 3e 3e 58 02 bf f2 b0 80 3d
       -0.049378812 0.18086694 -0.50915897 0.0628375
000310 0e f4 48 be fb a9 c4 3e 75 7a 93 3e b0 d7 34 3e
       -0.1962435 0.38410935 0.28804365 0.17660403
000320 6a 39 84 be 5c 22 50 3e 2b 86 09 3d a8 56 47 3e
       -0.25825053 0.20325607 0.03357522 0.1946665
000330 f5 8c ad 3b 7e f5 e3 3c 5b a3 eb bc 35 77 2d bd
       0.0052963444 0.02782702 -0.028764417 -0.042350013
000340 99 de ba 3e 77 03 f2 bd da 5f 67 be 65 df cb bd
       0.36497954 -0.11817067 -0.22595158 -0.099547185
000350 9f c3 5b 3d 16 bf 00 bd 02 3c 62 be e3 ad 3e 3e
       0.053653356 -0.031432234 -0.22093204 0.1862102
000360 43 b7 9b 3e 04 f7 28 be 04 69 92 bd af 0e 12 be
       0.30413255 -0.16500479 -0.071489364 -0.14263414
000370 24 36 b7 be 7e 54 a1 bd 56 22 16 3e 4c 49 2b bd
       -0.35783494 -0.07877444 0.14661536 -0.04181795

fc1.bias f4 [32]
000000 ee 7e 0a 3f d7 ec f3 bd 1a e4 c8 3e c7 7d 0c 3f
       0.5409993 -0.11910408 0.39236528 0.5487942
000010 19 58 92 3e d3 8f 10 3f 32 5d fa 3d f1 af 74 3e
       0.28582838 0.5646946 0.12224807 0.23895241
000020 84 ee 28 be e4 ef 5b be 0d 73 c5 3e d6 a7 e0 3e
       -0.16497236 -0.2147823 0.3856434 0.4387805
000030 e2 64 e4 3e b4 1b 23 bd 74 c3 11 3f 43 55 49 3e
       0.44608217 -0.03982134 0.5693886 0.19661431
000040 3d c9 ef 3e 00 93 ee 3e 36 14 1a bc 70 9e e8 3e
       0.4683322 0.46596527 -0.009404233 0.45433378
000050 b7 52 0c 3f 9c 3a a4 3e 23 1c 51 be 59 4a 17 3f
       0.5481371 0.32075965 -0.2042089 0.5909782
000060 4b c6 0e 3e ff e8 04 3f b5 6d 30 be 71 50 48 3e
       0.1394283 0.51918024 -0.1722935 0.19561936
000070 99 03 ae bd e3 86 fd 3e 41 96 49 3d 06 b8 a3 3e
       -0.0849678 0.49516973 0.04921556 0.31976336

fc2.weight f4 [16, 32]
000000 0d b7 e9 bc d1 32 59 3d ca 68 eb 3d 50 b7 c0 3d
       -0.028529668 0.053026978 0.11494596 0.09409964
000010 6a 21 86 3c 8f 15 b6 3d 96 c6 90 3c 4b 1d db bc
       0.016373355 0.08890831 0.017672818 -0.026747366
000020 b9 c3 35 bb d7 5a d9 3c df a1 1c 3e 16 af 50 3e
       -0.0027735068 0.026532574 0.15296124 0.2037929
000030 f2 16 98 3d e4 1c 97 bd fa a0 24 3e c2 62 01 3c
       0.074262515 -0.07378557 0.16077033 0.007897081
000040 45 40 52 3d f4 43 44 3d 4c b0 7b bd 91 96 86 3d
       0.051330823 0.047916368 -0.061447427 0.06571687
000050 ca 6e a5 bd 3b 71 e6 bb 2b 87 bc bd ca 41 02 3e
       -0.08077772 -0.007032541 -0.09205469 0.12720409
000060 3f d7 e6 bb 97 a6 fa 3d de 46 2a 3a c4 07 14 3e
       -0.0070447023 0.12238806 0.00064955454 0.14456087
000070 9e b3 24 3d 89 6f 0d bc 83 b1 aa 3d 1b ea 76 bd
       0.04021036 -0.008632549 0.08334639 -0.060281854
000080 f2 02 a1 3d 9a 6c 16 3e 4e d4 00 3e 0c 07 34 3e
       0.0786189 0.14689866 0.12580988 0.17580813
000090 83 d3 9e 3d 89 ec bb 3d 29 01 d1 3c 5f 80 d4 3d
       0.077551864 0.09175975 0.025513249 0.10376047
0000a0 68 76 21 3e 96 e6 94 3d 70 2f 98 3d 9f 74 56 3e
       0.15767825 0.07270543 0.07430923 0.20942925
0000b0 a4 af 35 3e e2 59 5f 3d b0 2c 16 bd 08 c0 b2 3c
       0.17742783 0.05452908 -0.03666371 0.021820083
0000c0 57 4a 95 3d af 02 1e bd 62 bc 60 3e c9 50 17 3e
       0.0728957 -0.038576778 0.21946862 0.14776911
0000d0 df 4b aa 3d 2b ee 2c bd 7e 6b 15 3d 93 fc 39 bd
       0.083152525 -0.042219322 0.036479466 -0.04540689
0000e0 e1 d0 eb 3c 19 f9 fc 3c 08 6c 4f 3d 83 41 6a 3d
       0.028786125 0.030880498 0.050640136 0.057191383
0000f0 06 24 95 3c f0 4f ce 3d 68 47 e8 3b a4 1d bb bc
       0.018205654 0.100738406 0.0070885904 -0.022841282
000100 08 0f ee 3c e0 fe 10 3e 90 39 0c bc 40 fb e2 3b
       0.029059902 0.14159727 -0.008558646 0.006926924
000110 44 91 1a 3e 5e 99 cb 3c f7 6e 26 3c 66 e6 f5 3d
       0.15094477 0.024853405 0.010158292 0.12006836
000120 b2 b9 01 3e 0e db b9 3d 68 a6 aa bd 93 a5 8a 3d
       0.12668493 0.090749845 -0.08332521 0.06769862
000130 76 ab a1 3d 62 d4 55 3d 87 f7 d2 3c 87 b4 37 3d
       0.07894032 0.052204497 0.025752796 0.0448499
000140 71 ff 81 3d f4 17 44 3d 78 08 60 3c 22 0a f4 bd
       0.0634755 0.047874406 0.013673894 -0.11915995
000150 81 0c 88 3d 8a 88 25 3d 20 41 6a 3d fe 41 ab bd
       0.0664301 0.040413417 0.057191014 -0.083621964
000160 61 e2 cd 3d 19 80 1d bd 75 3c 8a 3d 70 93 15 3d
       0.10052944 -0.03845224 0.067498125 0.03651756
000170 99 70 09 3e a6 0b 61 3d cd 7e 82 3c 28 fc 90 bb
       0.13421859 0.05494275 0.015929604 -0.0044245906
000180 ca 79 a3 3c a1 03 13 bc bd bf fd 3c 0c 4d 94 3d
       0.019955534 -0.008973033 0.030975217 0.07241258
000190 2e dd 7f 3d 07 a4 d6 3d 51 03 00 bd 33 ef 9d 3d
       0.062466793 0.104805045 -0.031253163 0.07711639
0001a0 67 6b fe 3d a6 f8 9a 3d 3a 92 94 3d 9e 47 f6 3d
       0.12422829 0.07566957 0.07254453 0.12025379
0001b0 de 06 f2 3d a7 e5 01 3e 2d 5b 47 ba 36 98 b6 3c
       0.11817716 0.12685262 -0.0007604834 0.022289377
0001c0 11 74 7e 3d 19 d6 09 bd b0 bd 23 3e 43 ce 70 b9
       0.06212241 -0.033651445 0.15990329 -0.00022965022
0001d0 eb 08 e3 3d 37 29 11 3e 7b 98 32 3e 2c f7 6b bd
       0.11085685 0.14175878 0.17440979 -0.05760877
0001e0 c8 c4 91 3d 80 38 00 bc da 08 be 3d 51 b1 32 bd
       0.07117611 -0.007825971 0.09279032 -0.043626133
0001f0 82 6d ca 3d ac 69 90 bd cd 06 82 bd c6 49 c4 bd
       0.09884168 -0.07051405 -0.063489534 -0.09584384
000200 90 db 00 3e 61 3a 56 3c 8d c3 50 3c df 99 84 3d
       0.12583756 0.013075442 0.012741935 0.06474661
000210 4e 43 fc 3d 92 5e 61 3d 4b 20 a7 bc 4e 9c 1a 3e
       0.12317525 0.05502183 -0.02040114 0.15098688
000220 bf 16 ca 3d 57 05 8d 3d 9e f0 1a 3e fa d6 3f 3e
       0.0986762 0.06885784 0.1513085 0.18734351
000230 10 f4 84 3d 4d 0f bc 3b 31 83 40 3e b1 8c 1e bc
       0.06491864 0.0057391287 0.18800046 -0.009677098
000240 9b 90 40 3d b3 73 5b bc c6 12 20 3e de 02 40 3e
       0.047012907 -0.013394284 0.15632161 0.18751094
000250 d9 07 56 3c 02 32 db 3c 62 a0 e8 bc 93 16 23 3d
       0.013063394 0.026757244 -0.028396789 0.03981645
000260 74 28 d5 3d f6 00 5e bd 4b f9 eb 3d 3a 09 45 3d
       0.104081064 -0.054200135 0.11522158 0.048104502
000270 d3 cd dd 3b 75 30 25 bd 89 a2 15 be 26 6d 76 bd
       0.006768921 -0.040329415 -0.14612783 -0.060162686
000280 ad e2 36 be 57 27 84 bd dc 67 91 be 34 93 c1 bd
       -0.17859907 -0.06452816 -0.2839955 -0.09451905
000290 73 20 e0 bd 8a 7c 9b be fd 53 cc 3d 5c 40 10 bd
       -0.10943689 -0.30368453 0.09976957 -0.035217628
0002a0 5f 62 23 3e fd c5 d7 be a4 cf 38 3e ff 5e 3f be
       0.15955494 -0.4214324 0.18047959 -0.18688582
0002b0 3e 9d de 3d f8 01 2a be 5f f2 21 3d c0 0f 5d 3d
       0.10869835 -0.16602314 0.039537784 0.0539701
0002c0 d2 6f 91 bd 95 15 27 be c4 d0 b4 3d 19 81 88 3d
       -0.07101406 -0.16316827 0.088288814 0.066652484
0002d0 61 b8 42 3e 2e e5 9c 3c 45 94 42 be 0e 70 b4 3d
       0.19015647 0.01915225 -0.19001873 0.08810435
0002e0 79 04 44 be 55 35 89 3d e9 63 71 bd 60 ba 35 3d
       -0.19142331 0.066996254 -0.058933172 0.044367194
0002f0 0d 12 d1 be 5b 73 19 3c 2b 20 dd bc d9 2a 10 be
       -0.40834084 0.009365882 -0.026992878 -0.14078845
000300 d5 d1 c2 3d d3 2c ac bc a8 2b ac 3c cc 08 81 bc
       0.095126785 -0.021017468 0.02101691 -0.015751265
000310 fa 88 77 3d 74 88 13 3d ed 51 40 bd eb cf 7c 3d
       0.060433365 0.036018804 -0.04695313 0.061721724
000320 64 a9 2b be 9f 08 38 bd 25 79 19 3e c2 fe 2f 3e
       -0.16763836 -0.044930097 0.14987619 0.17187026
000330 0a 1d 04 3e a9 1e 38 be b8 4f 38 be 72 02 9a bd
       0.12901703 -0.17980446 -0.1799916 -0.07519998
000340 91 d3 28 bd f9 1b 75 bd a4 d1 00 3e d5 4d df 3c
       -0.04121739 -0.05984113 0.12579972 0.027258793
000350 69 f8 9a 3c fc c7 b7 bd 53 47 0c be de 4c 4a bc
       0.01891728 -0.08973691 -0.13699083 -0.012347428
000360 92 68 11 3e f4 d1 14 be ca a2 55 3c 4f af 1e 3e
       0.14200047 -0.14533216 0.0130393 0.15496562
000370 5c 86 57 3d ab b5 bd 3b 43 2d 64 3d 27 89 d5 bd
       0.05261837 0.005789479 0.055707227 -0.1042655
000380 46 81 b5 3c 04 c0 9e bd 2b 57 e5 3b d9 e8 1a 3d
       0.022156369 -0.07751468 0.0069989166 0.037819717
000390 4c 43 f9 3d 41 c3 8a 3d 06 da 30 3c 20 35 a1 bd
       0.12171039 0.06775523 0.010794168 -0.07871461
0003a0 20 24 cc 3c 38 4b 5b 3d 3c 79 12 bb a2 88 ce bb
       0.02491957 0.05353853 -0.0022350093 -0.006302909
0003b0 ca 1b 54 3d a3 2c ab 3c 72 23 9c 3d 48 ec 81 3c
       0.051784314 0.020895308 0.07623948 0.015859738
0003c0 2a 5e 47 3c a9 c8 1b 3e ed d2 c8 bd dc 02 40 bd
       0.012168447 0.15213265 -0.09805856 -0.046877727
0003d0 be 32 d2 3d 37 82 c3 bc 52 07 c0 3d 05 80 de 3c
       0.102635846 -0.023865802 0.09376396 0.027160654
0003e0 77 e6 d6 bc 6a 1f b7 3d eb 3c 13 bd 8d 85 03 3d
       -0.026232941 0.08941539 -0.035946768 0.032109786
0003f0 62 97 dc 3c 33 e3 48 3e a1 bd 55 3d 56 a4 ac bd
       0.026927654 0.1961792 0.052182797 -0.08429782

fc2.bias f4 [16]
000000 d9 52 9c 3e 0c 2a 83 3e 04 2a 90 be 45 2f b6 be
       0.30531958 0.25618017 -0.28157055 -0.3558294
000010 bf cf 12 3e a5 4f 87 3d f9 b9 79 3d c6 72 7b 3e
       0.14337061 0.06606988 0.060968373 0.24555501
000020 70 04 31 3c cb e7 b2 be d3 32 ce 3e dd 2e 9a bb
       0.010804281 -0.3494247 0.4027315 -0.0047052936
000030 ec 8c 8e 3d 25 e7 b4 3d 3d 2c 61 3e 56 29 38 3e
       0.069604725 0.0883315 0.21989532 0.17984518

fc3.weight f4 [21, 16]
000000 ee 29 be 3d 38 c2 bd bc 60 dc 87 bd ac ea 15 be
       0.09285341 -0.0231639 -0.0663383 -0.14640301
000010 99 d2 34 3d de f9 09 bd 84 2f 0b 3d d2 de 8d 3d
       0.044146154 -0.033685558 0.03398086 0.06927265
000020 7e 0f 2f bd 08 41 f7 bd eb b4 05 3e e5 d9 14 bd
       -0.042739384 -0.120729506 0.13057296 -0.036340613
000030 d3 28 4d bd 2b 1a 33 bd 76 3f 26 be ca 4b c4 3d
       -0.05008776 -0.043726128 -0.16235146 0.09584768
000040 7f 95 fa 3d 2e 70 29 bd f4 9e 7e bd c4 e4 45 be
       0.12235545 -0.04136675 -0.06216331 -0.19325548
000050 1a a1 9e 3d d7 20 22 bd 9c 30 32 3d f9 9a 97 3d
       0.077455714 -0.0395821 0.04350339 0.074026056
000060 84 d0 74 bd 3e e1 06 be 73 ac 36 3e 76 fc 17 bd
       -0.05976917 -0.1317186 0.17839222 -0.037106
000070 ed d1 78 bd 50 9e 52 bd 70 b5 17 be 89 25 38 3d
       -0.060747076 -0.05142051 -0.14815307 0.04495767
000080 49 1b a5 3d 29 39 fc 3d 86 37 52 bd 77 aa 0a be
       0.08061845 0.1231559 -0.051322483 -0.1354159
000090 b9 ab 7a 3d 2c d6 33 bd 0b 10 4e 3d 89 c7 dd 3b
       0.061198924 -0.043905422 0.05030827 0.006768171
0000a0 74 22 6f bd 8b b1 da bd d7 ff 0f bd c6 1b 0c bd
       -0.058382466 -0.10678395 -0.035156097 -0.034206174
0000b0 4a ea 86 bd ba 69 84 bc 94 8d 09 3e c6 b1 6f bc
       -0.06587656 -0.016163696 0.13432914 -0.014629787
0000c0 15 b3 b6 3d ab c6 33 3c 32 58 5a bd 70 59 01 be
       0.08920876 0.010972659 -0.053306766 -0.12631774
0000d0 c2 f1 96 3c b9 29 61 bd 33 c6 3d 3d aa 95 8a ba
       0.018425826 -0.05497143 0.046331596 -0.0010573168
0000e0 fb 68 9c bd 3b cc 1e be 9a 6d 40 3e 5e d2 2e bd
       -0.07637211 -0.15507595 0.1879181 -0.04268109
0000f0 01 80 99 bd 48 7e 94 3d d0 57 34 bd 13 40 37 bd
       -0.07495118 0.07250649 -0.044029057 -0.04473884
000100 60 64 15 3e 59 b9 5b 3d 67 ae 81 bd d7 ca 22 be
       0.14589071 0.05364356 -0.06332093 -0.1589769
000110 48 62 fc 3c 53 e0 9c bd 17 45 75 3d 36 d8 91 3b
       0.030808583 -0.07659974 0.059880342 0.004450823
000120 06 c5 cb bd 44 24 48 be 4f e4 fb 3d 9d 57 73 bd
       -0.099496886 -0.19545084 0.12299406 -0.059409726
000130 d5 5b cd bd c2 15 af 3d b3 7a 55 3b 1e 0e 28 ba
       -0.10027281 0.08549072 0.0032574355 -0.0006410795
000140 bd c3 12 3d 00 83 4f 3d 18 7b a5 bc e7 bc a7 bc
       0.0358312 0.05066204 -0.020200297 -0.020475818
000150 1b 8c 23 3d b4 43 0e bd ba 6a 6d 3c 68 eb f4 3c
       0.039928537 -0.034732535 0.014490778 0.029897407
000160 bd 16 49 bd a7 8e a2 bc cf 86 b4 bd 73 1d 9d bc
       -0.04909395 -0.019843413 -0.08814775 -0.019179082
000170 96 d7 32 bd 47 2d db 3d 4f e8 89 3d c6 7a ac 3c
       -0.04366263 0.10701995 0.067337625 0.021054637
000180 48 5a f2 3d da 9b 6c 3e de db 49 be 04 b6 53 be
       0.11833626 0.23106328 -0.19712779 -0.20674902
000190 93 30 a5 3d fa fc 98 be e3 6b 08 3e e8 55 ca 3d
       0.080659054 -0.29880506 0.13322406 0.098796666
0001a0 c3 86 5f be b7 31 68 be 98 08 08 be f8 4f 31 be
       -0.21828751 -0.22675215 -0.13284528 -0.17315662
0001b0 5e 23 69 be cc 5e a7 3e 09 b6 5d 3e 30 5c 18 3e
       -0.22767398 0.32689512 0.21651472 0.14878917
0001c0 43 04 39 3d af 71 e2 3d 2c 96 b1 bd 88 b1 05 be
       0.04517008 0.1105684 -0.08671221 -0.13056004
0001d0 48 ab 1b bd 21 61 88 be 76 ed 64 3d ff 5a fa bb
       -0.038005143 -0.26636603 0.055890523 -0.007640242
0001e0 76 99 f4 bd da c8 59 be 09 39 25 3e 4e 11 28 be
       -0.11943333 -0.21268025 0.16135038 -0.16412851
0001f0 d6 8a 08 be 5c fd a3 3e c4 03 a2 bd 24 20 20 3d
       -0.13334212 0.32029235 -0.079108745 0.03909315
000200 f1 6a ae 3c 44 20 72 3c e5 d2 38 bd c4 a7 0d be
       0.021291228 0.014778201 -0.045123 -0.13833529
000210 c8 4a cb b9 31 d2 8b be 11 21 83 3d 60 ed ca 3d
       -0.00038774894 -0.273088 0.06402791 0.09908557
000220 55 37 0d be 27 2d a2 bd a4 47 44 3d 7d ed 09 be
       -0.13790639 -0.079187684 0.047919884 -0.13469501
000230 a5 ff ea bd c6 a1 c8 3e a8 28 97 bc 47 ae a5 3d
       -0.114745416 0.39185923 -0.018452004 0.080898814
000240 82 3b f0 bc 0d de 6a 3d 65 db 2d be f0 9e 85 be
       -0.02932525 0.05734067 -0.16978224 -0.26097822
000250 ee 04 23 bd 6c ce d6 be a7 16 ff 3d 50 b8 1f 3d
       -0.039799623 -0.41954362 0.124554925 0.038994133
000260 06 5a 49 be b5 f0 12 be e7 91 9f 3d 90 b5 40 be
       -0.19663247 -0.14349635 0.077915005 -0.1881926
000270 10 61 82 be 32 34 d4 3e f3 d9 37 3d e5 b6 82 3e
       -0.25464678 0.41446072 0.044885587 0.25530162
000280 6a 24 0a 3e fd 92 eb 3c 87 48 5f bd f8 30 7d be
       0.13490453 0.028756613 -0.054512527 -0.24725711
000290 b1 e8 84 3d 26 1a d0 be 32 b8 9e 3d 80 1d 28 3e
       0.06489695 -0.4064495 0.07749976 0.16417503
0002a0 1e de 5b be d1 a3 0d be e1 6f 97 3b 47 71 70 be
       -0.2147145 -0.13832022 0.0046214913 -0.23480712
0002b0 b2 1f 5c be 9c 55 f2 3e 24 9a 8d bd c8 3d 33 3e
       -0.21496466 0.4733094 -0.069141656 0.17504036
0002c0 d1 a3 0c 3e f8 5c 0c 3e 5e 22 1c be 94 d3 4b be
       0.13734366 0.1370734 -0.15247485 -0.1990493
0002d0 54 a2 41 3e 87 3c d3 be 55 28 a9 3d 84 45 43 3e
       0.1890958 -0.41257116 0.08259646 0.19069487
0002e0 d7 92 72 be c8 c3 1e be ec d6 a8 bd 27 8b 64 be
       -0.23688827 -0.15504372 -0.08244118 -0.22318707
0002f0 ec 1f 6a be d1 86 e5 3e 90 19 ec 3c c5 67 aa 3d
       -0.2286374 0.4482942 0.028820783 0.08320574
000300 ba 39 7e 3e e0 e7 49 3e 59 f2 25 be 9a a7 a2 be
       0.24826708 0.1971736 -0.1620573 -0.31768495
000310 93 68 f5 3d d4 69 0e bf 00 d1 f9 3d aa 91 23 bd
       0.119828366 -0.5563023 0.12198067 -0.039933838
000320 35 3e 8a be 67 2c 94 be 69 f0 af bc c7 79 90 be
       -0.27000585 -0.28940126 -0.021476941 -0.2821791
000330 62 07 b0 be d3 dd e8 3e 86 eb 52 3e 6c 32 c6 3d
       -0.34380633 0.45481738 0.20597658 0.09677586
000340 9d 1b 99 3e 4d 55 88 3e 53 67 cf bd 2c db 9a be
       0.2990388 0.2662758 -0.101271294 -0.3024534
000350 8c 77 78 3d 2d 32 1f bf 9c d9 bb 3d e5 5f a2 3d
       0.060660884 -0.6218594 0.09172365 0.07928447
000360 b7 fd 9a be 17 bd bf be 91 56 80 bd 49 07 c4 be
       -0.30271694 -0.37448952 -0.06266511 -0.38286808
000370 b1 2c a3 be 39 6a b7 3e d6 bf 0a bd e7 ee 5c 3e
       -0.31870034 0.3582323 -0.033874355 0.21575509
000380 10 c9 9b 3d 29 67 3e 3e 97 db f0 bd 7b 87 81 be
       0.07606709 0.1859404 -0.117606334 -0.25298676
000390 bf ef 1b 3e 8a 35 00 bf 9c fb aa 3d 94 1b 33 3e
       0.15228175 -0.50081694 0.08348772 0.17490989
0003a0 a9 70 89 be 99 9f 1d be 49 a7 46 bd 61 84 93 be
       -0.26843765 -0.15392913 -0.04849938 -0.28811935
0003b0 b5 53 8e be 30 db e1 3e 44 36 ea 3c 4f 6f 6f 3d
       -0.27798238 0.4411254 0.028590329 0.05845576
0003c0 3d 8f b4 bd 0c fb 1c bd 47 a2 4c be 83 7d 9c be
       -0.08816383 -0.038325354 -0.19983779 -0.30564508
0003d0 51 56 40 3e 33 26 cd be 8d eb 13 3e 0a 63 5f 3e
       0.18782927 -0.40068206 0.14445324 0.21815124
0003e0 cd b0 87 be 50 f9 1b bd 23 4d 89 3e 0e 6f 90 be
       -0.26502076 -0.03807956 0.26816663 -0.28209728
0003f0 b4 84 b9 be 82 54 0b 3f d2 bc d9 3c f3 b3 ce bd
       -0.36234057 0.54425824 0.026579294 -0.10092916

fc3.bias f4 [21]
000000 54 b0 dd 3e f8 87 61 3e c4 a4 2e 3e c8 fe d1 3e
       0.4329859 0.22024524 0.1705504 0.41014695
000010 ad 0f 54 3e 85 e1 b9 3e e1 9f b2 3d 44 d7 a2 3e
       0.20709105 0.3630487 0.08721901 0.3180486
000020 b3 5b 70 3e 2b 54 64 3e 78 e7 6d 3e 4d fb 46 3c
       0.2347248 0.22297733 0.2323283 0.012144876
000030 c9 1d 11 3d 4d c3 c2 3c 1d 3b 02 3e 5c 1d a5 3e
       0.035428796 0.023774767 0.12717862 0.32248962
000040 ae 6d c0 3e 85 85 23 3c c4 ff 21 3e 88 97 6b 3e
       0.3758368 0.009980564 0.15820223 0.23007023
000050 ee 8c b1 3b
       0.0054184115

fc1.weight f4 [32, 7]
000000 4c a7 21 3e 15 f2 74 be 1b 5c 96 be bd 44 a0 3c
       0.15786475 -0.23920472 -0.29367146 0.019564027
000010 79 b0 25 3e f9 ea 8d be f6 8b e3 bd 1a 77 ca 3d
       0.161806 -0.27718332 -0.1111068 0.09885998
000020 c3 80 19 3e 8e 9f 1e 3e fa b5 74 bd 65 4c 58 3e
       0.14990525 0.15490553 -0.05974386 0.21122892
000030 5f e2 fd 3d 94 f0 12 3d a4 bc 96 3e 66 e1 05 be
       0.123966925 0.035873964 0.29440796 -0.13074264
000040 04 73 4f be fb 2f 87 3e 50 e9 48 3e 26 0d 2d be
       -0.20258719 0.26403794 0.19620252 -0.16899547
000050 85 15 bd 3e 12 c2 15 be 52 82 bb 3e 82 89 bd 3d
       0.3693048 -0.14624813 0.36622864 0.09254743
000060 90 59 90 be d5 c0 2c 3e 35 a1 96 be bf ed 04 be
       -0.2819333 0.16870435 -0.29419866 -0.12981318
000070 27 11 94 bc fe 46 44 be 0b 60 14 be 15 fe 24 3e
       -0.018074585 -0.19167706 -0.14489762 0.1611255
000080 70 55 3c 3e 67 32 aa bd 28 33 aa 3e 62 a9 58 be
       0.18391967 -0.08310395 0.33242154 -0.21158364
000090 9e 4b 80 be 0b b0 70 be e7 f4 3a 3b 03 df 09 be
       -0.2505769 -0.23504655 0.002852732 -0.13463978
0000a0 0b fb 89 be 16 d3 c6 3c da 57 19 bb e1 0a 0e be
       -0.26949343 0.024270575 -0.002339831 -0.13871337
0000b0 c8 f7 64 bd b1 43 07 be 78 37 8b 3e 76 67 99 be
       -0.055900365 -0.13209416 0.27190757 -0.29961747
0000c0 0a 58 c6 bc ed e9 32 3e 7f 40 7a 3d fe 41 98 3e
       -0.024211902 0.17472048 0.061096665 0.29737848
0000d0 2e 9a d0 3d a7 da 93 be 8a 4f 81 3e 02 47 8b be
       0.101856574 -0.28877756 0.25255996 -0.27202612
0000e0 ac 12 70 3e 2d db a9 bd 69 8c 05 be 62 36 06 3e
       0.23444623 -0.082937576 -0.13041843 0.13106683
0000f0 d0 6f 74 3e e9 6f 5a be c7 96 ab be 54 34 b4 3e
       0.23870778 -0.21331753 -0.3351347 0.35196173
000100 85 88 a6 3d 1f 35 b9 3e d6 17 13 3e 7b f2 8b be
       0.08131508 0.3617334 0.14364561 -0.27333435
000110 4e d1 4c be 00 f3 9a 3e 12 5e bc 3c b5 1a a2 3d
       -0.20001718 0.3026352 0.022994075 0.0791525
000120 1d 9d 18 3e 5e 9e 93 3d c1 31 81 bd a6 79 21 bd
       0.14903684 0.072079405 -0.06308318 -0.039422654
000130 b8 8e dd bd ca 8e 95 3c 02 70 8d be 00 8a 1f be
       -0.10818237 0.018256564 -0.27624518 -0.15579987
000140 31 88 82 bd c2 05 b6 bd f9 73 86 3e a5 49 91 bd
       -0.06373633 -0.08887817 0.26260355 -0.07094125
000150 92 36 7e be 36 62 de 3e 2b 99 85 be d0 45 9b be
       -0.24825504 0.43434304 -0.2609342 -0.303267
000160 a4 8b a5 be c0 1c 10 be e0 61 e0 3c 56 98 29 3e
       -0.323331 -0.14073467 0.02739042 0.16562018
000170 ac b0 1e bd 2f 67 82 be c8 5d 19 bc 4d 3e 25 3e
       -0.038742706 -0.25469348 -0.009360738 0.16137047
000180 1c 15 52 be 15 90 79 3e d7 a0 17 3e 26 16 bc 3d
       -0.20515865 0.24371369 0.1480745 0.09183912
000190 72 d7 08 bd 2a 40 a2 be 8c 9d 54 3d dd 68 30 3a
       -0.03340859 -0.31689578 0.05190806 0.0006729493
0001a0 a7 58 cb 3d ea a2 c8 bd 5d ca 4b 3e 52 b6 ce 3e
       0.099290185 -0.097966984 0.19901414 0.40373474
0001b0 c6 17 4f bd 3a 3d a9 be e6 e2 b0 bd 84 ce c3 3d
       -0.05055978 -0.33054525 -0.086370274 0.09560874
0001c0 5e 73 31 be ea 08 b1 be a6 96 ca 3e bb 4d 11 be
       -0.17329165 -0.34577113 0.3956806 -0.14189808
0001d0 ac a0 a9 3e 34 d1 28 be 5e f3 f9 bc bc 7c 86 be
       0.33130395 -0.16486055 -0.030511554 -0.2626704
0001e0 82 bb c7 bd be fc 3c 3e 37 e5 40 be 15 3a b8 bd
       -0.09752561 0.18455788 -0.18837439 -0.08995453
0001f0 63 cf 87 3e 7d a6 2b be 40 a1 56 bd d1 21 3d be
       0.2652541 -0.16762729 -0.052399874 -0.18469931
000200 15 d9 07 3d ae 57 4a bd f0 e7 00 3e 6e fa b3 3e
       0.03316601 -0.049400024 0.12588477 0.35152
000210 83 a8 ee 3c 78 9d 10 be 4e 75 27 3e a1 90 58 3e
       0.029133087 -0.1412257 0.16353342 0.21148922
000220 54 df 4b bc 2c 04 54 be 67 e4 a9 3d 04 2d 25 3e
       -0.012443382 -0.20704716 0.082955174 0.16130453
000230 0b 25 a8 bc 37 aa 68 3d 32 88 4a 3d 8f 53 56 be
       -0.020525476 0.056802955 0.049446292 -0.20930313
000240 35 ff b1 3d 31 67 2d be fe 59 15 3e b3 37 10 3e
       0.08691255 -0.16933896 0.1458511 0.14083748
000250 fa 54 07 3e 9b e7 f8 bd c5 68 b8 be 8a f0 a6 3d
       0.1321601 -0.1215355 -0.36017433 0.08151348
000260 92 ea 6b 3e 88 6e 2f be 29 b5 8c 3d d8 20 98 bd
       0.230387 -0.17132008 0.06870491 -0.074281394
000270 eb 2b 67 3e 92 7d e6 3c 80 64 9d bd 61 f7 a3 3e
       0.22575347 0.028136048 -0.076851845 0.32024673
000280 c6 5c 99 3c 2e ab a3 bd f2 b1 43 3d 1d 41 ec 3d
       0.018720996 -0.07991634 0.047777124 0.11535857
000290 08 45 2c 3e da 85 01 3e 8e cd 5b 3e 34 04 ab 3c
       0.16823208 0.12648717 0.21465132 0.020876028
0002a0 e6 77 74 3d 94 d3 e4 be 7e 43 73 3e fa 0c 47 3c
       0.059684657 -0.4469267 0.23756215 0.01214909
0002b0 64 c0 88 bd 02 3e 1f 3e 0c 5a 2d 3e af f5 54 3e
       -0.066773206 0.15550998 0.16928881 0.20796846
0002c0 08 2e 9d be 2f 35 23 3b f8 c9 90 3e 63 37 2e 3e
       -0.30699182 0.0024903526 0.2827909 0.17013316
0002d0 73 d1 59 3e df 95 d2 bd a9 56 c3 be 77 ba 75 be
       0.21271305 -0.10282492 -0.38152054 -0.23996912
0002e0 14 18 04 bd 23 48 20 3e f0 55 c0 be 83 d5 76 3e
       -0.032249525 0.15652518 -0.37565565 0.24104886
0002f0 fb 18 c1 3e b5 bb c5 3c f3 91 5c 3e 89 ed b0 be
       0.3771437 0.024137357 0.2154005 -0.34556225
000300 f3 7a 49 bd 0b 0d 39 3e fb 65 02 bf 74 a7 80 3d
       -0.04918952 0.18071382 -0.5093686 0.06281939
000310 11 ca 48 be ab 75 c4 3e c2 97 93 3e f9 db 34 3e
       -0.19608332 0.38371024 0.2882672 0.17662038
000320 36 3b 84 be 72 d3 4f 3e 0c 2b 0a 3d 4e 6d 47 3e
       -0.25826424 0.20295504 0.03373246 0.1947529
000330 5e e7 b2 3b 69 fa e2 3c 17 6f ec bc d7 ad 2d bd
       0.00545971 0.027707295 -0.028861566 -0.042402115
000340 e1 e1 ba 3e 6b b9 f1 bd 67 72 67 be eb 38 cc bd
       0.36500457 -0.11802944 -0.22602235 -0.09971794
000350 a8 db 5b 3d 02 ca ff bc 00 2d 62 be d3 ba 3e 3e
       0.053676277 -0.031224255 -0.22087479 0.18625955
000360 1d b6 9b 3e 31 4a 29 be d2 7a 92 bd 1b 1a 12 be
       0.3041238 -0.16532208 -0.07152332 -0.14267771
000370 67 47 b7 be 86 bf a0 bd 9f 2e 16 3e b4 ca 2c bd
       -0.35796663 -0.0784903 0.14666222 -0.0421855

fc1.bias f4 [32]
000000 59 90 0a 3f 58 f3 f3 bd e3 03 c9 3e e6 42 0c 3f
       0.5412651 -0.119116485 0.39260778 0.5478958
000010 66 6c 92 3e 85 92 10 3f b3 60 fa 3d b4 5e 74 3e
       0.28598326 0.5647357 0.12225475 0.23864251
000020 eb f0 28 be f5 7d 5b be 50 9d c5 3e 1e d2 e0 3e
       -0.16498153 -0.21434768 0.38596582 0.43910307
000030 82 52 e4 3e 31 47 22 bd 9d b8 11 3f 52 7d 49 3e
       0.44594198 -0.039618675 0.5692232 0.19676712
000040 6c 80 ef 3e dd 8d ee 3e 1f 82 16 bc 5c 91 e8 3e
       0.46777666 0.46592608 -0.009186297 0.454234
000050 1b 55 0c 3f 0f 51 a4 3e 6d 62 51 be 8a 4e 17 3f
       0.5481736 0.32093093 -0.20447703 0.59104216
000060 a9 52 0e 3e a3 fb 04 3f 6e 28 31 be 15 af 48 3e
       0.1389872 0.5194647 -0.17300579 0.19598038
000070 b6 96 ac bd de 83 fd 3e 2a 3d 49 3d 0e c3 a3 3e
       -0.08427183 0.4951467 0.049130596 0.31984752

fc2.weight f4 [16, 32]
000000 e1 92 eb bc 5a 12 5a 3d 72 43 eb 3d be d9 c0 3d
       -0.02875656 0.053240158 0.114874735 0.09416531
000010 11 64 85 3c d4 d5 b5 3d 71 da 90 3c 30 33 db bc
       0.016283067 0.08878675 0.017682286 -0.026757807
000020 52 1f 30 bb 2a 37 d8 3c 4f 00 1d 3e dc d1 50 3e
       -0.0026874137 0.026393492 0.15332149 0.20392555
000030 c4 21 98 3d 26 36 97 bd 1d 98 24 3e 9c 2d 02 3c
       0.07428315 -0.07383375 0.16073652 0.007945444
000040 cb 14 52 3d 2f a6 44 3d 88 29 7c bd 8a a9 86 3d
       0.05128936 0.048010048 -0.061563045 0.06575306
000050 6d ea a5 bd 0d 7a e5 bb e2 d6 bc bd 2e 31 02 3e
       -0.08101354 -0.007003075 -0.09220673 0.12714073
000060 ce ed e1 bb 68 c2 fa 3d 1a 60 39 3a 44 35 14 3e
       -0.0068948036 0.12244111 0.000707151 0.14473444
000070 dc 49 25 3d 7b e6 0d bc 40 bd aa 3d 6f b4 76 bd
       0.04035364 -0.008660908 0.08336878 -0.06023067
000080 53 2d a1 3d ca 7e 16 3e 4a c0 00 3e b0 24 34 3e
       0.07869973 0.14696804 0.12573352 0.1759212
000090 a7 98 9e 3d ed e6 bb 3d 32 87 d1 3c 7e 89 d4 3d
       0.0774396 0.09174905 0.025577161 0.10377787
0000a0 e2 c4 21 3e 44 fc 94 3d 72 80 98 3d 41 94 56 3e
       0.15797761 0.07274678 0.07446374 0.20954992
0000b0 23 bd 35 3e 10 03 60 3d b5 73 16 bd 74 2d b3 3c
       0.17747931 0.05469042 -0.03673144 0.02187226
0000c0 39 18 95 3d 33 ca 1d bd c5 d7 60 3e c0 83 17 3e
       0.07280011 -0.03852291 0.2195731 0.14796352
0000d0 83 33 aa 3d ed 23 2d bd 80 bd 15 3d 74 e7 39 bd
       0.08310606 -0.04227059 0.036557674 -0.045386747
0000e0 08 f0 eb 3c 91 43 fb 3c 3e b7 4e 3d f2 2a 6a 3d
       0.02880098 0.030671867 0.050467722 0.057169862
0000f0 d8 73 94 3c e4 3d ce 3d a1 8c e5 3b 1c ba ba bc
       0.018121645 0.100703984 0.0070052897 -0.022793822
000100 0c e4 ed 3c b0 15 11 3e ff 51 0a bc f0 80 e3 3b
       0.029039405 0.1416843 -0.008442401 0.006942861
000110 68 c3 1a 3e 5e 9c cc 3c 3f 25 2a 3c 07 f5 f5 3d
       0.15113604 0.024976905 0.010384857 0.12009626
000120 4c b6 01 3e d4 f6 b9 3d 77 c4 aa bd 64 9e 8a 3d
       0.12667197 0.09080282 -0.08338254 0.06768492
000130 30 db a1 3d 1b df 54 3d 4a a0 d2 3c 95 84 37 3d
       0.07903135 0.051970582 0.025711197 0.044804174
000140 a7 f4 81 3d 8e 3c 44 3d 80 a5 5f 3c b0 12 f4 bd
       0.06345492 0.047909312 0.013650298 -0.11917627
000150 30 15 88 3d b5 65 25 3d 15 53 69 3d cf 0e ab bd
       0.06644666 0.0403802 0.056964 -0.08352434
000160 75 e0 cd 3d 34 85 1d bd fe dc 89 3d 38 73 16 3d
       0.100525774 -0.03845711 0.06731604 0.036730975
000170 da 77 09 3e 4d 36 61 3d be 00 84 3c bf 7d 91 bb
       0.13424626 0.054983426 0.016113635 -0.004440039
000180 11 42 a3 3c 88 8a 13 bc 06 d3 fd 3c d6 71 94 3d
       0.019928964 -0.009005196 0.030984413 0.07248275
000190 96 d7 7f 3d 37 b3 d6 3d 57 0c fe bc 6a f5 9d 3d
       0.06246146 0.10483401 -0.031011743 0.07712825
0001a0 f5 66 fe 3d 05 ee 9a 3d 77 65 94 3d d8 09 f6 3d
       0.12421981 0.0756493 0.072459154 0.12013596
0001b0 0c 03 f2 3d f3 d8 01 3e 3a 69 4e ba 4e cb b5 3c
       0.118169874 0.12680416 -0.00078739563 0.02219167
0001c0 10 0a 7e 3d 38 ea 09 bd 87 c7 23 3e 7e 08 86 b9
       0.062021315 -0.033670634 0.15994082 -0.000255648
0001d0 65 41 e3 3d a7 1d 11 3e e0 87 32 3e fd f0 6b bd
       0.110964574 0.14171468 0.17434645 -0.05760287
0001e0 b7 e9 91 3d ad ca fe bb d7 cd bd 3d cc 8f 32 bd
       0.07124656 -0.0077756257 0.092677765 -0.043594167
0001f0 72 4d ca 3d ab 65 90 bd 14 e1 81 bd a8 6c c4 bd
       0.09878053 -0.070506416 -0.06341758 -0.09591037
000200 8c ea 00 3e e1 50 55 3c 0e 91 4c 3c 3a cc 84 3d
       0.12589473 0.013019771 0.012485756 0.064842656
000210 0a 9f fc 3d ae 1e 61 3d a2 4e aa bc 2d 8e 1a 3e
       0.12335022 0.0549609 -0.020789448 0.15093298
000220 51 88 ca 3d 19 1f 8d 3d b7 2a 1b 3e 7e ed 3f 3e
       0.098892815 0.06890697 0.15153013 0.1874294
000230 a7 d3 84 3d ee a0 c1 3b 3e 8d 40 3e a2 83 1e bc
       0.06485682 0.005909077 0.1880388 -0.009674938
000240 6a 03 41 3d 18 aa 5b bc dc fa 1f 3e 5f 30 40 3e
       0.047122397 -0.013407253 0.15623039 0.18768452
000250 cf 21 54 3c b7 61 db 3c fe 80 e8 bc 66 7e 22 3d
       0.012947514 0.026779993 -0.02838182 0.039671324
000260 88 b2 d4 3d 14 88 5e bd df 62 ec 3d 55 f0 45 3d
       0.10385615 -0.054328993 0.11542296 0.0483249
000270 49 29 df 3b 3e 78 25 bd b3 d6 15 be 19 4f 76 bd
       0.0068103415 -0.040397875 -0.14632683 -0.060134027
000280 bf a5 36 be 79 e8 83 bd fc 3b 91 be 33 78 c1 bd
       -0.17836665 -0.06440825 -0.28366077 -0.09446754
000290 4b 9e e0 bd 41 11 9b be 86 5f cc 3d e5 3a 10 bd
       -0.10967692 -0.302866 0.09979157 -0.035212416
0002a0 1e 62 23 3e 5c e3 d6 be bf ad 38 3e e2 85 3f be
       0.15955397 -0.41970336 0.18035029 -0.18703416
0002b0 3d 8d dd 3d 1c 45 2a be ea ec 21 3d d5 9d 5a 3d
       0.10817955 -0.16627926 0.03953258 0.053373177
0002c0 32 2b 91 bd e0 f3 26 be 17 c5 b5 3d 93 eb 87 3d
       -0.07088317 -0.16303968 0.088754825 0.06636729
0002d0 18 c1 42 3e 7f 04 9d 3c 93 6e 42 be 31 6a b4 3d
       0.19018972 0.019167183 -0.18987493 0.08809317
0002e0 19 19 43 be 82 62 89 3d bd c4 79 bd 60 ec 34 3d
       -0.19052543 0.06708242 -0.06097864 0.044170737
0002f0 c3 e8 cf be 1a 98 18 3c 8f 5e dd bc bd 13 10 be
       -0.4060727 0.009313608 -0.027022628 -0.1407003
000300 24 8b c2 3d 9a 18 ad bc c2 1f a9 3c 4a c9 83 bc
       0.09499195 -0.021129895 0.020645026 -0.016087193
000310 45 3c 76 3d ef 10 12 3d 5f 9b 43 bd b2 51 7a 3d
       0.06011607 0.03566068 -0.047755595 0.061113067
000320 0a 49 2b be 17 16 39 bd df 81 19 3e 8c fd 2f 3e
       -0.16727081 -0.045187082 0.14990948 0.17186564
000330 72 f8 03 3e a6 74 37 be a9 3e 38 be bc ff 99 bd
       0.12887743 -0.17915592 -0.17992653 -0.075194806
000340 71 23 28 bd ee e7 75 bd d9 d8 00 3e 49 d9 de 3c
       -0.041049425 -0.06003564 0.12582721 0.027203219
000350 40 35 99 3c 8b b3 b7 bd f4 42 0c be 59 77 4a bc
       0.01870215 -0.08969792 -0.13697416 -0.012357556
000360 1c 5e 11 3e 5d 37 15 be 9a ce 53 3c 8f a5 1e 3e
       0.14196056 -0.145719 0.012927676 0.15492843
000370 98 5c 57 3d 14 43 c0 3b 59 44 64 3d 42 cd d5 bd
       0.05257854 0.0058673713 0.055729244 -0.104395404
000380 c4 93 b6 3c 05 f2 9e bd 34 1d da 3b 77 f1 1a 3d
       0.022287257 -0.07761005 0.0066563133 0.037827935
000390 a0 fa f8 3d e3 bd 8a 3d 89 7a 2a 3c 3a 6a a1 bd
       0.12157178 0.06774499 0.010405191 -0.07881589
0003a0 74 7b cb 3c 30 27 5b 3d dc 62 13 bb 3b 01 cd bb
       0.02483914 0.05350417 -0.0022489345 -0.00625625
0003b0 4a a3 54 3d 05 8a ac 3c 63 40 9c 3d f3 fa 81 3c
       0.051913537 0.021061907 0.07629468 0.015866732
0003c0 4c 67 4b 3c 57 d3 1b 3e 63 ea c8 bd 0e 36 40 bd
       0.012414765 0.15217339 -0.09810331 -0.04692655
0003d0 bd 1e d2 3d e0 9c c2 bc f2 a8 c0 3d b8 ed dd 3c
       0.10259769 -0.023756444 0.09407224 0.027090892
0003e0 e6 e0 d8 bc 0f 3d b7 3d 2b e5 11 bd a5 f7 03 3d
       -0.026474427 0.08947193 -0.035618942 0.032218594
0003f0 fe 2a dd 3c 53 eb 48 3e 16 72 54 3d 95 92 ac bd
       0.02699804 0.19621019 0.051866613 -0.08426396

fc2.bias f4 [16]
000000 a0 48 9c 3e 0d 22 83 3e 72 23 90 be 30 2e b6 be
       0.30524158 0.25611916 -0.28152043 -0.35582113
000010 c8 cb 12 3e 77 36 87 3d 78 84 79 3d 5c 7c 7b 3e
       0.14335549 0.06602185 0.060917348 0.24559158
000020 70 4f 30 3c 44 e6 b2 be 3d 37 ce 3e 77 50 a0 bb
       0.010761127 -0.34941304 0.40276518 -0.0048924047
000030 28 a9 8e 3d 81 89 b3 3d 9a 33 61 3e a1 1a 38 3e
       0.06965858 0.08766461 0.2199234 0.17978908

fc3.weight f4 [21, 16]
000000 b8 9b be 3d ff 4b bd bc 88 a3 88 bd 86 3e 16 be
       0.09307045 -0.023107527 -0.06671816 -0.14672288
000010 d0 ae 35 3d d0 af 0a bd 2f 76 0d 3d aa fc 8e 3d
       0.044356167 -0.033859074 0.034536537 0.069817856
000020 84 76 2f bd 22 a7 f7 bd e4 c6 05 3e 84 82 15 bd
       -0.042837635 -0.12092425 0.13064152 -0.036501423
000030 ca 7f 4f bd 11 8b 34 bd 2a c9 25 be c4 ae c4 3d
       -0.05065898 -0.044077937 -0.16190019 0.096036464
000040 d4 10 fb 3d 34 28 29 bd 01 0e 7f bd 15 8d 46 be
       0.12259069 -0.041298106 -0.062269215 -0.19389756
000050 11 0f 9f 3d b2 d7 22 bd 6b 8a 34 3d b9 f4 98 3d
       0.077665456 -0.039756484 0.04407732 0.07468552
000060 38 fc 74 bd 1a 02 07 be f2 c0 36 3e bf 04 18 bd
       -0.059810847 -0.13184395 0.1784704 -0.0371139
000070 94 8c 7a bd f7 7f 54 bd 57 2e 17 be 9c a4 38 3d
       -0.061169222 -0.05187985 -0.14763771 0.04507886
000080 b2 d7 a4 3d 73 d9 fc 3d f9 69 52 bd ad bf 0b be
       0.08048953 0.12346163 -0.051370595 -0.13647337
000090 28 e4 7a 3d 99 a9 34 bd 3a 10 51 3d a5 5b ef 3b
       0.061252743 -0.044107053 0.051040865 0.007304626
0000a0 c2 3a 6f bd 77 f1 da bd 85 36 0f bd b0 a7 0b bd
       -0.058405645 -0.10690587 -0.034964103 -0.034095466
0000b0 5c a2 87 bd 2b 1a 83 bc cf 55 0a 3e 8b 1f 6e bc
       -0.066227645 -0.016003689 0.13509296 -0.014533888
0000c0 d9 fa b6 3d ec ea 37 3c 11 6a 59 bd f4 b1 01 be
       0.08934564 0.011225443 -0.05307967 -0.1266554
0000d0 bb 23 96 3c 76 16 61 bd 4a 74 3f 3d 73 53 5b ba
       0.018327584 -0.05495306 0.04674176 -0.0008366622
0000e0 a9 75 9c bd bb ea 1e be df 97 40 3e 2f 0c 2d bd
       -0.076396294 -0.1551923 0.18807934 -0.042247947
0000f0 94 c1 98 bd 62 27 94 3d 1c eb 32 bd f0 e9 36 bd
       -0.07458797 0.07234074 -0.04368125 -0.044656694
000100 30 9b 15 3e fd 84 5c 3d 97 26 81 bd 2b 48 23 be
       0.1460998 0.053837765 -0.063061886 -0.15945499
000110 25 9b fb 3c 9c 04 9d bd c6 4b 77 3d 83 7e 9b 3b
       0.030713627 -0.07666895 0.060374998 0.004745306
000120 c4 df cb bd 6e 3c 48 be 75 41 fc 3d 7d af 71 bd
       -0.09954789 -0.19554302 0.123171724 -0.05900525
000130 83 9c cc bd 23 bf ae 3d e4 7d 76 3b 64 82 f3 b9
       -0.0999079 0.0853255 0.0037611658 -0.0004644572
000140 75 0b 13 3d 23 96 4f 3d 20 3b a5 bc ba 35 a8 bc
       0.0358996 0.05068029 -0.020169795 -0.020533431
000150 12 8d 24 3d 5b e8 0d bd c3 b4 6c 3c 93 d9 f4 3c
       0.040173598 -0.03464542 0.014447394 0.029888904
000160 49 6d 49 bd 90 0d a1 bc ae 75 b4 bd 13 c6 9b bc
       -0.049176488 -0.019659787 -0.08811508 -0.019015348
000170 3e 98 31 bd 4e 0a dc 3d 85 0f 8a 3d 98 63 ad 3c
       -0.04335808 0.10744153 0.06741241 0.021165654
000180 33 1a f2 3d a8 86 6c 3e 13 24 4a be aa 9b 53 be
       0.11821403 0.23098242 -0.19740324 -0.2066485
000190 a4 47 a5 3d 01 ba 98 be 46 6a 08 3e f2 77 ca 3d
       0.08070305 -0.2982941 0.1332179 0.09886159
0001a0 16 09 5f be a4 34 68 be ae 06 08 be aa bd 30 be
       -0.2178081 -0.22676331 -0.13283798 -0.17259851
0001b0 04 8a 68 be b9 33 a7 3e fa ee 5d 3e 6d 69 18 3e
       -0.22708899 0.3265665 0.21673194 0.14883967
0001c0 68 15 39 3d ef ac e2 3d 42 97 b1 bd 1f 86 05 be
       0.04518643 0.11068141 -0.08671428 -0.13039444
0001d0 46 cf 1b bd b2 43 88 be b8 05 65 3d c4 b0 fd bb
       -0.03803947 -0.26614147 0.055913657 -0.0077420194
0001e0 3a d9 f3 bd e6 cd 59 be aa 41 25 3e 57 08 28 be
       -0.11906667 -0.2126995 0.1613833 -0.16409431
0001f0 f6 30 08 be 3e 04 a3 3e 81 23 a2 bd e2 f3 1f 3d
       -0.13299927 0.31839174 -0.07916928 0.039050944
000200 36 8e ae 3c a7 54 70 3c bd 35 38 bd f8 98 0d be
       0.021308046 0.01466862 -0.044973124 -0.13827884
000210 8b 2f 00 ba e9 84 8b be fe 06 83 3d 5f 10 cb 3d
       -0.0004889897 -0.2724984 0.06397818 0.09915232
000220 fe c3 0c be 2b 1a a2 bd a5 40 44 3d 14 b9 09 be
       -0.1374664 -0.079151474 0.047913212 -0.13449508
000230 83 f1 e9 bd f7 7a c8 3e d8 cb 96 bc 22 ab a5 3d
       -0.11423018 0.39156315 -0.018407747 0.080892816
000240 20 c0 f1 bc e4 39 6a 3d a8 e1 2d be 7e a8 85 be
       -0.029510558 0.057184115 -0.16980612 -0.26105112
000250 8a 3a 23 bd de 12 d6 be 6e a1 fe 3d 17 a6 1e 3d
       -0.03985075 -0.4181127 0.12433134 0.038732614
000260 e9 b8 48 be c9 c4 12 be 5c 91 9f 3d 36 68 40 be
       -0.19601788 -0.1433288 0.07791397 -0.18789753
000270 b8 14 82 be 87 9b d2 3e 7f 60 38 3d 43 c4 82 3e
       -0.25406432 0.41134283 0.0450139 0.2554036
000280 05 38 0a 3e d5 d8 ea 3c 14 8a 5e bd 5d 3c 7d be
       0.13497932 0.028667847 -0.0543309 -0.24730058
000290 de f4 84 3d 04 4f cf be dc 3f 9e 3d db 1f 28 3e
       0.06492017 -0.40489972 0.07727024 0.16418402
0002a0 08 43 5b be aa 78 0d be 7e 65 96 3b d6 f0 6f be
       -0.21412289 -0.13815561 0.0045897355 -0.23431715
0002b0 9d 78 5b be de 5f f1 3e 52 aa 8d bd 63 3d 33 3e
       -0.21432729 0.47143453 -0.06917252 0.17503886
0002c0 93 a6 0c 3e ff 59 0c 3e a6 58 1c be 3c 9f 4b be
       0.13735418 0.13706206 -0.15268192 -0.19884962
0002d0 d7 dd 41 3e 36 97 d2 be dd 70 a8 3d 22 39 43 3e
       0.18932281 -0.4113099 0.08224652 0.19064763
0002e0 e2 e0 71 be 4a a5 1e be 87 fa a8 bd 6b dc 63 be
       -0.23620942 -0.1549274 -0.08250909 -0.22252052
0002f0 9f 73 69 be 8a 7e e4 3e 53 cc ea 3c 2c 3a aa 3d
       -0.22798012 0.44627792 0.028661883 0.08311877
000300 a2 3e 7e 3e 31 ed 49 3e 63 f8 25 be e2 a8 a2 be
       0.2482858 0.19719388 -0.16208033 -0.31769472
000310 d8 8b f5 3d 45 c8 0d bf b0 0a f9 3d 44 b1 24 bd
       0.11989564 -0.5538371 0.121602416 -0.040208116
000320 0b c4 89 be 16 0c 94 be a4 16 b0 bc 73 08 90 be
       -0.2690738 -0.2891547 -0.02149517 -0.28131446
000330 97 7f af be 2f 5f e6 3e 22 d4 52 3e 0e 32 c6 3d
       -0.3427703 0.44994494 0.20588735 0.09677516
000340 83 27 99 3e d4 60 88 3e 3e 1e cf bd 59 e5 9a be
       0.29912958 0.26636374 -0.1011319 -0.30253103
000350 25 81 78 3d c7 b4 1e bf b5 45 bb 3d 0e 13 a2 3d
       0.060670037 -0.61994594 0.09144155 0.07913791
000360 22 88 9a be 5f a4 bf be 90 6a 80 bd 76 88 c3 be
       -0.30181986 -0.37430093 -0.06270325 -0.3819005
000370 b5 d7 a2 be a5 9c b4 3e 78 7f 0b bd 15 dd 5c 3e
       -0.31805196 0.3527576 -0.03405711 0.21568711
000380 9d b5 9b 3d cb 7a 3e 3e 20 cc f0 bd c5 8c 81 be
       0.07602999 0.1860153 -0.11757684 -0.2530271
000390 02 0c 1c 3e f8 3d ff be 53 3a aa 3d cb 00 33 3e
       0.15238956 -0.49851966 0.08311906 0.17480771
0003a0 0f 04 89 be 83 7a 1d be 20 f2 46 bd f6 11 93 be
       -0.2676091 -0.15378766 -0.048570752 -0.2872464
0003b0 ed e9 8d be d8 90 df 3e 47 34 e8 3c 67 e5 6e 3d
       -0.27717534 0.43665195 0.02834524 0.058324244
0003c0 a2 ae b4 bd a7 c6 1c bd ae a1 4c be d5 63 9c be
       -0.08822371 -0.038275387 -0.19983551 -0.30544916
0003d0 93 7c 40 3e f0 0b cb be 4f 80 13 3e 5e 61 5f 3e
       0.18797521 -0.39657545 0.14404415 0.21814486
0003e0 c8 03 87 be d8 2b 1b bd 16 50 89 3e 21 fa 8f be
       -0.26370072 -0.03788361 0.26818913 -0.2812052
0003f0 87 c2 b8 be a8 d0 09 3f e8 35 d9 3c 6d b7 ce bd
       -0.36085913 0.5383401 0.026514962 -0.100935794

fc3.bias f4 [21]
000000 59 1f dd 3e 0c 60 60 3e 09 68 2d 3e bc b3 d1 3e
       0.4318798 0.21911639 0.16934218 0.4095744
000010 84 4c 53 3e 22 d2 b9 3e a5 a1 b1 3d 71 d3 a2 3e
       0.20634657 0.3629313 0.086734094 0.31801942
000020 86 52 70 3e 24 2d 64 3e 59 df 6d 3e 1c 1e 45 3c
       0.2346898 0.22282845 0.23229732 0.012031104
000030 34 f8 10 3d 2e d7 c2 3c 5b 4a 02 3e d2 30 a5 3e
       0.035392955 0.023784246 0.12723677 0.3226381
000040 eb 84 c0 3e d2 68 23 3c 7a 0d 22 3e 5e b9 6b 3e
       0.37601408 0.009973722 0.15825453 0.2301993
000050 fa ef b1 3b
       0.0054302188
