logs/sdf_single_min_distances_per_link/state_126.pt (torch, 112153 bytes, 16 tensors)

fc1.weight f4 [32, 7]
-0.25972906 -1.8401855 -0.34029964 -0.051996887 0.026810603 0.06230171 -0.01760742 -0.42961118
-0.30355456 -0.032090787 -0.88566464 -0.038857386 -0.0307009 0.002963022 -0.7633143 -0.66135406
0.14027096 -0.055367127 -0.013914592 -0.022134185 0.0026689568 -0.6266784 0.046260335 -0.5914582
-0.5728968 0.15156606 0.09448746 -0.005070304 -0.6666822 -0.5211074 -0.64092976 0.33848053
0.15981282 0.20838082 0.01993515 -0.56365526 -0.21038795 0.52427864 -0.42066067 -0.026384123
0.13283181 -0.0028580397 -0.6026229 0.08618239 -0.76616013 -0.28048697 -0.002963868 -0.114876114
-0.010427463 0.6298655 0.49995324 0.70143604 -0.156605 -0.0048195687 0.00070564495 -0.001934968
0.45664528 -0.5038186 0.29498568 0.24175033 0.0023293626 0.012687419 -0.0044823256 -1.0507282
0.80992985 -0.14271945 0.52799094 0.046811495 0.035639238 0.010570604 0.45894238 -0.6439961
0.78130925 -0.41140944 -0.020802848 0.058265 8.420399e-05 -0.30685887 -1.0501193 1.1169093
0.46173218 -0.030522987 0.07636149 -0.004653156 -0.6257831 0.0075630713 -0.6676089 -0.52549565
0.05849934 0.048649654 0.0016475922 -0.38002545 1.2668175 1.0303191 -0.80848753 0.009235141
0.099666625 -0.006756669 0.20758355 -0.20898543 -0.13894293 0.007662862 0.5655826 0.3412651
-0.01377124 0.54964167 0.6498766 -0.14293976 -0.8624549 -0.00501171 0.08180353 -0.0031982013
0.043262184 0.028149307 0.052585706 0.263036 -0.6701326 0.4556844 0.0070793796 0.60379845
0.0070318813 0.64897 0.46741903 0.28631058 0.23676382 -0.005326298 0.3090177 0.20886971
-0.33289856 -0.77992064 0.03693337 0.5459854 0.013821214 -0.03337415 0.24474694 -0.018904598
0.18170263 0.098791495 -0.18853974 0.02611868 0.5761464 0.2684299 0.90761024 -0.9399068
-0.04153888 0.12007076 -0.0012841249 -0.00027537902 0.13763778 -0.23601612 -0.523632 -0.23042737
-0.44858667 -0.014588036 -0.42359984 0.14535211 -0.6439751 -0.19963494 -0.05941128 0.30277
0.00093154557 1.2386318 -1.0576973 -0.02302974 -0.071231544 -0.005994778 0.030671064 0.0094359405
-0.9270655 0.7888103 0.04894755 0.02990797 0.0010786247 0.006538427 0.0018164531 0.86732167
0.97119766 -0.10421052 -0.2267312 -0.008161489 0.01281632 0.0063044704 0.39766216 -0.6861688
0.8946873 0.13086341 0.004473892 0.018230509 -0.008611073 -0.0811521 0.32439467 -0.3138743
0.442229 -0.55478233 0.7621588 -0.017799858 -0.5672556 -1.0133679 0.0015039014 -0.74850005
0.011557357 -0.0012544061 0.009510891 -0.059491202 -0.00031549847 -0.024375413 0.61770177 0.18686181
0.22618057 -0.03524386 0.7486338 -0.10916461 -1.0781659 -0.007172369 -0.020027712 0.022994341
0.010529459 0.55000263 0.8588464 0.17031346 0.26717377 0.01327711 -0.0026789994 0.0035920506
00000000: 35fb 84be 338b ebbf c13b aebe b0fa 54bd
00000010: e9a1 db3c 1430 7f3d 703d 90bc fff5 dbbe
00000020: 816b 9bbe a171 03bd ebba 62bf ec28 1fbd
00000030: 7480 fbbc 432f 423b 9168 43bf 804e 29bf
00000040: 31a3 0f3e a4c8 62bd 07fa 63bc c052 b5bc
00000050: aae9 2e3b ff6d 20bf 7a7b 3d3d ce69 17bf
00000060: 5da9 12bf 2234 1b3e a482 c13d cb24 a6bb
00000070: afab 2abf 4b67 05bf f913 24bf 524d ad3e
00000080: f9a5 233e c861 553e 0a4f a33c b64b 10bf
00000090: f06f 57be 2037 063f d660 d7be 8423 d8bc
000000a0: 1005 083e f34d 3bbb 7f45 1abf 6580 b03d
000000b0: 1223 44bf fd9b 8fbe 743d 42bb 2b44 ebbd
000000c0: f3d7 2abc de3e 213f dff9 ff3e 5091 333f
000000d0: 105d 20be 79ed 9dbb 08fb 383a c19e fdba
000000e0: 69cd e93e 41fa 00bf 5d08 973e 668d 773e
000000f0: 38a8 183b e4de 4f3c 79e0 92bb 437e 86bf
00000100: 9057 4f3f 0c25 12be 6a2a 073f 69bd 3f3d
00000110: 73fa 113d 5430 2d3c 7ffa ea3e eedc 24bf
00000120: e203 483f 42a4 d2be bc6a aabc 48a7 6e3d
00000130: ac96 b038 9b1c 9dbe 4f6a 86bf e2f6 8e3f
00000140: 2968 ec3e 580b fabc 6a63 9c3d 8079 98bb
00000150: 5233 20bf a4d3 f73b 6be8 2abf e286 06bf
00000160: 019d 6f3d dc44 473d 05f4 d73a b292 c2be
00000170: 1327 a23f 7fe1 833f 0af9 4ebf fd4e 173c
00000180: 041e cc3d 0c67 ddbb c890 543e 4700 56be
00000190: 0e47 0ebe bf18 fb3b 05ca 103f 4dba ae3e
000001a0: c4a0 61bc 51b5 0c3f 505e 263f cd5e 12be
000001b0: d8c9 5cbf 4539 a4bb 9c88 a73d ea98 51bb
000001c0: b033 313d 6099 e63c 1c64 573d a8ac 863e
000001d0: cf8d 2bbf 774f e93e 24fa e73b 8992 1a3f
000001e0: b26b e63b e622 263f 8c51 ef3e 4d97 923e
000001f0: 3772 723e 3a88 aebb 9137 9e3e f1e1 553e
00000200: ae71 aabe e1a8 47bf 7247 173d b3c5 0b3f
00000210: 6072 623c 55b3 08bd f19e 7a3e d1dd 9abc
00000220: 4110 3a3e 3253 ca3d 9010 41be d8f6 d53c
00000230: 557e 133f a56f 893e 2559 683f bb9d 70bf
00000240: ac24 2abd a9e7 f53d 1550 a8ba bf60 90b9
00000250: ebf0 0c3e 36ae 71be bf0c 06bf 27f5 6bbe
00000260: 27ad e5be a802 6fbc 14e2 d8be 2fd7 143e
00000270: 8ddb 24bf 1a6d 4cbe 3e59 73bd ab04 9b3e
00000280: f732 743a 7d8b 9e3f a062 87bf dea8 bcbc
00000290: d8e1 91bd d86f c4bb e241 fb3c 3499 1a3c
000002a0: 2a54 6dbf 79ef 493f 3a7d 483d 8f01 f53c
000002b0: a460 8d3a 4d40 d63b 0d16 ee3a cb08 5e3f
000002c0: 69a0 783f 536c d5bd 392c 68be c4b7 05bc
000002d0: 8bfb 513c bb95 ce3b 609a cb3e c2a8 2fbf
000002e0: 3a0a 653f 0f01 063e ba99 923b 2658 953c
000002f0: 7515 0dbc 1233 a6bd 0f17 a63e 22b4 a0be
00000300: d76b e23e 3706 0ebf d71c 433f 02d1 91bc
00000310: aa37 11bf 0ab6 81bf 8f1e c53a b39d 3fbf
00000320: 125b 3d3c e26a a4ba 91d3 1b3c 0cad 73bd
00000330: 7d69 a5b9 f2ae c7bc b421 1e3f b458 3f3e
00000340: e19b 673e de5b 10bd 77a6 3f3f b291 dfbd
00000350: 5701 8abf 3106 ebbb 2811 a4bc a15e bc3c
00000360: c183 2c3c f9cc 0c3f 5cdd 5b3f a766 2e3e
00000370: 00cb 883e 3c88 593c 2792 2fbb 9c68 6b3b

fc1.bias f4 [32]
-0.4763276 -1.1042231 0.74183434 -0.7357768 0.7548146 1.4754597 -0.028401105 0.04111991
0.55096436 -0.3740905 0.7458091 -0.17538296 0.64092386 0.96308166 0.74302316 0.0027539635
0.9325947 -0.3760284 1.001733 2.06615 0.21079776 1.6481153 -0.18681452 -0.3277537
0.87090427 0.3746935 -0.10567121 -0.33528286 0.7674814 1.6235883 0.2183948 -0.43891102
00000000: 36e1 f3be 2f57 8dbf dbe8 3d3f de5b 3cbf
00000010: 883b 413f dddb bc3f 6fa9 e8bc 5a6d 283d
00000020: 000c 0d3f ca88 bfbe 58ed 3e3f 9797 33be
00000030: 9613 243f 858c 763f c436 3e3f d77b 343b
00000040: 87be 6e3f cb86 c0be c938 803f cd3b 0440
00000050: 5edb 573e 71f5 d23f 4e4c 3fbe 55cf a7be
00000060: 95f3 5e3f d4d7 bf3e 266a d8bd 32aa abbe
00000070: a979 443f bed1 cf3f e3a2 5f3e f2b8 e0be

fc2.weight f4 [128, 32]
0.13681313 -0.032711707 0.2641742 -0.26620403 0.06548073 -0.27438378 0.32443345 0.19924608
0.24279016 -0.122061886 0.20135498 -0.06670692 -0.4161038 -0.13963617 0.16218592 0.03732118
-0.08732576 -0.066527955 -0.08098741 0.2000791 0.34953725 0.032287344 -0.12813693 -0.061080188
-0.3311463 -0.007015649 0.35489574 0.28737518 0.22851512 0.19781198 0.064266965 0.5059865
-0.5137887 -0.5753162 0.16208386 -0.058179423 0.045780264 -0.00082205795 0.3032224 -0.06437502
0.6119653 0.10547379 -0.10725648 0.06692889 0.120294504 -0.04514183 0.057633642 -0.25123924
0.24467528 0.1933837 -0.14821681 0.063031524 -0.0437131 -0.024647241 0.431944 0.004710071
-0.29627603 -0.69805175 0.01652432 -0.22222404 0.28400236 0.18965356 0.24342038 0.75234497
-0.06795411 -0.4947157 0.28612596 -0.10376803 0.09094424 -0.035903692 0.5872425 0.00666215
-0.10929555 -0.28808948 -0.38133323 0.1215059 0.084403984 0.25034076 0.17938228 -0.088914715
0.14758138 -0.8189684 -0.07922516 0.04433523 -0.59228605 0.3660984 0.3442812 -0.14894098
0.15770724 0.20040067 -0.1415665 -0.28637066 -0.12091401 -0.044327416 -0.08665006 -0.4673973
-0.21330222 -0.26210696 -0.027695976 -0.29708377 -0.18395014 -0.024802208 0.0581152 -0.04633472
0.17416184 0.10949417 0.1182488 -0.14652479 -0.21463074 0.065172546 0.21070273 -0.1740489
0.09032923 -0.326151 0.3108258 0.50205815 -0.18353504 0.65141517 0.07247511 -0.40261704
-0.39712667 -0.21382128 0.053173188 -0.1821003 -0.118482254 0.33286557 0.015777249 -0.013557806
0.328762 0.08525504 0.18209094 -0.003112375 0.30898437 0.21222982 0.6470534 0.24252123
0.28580347 0.12900244 0.035493366 0.12158318 -0.19149144 -0.09790673 0.2651914 0.06754468
0.5995979 0.13841252 0.14245963 -0.17142 0.16397609 -0.19853191 0.37671965 0.019527035
-0.028568493 -0.14776133 0.18137144 0.35968378 0.067342564 0.5638191 -0.24342148 0.26662338
0.0298635 0.13945918 0.15197465 0.075557396 0.17535257 -0.15949395 -0.15902579 0.20933668
0.30387995 0.004789121 -0.07249335 -0.09416784 0.2627673 0.24069309 -0.107383646 0.14042035
-0.1614358 0.010205806 0.16983658 -0.13734521 -0.032652028 0.06830187 -0.02184126 0.3719743
0.09548604 0.18751042 -0.3821433 0.14201987 0.03542396 -0.16804138 0.12542273 0.13891937
0.038262982 0.2814506 0.49014184 -0.10245741 0.30459413 0.37015557 0.23863988 0.20462027
-0.039514564 0.18376108 0.13919644 0.051845253 -0.032016814 -0.009842123 0.27302465 -0.046572775
0.14101371 0.24305029 0.1919887 0.42383596 0.017183822 0.17063136 0.092187956 0.2123306
0.066690795 0.1452406 0.15812743 0.023689568 0.26102823 0.56504726 0.1824479 -0.16849528
0.4359318 -0.054352414 -0.10630347 -0.21976544 -0.12517755 -0.088961616 -0.11832334 0.014626824
0.6754591 0.24709424 0.14113238 0.39691934 -0.43899265 0.28096184 0.214729 0.040114798
0.09680414 0.045321394 -0.13130935 0.15204528 -0.09310819 0.018072074 -0.19604619 0.2500583
0.39520368 0.19183154 -0.229868 0.09611557 -0.4596315 0.26191828 -0.026220853 -0.16940026
00000000: be18 0c3e b6fc 05bd d741 873e e54b 88be
00000010: c31a 863d 087c 8cbe 241c a63e 2a07 4c3e
00000020: fc9d 783e 95fb f9bd 0030 4e3e a39d 88bd
00000030: 8f0b d5be c9fc 0ebe 1114 263e 18de 183d
00000040: d9d7 b2bd cf3f 88bd badc a5bd 89e1 4c3e
00000050: 8cf6 b23e bc3f 043d 5436 03be 382f 7abd
00000060: 028c a9be 88e3 e5bb e5b4 b53e d722 933e
00000070: deff 693e 398f 4a3e 669e 833d 5588 013f
00000080: a887 03bf ec47 13bf 50f9 253e 8c4d 6ebd
00000090: 1684 3b3d 607f 57ba f73f 9b3e 0dd7 83bd
000000a0: c2a9 1c3f a402 d83d 49a9 dbbd 0412 893d
000000b0: f75c f63d a4e6 38bd 4111 6c3d 6ea2 80be
000000c0: 288c 7a3e 6006 463e 26c6 17be ac16 813d
000000d0: 820c 33bd 03e9 c9bc c427 dd3e f056 9a3b
000000e0: 7eb1 97be 85b3 32bf 035e 873c b38e 63be
000000f0: c268 913e 8b34 423e 3143 793e ae99 403f
00000100: 862b 8bbd 604b fdbe 1a7f 923e 5584 d4bd
00000110: f940 ba3d c00f 13bd 8655 163f 2a4e da3b
00000120: 58d6 dfbd 7780 93be 1c3e c3be 16d8 f83d
00000130: ffdb ac3d aa2c 803e fdaf 373e eb18 b6bd
00000140: 931f 173e eaa7 51bf cd40 a2bd dc98 353d
00000150: 0fa0 17bf 4071 bb3e a045 b03e fc83 18be
00000160: 027e 213e d535 4d3e cff6 10be 2d9f 92be
00000170: c4a1 f7bd aa90 35bd 9675 b1bd b34e efbe
00000180: e66b 5abe e232 86be ace2 e2bc 5d1b 98be
00000190: 6d5d 3cbe 002e cbbc 340a 6e3d 7ac9 3dbd
000001a0: 7b57 323e 7b3e e03d 6d2c f23d 980a 16be
000001b0: 29c8 5bbe 2f79 853d 75c2 573e e039 32be
000001c0: 88fe b83d 44fd a6be 8f24 9f3e e286 003f
000001d0: 9cf0 3bbe 25c3 263f d56d 943d d223 cebe
000001e0: 3054 cbbe f7f3 5abe 21cc 593d 8078 3abe
000001f0: d3a6 f2bd 5b6d aa3e 4a3f 813c 8f21 5ebc
00000200: 7e53 a83e 329a ae3d 0c76 3a3e fdf8 4bbb
00000210: 3333 9e3e c652 593e 4ba5 253f 7c57 783e
00000220: d554 923e 3719 043e 7e61 113d 9a00 f93d
00000230: 5516 44be 5383 c8bd 2bc7 873e dd54 8a3d
00000240: 3f7f 193f 03bc 0d3e f0e0 113e b988 2fbe
00000250: 59e9 273e f34b 4bbe 66e1 c03e 29f7 9f3c
00000260: 7908 eabc bf4e 17be 6fb9 393e 7928 b83e
00000270: e6ea 893d 7356 103f 7b43 79be dc82 883e
00000280: 4ca4 f43c 63ce 0e3e 3e9f 1b3e d6bd 9a3d
00000290: a08f 333e 6252 23be a8d7 22be 5b5c 563e
000002a0: 2796 9b3e 0fee 9c3b 6577 94bd 12db c0bd
000002b0: 6f89 863e 4078 763e f5eb dbbd 5aca 0f3e
000002c0: 6d4f 25be 4136 273c a4e9 2d3e 39a4 0cbe
000002d0: 22be 05bd dae1 8b3d 71ec b2bc 6a73 be3e
000002e0: 2f8e c33d bb02 403e 49a8 c3be a86d 113e
000002f0: b718 113d 0a13 2cbe d16e 003e e140 0e3e
00000300: a5b9 1c3d 4b1a 903e dff3 fa3e 31d5 d1bd
00000310: c3f3 9b3e 0885 bd3e 035e 743e fa87 513e
00000320: 06da 21bd dd2b 3c3e 8389 0e3e b05b 543d
00000330: 1024 03bd db40 21bc e3c9 8b3e 18c3 3ebd
00000340: e665 103e 2de2 783e b098 443e 0701 d93e
00000350: 16c5 8c3c fdb9 2e3e 0acd bc3d 316d 593e
00000360: 2f95 883d f4b9 143e 28ec 213e a010 c23c
00000370: 7ea5 853e f0a6 103f 9fd3 3a3e 078a 2cbe
00000380: 7432 df3e a3a0 5ebd a2b5 d9bd 310a 61be
00000390: 8b2e 00be 8231 b6bd 8253 f2bd 59a5 6f3c
000003a0: e3ea 2c3f 4606 7d3e 0285 103e 0339 cb3e
000003b0: a5c3 e0be 3bda 8f3e ebe1 5b3e 6a4f 243d
000003c0: 4041 c63d eda2 393d f575 06be c2b1 1b3e
000003d0: 82af bebd e30b 943c 55c0 48be a407 803e
000003e0: 2358 ca3e 7d6f 443e 8462 6bbe 3dd8 c43d
000003f0: d254 ebbe 271a 863e 1dcd d6bc 4377 2dbe

fc2.bias f4 [128]
0.114908785 0.2947939 -0.043965146 0.9678048 -0.17231199 0.32181692 0.66693246 0.12099257
0.9389183 0.031172331 0.6068403 0.18213099 0.87722886 0.13297965 -0.52104574 -0.11539517
0.028187046 0.83913016 0.64214545 0.7248108 1.0583507 -0.034511365 0.5660027 0.4732034
0.51534164 0.8256513 0.019059774 0.42252588 0.8638193 0.3310454 0.81729007 0.37580967
0.5447276 0.6587528 0.52204615 0.15423816 0.38208866 0.35471207 0.5214611 0.41679442
0.45715377 0.6052882 -0.045142334 0.8883778 0.7869035 0.63348186 0.011700074 0.64074785
-0.14659618 -0.5073062 0.94777024 0.40211397 -0.20064288 0.7839097 0.06326208 0.23503862
-0.338102 0.248094 0.10238507 0.5309335 0.62220734 0.46719357 0.24922894 0.1989077
0.0883219 0.47403583 -0.30376583 -0.21854635 0.50297004 0.33365044 0.9474016 0.33322486
0.8624464 0.48350298 0.57594836 0.89322704 0.15524518 -0.2798429 0.62542653 -0.1748186
0.03805664 0.24001355 0.053271446 0.44546953 -0.33343053 0.15362306 0.07491838 0.367709
0.3529583 0.15006424 -0.039712794 0.2565173 -0.49118173 0.7200061 0.54092157 -0.03966211
0.4777208 0.2219449 0.24778411 -0.44058034 0.6257614 -0.28292605 -0.048086964 0.39933407
0.5805144 0.02160659 0.32045755 0.26885828 0.06043297 -0.09437567 0.4480834 -0.23976852
0.13776416 0.8225379 0.89461076 0.19506258 0.02120632 0.1407538 0.6065245 0.06867756
0.8976089 0.9161681 0.021630665 0.41308254 0.6247611 0.42298758 0.48728353 0.28845543
00000000: 4c55 eb3d 3aef 963e cc14 34bd 0ec2 773f
00000010: 8e72 30be 30c5 a43e 16bc 2a3f f4ca f73d
00000020: f35c 703f 1e5d ff3c e359 1b3f 8c80 3a3e
00000030: 1292 603f d12b 083e 4163 05bf 4e54 ecbd
00000040: 85e8 e63c 3cd1 563f a563 243f 338d 393f
00000050: 0978 873f ca5b 0dbd 8ee5 103f b747 f23e
00000060: 6eed 033f e25d 533f 3e23 9c3c 5055 d83e
00000070: 4323 5d3f c87e a93e ec39 513f 206a c03e
00000080: 4573 0b3f 06a4 283f d1a4 053f 9cf0 1d3e
00000090: 20a1 c33e d29c b53e 7a7e 053f 1466 d53e
000000a0: 0f10 ea3e 2bf4 1a3f 2be7 38bd ba6c 633f
000000b0: 8272 493f de2b 223f abb1 3f3c 0d08 243f
000000c0: 4f1d 16be d2de 01bf 12a1 723f e2e1 cd3e
000000d0: 5475 4dbe 4eae 483f 8d8f 813d f7ad 703e
000000e0: b51b adbe 5b0c 7e3e 43af d13d 42eb 073f
000000f0: fb48 1f3f ff33 ef3e df35 7f3e 76ae 4b3e
00000100: 1de2 b43d d3b4 f23e 3287 9bbe 9dca 5fbe
00000110: a5c2 003f 3bd4 aa3e e988 723f 739c aa3e
00000120: 4ac9 5c3f b48d f73e 5a71 133f 87aa 643f
00000130: 98f8 1e3e 9247 8fbe f41b 203f a603 33be
00000140: 48e1 1b3d 1dc6 753e 2933 5a3d 9514 e43e
00000150: 68b7 aabe 5d4f 1d3e cf6e 993d 5b44 bc3e
00000160: f3b6 b43e 71aa 193e e2a9 22bd 3c56 833e
00000170: 2c7c fbbe 5252 383f d679 0a3f bd74 22bd
00000180: d297 f43e 8645 633e 1ebb 7d3e bf93 e1be
00000190: e631 203f afdb 90be d6f6 44bd 8475 cc3e
000001a0: 979c 143f 4e00 b13c 0313 a43e cba7 893e
000001b0: 9088 773d 0848 c1bd 306b e53e e185 75be
000001c0: 0c12 0d3e d891 523f 3605 653f 7cbe 473e
000001d0: e0b8 ad3c c421 103e 3145 1b3f d2a6 8c3d
000001e0: b2c9 653f fe89 6a3f cb32 b13c 8e7f d33e
000001f0: 58f0 1f3f d491 d83e 3a7d f93e 6eb0 933e

fc3.weight f4 [64, 128]
0.7616302 1.7949879 0.18774633 0.28115845 -0.32721016 0.1283188 -0.14128734 0.42191073
-0.39879093 0.7537988 0.4311936 0.571483 0.42234576 0.4539064 -2.735398 -0.10087965
0.6257961 -0.20681523 -0.19545598 -0.030050356 -0.47520056 1.1102394 0.37874666 -0.4902823
0.14915976 -0.044778466 0.26879176 0.23391233 -0.11600004 0.5308861 -0.29545978 -0.09002353
-0.04996893 0.09101707 -0.6346453 0.5198505 1.8058751 0.3080156 0.33469427 0.68697804
0.38353392 0.38545248 -0.056665614 -0.48557547 -0.44334105 1.572159 0.77832985 -0.41402277
0.51745284 -0.19258575 0.31767163 -0.64972544 0.7827095 -0.88281596 1.0918819 0.33554313
1.2903625 -0.21368517 -0.050383046 0.35224047 0.38645336 0.7913964 -0.62720907 0.39288503
-0.15627226 1.4920707 0.73339695 0.64886945 -0.2868942 -0.37949806 -0.58322394 -0.26704538
-0.24704696 2.2175179 0.588765 0.2901368 -0.26279372 -0.011054073 -0.011454192 0.62811744
0.58502847 0.5374667 0.19062038 0.07567717 0.081610076 0.27273196 0.46440393 2.3767784
0.5864081 -1.5426549 0.45173505 0.52359295 -0.06021666 0.34913546 -0.39979565 0.51781046
2.9338133 -0.06148496 0.43149924 -0.08726295 0.34313476 0.096746914 0.27118707 -0.10314106
-0.087894164 0.33616003 0.32564855 0.26236704 0.8482873 0.3073161 0.5260961 -0.037624452
0.60015875 0.3976697 0.38339773 0.16042896 1.2973678 0.21736516 -0.87288177 -0.33053252
-0.38170344 0.51023245 0.71304893 0.7115719 0.21587144 -0.25519514 1.9627644 0.48147047
0.29611948 -0.21483664 0.18817513 0.6736963 -0.32695684 0.6655336 -0.0049198624 0.27588546
-0.03927912 -0.56200576 0.22903149 0.2001463 -0.44690073 0.06288904 0.59453696 0.7513061
-0.3784504 -0.039690368 0.023841262 0.2476832 0.036913272 0.037022304 0.43526518 0.14651993
0.015114896 0.22061443 -0.2104458 0.1858348 0.293026 0.31547743 0.10033789 0.60580885
-0.10581589 -0.116063535 0.010880137 0.34594965 -0.48012465 0.6131311 0.49605915 -0.42689338
0.68434167 0.23383602 -0.089263625 0.047749717 0.45198235 0.3782987 0.1603286 0.024121579
0.15920885 0.0016128322 -0.23746924 -0.89790565 -0.35127217 -0.27420712 0.16385052 0.2968903
-0.6198416 0.10179851 -0.24781337 0.51677746 0.40060416 0.050566763 0.2749406 -0.5358068
-0.22474203 -0.23919433 0.2273705 0.046288736 0.015721664 0.031527597 0.0970173 -0.07749505
0.31614393 -0.5689891 0.3516512 -0.0110364035 0.15879044 -0.3974516 0.5089783 -0.20486909
-0.5554508 0.4093651 -0.20357236 0.04094629 0.30810094 0.11335992 -0.16953054 -1.1426126
-0.6840261 0.045912407 0.3289092 0.015117225 -0.50744575 0.03605521 0.12009612 -0.11356929
0.17989022 0.23429453 -0.7079198 -0.04164016 0.82939255 -0.33506694 -0.17941213 -0.020131778
-0.35149458 -0.19500837 -0.24872343 0.14990264 -0.619919 -0.5685863 0.4832458 -0.18391861
0.038146082 -0.07761065 0.5197614 0.4192334 -0.57728916 -0.15039855 -0.19220322 -0.15362154
0.3521117 0.1045119 -0.3149877 0.3745887 0.019376146 0.22171979 -1.6736461 0.42672387
00000000: 32fa 423f 2ac2 e53f 9340 403e 00f4 8f3e
00000010: 1788 a7be 0166 033e a1ad 10be af04 d83e
00000020: 532e ccbe f5f8 403f 68c5 dc3e b64c 123f
00000030: b43d d83e 6b66 e83e c310 2fc0 fd99 cebd
00000040: 2c34 203f 5fc7 53be 9d25 48be 2a2c f6bc
00000050: 7d4d f3be 531c 8e3f 15eb c13e 4806 fbbe
00000060: 56bd 183e a069 37bd 139f 893e b786 6f3e
00000070: 6e91 edbd 27e8 073f 8146 97be 425e b8bd
00000080: 39ac 4cbd 2867 ba3d 1d78 22bf ec14 053f
00000090: ea26 e73f 39b4 9d3e 0c5d ab3e cbdd 2f3f
000000a0: 8f5e c43e 075a c53e 341a 68bd 599d f8be
000000b0: 99fd e2be 823c c93f a040 473f cbfa d3be
000000c0: ca77 043f 3335 45be dba5 a23e 6854 26bf
000000d0: a65f 483f 3a00 62bf c9c2 8b3f 4fcc ab3e
000000e0: 992a a53f 49d0 5abe 745e 4ebd dd58 b43e
000000f0: 37dd c53e f498 4a3f c690 20bf 3a28 c93e
00000100: d605 20be 2cfc be3f e7bf 3b3f 4f1c 263f
00000110: cce3 92be 924d c2be 2a4e 15bf 2cba 88be
00000120: e1f9 7cbe d0eb 0d40 4eb9 163f d08c 943e
00000130: e68c 86be 251c 35bc 5daa 3bbc 4ecc 203f
00000140: 6dc4 153f 6b97 093f fd31 433e a2fc 9a3d
00000150: 2f23 a73d 86a3 8b3e 5ac6 ed3e 231d 1840
00000160: d71e 163f b775 c5bf d149 e73e 300a 063f
00000170: bfa5 76bd e2c1 b23e 04b2 ccbe 3a8f 043f
00000180: 99c3 3b40 a7d7 7bbd 78ed dc3e ebb6 b2bd
00000190: 5caf af3e 3f23 c63d 08d9 8a3e 9f3b d3bd
000001a0: db01 b4bd 2b1d ac3e 68bb a63e f954 863e
000001b0: 5b29 593f 8958 9d3e 3cae 063f 191c 1abd
000001c0: 01a4 193f 5d9b cb3e b54c c43e 7d47 243e
000001d0: 2610 a63f f994 5e3e 2e75 5fbf 8f3b a9be
000001e0: a26e c3be 989e 023f 608a 363f 9329 363f
000001f0: 670d 5d3e f0a8 82be dd3b fb3f 4c83 f63e
00000200: f99c 973e 23fe 5bbe fbb0 403e 5c77 2c3f
00000210: e366 a7be 6960 2a3f cc36 a1bb dc40 8d3e
00000220: 24e3 20bd 9cdf 0fbf 3b87 6a3e 27f3 4c3e
00000230: 2cd0 e4be f8cb 803d 9333 183f 9955 403f
00000240: 40c4 c1be 5e92 22bd c04e c33c aaa0 7d3e
00000250: 5f32 173d b3a4 173d 14db de3e 5209 163e
00000260: 78a4 773c c0e8 613e 1b7f 57be 7a4b 3e3e
00000270: 8107 963e 4286 a13e f47d cd3d 4a16 1b3f
00000280: 00b6 d8bd b8b2 edbd 9a42 323c 5020 b13e
00000290: e6d2 f5be 29f6 1c3f 77fb fd3e c591 dabe
000002a0: 0431 2f3f b672 6f3e d9cf b6bd 3595 433d
000002b0: 3b6a e73e 5eb0 c13e 2e2d 243e 9e9a c53c
000002c0: a507 233e ab65 d33a 232b 73be 25dd 65bf
000002d0: f2d9 b3be e064 8cbe 6ec8 273e 0102 983e
000002e0: f0ad 1ebf bd7b d03d cac2 7dbe 874b 043f
000002f0: fd1b cd3e 181f 4f3d 04c5 8c3e a22a 09bf
00000300: c622 66be 5cef 74be d0d3 683e 4299 3d3d
00000310: b8ca 803c 1523 013d 02b1 c63d bab5 9ebd
00000320: 9edd a13e 45a9 11bf a00b b43e 08d2 34bc
00000330: f699 223e c77e cbbe 674c 023f 34c9 51be
00000340: 0632 0ebf 4d98 d13e 4675 50be 4cb7 273d
00000350: 68bf 9d3e 3f29 e83d 6a99 2dbe 2141 92bf
00000360: 561c 2fbf a60e 3c3d c966 a83e 3dae 773c
00000370: f7e7 01bf a1ae 133d f4f4 f53d 0497 e8bd
00000380: 2435 383e e8ea 6f3e 3b3a 35bf df8e 2abd
00000390: 1253 543f e58d abbe d0b7 37be 66eb a4bc
000003a0: 19f7 b3be 46b0 47be 5bb1 7ebe 1480 193e
000003b0: 03b3 1ebf df8e 11bf fe6b f73e 2955 3cbe
000003c0: 113f 1c3d 55f2 9ebd 150f 053f c3a5 d63e
000003d0: 39c9 13bf 1402 1abe ecd0 44be f74e 1dbe
000003e0: fc47 b43e 560a d63d 1146 a1be 17ca bf3e
000003f0: b9ba 9e3c 830a 633e 093a d6bf 8d7b da3e

fc3.bias f4 [64]
0.0077023217 0.94942 0.054188903 0.42931402 -0.03540229 -0.024174727 -0.32181183 0.64464355
0.13358907 0.011658235 -0.105790935 0.1948779 -0.0018557231 0.54711 -0.05269648 0.16412638
0.5000738 0.06122704 0.10531317 0.24811904 0.5839911 -0.101977035 0.25819385 -0.0917072
0.069835514 0.2390343 -0.08122641 -0.12083079 -0.20491399 0.0024351722 0.36099997 -0.02346786
0.10949757 -0.39287558 0.33902296 0.28881916 0.6715134 0.31454936 0.057060312 -0.14495707
0.79720885 0.24648102 -0.05657093 0.49034327 -0.06856166 0.01531881 0.6332884 0.5000793
0.32299682 0.3062151 -0.023869436 0.05862332 0.3217587 1.3796325 0.07112312 -0.11527806
0.059209622 -0.37472683 -0.09802859 0.06525388 0.9523689 0.062076576 0.019625742 0.011516177
00000000: c263 fc3b 300d 733f 2ff5 5d3d 0ccf db3e
00000010: fe01 11bd 140a c6bc 85c4 a4be 5c07 253f
00000020: 93cb 083e 2f02 3f3c eba8 d8bd 128e 473e
00000030: bc3b f3ba 670f 0c3f 44d8 57bd bf10 283e
00000040: d604 003f 34c9 7a3d 6eae d73d eb12 7e3e
00000050: 7180 153f 56d9 d0bd fc31 843e fcd0 bbbd
00000060: ec05 8f3d 68c5 743e 085a a6bd 2276 f7bd
00000070: f9d4 51be 6997 1f3b fdd4 b83e ab3f c0bc
00000080: 4340 e03d fd26 c9be 6b94 ad3e 1be0 933e
00000090: 4de8 2b3f 9d0c a13e 13b8 693d a06f 14be
000000a0: e115 4c3f 8565 7c3e ebb6 67bd 460e fb3e
000000b0: 0e6a 8cbd bffb 7a3c 301f 223f 3205 003f
000000c0: d75f a53e 3ac8 9c3e d689 c3bc 021f 703d
000000d0: 8ebd a43e cc97 b03f 00a9 913d e716 ecbd
000000e0: ca85 723d 32dc bfbe 37c3 c8bd d4a3 853d
000000f0: 73ce 733f 0244 7e3d 2ac6 a03c 59ae 3c3c

fc4.weight f4 [10, 64]
0.008305743 0.32861516 0.079245985 -0.16816877 0.06928368 -0.033990968 -0.27755797 0.31514674
-0.10721987 -0.106831476 -0.27011767 -0.014580025 0.07989392 0.014648663 -0.041860167 0.057814248
-0.0016801625 0.087519586 -0.015644105 -0.39273593 -0.00990934 -0.13279495 0.026728656 0.0518908
0.028406482 0.13117012 -0.36685622 0.5035524 0.044979207 0.026568739 0.467976 -0.0019009357
0.49851203 -0.5970005 -0.03307849 0.3839288 0.017794786 -0.009972438 0.08460826 -0.24920723
0.1918438 0.34818318 -0.31141326 4.75328e-05 -0.37643895 -0.06558352 0.009884155 0.1378803
-0.02803981 0.04177601 0.0052076047 -0.17228295 -0.0345591 0.15255414 0.005677991 -0.00781732
-0.06366937 0.049626023 -0.07342365 -0.08084574 0.36019215 0.11010821 -0.12249227 0.047434255
0.0791221 0.14185327 0.10575241 -0.086071074 -0.0033304982 0.00711863 -0.17192464 1.1276798
0.26841882 -0.115728386 -0.38685092 -0.0013608391 0.55941963 0.03624336 -0.052975614 0.07523718
-0.013892444 -0.08969307 -0.11991216 -0.29344845 0.050556492 -0.073846795 0.015431033 0.028937457
-0.074202396 -0.021072686 -0.530901 0.19986191 -0.049710564 0.020908581 0.16572726 -0.014468111
-0.8410585 0.09023256 0.49571663 -0.17259783 0.046869934 0.03852417 -0.049173683 -0.46325275
0.26844367 0.33540812 -0.25596055 -0.029642485 0.5558464 0.018042605 0.0428231 0.16487293
-0.10149401 0.019873347 0.077428386 -0.90572155 -0.20084359 0.26907337 0.45267102 -0.0332286
-0.154572 -0.7466124 -0.10062735 0.2866886 0.31371808 -0.07378024 -0.045517493 -0.09653543
-0.08412684 0.64421904 -0.12505427 0.1654733 0.07384301 0.0050311857 -0.26112953 -0.13971443
0.34773344 -0.027112544 -0.024089957 0.25723645 -0.77824277 0.63105446 -0.03003451 0.024455238
0.01892699 0.009045187 0.04694367 -0.10553489 -0.05824063 -0.16539553 0.1177791 0.1759264
-0.046772968 0.5847289 0.14972009 -0.3359023 0.23574097 -0.039971814 0.39236215 -0.08708103
0.70066684 0.08112043 -0.18208192 0.5652086 -0.08908902 -0.0033638244 -0.07769367 -0.25206852
-0.23354717 0.25142416 -0.12218841 0.05038497 -0.61314213 -0.080936246 -0.05268249 -0.24070689
-0.54787725 0.20421012 -0.23942311 0.6171842 -0.09985776 0.51809776 -0.5284437 0.10467518
-0.03281332 0.037887257 -0.08068968 0.5237655 0.04674557 0.07480258 0.056343783 0.06947671
-0.2590685 -0.40243223 -0.058079027 0.7838157 -0.10687075 -0.12402785 0.85788256 -0.27653778
0.6787535 -0.025386369 0.29862198 0.79767585 1.0512625 1.3906416 -0.07158733 0.08011211
0.18287961 -0.11865086 -0.27120942 -0.6808068 -0.058194477 -0.14833203 0.22980292 0.14320715
0.11436781 0.27481654 -0.7564602 -0.0704109 0.040863033 -0.020719798 0.54492927 -0.20715213
-1.5144058 -0.64046144 0.2708394 0.5374506 0.07826712 0.24573731 -0.028770678 0.4631973
0.16919634 -0.5062156 -0.3102816 0.05885677 -0.44581828 0.1090529 -0.01767979 -0.40744624
0.011795117 0.28937063 -0.37938985 1.0614543 -0.057216052 0.1085379 -0.15505408 -0.31297824
-0.37261754 -0.30764645 0.5724307 1.6770613 0.2458188 0.082866564 0.051015057 -0.08099444
00000000: d014 083c 3f40 a83e b84b a23d 6f34 2cbe
00000010: 9ae4 8d3d 1d3a 0bbd 141c 8ebe ea5a a13e
00000020: 1796 dbbd 76ca dabd dd4c 8abe 0fe1 6ebc
00000030: 6c9f a33d f200 703c 9175 2bbd a2ce 6c3d
00000040: e638 dcba 783d b33d 1128 80bc af14 c9be
00000050: c95a 22bc 66fb 07be 0ef6 da3c 738b 543d
00000060: b6b4 e83c 7651 063e 94d4 bbbe cfe8 003f
00000070: 1e3c 383d afa6 d93c 8d9a ef3e d128 f9ba
00000080: f83c ff3e 06d5 18bf 507d 07bd 5192 c43e
00000090: 5fc6 913c 7063 23bc 1847 ad3d 2e30 7fbe
000000a0: b372 443e 1145 b23e 8f71 9fbe f55d 4738
000000b0: 9bbc c0be a750 86bd 27f1 213c 7e30 0d3e
000000c0: beb3 e5bc 521d 2b3d 8ea4 aa3b f16a 30be
000000d0: d88d 0dbd 2737 1c3e 710e ba3b 3714 00bc
000000e0: 1665 82bd a844 4b3d 235f 96bd 7492 a5bd
000000f0: 1b6b b83e 6a80 e13d 3add fabd 6c4a 423d
00000100: c40a a23d fc41 113e b894 d83d 0846 b0bd
00000110: 7d44 5abb 6643 e93b 030d 30be d057 903f
00000120: 316e 893e 0103 edbd 5311 c6be 2f5e b2ba
00000130: 2036 0f3f eb73 143d f5fc 58bd f315 9a3d
00000140: 229d 63bc 00b1 b7bd 8294 f5bd e03e 96be
00000150: 5314 4f3d fd3c 97bd 72d2 7c3c 3f0e ed3c
00000160: 6df7 97bd a0a0 acbc 21e9 07bf 9aa8 4c3e
00000170: 4e9d 4bbd 7948 ab3c 68b4 293e a80b 6dbc
00000180: 9c4f 57bf d9cb b83d 92ce fd3e 7cbd 30be
00000190: b0fa 3f3d 85cb 1d3d 586a 49bd 772f edbe
000001a0: 7371 893e 9dba ab3e 430d 83be ccd4 f2bc
000001b0: f34b 0e3f 16ce 933c 4667 2f3d 73d4 283e
000001c0: 17dc cfbd 6ecd a23c c692 9e3d 5edd 67bf
000001d0: f1a9 4dbe fcc3 893e 7fc4 e73e b61a 08bd
000001e0: 1f48 1ebe fe21 3fbf b615 cebd d9c8 923e
000001f0: a89f a03e 181a 97bd 8d70 3abd 5eb4 c5bd
00000200: b14a acbd 8aeb 243f 3a0e 00be d571 293e
00000210: 013b 973d a5dc a43b c5b2 85be 4d11 0fbe
00000220: 1e0a b23e 201b debc 4d58 c5bc 7fb4 833e
00000230: eb3a 47bf c98c 213f ef0a f6bc 5a56 c83c
00000240: c60c 9b3c 4432 143c 0148 403d ad22 d8bd
00000250: ba8d 6ebd 725d 29be 2b36 f13d 0d26 343e
00000260: 0395 3fbd cbb0 153f 3950 193e 63fb abbe
00000270: 1566 713e 7cb9 23bd b1e3 c83e 8a57 b2bd
00000280: e75e 333f 7822 a63d af73 3abe 83b1 103f
00000290: 4e74 b6bd 9c73 5cbb dc1d 9fbd 200f 81be
000002a0: fd26 6fbe abba 803e eb3d fabd 7860 4e3d
000002b0: e2f6 1cbf e7c1 a5bd 98c9 57bd de7b 76be
000002c0: af41 0cbf 751c 513e 552b 75be c9ff 1d3f
000002d0: 3a82 ccbd 0ea2 043f 1648 07bf f15f d63d
000002e0: 4367 06bd ab2f 1b3d a240 a5bd 7f15 063f
000002f0: 4878 3f3d 1832 993d bdc8 663d ce49 8e3d
00000300: a0a4 84be 990b cebe 46e4 6dbd 25a8 483f
00000310: 0ddf dabd 5002 febd 319e 5b3f 5c96 8dbe
00000320: cac2 2d3f 13f7 cfbc fbe4 983e 7c34 4c3f
00000330: c58f 863f 8b00 b23f 619c 92bd d111 a43d
00000340: cb44 3b3e 39ff f2bd f6db 8abe 5b49 2ebf
00000350: 555d 6ebd 5ae4 17be 7551 6b3e e5a4 123e
00000360: ac39 ea3d c1b4 8c3e 60a7 41bf 9733 90bd
00000370: ff5f 273d 91bc a9bc 7c80 0b3f b01f 54be
00000380: 0dd8 c1bf 48f5 23bf 76ab 8a3e 5d96 093f
00000390: 834a a03d 90a2 7b3e 7cb0 ebbc 3228 ed3e
000003a0: ce41 2d3e 5897 01bf 3bdd 9ebe cc13 713d
000003b0: 4b42 e4be 2057 df3d 35d5 90bc cb9c d0be
000003c0: 4e40 413c 6328 943e 633f c2be bcdd 873f
000003d0: 615b 6abd 1e49 de3d 7fc6 1ebe af3e a0be
000003e0: bac7 bebe d683 9dbe d18a 123f f2a9 d63f
000003f0: ecb7 7b3e f2b5 a93d 2af5 503d 6ae0 a5bd

fc4.bias f4 [10]
9.400579 2.7220783 1.9240861 0.37245405 -0.38071823 -0.47715142 -0.17163676 0.10826552
0.018599313 -0.01953534
00000000: c668 1641 8836 2e40 7448 f63f 4cb2 be3e
00000010: 80ed c2be 314d f4be 8cc1 2fbe 50ba dd3d
00000020: 965d 983c 9408 a0bc

fc1.weight f4 [32, 7]
-0.2595344 -1.8396705 -0.34024617 -0.052081473 0.026745662 0.062491704 -0.017650507 -0.42956907
-0.30366066 -0.032102495 -0.8852816 -0.03894499 -0.03086301 0.0029800967 -0.7630998 -0.66107714
0.14026931 -0.055260167 -0.013871499 -0.022019206 0.0027092376 -0.6263126 0.046330184 -0.5912619
-0.5726258 0.15148468 0.09454418 -0.005083653 -0.6664826 -0.52099615 -0.64098406 0.338254
0.15994497 0.20840137 0.019921703 -0.5635939 -0.21051693 0.52372134 -0.42053598 -0.026380496
0.13275157 -0.0029047537 -0.60234267 0.08610976 -0.76564753 -0.28037357 -0.0029777624 -0.11486833
-0.010437033 0.6295894 0.4997321 0.70115656 -0.15647888 -0.004840869 0.000664587 -0.0020321265
0.45648733 -0.5036242 0.2949873 0.24159735 0.00237821 0.012660758 -0.0044487244 -1.050383
0.80969805 -0.14270495 0.52788806 0.046754412 0.035630163 0.010559666 0.4589867 -0.6438474
0.78107196 -0.4112648 -0.02071292 0.058311794 9.28607e-06 -0.3066478 -1.0497719 1.1167359
0.46163434 -0.03050323 0.076298885 -0.0046335463 -0.62564087 0.0075497245 -0.6674561 -0.52541476
0.058616575 0.04870268 0.0016180017 -0.3799496 1.2664793 1.0299065 -0.80792207 0.009294231
0.09978319 -0.006764881 0.20735501 -0.20911385 -0.1390073 0.008077669 0.5648151 0.3408572
-0.01368079 0.54974 0.6498119 -0.14300193 -0.86217546 -0.00511097 0.081850745 -0.003268078
0.04292931 0.027771497 0.05238718 0.26311046 -0.6699493 0.45556426 0.0070974487 0.6039817
0.007167669 0.6492274 0.46688113 0.28597194 0.23699246 -0.0055121477 0.30878618 0.2090453
-0.3327372 -0.77983195 0.03685276 0.54584 0.013781744 -0.03326199 0.24464883 -0.018621568
0.18161714 0.099019915 -0.18851261 0.02609055 0.5756984 0.2682725 0.9074762 -0.9397665
-0.041584373 0.12010713 -0.0013022274 -0.00026428455 0.13760646 -0.23599087 -0.5235172 -0.23028924
-0.44840875 -0.014525571 -0.42349908 0.14531052 -0.6437902 -0.19940227 -0.059510972 0.302679
0.0010190238 1.2382015 -1.0575178 -0.023089055 -0.07140403 -0.0060265996 0.03066447 0.009453138
-0.92663735 0.78866625 0.048940934 0.029937517 0.0011634043 0.0065753297 0.0018115354 0.8670061
0.97071713 -0.104243614 -0.2268239 -0.008054066 0.012549524 0.0063135955 0.39758474 -0.68614537
0.8944466 0.13084748 0.004534058 0.018222831 -0.0085664075 -0.08096773 0.32432017 -0.31366694
0.44223994 -0.5541779 0.7620527 -0.017899808 -0.567184 -1.013129 0.0014777911 -0.7482309
0.01155729 -0.0012475227 0.009518893 -0.059595924 -3.940303e-05 -0.024469702 0.6175852 0.18682092
0.22614786 -0.03518624 0.7485328 -0.109126575 -1.0779097 -0.0070967674 -0.0200156 0.0229192
0.010457819 0.54985243 0.85852945 0.17033736 0.26721075 0.01330745 -0.0027056336 0.0036415034
00000000: b1e1 84be 537a ebbf bf34 aebe 6253 55bd
00000010: b819 db3c 4df7 7f3d cc97 90bc 7af0 dbbe
00000020: 6979 9bbe e87d 03bd d1a1 62bf c884 1fbd
00000030: 6cd4 fcbc ba4d 433b 825a 43bf 5a3c 29bf
00000040: c2a2 0f3e 7c58 62bd 4945 63bc 9f61 b4bc
00000050: 778d 313b 0656 20bf b8c4 3d3d f15c 17bf
00000060: 9b97 12bf cd1e 1b3e 61a0 c13d c694 a6bb
00000070: 9b9e 2abf 0160 05bf 8817 24bf a12f ad3e
00000080: 9dc8 233e 2b67 553e d732 a33c b147 10bf
00000090: c091 57be 9a12 063f 7e50 d7be e91b d8bc
000000a0: 07f0 073e ae5d 3ebb 2133 1abf 505a b03d
000000b0: 7a01 44bf 208d 8fbe 9026 43bb 1640 ebbd
000000c0: 1700 2bbc c52c 213f e3dc ff3e ff7e 333f
000000d0: 003c 20be 27a0 9ebb ae37 2e3a 6d2d 05bb
000000e0: b5b8 e93e 84ed 00bf 9308 973e 4c65 773e
000000f0: bedb 1b3b 116f 4f3c 9bc6 91bb f372 86bf
00000100: 5f48 4f3f 3f21 12be ac23 073f 8e81 3f3d
00000110: eff0 113d 7302 2d3c 4e00 eb3e 2fd3 24bf
00000120: 55f4 473f 4d91 d2be 24ae a9bc 59d8 6e3d
00000130: 5ecb 1b37 f100 9dbe ed5e 86bf 34f1 8e3f
00000140: 565b ec3e e9e1 f9bc 9742 9c3d 01d5 97bb
00000150: 002a 20bf ae63 f73b 67de 2abf 9581 06bf
00000160: ef17 703d 767c 473d 2113 d43a c188 c2be
00000170: fe1b a23f fad3 833f fbd3 4ebf d546 183c
00000180: 215b cc3d efab ddbb df54 543e f121 56be
00000190: ee57 0ebe 3358 043c b997 103f d684 ae3e
000001a0: 6425 60bc c3bb 0c3f 135a 263f 196f 12be
000001b0: 88b7 5cbf ed79 a7bb 5da1 a73d 402d 56bb
000001c0: a5d6 2f3d 0d81 e33c f193 563d 6ab6 863e
000001d0: cc81 2bbf b83f e93e b791 e83b 8b9e 1a3f
000001e0: c4de ea3b c433 263f 0b0b ef3e ea6a 923e
000001f0: 27ae 723e 3f9f b4bb 3919 9e3e f90f 563e
00000200: 885c aabe 11a3 47bf ebf2 163d 2cbc 0b3f
00000210: d3cc 613c b93d 08bd 3985 7a3e 428c 98bc
00000220: d8f9 393e f4ca ca3d 7309 41be d9bb d53c
00000230: f860 133f 035b 893e 5c50 683f 8a94 70bf
00000240: 6054 2abd bafa f53d 80af aaba ac8f 8ab9
00000250: b5e8 0c3e 97a7 71be 3905 06bf f1d0 6bbe
00000260: d595 e5be a9fc 6dbc dfd4 d8be 48cc 143e
00000270: 6fcf 24bf 1c30 4cbe c7c1 73bd bef8 9a3e
00000280: c490 853a 637d 9e3f be5c 87bf 4225 bdbc
00000290: 473c 92bd c87a c5bb 0e34 fb3c 56e1 1a3c
000002a0: 1b38 6dbf 08e6 493f 4a76 483d 863f f53c
000002b0: 5f7d 983a dd75 d73b 0b71 ed3a 1df4 5d3f
000002c0: eb80 783f ad7d d5bd 8644 68be 34f5 03bc
000002d0: 859c 4d3c 47e2 ce3b 3a90 cb3e 39a7 2fbf
000002e0: 74fa 643f e2fc 053e 6f92 943b 0c48 953c
000002f0: 1e5a 0cbc 69d2 a5bd 4b0d a63e f498 a0be
00000300: 466d e23e 9ade 0dbf e315 433f 9ea2 92bc
00000310: f832 11bf 36ae 81bf 71b2 c13a 0f8c 3fbf
00000320: ca5a 3d3c ea83 a3ba 22f5 1b3c db1a 74bd
00000330: ae44 25b8 af74 c8bc 101a 1e3f fc4d 3f3e
00000340: 4e93 673e 721f 10bd d89f 3f3f c17d dfbd
00000350: f2f8 89bf 008c e8bb c1f7 a3bc 0cc1 bb3c
00000360: 4657 2b3c 21c3 0c3f 96c8 5b3f eb6c 2e3e
00000370: d9cf 883e 7e07 5a3c 0051 31bb 4aa6 6e3b

fc1.bias f4 [32]
-0.47600293 -1.1036168 0.74159396 -0.7353674 0.75457853 1.4750829 -0.028305655 0.04111436
0.5507102 -0.3737036 0.7455678 -0.17536476 0.64057875 0.9627876 0.7431476 0.0027472044
0.93274486 -0.37588033 1.0014087 2.065506 0.21070096 1.6476144 -0.1869158 -0.32766697
0.8707885 0.37435028 -0.10562841 -0.334695 0.7671711 1.6231972 0.2185443 -0.43879053
00000000: a8b6 f3be 5143 8dbf 1ad9 3d3f 0a41 3cbf
00000010: 0f2c 413f 84cf bc3f 43e1 e7bc 8867 283d
00000020: 58fb 0c3f 1456 bfbe 88dd 3e3f d292 33be
00000030: f8fc 233f 4079 763f ec3e 3e3f 710a 343b
00000040: 5ec8 6e3f 6373 c0be 292e 803f 4031 0440
00000050: fec1 573e 07e5 d23f db66 3fbe f7c3 a7be
00000060: ffeb 5e3f d7aa bf3e b553 d8bd 255d abbe
00000070: 5365 443f edc4 cf3f 14ca 5f3e 27a9 e0be

fc2.weight f4 [128, 32]
0.13726851 -0.033096913 0.26391545 -0.266397 0.06541867 -0.2742148 0.32465446 0.19903634
0.24295138 -0.12188921 0.20135278 -0.0664867 -0.41604835 -0.1396173 0.16164641 0.037312184
-0.08733512 -0.066213146 -0.080964714 0.20005344 0.34930083 0.032343406 -0.12801805 -0.061128054
-0.331221 -0.0068489807 0.35494554 0.28690067 0.22854055 0.1980173 0.06450595 0.5049301
-0.51359075 -0.5749686 0.16203149 -0.057847675 0.04554567 -0.0007606691 0.3028288 -0.06437201
0.6118653 0.105328575 -0.10740371 0.06702001 0.12015889 -0.045193676 0.057792693 -0.251394
0.24465813 0.19276178 -0.14834034 0.063095935 -0.043727975 -0.024685867 0.4316368 0.0045607113
-0.29632324 -0.6979748 0.016489483 -0.22249518 0.28376737 0.1895495 0.24321923 0.75158435
-0.06770079 -0.49443868 0.2856097 -0.10389504 0.0911535 -0.035905644 0.5867653 0.006997452
-0.10974572 -0.28783706 -0.3809732 0.12173289 0.08429043 0.25035852 0.17938846 -0.08892505
0.14779972 -0.8178755 -0.07889565 0.044230536 -0.592222 0.36581337 0.34429103 -0.14898175
0.15742333 0.20013227 -0.14107352 -0.28641942 -0.12091623 -0.044288408 -0.086797506 -0.46720666
-0.2134282 -0.26235 -0.027539015 -0.29674917 -0.1835208 -0.024783278 0.05819596 -0.04635255
0.1741705 0.10949413 0.11828176 -0.14669348 -0.21450815 0.06520694 0.21059757 -0.17420961
0.09039067 -0.32631904 0.31070828 0.5020993 -0.18350056 0.65134865 0.07225124 -0.4024451
-0.39715633 -0.21353619 0.053572673 -0.18214116 -0.11849042 0.33300093 0.016116336 -0.013453265
0.3287548 0.08524022 0.18216437 -0.003223093 0.30892038 0.21216753 0.6471567 0.24263597
0.2859191 0.12913027 0.03561159 0.121502906 -0.1914074 -0.09783797 0.26475155 0.0676905
0.59943706 0.13853748 0.1425097 -0.17153114 0.16405417 -0.19840474 0.3769997 0.01958087
-0.02858897 -0.14790194 0.18113592 0.35976154 0.067354396 0.56369495 -0.24337667 0.26676235
0.029926172 0.13930196 0.15189758 0.075744115 0.17539465 -0.15943784 -0.15884018 0.20924008
0.30398375 0.00468804 -0.072440535 -0.09426534 0.26274133 0.24063714 -0.107338935 0.1402587
-0.16137335 0.0102694435 0.1697304 -0.13726473 -0.03266104 0.068382785 -0.02186499 0.37175852
0.0954585 0.187486 -0.38190857 0.1417025 0.03545664 -0.1681594 0.12528315 0.1389718
0.038289078 0.28140834 0.4899301 -0.102246106 0.30464354 0.37013754 0.23862152 0.20447145
-0.039406177 0.18397501 0.13926917 0.05184644 -0.031959426 -0.009761739 0.27309498 -0.04645801
0.14114906 0.24324863 0.19206215 0.42379862 0.01723328 0.17062166 0.09211819 0.21244313
0.0667271 0.14533336 0.15813856 0.023639422 0.26097012 0.56505036 0.18261997 -0.16844115
0.43587083 -0.05472232 -0.10607929 -0.21983398 -0.1251323 -0.08880112 -0.1184658 0.014938797
0.6754014 0.24746047 0.14130895 0.3966699 -0.43905637 0.28069142 0.21446969 0.039892375
0.09661278 0.04521323 -0.13123691 0.15217169 -0.09289766 0.017884774 -0.19587864 0.2501574
0.39523312 0.19151922 -0.22950332 0.096008874 -0.4594958 0.26188764 -0.026257733 -0.1698255
00000000: 1e90 0c3e a190 07bd ed1f 873e 3065 88be
00000010: 39fa 853d e265 8cbe 1c39 a63e 2fd0 4b3e
00000020: 3fc8 783e 0da1 f9bd 6c2f 4e3e 2e2a 88bd
00000030: 4a04 d5be d6f7 0ebe a386 253e a9d4 183d
00000040: c1dc b2bd c29a 87bd d4d0 a5bd cfda 4c3e
00000050: 8fd7 b23e 857a 043d 2a17 03be 6961 7abd
00000060: cd95 a9be 6a6d e0bb 6cbb b53e a5e4 923e
00000070: 8906 6a3e 0cc5 4a3e b21b 843d 1943 013f
00000080: af7a 03bf 2431 13bf 95eb 253e aff1 6cbd
00000090: 198e 3a3d a467 47ba 600c 9b3e 79d5 83bd
000000a0: 34a3 1c3f 82b6 d73d 7af6 dbbd c941 893d
000000b0: dd15 f63d 011d 39bd 08b8 6c3d b7b6 80be
000000c0: a987 7a3e 5863 453e 88e6 17be 7138 813d
000000d0: 1b1c 33bd 043a cabc 80ff dc3e 0572 953b
000000e0: aeb7 97be 7aae 32bf f414 873c c7d5 63be
000000f0: f549 913e 4419 423e 760e 793e d567 403f
00000100: b6a6 8abd 1127 fdbe 6f3b 923e ecc6 d4bd
00000110: b0ae ba3d cc11 13bd 4036 163f e24a e53b
00000120: 5dc2 e0bd 615f 93be eb0e c3be 184f f93d
00000130: 76a0 ac3d fe2e 803e 9cb1 373e 561e b6bd
00000140: cf58 173e 4a60 51bf 0b94 a1bd 142b 353d
00000150: dc9b 17bf e44b bb3e ea46 b03e ac8e 18be
00000160: 9533 213e 79ef 4c3e 9475 10be 91a5 92be
00000170: eea2 f7bd c367 35bd e4c2 b1bd b635 efbe
00000180: ec8c 5abe bd52 86be 8099 e1bc 82ef 97be
00000190: e0ec 3bbe 4d06 cbbc e35e 6e3d 2cdc 3dbd
000001a0: c059 323e 753e e03d b53d f23d d136 16be
000001b0: 06a8 5bbe 378b 853d e4a6 573e 0164 32be
000001c0: be1e b93d 4a13 a7be 2815 9f3e 9489 003f
000001d0: 92e7 3bbe c9be 263f 75f8 933d 490d cebe
000001e0: 1358 cbbe 3ba9 5abe 056f 5b3d 3683 3abe
000001f0: 1bab f2bd 197f aa3e 6806 843c 156b 5cbc
00000200: 8d52 a83e 6d92 ae3d 4c89 3a3e 873a 53bb
00000210: d02a 9e3e 7242 593e 10ac 253f 9075 783e
00000220: fd63 923e ba3a 043e 75dd 113d 84d6 f83d
00000230: 4d00 44be 465f c8bd 848d 873e 51a1 8a3d
00000240: b574 193f c5dc 0d3e 10ee 113e dca5 2fbe
00000250: d1fd 273e 9d2a 4bbe 1b06 c13e 1068 a03c
00000260: 6a33 eabc 9b73 17be b27b 393e aa32 b83e
00000270: 1af1 893d 504e 103f bc37 79be 1395 883e
00000280: bb27 f53c 2ca5 0e3e 0a8b 1b3e bb1f 9b3d
00000290: a89a 333e ac43 23be 00a7 22be 0843 563e
000002a0: c2a3 9b3e 219e 993b b45b 94bd 300e c1bd
000002b0: 0886 863e 9569 763e 84d4 dbbd fa9f 0f3e
000002c0: 0e3f 25be 2b41 283c cecd 2d3e 208f 0cbe
000002d0: 95c7 05bd 460c 8c3d 351e b3bc 2257 be3e
000002e0: bf7f c33d 54fc 3f3e 8589 c3be 761a 113e
000002f0: fb3a 113d fa31 2cbe 3a4a 003e a04e 0e3e
00000300: 02d5 1c3d c114 903e 1ed8 fa3e 6866 d1bd
00000310: 3dfa 9b3e ab82 bd3e 3359 743e f760 513e
00000320: 5f68 21bd f263 3c3e 949c 0e3e ef5c 543d
00000330: e3e7 02bd b3ef 1fbc 1bd3 8b3e c14a 3ebd
00000340: 6189 103e 2b16 793e f1ab 443e 22fc d83e
00000350: cf2c 8d3c 72b7 2e3e 76a8 bc3d b18a 593e
00000360: 38a8 883d 45d2 143e 13ef 213e 76a7 c13c
00000370: e09d 853e 24a7 103f bb00 3b3e d67b 2cbe
00000380: 762a df3e 8324 60bd 1940 d9bd 291c 61be
00000390: af22 00be 5ddd b5bd 339e f2bd dbc1 743c
000003a0: 1be7 2c3f 4766 7d3e 4bb3 103e 5118 cb3e
000003b0: ffcb e0be c9b6 8f3e f19d 5b3e 3066 233d
000003c0: ecdc c53d 8231 393d f862 06be e5d2 1b3e
000003d0: 2141 bebd 1783 923c 6994 48be a114 803e
000003e0: ff5b ca3e 9d1d 443e eb02 6bbe 4da0 c43d
000003f0: 0943 ebbe 2316 863e 751a d7bc bce6 2dbe

fc2.bias f4 [128]
0.11502817 0.29477727 -0.043902885 0.96783215 -0.17215204 0.32172537 0.666943 0.121062785
0.93953717 0.031180564 0.60648125 0.18193848 0.87725616 0.13285767 -0.52083516 -0.11535289
0.028237754 0.8391195 0.6421635 0.7248001 1.0582286 -0.0344941 0.5659089 0.47323024
0.5151198 0.8256316 0.019056452 0.42262968 0.86378133 0.33099392 0.8172883 0.37570494
0.54469454 0.6587022 0.52218974 0.15425983 0.38194042 0.35466692 0.5213162 0.4167126
0.45681828 0.60539526 -0.04553452 0.8882322 0.7869308 0.6333723 0.011530681 0.6407608
-0.14667057 -0.50724405 0.9475192 0.40217954 -0.2005829 0.78368443 0.06305411 0.23501645
-0.33816501 0.24806838 0.10244168 0.5307703 0.6220582 0.46709508 0.24908254 0.19905663
0.08833388 0.4738758 -0.30374038 -0.21858054 0.5029712 0.3336575 0.9473075 0.3332563
0.8624555 0.48340473 0.5756337 0.89328325 0.15509544 -0.2798258 0.6252668 -0.174843
0.03813244 0.23997831 0.052973226 0.44536722 -0.33340922 0.15357718 0.07483451 0.36762595
0.352892 0.15004988 -0.039785035 0.2564595 -0.49128997 0.719935 0.54091287 -0.03990934
0.47762516 0.22202367 0.24763474 -0.44061175 0.6256101 -0.28265134 -0.048017 0.3990857
0.58052474 0.021702144 0.32039803 0.26898786 0.060331047 -0.094580896 0.4479149 -0.23985322
0.13771333 0.82251525 0.89458627 0.19512022 0.02116059 0.14079379 0.6065989 0.068721876
0.89754695 0.9160691 0.02154565 0.4130021 0.6248268 0.4229978 0.48729616 0.2884534
00000000: e493 eb3d 0ced 963e 83d3 33bd d9c3 773f
00000010: a048 30be 30b9 a43e c7bc 2a3f c4ef f73d
00000020: 8285 703f 626e ff3c 5b42 1b3f 154e 3a3e
00000030: dc93 603f d70b 083e 7455 05bf 233e ecbd
00000040: dd52 e73c 89d0 563f d464 243f 808c 393f
00000050: 0974 873f af49 0dbd 68df 103f 3c4b f23e
00000060: e4de 033f 985c 533f 471c 9c3c eb62 d83e
00000070: c620 5d3f 0978 a93e ce39 513f 665c c03e
00000080: 1a71 0b3f b5a0 283f 3aae 053f 4af6 1d3e
00000090: b28d c33e e796 b53e fa74 053f 5b5b d53e
000000a0: 16e4 e93e 2ffb 1a3f 6882 3abd 2f63 633f
000000b0: 4c74 493f b024 223f 2eeb 3c3c e608 243f
000000c0: cf30 16be bfda 01bf 9e90 723f 7aea cd3e
000000d0: 9b65 4dbe 8b9f 483f 8322 813d 27a8 703e
000000e0: f723 adbe a305 7e3e f2cc d13d 90e0 073f
000000f0: 353f 1f3f 1627 ef3e 7e0f 7f3e 80d5 4b3e
00000100: 65e8 b43d d99f f23e dc83 9bbe 94d3 5fbe
00000110: b8c2 003f 28d5 aa3e bf82 723f 92a0 aa3e
00000120: e2c9 5c3f d380 f73e bb5c 133f 36ae 643f
00000130: 57d1 1e3e 5445 8fbe 7c11 203f 0b0a 33be
00000140: c330 1c3d e0bc 753e 74fa 583d 2c07 e43e
00000150: 9db4 aabe 5643 1d3e d642 993d 7839 bc3e
00000160: 43ae b43e ada6 193e a2f5 22bd a94e 833e
00000170: 5c8a fbbe a94d 383f 4479 0a3f fa77 23bd
00000180: 498b f43e 2c5a 633e f693 7d3e dd97 e1be
00000190: fc27 203f adb7 90be 79ad 44bd f654 cc3e
000001a0: 459d 143f b2c8 b13c 360b a43e c7b8 893e
000001b0: b01d 773d a1b3 c1bd 1a55 e53e 159c 75be
000001c0: b904 0d3e 5c90 523f 9b03 653f 98cd 473e
000001d0: f958 ad3c 3f2c 103e 114a 1b3f 0ebe 8c3d
000001e0: a3c5 653f 8183 6a3f 8180 b03c 0375 d33e
000001f0: a6f4 1f3f 2b93 d83e e27e f93e 2ab0 933e
