logs/sdf_single_min_distances_per_link/state_11.pt (torch, 112135 bytes, 16 tensors)

fc1.weight f4 [32, 7]
000000 80 be 1c be 5e 64 88 bf 20 f7 08 be 3a 74 7a bd
       -0.15307045 -1.065563 -0.1337552 -0.061146
000010 3b f3 dc bc 1b 68 2d 3e 24 ea 43 3a 4b 40 c6 be
       -0.02697145 0.16934244 0.00074735493 -0.38720927
000020 db 59 b7 be 7d 20 c7 bb 35 2f e3 be d5 e2 4d bb
       -0.35810742 -0.006076871 -0.44371954 -0.003141572
000030 7e 92 0a be 7a 8b cc 3a 0e 4c d4 be 3f 5f fc be
       -0.13532445 0.0015605532 -0.41464275 -0.49291417
000040 02 ef 94 3a d9 da ae 3c 26 ce ee ba 7c 7b e7 3c
       0.0011362734 0.02134459 -0.0018219396 0.028257124
000050 5d 2c 6e 3b 6f 7e e2 be 8c 46 1d bd 45 86 dc be
       0.003634236 -0.44237086 -0.038397357 -0.4307119
000060 44 ce 9e be a9 89 82 3d fb f3 3e 3e c5 54 4f 3b
       -0.31016743 0.06373913 0.18647759 0.003163622
000070 cd 95 e0 be fc 62 ff be 4c ef a9 be 60 d1 a0 3d
       -0.4386429 -0.49880207 -0.33190382 0.07852435
000080 cf 99 57 3d 16 79 de 3d 44 ff 78 3b 0e 32 00 bf
       0.052636918 0.10862939 0.0037993947 -0.5007638
000090 ea 3e 7c be 04 72 75 3e 90 f0 19 be 06 4a 98 3b
       -0.24633375 0.23969275 -0.15033174 0.004647496
0000a0 3d fb 69 3e b6 92 0a bb 9d ea d4 be 9f d2 0a 3d
       0.22849746 -0.0021144575 -0.41585246 0.03389227
0000b0 e1 72 08 bf 26 ca 5c be f9 b0 5b 3c 34 93 9d bd
       -0.5330029 -0.21561489 0.013408893 -0.076940924
0000c0 6a eb 1a bb dd 8e ef 3e 50 9f b7 3e 51 d6 e1 3e
       -0.0023638853 0.46788684 0.35863733 0.44108823
0000d0 7c 49 c6 bd 44 91 51 3c cd 45 ff 3b 5c 3f af bb
       -0.09681985 0.012790982 0.0077903033 -0.005348129
0000e0 35 19 a6 3e 72 0b ab be 8c 9e 5a 3e 2a ef e1 3d
       0.32441106 -0.3340717 0.21349543 0.11031945
0000f0 83 ba 30 ba ff da c5 bc ac 3f 7c bb 02 7b 36 bf
       -0.00067416596 -0.024152277 -0.00384901 -0.71281445
000100 39 47 0c 3f 9a e0 97 3c 30 20 f0 3e e9 50 13 3c
       0.5479618 0.018539716 0.46899557 0.008991458
000110 06 28 3b 3d 4a e1 50 3a 9e e2 cc 3e 68 97 bd be
       0.045692466 0.0007968141 0.40016645 -0.37029576
000120 fa d1 f8 3e 85 0f 85 be e5 28 11 bb 80 df 9d 3c
       0.485977 -0.25988403 -0.002214962 0.019271612
000130 5d 97 19 bb 0a a4 0e bd 06 22 49 bf d8 7b bb 3e
       -0.0023436167 -0.03482441 -0.7856754 0.36617923
000140 1a ed e0 3e 53 24 ee bc 0c b2 8c 3e 86 77 b1 bb
       0.43930894 -0.029070055 0.2747959 -0.0054158596
000150 a0 76 13 bf c4 72 1b bd a4 41 ef be c1 7f 0e bf
       -0.5760288 -0.037951246 -0.46729767 -0.55663687
000160 a2 d4 9d bc 45 43 aa bb 7a 1c c8 bb d6 d0 44 be
       -0.01926643 -0.0051960074 -0.0061069103 -0.1922029
000170 60 85 42 3f 41 44 27 3f cb 11 d1 be eb ed f7 3c
       0.75984764 0.6533852 -0.40833887 0.030264815
000180 32 d3 6d 3e 90 da 9d bc 25 3b 4b 3d 2f 64 4c be
       0.23225096 -0.019269258 0.04961695 -0.19960092
000190 ff 97 45 be 69 4a 08 be e4 67 6c 3e a6 8b 18 3e
       -0.19296263 -0.13309635 0.23086506 0.14897022
0001a0 16 13 9f bd 82 05 0b 3f 64 10 16 3f 9f 0b 23 bd
       -0.07767312 0.5430528 0.5861876 -0.039806005
0001b0 db 1e 1f bf c6 fc 25 3a a4 90 fc 3d d7 75 ff bb
       -0.62156457 0.00063319167 0.123322755 -0.00779603
0001c0 25 03 1f 3d fa 11 73 3c cc 87 0d 3d 9f 04 89 3e
       0.03882136 0.014835829 0.034553334 0.26761338
0001d0 42 c2 d3 be c7 69 69 3e ac 35 ce 3b 23 e1 08 3f
       -0.41359144 0.22794257 0.0062930193 0.5346853
0001e0 41 7b 29 bd 29 86 ea 3e 7f 2c b2 3e 13 eb b0 3d
       -0.04137731 0.4580548 0.34799573 0.08638587
0001f0 4c c8 2b 3e da 36 8c bb b1 6a 07 3e f2 74 bd 3e
       0.16775626 -0.0042789998 0.13224293 0.37003285
000200 c9 dc 82 be 1c 86 00 bf f2 e8 e3 3c 82 39 5c 3e
       -0.2555907 -0.50204635 0.027821038 0.21506312
000210 dd 55 80 3d 5e 1a 53 3d 18 bc 2e 3d 6a 03 79 bc
       0.06266377 0.051538818 0.04265985 -0.015198568
000220 46 dd 13 3e f8 38 4a 3e ed 43 53 bd fe 0f 8c 3d
       0.14439878 0.19748294 -0.05157845 0.06838988
000230 6c eb f9 3e 06 63 f7 3d 55 1f 1b 3f a1 88 1f bf
       0.48812425 0.12079434 0.60594684 -0.62317854
000240 12 f1 a5 bc 42 b6 01 3e d3 69 5b ba ce 3b e3 3d
       -0.020256553 0.12667182 -0.0008369956 0.11095391
000250 24 41 0b 3e fb 44 65 be a3 db cd be bd c7 09 be
       0.13599068 -0.22389595 -0.40206632 -0.134551
000260 a8 9f 01 be ec 08 54 bd af 93 aa be 73 13 e0 3a
       -0.1265856 -0.05176632 -0.333158 0.001709564
000270 ce 4a 07 bf 38 8c 09 be f8 ad 62 bd 4d a9 5f 3e
       -0.5284852 -0.13432395 -0.05534169 0.21841927
000280 02 9c a3 3b a9 16 44 3f 59 46 38 bf ac e7 34 bc
       0.004992963 0.76597077 -0.7198234 -0.011041563
000290 66 14 9a 3d b9 a6 81 3c 79 b4 99 3d bc b9 5d 3c
       0.07523422 0.01582657 0.075051256 0.013533052
0002a0 58 2b 21 bf 2c b7 0c 3f ec 57 5b 3d c9 f2 be 3c
       -0.6295676 0.54967 0.053550646 0.023309128
0002b0 2c 80 0f 3b a7 02 fa 3c 4d 4c 81 3b 68 ca 20 3f
       0.0021896465 0.030518843 0.0039458633 0.6280885
0002c0 01 dc 21 3f 94 b9 6d 3d c4 9c 1e be 29 84 b3 bc
       0.63226324 0.05803831 -0.15489489 -0.021913605
0002d0 39 a5 56 bc 7f ee 45 3c ea f1 1a 3e a2 ff 3f bf
       -0.013100916 0.012080788 0.15131345 -0.7499944
0002e0 21 29 08 3f 5e 16 d4 3d d2 b0 da 3b f3 df e0 bd
       0.5318776 0.10355829 0.0066739107 -0.10980215
0002f0 e6 af 63 bb 66 d7 0c 3e b5 46 c6 3e 69 91 e6 bd
       -0.0034742295 0.13754043 0.3872582 -0.112582035
000300 6a 6b 02 3f e3 d1 3d be 95 e7 13 3f 25 e5 d8 bc
       0.5094515 -0.18537097 0.5777524 -0.026476452
000310 72 6f db be dc 9c 38 bf 0c d8 f7 bb 95 47 12 bf
       -0.42858464 -0.7211435 -0.0075635966 -0.57140476
000320 0f 93 d2 bc ad 54 fa 3c e4 b8 c5 3c 60 35 96 bc
       -0.025704889 0.030557955 0.024136014 -0.018335998
000330 06 98 68 3e fe e6 1f bd 74 e3 c8 3e c7 3d 2d 3e
       0.22714242 -0.03903865 0.39236033 0.16918097
000340 d8 93 47 3e 9e d6 ba bc 6a de e8 3e bd f6 65 bd
       0.19489992 -0.022807416 0.45482188 -0.05614351
000350 67 6c 32 bf e6 da e9 3c d9 dc a2 bc 7e f0 11 3c
       -0.6969666 0.028546762 -0.019880699 0.008907435
000360 fc e8 1b b9 59 6e c8 3e 17 29 04 3f 51 56 9b 3d
       -0.00014868745 0.3914669 0.516252 0.07584823
000370 26 61 53 3e 83 e0 0a 3c c3 c7 a1 bc 6c de cc 3b
       0.20642528 0.008476379 -0.019748574 0.0062521007

fc1.bias f4 [32]
000000 45 d6 c7 be 00 7f b1 be 89 bc bc 3e 15 94 e9 be
       -0.39030662 -0.34667206 0.3686259 -0.4562079
000010 d8 f3 29 3f 3d 7c 73 3f 82 3b 30 be 02 d4 4a bd
       0.663877 0.9511145 -0.172102 -0.049518593
000020 d4 0f e8 3e e5 d2 e1 3b 9b 3e 25 3f 59 1e 00 3e
       0.45324576 0.0068915957 0.64548653 0.12511577
000030 d6 50 e0 3e 70 bb 09 3f d8 1f 15 3f 4e e3 d2 3c
       0.43811673 0.5380163 0.58251715 0.025743153
000040 b2 76 73 3f e0 e1 6b be a6 71 26 3f d3 2c 9d 3f
       0.9510299 -0.23035383 0.65017164 1.2279304
000050 12 7d e5 bc b3 a1 68 3f 28 cd 88 be c0 05 92 bd
       -0.02801374 0.90871733 -0.26719022 -0.07130003
000060 7d 63 00 3f c9 df e9 3e a1 0a d7 3c ed 03 b5 3c
       0.5015181 0.45678547 0.026250185 0.022096599
000070 35 c1 f4 3e 7f da 8f 3f a3 a7 6a 3e 46 86 9e be
       0.47803655 1.1238555 0.22915511 -0.30961818

fc2.weight f4 [128, 32]
000000 45 70 69 3e 56 f0 c9 3d cc 44 39 3e dd 45 96 be
       0.22796734 0.098602936 0.1809265 -0.29350176
000010 bf 97 92 bd 83 f7 80 bd 5f ab 59 3e fc 03 9a 3d
       -0.071578495 -0.06297209 0.21256779 0.07520291
000020 77 52 82 3e 76 2b 24 be 62 0d dd 3d 67 3a cb 3c
       0.2545354 -0.16032204 0.10793568 0.024808122
000030 0c 9f cb be 5f 82 9e bd 53 33 14 3e c2 56 8b 3c
       -0.3976978 -0.0773971 0.14472704 0.017009143
000040 b4 3e 80 3d 21 fd 39 3d 66 1d c2 3c 7d 04 91 3d
       0.0626196 0.04540742 0.023695659 0.07080934
000050 2e 11 d1 3d 9b 37 03 3e 9e 89 a3 3d d5 3d cf bd
       0.10208355 0.1281418 0.07985233 -0.101192154
000060 e1 8d 93 be 59 7e 60 bc 37 10 c6 3d 06 26 42 bd
       -0.28819183 -0.013701999 0.096710615 -0.047399543
000070 fd a9 78 3e 68 1f 24 3e 21 8b 10 3e 21 a9 09 3d
       0.24283595 0.16027606 0.14115573 0.03360856
000080 99 65 a0 be 2a 59 ee be 5e e0 58 3e dc 91 8a be
       -0.31327513 -0.46552402 0.2117934 -0.27064407
000090 b9 d4 08 3d b6 af 97 bc 80 7e 0a 3e fe 5c 15 3e
       0.033405993 -0.018516403 0.13524818 0.14586255
0000a0 6d 40 db 3e 21 fd 49 3e f4 a1 cc bd cc 9c d5 bb
       0.4282259 0.19725467 -0.099918276 -0.006518936
0000b0 9c e4 5a 3d 91 79 fd bc 07 f0 05 3e ee 98 93 be
       0.053440675 -0.030941756 0.13079844 -0.28827614
0000c0 a7 f2 4f 3e 7e 70 b9 bd d2 77 ac bd 5b 45 21 3e
       0.20307408 -0.09054659 -0.084212914 0.15749113
0000d0 55 96 07 3d 15 b8 f0 bd eb 54 55 3e 19 36 1f bd
       0.033102352 -0.11753861 0.20833175 -0.03886995
0000e0 79 ce 04 be e5 00 a4 be c0 67 c7 bd e3 5e 49 bd
       -0.12969388 -0.32031932 -0.097365856 -0.049162757
0000f0 5f e6 23 3e 4f 9a 55 3e e8 05 6b 3d 8b cf 0b bf
       0.16005848 0.20859645 0.05737868 -0.5461356
000100 4c 47 bb bd c6 16 1a be 44 7c c4 3d 49 19 a0 bd
       -0.09144458 -0.1504775 0.09594014 -0.07817323
000110 45 31 db 3d 4a 18 30 bd 83 86 0d 3f ff ad f3 3d
       0.10702757 -0.042991914 0.55283374 0.118984215
000120 5f 58 bb be 78 a9 04 3e da 66 a8 be db 0e 52 bb
       -0.3659086 0.12955272 -0.3289097 -0.0032052312
000130 f8 c7 e2 3d bd 5f a7 3d 98 73 91 3d 76 be 3b bd
       0.11073297 0.081725575 0.07102126 -0.045835935
000140 ef 3a b6 3d 16 e3 04 bf 5e 56 07 3e ca bc d5 3c
       0.088979594 -0.51909006 0.1321654 0.026090998
000150 44 55 ed be 50 c9 83 3e da 68 ee 3e 1e ab e7 bd
       -0.46354115 0.25739527 0.4656437 -0.11311935
000160 a3 5d bf 3c 65 98 a6 3d 04 70 7e 3e b1 30 c5 bd
       0.02336008 0.08134536 0.24847418 -0.09628428
000170 45 e5 c8 bd 6c 2e 95 3c cc 99 85 be d2 36 e3 3e
       -0.09809355 0.018210612 -0.260939 0.44377762
000180 96 df 5e bd 05 06 6a be 03 b8 c2 bd d5 fd 83 be
       -0.054412447 -0.22853859 -0.09507754 -0.25779596
000190 6c 12 c5 3d 47 a0 96 bc 24 b5 81 bd eb ae 52 3b
       0.09622654 -0.018386973 -0.06333378 0.0032147716
0001a0 83 51 bc 3d ab 2d 85 be fc 7f 25 be 58 5c 69 be
       0.091952346 -0.26011404 -0.16162103 -0.22789133
0001b0 9a 21 49 be 6b ce f3 3d 5a 78 82 3e db 2f 80 be
       -0.19641724 0.119046055 0.25482446 -0.2503651
0001c0 4e fe a1 3e 8d e2 04 be 2c db 9e 3e 12 41 51 3e
       0.31639332 -0.12977047 0.3102659 0.20434979
0001d0 f0 65 a7 be 14 23 c1 3e 9f 1d 4f bd 55 12 41 be
       -0.3269496 0.37722075 -0.05056536 -0.1885465
0001e0 36 ef 6a be 4e d7 17 3e 1b ba e2 3d 97 1f ac bd
       -0.22942814 0.14828226 0.11070653 -0.08404463
0001f0 94 6e a4 bd 95 14 dd 3e 65 60 0a bd a3 d4 e6 bd
       -0.080289036 0.43179765 -0.033783335 -0.11271026
000200 ca 09 b0 3e f8 d6 ae 3d 9e 42 66 3e a2 6d 94 bc
       0.34382468 0.08537096 0.2248635 -0.018118683
000210 4d f1 6c 3e 43 f7 4e 3e 6b 08 04 3f 5f 7c ad 3e
       0.23138924 0.2021151 0.51575345 0.3388395
000220 f7 98 9d 3e 1e ad 24 3e 88 f4 34 3e 33 3c 56 3e
       0.30780765 0.16081664 0.17671406 0.20921402
000230 2f 8b 4a be 8b 08 05 bd a2 f6 cc bc a5 dc 7a 3e
       -0.19779657 -0.03247885 -0.025019947 0.24498232
000240 8a b9 87 3e 21 db a0 3d 31 cd ed 3c c4 3c 85 bd
       0.26508743 0.078542955 0.029028507 -0.06505731
000250 b0 1f 8a 3e 94 f4 25 be 07 0c d8 3e 42 35 e9 3d
       0.269773 -0.1620658 0.42196676 0.11387111
000260 16 f0 c8 bd 71 c4 8f bd 89 8d de 3d e5 a2 a6 3e
       -0.09811418 -0.0701989 0.108668394 0.32546154
000270 bb d6 b8 3d 9f b4 70 3e 4c a0 71 be cc 0c 17 3f
       0.090253316 0.23506401 -0.23596305 0.590039
000280 74 f7 63 bd ca f7 85 3c 2e 2c 33 3e 07 06 ff 3d
       -0.05565591 0.016353507 0.17497322 0.124523215
000290 13 e1 8a 3c a0 2d c9 bd 48 42 21 3d 0b 73 4a 3e
       0.016953027 -0.098231554 0.03936985 0.19770448
0002a0 eb 05 95 3e 33 f7 b1 bd a8 3b fc bd 22 f6 1f be
       0.29106078 -0.08689728 -0.12316066 -0.15621236
0002b0 8c 15 55 3e 90 9e 89 3e 9c de 2b bd 2a d4 90 3c
       0.20809 0.26878786 -0.041960344 0.017679293
0002c0 b7 c7 fc bd 03 2e ad bd da 2c 2e 3e 5a fd 68 bd
       -0.1234278 -0.08456042 0.17009297 -0.05688224
0002d0 fd f2 4c bd eb 0f 06 3e 6b b5 90 bc 87 68 3d 3e
       -0.05003642 0.1309201 -0.017664632 0.18496905
0002e0 a2 ba bb 3d df 67 7b 3d 86 1d 50 be c3 ba 99 3c
       0.09166457 0.061378356 -0.20323762 0.018765813
0002f0 f6 ba 97 3d a7 44 17 be 86 ee ed 3a fb 36 d1 3d
       0.07408707 -0.14772283 0.001815275 0.10215565
000300 86 ab 2e 3e 99 24 2c 3e 32 64 21 3e ba 81 84 bd
       0.17057618 0.16810836 0.15760878 -0.06470056
000310 0a ea 44 3e 33 61 97 3e 80 f4 c2 3d 5b fa c5 3d
       0.19229904 0.29566345 0.09519291 0.09666892
000320 ad 5e b0 3c b0 b7 2e 3e a2 fa c0 3d 20 00 81 3d
       0.02152952 0.17062259 0.094228044 0.06298852
000330 ee 36 1f bd 47 30 ec 3c 4c f3 92 3e 1a 0c 0c 3d
       -0.038870744 0.028831614 0.28701246 0.03419123
000340 c7 e2 7e 3e ed 30 9a 3e 7a d4 45 3e fb 6e 99 3e
       0.24891196 0.30115452 0.19319335 0.29967484
000350 6a 1e 1c bd 76 95 9d 3d c7 08 6a 3d 8d 7f 84 3e
       -0.038114943 0.07694523 0.057137277 0.25878564
000360 84 f6 66 3d a6 9d 75 3e b0 c2 f0 3c a7 2f 31 3e
       0.05638744 0.2398592 0.02938971 0.17303334
000370 c8 d5 49 3e 6f ea fb 3e eb 0e 08 3e 9d ea 92 3c
       0.19710457 0.49202296 0.13286941 0.017934138
000380 47 ea ff 3d f6 a8 48 bd fe 0c 50 3e 93 05 95 be
       0.12495857 -0.04898926 0.20317456 -0.29105815
000390 88 b5 05 be ab c9 8a 3d 1a fc cb be 2c 1e 8d 3e
       -0.1305753 0.06776746 -0.39840776 0.27562082
0003a0 a8 8e e8 3e 98 56 76 3e 63 45 f0 3d 65 77 7b 3e
       0.45421338 0.2405647 0.117319845 0.24557264
0003b0 26 96 ee be 11 9d b0 3c 67 77 30 3e b2 7a eb bd
       -0.4659893 0.02155927 0.17233048 -0.11498012
0003c0 3d 02 bc 3d 6a 72 ca 3b 4b b7 70 bd f8 ac 50 3e
       0.091801144 0.00617819 -0.05876855 0.20378482
0003d0 4b 90 07 3e 4c 41 b6 3d 0b a4 57 be 73 df f9 3c
       0.13238637 0.08899173 -0.21058671 0.030502057
0003e0 7f 6b a1 3d dc e5 2a 3e 70 b4 a2 bd fe 8c 49 3e
       0.078818314 0.16689247 -0.07944572 0.1968269
0003f0 20 7d 4d be 63 29 4d 3e 61 72 7d 3d 32 f2 d0 bd
       -0.20067263 0.20035319 0.06187666 -0.10202445

fc2.bias f4 [128]
000000 0a d2 0f 3e ec 90 95 3e 0f 80 1b bd ec 17 48 3f
       0.14044967 0.2921213 -0.037963923 0.781615
000010 65 03 b5 bd 15 65 91 3e 25 af 13 3f 48 61 40 3e
       -0.08838538 0.28397432 0.57689124 0.1878711
000020 4e bd 66 3f 9e 18 52 3d 47 c7 c4 3e 2d e1 38 3e
       0.90132606 0.051293008 0.38433287 0.18054648
000030 bd 64 37 3f 5d bc bd 3c e0 b2 83 be 1c 22 b9 bd
       0.7163809 0.023161108 -0.25722408 -0.09039709
000040 56 bd dc 3d 1c 53 45 3f 1b 9b 10 3f 67 fb 1c 3f
       0.107783005 0.7707994 0.5648667 0.6132111
000050 9b 31 57 3f e1 27 d1 bc 46 d1 e4 3e c5 3c df 3e
       0.84060067 -0.025531711 0.44690913 0.4360105
000060 58 42 9c 3e 34 73 35 3f 4e 4b 77 3d 43 ac f6 3e
       0.30519366 0.7087891 0.06037455 0.481783
000070 85 eb 40 3f 08 d7 da 3e b6 9a 36 3f 73 d4 b1 bc
       0.75359374 0.4274218 0.7132982 -0.021707749
000080 3c 00 fb 3e 40 06 1f 3f cd ed 14 3f 5e 68 02 3e
       0.49023616 0.6211891 0.58175355 0.12735125
000090 a3 88 99 3e a3 5a 90 3e b5 c4 aa 3e b0 96 99 3e
       0.29987058 0.2819415 0.333532 0.29997778
0000a0 63 a4 48 3e a7 53 13 3f 12 76 2e be ad 4f 3e 3f
       0.19593959 0.5754952 -0.17037228 0.74340326
0000b0 78 02 47 3f 08 d1 fb 3e f3 cb 87 3c b5 f7 0f 3f
       0.7773814 0.49182916 0.016576743 0.56237346
0000c0 1f 11 bd bd 36 cd 0c bf c0 c3 28 3f 72 df b5 3e
       -0.09231781 -0.5500063 0.6592369 0.35522038
0000d0 af 61 7c bd 15 e1 1a 3f c6 d3 5f 3e 4e ad 27 3e
       -0.061616596 0.604997 0.21858129 0.16374704
0000e0 85 7c 60 be fc 66 7c 3e c9 57 69 3e cb 53 d0 3e
       -0.219225 0.2464866 0.22787394 0.4068893
0000f0 f4 32 f3 3e 4a 4b c9 3e be 94 55 3e 6a 33 27 3e
       0.47499812 0.39315253 0.20857522 0.16328207
000100 b0 d5 06 3e 3f 99 a1 3e fb 10 cf bd c3 68 00 be
       0.13167453 0.3156223 -0.10110661 -0.12539963
000110 0e 11 d9 3e 15 7d 92 3e cd 24 54 3f e6 f0 94 3e
       0.42395824 0.28611055 0.82868654 0.2909004
000120 33 8b 44 3f f7 17 bb 3e 7d 80 bd 3e 75 24 48 3f
       0.767749 0.3654172 0.3701209 0.7818063
000130 38 c0 29 3e 2b 07 21 be 15 49 f5 3e e8 c8 d5 bc
       0.16577232 -0.1572539 0.4790732 -0.026096776
000140 e2 56 4a 3d cd 2f 89 3e f9 fa 69 bd 6a e0 d5 3e
       0.049399264 0.26794282 -0.05712411 0.41772777
000150 30 d9 3a be 1c 59 82 3d c1 9d 44 3e e1 cb a3 3e
       -0.18246913 0.063646525 0.19200803 0.31991485
000160 ac 50 8b 3e 52 11 47 3e a0 43 6f bd 71 54 13 3e
       0.27209985 0.19440201 -0.0584141 0.1438768
000170 ce 62 03 bf 8e 0c 17 3f dd e4 f2 3e 63 ed c5 bd
       -0.5132264 0.5900353 0.47440234 -0.096644185
000180 24 a1 d2 3e 6d 1e 7d 3e c8 bd 72 3e ca da f3 be
       0.41138566 0.24718638 0.23705208 -0.4762786
000190 58 9d f3 3e c2 24 4b bd 8d 68 be 3c 14 a3 92 3e
       0.4758098 -0.0495956 0.023243213 0.28640044
0001a0 c1 d0 0d 3f 4a 27 4b 3d da b3 67 3e 37 63 84 3e
       0.5539666 0.049598016 0.22627202 0.25856945
0001b0 31 62 ef 3d ba 94 11 be ac 9f c0 3e 0b 95 ad bd
       0.116886504 -0.14216891 0.3762182 -0.08475693
0001c0 4e 36 ff 3b 53 31 42 3f b8 cd 52 3f 26 d6 5a 3e
       0.007788456 0.7585651 0.8234515 0.21370754
0001d0 da 9d 02 3d 1e 20 58 3e 92 a7 20 3f f3 05 15 bd
       0.03188882 0.21106002 0.6275569 -0.036382627
0001e0 23 c4 47 3f 4c 18 3a 3f ed dd 92 bd 24 d3 8c 3e
       0.78033656 0.72693324 -0.07171235 0.27504838
0001f0 90 4a fd 3e 53 7e b5 3e 8a 65 03 3f 88 3e 62 3e
       0.4947095 0.3544794 0.5132681 0.22094166

fc3.weight f4 [64, 128]
000000 44 2e 92 3e a8 d1 0b 3f c9 43 78 3e f0 86 9a 3e
       0.28550923 0.54616785 0.24244608 0.30181074
000010 9b 1f 15 bb d4 1f e8 3d 48 64 ce bb e3 f7 e8 3c
       -0.0022754434 0.11334196 -0.0062985756 0.028438514
000020 d3 96 43 bc e4 de da 3d 48 5d f6 3d 01 74 b6 3e
       -0.011937815 0.10687044 0.12029511 0.3563538
000030 15 82 b3 3e e3 6d 4b 3e ea 6b 9f bf 7b dd ea 3d
       0.35060182 0.19866137 -1.2454808 0.11468025
000040 4a 90 a4 3e fb 02 05 be ba d7 ae bd f7 16 ab 3d
       0.32141334 -0.12989418 -0.0853724 0.083539896
000050 e4 81 79 be 80 c1 eb bd 75 d0 a4 3e 9a 4d 4d be
       -0.24365956 -0.115115166 0.3219029 -0.20049134
000060 ff 1d 1a 3e 3f 03 34 bd f2 21 c5 3e 11 5f 34 3e
       0.15050505 -0.04394841 0.3850246 0.1761439
000070 45 74 1a bd 92 70 3d 3e 3d cd 14 be 1b 08 ac 3d
       -0.03770854 0.18499973 -0.14531417 0.083999835
000080 84 22 a8 bd f1 b0 44 be 30 e5 d1 be 25 c6 78 3e
       -0.08209708 -0.19208123 -0.4099517 0.24294336
000090 7c 55 1d 3f f4 9c 6f 3e ec 8c 61 3d 0c ee 62 3c
       0.61458564 0.23399717 0.055066034 0.0138507
0000a0 26 fd 69 3c ba cc c5 3e 7e 8c 83 3d d4 75 7a 3c
       0.014281547 0.38632756 0.06423281 0.0152868815
0000b0 e3 c8 70 be dd 22 02 3f f4 b7 05 3f 3e b7 2a be
       -0.23514132 0.5083445 0.52233815 -0.16671464
0000c0 2e 8d c1 3e 37 cb 46 be 98 14 4e 3e c9 49 8b be
       0.37803024 -0.19413458 0.20125043 -0.2720473
0000d0 62 29 af 3e c5 11 a6 be d5 df 04 3f 75 5c 93 3e
       0.3421126 -0.32435432 0.5190404 0.28781477
0000e0 0f f1 06 3f 91 fc c2 3e 0b dd b5 3d 6f 52 aa 3c
       0.52711576 0.38083318 0.08880051 0.02079126
0000f0 02 52 54 3e 01 71 0b 3e b5 3d 09 3f c3 11 a4 3e
       0.20734408 0.13617326 0.5360978 0.320448
000100 04 3c e3 bd 90 b2 fa 3e c4 2c b9 be 7b 6c e0 3e
       -0.110954314 0.48964357 -0.36166966 0.43832764
000110 43 9d 26 be 7f 86 3c be 42 d0 28 bd 07 bf d3 bd
       -0.16270928 -0.18410681 -0.041214235 -0.1033917
000120 23 01 be bd ba b9 01 3f ce 9c a5 3e fb a8 8c 3e
       -0.092775606 0.5067402 0.32346195 0.27472672
000130 3a ae 61 3e d4 a2 28 3a 2a dc de 3d d1 22 e8 3e
       0.22039118 0.00064329547 0.10881837 0.45339063
000140 01 22 3d 3e df a4 08 3f 46 52 f7 3d a5 fe 1f 3d
       0.18470003 0.53376573 0.12076239 0.039061207
000150 ee 05 4f 3e 49 c9 83 3e 5e fd c2 3e 1d 16 21 3e
       0.20217106 0.25739506 0.3808393 0.15731092
000160 f6 b0 9b 3e ea 5a df 3e 0a a3 42 3e db e5 7c 3e
       0.30408448 0.4362405 0.19007507 0.24697058
000170 1e 89 01 be 28 cf 71 3e 37 8e 73 be 4f a1 41 3e
       -0.12649962 0.2361418 -0.2378472 0.1890919
000180 14 6a e2 3e b4 3e 40 be 89 66 2c 3e d5 57 a3 3d
       0.44221556 -0.1877392 0.16835989 0.07975737
000190 76 3d 5f 3e 5d 46 e8 bd 30 17 66 be e6 a5 43 bd
       0.21800789 -0.11341546 -0.22469783 -0.047765635
0001a0 71 62 93 bd 52 2b f5 3e a9 1c 47 3d ae 33 7b 3d
       -0.071965106 0.47884613 0.048611317 0.061328582
0001b0 c5 4d 94 3e d6 cf f5 3d 40 d0 71 3e 6d ce de 3d
       0.28965583 0.12002532 0.23614597 0.10879216
0001c0 f4 36 90 3e 01 ef a7 3e 0b c6 cc 3d 1d d6 d5 3d
       0.28166926 0.32799533 0.09998711 0.104412295
0001d0 8d 64 b7 3e 20 73 e4 3c 43 44 2d be 4e c9 ad bd
       0.35818902 0.027886927 -0.16920571 -0.084856614
0001e0 b6 df a5 3d 2e 19 32 3e cb f8 ab 3e 4a 50 0b 3f
       0.0809931 0.17392418 0.3358825 0.54419386
0001f0 ae 0e 9e 3e 13 45 7d 3d 2a bc dd 3e 5b 90 c3 3e
       0.30870575 0.061833452 0.4330762 0.38196072
000200 28 cf f6 3e b1 ec 42 be 38 18 1f 3f 6f fd da 3e
       0.48204923 -0.19035603 0.6214633 0.4277148
000210 68 cb 46 be 9c 68 cd 3e 49 0a 05 3d 13 d4 70 3e
       -0.19413531 0.40118873 0.03248051 0.235184
000220 bd 91 2e be 0c 5e d2 bd bc 60 d2 3e eb ba d6 3d
       -0.17047782 -0.10271844 0.41089427 0.104848705
000230 37 cc 98 3d f2 d3 bd 3e b6 d3 7c bc cc 87 fa 3d
       0.07460826 0.37075764 -0.015431335 0.122329324
000240 e0 33 56 bd 69 39 7c 3e 37 7a 41 3b 82 0b b5 3e
       -0.052295566 0.24631275 0.0029522309 0.35360342
000250 b1 b0 39 ba 12 c6 68 3b 05 93 e4 3e 04 0b d2 3d
       -0.0007083519 0.003551845 0.44643417 0.10256007
000260 5e cf 8c 3d 4a bf 09 3e 87 41 c6 3e fa 83 d6 3e
       0.0687549 0.13451877 0.38721868 0.41897565
000270 76 65 b6 3e d8 5f de 3e 16 6d e1 3d fe 94 8a 3e
       0.35624284 0.43432498 0.110071346 0.27066797
000280 e8 64 57 be e2 d2 69 3e e9 0c fc 3a 93 40 27 3e
       -0.21034586 0.22834352 0.0019229922 0.16333227
000290 d3 fb 1d 3e a7 a3 67 3e e1 4c 42 3e 32 db 52 3e
       0.15428095 0.22621022 0.1897464 0.20591429
0002a0 d9 5e d3 3d 5a 9a 2f 3f 0b c0 8d bd 92 6d 2d 3e
       0.10320825 0.68594897 -0.06921395 0.16936329
0002b0 65 59 5b 3e 86 71 13 3f 96 85 8c 3e 5e 5c 01 3e
       0.2142082 0.575951 0.27445668 0.12632892
0002c0 d4 e8 c7 be f1 0c f8 bd 6b f3 87 bd 6e 06 49 3e
       -0.3904482 -0.121118434 -0.06638225 0.19631359
0002d0 07 92 0e 3e c5 44 0c bc d2 8f 11 3f aa 58 5b 3e
       0.13922893 -0.008561318 0.5686008 0.21420541
0002e0 b8 23 2c bd 60 0f 90 3d bd da f3 bd b8 05 cc 3e
       -0.04202625 0.070341825 -0.119069554 0.39848113
0002f0 4c 3c e7 3e 40 c7 6e be dc 3c 84 be db 13 93 3e
       0.4516319 -0.23318195 -0.25827682 0.28726086
000300 0f c3 e5 bd 8f d7 fb 3e c9 86 f5 bd 14 0a 40 3e
       -0.11218845 0.49187896 -0.11988599 0.18753844
000310 cb a6 50 3c ed 2c 95 3c 58 d1 d7 bc 93 d5 08 bd
       0.012735079 0.018209899 -0.02634494 -0.033406805
000320 df 30 3e 3e a2 d6 60 be 4c b1 2d 3e 10 0d 9c 3e
       0.1857333 -0.21956876 0.16962165 0.30478716
000330 55 4f 4b 3e 4a 5b ae bd e7 42 75 3e 84 50 ae 3e
       0.19854482 -0.08513506 0.23951302 0.34045804
000340 24 7b 1e 3e 04 89 5b bd 13 25 28 3e 68 b4 9e 3d
       0.15476662 -0.053597465 0.16420393 0.077492535
000350 85 f7 76 3e 0a 97 b8 3e 8a 8b cf 3b 9a ef 76 be
       0.24117859 0.36052734 0.006333773 -0.24114838
000360 58 92 6c 3e 8b 65 23 be 90 4a 84 bd 3a 60 d5 3d
       0.231027 -0.15956704 -0.06459534 0.104187444
000370 b2 5b 3a be 0a 50 d5 bc b3 2e 1d 3e e1 c0 cb bc
       -0.18199041 -0.026039142 0.15349846 -0.024872245
000380 7a 04 04 bd 22 a3 fb 3e 12 44 6d be 2f fa ca 3c
       -0.03223083 0.49147898 -0.23170498 0.0247775
000390 ec b5 83 3e ab f2 3b be 7d 48 22 3d 6c 04 f5 3d
       0.25724733 -0.18354289 0.03961991 0.11963734
0003a0 93 60 df bd 53 28 d4 3e b9 94 7a 3d 23 1c b2 3e
       -0.10907092 0.41437015 0.06117699 0.34787092
0003b0 11 0e 94 3d e7 71 92 be 3a 3e b6 3e 30 9a 24 bd
       0.072292455 -0.28602526 0.3559435 -0.040186107
0003c0 68 09 83 3e 61 64 53 3e b2 1e 0c 3f 14 40 a5 3e
       0.25593114 0.2064376 0.5473434 0.3227545
0003d0 ca 65 c3 3d 28 73 c6 bd 9e 67 5f be c5 24 97 bd
       0.09540899 -0.09689933 -0.2181687 -0.0738006
0003e0 d5 53 2f 3c ea 5c 57 bc 05 85 d8 3d 49 54 56 3e
       0.010701139 -0.013144711 0.105722465 0.2093059
0003f0 c9 11 0f 3f d8 9d a1 3e 79 99 af 3d 9f 01 25 3e
       0.55886513 0.31565738 0.085741945 0.161139

fc3.bias f4 [64]
000000 df f2 c9 3b c2 54 17 3f ec ae 89 3c ba 7b 0d 3e
       0.0061629857 0.59113705 0.016807042 0.13816729
000010 af 0d 98 bd dc a5 32 bd 6a 49 e2 bd 10 70 84 3e
       -0.07424485 -0.043615207 -0.11049159 0.25866747
000020 62 05 78 3e e8 63 49 3c 44 44 a4 bd 03 2b cb 3d
       0.24220803 0.012291886 -0.08020833 0.09920313
000030 3f 63 c8 3d 8d 3f c7 3e 44 d8 57 bd 0f 37 ef 3d
       0.09784555 0.38915673 -0.05269648 0.116804235
000040 46 2a 24 3f 34 c9 7a 3d 0f 02 fb 3c 10 eb 29 3e
       0.64127004 0.06122704 0.03064063 0.16593575
000050 3d 92 19 3f c4 02 10 be 99 cd 41 3e 3e c8 10 be
       0.59988767 -0.14063555 0.18926086 -0.14138886
000060 ec 05 8f 3d 67 7a 17 3e c2 09 c2 3c 5a 73 f1 bc
       0.069835514 0.14792787 0.023686294 -0.02947395
000070 72 bd 90 ba 87 b6 cd bc d9 70 23 3e c6 cd 80 bd
       -0.0011042787 -0.02511145 0.15961017 -0.06289248
000080 86 4a 79 3e 99 a3 03 be 69 ae 86 3e f2 6c 8d 3d
       0.24344835 -0.12855376 0.2630494 0.06905545
000090 78 8a d8 3e 0c 4a 94 3e 36 81 71 3d 4d 6c 04 be
       0.42293143 0.28962743 0.058961116 -0.12931938
0000a0 18 bd ec 3e ab 09 93 3e c2 2b 87 bc 67 8b 0a 3f
       0.46238017 0.28718314 -0.016500358 0.5411896
0000b0 a4 b2 17 3d bf fb 7a 3c e8 65 26 3f af 89 80 3e
       0.0370356 0.01531881 0.64999247 0.25105044
0000c0 ab 07 70 3e b5 f9 0c 3e df 79 e2 bd 74 99 3e 3d
       0.23440425 0.1376713 -0.11058401 0.046533063
0000d0 3a 1b 20 3e 54 cc 51 3f 60 31 91 b9 ea 39 3f be
       0.15635386 0.81952405 -0.00027693342 -0.18674436
0000e0 80 bb cb bc 53 0a 88 bd 60 16 33 3d b4 3c 00 be
       -0.02486968 -0.06642594 0.04372251 -0.12523156
0000f0 ad 87 24 3f 02 44 7e 3d 2a c6 a0 3c 59 ae 3c 3c
       0.64269525 0.062076576 0.019625742 0.011516177

fc4.weight f4 [10, 64]
000000 99 4f 39 3d 0c b0 b5 3e 73 f0 ee ba 85 73 1c 3e
       0.045241926 0.35485876 -0.0018229618 0.15278442
000010 fe 2b 95 be cb 41 0d 3c 2b 34 fe be b7 ff ce 3e
       -0.29135126 0.008621643 -0.49649176 0.4042947
000020 67 cb 89 3e 3f d9 da bd e9 bd b3 be 23 0e 50 be
       0.26912996 -0.10685968 -0.35105827 -0.20317893
000030 73 a1 ac 3d 3f b6 f3 3e 91 75 2b bd 41 80 92 3e
       0.084292315 0.4759998 -0.041860167 0.28613475
000040 fe 95 1a bd 78 3d b3 3d fa 67 5a 3e b3 aa 04 bc
       -0.0377407 0.087519586 0.21328726 -0.0080973385
000050 c8 27 1e bd ec 5e 93 be 1d d4 c1 3e 84 07 23 be
       -0.038612157 -0.28783357 0.37857142 -0.15920836
000060 b6 b4 e8 3c 1f 64 ec 3d 8d ca a5 bd 93 be 6e 3c
       0.028406482 0.11542534 -0.08095274 0.014571804
000070 e4 95 63 be d6 fc 2e be 0d 24 96 3d 45 db 66 3d
       -0.22225147 -0.17088637 0.07331095 0.056361455
000080 ae 78 e2 3e c0 ae ad be 6e 1e d4 bc 0e ac a2 3e
       0.44232696 -0.33922386 -0.025893416 0.31771892
000090 17 10 af 3c 98 b0 c8 3d 77 65 ad 3d 89 5d e5 be
       0.021369977 0.097993076 0.084666185 -0.44797924
0000a0 f6 66 1d 3e 6f 46 d6 3e 91 39 26 be a3 55 c2 bd
       0.15371308 0.41850612 -0.16232897 -0.0948899
0000b0 dc d7 a4 3e a7 50 86 bd 0c b4 67 3d 0f 74 5e 3e
       0.32195938 -0.06558352 0.05656819 0.2172396
0000c0 3a fe 86 bc a0 de 60 3d 0c 9c 33 be ff d1 80 bc
       -0.016478647 0.05489981 -0.17539996 -0.015725134
0000d0 4e 22 f9 3d 33 ff b9 3e a6 5a 52 be a2 6d fe bc
       0.12164746 0.36327514 -0.20542392 -0.031058136
0000e0 5c 8c ed 3d 2a 28 1a be e2 a1 50 bd 71 8c b7 bd
       0.11599037 -0.15054384 -0.050935633 -0.08962334
0000f0 da 4e bb 3e 6a 80 e1 3d 3a dd fa bd 6c 4a 42 3d
       0.36583596 0.11010821 -0.12249227 0.047434255
000100 ea bf d9 bd 07 8c 1a 3b 89 7d 10 be eb d8 e3 3d
       -0.10632308 0.0023581998 -0.14110388 0.11125358
000110 1a 51 c1 be ab 5e 7e be 1c e2 b3 be 3d 4b 05 3f
       -0.37757188 -0.248408 -0.35133445 0.5206793
000120 9a 01 c4 3e 7c 1f ed bd 4e 35 26 be f6 55 90 3d
       0.38282472 -0.11578271 -0.16231272 0.07047646
000130 04 a0 1b 3e de 5d b4 3e f5 fc 58 bd f9 90 8a be
       0.1519776 0.35227865 -0.052975614 -0.2706373
000140 3b 16 56 be 00 b1 b7 bd 76 c7 c1 bd 55 fb b8 bd
       -0.20906918 -0.08969307 -0.09461872 -0.09032313
000150 73 36 9e 3e d1 21 61 be 70 37 e6 3e 69 d1 46 3d
       0.30900916 -0.21985556 0.4496417 0.048539553
000160 6d f7 97 bd 03 b3 c4 bc 53 74 62 be b7 ed 61 3e
       -0.074202396 -0.02401114 -0.22114687 0.22063337
000170 01 45 09 bd 53 01 4a 3e 35 d4 13 3d cc c3 94 be
       -0.033513073 0.19727068 0.03609105 -0.2905563
000180 b5 09 68 bd 50 47 56 3e f5 e7 f5 3d 75 73 86 3d
       -0.056649882 0.20925641 0.12007133 0.065649904
000190 c5 10 10 3c 03 77 4a 3d 5f 8b 47 bd ab a5 ea be
       0.008793061 0.049429905 -0.0487169 -0.4582952
0001a0 02 f3 a0 3e 71 02 02 3f d0 8c 72 be 56 40 9c bd
       0.314354 0.50784975 -0.23686528 -0.076294586
0001b0 60 55 18 3f 16 ce 93 3c 03 0f c5 bb c8 b6 d2 3e
       0.5950527 0.018042605 -0.0060137524 0.41155076
0001c0 97 c9 71 3d 68 15 e6 3e af c8 25 3c 6a 11 f6 be
       0.05903014 0.44938207 0.0101186475 -0.4806016
0001d0 4b e9 4f bd d6 c4 ab 3e e8 a2 47 3e 4e d1 5b bc
       -0.050759595 0.3354861 0.19495738 -0.013416601
0001e0 42 9a 91 be 16 78 f1 bd 1f 0d 3a bd 8e d0 bb be
       -0.28438002 -0.11790483 -0.04542267 -0.36682552
0001f0 e2 12 a1 3e 18 1a 97 bd 8d 70 3a bd 5e b4 c5 bd
       0.3145972 -0.07378024 -0.045517493 -0.09653543
000200 36 b8 30 bd ca 08 f8 3e 04 f0 89 bd 78 3e 16 3e
       -0.043144427 0.48444206 -0.067352325 0.14672267
000210 f2 2b 2c 3d 3c 5a af bd c1 6b 93 be 73 40 be 3e
       0.042034097 -0.08562133 -0.28793147 0.37158546
000220 04 50 9f 3e 23 02 e0 bc ab 7f 43 be 5a 2e 78 be
       0.31115735 -0.027344769 -0.1909167 -0.24236432
000230 b6 1c 2f be c7 16 1e 3f ef 0a f6 bc be f0 d7 3e
       -0.17100796 0.61753505 -0.03003451 0.4217586
000240 7a 88 56 3e 44 32 14 3c dd 7a 82 3e 5e e6 18 be
       0.20950499 0.009045187 0.25484362 -0.14931628
000250 21 4d ac be 19 05 52 be 64 68 1f 3e 47 56 30 bd
       -0.33652595 -0.20509757 0.15567166 -0.04305103
000260 03 95 3f bd fa 76 80 3e 1f de 3f 3e 85 d3 a2 be
       -0.046772968 0.25090772 0.18737076 -0.31802002
000270 a9 02 01 be fe 55 2a be fe dc a5 3e 7e 97 97 3e
       -0.12598671 -0.16634366 0.32395166 0.29607767
000280 5e c2 0d 3f 52 5e 0f bc 39 7f 99 bb b1 07 9e 3e
       0.55374706 -0.008750515 -0.0046843556 0.30865243
000290 fc 91 eb 3d a8 d9 b5 3e 90 32 9f bd 45 2a aa be
       0.11502454 0.3551762 -0.07773316 -0.33235374
0002a0 b7 b0 8e bd 42 0d 6f 3e 9c e0 da bc cd 3d 3f 3e
       -0.069672994 0.23344901 -0.02671843 0.18675919
0002b0 eb 5f 9f be e7 c1 a5 bd 15 c5 84 bd 88 aa 11 be
       -0.31127867 -0.080936246 -0.06482903 -0.14225209
0002c0 32 2f 15 be dd 72 c3 be bf 6c 36 3d 29 4b a3 3e
       -0.14568785 -0.3817357 0.044537302 0.3189328
0002d0 7d df 96 3e e7 54 e9 3e 54 db 70 be 56 58 fb bd
       0.29467383 0.45572588 -0.23521167 -0.12272708
0002e0 1d 07 ec bd 8b b5 1f 3e 02 36 15 be b9 b1 d2 bd
       -0.11524794 0.15596597 -0.14571384 -0.10287804
0002f0 6b af a4 3d 18 32 99 3d bd c8 66 3d ce 49 8e 3d
       0.08041271 0.07480258 0.056343783 0.06947671
000300 92 bf f4 be 00 78 98 bd bb e0 89 3e c5 21 38 3f
       -0.47802407 -0.07444763 0.26929268 0.7192653
000310 69 54 d4 bb 06 cc 6e be c0 e4 32 3f ac e7 ec 3d
       -0.006479789 -0.23320016 0.69880295 0.115676254
000320 1a 8b 15 3f 4c 29 d1 bc 6d 82 e4 3e 2b 2e 0b 3f
       0.5841538 -0.025532387 0.44630757 0.5436732
000330 13 cd 23 3f 45 f9 2a 3f 61 9c 92 bd 44 18 b0 be
       0.63984793 0.66786605 -0.07158733 -0.34393513
000340 4f d6 43 3e 39 ff f2 bd 91 12 b8 be 64 09 1a bf
       0.19124721 -0.11865086 -0.35951665 -0.6017058
000350 0f 70 4d be f3 49 9b 3d 1b b6 cb be 66 0e eb be
       -0.20062278 0.07582464 -0.39787373 -0.45909423
000360 ac 39 ea 3d a8 18 2a be 8d 00 90 be 2a 72 02 3e
       0.11436781 -0.16610968 -0.2812542 0.12738863
000370 82 29 ce 3e 98 28 14 3d 54 a0 43 3f 3e db ab 3e
       0.40266043 0.036171526 0.76416516 0.33565706
000380 a1 0a 1c bf 6c 43 19 3e 51 18 85 be 65 b2 b1 3e
       -0.6095372 0.14967126 -0.25995114 0.34706417
000390 6f de 41 3f 86 02 97 3f 71 a9 e7 bc 25 4e f2 3e
       0.7573003 1.1797645 -0.028279038 0.47325245
0003a0 86 62 d4 3d 14 0e a1 be 97 fc 33 3e d2 36 ca 3e
       0.10370354 -0.31456053 0.17576824 0.3949495
0003b0 fd 31 cd bd 20 57 df 3d 83 ab 6a be 6d 2b b6 be
       -0.100193 0.1090529 -0.22916989 -0.35580006
0003c0 81 9f 91 bb 00 e4 dd 3d ab dc 67 3e 98 74 a7 3e
       -0.004444063 0.10834503 0.22642772 0.3270614
0003d0 12 22 92 bc 24 6a 0d 3e fd b0 d9 3e 15 63 48 bf
       -0.017838512 0.1381002 0.42517844 -0.7827619
0003e0 37 e4 cc be 62 0c f4 3e 53 4b 08 3f 41 5f aa 3e
       -0.40017864 0.47665697 0.53239936 0.33275798
0003f0 6e 47 d4 3b f2 b5 a9 3d 2a f5 50 3d 6a e0 a5 bd
       0.0064782416 0.082866564 0.051015057 -0.08099444

fc4.bias f4 [10]
000000 14 b1 cc 3f a1 0c 77 3f e7 02 89 3f 5e 8d 00 3e
       1.599154 0.96503645 1.0704011 0.12553927
000010 53 e2 95 be 2b bb 82 be 9d 48 80 bd e8 eb a3 3d
       -0.29274234 -0.25533423 -0.0626385 0.0800398
000020 a2 1e ab bd 2b c5 ea bd
       -0.08355452 -0.11463388

fc1.weight f4 [32, 7]
000000 0c 19 1b be c3 b5 87 bf 50 85 07 be 7e b3 81 bd
       -0.15146273 -1.0602344 -0.13234448 -0.063330635
000010 15 8b e2 bc e3 8c 2e 3e 83 45 b2 3a 3d a0 c6 be
       -0.02765421 0.17045932 0.0013601038 -0.38794127
000020 eb d5 b8 be c4 d9 b2 bb 18 de e1 be 07 d2 44 bb
       -0.36100706 -0.0054580886 -0.44114757 -0.0030032413
000030 f4 3f 0a be 46 88 ce 3a 37 0c d4 be 66 73 fc be
       -0.13500959 0.0015757165 -0.4141557 -0.49306792
000040 10 52 7f 3a 09 91 af 3c a0 98 ee ba 13 f3 ed 3c
       0.00097397063 0.021431463 -0.0018203445 0.02904657
000050 47 a2 73 3b 6a 4f e2 be db 0b 22 bd f1 aa dc be
       0.0037175582 -0.44201213 -0.039562088 -0.43099168
000060 4b 82 9e be cf b5 82 3d c9 df 3f 3e 3d 38 51 3b
       -0.3095878 0.063823335 0.18737711 0.003192439
000070 db 4e e0 be 8b ee ff be 81 cc a9 be be 07 a1 3d
       -0.43810162 -0.4998668 -0.33163837 0.07862805
000080 2b 66 55 3d 63 f5 df 3d 7a 7a 60 3b 96 53 00 bf
       0.052099388 0.10935476 0.003425269 -0.5012754
000090 be 36 7c be ba d8 74 3e 02 1e 19 be aa cc 9d 3b
       -0.24630257 0.239108 -0.14952853 0.0048156576
0000a0 5d bd 6a 3e 2b a9 e1 ba aa c7 d4 be b1 c1 0a 3d
       0.22923799 -0.0017216554 -0.41558582 0.033876125
0000b0 16 61 08 bf 10 6f 5c be a5 6e 59 3c fa 1b 9d bd
       -0.5327314 -0.21526742 0.013271009 -0.07671352
0000c0 ac fe 15 bb 99 57 ef 3e 00 b2 b7 3e a5 66 e1 3e
       -0.0022887392 0.4674652 0.3587799 0.44023624
0000d0 32 d5 c6 bd ae 37 50 3c b0 4a 00 3c 42 df ae bb
       -0.097086325 0.012708588 0.007830307 -0.005336673
0000e0 60 fa a5 3e 98 0d ab be a9 17 5a 3e 2c 59 e3 3d
       0.32417583 -0.3340881 0.21298088 0.111009926
0000f0 ce 44 10 ba 76 4a c5 bc 0d 2d 86 bb dc 35 36 bf
       -0.0005503417 -0.024083357 -0.004094726 -0.7117593
000100 ab 4d 0c 3f bd d9 9f 3c 39 e8 ef 3e 01 a6 12 3c
       0.5480601 0.019513005 0.4685686 0.008950711
000110 3c 2d 3e 3d 99 76 60 3a 9c f1 cc 3e e0 5a bc be
       0.046429858 0.00085625943 0.40028083 -0.36788082
000120 9e 5b f8 3e 5a 3d 85 be ca 67 00 bb b0 f5 9b 3c
       0.48507398 -0.2602337 -0.0019593113 0.019038051
000130 3c 7f 0e bb e5 4f 0c bd e1 3f 49 bf b5 0d ba 3e
       -0.0021743318 -0.03425588 -0.78613096 0.36338583
000140 ec 2b e0 3e b1 47 ee bc 14 96 8c 3e 12 c8 ba bb
       0.4378351 -0.02908692 0.2745825 -0.00570012
000150 ed e1 13 bf d2 ca 16 bd 03 91 ee be 20 9c 0e bf
       -0.5776661 -0.03681452 -0.4659501 -0.5570698
000160 7b 72 a4 bc 7a 10 d3 bb 1b 6c c9 bb df e6 40 be
       -0.02007412 -0.006441173 -0.0061469204 -0.1883807
000170 b4 2e 41 3f 43 08 26 3f 11 d8 d1 be f1 74 01 3d
       0.7546189 0.64856356 -0.40985158 0.031605665
000180 1d 0c 71 3e d8 17 a8 bc 5b 62 44 3d eb 51 4c be
       0.23539777 -0.020519182 0.04794536 -0.19953124
000190 0c 64 46 be 96 11 08 be 72 46 6b 3e bb b1 17 3e
       -0.19374102 -0.13287959 0.22976092 0.14813893
0001a0 d0 04 a2 bd bc f5 0a 3f bc e9 15 3f 74 d4 1c bd
       -0.07911074 0.5428121 0.58559775 -0.03828855
0001b0 d7 d8 1e bf 46 78 64 3a 82 f6 fc 3d fc e1 fc bb
       -0.6204962 0.0008715432 0.12351705 -0.007717369
0001c0 be 41 1c 3d fd 86 6b 3c ff 7e 0b 3d 10 b9 88 3e
       0.038148634 0.014375445 0.03405666 0.2670369
0001d0 22 f0 d2 be 3c 37 67 3e fa 90 d2 3b 5f 99 08 3f
       -0.41198832 0.22579664 0.006425974 0.53359026
0001e0 94 5f 32 bd fa c6 ea 3e 03 9b b0 3e 33 e2 ae 3d
       -0.04354818 0.45854932 0.34493265 0.08539238
0001f0 05 b1 2a 3e 48 03 91 bb 65 95 06 3e 5c fe bd 3e
       0.1666909 -0.00442544 0.13142927 0.37108123
000200 62 b3 82 be a7 37 00 bf 38 a4 e8 3c b2 44 5b 3e
       -0.25527483 -0.5008492 0.028398618 0.21412924
000210 a0 e8 83 3d b3 ca 58 3d 6d 06 29 3d 3a 66 8c bc
       0.06440854 0.052927684 0.041265894 -0.01713859
000220 58 11 14 3e 4e ae 4a 3e f3 3f 4b bd 46 31 91 3d
       0.14459741 0.19793054 -0.049621534 0.07089476
000230 be 1c fa 3e 4d bf f0 3d 2d 27 1b 3f 37 e5 1e bf
       0.48850054 0.11755238 0.6060665 -0.62068504
000240 4c 06 a6 bc ad 58 02 3e 67 82 b8 ba 2e a6 e0 3d
       -0.020266674 0.1272914 -0.0014076949 0.10969196
000250 72 a4 0a 3e bd 59 64 be 2b 28 cd be 39 4c 09 be
       0.13539293 -0.22299857 -0.40069708 -0.13407983
000260 87 0b 01 be f0 c0 5a bd 22 93 aa be dd cd d6 3a
       -0.12602054 -0.053406656 -0.33315378 0.0016388256
000270 6a 3f 07 bf a1 37 08 be 80 a3 63 bd f8 aa 5f 3e
       -0.5283114 -0.1330247 -0.055575848 0.21842563
000280 9e 09 a1 3b 87 4a 43 3f 7d 6c 37 bf dc a8 18 bc
       0.0049144765 0.76285595 -0.71649915 -0.009317603
000290 ff 70 a0 3d db 6f 87 3c 91 21 9d 3d a5 aa 64 3c
       0.07834052 0.016532829 0.07672418 0.0139567
0002a0 39 06 21 bf cf ab 0c 3f 4e 57 59 3d 95 d3 c5 3c
       -0.6290012 0.5494966 0.053061776 0.024148742
0002b0 2b 14 10 3b e7 0e 00 3d 43 59 83 3b 15 13 20 3f
       0.0021984677 0.031264212 0.0040084436 0.62529117
0002c0 83 20 22 3f 07 02 73 3d 6c da 1c be ca 04 b8 bc
       0.6333086 0.059328105 -0.15317696 -0.022463221
0002d0 b2 e0 3e bc 86 0a 4a 3c a1 02 1a 3e b8 dd 3f bf
       -0.011650251 0.012331611 0.15040065 -0.7494769
0002e0 f8 b7 07 3f fa f2 d1 3d f3 7d d3 3b 4b 61 e4 bd
       0.5301509 0.10251422 0.0064542233 -0.1115137
0002f0 4b 4b 53 bb d6 46 0e 3e 1f f8 c6 3e c2 7d e8 bd
       -0.0032240923 0.1389421 0.38861176 -0.113521114
000300 eb e7 01 3f ab 4a 3c be e1 60 13 3f c4 f3 df bc
       0.50744504 -0.18387859 0.575697 -0.027337916
000310 4d 43 db be 02 2e 38 bf a4 1b e2 bb 5c 3d 12 bf
       -0.42824784 -0.719452 -0.0069002677 -0.57124877
000320 51 6f da bc d8 e6 fe 3c 2d a6 c9 3c c3 27 93 bc
       -0.026664408 0.031115934 0.024615372 -0.017963296
000330 c9 da 6a 3e e7 8b 1f bd 93 e2 c7 3e 40 b9 2c 3e
       0.22935022 -0.03895178 0.3904005 0.16867542
000340 16 5e 48 3e eb ef c0 bc 2b 15 e8 3e ee 9f 64 bd
       0.19567141 -0.023551902 0.4532865 -0.055816583
000350 fd 3c 32 bf 86 25 e6 3c 58 75 a3 bc 59 6b 06 3c
       -0.6962431 0.028094064 -0.019953415 0.008204305
000360 41 90 b0 37 69 0c c8 3e 83 9b 03 3f 29 16 99 3d
       2.1048008e-05 0.39071968 0.5140917 0.0747493
000370 fa 46 54 3e dc 10 0c 3c 17 ec a2 bc 77 45 cc 3b
       0.207302 0.008548941 -0.019887967 0.006233867

fc1.bias f4 [32]
000000 ce 3a c8 be ca 76 b0 be 59 e5 bb 3e d0 6e e9 be
       -0.39107364 -0.3446563 0.36698416 -0.45592356
000010 57 e5 29 3f 83 6c 72 3f 3e 66 30 be f2 35 4f bd
       0.6636557 0.94696826 -0.17226502 -0.050588556
000020 4a 00 e8 3e f0 1e 2a 3c 5d 59 25 3f 88 24 fe 3d
       0.4531272 0.010383353 0.6458948 0.124093115
000030 da 11 e0 3e dd c1 0a 3f 98 e2 14 3f 31 cf e2 3c
       0.4376362 0.5420206 0.58158255 0.027686687
000040 23 2e 73 3f 18 8d 6a be 68 35 26 3f d9 72 9c 3f
       0.94992274 -0.22905385 0.6492524 1.2222549
000050 91 b2 e5 bc 4c d3 67 3f 9d 2f 89 be cd 4e 8e bd
       -0.028039249 0.9055679 -0.2679414 -0.06948624
000060 c5 25 00 3f fa f2 ea 3e ec 1b de 3c 2b c5 cc 3c
       0.5005763 0.458885 0.027112924 0.02499636
000070 df 75 f4 3e 73 5d 8f 3f c8 10 69 3e 8c fd 9d be
       0.47746179 1.1200393 0.22760308 -0.30857503

fc2.weight f4 [128, 32]
000000 4c 6d 67 3e 58 d2 ca 3d b0 08 3a 3e 9e 92 96 be
       0.22600287 0.09903401 0.18167377 -0.29408735
000010 8e 92 94 bd f5 13 7e bd 54 60 59 3e 99 1a 99 3d
       -0.072545156 -0.06203075 0.21228153 0.07475776
000020 25 23 82 3e 6d cd 24 be f8 b3 da 3d 24 44 c2 3c
       0.25417438 -0.16093989 0.106788576 0.023714133
000030 4f ad cb be 47 64 9e bd 23 09 14 3e fe 29 85 3c
       -0.3978066 -0.0773397 0.1445661 0.016255375
000040 8d 7a 82 3d 53 2d 39 3d cc f5 c3 3c e5 99 90 3d
       0.06371031 0.04520924 0.023920916 0.07060603
000050 36 2f cf 3d 0f 2b 04 3e 4c 3a a2 3d 28 9f ce bd
       0.10116427 0.1290705 0.079212755 -0.100889504
000060 ab a0 92 be 8e 7d 65 bc 4e 1f c3 3d c0 7a 43 bd
       -0.28638205 -0.014006985 0.09527455 -0.047724485
000070 b1 ce 78 3e 5f 00 24 3e e1 ad 0e 3e cb 9f 0a 3d
       0.24297597 0.16015767 0.13933517 0.033843797
000080 51 d1 9f be 35 4f ee be 15 61 5a 3e 2b d0 8a be
       -0.31214383 -0.46544805 0.21326096 -0.27111945
000090 5f 01 0a 3d 16 f1 94 bc cb 79 08 3e c6 69 14 3e
       0.033692714 -0.018181365 0.1332771 0.14493474
0000a0 b9 ae da 3e 16 d2 48 3e 4b 9f ce bd a7 c4 ef bb
       0.42711428 0.19611391 -0.100889765 -0.007317144
0000b0 57 74 57 3d 43 7e f7 bc 56 03 06 3e f3 63 93 be
       0.052601185 -0.030211573 0.1308721 -0.28787193
0000c0 77 ae 4f 3e 66 3f b9 bd d3 01 ab bd 7e 0d 21 3e
       0.20281397 -0.090452954 -0.08349957 0.15727803
0000d0 ff bf 08 3d 7c 45 f2 bd 06 3f 56 3e db 58 1f bd
       0.033386227 -0.11829659 0.20922479 -0.0389031
0000e0 1b 17 04 be cd 2e a3 be a0 ee c6 bd 44 87 45 bd
       -0.12899439 -0.31871644 -0.09713483 -0.048224702
0000f0 c6 df 23 3e 30 12 56 3e c0 b2 66 3d d0 2a 0a bf
       0.16003332 0.20905375 0.056322813 -0.53971577
000100 bd f1 ba bd 0c df 1b be 08 75 c4 3d 17 81 a0 bd
       -0.09128139 -0.15221804 0.095926344 -0.07837122
000110 56 88 d9 3d 20 26 2f bd 5d 51 0d 3f b0 77 ff 3d
       0.10621707 -0.04276097 0.55202276 0.124740005
000120 68 fe b9 be e4 51 06 3e 58 78 a7 be e8 13 43 bb
       -0.3632691 0.13117176 -0.32709002 -0.0029766504
000130 53 84 e0 3d 17 60 a8 3d 96 67 8f 3d eb e8 3c bd
       0.10962739 0.08221453 0.07002179 -0.046120565
000140 b7 25 b6 3d 32 cf 03 bf 60 bd 06 3e 24 dc d9 3c
       0.08893912 -0.5148803 0.13158178 0.026594229
000150 cb 60 ec be bb 15 83 3e dd 6c ee 3e 11 fd e1 bd
       -0.46167597 0.25602517 0.4656743 -0.11034597
000160 72 19 cc 3c 1a 4e a4 3d 16 32 7e 3e 61 42 bf bd
       0.024914477 0.08022709 0.24823794 -0.09338833
000170 52 83 ca bd 9c 68 9d 3c 81 fb 85 be a3 18 e2 3e
       -0.098883286 0.01921492 -0.26168445 0.4415942
000180 22 84 52 bd c7 a4 6a be 68 41 c1 bd 74 62 83 be
       -0.051395543 -0.2291442 -0.094363034 -0.2566105
000190 9f f3 c5 3d f4 44 97 bc 41 0a 7f bd a9 1b c4 3b
       0.09665608 -0.018465497 -0.06226564 0.0059847427
0001a0 bf c9 be 3d c9 82 86 be d8 f3 24 be 65 7e 68 be
       0.09315824 -0.26271656 -0.16108644 -0.22704466
0001b0 fc ad 49 be 51 f5 f2 3d c7 f3 81 3e d0 9a 80 be
       -0.19695276 0.11863197 0.253813 -0.25118113
0001c0 b1 b8 a1 3e 6d 62 06 be 81 b7 9d 3e 3d 51 4f 3e
       0.3158622 -0.13123484 0.30804065 0.20245834
0001d0 cd 8d a7 be 2d 41 c0 3e d3 e2 4f bd 78 fb 3c be
       -0.32725373 0.37549725 -0.050753426 -0.18455303
0001e0 5e 29 67 be 4d f0 17 3e 6a 9e e0 3d 86 22 a6 bd
       -0.22574374 0.14837761 0.10967715 -0.081120536
0001f0 fd e5 a3 bd 98 37 dc 3e c9 2a 17 bd 51 94 e5 bd
       -0.08002851 0.43011165 -0.036906037 -0.1120993
000200 9b f2 b0 3e c4 9b ae 3d e5 52 65 3e de ec 90 bc
       0.34560093 0.08525804 0.22394903 -0.017691072
000210 e9 7d 6d 3e bd 8b 4e 3e d5 a7 03 3f fe 31 ad 3e
       0.23192562 0.20170493 0.51427966 0.33827204
000220 3f b6 9d 3e 89 fb 22 3e f4 e2 34 3e 81 6e 57 3e
       0.30803105 0.15916266 0.17664701 0.21038248
000230 ff fb 4a be ee e3 08 bd 40 b0 cf bc 43 5b 7b 3e
       -0.19822691 -0.033420496 -0.025352597 0.24546532
000240 ca 8b 87 3e 8f 2a a1 3d a8 85 e8 3c 95 5f 83 bd
       0.26473838 0.078694455 0.028384045 -0.06414715
000250 76 18 8a 3e 9f 72 26 be bc 50 d8 3e 4d 73 ea 3d
       0.26971787 -0.16254662 0.42249095 0.11447773
000260 b0 1e c7 bd 45 6e 8c bd e0 99 de 3d 14 2c a7 3e
       -0.0972265 -0.0685697 0.10869193 0.32650816
000270 54 48 b8 3d b5 57 70 3e 9b de 70 be 73 38 17 3f
       0.089981705 0.23470958 -0.23522417 0.5907051
000280 12 51 6b bd b7 f1 81 3c b5 3b 34 3e 87 dc fe 3d
       -0.05745036 0.015862329 0.17600901 0.12444406
000290 3e 60 83 3c 8c ef c7 bd 85 9a 25 3d b8 10 4c 3e
       0.016037103 -0.09762487 0.040430564 0.19928253
0002a0 61 34 95 3e 8f d3 b0 bd d8 0c fb bd 76 dc 1f be
       0.29141524 -0.086341016 -0.12258309 -0.15611443
0002b0 7b ba 54 3e 7f fe 89 3e d2 8e 2d bd be 9c 8c 3c
       0.20774262 0.26951978 -0.042372532 0.017164584
0002c0 f6 b0 fb bd 0d a5 aa bd 13 5e 2e 3e 4e 46 69 bd
       -0.12289612 -0.08332262 0.17028074 -0.056951813
0002d0 e5 1c 4a bd b4 26 06 3e 13 a6 91 bc 55 74 3d 3e
       -0.049343962 0.13100702 -0.017779386 0.18501408
0002e0 a4 c6 bb 3d 84 89 78 3d 32 7f 4e be 3e 84 96 3c
       0.09168747 0.06067802 -0.20165709 0.018373605
0002f0 92 e2 97 3d e6 c9 16 be c3 3b be 3a 5d e1 d2 3d
       0.07416262 -0.14725456 0.001451366 0.10296891
000300 1b 85 2f 3e 99 cf 2b 3e 53 a2 1f 3e f3 c6 83 bd
       0.1714062 0.16778411 0.15589266 -0.06434431
000310 fe 91 44 3e ba 0c 97 3e 4f e5 c1 3d 96 f5 c6 3d
       0.19196317 0.29501897 0.09467565 0.097148106
000320 e2 a1 b4 3c 3f 8e 2e 3e ea 6e c1 3d c1 9b 80 3d
       0.022049848 0.1704645 0.09444983 0.06279708
000330 96 b8 1e bd f9 d5 ec 3c f3 a5 92 3e 0a b0 0d 3d
       -0.038750254 0.028910624 0.28642234 0.034591712
000340 28 0e 7f 3e ad a4 99 3e dc 79 45 3e bf 33 99 3e
       0.24907744 0.3000845 0.19284767 0.29922292
000350 59 62 1a bd 99 5c 9d 3d 1e de 69 3d 9b 32 84 3e
       -0.037691448 0.07683677 0.057096593 0.2581986
000360 f2 c5 67 3d 87 5b 76 3e 3e 0f ed 3c 53 e9 31 3e
       0.05658526 0.24058352 0.028937932 0.17374162
000370 ae 61 49 3e 3d 9a fb 3e 62 1e 07 3e 70 f2 a4 3c
       0.19666168 0.49141112 0.13195184 0.020135134
000380 8e 15 f8 3d 81 61 44 bd 95 50 50 3e af c6 95 be
       0.12113486 -0.04794455 0.2034324 -0.29253146
000390 a8 e8 05 be 24 67 8d 3d d0 28 cb be eb 97 8d 3e
       -0.13077033 0.06904438 -0.39679575 0.27654967
0003a0 be ae e7 3e 82 50 73 3e 27 0a f0 3d 3a 3b 7c 3e
       0.45250505 0.2376118 0.117206864 0.24631968
0003b0 87 98 ee be 23 ff b3 3c 52 b6 2f 3e 78 d6 ec bd
       -0.46600744 0.021972245 0.17159393 -0.11564344
0003c0 cf 91 bd 3d 5b 0f c8 3b 19 e3 6e bd 25 1e 50 3e
       0.092563264 0.006105346 -0.058322046 0.20323999
0003d0 84 7d 08 3e 84 5f b8 3d ec 74 58 be bd 91 ee 3c
       0.1332913 0.09002593 -0.21138352 0.029122228
0003e0 f8 9a 9d 3d e9 69 2a 3e 01 81 a1 bd 41 a8 47 3e
       0.076955736 0.16641964 -0.07885934 0.19497778
0003f0 c6 eb 4a be 19 d4 4b 3e 5e 9d 7e 3d 5c 97 ce bd
       -0.19816503 0.19905128 0.062161796 -0.10087463
