logs/sdf_single_min_distances_per_link/state_103.pt (torch, 112153 bytes, 16 tensors)

fc1.weight f4 [32, 7]
00000000: 9ea6 7ebe dd5b e2bf 582c a6be 6991 3cbd
00000010: 777d e33c 0e4a 8c3d e98a 9fbc bc02 dbbe
00000020: 3cfa 9ebe 23bc ccbc 0ac9 58bf cf5c 36bd
00000030: f981 33bd 3efe 993b c931 3bbf a19d 26bf
00000040: d720 013e 210e 24bd a86e 95bc 7797 1cbc
00000050: 311c e93a 37f0 16bf 4b6e 663d cf83 13bf
00000060: c079 07bf 05ce 103e 942a c63d c372 56bb
00000070: 4e5a 24bf af43 02bf 1bf4 1fbf 9f15 a13e
00000080: c51c 303e 6c37 563e 7773 773c 19b6 0dbf
00000090: f848 6fbe 7509 ef3e acd3 d3be f2d2 b8bc
000000a0: bc16 e93d dd46 98ba da85 12bf da3a 9a3d
000000b0: 1cbc 38bf 1aea 85be 9733 d73a 0311 f3bd
000000c0: 64b0 2ebc ab2b 1b3f 7608 f23e 8770 2c3f
000000d0: 46af 18be 08b4 88ba a2df 423b 15ba 08bb
000000e0: 78f0 e23e 55e3 f7be 66a0 933e c2dc 653e
000000f0: 8e1c 833b 90cb 2e3c fd5f 98bb 7aaa 7fbf
00000100: da04 443f 3e37 02be 1678 fb3e 7c95 3e3d
00000110: e80c 1a3d a9a4 143c aced e33e 679d 23bf
00000120: 76fa 3d3f f945 c7be 8a47 79bc 63bf 7c3d
00000130: d38e 25bb 3f72 92be d997 82bf 1392 893f
00000140: dc8c da3e ec8b 8abc 9643 973d 257c c0ba
00000150: f21c 1dbf 4026 5b3c 7fa0 24bf 3837 03bf
00000160: 8277 813d 3fff 5f3d 4839 afba 7273 c0be
00000170: 3d4d 9d3f f3c6 7c3f bfbe 3abf 906d 9f3c
00000180: 71d3 f33d ffd7 25bc 3b73 3a3e a24c 74be
00000190: d3b0 1abe 7e3f af3c 78d1 fb3e 58c7 a13e
000001a0: c2a8 5dbc 6d05 0e3f cd5e 233f 9387 19be
000001b0: 47c5 55bf 41c4 0dbc 44b1 ab3d bad1 dcbb
000001c0: 0ac5 1a3d 6043 1f3c 4f39 123d 7065 893e
000001d0: 5934 25bf ae58 df3e fea6 d03b ec04 1d3f
000001e0: fd27 653c e2b8 293f 80f4 da3e 9ddb 823e
000001f0: 5d32 713e f317 0cbc b523 8d3e 73a3 613e
00000200: d7a1 a5be d408 41bf 00d5 ed3c f677 043f
00000210: 1b55 1a3c a03a d4bc e958 703e 2c0a 473c
00000220: d3e9 2a3e cb71 fb3d 9dbf 43be 99f5 8d3c
00000230: 85d2 0a3f 0ba5 7f3e 85ad 623f 3000 6cbf
00000240: b38f 28bd d96b 093e 11fa f2ba b179 443c
00000250: 612d eb3d c4b2 73be 8554 03bf 1e1c 5ebe
00000260: a11f dabe 5e85 0abc eddf d5be b96d 1c3e
00000270: fc26 21bf 9224 36be 572b 89bd 199d 963e
00000280: b129 1b3b fe50 973f 0b3c 83bf d30b c0bc
00000290: c023 abbd 877f dcbb 123c cb3c e8a7 023c
000002a0: b157 60bf f867 403f f851 503d 4965 1c3d
000002b0: 68c8 ba3a e517 453b df22 fe3a d3b8 533f
000002c0: 70ce 6b3f 7bee c8bd 5afe 71be 580b f0bb
000002d0: c6c2 523b 6303 083c 6b22 c63e 2051 2dbf
000002e0: 5fae 5f3f cd1c f53d c90b c73b 2e4c c83c
000002f0: 73d0 16bc e320 84bd d7bd 963e 0324 9bbe
00000300: 2ac8 e93e 8d9e fdbe 8afb 3d3f 889c 4dbc
00000310: fc85 0ebf 4e83 7abf 8f9e ab3b fdc7 3bbf
00000320: c3b1 383c fa27 23b9 93f9 053c 4001 83bd
00000330: 8e89 e83c 93e8 27bd 96dc 193f 1e0b 3d3e
00000340: a2ca 673e b79a febc b1f7 383f c7ea d9bd
00000350: 6cd4 83bf 14f0 af3b 8df5 abbc 33e9 033c
00000360: e1ac ed3b b818 073f 1473 513f db83 2a3e
00000370: 5f52 863e 1ace 763c 40f1 afba 60a8 2d3b
-0.24868247 -1.7684284 -0.32455707 -0.04603711 0.027769787 0.06850062 -0.019475417 -0.42775524
-0.3105029 -0.024992054 -0.8468176 -0.044522103 -0.043825123 0.0046994975 -0.7312284 -0.6508427
0.12610184 -0.040052537 -0.018241242 -0.009557596 0.0017784891 -0.5896029 0.056257527 -0.57623
-0.5292015 0.1414109 0.0967609 -0.0032722212 -0.64200294 -0.50884527 -0.6248185 0.31461808
0.17198475 0.2091958 0.015103213 -0.55355984 -0.23367679 0.46686903 -0.4137243 -0.022561524
0.11381289 -0.0011617799 -0.5723549 0.07530756 -0.7216203 -0.26155168 0.0016418573 -0.11868479
-0.010662172 0.6061351 0.4727208 0.67359203 -0.14910612 -0.001042963 0.0029735346 -0.0020862867
0.44324088 -0.48415628 0.28833312 0.22447494 0.0040012067 0.01066865 -0.0046501146 -0.998695
0.765699 -0.12716386 0.49115056 0.04652928 0.037609965 0.009072461 0.44517267 -0.6391205
0.742103 -0.38920572 -0.01521481 0.061705958 -0.0025262132 -0.28602788 -1.020259 1.0747703
0.42685592 -0.016912423 0.07385938 -0.0014685435 -0.6137229 0.013375819 -0.643074 -0.5125613
0.063216224 0.05468678 -0.0013368512 -0.37588078 1.2289196 0.9874107 -0.72947305 0.019461423
0.119055636 -0.010122298 0.1820802 -0.23857358 -0.15106516 0.02139258 0.4918325 0.315974
-0.0135290045 0.5547703 0.6381653 -0.14993124 -0.83504146 -0.008652748 0.0838342 -0.0067388685
0.037785567 0.009720653 0.035699185 0.26835203 -0.64533 0.43622345 0.0063675633 0.61335635
0.013986585 0.66297734 0.42764664 0.25558177 0.23554368 -0.008550632 0.27566305 0.22035007
-0.32350037 -0.75404096 0.02903223 0.51745546 0.009419705 -0.02590686 0.23471417 0.012148421
0.1669076 0.12277564 -0.19116063 0.017329024 0.5422748 0.24965303 0.8854602 -0.92187786
-0.041152667 0.13420047 -0.001853766 0.011991904 0.11483265 -0.23798662 -0.5130084 -0.21690413
-0.42602256 -0.008454649 -0.41772404 0.15276231 -0.6295011 -0.17787388 -0.066977195 0.2941673
0.0023675973 1.1821592 -1.0252699 -0.023443138 -0.08356428 -0.0067290696 0.024808917 0.007974602
-0.87633806 0.75158644 0.05085942 0.03818253 0.00142504 0.0030074057 0.0019389055 0.82703894
0.92111874 -0.098111115 -0.23632184 -0.007325571 0.003215955 0.008301589 0.38698134 -0.6770191
0.87375444 0.11968384 0.006074403 0.024450388 -0.009204972 -0.06451585 0.2944171 -0.30300912
0.45660526 -0.49535027 0.74211943 -0.012549527 -0.55673194 -0.97856605 0.0052374075 -0.7335203
0.01127285 -0.00015559784 0.008177179 -0.06396723 0.028385904 -0.040993284 0.6010221 0.18461272
0.22635892 -0.031079633 0.7225295 -0.10640483 -1.0299201 0.0053691957 -0.020991111 0.0080512045
0.007253275 0.5277209 0.8181622 0.16651861 0.2623472 0.015063787 -0.0013423339 0.0026498064

fc1.bias f4 [32]
00000000: 45f3 e2be 94f1 82bf d982 313f ff01 2ebf
00000010: d03b 383f f618 b73f 4c3f 8ebc 53d1 383d
00000020: 12fa 063f be12 b4be 4711 393f 0909 36be
00000030: 60a5 193f a0fb 6a3f 9837 413f 2dbf b13b
00000040: bc63 723f 36e1 cabe a9d1 743f c0e4 fe3f
00000050: 9d0c 403e 2965 cc3f 0811 3abe 41ef a5be
00000060: 6686 593f 5b9d a83e 575f 04be 7502 8bbe
00000070: 2c55 3c3f 420e ca3f 2ffe 883e 90b8 d6be
-0.44326225 -1.0229974 0.6934028 -0.67971796 0.71966267 1.4304492 -0.017364167 0.045121502
0.52725327 -0.3517055 0.7229199 -0.17776884 0.6001797 0.917902 0.75475454 0.0054244013
0.9468343 -0.39624947 0.95632416 1.9913559 0.18754812 1.5968372 -0.1817056 -0.324091
0.849707 0.32932553 -0.12926994 -0.27150312 0.7356746 1.5785601 0.26756427 -0.41937685

fc2.weight f4 [128, 32]
00000000: 8be6 3c3e e906 9bbd 3585 703e 289f 85be
00000010: 25a3 433d 3e8d 83be 37d4 ae3e a632 263e
00000020: fc88 853e bf87 f8bd 45c3 4f3e eb91 3ebd
00000030: b268 cebe 832c 09be 2bb4 d03d 668c 3f3d
00000040: 519a a5bd 8524 6abd 79bf 8ebd d1c5 433e
00000050: 79a6 a23e a63d 2c3d da73 bbbd fe8e 85bd
00000060: ad1d adbe 95aa ae3c 98fd b33e e512 6f3e
00000070: adf9 683e d9e6 5b3e f9f5 ba3d bb29 be3e
00000080: 3bb6 fbbe 6f92 08bf b09f 183e 751f 61bc
00000090: 002e 0e3d 1c5d 413c 8ca0 833e ccf1 81bd
000000a0: b384 1b3f cc6b d83d d51a e3bd 11f6 913d
000000b0: 847a e73d f381 67bd 5d1e b53d 23c0 81be
000000c0: db2e 803e 07cc fb3d e733 18be 0d6c 953d
000000d0: 9095 f6bc 341e eabc 271a cf3e 0c52 fd3a
000000e0: 02b5 97be 055c 2cbf 4272 a33c 09fc 71be
000000f0: 5e1f 863e 7b0e 383e 374e 623e 237c 2b3f
00000100: 7439 02bd 83c5 ecbe 4fdd 5a3e ff71 dcbd
00000110: 5fa5 c63d 8396 2dbd 7c53 0f3f 219b 733d
00000120: 8cb0 4bbe 59bb 7abe 47f1 abbe b4b7 103e
00000130: 747c ae3d 8daf 7b3e df97 2e3e cae6 9abd
00000140: 1f2e 243e bcc5 64bf dbff 09bd 1673 f83c
00000150: 328d 12bf f01a b63e c2a7 b63e 0a33 47be
00000160: df70 e33d 0125 333e bace b1bd 098c 9cbe
00000170: 86ed d9bd 1f73 62bd 95d7 d0bd a04f c4be
00000180: c0e3 78be 90d2 84be f25f 29bc da6e 8ebe
00000190: e0f5 1bbe e050 97bc e7c5 433d 548c 81bd
000001a0: 115b 1e3e 00e4 bc3d 5be4 d63d 6091 20be
000001b0: a288 56be 2b1d 823d 00d2 3e3e 2d05 46be
000001c0: 68f1 d13d 5aae b4be 7c0a 9a3e 4b0a fb3e
000001d0: 575f 44be 9e5a 243f 797a 5b3d 7923 c9be
000001e0: f68f cfbe ce67 38be 333b bf3d 7c94 42be
000001f0: 1e05 ebbd f647 a73e dff2 7f3d b8ce 15bd
00000200: 5864 a73e a90d 9c3d 6ce5 463e 1608 7dbc
00000210: be38 9c3e f566 4f3e 3daf 293f be26 7f3e
00000220: 5197 963e d022 0b3e 9a0b 503d 3717 ef3d
00000230: a72f 3bbe 2856 bbbd 6e2e 4d3e 1e83 ac3d
00000240: d470 163f 4e1c 0b3e 172d 123e a5ca 3cbe
00000250: 2627 2d3e af93 44be 984e d03e 073a b33c
00000260: 1aab 02bd 2051 2bbe daa4 1c3e b11c be3e
00000270: 37dd 873d c932 0a3f f369 79be 0988 903e
00000280: 1df9 a73c b26e e43d 563d 0c3e 4933 cb3d
00000290: 2350 303e 2b6b 19be 8db8 0bbe dbe2 533e
000002a0: 6cc1 9f3e 575b 7abc 1e8b 85bd 0c86 eabd
000002b0: 6ecf 843e 45d9 7a3e 3886 c2bd d544 fb3d
000002c0: 738f 15be 066a 823c 6f0d 273e 50d1 fbbd
000002d0: 50e6 d3bc dc11 b23d 5caf a6bc 36ce ac3e
000002e0: 1d83 c03d 06a0 433e cc7e b5be 6fe4 cf3d
000002f0: 9893 153d 9606 35be a379 ed3d a99d 173e
00000300: f15c 343d 6a02 953e ef03 ef3e 4f09 aebd
00000310: 8993 9e3e cdbe bb3e 1aec 683e 79bc 393e
00000320: d532 0fbd 9d66 553e 27cc 0f3e fe92 583d
00000330: 4592 dfbc 1028 91bb bd77 8e3e 7278 22bd
00000340: f152 1c3e 5cdf 863e 87e0 473e 61f2 d33e
00000350: fec5 743c ff63 223e 64b5 b03d 68ee 603e
00000360: b563 8c3d bb49 183e 7e65 1f3e 89a8 d43c
00000370: 2daa 813e ba30 0f3f 9c2c 483e c1da 2abe
00000380: 0a5a d53e cc51 e6bd 5844 8fbd 9653 62be
00000390: 9c53 07be 9df6 8ebd 9f20 08be 450d 563d
000003a0: acf1 293f bb16 833e 43f6 153e c083 bc3e
000003b0: d2c5 e2be b008 823e 57c9 363e 4ce6 b73c
000003c0: 34c3 b23d c23e 1e3d 27b1 f7bd 7231 393e
000003d0: dbc5 94bd 6607 ad3c d7bb 37be d885 803e
000003e0: 8766 cb3e 1f8a 3e3e bf89 46be ff39 bb3d
000003f0: f832 e6be e177 833e d48d babc ff30 38be
0.1844732 -0.075696774 0.23488314 -0.2609799 0.04776301 -0.25693697 0.34146282 0.16230258
0.26081073 -0.121352665 0.20289333 -0.046525877 -0.4031425 -0.13395886 0.10190614 0.046764754
-0.08086074 -0.057163734 -0.06970114 0.1911843 0.31767634 0.04205098 -0.09152956 -0.06521414
-0.33811703 0.021321574 0.35154414 0.23347051 0.22751494 0.2147478 0.09128947 0.37141213
-0.49162468 -0.5334844 0.14904666 -0.01374041 0.034711838 0.011801984 0.25708425 -0.06344947
0.6074936 0.105674356 -0.11089102 0.071270116 0.11302665 -0.056520414 0.08843682 -0.253419
0.25035748 0.122947745 -0.14863549 0.07296 -0.030100614 -0.028578855 0.4044964 0.001932682
-0.29630286 -0.6732791 0.019951943 -0.236313 0.26195806 0.17974274 0.22100149 0.6698629
-0.031793073 -0.4624444 0.21373485 -0.107639305 0.09699511 -0.042379867 0.5598676 0.059474114
-0.19891566 -0.2448553 -0.33582518 0.14132577 0.08519831 0.24578686 0.17050122 -0.07563551
0.16033219 -0.8936422 -0.03369127 0.030328315 -0.57246697 0.35567427 0.35674864 -0.19453064
0.11105513 0.17494585 -0.08682008 -0.30575588 -0.10641007 -0.05528557 -0.10197369 -0.38342
-0.2430563 -0.25941896 -0.010337817 -0.27818948 -0.15230513 -0.018471181 0.047796156 -0.063255936
0.15464427 0.09223175 0.10492774 -0.15680456 -0.20950559 0.063532196 0.18634796 -0.19337912
0.10251123 -0.3528927 0.30086124 0.4903129 -0.19176994 0.6420077 0.053583596 -0.39284876
-0.4053952 -0.18008348 0.09337463 -0.19001955 -0.114755854 0.3267209 0.06248748 -0.036574095
0.32693744 0.07619793 0.19423455 -0.015443822 0.3051204 0.20254119 0.6628302 0.24917123
0.2941232 0.13587499 0.050792314 0.1167435 -0.18279897 -0.091472924 0.20037243 0.08423446
0.5876591 0.13585016 0.14275013 -0.18436678 0.16909465 -0.19196962 0.40684962 0.021878256
-0.031901456 -0.16730165 0.15297261 0.37131265 0.0663399 0.5398374 -0.24356823 0.28228787
0.020504529 0.11153926 0.13695273 0.09921891 0.1721807 -0.14982288 -0.1364462 0.20692007
0.31202257 -0.015280566 -0.06520675 -0.11451349 0.25939506 0.24496944 -0.094982564 0.12268988
-0.14605503 0.015919697 0.16313718 -0.122957826 -0.025866657 0.08694813 -0.02034729 0.33751076
0.09400008 0.19104013 -0.354483 0.10150992 0.03651771 -0.17678294 0.11595466 0.14806236
0.04403395 0.29103404 0.4668269 -0.08497869 0.30971935 0.36669007 0.22746316 0.18138303
-0.034960587 0.20839925 0.14042722 0.052874558 -0.027291426 -0.0044298247 0.27825728 -0.039665647
0.15266015 0.26342285 0.19519244 0.41395858 0.014939783 0.15858458 0.086283475 0.21965945
0.06854955 0.14871876 0.1556606 0.02595927 0.25325146 0.55933726 0.19548267 -0.1668501
0.41670257 -0.1124607 -0.069954574 -0.22102198 -0.13215488 -0.069806315 -0.13293694 0.05225875
0.66384387 0.2560328 0.14644723 0.36819267 -0.4429155 0.25397253 0.17850243 0.022448681
0.08728638 0.03863407 -0.12094336 0.18085268 -0.072643004 0.021121692 -0.17942749 0.25102115
0.3972666 0.18607377 -0.19388483 0.09141921 -0.4496076 0.25677398 -0.022772707 -0.1798744

fc2.bias f4 [128]
00000000: 6500 033e f199 983e 3469 0cbd 3f36 763f
00000010: 13a8 22be ca7b a23e e9ff 283f 564e 0d3e
00000020: 1713 7d3f de36 1a3d 6a67 123f 1a49 323e
00000030: 8854 5f3f bf04 073e b5fe 00bf c8c3 d2bd
00000040: 18f9 333d 42e2 543f 91d1 223f 3c0e 393f
00000050: ea22 843f 03d6 f3bc f898 0f3f 59b4 ef3e
00000060: e5af fa3e c9a4 503f 8cd7 a33c 3303 e13e
00000070: 6744 5a3f 0016 a93e e117 4f3f dda0 bb3e
00000080: c6e4 093f eeea 263f efe4 073f e199 233e
00000090: a097 c03e 487b b63e bd57 013f 7ace cc3e
000000a0: ceba d73e f941 1e3f 29c8 b7bd 4e56 5c3f
000000b0: 4441 4c3f ec74 1f3f 5876 cbbb 365f 223f
000000c0: 6a9f 16be bac9 02bf 2255 6a3f 5548 d03e
000000d0: 6596 46be 2116 413f 40c7 4f3d 31ff 693e
000000e0: 2d6f abbe bc3f 833e a8ae e73d d435 033f
000000f0: 91ef 1b3f 7123 eb3e 2b90 693e 773f 553e
00000100: d12d b33d 0bd8 e73e a7b5 9cbe fa6b 5abe
00000110: d48d fd3e 5b9f a73e c70a 6f3f 6fed a83e
00000120: a90a 5b3f 0120 f03e 1e38 0a3f 5e58 643f
00000130: 4208 143e 2f08 8abe 0e7c 1b3f e5f9 32be
00000140: 9be5 323d 985b 773e b367 fe3c 3f07 de3e
00000150: deaf a3be 61e3 183e e8a9 a03d 29d8 bd3e
00000160: d5e0 ae3e 2672 0a3e df12 51bd 77eb 823e
00000170: a75b 00bf 3fa6 363f ab62 083f 59cc 5fbd
00000180: eedc f43e 53a6 6e3e 74a4 6e3e dafc e1be
00000190: bfb9 1c3f 7034 82be d470 20bd e323 c33e
000001a0: 6c70 133f 9eab 0f3d bd62 a23e 5e8d 8f3e
000001b0: 0786 543d fd17 f3bd 5235 df3e 62f7 70be
000001c0: c44c 043e fe4b 513f d77f 653f 5e0c 4e3e
000001d0: f7f4 b73c 02ea 1a3e 12ce 1b3f d105 833d
000001e0: a70e 613f f45a 673f 3dda 163c 9b85 cf3e
000001f0: ffe2 213f 97fc d63e 9643 033f 2488 933e
0.12793119 0.29804948 -0.034280017 0.9617652 -0.15884428 0.3173507 0.6601549 0.13799414
0.98857254 0.03764998 0.5718905 0.17410699 0.8723836 0.13185404 -0.5038865 -0.102912486
0.043938726 0.8315774 0.6360102 0.72287345 1.0323155 -0.029765135 0.56092787 0.46817282
0.48962322 0.8150144 0.020000242 0.43947753 0.85260624 0.33024597 0.8089581 0.36646166
0.53864706 0.65202224 0.530837 0.15976669 0.3761568 0.3564093 0.50524503 0.4000128
0.42134708 0.61819416 -0.089737244 0.8606919 0.7978709 0.62287784 -0.006209176 0.6342653
-0.14709249 -0.5108906 0.9153615 0.40680185 -0.19393308 0.7542439 0.05072713 0.22851254
-0.33483258 0.25634563 0.1131261 0.5125401 0.60912424 0.45925477 0.22808902 0.20824991
0.08748973 0.45282015 -0.3060734 -0.21330252 0.4952227 0.32738766 0.9337582 0.32993647
0.8556314 0.46899417 0.5399188 0.8919734 0.14456275 -0.2695937 0.6073617 -0.1747814
0.043676 0.24156034 0.031055307 0.43364903 -0.31970114 0.14930488 0.07844907 0.3707898
0.34155908 0.13520107 -0.051043388 0.2557027 -0.5013985 0.7134742 0.53275555 -0.05463824
0.47824806 0.23305635 0.23304921 -0.44138223 0.61220926 -0.25430632 -0.0391701 0.38113317
0.5759342 0.035075776 0.31715956 0.28037542 0.05188563 -0.1186981 0.43595368 -0.23531869
0.12919909 0.8175658 0.89648193 0.20121905 0.022455676 0.1512833 0.60861313 0.06397594
0.8791298 0.9037316 0.0092073055 0.4053162 0.63236994 0.41989586 0.51275 0.28814805

fc3.weight f4 [64, 128]
00000000: d8c0 323f 5c99 d13f b949 163e b3fc 993e
00000010: e8cb a2be 090c 043e 57bb 04be 09d3 cd3e
00000020: 3983 b7be 0529 263f febb b73e 313d 113f
00000030: fa4f dd3e 7ea0 c23e 86ca 32c0 bc77 3fbd
00000040: e8ff 063f 14aa 4abe 896c 39be ebaa d8bc
00000050: 7a93 ecbe b156 5f3f eb7c ac3e 745c f0be
00000060: e70b 113e eca1 23bd 9c15 673e 34bf 9e3e
00000070: 450b c0bd 11fa 073f b0f9 8fbe 26ee 73bd
00000080: 7590 99bd 25fb 923d 572e 0cbf b20a 0c3f
00000090: 1419 df3f 0265 ab3e 509a ab3e 60bd 0b3f
000000a0: e18a a53e 39ae cd3e d699 6fbd af39 cfbe
000000b0: a0e9 b7be e545 c13f a8cb 323f 0722 cfbe
000000c0: bd33 063f b893 2abe 6d2b 9f3e 9956 36bf
000000d0: aee6 373f 64d6 59bf 61ab 6f3f 832c a03e
000000e0: badd 9b3f bce1 f2bd f917 37bd 8737 a03e
000000f0: 42c4 c63e f8d6 1b3f b44d 12bf 2deb a03e
00000100: bf10 37be 3ed0 af3f 0a2c 1a3f 9763 0d3f
00000110: 59a5 84be f91a b5be 3ed3 06bf 7e4a 83be
00000120: 62bb 64be 5339 f63f 392f 0c3f c97a 923e
00000130: f1e1 84be 77bc 5ebb 9b36 80bd 57ed 233f
00000140: 340c 0b3f 377e d03e a5d2 523e 2508 a33d
00000150: 89f0 1e3d 61ad 883e bcf2 173f 9b1e 0340
00000160: 8317 143f 54e9 abbf c60a e43e da69 013f
00000170: 8426 d1bd 104b b03e 26d2 c3be 0ddd ee3e
00000180: 79cb 2d40 784e 82bd 0545 ae3e 0d6a adbd
00000190: 16f3 b13e b023 a13c afc9 693e 2998 46be
000001a0: a562 aebd 4d34 e13e 222f 913e 1f8e 703e
000001b0: ce37 483f 6370 a33e ed54 f93e a163 8739
000001c0: e413 1b3f 6539 ea3e 31ab aa3e ec35 233e
000001d0: 858f 913f 338a 3f3e dbb5 54bf 7c94 9ebe
000001e0: 2399 68be 8b72 fa3e 6ab2 293f 09c4 343f
000001f0: df9d 6c3e 4b68 2bbe 93de da3f 2a6d eb3e
00000200: 0bf3 a83e fbe5 e4bd 9d26 893e 6044 233f
00000210: 1e4c abbe 9034 253f f413 53bc 6366 943e
00000220: 61ea fcbc 358b e7be 7407 573e 2fe1 483e
00000230: 8ce6 eabe e455 b43d f367 0a3f 2480 413f
00000240: 9507 d5be 09a5 77bd e0c2 993c 487b 6d3e
00000250: dcb2 d23d 7631 903c d349 ee3e fae4 173e
00000260: d325 b93c db8d 5d3e 90f9 eabd 8989 5d3e
00000270: 3bf5 9d3e 20de d33e a53f ac3d 0c79 153f
00000280: 4f06 0dbe 8322 a2bd 3de4 c53c 069d a93e
00000290: e4e3 ecbe 94e7 333f d058 f43e 6f21 c6be
000002a0: 6fa6 1a3f 294d 673e 29a1 9cbd d75a 14ba
000002b0: 9333 f73e 7b09 ee3e 5576 2f3e 2e50 453c
000002c0: 67dc b73d 6203 eabc de88 74be b1d2 70bf
000002d0: 8a04 c5be 8dd4 96be 0f6b 813e 63e0 913e
000002e0: 9ac5 1fbf 5449 f43d ccd9 5fbe 5b3b 043f
000002f0: d96a e63e 896c a0bb 5df8 553e 4bb1 f4be
00000300: 7a2e 84be 8c22 abbe 8930 783e ace8 06bc
00000310: 0144 1e3a e808 5a3c 49f3 c03d 9a8d aebd
00000320: cdfa 9b3e 8bf3 30bf eabe 943e 583c cf3a
00000330: 2979 2b3e fb08 bbbe 9ebf e63e c108 6fbe
00000340: 4802 fabe 8066 a23e 77f8 96be c192 6e3d
00000350: 83ea 713e ad98 093e 12ad d8bd e65b 85bf
00000360: 45c9 02bf d946 423d 5ed4 923e 4daf 5d3d
00000370: 5e4e f5be 47dc 8e3c 00dc e83d b630 b6bd
00000380: 7e55 593e ff86 a53e 9e4a 22bf 4dd8 aa3c
00000390: f516 503f 5cd5 a0be 52dc aabd eff6 243c
000003a0: 1e8b aebe 531e 29bb 2812 5bbe 4f88 223e
000003b0: b1d8 2abf 425d 11bf d004 ed3e f1ba 7cbe
000003c0: ccc0 693d 1409 0ebc 73e7 fd3e 0c50 d43e
000003d0: 7f62 0bbf e6bf 2abe 8da1 29be 1f3c 13be
000003e0: 7948 a53e 55c6 373e e349 90be 5c15 b43e
000003f0: edc2 093d 0b7b 833e e1af cabf c6d9 a83e
0.69825506 1.6374927 0.1467656 0.30075607 -0.31796193 0.12895216 -0.1296209 0.4020007
-0.35842302 0.6490634 0.35885614 0.56733996 0.4322508 0.3801307 -2.793611 -0.046745047
0.5273423 -0.19791442 -0.18107809 -0.026448688 -0.46206266 0.87241656 0.33689055 -0.46945536
0.14164697 -0.039949343 0.22566837 0.3100525 -0.093771495 0.53115946 -0.28120184 -0.059553288
-0.07498256 0.07176808 -0.5475821 0.5470382 1.7429528 0.334755 0.3351617 0.5458584
0.3233252 0.40171984 -0.05849632 -0.40473697 -0.3592043 1.5099455 0.69842005 -0.40455648
0.52422696 -0.16657913 0.3108782 -0.7122589 0.71836364 -0.8509276 0.9362088 0.3128396
1.217704 -0.11859462 -0.044700596 0.31292364 0.38821608 0.6087489 -0.57149816 0.31429425
-0.17877482 1.3735425 0.6022345 0.5523009 -0.259074 -0.3537214 -0.5266608 -0.2564277
-0.22337106 1.9236244 0.54759556 0.28609303 -0.2595363 -0.0033986846 -0.06260415 0.64034027
0.54315495 0.40721294 0.20588167 0.07960538 0.03880361 0.26694778 0.5935476 2.048743
0.57848376 -1.3430581 0.4453947 0.5055214 -0.102124244 0.34432268 -0.38246268 0.46653023
2.715544 -0.06362623 0.34037033 -0.08467493 0.34755772 0.019670337 0.22830842 -0.19393982
-0.08514909 0.43985215 0.28356272 0.23491715 0.7821015 0.31921682 0.48697606 0.00025823436
0.60577226 0.45746914 0.33333734 0.15938538 1.1371924 0.18705063 -0.8308999 -0.3097266
-0.22714667 0.48915514 0.66287863 0.70611626 0.23107098 -0.16739003 1.7099174 0.45981723
0.32997927 -0.11176678 0.26787272 0.63776207 -0.3345651 0.6453333 -0.012883175 0.28984365
-0.03087348 -0.45223394 0.20998937 0.1961715 -0.45879018 0.08805445 0.54064864 0.7558615
-0.41607347 -0.060460124 0.018769681 0.2319156 0.10288021 0.01760171 0.46540698 0.14833441
0.022601044 0.21636145 -0.114733815 0.21634497 0.30851158 0.41380405 0.08410577 0.5838783
-0.13771938 -0.07916739 0.024156684 0.33127612 -0.46267617 0.70275235 0.4772401 -0.38697383
0.6041021 0.22588028 -0.07647926 -0.0005659288 0.48281536 0.46491608 0.17134984 0.012043042
0.08977585 -0.028566066 -0.23880336 -0.9407149 -0.38480026 -0.29459038 0.25276992 0.28491506
-0.6241089 0.11928049 -0.21860427 0.5165307 0.45003393 -0.004895751 0.20895524 -0.47791514
-0.2581671 -0.33424795 0.24237265 -0.008234184 0.0006037355 0.0133077875 0.09421403 -0.08523102
0.30464783 -0.6912162 0.29051906 0.001581083 0.16745438 -0.3653029 0.45068067 -0.23343183
-0.48829865 0.31718826 -0.2948644 0.058245424 0.23624615 0.13437147 -0.105798855 -1.041867
-0.5108836 0.047430847 0.28677648 0.054122258 -0.47911352 0.01743902 0.11370087 -0.088960096
0.21224019 0.32329556 -0.63395107 0.020855093 0.8128503 -0.3141278 -0.08342804 0.010068639
-0.34090513 -0.0025805428 -0.21393645 0.1587231 -0.66736895 -0.56782925 0.46292734 -0.24680687
0.05706863 -0.008669157 0.49590644 0.4146732 -0.5444717 -0.16674766 -0.16565533 -0.14378403
0.32281855 0.17946751 -0.2818137 0.35172546 0.03363316 0.25679812 -1.5834924 0.32978648

fc3.bias f4 [64]
00000000: bbb3 053d e0d5 613f cc51 6a3d 10fd c73e
00000010: 9a31 12bd d93d a5bc 42f7 99be 209c 133f
00000020: 918f 033e 2f02 3f3c 56fd c0bd 6cd5 353e
00000030: 8575 27ba acb6 073f 44d8 57bd b4ab 323e
00000040: ffa4 023f 34c9 7a3d bf51 ef3d c9bc 863e
00000050: 5f79 143f 1bb0 c2bd fc6f 813e 4f48 d7bd
00000060: ec05 8f3d e630 643e 4662 63bd f823 ebbd
00000070: aed6 42be da1f c13a 8652 a23e cbcc 06bd
00000080: ccea 053e 1b96 bcbe b22c ae3e d871 853e
00000090: bd9b 2a3f 39df 9f3e 13b8 693d c4a7 11be
000000a0: ae0c 433f 2d2f 7a3e d4df 27bd aae0 fc3e
000000b0: 757a 26bd bffb 7a3c 8a28 223f 539b f33e
000000c0: ff59 a53e b4e8 993e d816 c8bc 715d 833d
000000d0: 00f6 9f3e fd32 a73f 3162 813d 67d4 d7bd
000000e0: 0982 833d 5355 b0be 91ab b0bd 6731 0e3d
000000f0: 616e 683f 0244 7e3d 2ac6 a03c 59ae 3c3c
0.032642107 0.8821697 0.057206914 0.3906026 -0.035691835 -0.020171093 -0.30071455 0.576601
0.12847735 0.011658235 -0.0942332 0.17757195 -0.0006388056 0.5301311 -0.05269648 0.17448312
0.51033014 0.06122704 0.11685514 0.26315907 0.579977 -0.09506246 0.2528075 -0.10511839
0.069835514 0.22284278 -0.055513643 -0.1148147 -0.19027206 0.0014734224 0.31703585 -0.03291015
0.13077849 -0.3683327 0.34018475 0.26063418 0.6664389 0.31224993 0.057060312 -0.14224154
0.7619122 0.24432059 -0.040984944 0.49390155 -0.040644128 0.01531881 0.6334311 0.4757944
0.32295224 0.3006035 -0.024424955 0.06414307 0.3124237 1.3062435 0.06317557 -0.105385594
0.064212866 -0.34440097 -0.08626474 0.034715082 0.90793425 0.062076576 0.019625742 0.011516177

fc4.weight f4 [10, 64]
00000000: 76d2 ee3c a022 b53e bd8c dd3d b696 cabd
00000010: 909c 8a3c a4a8 1bbd a873 bdbe bf61 a93e
00000020: 87e3 55bd 76ca dabd 8430 8abe 784f b0bc
00000030: ef88 d53d 8a5e 653b 9175 2bbd 118a cc3d
00000040: 2e7d c6bb 783d b33d c18a cfbc 72ec b4be
00000050: 52f9 43bb 399b 11be 0704 643c c589 be3c
00000060: b6b4 e83c 1963 f53d d82a a8be 22ca e13e
00000070: aa28 4b3d 1651 243c 36f5 ee3e 0a35 afbb
00000080: 3c60 f43e f5e5 18bf ed09 81bd 7127 d23e
00000090: ddf4 7a3c cf99 873b 1847 ad3d e5cf b7be
000000a0: d6fa 563e 436d cf3e 6f3b 9ebe ec8c d4bb
000000b0: 65d2 9dbe a750 86bd 478e 7d3c 59dc 0c3e
000000c0: 1409 2e3d 8dc1 373d 8eda 313c 13ed 11be
000000d0: 2331 e9bc 071d 233e 70d1 a33c e83f bcbc
000000e0: 44f3 b2bc c7d8 2e3d ea8e 11be 6894 febd
000000f0: e924 ab3e 6a80 e13d 3add fabd 6c4a 423d
00000100: 4416 763d c6a8 253d 48a6 fa3d 10f1 893d
00000110: d40f 53bd a43f ee3c b0ff 2ebe 8603 943f
00000120: 6f58 693e 0103 edbd d85e bebe abc3 d1bc
00000130: a23c 073f 59e4 2f3d f5fc 58bd 0c6e 1e3d
00000140: c2e4 20bb 00b1 b7bd be89 cbbd 3da8 87be
00000150: d515 6b3d e5ef b2bd 2b50 ffbc 6ff3 6f3c
00000160: 6df7 97bd d77c adbd 3e1f fbbe ca25 4e3e
00000170: d1a1 acbd 553d 8b3d 8018 233e 004e 89bc
00000180: 04cb 4bbf 0ac8 1b3e 60d9 063f 4f13 6abe
00000190: 0cb5 2a3d 048b 503d 586a 49bd cb37 00bf
000001a0: 0b6d 8f3e a2ec ab3e 3edd 54be 6406 0cbd
000001b0: 098a 1a3f 16ce 933c 44ba 393d c91a 473e
000001c0: 89e1 8a3c 4d24 043d 24c3 c03d 8d91 6ebf
000001d0: e5ec 3abe 258c 923e f815 e73e cb91 32bd
000001e0: 3dcb 2abe 93f3 3bbf b932 91bd 9458 0f3e
000001f0: c7cf a63e 181a 97bd 8d70 3abd 5eb4 c5bd
00000200: d206 a1bc 265f 253f ad3d a5bd 3657 443e
00000210: ca9c 0d3e 5194 fcbc 53d2 c9be a7f5 bebd
00000220: 4e5b b33e 201b debc 538e 54bd 91c5 9f3e
00000230: c84d 38bf 8c83 223f ef0a f6bc a798 533d
00000240: 9815 c23b 4432 143c 0a03 be3c f991 d8bd
00000250: bb3e 65bd db58 33be e8e6 ce3d 7eb5 2e3e
00000260: 0395 3fbd e78d 063f c4e2 883e 1676 babe
00000270: 949b 393e fd85 d1bd 00f2 ba3e 6303 a1bd
00000280: 896d 353f eb56 923d 9d0c 2cbe a77f 103f
00000290: 2a86 dcbd e085 243d dc1d 9fbd 8f95 8cbe
000002a0: 4762 76be a1c1 5d3e 6a46 edbd 0b64 883d
000002b0: 3c66 2cbf e7c1 a5bd 734f 92bd 081a 79be
000002c0: 483c f7be 55d0 653e 8c3f 3bbe 61a9 313f
000002d0: 5770 77bd e71b ff3e 0ad2 04bf 34c2 d83d
000002e0: 20e3 53bd a146 033e 2569 34bd 9ac6 cf3e
000002f0: a6cc 1c3d 1832 993d bdc8 663d ce49 8e3d
00000300: 677b 35be 059c afbe f0f0 593c 6a65 553f
00000310: dab8 31be f7d3 2fbe 93cc 573f ade0 91be
00000320: 31e4 243f 13f7 cfbc e9a8 953e 8541 5b3f
00000330: 1827 823f 0cf7 b93f 619c 92bd ef31 533d
00000340: 8e42 2c3e 39ff f2bd e6f6 83be b170 2abf
00000350: c525 7cbd 4364 65bd 9038 0c3e ba17 e23d
00000360: ac39 ea3d ddc1 173e 9219 3fbf 7288 cfbd
00000370: 2984 523c f702 c33d a220 133f 4f0f 22be
00000380: ec70 bdbf bc8f 1dbf 00a2 813e 781b 063f
00000390: 5619 4a3d 09a3 803e 7cb0 ebbc d87e fc3e
000003a0: 62fa 273e 877c 08bf afbd 9fbe 9c2f 733d
000003b0: f880 f0be 2057 df3d 54ff 6bbc 5700 d4be
000003c0: d20b f93d 1d81 943e 1e9b a1be bf5e 803f
000003d0: 5973 80bc 805e da3d 7e6b fbbd bbb5 9cbe
000003e0: ff49 f1be fcfc 40be bc88 1d3f e65e ca3f
000003f0: 8f8f 603e f2b5 a93d 2af5 503d 6ae0 a5bd
0.02915309 0.3537798 0.10817859 -0.09892027 0.016920358 -0.038002625 -0.370023 0.33082387
-0.05221894 -0.106831476 -0.2699014 -0.021522269 0.10426509 0.0034998977 -0.041860167 0.099872716
-0.006057403 0.087519586 -0.025334718 -0.35336643 -0.0029903245 -0.14219369 0.013916976 0.023259053
0.028406482 0.11981792 -0.32845187 0.44099528 0.049599327 0.010029098 0.46671456 -0.005346899
0.4772967 -0.59725887 -0.06300721 0.41045716 0.015317169 0.0041382085 0.08460826 -0.35900798
0.20994124 0.40513048 -0.3090472 -0.0064865258 -0.3082458 -0.06558352 0.015475816 0.13755931
0.042489126 0.04486232 0.01085533 -0.14250593 -0.028465813 0.15929042 0.019997329 -0.022979692
-0.021844514 0.042687204 -0.14214674 -0.1243065 0.33426598 0.11010821 -0.12249227 0.047434255
0.060079828 0.040444158 0.12238747 0.06735432 -0.051528767 0.02908308 -0.17089725 1.1563575
0.22787641 -0.115728386 -0.37181735 -0.025605997 0.52826893 0.04294238 -0.052975614 0.038679168
-0.0024550413 -0.08969307 -0.099383816 -0.26495543 0.057393868 -0.087371625 -0.031166157 0.014645441
-0.074202396 -0.08471077 -0.49047273 0.20131603 -0.084293015 0.067988075 0.15927315 -0.016760826
-0.7960665 0.15213028 0.5267544 -0.22858928 0.041676566 0.050913826 -0.049173683 -0.50085133
0.2801288 0.33578974 -0.20787522 -0.034185782 0.60366875 0.018042605 0.045343652 0.19443811
0.016953247 0.03226118 0.0941222 -0.9319084 -0.1825443 0.28622547 0.45133948 -0.04359607
-0.16679092 -0.7341854 -0.07089753 0.13998634 0.32580397 -0.07378024 -0.045517493 -0.09653543
-0.019656572 0.6459831 -0.08068404 0.19173893 0.13829342 -0.030832442 -0.39418277 -0.09324198
0.35030597 -0.027112544 -0.051893543 0.3120542 -0.71993685 0.63481975 -0.03003451 0.051659252
0.0059229843 0.009045187 0.023194809 -0.10574717 -0.055968028 -0.17514364 0.101026356 0.17061421
-0.046772968 0.52560276 0.26735508 -0.36418217 0.18125755 -0.10230634 0.36512756 -0.07861974
0.7087026 0.071454845 -0.16801687 0.5644478 -0.10767777 0.040166736 -0.07769367 -0.27457854
-0.24060927 0.21655895 -0.11585696 0.06659707 -0.673435 -0.080936246 -0.0714406 -0.24326336
-0.48288178 0.22442754 -0.1828596 0.69399077 -0.06040987 0.49825975 -0.51882994 0.10583916
-0.051730275 0.12819912 -0.044045586 0.40581208 0.038281105 0.07480258 0.056343783 0.06947671
-0.17722856 -0.3429872 0.013302073 0.8335787 -0.17355672 -0.17170702 0.8429653 -0.28491727
0.6441069 -0.025386369 0.2923043 0.8564685 1.016818 1.4528518 -0.07158733 0.051561292
0.16822264 -0.11865086 -0.25774306 -0.66578203 -0.061559457 -0.05600382 0.13693452 0.11039682
0.11436781 0.14820047 -0.7464839 -0.10133447 0.012848892 0.0952205 0.5747167 -0.15826152
-1.4800086 -0.61547446 0.2531891 0.52385664 0.04934057 0.25124386 -0.028770678 0.49315524
0.16404107 -0.53315014 -0.31199405 0.059371576 -0.46973395 0.1090529 -0.014404137 -0.4140651
0.12160458 0.29004756 -0.31563658 1.0028914 -0.015680002 0.10662556 -0.12276362 -0.306074
-0.47126767 -0.18846506 0.61536765 1.5810211 0.21929763 0.082866564 0.051015057 -0.08099444

fc4.bias f4 [10]
00000000: c6c9 ff40 5f37 1740 6457 dd3f 5b2c a33e
00000010: 033a bebe bd20 e5be 85e7 2abe 1850 ee3d
00000020: 960b 343c 72bd e6bc
7.9933805 2.3627546 1.7292295 0.31869778 -0.37153634 -0.4475154 -0.1668988 0.116363704
0.01098909 -0.028166506

fc1.weight f4 [32, 7]
00000000: d979 7ebe 3447 e2bf 061b a6be a78a 3bbd
00000010: d23e e33c e38d 8c3d b0cd 9fbc 1c0a dbbe
00000020: b613 9fbe ddf4 cbbc f7b3 58bf 0d35 36bd
00000030: f2e0 33bd fce0 9d3b f61a 3bbf 8ba4 26bf
00000040: 99ea 003e c92f 24bd 61c0 95bc a628 1abc
00000050: faf4 df3a 8edd 16bf 0337 663d 4473 13bf
00000060: 0f70 07bf 02c6 103e 7afd c53d 829d 54bb
00000070: 1247 24bf 5140 02bf 85e5 1fbf d705 a13e
00000080: 8622 303e a355 563e 91e2 773c 15b4 0dbf
00000090: ca46 6fbe 35db ee3e 3cb0 d3be 194e b9bc
000000a0: 4ae6 e83d fd72 a4ba 8173 12bf ddd2 993d
000000b0: 96a6 38bf 62ca 85be a59b e63a 352a f3bd
000000c0: 46ba 2fbc c01e 1b3f e4ee f13e 0467 2c3f
000000d0: 1f8c 18be e6ed 86ba 5451 433b cc7d 09bb
000000e0: 73e1 e23e e8ca f7be 6a9b 933e 59bc 653e
000000f0: a3a8 813b 3af5 2e3c cd09 99bb b28c 7fbf
00000100: 5eef 433f 672d 02be f155 fb3e b6a3 3e3d
00000110: 76d9 1a3d da7c 143c 5ae0 e33e 24a6 23bf
00000120: 8adf 3d3f 0126 c7be 362d 7abc 8b37 7d3d
00000130: cfc4 20bb 025f 92be 498b 82bf 9685 893f
00000140: a76a da3e 1697 88bc fd4e 973d 6056 caba
00000150: 6911 1dbf b722 5b3c ae91 24bf ff36 03bf
00000160: c582 813d 4224 603d d575 baba 1d72 c0be
00000170: 0d41 9d3f bda8 7c3f 9b9a 3abf 3a4f a13c
00000180: 8158 f43d f808 24bc 8657 3a3e b957 74be
00000190: c793 1abe bb20 af3c 6891 fb3e 2593 a13e
000001a0: 4510 5dbc 9e07 0e3f 0652 233f 9d9a 19be
000001b0: dbb6 55bf 71cc 0dbc 7ab6 ab3d 8eb1 ddbb
000001c0: edf6 1a3d 6277 1d3c fd69 123d 116a 893e
000001d0: 622c 25bf 573f df3e a061 d03b f215 1d3f
000001e0: f74e 653c 50b7 293f e8dc da3e 5cbf 823e
000001f0: c831 713e 6cd8 0dbc 68ee 8c3e 01c5 613e
00000200: 0ca0 a5be d0fb 40bf eaa1 ec3c 6a67 043f
00000210: 340d 1a3c d38b d4bc ba39 703e 70b2 4d3c
00000220: f9a3 2a3e 7eb4 fb3d c7d2 43be b2d3 8d3c
00000230: f0c0 0a3f 6a67 7f3e 1aa0 623f faf2 6bbf
00000240: 1600 29bd 3f8c 093e fc97 e7ba 3622 473c
00000250: 58d2 ea3d d3f1 73be 9b53 03bf bbeb 5dbe
00000260: b1f3 d9be 3ec0 08bc c3da d5be 8d86 1c3e
00000270: 1d24 21bf af13 36be 6b16 89bd 9a9e 963e
00000280: c4ff 113b 1742 973f 3932 83bf f57f c0bc
00000290: c649 abbd 9d88 dcbb b816 cb3c e770 023c
000002a0: 363a 60bf 5850 403f 7d91 503d 6f47 1c3d
000002b0: ec4a c73a b6fd 433b b604 033b 90a4 533f
000002c0: b8af 6b3f 48e0 c8bd b61d 72be 9182 ecbb
000002d0: 9838 523b 674c 073c 1414 c63e 4753 2dbf
000002e0: 66a1 5f3f bd7e f43d afd4 c93b 6d56 c93c
000002f0: 547e 18bc d3e6 83bd f5a1 963e 5017 9bbe
00000300: efee e93e e974 fdbe 11ea 3d3f 3d12 4cbc
00000310: b682 0ebf 206b 7abf 65ec ab3b a4be 3bbf
00000320: 308d 393c ec16 19b9 26a3 043c 81e6 82bd
00000330: cd48 e93c 2821 28bd aad2 193f d2f0 3c3e
00000340: 22ac 673e 669d fdbc 8ae8 383f d579 d9bd
00000350: d1c0 83bf 9e9e b33b a1d9 abbc 4f42 013c
00000360: 2509 f03b 1509 073f 0f56 513f 8b7c 2a3e
00000370: 633b 863e 3d6b 763c 9625 b1ba 99ce 253b
-0.24851169 -1.767798 -0.32442492 -0.045786526 0.027739916 0.06863 -0.01950726 -0.4278115
-0.31069726 -0.024897033 -0.84649605 -0.044484187 -0.043915696 0.00481808 -0.73088014 -0.6509482
0.12589492 -0.040084634 -0.01828021 -0.009409105 0.0017086559 -0.58931816 0.056204807 -0.57597756
-0.5290536 0.14138034 0.096674874 -0.0032442515 -0.64170945 -0.5087939 -0.62459594 0.31449768
0.1720067 0.20931105 0.015129701 -0.5535291 -0.23366848 0.46651617 -0.41345394 -0.022620248
0.11372049 -0.0012546476 -0.57207495 0.07510922 -0.7212919 -0.26130968 0.0017593993 -0.11873285
-0.010725563 0.60593796 0.47252572 0.6734469 -0.14897202 -0.0010294288 0.0029803114 -0.0020979522
0.4431263 -0.48396993 0.2882951 0.2243513 0.0039568706 0.010678584 -0.004670358 -0.9982406
0.7653712 -0.12712632 0.49089006 0.046542846 0.037805043 0.00906297 0.44507104 -0.63925385
0.7416922 -0.38896182 -0.015269568 0.061820548 -0.002453137 -0.2858811 -1.0198756 1.0743892
0.42659494 -0.016673606 0.07388113 -0.0015437119 -0.6135469 0.013374976 -0.6428479 -0.5125579
0.063237704 0.05472208 -0.001422579 -0.37587062 1.2285477 0.98694974 -0.7289216 0.019691098
0.11930943 -0.010011904 0.1819745 -0.23861589 -0.15095435 0.021377912 0.49134374 0.31557575
-0.0134926485 0.5548037 0.6379703 -0.15000387 -0.8348214 -0.0086547 0.08384414 -0.006765551
0.037833143 0.009610983 0.03574561 0.26838735 -0.6452085 0.43603012 0.006359294 0.6136161
0.0139958775 0.6629534 0.42746663 0.2553662 0.23554146 -0.008657556 0.2752564 0.22047807
-0.3234867 -0.75384235 0.0288858 0.517203 0.009402562 -0.02594558 0.23459521 0.01255475
0.16664113 0.122902855 -0.19123374 0.017312858 0.5420065 0.24941793 0.88525546 -0.9216763
-0.041259848 0.13432406 -0.0017669196 0.012154153 0.11465901 -0.23822717 -0.51299447 -0.21671955
-0.42568734 -0.008346615 -0.41768464 0.15285702 -0.6294573 -0.17780946 -0.06693729 0.29417878
0.0022277692 1.1817044 -1.0249702 -0.023498515 -0.083636805 -0.0067301528 0.024791107 0.007961488
-0.8758882 0.75122595 0.05092 0.038154062 0.0015204824 0.0029905862 0.0019991822 0.8267298
0.92065 -0.09808403 -0.23644146 -0.007217713 0.003207719 0.008257962 0.38687193 -0.67705196
0.8735565 0.11938236 0.006159387 0.024577344 -0.009307463 -0.064405106 0.29420438 -0.30291224
0.45690104 -0.49503258 0.7418528 -0.01245552 -0.556682 -0.9781971 0.0052466863 -0.7333777
0.011325166 -0.00014599756 0.008095538 -0.063916214 0.028477097 -0.041047245 0.6008707 0.1845124
0.22624257 -0.030958842 0.72229826 -0.10618941 -1.0293218 0.005481555 -0.020977797 0.007889344
0.007325309 0.52748233 0.8177194 0.16649072 0.26217183 0.015040216 -0.001351523 0.0025300144

fc1.bias f4 [32]
00000000: ecbe e2be 3ace 82bf d859 313f dde8 2dbf
00000010: 8228 383f fc09 b73f f846 8ebc ae44 393d
00000020: c1e2 063f 28f2 b3be 5104 393f eacf 35be
00000030: 1293 193f ceda 6a3f 2123 413f 73e4 ae3b
00000040: 1d60 723f befb cabe 18b0 743f 92cb fe3f
00000050: 81c5 3f3e 9d51 cc3f 9cea 39be fed9 a5be
00000060: 866f 593f 7058 a83e 62ed 04be 7685 8abe
00000070: 1a40 3c3f 1301 ca3f 5159 893e 859d d6be
-0.44286287 -1.0219185 0.69277716 -0.67933446 0.7193681 1.4299922 -0.017367825 0.045231514
0.5268975 -0.35145688 0.7227221 -0.17755094 0.59990036 0.9174012 0.7544423 0.005337292
0.9467791 -0.3964519 0.955812 1.9905875 0.18727686 1.5962406 -0.18155903 -0.32392877
0.84935796 0.32879972 -0.1298118 -0.27054948 0.7353531 1.5781578 0.26825956 -0.41917053

fc2.weight f4 [128, 32]
00000000: 924f 3d3e 0e05 9cbd 604d 703e f196 85be
00000010: d9fc 423d f572 83be 6ec9 ae3e 4cf7 253e
00000020: eb98 853e 300e f8bd 56c3 4f3e 3445 3ebd
00000030: 585d cebe 4808 09be 4be1 cf3d 3cc5 3f3d
00000040: fd9a a5bd aa7c 69bd 6379 8ebd bdaa 433e
00000050: cc88 a23e acdd 2b3d ff95 babd dcb2 85bd
00000060: 5221 adbe 0276 b03c 2eec b33e 4db2 6e3e
00000070: ade2 683e 8624 5c3e ba3f bb3d 7590 bd3e
00000080: b19e fbbe 876c 08bf 5ab7 183e c431 5dbc
00000090: 6167 0e3d 5977 423c 1684 833e b3ca 81bd
000000a0: d77a 1b3f cb21 d93d 4030 e3bd a4a7 923d
000000b0: f76c e73d 7298 67bd 43ac b53d 12c0 81be
000000c0: da2a 803e 87d6 fa3d 0a38 18be 3856 953d
000000d0: e8f1 f5bc 7cbc ebbc d502 cf3e d858 003b
000000e0: b098 97be 6f44 2cbf 4309 a43c 000a 72be
000000f0: 0205 863e a9cd 373e 9b2c 623e b23e 2b3f
00000100: 4668 02bd 0988 ecbe d948 5a3e 9ee0 dbbd
00000110: 76cd c63d 1198 2dbd 2d56 0f3f 3783 733d
00000120: 71ec 4dbe f717 7abe e8d2 abbe c9fb 103e
00000130: c8f7 ae3d 74a6 7b3e 79d4 2e3e aa54 9abd
00000140: d409 243e ff25 65bf ffd1 07bd 90ec f53c
00000150: 6f79 12bf 16fd b53e 92d2 b63e 2238 48be
00000160: 8993 e23d 45c1 323e 45df b0bd 84a1 9cbe
00000170: 0947 d9bd 76f2 62bd 9d4a d1bd acdd c3be
00000180: 1222 79be 6caf 84be 70db 26bc de56 8ebe
00000190: 1fb1 1bbe f991 96bc ad90 433d 10e2 81bd
000001a0: fd36 1e3e 044d bc3d 6d8e d63d 4caa 20be
000001b0: 3377 56be 40ea 813d 29c9 3e3e 0010 46be
000001c0: 4b18 d23d 3a9f b4be e113 9a3e c9f2 fa3e
000001d0: 1c6e 44be 4655 243f d06a 5b3d 5813 c9be
000001e0: 9ea2 cfbe f6ff 37be 1934 c03d 77b5 42be
000001f0: 45c7 eabd b738 a73e 92e7 803d 01bb 17bd
00000200: e35e a73e 56bb 9b3d 9605 473e 19bf 7fbc
00000210: 3d30 9c3e 7551 4f3e 6bb6 293f 052d 7f3e
00000220: a1a4 963e 6709 0b3e acbf 503d 7e6d ef3d
00000230: dc23 3bbe 1020 bbbd 377d 4c3e d5d2 ac3d
00000240: 186d 163f 52ea 0a3e c21b 123e 24db 3cbe
00000250: 8030 2d3e 7b7d 44be 1369 d03e 90d6 b33c
00000260: 6df0 02bd d37e 2bbe 8c70 1c3e 452f be3e
00000270: 69d5 873d 4521 0a3f 8f5b 79be f798 903e
00000280: 55f8 a53c ade8 e33d 6d20 0c3e a3b7 cb3d
00000290: 2735 303e 7e46 19be 3d75 0bbe 02e7 533e
000002a0: 8cbe 9f3e 0c3d 7dbc f57c 85bd 5506 ebbd
000002b0: 5cce 843e 37fd 7a3e fc54 c2bd 96f8 fa3d
000002c0: 394a 15be d53a 823c d00c 273e 3666 fbbd
000002d0: b62a d3bc 82a0 b23d bedb a5bc 1a92 ac3e
000002e0: 3991 c03d 2aad 433e f462 b5be d359 cf3d
000002f0: 06a5 153d 7e04 35be 9663 ed3d b3b1 173e
00000300: 15af 343d 5710 953e 7fe6 ee3e 70ca adbd
00000310: b996 9e3e 01bb bb3e 38d6 683e c78a 393e
00000320: 8605 0fbd 799a 553e e4ce 0f3e 0bef 583d
00000330: a733 dfbc aa59 90bb 3f84 8e3e 0514 22bd
00000340: e467 1c3e eb02 873e 11ec 473e f4e7 d33e
00000350: d077 743c f544 223e 909e b03d 1d04 613e
00000360: db70 8c3d c05c 183e a066 1f3e b0f0 d43c
00000370: de9e 813e fb2c 0f3f 254e 483e ebd1 2abe
00000380: c349 d53e 0f50 e7bd 9f74 8ebd 6937 62be
00000390: 1163 07be b7a3 8ebd 8c22 08be 3a42 573d
000003a0: 34e8 293f 1c1b 833e 07e4 153e 465e bc3e
000003b0: 25c4 e2be 3be7 813e 4a4e 363e 832c b63c
000003c0: 889e b23d 46cf 1d3d b69c f7bd 6a75 393e
000003d0: 879f 94bd cf58 ae3c c98b 37be 487d 803e
000003e0: 046e cb3e 9b8f 3e3e 7248 46be 3631 bb3d
000003f0: 0a24 e6be 6566 833e a04e babc b843 38be
0.18487385 -0.076181516 0.23467016 -0.26091722 0.047604416 -0.25673643 0.34138054 0.16207618
0.2609323 -0.12112081 0.20289358 -0.046452716 -0.4030559 -0.13382065 0.10150393 0.046818957
-0.08086202 -0.057003655 -0.069567464 0.191081 0.31744993 0.04195945 -0.09110641 -0.06528255
-0.33814484 0.021540646 0.35141128 0.23310204 0.2274272 0.21498308 0.09143014 0.37024274
-0.4914451 -0.532906 0.14913693 -0.013500635 0.03476656 0.011869275 0.2568671 -0.0633749
0.60734314 0.106021486 -0.11093187 0.07160881 0.1130008 -0.056541868 0.08870747 -0.2534185
0.25032693 0.12247949 -0.14865127 0.072918355 -0.030022576 -0.0287764 0.40431848 0.0019584205
-0.2960868 -0.6729192 0.020023948 -0.23636627 0.26175696 0.17949547 0.22087328 0.6689254
-0.031837724 -0.46197537 0.21316852 -0.10736202 0.09707157 -0.04238135 0.5599087 0.059451308
-0.20109726 -0.24423204 -0.33559346 0.14158548 0.08543354 0.24575216 0.1707324 -0.0753568
0.16019374 -0.895111 -0.033159252 0.030020028 -0.5721654 0.35544652 0.35707527 -0.19552663
0.11063296 0.17456539 -0.08636335 -0.30591977 -0.10609252 -0.05540701 -0.102193095 -0.3825506
-0.24329403 -0.25915086 -0.010184154 -0.2780065 -0.15204285 -0.018380152 0.047745395 -0.06341946
0.15450664 0.09194377 0.10476384 -0.15689963 -0.20943908 0.06343508 0.18631424 -0.19342041
0.1025854 -0.3527773 0.3009329 0.49013355 -0.19182628 0.64192617 0.05356866 -0.3927257
-0.40553755 -0.17968735 0.09384937 -0.19014536 -0.11463789 0.32660457 0.062941685 -0.037043575
0.3268958 0.07604091 0.19435725 -0.015609526 0.30505553 0.20245917 0.6629397 0.24919517
0.29422477 0.13577805 0.050964043 0.11690806 -0.18275398 -0.09136975 0.1996964 0.084386505
0.58760214 0.13565949 0.14268401 -0.1844297 0.16913033 -0.19188492 0.40705165 0.021952897
-0.03196757 -0.16747598 0.15277308 0.3714544 0.06632502 0.53957015 -0.24351333 0.28241703
0.020260016 0.11128364 0.13684244 0.09947135 0.17207776 -0.14968297 -0.13618942 0.20693591
0.31200063 -0.015456449 -0.06517974 -0.11475817 0.2593869 0.24510656 -0.09488866 0.12254445
-0.14579095 0.015897194 0.16313481 -0.122753546 -0.025777202 0.08722021 -0.020246383 0.33705217
0.09402699 0.19109026 -0.35427058 0.101245545 0.03653433 -0.17677495 0.1159126 0.1481388
0.044112284 0.2911403 0.4666023 -0.084858775 0.30974367 0.3666611 0.22737968 0.18119346
-0.034917377 0.20859708 0.14043766 0.052962344 -0.02724631 -0.00440522 0.2783527 -0.039569873
0.15274006 0.26369414 0.19523646 0.41387904 0.014921144 0.15846618 0.086239934 0.21974225
0.06857463 0.14879131 0.15566492 0.025993675 0.2531652 0.5592801 0.1956106 -0.1668164
0.41657838 -0.11294567 -0.069558375 -0.2209145 -0.13221385 -0.0696482 -0.13294429 0.052553393
0.6636994 0.2560662 0.14637767 0.36790675 -0.4429027 0.25371727 0.17803302 0.022238022
0.08721644 0.03852775 -0.12090437 0.18111196 -0.0725699 0.021282582 -0.17924418 0.25095582
0.39732373 0.18609469 -0.19363573 0.091402456 -0.4494937 0.25664058 -0.02274257 -0.17994583

fc2.bias f4 [128]
00000000: cb17 033e d18d 983e 3b6f 0cbd 5d31 763f
00000010: e785 22be da7f a23e 84fb 283f 6174 0d3e
00000020: 4d32 7d3f d261 1a3d d054 123f 013a 323e
00000030: e550 5f3f 47ff 063e c6f3 00bf ca86 d2bd
00000040: bc97 343d 4bdd 543f 57cd 223f 280e 393f
00000050: 621a 843f e44c f3bc 7b92 0f3f 69ae ef3e
00000060: fc8f fa3e a69d 503f e1a3 a33c c829 e13e
00000070: fd3c 5a3f 5410 a93e 6f12 4f3f 4196 bb3e
00000080: cce1 093f 70e4 263f 61eb 073f 37a2 233e
00000090: fd8f c03e be7a b63e b44b 013f 67ac cc3e
000000a0: 348b d73e 7f4b 1e3f a9bf b8bd 4745 5c3f
000000b0: e242 4c3f 456c 1f3f bdf3 cfbb d45b 223f
000000c0: 349b 16be 4ece 02bf 5444 6a3f ee47 d03e
000000d0: 0072 46be 4708 413f d385 4f3d d5eb 693e
000000e0: 8169 abbe 6142 833e 2ef2 e73d 062c 033f
000000f0: e2eb 1b3f 4513 eb3e 9db3 693e 8b4e 553e
00000100: e00f b33d cdbe e73e 6ea2 9cbe 2745 5abe
00000110: d183 fd3e d097 a73e 6102 6f3f 33e8 a83e
00000120: 0706 5b3f d006 f03e ca22 0a3f e854 643f
00000130: f8fc 133e eaf4 89be 266f 1b3f c4e0 32be
00000140: b530 333d 1c41 773e 7375 fc3c 28fc dd3e
00000150: 779e a3be 5ce1 183e f2bf a03d a2cd bd3e
00000160: 7fd1 ae3e c34d 0a3e ad22 52bd e8e7 823e
00000170: a966 00bf 44a8 363f 985d 083f 438a 60bd
00000180: eed6 f43e 2ccf 6e3e a185 6e3e 000b e2be
00000190: 7eb0 1c3f f71b 82be d5c1 20bd a90b c33e
000001a0: d06c 133f b824 103d b158 a23e f995 8f3e
000001b0: cc86 543d ee97 f3bd ca29 df3e bbc7 70be
000001c0: 8c2f 043e 964b 513f 4087 653f 5e24 4e3e
000001d0: dee1 b73c 46fe 1a3e e0cf 1b3f a509 833d
000001e0: 9a05 613f fc52 673f 1af5 123c 447a cf3e
000001f0: dcec 213f 5efb d63e b561 033f 5289 933e
0.12802045 0.29795697 -0.034285765 0.9616907 -0.15871392 0.31738168 0.6600878 0.13813926
0.9890488 0.037690945 0.57160664 0.17404939 0.8723281 0.13183318 -0.5037197 -0.10279615
0.044090018 0.83150166 0.63594574 0.72287226 1.0320551 -0.02969975 0.56082886 0.46812752
0.48937976 0.8149055 0.019975604 0.4397719 0.8524931 0.3302027 0.808875 0.36638072
0.53860164 0.6519232 0.53093535 0.15979849 0.37609854 0.3564052 0.5050614 0.39975283
0.4209839 0.6183395 -0.09020931 0.8604321 0.79789555 0.6227458 -0.0063461945 0.6342137
-0.14707643 -0.51096046 0.9151051 0.40679878 -0.19379425 0.75403255 0.050664734 0.22843869
-0.3347893 0.2563658 0.11325489 0.5123905 0.60906804 0.4591314 0.22822423 0.20830743
0.08743262 0.45262757 -0.30592674 -0.21315442 0.4951463 0.3273301 0.93363005 0.32989654
0.8555607 0.46880198 0.53959334 0.89192057 0.14451969 -0.26944667 0.60716474 -0.17468554
0.043747623 0.24145931 0.030817723 0.43356442 -0.31956837 0.14929718 0.07849111 0.37070948
0.34144208 0.13506226 -0.0513026 0.25567555 -0.50156647 0.713505 0.5326781 -0.054819357
0.47820228 0.23321217 0.23293163 -0.44149017 0.61206806 -0.2541196 -0.039247353 0.38094833
0.5758791 0.035191268 0.3170829 0.28044108 0.051886365 -0.11894213 0.4358657 -0.23513691
0.12908763 0.8175596 0.896595 0.2013106 0.022446569 0.1513606 0.6086407 0.06398324
0.8789917 0.90361 0.00896957 0.4052297 0.63252044 0.41988653 0.51320964 0.28815705
