logs/sdf_single_min_distances_per_link/state_167.pt (torch, 112153 bytes, 16 tensors)

fc1.weight f4 [32, 7]
00000000: e086 8dbe 0872 fdbf a701 bcbe b667 77bd
00000010: f0ea b13c e75b 3c3d feb8 8ebc fd73 dfbe
00000020: 9df2 96be 3576 72bd d35f 73bf 53ab 2cbd
00000030: 809e 0ebc 22e1 0c3b 1374 4bbf 4780 30bf
00000040: 448d 1d3e 48f9 36bd 8869 11bc 8250 a7bc
00000050: 4513 9b3b fa57 32bf dbdb 973d d189 1fbf
00000060: 3656 22bf e947 233e 61fa c23d 8a3f 7aba
00000070: 4346 31bf f53c 0ebf df0f 28bf 157d bf3e
00000080: 5ffa 0e3e 6d05 613e ec66 9f3c 87c9 0ebf
00000090: 6e1d 52be 2e1d 223f d570 d1be 2dc5 f5bc
000000a0: 33d1 133e 19d1 33bb 61bd 29bf 198f c03d
000000b0: 8375 5bbf de6d a5be 1ff6 c9bb 33ae dcbd
000000c0: 92f9 d6bb bd27 2a3f 0b3b 0c3f fd8c 3d3f
000000d0: 557c 28be 408f 82bc 5c4a 55bb 2b25 90ba
000000e0: 9245 f53e 5f83 06bf f56c 9b3e 5fa7 873e
000000f0: 486b 223a 09a7 2a3c 4375 52bb 9ca2 90bf
00000100: 2c59 623f e6f6 1abe 130e 0d3f 68d7 343d
00000110: 97b5 283d 3a56 313c a12c de3e 7798 26bf
00000120: 9390 553f f0aa e6be 7a15 f7bc 6962 3e3d
00000130: 67a1 223b f301 afbe 520c 8dbf 5fc7 953f
00000140: 6b5a 033f d419 0cbd ece5 913d ef13 04bc
00000150: 2992 24bf 4470 733a 7c1f 32bf 03c4 0cbf
00000160: 02a6 5a3d 3f50 343d 23cd dd3b aa30 cebe
00000170: 3f5e ac3f fca4 8f3f 4d14 67bf d562 a2bc
00000180: 7fb1 ba3d 1c5f d3ba d382 6c3e ee40 26be
00000190: 3f0b b3bd 9ac5 f4bc a87c 2f3f d535 ce3e
000001a0: 0a53 1cbc 28ca 0b3f e0b8 293f 439a 13be
000001b0: bd40 67bf f2ac 8f3b 9077 863d 8539 e839
000001c0: a4f1 783d c0fe 2c3d e309 973d eb8c 833e
000001d0: 17ce 31bf bb6d f73e 3d53 ec3a 97cf 173f
000001e0: 9a15 ab3c 5d38 273f 2382 043f e442 b33e
000001f0: 86b1 563e 3b40 0e3b f666 ab3e f175 3a3e
00000200: 0e30 b4be 6c37 4dbf cba0 383d 633e 1d3f
00000210: f30a b03c ff59 6fbd ee3b 8b3e be99 3ebd
00000220: 29f1 423e aac8 8a3d 4115 53be feb3 223d
00000230: 551b 263f 986c 9f3e 5c00 793f e5dc 6fbf
00000240: 81eb d4bc d005 cd3d 6de0 2ebb 5c27 b73b
00000250: eb94 0f3e 419e 7abe 9429 0fbf 2587 72be
00000260: 1f4c f2be 47f9 aebc 2003 eabe d56f 053e
00000270: 31c8 29bf 3559 65be 6180 6abd 8079 a23e
00000280: 3b1a 2cbb fb29 a93f 438a 8dbf 42a6 e7bc
00000290: 70b8 51bd 9f60 b23a 2474 1d3d 321a 123c
000002a0: b331 7cbf ca4b 533f 82ac 483d 8f05 d33c
000002b0: d7bb 1e3b c949 0b3c 2634 0f3b 4e96 6e3f
000002c0: 9205 883f c64f d4bd 04f3 5cbe 2f22 a8bc
000002d0: 931c e63c 8ec3 cb3b d27a d43e 9b32 34bf
000002e0: 458a 6f3f 5290 113e 39a7 39ba b7e3 af3c
000002f0: 1d22 bcbb a291 f4bd 9e56 aa3e 1a18 bcbe
00000300: 3cf7 f33e 15b0 18bf bb6c 503f fa20 c5bc
00000310: a7ce 18bf 66be 86bf d40e e83b bff1 49bf
00000320: cbe4 ef3b a390 9ebb f48d 923b 7169 4bbd
00000330: 7cff e9bc e1d2 46bc 9f1f 253f 4023 423e
00000340: aa9f 6e3e 6958 33bd 8d1e 463f ee3b 30be
00000350: 9fb7 91bf 4911 91bc 8386 72bc 2c14 f33c
00000360: 4d84 933c 87a5 113f 8be8 653f 1f20 2f3e
00000370: 0492 843e 25f1 463c 45ce 563b af5e a73b
-0.27641964 -1.9800425 -0.3672001 -0.06040164 0.021718472 0.045986082 -0.017422196 -0.4364318
-0.29481974 -0.059194762 -0.9506809 -0.042155575 -0.0087047815 0.0021496494 -0.7947399 -0.68945736
0.1538592 -0.044671327 -0.008875258 -0.020424131 0.0047325217 -0.6966549 0.07414981 -0.62319666
-0.634128 0.159454 0.09520412 -0.0009546211 -0.69247836 -0.55561763 -0.6564922 0.37400118
0.13962696 0.21974726 0.019458257 -0.55776256 -0.20519039 0.63325775 -0.40906397 -0.030001247
0.14435272 -0.0027437864 -0.66304594 0.09402294 -0.85726184 -0.32310385 -0.006163373 -0.10775413
-0.006560513 0.66466886 0.5477759 0.74043256 -0.16453679 -0.015937448 -0.0032545542 -0.0010997405
0.4790464 -0.52544206 0.30356565 0.26494882 0.0006195796 0.010415801 -0.003211335 -1.1299624
0.88417315 -0.15133247 0.550996 0.04415074 0.041188803 0.010823781 0.43393424 -0.6507639
0.8342373 -0.4505229 -0.030161608 0.04648057 0.0024815442 -0.34181175 -1.1019385 1.1701468
0.5130984 -0.03420432 0.07123932 -0.008061393 -0.6428552 0.0009286443 -0.6957929 -0.5498659
0.053380974 0.04402184 0.006768839 -0.40271503 1.3466262 1.1222224 -0.9026535 -0.019822517
0.09115886 -0.0016126367 0.2309678 -0.16235706 -0.087423794 -0.02987938 0.68549585 0.40275446
-0.009541282 0.5460534 0.6629772 -0.14414315 -0.9033316 0.0043846304 0.065657735 0.00044293344
0.06077732 0.042235136 0.073749326 0.2569345 -0.69455093 0.48325905 0.0018030178 0.5930113
0.020884324 0.6532038 0.5176107 0.3501197 0.20966157 0.0021705765 0.3347699 0.18209054
-0.35192913 -0.8016269 0.04507522 0.6142332 0.021489596 -0.058435436 0.2719416 -0.04653334
0.19037308 0.06776555 -0.20613576 0.039722435 0.64885455 0.31137538 0.97266173 -0.93696433
-0.025991203 0.10010874 -0.002668406 0.005589409 0.14021651 -0.24474432 -0.5592282 -0.23684366
-0.473237 -0.0213591 -0.4570551 0.13030942 -0.6632109 -0.22397311 -0.057251338 0.31733322
-0.0026260752 1.3215936 -1.1057819 -0.02827752 -0.051201284 0.0013609118 0.03844084 0.008917378
-0.98513335 0.8253752 0.04899264 0.025759486 0.0024220848 0.0085014785 0.0021851151 0.93198097
1.06267 -0.10366778 -0.21577078 -0.020524113 0.028089797 0.0062183803 0.41499954 -0.7038972
0.9357036 0.1421521 -0.0007082108 0.021470888 -0.0057413713 -0.1194184 0.3326921 -0.36737138
0.47649562 -0.5964368 0.8141591 -0.024063576 -0.59690326 -1.0526855 0.007081846 -0.788845
0.0073209754 -0.0048390194 0.0044724885 -0.049661104 -0.028564207 -0.012135238 0.64501375 0.1895876
0.23303095 -0.043785486 0.77390367 -0.17210361 -1.1384162 -0.017708438 -0.014802578 0.029672705
0.018007422 0.568932 0.8980796 0.17102097 0.2589265 0.012142454 0.0032776755 0.0051077227

fc1.bias f4 [32]
00000000: d19f ecbe bd9b 9dbf 54a8 493f 89db 53bf
00000010: 2cb9 463f 5c1e c53f 6f36 92bd 43e7 dc3c
00000020: 6a82 1a3f 3779 eabe 5c03 4b3f e766 1dbe
00000030: 2661 2c3f 46c4 803f 3126 233f da5d 9e3a
00000040: 425a 673f b439 aebe 66ec 893f 67b4 0c40
00000050: bd73 783e f3a7 de3f f265 4bbe 0fae a1be
00000060: f941 673f bc70 dd3e 8307 cbbd d12d cbbe
00000070: cee3 4d3f 5543 d93f 3c74 023e 145a f9be
-0.4621568 -1.2313153 0.78772473 -0.8275686 0.776263 1.539989 -0.07139289 0.026965743
0.60355246 -0.45795605 0.79302 -0.15371285 0.67335737 1.0059898 0.6373015 0.0012082413
0.903721 -0.340284 1.0775268 2.198511 0.242629 1.7395004 -0.19863108 -0.3157811
0.9033504 0.43250072 -0.09913542 -0.39683393 0.8042573 1.6973673 0.12739652 -0.48701537

fc2.weight f4 [128, 32]
00000000: 362f ab3d 8698 313c 1187 a53e 21ab 84be
00000010: ae69 ad3d 4880 97be f80e a23e 10f1 6d3e
00000020: 2e29 5b3e c872 06be e00e 5f3e a15d b4bd
00000030: ab74 d8be 6c5d 1dbe 8958 5f3e 3545 333d
00000040: 1f01 a2bd 642d fcbd 7f34 c6bd 6e76 573e
00000050: 0ab7 c43e 5d5e 293d a5b3 25be c228 6fbd
00000060: ad49 a8be b8d6 17bd a07d ae3e aaa7 a83e
00000070: f403 623e 0832 263e 764b 133d 059a 163f
00000080: 178d 11bf e294 15bf feac 1c3e 13ce 2abe
00000090: c1de 9d3d 1416 43bc 3843 c63e 1617 b5bd
000000a0: 0eeb 203f a106 093e 5819 a9bd a36d 813d
000000b0: 8bb7 043e fc0c 1dbd 84a1 993c c701 84be
000000c0: 6b4a 693e ff06 a43e fe6b 13be fa9c 5d3d
000000d0: 397d 89bd 80e4 cebc 8088 ea3e 547f a73c
000000e0: e172 94be f1f8 35bf ca1b 1c3d fce2 41be
000000f0: e726 a13e 2921 573e 8364 833e ab01 4e3f
00000100: 1872 dabd 1375 e2be 73d2 c23e 7dc1 bcbd
00000110: fdb0 2f3d 5dbb b9bc afe5 2a3f a0cf 0ebd
00000120: d05e f13c 46b1 96be 88a2 e2be f256 143d
00000130: 30a9 c13d 9ec8 813e ff4f 2f3e 57ae e6bd
00000140: 1917 fd3d 6ceb 4bbf 2ab4 1abe fcf7 893d
00000150: d0ab 1cbf e033 d23e 5340 b33e 05d2 1bbe
00000160: 127a 583e b843 3a3e 46e8 8abe 9375 92be
00000170: f40b ecbd 3a76 41bd 6f86 5dbd 5cd6 a5be
00000180: 59df 3fbe faeb 6cbe 07d4 24bd 3df2 b4be
00000190: 1a3e 48be 0425 bebc 213e 783d 47be e4bc
000001a0: 0887 463e 32b1 153e 1b40 d33d f57a d7bd
000001b0: 770d 65be cc82 473d 3f24 633e fae4 17be
000001c0: c220 9b3d b111 82be 734f a93e 545c 023f
000001d0: 752a 46be a27d 273f a725 013e de48 ddbe
000001e0: eb3e c5be a002 82be 99de 013c 5db5 29be
000001f0: f6c4 febd 671e a63e b2cd 25bd d565 debc
00000200: 97fb a43e e6e7 4c3d d065 2e3e fd54 f93b
00000210: 2485 9f3e f9bf 653e d559 233f 3fbd 5e3e
00000220: ee51 823e 6d76 aa3d 0f2c e23c 411c f43d
00000230: b59d 54be 0507 c0bd f77a b33e eb13 4a3d
00000240: 1bca 233f aabe e93d 4b09 0f3e adda 07be
00000250: 52dc 133e e580 6fbe 2227 ad3e 42d9 0c3d
00000260: 5c8d 6ebc 9947 cebd 2bda 5b3e 7224 b33e
00000270: ddca 863d 8b77 143f 298c 72be 0ff8 753e
00000280: 44ee 243c 3ebb 3d3e 146d 2c3e 5b3a 303d
00000290: e6d4 283e c725 2abe a7c6 4dbe 35fc 5c3e
000002a0: 9fdf 913e fbc5 653c 41d6 c5bd a324 79bd
000002b0: 5a90 863e 6ab4 763e bc54 ebbd 3b14 153e
000002c0: 70bf 29be 0caa 5c3c bcfd 343e f3a2 1bbe
000002d0: c468 36bd 1390 3e3d 779e 17bd 6a27 ca3e
000002e0: c55c bd3d 9fda 393e 26cf d3be f9ba 373e
000002f0: 3d99 d83c 99ff 09be f6d9 103e 5616 073e
00000300: 0959 153d 7906 953e cfd8 043f 1e67 e7bd
00000310: 07e8 993e 53d2 bf3e 8473 833e b5f6 673e
00000320: 004e 2cbd 8386 203e a15e 063e 9b1b 1c3d
00000330: 6f84 ddbc 8eb0 adbc e617 893e 807e 37bd
00000340: 82e8 e13d c79a 5c3e 57ea 443e ad51 e23e
00000350: 1bc1 4d3c c569 403e 704b ef3d 75ac 4f3e
00000360: 97f8 863d ba98 153e 4043 213e 5a61 f03c
00000370: 1b9c 8a3e 97a5 113f 1494 2b3e 5308 41be
00000380: 8710 d43e 490e 973c 0f38 0bbe 619c 4cbe
00000390: 12a4 fdbd 3943 e9bd 69c9 ecbd fc58 cabc
000003a0: be7e 343f 068f 853e e7b4 f63d b383 e13e
000003b0: d744 dbbe 3cee a33e 2da6 783e f3db 243d
000003c0: a94e e13d ae07 473d 3d32 1fbe 0417 fb3d
000003d0: 74eb febd a7bd 383d aae1 85be 178c 853e
000003e0: c662 b93e e41e 5d3e 417a 90be c6c5 013e
000003f0: 2b31 ebbe abe3 883e 3f1d e0bc e6a9 fbbd
0.08358614 0.010839587 0.3232961 -0.2591181 0.084674224 -0.29590058 0.31652045 0.2323649
0.21402428 -0.13129723 0.21783018 -0.08806921 -0.4227651 -0.15367669 0.21811117 0.043767173
-0.0791037 -0.12313345 -0.096779816 0.21041271 0.38420898 0.041349757 -0.1618181 -0.05838848
-0.3286871 -0.037070006 0.3408022 0.32940418 0.2207182 0.16230023 0.035960637 0.58828765
-0.5685591 -0.584303 0.15300366 -0.16680174 0.077085026 -0.011907119 0.3872316 -0.08842294
0.62858665 0.13381435 -0.08256787 0.0631974 0.12960641 -0.03834246 0.018753774 -0.25782606
0.22782294 0.32036588 -0.14396665 0.054104783 -0.067133375 -0.025255442 0.45807266 0.020446457
-0.28993896 -0.7108298 0.03811244 -0.18934244 0.31474993 0.21008743 0.25662622 0.80471295
-0.10666293 -0.44229946 0.38051185 -0.092165925 0.0428934 -0.02267235 0.6675672 -0.034865975
0.029464155 -0.29432124 -0.44264627 0.03621573 0.09456098 0.2534837 0.1712036 -0.112637214
0.12357921 -0.796561 -0.1510779 0.067367524 -0.61199665 0.41055202 0.35010013 -0.15216835
0.21140316 0.18189895 -0.27130336 -0.28605327 -0.115257174 -0.04723189 -0.054083284 -0.32390106
-0.18737544 -0.23136893 -0.040241268 -0.35341063 -0.1955494 -0.02321101 0.060606126 -0.027922763
0.19387448 0.14618376 0.103149615 -0.10521499 -0.22368418 0.048708722 0.22181796 -0.14833441
0.075746074 -0.25404122 0.33068427 0.5092213 -0.19352134 0.65426075 0.1261202 -0.43219656
-0.38524565 -0.25392628 0.007926607 -0.16573091 -0.12439911 0.3244507 -0.04047937 -0.027148167
0.32223198 0.050025843 0.17031026 0.0076090083 0.31156266 0.22436513 0.6380895 0.21751879
0.25453132 0.08323369 0.0276089 0.119194515 -0.20763285 -0.09376339 0.35054752 0.0493354
0.63980263 0.114133194 0.13968389 -0.13267012 0.14439514 -0.23389013 0.33818918 0.03438688
-0.01456007 -0.1007225 0.21469943 0.34988743 0.06581662 0.5799491 -0.2368628 0.24020408
0.010066573 0.18528458 0.16838485 0.043024402 0.16487464 -0.16615973 -0.20095311 0.21580584
0.28490922 0.014024253 -0.09660006 -0.060825955 0.26282007 0.2409226 -0.11490771 0.14558499
-0.16576934 0.013468277 0.17674917 -0.15198879 -0.044533506 0.04652412 -0.03701636 0.39483196
0.0924621 0.18149804 -0.4136898 0.17942418 0.026440257 -0.13476409 0.14145645 0.13192114
0.036461864 0.291065 0.51893324 -0.11298965 0.30059835 0.37465152 0.2567407 0.22652705
-0.042066574 0.15676312 0.13122036 0.038112264 -0.027040688 -0.021202352 0.26776046 -0.044798374
0.110306755 0.21543418 0.19230019 0.4420294 0.012558247 0.18790348 0.116843104 0.20280631
0.065903835 0.14609042 0.1574831 0.029343296 0.27072224 0.56893295 0.16755706 -0.18850832
0.4141886 0.018439429 -0.13595603 -0.19981529 -0.123848096 -0.11389775 -0.115618534 -0.024700634
0.70505893 0.2608568 0.12046223 0.4404579 -0.42825958 0.32017696 0.24282141 0.040248822
0.11001331 0.04859131 -0.15546508 0.12260249 -0.12447253 0.04510274 -0.2614873 0.26083443
0.3620817 0.21593815 -0.28218272 0.12673101 -0.4593595 0.26736197 -0.027357696 -0.12288265

fc2.bias f4 [128]
00000000: f73c ca3d 0066 953e a7d2 69bd 00c7 763f
00000010: 8cfa 4abe eefd ab3e af2b 2c3f 9927 db3d
00000020: 9d6c 663f ec8b a43c a32b 273f 271e 423e
00000030: 61c7 613f 1f96 0b3e 5cba 0dbf 92c2 fcbd
00000040: e2f1 f63c a235 593f 6993 253f b775 393f
00000050: 414b 8b3f 87aa 5ebd 9803 123f 0b48 f43e
00000060: b352 0c3f 8d59 563f 8bd0 d53c b052 d53e
00000070: 7a81 5f3f 41e4 aa3e d240 533f 4fcb cb3e
00000080: e5d0 0d3f 36df 2c3f 4af7 033f f610 1b3e
00000090: be9f ca3e eef8 b43e 6d2b 093f 294d e23e
000000a0: 206e 003f 5e0e 173f df04 66bc 602a 6c3f
000000b0: bd10 503f c8f5 263f 662a 173d f54d 253f
000000c0: 5cda 1abe 68f3 0bbf 475d 7e3f e792 cd3e
000000d0: db1c 4cbe 3aa3 523f dd6c c53d 3fdd 723e
000000e0: ae7f abbe b490 823e ce46 dd3d f248 0e3f
000000f0: c150 263f 345f fd3e 8d71 893e ec52 403e
00000100: 6a24 9d3d ae63 f93e 6901 9fbe df3a 62be
00000110: 29ef 023f b3ad ae3e 9998 773f 7948 ab3e
00000120: 6ddb 5c3f 6703 003f 82a8 203f 850c 643f
00000130: ce76 293e 050d 91be efcc 253f 1165 34be
00000140: eb6f 103d 02ab 703e 18c2 b33d d8e2 f13e
00000150: d28d aabe 4ed9 213e ba3d 9f3d 121c c33e
00000160: c115 ba3e 274d 303e db94 29bd 0f39 833e
00000170: 6520 f5be 2ad1 3b3f f5db 0c3f e95d 163c
00000180: 1f35 f83e 0aef 633e f68d 843e 0721 e5be
00000190: daa8 213f 4be1 a5be 590c 8fbd a715 d73e
000001a0: 4e51 173f 22d0 a63b 3d47 a53e ce4c 883e
000001b0: 4a21 753d 5ae2 83bd 12d3 ec3e 0aae 78be
000001c0: 179b 0c3e 6837 583f e95d 673f 8788 413e
000001d0: 1b81 da3c f195 083e 0798 163f 14b7 953d
000001e0: 6e8c 6e3f eb85 6e3f bf7b 2a3c f5f9 d73e
000001f0: 68e9 1e3f ed6d d73e b8c6 f93e 05f4 913e
0.09874909 0.29179382 -0.05708566 0.963974 -0.19822139 0.3359217 0.67254156 0.10700912
0.9000948 0.020086251 0.6530096 0.18956815 0.88194853 0.13631485 -0.55362487 -0.12341799
0.030144636 0.8484746 0.64678055 0.72445244 1.0882341 -0.054361846 0.57036734 0.47711214
0.5481369 0.83730394 0.026100418 0.41664648 0.8730694 0.3337727 0.8252078 0.3980355
0.5539687 0.6752809 0.5154921 0.15143189 0.39575 0.35346168 0.5358189 0.44199494
0.5016804 0.590063 -0.014039247 0.9225216 0.8127554 0.6521878 0.03690567 0.6457208
-0.1512236 -0.54668283 0.9936108 0.4015114 -0.19932882 0.82280314 0.09639905 0.23717211
-0.3349585 0.25501025 0.108045205 0.55580056 0.6496697 0.49486697 0.26844445 0.18781632
0.07672961 0.48708862 -0.31055763 -0.2209277 0.5114618 0.34116897 0.9671722 0.3345373
0.8627232 0.5000519 0.6275712 0.89081603 0.16549227 -0.28330246 0.6476583 -0.17616679
0.035262983 0.23502734 0.08777255 0.4724338 -0.33311325 0.15805551 0.07775445 0.38107353
0.36344722 0.17216931 -0.041401725 0.2562947 -0.47876278 0.73366034 0.5502313 0.009177663
0.48478028 0.22259155 0.25889558 -0.4475176 0.6314827 -0.32398447 -0.06984777 0.42008707
0.59108436 0.0050907293 0.32280913 0.26621097 0.0598462 -0.064396575 0.46254784 -0.2428514
0.13731037 0.84459543 0.9037767 0.18899737 0.02667289 0.13338448 0.58825725 0.0731031
0.9318303 0.9317309 0.01040548 0.4218289 0.620749 0.42076054 0.48784423 0.28506485

fc3.weight f4 [64, 128]
00000000: 5984 4a3f 0433 f83f 018e 803e 086c 693e
00000010: 50ff a7be 7ba6 173e a731 1ebe 6ef8 f43e
00000020: 3b1d ecbe c3c3 7a3f f958 fc3e a706 0d3f
00000030: 769a bd3e 543c 1f3f ecc2 22c0 5a2b 5dbe
00000040: a4f7 3a3f 1dc2 64be bee6 5abe 5b2d ebbc
00000050: 2057 fdbe bc29 bf3f 05a9 c13e 5bb7 02bf
00000060: 7983 343e 3746 5ebd 7d97 9c3e d076 413e
00000070: 2837 36be 6b29 063f 7025 a0be 325c 02be
00000080: 8758 80bd 5e80 243d d4c5 3ebf 7ca4 e93e
00000090: 171d f53f 8e1a 853e 002b a13e 9f0d 553f
000000a0: 88e4 f73e 7a54 c23e 20f6 e5bc a1bf 12bf
000000b0: 3d62 0abf 0075 d93f 52a0 4b3f 522c d7be
000000c0: bc37 023f fabb 74be 5d28 a83e 7fff 23bf
000000d0: 4e43 5a3f c7e6 6cbf eb2c b03f ac8f ae3e
000000e0: 46d8 ac3f 1910 8bbe ed72 33bd 2b00 eb3e
000000f0: e6b4 c53e 83dd 883f 281b 2bbf eb64 163f
00000100: c2e4 e0bd 6230 ce3f 7134 533f 76c4 463f
00000110: 9b52 a7be 024e d1be d31d 29bf 89b6 8cbe
00000120: 4a28 93be ed7f 2d40 cb99 2e3f 6874 963e
00000130: a0a3 a1be f204 fa3b 2c09 843c 80e9 1f3f
00000140: 498f 1c3f 579e 283f 4aa6 153e 55c0 8e3d
00000150: 5198 fb3d 5413 833e d78b 913e 2b8a 3040
00000160: 269e 0e3f 9c4e dabf 438c fe3e 9511 073f
00000170: 0e9a 14bd 6319 ad3e bef9 d4be 161d 1b3f
00000180: 1155 4e40 508c 5dbb 9773 1c3f db86 afbd
00000190: 830c a43e 5050 6f3e 6bd6 b73e 33bc aaba
000001a0: bd16 cabd 4258 693e cf52 c53e 4834 983e
000001b0: 414d 6c3f 8078 823e 9b6f 0e3f 26a2 05bc
000001c0: f471 0b3f 7c36 b03e dc82 f13e f2fd 363e
000001d0: bef6 ba3f 400c 9b3e 9269 65bf 8658 b2be
000001e0: 30d8 19bf 1835 0c3f 4e7e 4a3f c703 213f
000001f0: 2bf4 313e 5b32 b7be 80fe 1840 287a fa3e
00000200: aad6 6a3e 0760 babe bf0c b73d 695f 323f
00000210: e2cc 98be e6f1 323f bd2d ed3b d832 813e
00000220: 012c 4fbe b334 44bf d7d3 a13e a617 553e
00000230: 1303 d9be 2d79 463d 85cf 2d3f 5cf0 3f3f
00000240: 1c64 aabe 396d 213c a05d 4c3d 9d83 9a3e
00000250: d340 12bc 8143 ba3b 5fb1 cd3e 9c85 313e
00000260: 1c96 78bc 692f 543e 4d58 5dbe 5f2a ec3d
00000270: 3489 543e cbef 453e 5b71 063e 79b5 1c3f
00000280: 4670 30bd 44d1 16be a0c2 60bc 8724 bf3e
00000290: 0b2f e1be 716e fb3e 1b64 f53e 34d5 f3be
000002a0: 0e80 453f d2aa 3f3e c330 c9bd 375a ef3d
000002b0: 2382 e43e 52b0 6b3e dd53 e53d 0c9a 303d
000002c0: e77f 5f3e 56d5 47bd d73c 4cbe 5836 46bf
000002d0: 9092 b8be fe40 6abe 86da 4dbc d40d a13e
000002e0: f7ac 11bf 611f bb3d 3123 8fbe 1563 f43e
000002f0: 69f5 b73e 0ebc 563d 5224 b73e cfb0 15bf
00000300: 2e9f 12be 17fe 00be 3e35 5e3e 0da3 723d
00000310: a3a4 0a3d 96b2 933d 2818 d03d be75 86bd
00000320: 421a a73e d185 b8be 074b ea3e 0915 b5bc
00000330: 37c4 193e 5c61 dabe 8d56 0e3f f664 b3bd
00000340: d91b 34bf 32c0 053f 3be5 82bd 48c9 093d
00000350: 530d a63e 65b7 aa3d 2815 32be 3397 a5bf
00000360: 8039 57bf 5168 c23d dcec c43e 5f83 98bd
00000370: eb66 0fbf 82f6 8e3c b383 163e 35b0 e4bd
00000380: 973a 933d e3df 073e 2a8d 43bf 14f7 fdbd
00000390: 0cda 553f 4204 afbe 8d09 9cbe f052 4dbd
000003a0: def8 b6be f3ef 92be 6e95 65be 463b ef3d
000003b0: 5527 00bf 908f 0cbf e42d 0d3f a1c6 f0bc
000003c0: 4150 0a3c 3332 0ebe fc1d 053f fe87 c13e
000003d0: 5ba7 22bf 9c9e 02be c0b1 84be cc4c 1bbe
000003e0: 00e9 ae3e ded7 f6bc 5d6a b7be 0ff0 cb3e
000003f0: 9e28 8a3d ae61 143e a724 d7bf 1ab9 153f
0.79108196 1.9390569 0.2510834 0.22795117 -0.32811975 0.14809601 -0.15448628 0.47845787
-0.4611605 0.9795496 0.4928663 0.55088276 0.37031907 0.6220143 -2.543147 -0.21598569
0.7303412 -0.22339673 -0.21377084 -0.02870815 -0.49480534 1.4934611 0.37824264 -0.5106103
0.17628278 -0.05426618 0.30584326 0.1889298 -0.17794478 0.5240695 -0.31278563 -0.12730482
-0.06266885 0.040161483 -0.7452061 0.45633304 1.9149503 0.25996822 0.3147812 0.8322391
0.48416543 0.37955076 -0.028071463 -0.5732365 -0.5405615 1.698883 0.79541504 -0.42026
0.50866294 -0.23899832 0.32843295 -0.6406173 0.8525895 -0.9253964 1.3763708 0.34093988
1.3503501 -0.2716072 -0.043810774 0.45898566 0.38614577 1.06926 -0.6683831 0.5874774
-0.10981132 1.6108515 0.82501894 0.77643526 -0.3268021 -0.40879828 -0.66061133 -0.27483013
-0.28741676 2.710933 0.6820342 0.29385686 -0.31570148 0.007629984 0.016117655 0.6246567
0.61156136 0.6586661 0.14614215 0.06970278 0.122849114 0.25600684 0.28427002 2.758433
0.55710065 -1.705524 0.49716386 0.52761203 -0.03627973 0.3380843 -0.41596788 0.60591257
3.223942 -0.0033805557 0.61113876 -0.085706435 0.32040796 0.2337048 0.35905775 -0.0013026058
-0.09867618 0.22787574 0.3853974 0.29727387 0.9230538 0.2548256 0.55639046 -0.008156335
0.54470754 0.34416568 0.4717015 0.1787031 1.460655 0.30282784 -0.8961421 -0.34833163
-0.600955 0.54768515 0.79098976 0.6289639 0.17378299 -0.35780606 2.3905334 0.48921323
0.2293345 -0.36401388 0.08937978 0.69676834 -0.29843813 0.6990036 0.0072381184 0.25234103
-0.2023163 -0.7664291 0.31606933 0.20809802 -0.42385158 0.048455406 0.67894775 0.74976134
-0.33279502 0.009852701 0.049893975 0.30178538 -0.008926588 0.0056843166 0.40174386 0.17336124
-0.015172508 0.2072121 -0.21615715 0.11531519 0.20755464 0.19329755 0.13129179 0.61214405
-0.043075822 -0.14728266 -0.013718277 0.37332556 -0.43981203 0.49107698 0.47927937 -0.476236
0.7714852 0.18717507 -0.09823754 0.11687129 0.44630536 0.2301648 0.11197636 0.04311566
0.21826135 -0.048787437 -0.19945084 -0.7742667 -0.36049318 -0.22876355 -0.012564307 0.31455863
-0.5690455 0.091368444 -0.27956536 0.47731844 0.3592942 0.052425437 0.35769898 -0.58472914
-0.14318535 -0.12596928 0.21699998 0.05923753 0.033848416 0.07211797 0.101608574 -0.06565426
0.3263722 -0.36039594 0.45760366 -0.022104757 0.15016256 -0.42652404 0.55600816 -0.08759491
-0.7035499 0.5224639 -0.063913785 0.033639222 0.3243204 0.08335761 -0.17390883 -1.2936767
-0.84072113 0.09492553 0.3846196 -0.07446932 -0.56016415 0.017451528 0.14698677 -0.11166421
0.071889095 0.13269 -0.76387274 -0.12400642 0.8353584 -0.34182936 -0.30476037 -0.050127923
-0.35736746 -0.28698692 -0.22420284 0.116812274 -0.50060016 -0.5490656 0.5514815 -0.029391589
0.008441986 -0.13886337 0.5199888 0.37799066 -0.63536614 -0.12755817 -0.25916862 -0.15166014
0.3416214 -0.03013223 -0.35823336 0.39831588 0.06746028 0.14490387 -1.680806 0.5848557

fc3.bias f4 [64]
00000000: 95a2 10bd 80d7 873f 1864 393d 5a35 f53e
00000010: 3e7a 18bd 1fbf 1fbd fa2b a6be 9c11 3e3f
00000020: 08ff 193e 2f02 3f3c 43db f6bd 097d 473e
00000030: 55b2 be3a f4ae 113f 44d8 57bd 1bd2 233e
00000040: d025 fa3e 34c9 7a3d ec93 b43d 974d 5e3e
00000050: a914 143f a1fb ddbd a066 8d3e d128 9dbd
00000060: ec05 8f3d f6b4 8b3e 1fce efbd 3c7e fcbd
00000070: ca3e 67be bec7 6fbb 24c2 dd3e a8bb 3cbc
00000080: bccd cd3d fc6c d8be 54b2 af3e 3db2 b33e
00000090: a62d 2d3f ed99 a13e 13b8 693d 079e 11be
000000a0: 6164 573f 1531 853e b0a8 9dbd 2543 f93e
000000b0: 0978 cfbd bffb 7a3c 092f 203f 0cee 053f
000000c0: 0666 9e3e bff6 9e3e 82ce e2bc 04a7 723d
000000d0: 6075 a13e 2a59 bd3f 94e2 c03d 96b2 15be
000000e0: bb26 483d 312b d0be faf8 d7bd 9bd1 e33d
000000f0: 33e1 823f 0244 7e3d 2ac6 a03c 59ae 3c3c
-0.0353113 1.061264 0.045261472 0.47892267 -0.037225954 -0.039000627 -0.32455426 0.7424562
0.15038693 0.011658235 -0.120535396 0.19481291 0.0014548997 0.5690758 -0.05269648 0.15998118
0.48856974 0.06122704 0.08817276 0.21709286 0.57844025 -0.1083901 0.2761736 -0.07673801
0.069835514 0.272865 -0.11709236 -0.12328765 -0.22582546 -0.0036587561 0.4331218 -0.01151935
0.10049006 -0.42270648 0.3431574 0.35096923 0.6764778 0.3156275 0.057060312 -0.14220439
0.8413754 0.2601401 -0.0769819 0.4868404 -0.10130317 0.01531881 0.6257177 0.52316356
0.30937213 0.31047627 -0.027686361 0.05924131 0.31534863 1.4792836 0.09418216 -0.14618906
0.04886506 -0.40657952 -0.105455354 0.111239634 1.0224975 0.062076576 0.019625742 0.011516177

fc4.weight f4 [10, 64]
00000000: 3c56 febb d56a 993e e80b 523d 653a 43be
00000010: 5596 973d 9701 31bc 9e97 69be ace2 733e
00000020: 217b 23be 76ca dabd 083c 97be d59a 26bd
00000030: 9b61 613d 7ebc 9f3c 9175 2bbd 36df 963c
00000040: de12 3c3c 783d b33d 8b84 943b 9ebe e1be
00000050: eaf8 54bc 87ab bfbd 4c3f d53c 8dda 743d
00000060: b6b4 e83c 8a27 933d 7392 8ebe 2888 023f
00000070: 45c9 f53b 8978 1d3d c4d0 d63e 7d22 1d3b
00000080: e4da f23e ac2b 06bf cc37 8a3c 160f a63e
00000090: d891 d43c b3ce c8bb 1847 ad3d 5d50 c6bd
000000a0: f999 033e c8f0 233e 9020 72be 1f34 a93b
000000b0: 7a16 a0be a750 86bd 7c17 03bb a770 283e
000000c0: 2244 88bd 0d3b 0f3d 25fb 0ebc 4d9e 57be
000000d0: 3a7b fcbc b5eb e43d 1971 5abd 64d9 e63b
000000e0: bf21 7ebd 4901 9a3d e8ea 4e3d 19dc 08bc
000000f0: 0fe1 c73e 6a80 e13d 3add fabd 6c4a 423d
00000100: a539 cf3d c1be 773e 1a11 be3d 18e7 afbe
00000110: 5340 b83c f62f e53c 74e2 27bd 504d 843f
00000120: 5428 903e 0103 edbd b24f d1be d0db a7bc
00000130: bfe6 1a3f a5a8 003d f5fc 58bd 8611 8d3d
00000140: 9d45 d3bc 00b1 b7bd e3a6 f0bd ec85 9cbe
00000150: edb3 213d 40fd 1abd bd5b 863d 2b72 733c
00000160: 6df7 97bd a5d2 bb3d daf5 f7be 0e7b 363e
00000170: 434e 11bd b267 4fbd 3e27 0a3e 8f7c 96bb
00000180: 098c 60bf 9573 933c fa38 753e d1f7 fbbd
00000190: 75da 563d b6af 103d 586a 49bd a723 a6be
000001a0: 8caf 873e 601b ce3e fef9 97be 10b5 61bc
000001b0: 1ac9 da3e 16ce 933c a1a8 5c3c 4b74 143e
000001c0: 313f 2fbe e48f 9e3c 6265 9e3c 6f65 56bf
000001d0: b134 51be 3fe4 543e ccfa 003f 3ac2 a6bc
000001e0: 26e1 e9bd 9a3e 30bf b292 32be 131d cc3e
000001f0: 537b b23e 181a 97bd 8d70 3abd 5eb4 c5bd
00000200: f117 16be 430e 1d3f b97c 1abe 53a5 143e
00000210: bcfa 6b3a b70a 7c3d 2ce7 7dbb ec37 2cbe
00000220: 87ba c03e 201b debc 0d1d 2cbc 0f91 113e
00000230: 4aea 5dbf f460 203f ef0a f6bc 0a47 56bc
00000240: 8703 573d 4432 143c 20eb 153e 7a05 05be
00000250: f7d8 86bd 4f68 0abe 086d d03c bce9 333e
00000260: 0395 3fbd e75f 1c3f f428 92bd 6ba3 c1be
00000270: 1436 4a3e 3ff1 e33c 44c0 df3e 6c61 9dbd
00000280: fcf9 323f af1c ab3d a421 553d 7e71 163f
00000290: 8104 abbd a4fc d4bc dc1d 9fbd d3b3 61be
000002a0: 3c51 73be aabd 963e 1bdb fdbd 8bb1 bd3c
000002b0: 616f f1be e7c1 a5bd 6c0e 48bd 10de 70be
000002c0: 3b34 05bf a6e6 2f3e 5dfe acbe cf52 eb3e
000002d0: 3ded e8bd e72a 0a3f 67e0 05bf f979 f73d
000002e0: 6918 29bd ba07 39bd 742e 24be da83 0f3f
000002f0: 9e6c 753d 1832 993d bdc8 663d ce49 8e3d
00000300: 6e4b a7be dffb ebbe c9e6 a2bd 81c7 303f
00000310: 5d03 c8bc d7f4 0abd 35e4 543f 8297 80be
00000320: 5930 353f 13f7 cfbc c9b8 a33e 6c6f 213f
00000330: 9ccd 8d3f 3c93 a43f 619c 92bd b446 873d
00000340: 171f 243e 39ff f2bd 4f48 6ebe 12ac 26bf
00000350: d592 74bd a0af 8abe 680b 943e 5f54 7d3e
00000360: ac39 ea3d f169 dd3e e99e 4cbf c7e5 0dbd
00000370: dae5 62ba a4f2 e6bd df52 003f 7552 7bbe
00000380: 38ac c8bf 0a8e 29bf d067 293e d676 133f
00000390: 64e9 da3d c855 563e 7cb0 ebbc e7c2 c93e
000003a0: b209 473e 735b e2be 2cf2 8fbe 1928 323c
000003b0: c7e6 94be 2057 df3d 9417 c5bb da59 c7be
000003c0: e94c adbd 9e0a 883e de87 d3be b3f7 8e3f
000003d0: 9798 13bd 4383 033e c8e9 1dbe 9980 9abe
000003e0: 3d22 6dbe 96df eebe fbc4 083f b0a2 cc3f
000003f0: 2025 a63e f2b5 a93d 2af5 503d 6ae0 a5bd
-0.007761745 0.2996432 0.051280886 -0.19065244 0.074017204 -0.010803602 -0.22811744 0.23816937
-0.15964939 -0.106831476 -0.29537988 -0.040675003 0.055024724 0.01949906 -0.041860167 0.018416982
0.011479108 0.087519586 0.004532402 -0.44090742 -0.012998799 -0.09358888 0.026031159 0.05977874
0.028406482 0.07185276 -0.27846107 0.5098901 0.0075008 0.03844503 0.4195615 0.0023976855
0.47432625 -0.5241039 0.01687231 0.32433385 0.02594845 -0.006128156 0.08460826 -0.09683297
0.12851705 0.1600982 -0.23645234 0.005163684 -0.31267148 -0.06558352 -0.0020003011 0.16449223
-0.0665362 0.034968425 -0.00872687 -0.2105648 -0.030820478 0.1117777 -0.053330515 0.007044958
-0.0620439 0.075197764 0.050516993 -0.008353257 0.39038894 0.11010821 -0.12249227 0.047434255
0.10118417 0.2419386 0.092806056 -0.34355998 0.02249161 0.027976971 -0.040987447 1.0336094
0.28155768 -0.115728386 -0.40881115 -0.020490557 0.6050834 0.031410832 -0.052975614 0.06888108
-0.02579003 -0.08969307 -0.11750581 -0.30570924 0.03947823 -0.037839174 0.065604664 0.014858763
-0.074202396 0.09171037 -0.48429757 0.17820379 -0.035475027 -0.050636 0.13491532 -0.0045924853
-0.87713677 0.01799945 0.23947516 -0.123031266 0.05245443 0.03532382 -0.049173683 -0.32449076
0.2650112 0.4025526 -0.29682916 -0.013776079 0.42731553 0.018042605 0.013467939 0.14497487
-0.1711395 0.019355722 0.019335452 -0.83748525 -0.20430256 0.20790194 0.50382686 -0.020356286
-0.11419897 -0.6884552 -0.17438772 0.39865932 0.34859714 -0.07378024 -0.045517493 -0.09653543
-0.1465757 0.61349887 -0.1508664 0.14516191 0.0009001901 0.061533656 -0.0038742526 -0.16818208
0.3764231 -0.027112544 -0.010504973 0.14215492 -0.8668562 0.6264794 -0.03003451 -0.0130784605
0.0524936 0.009045187 0.14640474 -0.1299037 -0.065843515 -0.13516353 0.025442615 0.17569631
-0.046772968 0.61083835 -0.071367174 -0.3781999 0.19747192 0.027824996 0.43701375 -0.076845974
0.69912696 0.0835508 0.052034035 0.58766925 -0.083504684 -0.025999375 -0.07769367 -0.22041254
-0.23761457 0.29441577 -0.12395307 0.023155948 -0.47155288 -0.080936246 -0.04884188 -0.2352221
-0.5203282 0.17177829 -0.33787814 0.45961615 -0.113733746 0.53971714 -0.52295536 0.12083811
-0.041283045 -0.045173384 -0.16033345 0.56060565 0.05991804 0.07480258 0.056343783 0.06947671
-0.32674736 -0.460906 -0.07954175 0.6905442 -0.024415666 -0.033924904 0.83160716 -0.2511559
0.707769 -0.025386369 0.31976917 0.6306064 1.1078372 1.2857432 -0.07158733 0.066052824
0.16027485 -0.11865086 -0.23269771 -0.6510631 -0.059710342 -0.27087116 0.28914952 0.24739216
0.11436781 0.4324489 -0.7992998 -0.03464296 -0.00086554664 -0.11276749 0.5012645 -0.24543174
-1.5677557 -0.6623236 0.16543508 0.57603204 0.10689047 0.2093116 -0.028770678 0.3940651
0.19437292 -0.44210395 -0.2811445 0.010873818 -0.2908232 0.1090529 -0.0060147736 -0.3893574
-0.08461935 0.265706 -0.41314596 1.1169342 -0.036034193 0.12843041 -0.15421212 -0.30176237
-0.23157592 -0.46654958 0.5342557 1.5987148 0.324502 0.082866564 0.051015057 -0.08099444

fc4.bias f4 [10]
00000000: be9e 3b41 bee5 4e40 4e70 1140 b3af fa3e
00000010: 987a c4be b5a9 02bf a5d9 2bbe c1ed b13d
00000020: 745a 8d3c df47 843c
11.726255 3.2327724 2.2724795 0.48962173 -0.38374782 -0.510402 -0.16782244 0.08687926
0.017255045 0.016147552

fc1.weight f4 [32, 7]
00000000: c888 8dbe 3c58 fdbf 23f2 bbbe 47fe 76bd
00000010: 5a35 b33c 68a8 3c3d cbf9 8dbc 1b71 dfbe
00000020: b3f1 96be 01fc 71bd 0251 73bf a8bc 2cbd
00000030: 384a 0ebc 3d04 153b d775 4bbf be73 30bf
00000040: 517b 1d3e e570 37bd e7ba 11bc 51c8 a6bc
00000050: a3b0 9b3b 1841 32bf 8181 973d 217f 1fbf
00000060: c945 22bf fd36 233e 623c c33d d758 87ba
00000070: d93e 31bf b73c 0ebf b607 28bf 5667 bf3e
00000080: dbfe 0e3e d404 613e 2668 9f3c 88c8 0ebf
00000090: a42d 52be b503 223f 3c60 d1be a19d f5bc
000000a0: 39bc 133e c3ae 39bb f9a9 29bf cc82 c03d
000000b0: 925c 5bbf 8b47 a5be b8f4 c7bb 7e88 dcbd
000000c0: 7ce9 dbbb 8923 2a3f 2528 0c3f 5982 3d3f
000000d0: 4b7f 28be 6886 82bc 9d96 53bb 3c00 9bba
000000e0: 6338 f53e 407a 06bf 8073 9b3e 559b 873e
000000f0: 8d51 253a 8796 2a3c 21e9 4ebb 3d97 90bf
00000100: 9739 623f eefd 1abe db10 0d3f b78d 343d
00000110: f183 283d f400 313c f05a de3e a398 26bf
00000120: 2580 553f 128d e6be 8e08 f7bc fbf9 3e3d
00000130: d742 2e3b cee9 aebe 4d04 8dbf 49bf 953f
00000140: 0948 033f bbe3 0bbd f7ab 913d 9017 03bc
00000150: 9388 24bf 86ea 703a 7e15 32bf 64be 0cbf
00000160: 5e77 5a3d 9080 343d a198 da3b 5421 cebe
00000170: 7a50 ac3f 6d98 8f3f 33f8 66bf 7b02 a1bc
00000180: 81b4 ba3d 4d95 ddba 9884 6c3e 5849 26be
00000190: e15f b3bd 20ae f3bc a06b 2f3f f00c ce3e
000001a0: b177 1dbc 90ca 0b3f 81b4 293f 479a 13be
000001b0: c72c 67bf c22c 8e3b 8987 863d 2226 f239
000001c0: c13a 783d 9c8b 2c3d 1d12 973d bd75 833e
000001d0: b4ce 31bf 8a55 f73e bdea fa3a 1ecc 173f
000001e0: 3e53 a93c c833 273f c671 043f 7821 b33e
000001f0: 98c4 563e 830e 0b3b ce5f ab3e 5382 3a3e
00000200: 102a b4be f82a 4dbf 3979 383d 3625 1d3f
00000210: 0adb af3c 00d5 6ebd c329 8b3e 8654 3ebd
00000220: 3be1 423e c3df 8a3d 93fd 52be 6b5b 223d
00000230: 7ff4 253f a537 9f3e d5ee 783f 8de4 6fbf
00000240: 64b7 d5bc 512f cd3d d745 2cbb dfbd af3b
00000250: 75a5 0f3e cca1 7abe 331c 0fbf dc8e 72be
00000260: 1841 f2be 2599 aebc a8ef e9be 1e95 053e
00000270: 08bf 29bf 7363 65be 0356 6abd 9c70 a23e
00000280: a368 32bb ea1c a93f 8082 8dbf e114 e8bc
00000290: 5806 52bd ffba ae3a 8699 1d3d 0ff9 123c
000002a0: 8525 7cbf 213b 533f 78de 483d 8db2 d33c
000002b0: dabc 1d3b adf3 0a3c af20 103b 4b7f 6e3f
000002c0: 32f9 873f 8a7a d4bd 1d02 5dbe 30a1 a7bc
000002d0: 6e54 e53c a6d2 ce3b 8e74 d43e 812d 34bf
000002e0: 4a7c 6f3f 4087 113e 2aab 2cba 8ca8 b03c
000002f0: 6ae0 bdbb ec9b f3bd 496a aa3e 9af5 bbbe
00000300: e5db f33e c7ab 18bf 5459 503f c589 c4bc
00000310: d9be 18bf cab8 86bf 7023 e63b e1e3 49bf
00000320: 0ac4 f13b da0b 9cbb d2b8 923b f88f 4bbd
00000330: 0972 e9bc 9874 44bc d50e 253f 9338 423e
00000340: 1190 6e3e ef1d 33bd 0112 463f a0f9 2fbe
00000350: eaaf 91bf 55b8 90bc 15cc 73bc d873 f33c
00000360: 362c 933c f29e 113f 13e1 653f 3021 2f3e
00000370: 5da3 843e 9143 473c 2ef0 553b 7f42 a73b
-0.27643418 -1.9792552 -0.36708173 -0.06030109 0.021876026 0.046059042 -0.017331025 -0.4364098
-0.29481277 -0.05907822 -0.95045483 -0.042172104 -0.008684687 0.0022738122 -0.79476684 -0.6892661
0.15379073 -0.0447854 -0.008894659 -0.02035919 0.0047512813 -0.69630575 0.07397748 -0.6230336
-0.63387734 0.15938945 0.095330015 -0.0010326159 -0.6923652 -0.55561393 -0.65636766 0.37383527
0.13964407 0.21974498 0.019458842 -0.55774736 -0.20525223 0.63286906 -0.40893734 -0.02998239
0.1442727 -0.0028332926 -0.6627498 0.093999475 -0.85688126 -0.32281145 -0.006102171 -0.10768221
-0.006711183 0.6646047 0.54748756 0.7402702 -0.16454808 -0.01593323 -0.0032285817 -0.0011825631
0.47894582 -0.5253029 0.30361557 0.26485696 0.00063064025 0.010411865 -0.003157206 -1.1296154
0.88369125 -0.15135929 0.55103844 0.044080462 0.041141454 0.01080345 0.43428755 -0.65076655
0.8339866 -0.45029503 -0.030155446 0.04662512 0.0026590133 -0.34162754 -1.1016937 1.1699001
0.5128179 -0.034152728 0.07112878 -0.008001223 -0.64270896 0.000919022 -0.69564044 -0.54978013
0.053336494 0.04406792 0.006671027 -0.40259802 1.346206 1.1218392 -0.9022247 -0.019654503
0.0911646 -0.0016905457 0.23097456 -0.16238916 -0.08758522 -0.029746115 0.685236 0.40244246
-0.009611056 0.5460596 0.6629105 -0.14414321 -0.903027 0.0043388316 0.0656882 0.00046186248
0.060602907 0.04212533 0.07376502 0.25675765 -0.6945603 0.4830745 0.0019143444 0.59295833
0.020669576 0.65313387 0.51736104 0.34986472 0.20973432 0.0021218366 0.3347153 0.18213777
-0.3518834 -0.8014369 0.045037482 0.61384904 0.02146675 -0.0583086 0.271803 -0.046467327
0.19031231 0.067809604 -0.20604543 0.039637964 0.64826196 0.3109714 0.9723943 -0.93708116
-0.026088424 0.100187905 -0.0026286745 0.0053632106 0.1402796 -0.24475783 -0.55902404 -0.23687309
-0.47315288 -0.02131326 -0.45690656 0.13045165 -0.66307116 -0.22401218 -0.057210933 0.3172654
-0.0027223013 1.3211949 -1.105545 -0.028330268 -0.05127558 0.0013330876 0.03847649 0.008970513
-0.9849475 0.825121 0.049040288 0.025841976 0.0024068863 0.008480948 0.0021992137 0.93162984
1.0622923 -0.10374935 -0.21582837 -0.020462602 0.02799436 0.0063117323 0.41495174 -0.70381933
0.93549025 0.1421175 -0.0006586785 0.021564744 -0.0057945745 -0.11894974 0.33284214 -0.36710817
0.47628704 -0.5963711 0.81386304 -0.023991475 -0.5966621 -1.0525143 0.0070232674 -0.7886334
0.007378106 -0.004762155 0.0044775987 -0.049697846 -0.028496759 -0.011990689 0.64475757 0.18966894
0.23297144 -0.04372972 0.7737122 -0.17185068 -1.138181 -0.017666021 -0.0148802 0.029718325
0.017965417 0.56883156 0.8979656 0.17102504 0.25905886 0.012162105 0.003264438 0.0051043625

fc1.bias f4 [32]
00000000: c3b1 ecbe 488a 9dbf e09d 493f ebc4 53bf
00000010: dab1 463f 9e16 c53f 27e8 91bd c776 de3c
00000020: e06c 1a3f e441 eabe 1eea 4a3f be96 1dbe
00000030: d05e 2c3f 4ebe 803f bc33 233f 859d 9e3a
00000040: 3967 673f 8e6f aebe 2de3 893f a3a9 0c40
00000050: 4b3d 783e 6099 de3f 6139 4bbe 35b5 a1be
00000060: fc38 673f 634a dd3e 25e8 cabd b9f9 cabe
00000070: 95e1 4d3f b739 d93f 77ea 023e 992e f9be
-0.4622937 -1.2307825 0.78756523 -0.8272235 0.7761513 1.5397527 -0.07124358 0.027156247
0.6032238 -0.45753396 0.79263484 -0.15389535 0.6733217 1.0058076 0.63750815 0.0012101388
0.9039188 -0.34069484 1.0772454 2.1978538 0.24242131 1.7390556 -0.19846107 -0.31583562
0.90321326 0.43220815 -0.09907559 -0.39643648 0.80422336 1.6970738 0.12784754 -0.48668364

fc2.weight f4 [128, 32]
00000000: 3b5c ab3d 1b9f 2d3c ab63 a53e 0aa7 84be
00000010: e137 ad3d 4d7a 97be 2efe a13e eba0 6d3e
00000020: 434b 5b3e 702e 06be 76ee 5e3e 1a43 b4bd
00000030: 8373 d8be 7061 1dbe ff1f 5f3e 551a 333d
00000040: e232 a2bd b1dc fbbd 9e0a c6bd be61 573e
00000050: 8db0 c43e 611b 293d ba93 25be eb2b 6fbd
00000060: 094f a8be 96a1 17bd 707b ae3e c89a a83e
00000070: a11b 623e 3148 263e 1718 133d 308b 163f
00000080: d086 11bf a09c 15bf 9ac9 1c3e 250f 2abe
00000090: 806e 9d3d fe00 42bc 620c c63e f468 b4bd
000000a0: 34e0 203f c2c0 083e ce75 a9bd 5382 813d
000000b0: 4ea9 043e 20e3 1cbd b83b 9b3c 2ff7 83be
000000c0: ac4f 693e 36d4 a33e 0076 13be cd45 5d3d
000000d0: 6e29 89bd 7d69 cfbc fb84 ea3e 83d6 a63c
000000e0: 5e82 94be dcfa 35bf e4b1 1b3d 0802 42be
000000f0: 520b a13e f0f0 563e b76c 833e f9f4 4d3f
00000100: fe43 dabd 0581 e2be 9ea9 c23e acca bcbd
00000110: 18af 303d 03b2 b9bc 23cc 2a3f 31f8 0ebd
00000120: c28d f13c ead5 96be 6881 e2be d5b5 143d
00000130: 648a c13d d9c8 813e e521 2f3e 0493 e6bd
00000140: a090 fd3d 5d46 4cbf 4c68 1abe 08d1 893d
00000150: 35ac 1cbf f820 d23e 293e b33e 57ab 1bbe
00000160: d542 583e a87b 3a3e 83ab 8abe 0d63 92be
00000170: ca07 ecbd ba6a 41bd e144 5ebd 1e35 a6be
00000180: 76f1 3fbe 17f8 6cbe 58a7 24bd 8cd9 b4be
00000190: 675d 48be c2c4 bebc cdbe 773d 5239 e6bc
000001a0: 5174 463e b581 153e c55f d33d 6b03 d8bd
000001b0: 910f 65be 019f 473d c01d 633e 7a1f 18be
000001c0: 472a 9b3d 124d 82be 143d a93e 6357 023f
000001d0: 9029 46be 517d 273f 12dd 003e 833c ddbe
000001e0: bc45 c5be 99fb 81be c7f7 023c eec9 29be
000001f0: 8896 febd 9e20 a63e f2c5 24bd ca47 debc
00000200: 6c0a a53e 57cf 4d3d d36d 2e3e 9c35 fc3b
00000210: ae89 9f3e bcc6 653e 205e 233f b5e9 5e3e
00000220: 0e74 823e 26b0 aa3d cc8f e23c cf65 f43d
00000230: 9484 54be 48f9 bfbd 5f47 b33e 7ddb 4a3d
00000240: e6c3 233f 82b8 e93d 4b10 0f3e 7e14 08be
00000250: 5811 143e cd2c 6fbe f53e ad3e 78af 0c3d
00000260: 9951 70bc 2db3 cebd 73e4 5b3e f226 b33e
00000270: bbd8 863d 4272 143f 2d9d 72be 4600 763e
00000280: fef0 263c ca7b 3d3e c868 2c3e 97e4 303d
00000290: a9f0 283e c127 2abe 887b 4dbe 6fe6 5c3e
000002a0: 5be9 913e 32fc 633c a6a4 c5bd 73b3 79bd
000002b0: ec90 863e 04ab 763e 1b55 ebbd b50f 153e
000002c0: a9c6 29be 4e11 5d3c caf9 343e 4a98 1bbe
000002d0: ec66 36bd c896 3e3d d950 17bd 3d1b ca3e
000002e0: 0276 bd3d 0bdc 393e 77b9 d3be 049d 373e
000002f0: 3fbe d83c 682c 0abe 60c7 103e 6522 073e
00000300: 105e 153d 1d09 953e 00d5 043f 4976 e7bd
00000310: a6e8 993e 6fd1 bf3e fd5a 833e 4cd5 673e
00000320: d757 2cbd 1f96 203e 5c66 063e 7472 1c3d
00000330: b50c debc 164f adbc 3f1a 893e a2bb 37bd
00000340: c73a e23d caa3 5c3e 50e3 443e 7b45 e23e
00000350: c151 4e3c a14e 403e df17 ef3d 6faf 4f3e
00000360: 2efd 863d 3287 153e 8734 213e 012d f03c
00000370: 9ea0 8a3e c3a4 113f 949d 2b3e e7f0 40be
00000380: 6e18 d43e d9eb 923c b815 0bbe 4b91 4cbe
00000390: 10b6 fdbd 6b3a e9bd e9a0 ecbd 02d5 c9bc
000003a0: ad76 343f bb4f 853e 57e5 f63d 8067 e13e
000003b0: eb58 dbbe 87d4 a33e d997 783e 711e 253d
000003c0: 6440 e13d 4be8 463d 3e1d 1fbe d70b fb3d
000003d0: 5fd8 febd 81bb 373d 6dba 85be ed87 853e
000003e0: c174 b93e 31f9 5c3e e957 90be d888 013e
000003f0: 8d43 ebbe 72c8 883e 8474 dfbc a6ad fcbd
0.08367201 0.010597016 0.32302603 -0.2590869 0.08457924 -0.29585496 0.31639236 0.23205917
0.21415429 -0.13103652 0.21770653 -0.08801861 -0.42275628 -0.153692 0.2178955 0.043726284
-0.079198614 -0.12297953 -0.09669994 0.2103338 0.38415948 0.041285876 -0.16169634 -0.058391493
-0.328728 -0.037019335 0.3407855 0.3293059 0.22080852 0.16238476 0.035911646 0.58806133
-0.5684633 -0.58442116 0.1531128 -0.1660734 0.07687092 -0.011841057 0.38681322 -0.08809081
0.62842107 0.13354781 -0.082744226 0.063236855 0.1295521 -0.03830254 0.018949375 -0.25774524
0.22784299 0.31997842 -0.14400482 0.054021645 -0.06697355 -0.025318855 0.4580458 0.020365959
-0.29005712 -0.71085906 0.038011447 -0.18946087 0.3145395 0.20990348 0.2566888 0.80451924
-0.106575 -0.4423906 0.38020033 -0.09218344 0.043135732 -0.02266789 0.6671774 -0.034904663
0.02948654 -0.29460078 -0.44239354 0.03630622 0.09450224 0.25348547 0.17102773 -0.1125851
0.12381101 -0.79794866 -0.15078849 0.06729323 -0.6120027 0.41040778 0.35008362 -0.1520208
0.21119244 0.18211234 -0.27083978 -0.28591195 -0.11524923 -0.047220923 -0.054264907 -0.324624
-0.18744454 -0.23141514 -0.040198654 -0.35322225 -0.1956688 -0.02328718 0.060484696 -0.028103504
0.19380309 0.1460026 0.10321001 -0.10547527 -0.2236922 0.048735622 0.22179317 -0.14855757
0.07576423 -0.25449425 0.3305441 0.5091459 -0.19351792 0.6542559 0.12584332 -0.4321023
-0.38529766 -0.25387266 0.007993645 -0.16580936 -0.12431055 0.3244676 -0.040227838 -0.027133841
0.32234514 0.050246563 0.17034082 0.0076968204 0.3115973 0.22439092 0.638155 0.2176884
0.25479168 0.08334379 0.027656458 0.11933481 -0.207537 -0.093737185 0.3501539 0.049525727
0.6397079 0.11412145 0.13971059 -0.13289067 0.14459741 -0.23356934 0.33837095 0.034347028
-0.014667892 -0.10092769 0.21473865 0.3499065 0.06584307 0.57986844 -0.2369277 0.24023542
0.010189293 0.18504253 0.16836846 0.04318675 0.16498055 -0.16616727 -0.20066655 0.21572278
0.2849835 0.0139151085 -0.09650545 -0.06096215 0.26282442 0.24088675 -0.11490842 0.14556773
-0.16579689 0.013492895 0.17673412 -0.15194812 -0.044531748 0.046530515 -0.036942337 0.39473906
0.09251024 0.18150346 -0.41352436 0.1793099 0.026457904 -0.13493502 0.14138556 0.13196714
0.036466658 0.29108515 0.5188751 -0.11301858 0.3006031 0.37464473 0.25655356 0.2263996
-0.042075958 0.15682267 0.13124985 0.03819509 -0.027105669 -0.021155875 0.26777837 -0.044856675
0.11046367 0.21546856 0.19227338 0.44193634 0.012592734 0.18779995 0.11674475 0.20281766
0.06591259 0.14602354 0.15742694 0.029318335 0.27075666 0.5689203 0.1675933 -0.18841897
0.41424888 0.017934727 -0.13582504 -0.199773 -0.12388241 -0.113880955 -0.11554129 -0.024637703
0.70493585 0.26037392 0.12055462 0.44024277 -0.42841277 0.31998083 0.24276675 0.040312234
0.1099861 0.048561376 -0.15538499 0.12258118 -0.12443613 0.044856552 -0.26118794 0.26080266
0.3622189 0.21579434 -0.2819207 0.12649858 -0.45949975 0.26715428 -0.027277239 -0.12337808

fc2.bias f4 [128]
00000000: 5654 ca3d 025c 953e 586d 69bd 50c8 763f
00000010: 22d6 4abe 46f3 ab3e 4b2a 2c3f c605 db3d
00000020: 3a6f 663f c81e a53c 1423 273f 190b 423e
00000030: 27c7 613f 6f95 0b3e 20b0 0dbf 5fb2 fcbd
00000040: 584f f63c 1d34 593f 0792 253f 5f79 393f
00000050: c746 8b3f 8a8c 5ebd 9c05 123f e045 f43e
00000060: a04b 0c3f 3256 563f 83fa d53c 1551 d53e
00000070: c780 5f3f cde3 aa3e 293f 533f 59b8 cb3e
00000080: 0bcf 0d3f 05d6 2c3f dcf5 033f ee05 1b3e
00000090: 6a99 ca3e 7bfa b43e eb26 093f e145 e23e
000000a0: 8c63 003f d614 173f 1aa7 65bc 5f21 6c3f
000000b0: 6007 503f 0bec 263f 55d8 163d 854d 253f
000000c0: a0d1 1abe 34d0 0bbf 6451 7e3f 9093 cd3e
000000d0: 5d21 4cbe 3c97 523f 7541 c53d 67e5 723e
000000e0: 937e abbe 6797 823e 1d1d dd3d 6043 0e3f
000000f0: 3848 263f 0a4d fd3e bd61 893e 5059 403e
00000100: 095d 9d3d 9165 f93e 93ea 9ebe 0638 62be
00000110: 70ec 023f 66aa ae3e b593 773f dd48 ab3e
00000120: a3e3 5c3f 59f2 ff3e 579a 203f 510d 643f
00000130: 1275 293e dd0a 91be 4fca 253f 025c 34be
00000140: c86c 103d 38a3 703e 5878 b33d 2bce f13e
00000150: 7286 aabe 26e1 213e ee2b 9f3d b916 c33e
00000160: 300d ba3e 5748 303e 7b86 29bd f13c 833e
00000170: e324 f5be 35cc 3b3f e8d9 0c3f 9afd 133c
00000180: 8c32 f83e 6ec1 633e 9d88 843e 7b1a e5be
00000190: 16a8 213f 0bc8 a5be f1de 8ebd 1d14 d73e
000001a0: 864d 173f b0c2 a93b 6746 a53e 4447 883e
000001b0: 853d 753d 2a0c 84bd 3cd5 ec3e e191 78be
000001c0: 8493 0c3e fc2a 583f 1e59 673f 978c 413e
000001d0: dc80 da3c a49b 083e 37a3 163f 5db0 953d
000001e0: fc81 6e3f 5e84 6e3f bf6a 2b3c 1df9 d73e
000001f0: 02ec 1e3f b071 d73e 48c6 f93e fbf3 913e
0.09879367 0.2917176 -0.056989044 0.963994 -0.19808248 0.3358404 0.67252034 0.106944606
0.9001347 0.02015628 0.652879 0.18949546 0.8819451 0.13631223 -0.5534687 -0.12338709
0.03006713 0.84845144 0.64675945 0.7245082 1.0880975 -0.054333247 0.5703981 0.4770956
0.54802895 0.83725274 0.02612043 0.41663423 0.87305874 0.33376923 0.8251825 0.39789084
0.5539405 0.6751407 0.51547027 0.15138981 0.3957017 0.3534735 0.5357501 0.44193938
0.50151896 0.5901617 -0.014016891 0.9223842 0.81261253 0.65203923 0.036827404 0.6457141
-0.15119028 -0.5461457 0.9934294 0.40151644 -0.19934602 0.82262015 0.096316256 0.23720323
-0.33495006 0.25506136 0.107965685 0.55571556 0.6495395 0.4947284 0.2683238 0.1878407
0.07683761 0.48710302 -0.3103834 -0.22091684 0.51142025 0.3411438 0.9670976 0.33454028
0.86284846 0.49989584 0.62735504 0.8908282 0.16548565 -0.283286 0.64761823 -0.17613223
0.035259992 0.23499763 0.08763188 0.47227606 -0.333057 0.15808544 0.07772051 0.38103274
0.36338186 0.17215095 -0.041388016 0.25632432 -0.47879705 0.7335847 0.5502 0.009032631
0.48476064 0.22241756 0.25885478 -0.44746765 0.63147104 -0.32379183 -0.069761164 0.42007533
0.59102666 0.0051806793 0.32280275 0.2661687 0.059873123 -0.064476326 0.46256435 -0.24274398
0.13728148 0.8444059 0.9037036 0.18901287 0.026672773 0.13340622 0.58842796 0.07309029
0.9316709 0.93170726 0.010462462 0.42182246 0.6207887 0.42078924 0.4878409 0.28506455
