logs/sdf_single_min_distances_per_link/state_198.pt (torch, 112153 bytes, 16 tensors)

fc1.weight f4 [32, 7]
000000 a5 a5 94 be fa 18 05 c0 fc 27 c2 be 13 07 88 bd
       -0.29032627 -2.0796494 -0.3792113 -0.06641974
000010 01 df 09 3c 7c 66 03 3d e0 19 99 bc 23 b5 de be
       0.008414985 0.03208016 -0.018689096 -0.4349757
000020 a5 6d 90 be a2 00 99 bd b2 d7 7b bf 5b 1f 3c bd
       -0.28208652 -0.07470824 -0.98376 -0.04592834
000030 0b fb a4 3b c5 af b8 3b 95 7a 51 bf 8b 37 36 bf
       0.0050348095 0.0056361877 -0.8182767 -0.711785
000040 92 dc 21 3e 36 74 04 bd 4b e3 61 bb 28 b2 d0 bc
       0.15806797 -0.03233739 -0.0034467753 -0.025475577
000050 ef f5 35 3b 42 3c 3c bf 05 6f 96 3d f8 63 25 bf
       0.0027764996 -0.73529446 0.07345394 -0.64605665
000060 65 3e 2c bf 02 6a 28 3e 5b f2 c3 3d 48 73 2d 3a
       -0.67282706 0.16446689 0.0956771 0.00066166045
000070 3f 7b 38 bf 18 db 1c bf 87 ea 29 bf 2f 82 c3 3e
       -0.7206306 -0.6127181 -0.66373485 0.3818526
000080 80 60 03 3e 95 e1 63 3e f3 fa a5 3c c9 3a 0d bf
       0.1282978 0.22254021 0.020261263 -0.55167824
000090 dd 94 4f be d2 95 34 3f e7 75 d4 be c8 02 10 bd
       -0.2027163 0.7054111 -0.41496202 -0.035158902
0000a0 49 27 1c 3e fd 3c 0f bc ba eb 33 bf 57 89 e5 3d
       0.15249361 -0.008742568 -0.70281565 0.11207836
0000b0 f5 15 6a bf 5e 6b be be ff 9d 2b bc 99 38 d3 bd
       -0.91439754 -0.3719129 -0.010474681 -0.103135295
0000c0 44 06 8f bb d0 52 32 3f 0d 91 15 3f e0 12 42 3f
       -0.0043647606 0.6965761 0.58424455 0.7581005
0000d0 2c e8 28 be db c0 9f bc 58 07 f1 3b 05 1f 9a ba
       -0.16494817 -0.01950114 0.007355612 -0.0011758512
0000e0 12 a8 fd 3e c1 14 0c bf 63 e4 9e 3e 71 03 8f 3e
       0.4954229 -0.5471917 0.3103362 0.27932313
0000f0 bf 1f 91 ba dc c8 23 3c 1d 3c 76 bb 6a 4c 99 bf
       -0.0011072083 0.009996619 -0.0037572451 -1.1976445
000100 16 54 72 3f 66 06 23 be a1 98 0f 3f 5f 1c 33 3d
       0.94659555 -0.1592041 0.5609227 0.04372823
000110 e5 49 14 3d 3c dc 2c 3c 6d f1 ce 3e f8 fd 29 bf
       0.036203284 0.010550555 0.40418568 -0.6640315
000120 16 6b 5d 3f 27 86 f9 be 92 9a d9 bc 5e f5 02 3d
       0.86491525 -0.48735163 -0.026562963 0.03197228
000130 c3 86 23 3a 0e c5 bb be ae 1e 92 bf 28 5d 99 3f
       0.00062380376 -0.36673778 -1.1415613 1.1981554
000140 aa 8a 0d 3f 01 a3 f6 bc b8 74 88 3d 63 91 10 bc
       0.5528971 -0.030107023 0.06662887 -0.008823725
000150 d7 ec 26 bf b8 08 a1 bb bd ff 37 bf 70 7b 10 bf
       -0.6520514 -0.0049143694 -0.718746 -0.5643835
000160 7d 9d 43 3d d5 91 5a 3d 66 a2 11 3c 1e 58 d8 be
       0.047757614 0.053361733 0.008888816 -0.42254728
000170 20 4e b4 3f e3 1a 96 3f 0d e3 77 bf 18 f2 1d bd
       1.4086342 1.1726955 -0.96830827 -0.038560957
000180 39 e3 c5 3d ed c7 af bb 0a 15 40 3e ac f5 dd bd
       0.0966248 -0.005364409 0.18758026 -0.10837874
000190 ca 92 69 bd 4d d7 ad bb cb 97 41 3f 53 d6 db 3e
       -0.057024755 -0.005305207 0.7562224 0.42936954
0001a0 03 04 24 bc bb 9d 0d 3f f6 6f 29 3f 09 55 1b be
       -0.010010722 0.553188 0.66186464 -0.15169157
0001b0 ab e3 6f bf 1b e2 49 3c 14 06 57 3d 31 ae 56 3b
       -0.9370677 0.012321974 0.05249603 0.0032757635
0001c0 06 02 4f 3d 12 1b 2a 3d 3a 5b 9c 3d f2 db 8a 3e
       0.05053904 0.041529723 0.076345876 0.2712093
0001d0 4d df 33 bf 3e 87 02 3f f6 81 06 3b d0 f0 1a 3f
       -0.70262605 0.50987613 0.002052424 0.605237
0001e0 6a e3 ab 3c 5d a1 2e 3f ae d6 10 3f 72 92 c9 3e
       0.020982463 0.6821497 0.56577575 0.3936954
0001f0 3c 60 4c 3e 79 70 83 3b 21 38 b0 3e cb df 2a 3e
       0.19958586 0.0040112105 0.34417823 0.16686933
000200 59 cc bc be f8 1f 51 bf 5e c7 6f 3d 17 96 2a 3f
       -0.36874655 -0.81689405 0.05853974 0.6663527
000210 20 88 c3 3c 68 dc 86 bd 72 ad 8d 3e 52 d4 50 bd
       0.02386862 -0.06585008 0.2767139 -0.050983734
000220 d1 90 43 3e 1c 3c 89 3d a2 9a 5f be 0a e5 39 3d
       0.19098212 0.06700918 -0.21836331 0.045384444
000230 d7 70 33 3f 23 1b af 3e 09 24 82 3f f4 de 6e bf
       0.70094055 0.3420039 1.0167247 -0.9330895
000240 b0 5f c1 bc ff 1a bf 3d ce 5e f4 ba 07 f5 c9 3c
       -0.023605198 0.09331321 -0.0018643977 0.024652971
000250 18 9b 0f 3e 3f bd 75 be 85 80 16 bf b8 91 7e be
       0.14024007 -0.23997973 -0.58789855 -0.24860275
000260 f8 37 fb be 96 a3 dd bc ce a3 f5 be f5 0b 05 3e
       -0.49066138 -0.027055543 -0.47976536 0.12992842
000270 f4 4c 30 bf 28 56 6f be b7 43 58 bd 11 6e a5 3e
       -0.6886742 -0.2337271 -0.052798953 0.32310537
000280 9d 2d 02 bb c3 b6 b0 3f 3a 2f 91 bf 4d 9c 2e bd
       -0.0019863613 1.3805774 -1.1342537 -0.04262953
000290 93 9b e3 bc 84 85 b7 3b c5 ce 4b 3d fe b1 1c 3c
       -0.027784145 0.005600633 0.049757738 0.009563921
0002a0 d1 9b 83 bf 73 21 5b 3f 1c c2 4c 3d 36 f1 86 3c
       -1.0281926 0.85597914 0.049989805 0.01647244
0002b0 7c dd 00 3b 65 ca 07 3c 98 4d 17 3b 10 5f 79 3f
       0.0019663265 0.008288001 0.002308702 0.9741068
0002c0 e7 34 8e 3f 44 26 dd bd f1 12 5f be de 2c f3 bc
       1.1109895 -0.10798314 -0.2178457 -0.02968448
0002d0 b9 80 fd 3c a4 ea a9 3b 30 bf dc 3e f3 c7 36 bf
       0.030945169 0.005185442 0.43114614 -0.7139885
0002e0 67 a9 76 3f 40 9f 08 3e 6e db 30 3b 63 92 89 3c
       0.9635224 0.13341999 0.002698626 0.016793435
0002f0 3d b3 f7 bb f8 81 12 be 4a 76 9e 3e f2 2d c9 be
       -0.0075592087 -0.14307392 0.30949622 -0.39292866
000300 13 9c 00 3f 46 f6 19 bf a4 f1 59 3f 3c 68 c8 bc
       0.5023815 -0.6014141 0.8513434 -0.024463765
000310 e2 71 1f bf 82 88 88 bf 69 25 75 3c b4 7e 52 bf
       -0.62283146 -1.0666659 0.014962533 -0.82224584
000320 af 35 49 ba 0c c4 22 bc 6d 4e 81 b9 fe c9 2f bd
       -0.0007675541 -0.0099344365 -0.0002466323 -0.042917244
000330 aa 37 c3 bc ad 5a 75 bc ed 5f 2c 3f d3 ff 32 3e
       -0.023830254 -0.014975232 0.6733387 0.17480402
000340 7b af 78 3e fb 62 3b bd 17 3e 52 3f 89 95 47 be
       0.2428569 -0.045748692 0.8212599 -0.19490637
000350 72 de 97 bf 12 eb e9 bb 1c 06 50 bb b1 6d fb 3c
       -1.186476 -0.0071386183 -0.0031741923 0.030691953
000360 de cd 94 3c 8b bf 14 3f 23 ac 69 3f 76 6a 2e 3e
       0.018164571 0.5810477 0.91278285 0.17032799
000370 df 22 78 3e 6d be 27 3c b7 9d 01 3c 46 a4 ac 3b
       0.24232052 0.010238272 0.007911137 0.0052686064

fc1.bias f4 [32]
000000 c9 d2 e7 be c7 54 a8 bf 2c c9 53 3f 54 6a 60 bf
       -0.45278004 -1.3150872 0.8272884 -0.87662244
000010 5e 1d 48 3f d6 df c8 3f 48 6d eb bd 95 d4 02 3c
       0.7816981 1.5693309 -0.11495453 0.007985254
000020 50 c9 21 3f ad ad 05 bf e3 59 57 3f a7 bf e6 bd
       0.63197803 -0.52218133 0.8412153 -0.112670235
000030 6d eb 30 3f 2a 86 82 3f 94 21 18 3f 75 14 8d bb
       0.6910923 1.0197194 0.59426236 -0.004305417
000040 9c 84 63 3f e0 86 94 be 8f 40 8f 3f 00 12 13 40
       0.8887422 -0.2900915 1.1191577 2.2979736
000050 2d 8f 8a 3e f0 ad e6 3f 2b 6d 4c be d7 98 8f be
       0.2706236 1.8021832 -0.1996352 -0.28046295
000060 a6 bf 6a 3f 40 a8 f7 3e 74 51 dd bd d9 e7 dc be
       0.9169868 0.48370552 -0.108065516 -0.43145636
000070 12 ee 53 3f 71 72 df 3f f5 10 43 3d 23 ea 04 bf
       0.8278514 1.74568 0.047623593 -0.51919764

fc2.weight f4 [128, 32]
000000 39 6a 9c 3d 0e 9b 5a 3d 4c 64 b3 3e e1 68 96 be
       0.07637448 0.053370528 0.35037458 -0.2937689
000010 db 67 ba 3d 3f 13 9c be 85 d0 a8 3e e5 9b 88 3e
       0.0910184 -0.30483434 0.32971588 0.26681438
000020 5e e6 49 3e 7d 38 21 be dc c9 77 3e b5 c2 be bd
       0.19716784 -0.15744205 0.24198097 -0.09314481
000030 0d 30 d9 be ed 3e 1d be 16 9d 73 3e 23 63 2a 3d
       -0.42419472 -0.15356036 0.23790392 0.04159845
000040 cb a2 87 bd cf 7f 1b be 76 f9 d5 bd e1 27 58 3e
       -0.06622847 -0.15185474 -0.104479715 0.21108963
000050 fd 6a c2 3e ee 5e 1c 3d b2 3e 26 be 3c 2f 80 bd
       0.3797225 0.03817647 -0.16234854 -0.06259009
000060 1a 12 a6 be 19 63 31 bd 11 7c ae 3e 13 c4 ac 3e
       -0.32435685 -0.043307398 0.3407903 0.33743343
000070 b2 0f 4c 3e 9c 08 1d 3e e8 19 20 3d 5c 14 18 3f
       0.19927862 0.15335315 0.039087206 0.59406066
000080 bf 91 16 bf 6a 4b 0d bf fa 9d 04 3e 39 7b 8b be
       -0.5881614 -0.551932 0.12950888 -0.2724245
000090 f3 4a c1 3d 9a 93 b1 bc 6f be e0 3e 90 d4 cd bd
       0.094381236 -0.021676827 0.4389529 -0.10050309
0000a0 fb a8 26 3f bb 0a f6 3d 1b cf 44 bd bf c2 87 3d
       0.65101594 0.120137654 -0.048049074 0.06628942
0000b0 5c ec 03 3e 53 94 2a bd c8 ee f6 b8 12 e1 89 be
       0.12883133 -0.04164536 -0.000117746706 -0.26929528
0000c0 1e 3b 58 3e 72 dc bd 3e ff e5 0e be 8a 57 7f 3d
       0.21116301 0.3708225 -0.13954924 0.062339343
0000d0 a1 cf 9d bd ce 2a ed bc c1 4a e8 3e d0 2e b9 3c
       -0.07705618 -0.028951075 0.45369533 0.02260533
0000e0 0b 6a 8e be 29 92 34 bf 59 c7 65 3d 13 d3 3d be
       -0.2781528 -0.7053552 0.056098316 -0.1853755
0000f0 be de a7 3e 5c ea 72 3e 56 96 83 3e 98 93 59 3f
       0.32787126 0.23722214 0.25700635 0.84990835
000100 b6 f9 01 be ec 3e db be 56 e2 d4 3e 01 44 64 bd
       -0.12692913 -0.42821443 0.4157893 -0.055728916
000110 bd ae 1b bc a2 86 cd bc a8 8e 3c 3f 87 e3 40 bd
       -0.00950211 -0.025088612 0.73655176 -0.047091987
000120 a1 c1 e0 3c 69 65 7a be 92 27 f3 be 47 d4 ae 3c
       0.02743608 -0.24452747 -0.47491127 0.021341456
000130 a5 03 da 3d c1 07 7d 3e 9c 54 42 3e 11 c1 eb bd
       0.106452264 0.24709989 0.18977588 -0.11511434
000140 7e 93 ee 3d f1 34 1c bf dd 67 43 be 37 90 a6 3d
       0.11649226 -0.6101828 -0.1908259 0.081329755
000150 d7 eb 1e bf fa 3b e2 3e 24 d8 b4 3e ae b3 13 be
       -0.62078613 0.44186383 0.35321152 -0.14424011
000160 5f 8a 74 3e 3c b5 0f 3e fe bc ab be a7 25 98 be
       0.2388091 0.14033979 -0.33542627 -0.29716226
000170 81 bf d5 bd 85 b3 51 bd c5 7f c3 bc aa b2 7c be
       -0.10436917 -0.051196594 -0.023864636 -0.2467753
000180 22 0e 33 be 27 c8 65 be 3c a4 25 bd 0d 34 ca be
       -0.1748586 -0.22439633 -0.04043983 -0.39492837
000190 a5 5d 39 be e0 8c 8f bc 9e f8 94 3d 95 0c bd bb
       -0.18102129 -0.01752323 0.072739825 -0.005769322
0001a0 05 14 50 3e 2e 88 0b 3e 01 2c cd 3d 84 4e cd bd
       0.20320137 0.13626167 0.10018159 -0.10024741
0001b0 6d 08 6e be a6 ce 24 3d 34 e9 5a 3e 61 81 f6 bd
       -0.23245402 0.040236138 0.21378022 -0.12036396
0001c0 5e 8a 93 3d 49 2d 5e be da ed ae 3e 06 df 04 3f
       0.07204126 -0.21696962 0.3416584 0.51902807
0001d0 9d 81 3d be 68 78 27 3f 08 a7 1c 3e 51 29 df be
       -0.18506475 0.654181 0.15298092 -0.4358621
0001e0 67 32 c8 be d5 c3 87 be 68 8f a1 bc 71 1a 14 be
       -0.39100954 -0.26516595 -0.019721702 -0.14463212
0001f0 e3 ac 06 be 41 3d a2 3e 92 43 75 bd e9 5f 2e bd
       -0.13151889 0.31687358 -0.059878893 -0.042571936
000200 12 82 a0 3e 57 83 03 3d ea c2 2b 3e 7c fd 5b 3a
       0.31349236 0.032107677 0.16773573 0.0008391959
000210 42 4b 9a 3e 91 a1 64 3e a9 1a 23 3f a6 66 50 3e
       0.30135542 0.22327258 0.63712555 0.20351657
000220 ca 83 65 3e 0b e5 35 3d 53 53 e8 3c 5a 1a dd 3d
       0.22413555 0.044407886 0.028360045 0.10796042
000230 21 3c 61 be 5c 92 b9 bd f3 c2 d4 3e 86 f8 f2 3c
       -0.21995594 -0.09061119 0.41554984 0.02965952
000240 1d 28 29 3f 07 6d 0f 3e b4 98 12 3e 75 f8 df bd
       0.66076833 0.14006434 0.14316064 -0.10936061
000250 5e 2a fe 3d 17 45 8a be e5 42 a1 3e e1 a0 26 3d
       0.12410425 -0.27005836 0.3149635 0.04068077
000260 10 6d 0f 3a e0 a0 82 bd 45 7b 56 3e 8a 19 ad 3e
       0.00054712687 -0.06378341 0.20945461 0.33808547
000270 b4 3f 8c 3d 4b b7 18 3f 39 6d 64 be 22 44 89 3e
       0.06848088 0.5965468 -0.2230729 0.26809794
000280 97 6d a3 ba 2e 00 63 3e 45 eb 2d 3e 06 58 c9 3c
       -0.0012468573 0.22168037 0.1698428 0.024578106
000290 a1 a1 1a 3e 65 bd 2b be 26 b0 6c be 63 c9 6a 3e
       0.15100719 -0.16771467 -0.2311407 0.22928385
0002a0 3d 34 8f 3e 2d f1 e1 3c b1 0f de bd ca b1 48 bd
       0.27969542 0.027580822 -0.10842837 -0.048997678
0002b0 3b bd 84 3e bf 90 77 3e 08 16 e7 bd 7e ef 0d 3e
       0.2592562 0.2417631 -0.11283499 0.1386089
0002c0 7d 31 2e be 93 8e 4f 3c 37 56 33 3e 9c d4 23 be
       -0.17011066 0.01266827 0.17513357 -0.15999073
0002d0 0f bc 33 bd c0 3f 50 3d c3 6c 4c bd 46 ff cf 3e
       -0.04388052 0.050842047 -0.04990841 0.40624446
0002e0 86 2d 95 3d f0 b4 30 3e ce 45 da be 7a 51 40 3e
       0.072840735 0.17256522 -0.42631382 0.18781081
0002f0 d0 64 d2 3c b1 99 f3 bd 98 12 19 3e 83 de e9 3d
       0.025682837 -0.11894549 0.14948499 0.11419394
000300 36 e3 09 3d ac dd 97 3e fa d4 08 3f 18 0f fa bd
       0.03366395 0.2966131 0.53449976 -0.1220991
000310 0f 99 9a 3e 08 01 c1 3e 5b 0c 8b 3e 6d 71 70 3e
       0.301949 0.376961 0.27157864 0.23480769
000320 4d d0 3e bd e7 5b 16 3e ba db 04 3e ae 9c f2 3c
       -0.04658537 0.14683495 0.12974444 0.029615726
000330 63 8c b6 bc b1 bb e5 bc 7b da 89 3e fb cb 26 bd
       -0.022283738 -0.0280436 0.269245 -0.040721875
000340 87 42 b4 3d 8d 88 50 3e 31 66 48 3e 70 77 e7 3e
       0.088017516 0.2036459 0.19570233 0.4520831
000350 68 e9 e4 3b 6c 13 47 3e f9 1e 05 3e 73 80 4d 3e
       0.006985832 0.19441003 0.13000096 0.2006853
000360 85 30 88 3d 85 19 1e 3e 53 5d 17 3e 44 16 f8 3c
       0.06649879 0.15439422 0.14781694 0.030284055
000370 dc 66 8a 3e 5e 27 12 3f 1b b5 2a 3e 92 6e 49 be
       0.270316 0.5709132 0.16670649 -0.19671085
000380 88 51 cc 3e 73 f3 8c 3d a2 76 25 be 99 c5 3f be
       0.39905953 0.06882372 -0.16158536 -0.18727721
000390 03 c7 f3 bd 31 e6 00 be 55 8d f5 bd 28 db 0c bd
       -0.11903193 -0.12587811 -0.119898476 -0.03438869
0003a0 8d 35 3b 3f b6 60 8d 3e da 14 d4 3d af 6e ef 3e
       0.73128587 0.27612847 0.103555396 0.46764132
0003b0 d9 3b cf be 2d 41 a6 3e 50 87 81 3e 68 a7 a4 3c
       -0.40475348 0.324716 0.25298548 0.020099357
0003c0 a6 0b ef 3d ca a4 71 3d 1e b3 2a be bd 74 de 3d
       0.11672144 0.058995046 -0.1666989 0.1086211
0003d0 3b 65 0e be 14 f2 a1 3d d9 a9 9c be 56 e9 8d 3e
       -0.13905804 0.07907501 -0.30598333 0.27717084
0003e0 fb 3f a7 3e 0a 53 70 3e 12 8e a0 be ba e8 12 3e
       0.32666 0.23469177 -0.3135839 0.1434659
0003f0 55 d0 e0 be 87 0d 96 3e 89 fd 2e bd 57 9c 5c bd
       -0.43908945 0.29307196 -0.04272226 -0.053860035

fc2.bias f4 [128]
000000 83 16 b9 3d ee 78 99 3e 21 e3 88 bd 80 af 75 3f
       0.09037497 0.29975075 -0.066839464 0.95970917
000010 6c d2 5c be 30 ca b0 3e a8 26 2c 3f 6f d7 e6 3d
       -0.21564645 0.34529257 0.67246485 0.112715594
000020 2f c6 65 3f 19 6c 8d 3c 74 cb 2c 3f 5a dd 4b 3e
       0.8975553 0.017263459 0.67497945 0.19908658
000030 e9 4d 61 3f 8e 14 19 3e 33 b6 14 bf a6 68 f4 bd
       0.88009506 0.14949247 -0.58090514 -0.119340226
000040 82 ac 34 3d b6 b9 59 3f f7 7c 25 3f 0a b5 39 3f
       0.04410983 0.85049 0.64643806 0.7254187
000050 ce 1c 8d 3f 65 4c 88 bd 48 6b 11 3f c2 13 f4 3e
       1.1024415 -0.06655196 0.56804323 0.47671324
000060 71 9e 10 3f c5 16 57 3f 51 ae da 3c 6c c9 d4 3e
       0.5649176 0.8401912 0.026694449 0.41559923
000070 60 3b 5f 3f 61 2e ab 3e ea 61 53 3f b6 63 d3 3e
       0.87199974 0.33433822 0.8257128 0.4128701
000080 50 b3 0e 3f cc cf 32 3f bd 38 05 3f 3f 23 1e 3e
       0.5574236 0.6984832 0.520397 0.15443133
000090 56 0f d0 3e 6f b9 b4 3e da e7 0b 3f f8 e9 e4 3e
       0.406367 0.35297725 0.5465065 0.44709754
0000a0 8e 75 07 3f 1c 2d 13 3f 4f 6d 1d bc 91 49 6f 3f
       0.5291375 0.57490706 -0.009608581 0.9347163
0000b0 2d d4 53 3f 6d c5 2d 3f 3b 09 48 3d 90 e9 24 3f
       0.8274563 0.6787937 0.048836928 0.6441889
0000c0 76 44 18 be af 07 1a bf e1 fe 81 3f 8f c0 cb 3e
       -0.14869866 -0.60167974 1.0155908 0.39795348
0000d0 ce 50 4c be ad 8d 57 3f 96 14 d1 3d 0c e1 71 3e
       -0.199527 0.84200555 0.102090046 0.23621005
0000e0 20 d3 a6 be 8e 77 81 3e 44 3e fc 3d 74 28 13 3f
       -0.3258295 0.25286525 0.12316564 0.574836
0000f0 da 3d 2b 3f d1 ea 01 3f e3 5c 8f 3e 29 43 43 3e
       0.66891253 0.50748926 0.28000554 0.19068588
000100 ae 4e 83 3d 93 08 fb 3e 3b 24 9f be df 9b 66 be
       0.06411491 0.4902998 -0.3108233 -0.22520398
000110 f2 4d 03 3f ea e0 af 3e f2 29 7a 3f 2b 8b aa 3e
       0.5129081 0.34351283 0.97720253 0.33309302
000120 ed ac 5b 3f db eb 03 3f 73 a9 27 3f 80 69 63 3f
       0.8581074 0.5153176 0.65492934 0.88832855
000130 15 49 37 3e f2 e7 8f be 94 7e 29 3f 49 07 40 be
       0.17898972 -0.28106648 0.6620877 -0.18752779
000140 24 ff eb 3c d7 b2 6d 3e ce 47 de 3d 3c 32 fd 3e
       0.028808184 0.23212753 0.108535394 0.49452388
000150 37 5a b3 be 54 cb 23 3e 28 09 a0 3d 88 b8 c8 3e
       -0.35029766 0.15995532 0.078142464 0.39203286
000160 3e 39 bd 3e c5 76 33 3e 0e dc 2a bd f9 46 80 3e
       0.36957735 0.17525776 -0.041713767 0.25054148
000170 c9 64 ec be d5 e3 3c 3f 6a 79 0d 3f f8 8f 8e 3c
       -0.46170643 0.73785144 0.5526339 0.017402634
000180 79 0e fe 3e af e9 80 3e 56 16 8c 3e a5 b2 e5 be
       0.49620417 0.25178286 0.2736079 -0.44862857
000190 00 94 23 3f 36 a0 ae be d0 04 a9 bd 02 d0 db 3e
       0.63897705 -0.34106606 -0.08252871 0.42932135
0001a0 f7 95 19 3f f5 d6 41 3c 03 ab a6 3e c0 97 8a 3e
       0.59994453 0.011831035 0.32552347 0.270689
0001b0 43 8b 4f 3d 63 77 76 bd 0a 39 ee 3e 15 f3 80 be
       0.05066992 -0.06017245 0.46527892 -0.25185457
0001c0 e1 43 0b 3e e9 cf 5e 3f 2f 98 6a 3f b8 ff 42 3e
       0.13600112 0.87035996 0.91638464 0.19042861
0001d0 18 70 00 3d 91 61 02 3e 67 0e 12 3f 07 75 90 3d
       0.0313569 0.12732531 0.57053226 0.07053571
0001e0 91 ae 74 3f 61 aa 6f 3f 51 0e cc 3b 8d 87 d7 3e
       0.9557887 0.9361935 0.0062272926 0.42095605
0001f0 7b c3 21 3f d1 dc d3 3e ef 40 fd 3e e2 fb 94 3e
       0.63188905 0.41379407 0.49463603 0.2909842

fc3.weight f4 [64, 128]
000000 12 2f 4d 3f 79 cd 02 40 64 1f a0 3e d3 4e 36 3e
       0.8014995 2.043791 0.3127395 0.17803507
000010 92 f0 a6 be ba 68 23 3e 72 8b 24 be 38 4d 04 3f
       -0.32605416 0.15957919 -0.16068819 0.51680326
000020 03 a2 fb be 95 6b 90 3f a2 53 06 3f 8e 8e 09 3f
       -0.49147043 1.1282831 0.52471364 0.53733146
000030 e6 73 ab 3e a6 d4 42 3f b8 e3 1c c0 fc bf 86 be
       0.3348686 0.76105726 -2.4513988 -0.26318347
000040 d2 36 43 3f f5 93 71 be cf 10 60 be a7 fd bd bc
       0.76255524 -0.23591597 -0.21881412 -0.02319224
000050 9b 2d 07 bf 1e 58 e2 3f 23 b8 a2 3e d6 f2 04 bf
       -0.52803963 1.7683141 0.3178111 -0.5193304
000060 cd ba 47 3e 9b b4 83 bd 8e af ae 3e 20 0f 32 3e
       0.19504853 -0.06430932 0.34118313 0.17388582
000070 ff c2 6a be cf 15 09 3f db ef a4 be f3 73 20 be
       -0.22925948 0.535489 -0.32214245 -0.15669231
000080 32 59 a7 bd eb d9 6d bb 38 f1 4a bf a1 58 da 3e
       -0.081713095 -0.003629322 -0.7927432 0.42645743
000090 e8 81 fb 3f b5 af 5f 3e 5a 04 9d 3e e3 87 64 3f
       1.9649019 0.2184437 0.30667382 0.89269847
0000a0 f8 14 0e 3f ba 50 c9 3e bb a9 d6 3a f7 6d 16 bf
       0.55500746 0.39319402 0.0016377488 -0.58761543
0000b0 4a 42 18 bf 35 23 e7 3f 05 f6 3d 3f d3 ed d9 be
       -0.5947615 1.8057619 0.7420352 -0.42564258
0000c0 84 d0 02 3f 53 ca 85 be 85 28 b0 3e 8e 89 23 bf
       0.5109942 -0.26130924 0.34405914 -0.63881767
0000d0 bb 47 5a 3f 33 cc 69 bf 2c 76 c0 3f 0b f9 ae 3e
       0.852657 -0.9132721 1.5036063 0.3417438
0000e0 35 6a b0 3f 39 e0 9b be 69 a6 1d bd 72 6c 0b 3f
       1.3782412 -0.30444506 -0.03848878 0.5446235
0000f0 a3 c4 bf 3e cd 30 94 3f 88 98 29 bf 94 5f 3d 3f
       0.3745471 1.1577393 -0.6624837 0.73973966
000100 08 36 b7 bd bd a7 d8 3f 61 22 62 3f dc 59 57 3f
       -0.089458525 1.692619 0.8833371 0.8412149
000110 e2 d9 b1 be 26 87 d9 be e3 71 36 bf 5f c5 90 be
       -0.34736544 -0.42485923 -0.7126753 -0.28275582
000120 f0 19 9a be d8 de 3f 40 47 d7 40 3f 96 bd 90 3e
       -0.30097914 2.9979763 0.7532849 0.28269643
000130 2f 8e aa be aa da cb 3c c7 a1 01 bd cc 77 1b 3f
       -0.33311602 0.02488454 -0.031648424 0.6072967
000140 59 59 21 3f c5 4f 36 3f be e8 f4 3d 0a ef 60 3d
       0.6302696 0.7121547 0.119584545 0.054915465
000150 2f 5c 04 3e ed 91 70 3e 56 06 6d 3e 8c 4b 3a 40
       0.1292579 0.23493166 0.23146948 2.910861
000160 e4 9d 0b 3f 40 a2 e9 bf 78 9c 07 3f c1 11 06 3f
       0.54537797 -1.825264 0.5297313 0.5237084
000170 6e 77 fe bc f1 73 a1 3e a5 07 d9 be d9 52 26 3f
       -0.031062808 0.3153377 -0.42388645 0.64970165
000180 77 d7 56 40 f4 52 a1 3d a9 8b 3b 3f 81 fd bd bd
       3.356901 0.0787715 0.7325998 -0.09276868
000190 eb 9e a0 3e d3 8d 99 3e 0f 0e d2 3e 18 d6 17 3d
       0.31371245 0.29991016 0.4102635 0.03706941
0001a0 e7 0d d9 bd 4d 64 3c 3e 6d 80 ca 3e 1b d1 9f 3e
       -0.10598355 0.18397637 0.39551106 0.31214222
0001b0 54 62 7c 3f 81 2b 59 3e 7f 3f 11 3f 57 ed b6 3c
       0.98587537 0.21208002 0.5673751 0.02232997
0001c0 89 44 01 3f a9 e7 9e 3e 10 a7 01 3f e0 d4 45 3e
       0.504952 0.31036118 0.5064554 0.19319487
0001d0 80 ed c1 3f a7 1d ba 3e 95 6a 6b bf 27 2c b4 be
       1.5150604 0.36350748 -0.91959506 -0.35189936
0001e0 60 d6 34 bf 7e 15 14 3f 5f 5c 63 3f 44 d9 09 3f
       -0.7063961 0.57845294 0.8881282 0.53847146
0001f0 88 c5 14 3e bb 7e d1 be 5c dc 24 40 91 20 ed 3e
       0.14528477 -0.40917 2.5759497 0.4631391
000200 b9 32 3e 3e 63 72 bb be 8b f6 83 3d ff b1 2d 3f
       0.18574037 -0.36610708 0.06443509 0.67849725
000210 a2 b9 91 be 08 ad 36 3f 04 bb 46 3c ac 84 90 3e
       -0.2846194 0.71357775 0.012129549 0.2822622
000220 13 a0 93 be d4 2d 6c bf d1 87 c9 3e 24 bb 45 3e
       -0.28833064 -0.9225743 0.39361432 0.1930967
000230 ab 3f d8 be 4e 91 43 3d 7c fe 39 3f ac a9 44 3f
       -0.42236075 0.047745995 0.7265394 0.768214
000240 95 06 a9 be 69 0d 16 3d 00 71 94 3d 75 a1 ad 3e
       -0.33012834 0.036633883 0.072481155 0.33912244
000250 dd bd 22 bd b3 24 40 bc 0a 3f c7 3e d1 1a 45 3e
       -0.03973185 -0.0117275 0.38915282 0.19248511
000260 5f 2a 21 bd 40 71 46 3e fb 53 00 be 44 b0 92 3d
       -0.03934705 0.19379139 -0.12532036 0.07162526
000270 59 a2 fe 3d 40 54 0e 3e 79 56 16 3e 93 26 18 3f
       0.12433309 0.13899326 0.14681424 0.5943386
000280 cf 70 73 3a 14 59 1e be c1 bc e1 bb 61 d3 cb 3e
       0.0009286524 -0.15463668 -0.0068889563 0.39809707
000290 90 56 b8 be d4 66 cf 3e 37 8e dd 3e 97 34 f9 be
       -0.36003542 0.4050814 0.43272564 -0.48672935
0002a0 f5 41 4b 3f cd f2 fd 3d 46 de c9 bd 8e 52 32 3e
       0.7939752 0.12399826 -0.098568484 0.17414305
0002b0 1c 6d e5 3e e1 f3 21 3e 93 ea a3 3d dd 56 56 3d
       0.44809806 0.15815689 0.08003726 0.052328933
0002c0 fa 68 39 3e 53 85 99 bd e8 60 3c be 4a 01 26 bf
       0.18106452 -0.07496133 -0.18396342 -0.64845717
0002d0 39 bd ce be 84 d3 39 be d6 c1 e6 bd 35 05 ac 3e
       -0.4037874 -0.18147093 -0.1126744 0.33597723
0002e0 1a 19 03 bf e7 8c 8c 3d d6 d5 8d be 28 15 dc 3e
       -0.51210177 0.068628125 -0.27702206 0.4298489
0002f0 af f2 b5 3e e1 ea 23 bc 17 e3 c3 3e 22 b8 1e bf
       0.35536715 -0.01000473 0.38259193 -0.61999714
000300 92 60 c9 bd 3d 98 03 bd 84 43 66 3e 70 ca 6c 3d
       -0.098328725 -0.032127608 0.22486693 0.057810247
000310 35 40 29 3d 4f 2b c4 3d 6b 66 be 3d 38 e8 85 bd
       0.041321 0.09578573 0.092968784 -0.06538433
000320 ce 68 a3 3e 48 38 9d be 7e 67 03 3f f5 d8 38 bd
       0.31915897 -0.30707002 0.5132979 -0.04512878
000330 5e e4 23 3e 58 d1 e5 be 67 ce 0a 3f e9 40 f9 bc
       0.16005084 -0.4488628 0.54221195 -0.03042646
000340 b2 b8 47 bf f6 27 0d 3f c8 14 ec 3a f7 bb 1f 3d
       -0.780162 0.551391 0.0018011564 0.038997617
000350 76 9c aa 3e bc 45 4e 3d 4b 80 f8 bd 75 e1 aa bf
       0.33322495 0.050359473 -0.12133845 -1.3350054
000360 ad 86 59 bf 67 85 4c 3e 5f 69 cf 3e 78 70 06 be
       -0.84971124 0.19972764 0.4051008 -0.13128841
000370 49 c6 14 bf b3 5c 96 bc 3a 21 2c 3e c5 91 a5 bd
       -0.5811506 -0.01835475 0.1680955 -0.08084444
000380 ab 82 84 bc df 58 b5 3d cf 27 46 bf 8f ea 1a be
       -0.016175589 0.088548414 -0.77404493 -0.1512854
000390 b7 6d 57 3f e6 9e ba be 88 70 be be e5 36 6f bd
       0.84151787 -0.36449355 -0.3719523 -0.05840196
0003a0 4c 73 bf be 7d 9d 82 be 97 b3 36 be 86 27 fa 3d
       -0.37392652 -0.2551078 -0.17841946 0.1221457
0003b0 97 9e ce be 3b f2 fa be da 6f 1d 3f 1a 06 e1 3d
       -0.4035537 -0.49012932 0.61498797 0.10987492
0003c0 e9 21 83 3c 83 9b 3c be c0 2c 02 3f df 99 b0 3e
       0.01600738 -0.18418698 0.50849533 0.34492394
0003d0 66 fa 27 bf 6a 13 05 be d4 3f 9c be 22 0d 0f be
       -0.6561645 -0.12995687 -0.30517447 -0.13969854
0003e0 72 95 8a 3e d4 9d ef bd 62 ac ce be d1 78 cb 3e
       0.27067143 -0.11700025 -0.40365893 0.39740613
0003f0 c3 e4 c2 3d 5f 3d d4 3d e5 d9 dc bf f5 3d 24 3f
       0.09516289 0.10363268 -1.7253996 0.6415704

fc3.bias f4 [64]
000000 bf 71 87 bd bd 43 90 3f 53 e3 0f 3d c5 a5 02 3f
       -0.06613492 1.1270672 0.035128903 0.51034194
000010 c2 de 23 bd 58 7b 54 bd da f7 9a be bd e3 4a 3f
       -0.04000736 -0.051875442 -0.3026722 0.7925375
000020 18 fa 2c 3e 2f 02 3f 3c e2 6f 02 be 0a be 42 3e
       0.16892278 0.011658235 -0.12737992 0.19017807
000030 6e 14 3f 3c 06 d5 15 3f 44 d8 57 bd 89 46 24 3e
       0.011662586 0.5852817 -0.05269648 0.16042532
000040 d3 4e fe 3e 34 c9 7a 3d ff ab ab 3d 9a 41 3c 3e
       0.49669513 0.06122704 0.08382415 0.183844
000050 2b 4e 12 3f 0c 6f eb bd 28 80 90 3e d4 92 8b bd
       0.57150525 -0.1149579 0.28222775 -0.068151146
000060 ec 05 8f 3d ad 24 94 3e e3 8c 10 be e8 4d f5 bd
       0.069835514 0.2893423 -0.14116244 -0.1197775
000070 bd 23 6f be 20 91 58 bc 45 e3 f8 3e 80 7f ef bb
       -0.23353477 -0.013218194 0.48610893 -0.0073089004
000080 9a 15 ca 3d 21 9a da be 88 b9 b7 3e 05 fc c8 3e
       0.098674014 -0.42695716 0.35883737 0.39254776
000090 e8 e7 2c 3f 7d 91 9e 3e 13 b8 69 3d 09 f2 0d be
       0.6754136 0.30970374 0.057060312 -0.1386186
0000a0 ba 3e 5b 3f be d1 88 3e 93 42 aa bd 22 fd f5 3e
       0.8564259 0.2672252 -0.08313479 0.48044688
0000b0 e8 0a f4 bd bf fb 7a 3c a4 fa 1d 3f e5 8a 08 3f
       -0.11916143 0.01531881 0.6171057 0.53336936
0000c0 a6 82 9a 3e 7c 32 9e 3e 80 65 13 bd d3 a1 7c 3d
       0.30177802 0.30897892 -0.03598547 0.061677765
0000d0 04 eb 9d 3e 28 d4 c3 3f a3 75 e8 3d f3 ac 28 be
       0.30843365 1.529912 0.113505624 -0.16472225
0000e0 ba d1 2b 3d b4 ec d7 be 92 77 c9 bd 06 3f 0a 3e
       0.041948058 -0.42172778 -0.09837259 0.13500604
0000f0 aa e3 87 3f 02 44 7e 3d 2a c6 a0 3c 59 ae 3c 3c
       1.0616353 0.062076576 0.019625742 0.011516177

fc4.weight f4 [10, 64]
000000 ef bf 6b bc 18 19 8f 3e 46 c3 d1 3c f6 7d 35 be
       -0.014389022 0.27948833 0.025605809 -0.17723832
000010 bd 74 d5 3c a5 41 bf bb 23 cb 2e be e9 47 5b 3e
       0.026056642 -0.005836683 -0.17069678 0.2141415
000020 50 8a 3a be 76 ca da bd 75 69 99 be 81 28 40 bd
       -0.18216825 -0.106831476 -0.2996327 -0.046913628
000030 d9 d3 b3 bb 82 c3 8d 3c 91 75 2b bd 69 33 42 3c
       -0.0054879007 0.01730514 -0.041860167 0.011853077
000040 c2 f7 d4 3b 78 3d b3 3d 30 55 3c 3c df fa e5 be
       0.0064992616 0.087519586 0.01149492 -0.44917962
000050 71 5f 24 bc 1a be 1e bd 87 ed ec 3b 56 4c 81 3d
       -0.010032521 -0.038755514 0.007230464 0.06313388
000060 b6 b4 e8 3c a7 da 0b bb 36 82 52 be ab 97 f5 3e
       0.028406482 -0.0021340044 -0.20557484 0.47967276
000070 72 70 52 3b 80 c6 19 3d 17 60 bb 3e 44 bf ad 3b
       0.003211048 0.03754282 0.36596748 0.0053023417
000080 07 2d c2 3e fc 61 fb be 9f 2a f5 ba bb bf 91 3e
       0.37924978 -0.49098194 -0.0018704719 0.2846659
000090 a7 68 c5 3c af 2d ef 3b 18 47 ad 3d 66 10 d9 bc
       0.024097754 0.007299147 0.08460826 -0.026497077
0000a0 8c f6 3b 3d e0 d5 a6 3d 77 ea 19 be ac 81 b5 3a
       0.045889422 0.08146262 -0.15030847 0.0013847849
0000b0 27 82 61 be a7 50 86 bd 39 a2 bb bb 0a 30 45 3e
       -0.22022305 -0.06558352 -0.0057261256 0.19256607
0000c0 e1 d1 30 bd 10 df cf 3c 85 dd 9d bc 01 7c 50 be
       -0.043168906 0.02537492 -0.019270668 -0.20359804
0000d0 98 fd 08 bc e6 20 8b 3d 0a 78 47 bd 3d 78 b5 3b
       -0.008361243 0.06793384 -0.048698463 0.005538015
0000e0 3c 85 45 bd 16 c7 ce 3d 67 f5 af 3d 2d a6 84 3c
       -0.048222765 0.100965664 0.08591729 0.01619252
0000f0 46 e8 e1 3e 6a 80 e1 3d 3a dd fa bd 6c 4a 42 3d
       0.44122523 0.11010821 -0.12249227 0.047434255
000100 5c 6f d3 3d b0 bd 8e 3e 90 72 c4 3d 97 e2 e3 be
       0.103239745 0.27879095 0.095921636 -0.44508812
000110 74 b3 be 3c 0f 5f 2f 3d 42 24 84 3d 77 55 6e 3f
       0.02327893 0.042815264 0.06452228 0.9309916
000120 0e 2a 8f 3e 01 03 ed bd 53 33 cd be 69 eb 0a bd
       0.27961773 -0.115728386 -0.4007822 -0.03391591
000130 f0 80 1f 3f 71 3a 40 3d f5 fc 58 bd 86 e5 7f 3d
       0.6230612 0.046930734 -0.052975614 0.06247475
000140 20 2f 27 bd 00 b1 b7 bd 52 2e 9c bd 01 91 9d be
       -0.040816426 -0.08969307 -0.076260224 -0.30774692
000150 39 88 14 3d 5c 14 14 3c ef 47 86 3d ae 6f ec 3a
       0.036262725 0.009038057 0.06556689 0.0018038654
000160 6d f7 97 bd 7b 44 04 3e 32 1b bd be f5 13 1c 3e
       -0.074202396 0.12916748 -0.3693481 0.15241988
000170 a3 46 24 bd 37 bf b5 bd 6a ac 00 3e 6a 93 61 3c
       -0.040106427 -0.08874362 0.12565771 0.013768056
000180 58 66 68 bf a8 3e 6f 3c 2c df 27 3d 39 de 01 be
       -0.90781164 0.014602341 0.040984318 -0.12682427
000190 f4 58 5c 3d ce f9 34 3d 58 6a 49 bd 1a 99 89 be
       0.05379577 0.044183545 -0.049173683 -0.2687462
0001a0 44 0a 89 3e 41 ae c4 3e 7b ab 8f be 56 da 7e bc
       0.26765645 0.38414195 -0.28060517 -0.015554985
0001b0 22 ef b4 3e 16 ce 93 3c 0c 0d 50 3c 7b e0 1b 3e
       0.35338694 0.018042605 0.012698423 0.15222351
0001c0 f2 53 de bd b6 dc ca 3c 8b 6b 3d 3c 4c 69 52 bf
       -0.10855855 0.024763446 0.011561285 -0.8219192
0001d0 5f 99 2c be 9e 92 20 3e 3c 3e 10 3f b4 bf 6a bc
       -0.16855381 0.1568093 0.5634496 -0.014327932
0001e0 4b 7c c8 bd b1 24 29 bf 03 fe 2b be 9c 8d b7 3e
       -0.09789332 -0.6607161 -0.16796117 0.35850227
0001f0 e5 1a b2 3e 18 1a 97 bd 8d 70 3a bd 5e b4 c5 bd
       0.34786144 -0.07378024 -0.045517493 -0.09653543
000200 04 b7 2a be 20 8c 11 3f 6e 5c 17 be 09 22 c7 3d
       -0.16671377 0.5685444 -0.14781353 0.097232886
000210 c4 59 d2 bc c5 54 c3 3d cd 91 e2 3d d8 bc 2f be
       -0.02567757 0.09537653 0.110629655 -0.17161882
000220 f0 bd c7 3e 20 1b de bc 0e 75 03 bc 64 c3 89 3d
       0.39012098 -0.027112544 -0.0080235135 0.06726721
000230 85 46 5b bf f1 b7 21 3f ef 0a f6 bc f4 04 26 bd
       -0.8565448 0.631713 -0.03003451 -0.040532067
000240 d2 d7 73 3d 44 32 14 3c 8e 43 40 3e a1 0e ea bd
       0.059531994 0.009045187 0.1877577 -0.114285715
000250 73 cb 82 bd d1 a6 08 be de 67 12 bd de 89 2d 3e
       -0.06386461 -0.13344885 -0.035743587 0.16947123
000260 03 95 3f bd a9 f1 15 3f 2b 46 ef bd 9a 1b d7 be
       -0.046772968 0.5857187 -0.11683305 -0.42013246
000270 da 4e 22 3e a2 87 d6 3c 9b 46 e3 3e 40 a7 82 bd
       0.15850392 0.026187722 0.44389805 -0.06379557
000280 59 3b 2a 3f 06 2c b3 3d 78 7c 7a 3d 65 81 1a 3f
       0.6649681 0.08748631 0.06115386 0.6035369
000290 20 83 af bd 52 f1 96 bc dc 1d 9f bd 6f ad 45 be
       -0.08569932 -0.018425617 -0.07769367 -0.19304441
0002a0 df 80 80 be 6c cd ac 3e 36 8a 05 be 52 46 0b 3b
       -0.2509832 0.33750474 -0.13041005 0.002125163
0002b0 42 63 cb be e7 c1 a5 bd 14 7c 52 bd aa 74 78 be
       -0.39724165 -0.080936246 -0.05138786 -0.24263254
0002c0 6d 51 dc be 97 71 1b 3e 34 84 c5 be 12 c1 bd 3e
       -0.43030873 0.1518005 -0.38577425 0.37061363
0002d0 af dd 8d bd 7d 0d 09 3f 5b e6 03 bf 63 2f eb 3d
       -0.069270484 0.53536206 -0.5152337 0.11483648
0002e0 07 03 37 bc 32 32 df bd b7 82 5c be a2 ff 0f 3f
       -0.011170155 -0.10898246 -0.21534239 0.5624944
0002f0 24 b7 b4 3d 18 32 99 3d bd c8 66 3d ce 49 8e 3d
       0.08823994 0.07480258 0.056343783 0.06947671
000300 de ad b1 be e7 51 f3 be 70 6c c5 bc cf d3 1c 3f
       -0.34702963 -0.47523424 -0.024099559 0.61260694
000310 6c c1 70 3d c5 0c a7 3b e8 01 42 3f 0d 60 70 be
       0.05877821 0.005097958 0.7578416 -0.2347414
000320 76 40 39 3f 13 f7 cf bc d8 6c a7 3e 98 40 0d 3f
       0.72363985 -0.025386369 0.3270023 0.5517669
000330 a2 79 95 3f bb ad 99 3f 61 9c 92 bd fc 62 71 3d
       1.1677744 1.2006143 -0.07158733 0.05893229
000340 48 12 d5 3d 39 ff f2 bd fc f5 5c be a3 b6 1c bf
       0.104038775 -0.11865086 -0.2157821 -0.6121618
000350 f1 85 42 bd cf 1c c1 be a7 a8 94 3e 5f 31 8d 3e
       -0.047491018 -0.37717292 0.29034922 0.2757673
000360 ac 39 ea 3d 45 8a f2 3e 8e 9d 45 bf 33 6e 46 bd
       0.11436781 0.47371116 -0.77193534 -0.048444938
000370 b0 fe fe bc a8 bc 2f be 0b 33 f3 3e 0b 33 6d be
       -0.031127304 -0.1716181 0.4749988 -0.23164003
000380 53 c7 d1 bf b0 54 28 bf e6 3b 07 3d 05 7e 1b 3f
       -1.6388954 -0.6575422 0.033016108 0.60739166
000390 41 c3 02 3e 8c ed 44 3e 7c b0 eb bc 8a 33 b8 3e
       0.12769796 0.19231242 -0.028770678 0.3597682
0003a0 4b 63 4a 3e 1b b0 cb be 24 e8 86 be 17 37 1f bd
       0.1976444 -0.39782795 -0.26348984 -0.038870897
0003b0 38 67 7d be 20 57 df 3d ca c0 79 3b 6d b7 c3 be
       -0.24746406 0.1090529 0.0038109296 -0.3822588
0003c0 d2 8a 47 bc 7f 43 6c 3e f6 f6 cb be fa c9 86 3f
       -0.012179093 0.23072623 -0.39836854 1.0530388
0003d0 ff 09 ec bc 26 2e 0c 3e e4 f5 16 be 4b 20 93 be
       -0.02881336 0.13689479 -0.14742237 -0.28735575
0003e0 06 32 0e be db f0 09 bf d4 43 08 3f 14 85 bd 3f
       -0.1388627 -0.5388314 0.532285 1.4806237
0003f0 6e 8c c1 3e f2 b5 a9 3d 2a f5 50 3d 6a e0 a5 bd
       0.37802452 0.082866564 0.051015057 -0.08099444

fc4.bias f4 [10]
000000 d8 c5 56 41 76 49 62 40 a0 8a 20 40 e5 c4 14 3f
       13.423302 3.5357337 2.508461 0.5811294
000010 d7 66 bf be 5c ab 06 bf 57 cf 28 be 26 b1 84 3d
       -0.37383148 -0.52605224 -0.16485344 0.06479101
000020 46 63 96 3b ce 14 29 3d
       0.004589471 0.041279607

fc1.weight f4 [32, 7]
000000 31 a2 94 be 7c 11 05 c0 10 28 c2 be 73 ca 87 bd
       -0.29029992 -2.0791922 -0.3792119 -0.06630411
000010 d6 a0 0c 3c 72 31 04 3d 7d 90 99 bc 78 b5 de be
       0.008583268 0.032273717 -0.018745655 -0.43497825
000020 8e 82 90 be 6a da 98 bd f8 cd 7b bf 27 a9 3b bd
       -0.28224605 -0.07463534 -0.9836116 -0.045815613
000030 05 19 a1 3b ac cb b6 3b 1c 73 51 bf d9 28 36 bf
       0.0049163126 0.005578479 -0.8181627 -0.7115608
000040 7e e7 21 3e ed e2 04 bd 8f 6d 61 bb d3 e4 d0 bc
       0.15810964 -0.032442976 -0.0034397577 -0.025499737
000050 54 dc 37 3b 60 25 3c bf b8 d2 96 3d 62 5d 25 bf
       0.002805491 -0.7349453 0.0736441 -0.64595616
000060 cc 31 2c bf 87 6b 28 3e 92 e9 c3 3d f7 52 3c 3a
       -0.67263484 0.16447268 0.095660344 0.00071839936
000070 5b 6d 38 bf 47 c0 1c bf 8f ee 29 bf ee 86 c3 3e
       -0.72041863 -0.6123089 -0.66379637 0.3818888
000080 d7 5c 03 3e 0e dc 63 3e 53 47 a6 3c dc 3b 0d bf
       0.12828384 0.22251913 0.020297682 -0.55169463
000090 73 96 4f be 6f 7f 34 3f bf 67 d4 be 84 fd 0f bd
       -0.20272236 0.7050695 -0.41485402 -0.03515388
0000a0 a2 15 1c 3e 94 b0 0d bc 63 dd 33 bf 13 40 e5 3d
       0.15242627 -0.008648057 -0.70259684 0.11193862
0000b0 90 fd 69 bf 80 44 be be 1f 0e 2b bc 8f 4c d3 bd
       -0.9140253 -0.37161636 -0.010440378 -0.10317337
0000c0 cd bb 8c bb 74 46 32 3f f4 83 15 3f 63 0c 42 3f
       -0.0042948485 0.6963875 0.5840447 0.7580015
0000d0 17 cd 28 be 9b 60 9f bc db f2 ee 3b f2 ac 93 ba
       -0.16484486 -0.019455245 0.007292134 -0.0011266752
0000e0 de 9f fd 3e c4 11 0c bf a5 e6 9e 3e a2 f3 8e 3e
       0.4953603 -0.5471461 0.31035343 0.27920252
0000f0 b2 72 94 ba 99 56 24 3c de 65 76 bb ba 3a 99 bf
       -0.0011325686 0.010030412 -0.0037597339 -1.1971047
000100 e5 31 72 3f 58 ff 22 be 8b 93 0f 3f 6c 25 33 3d
       0.94607383 -0.15917718 0.5608451 0.04373686
000110 d6 9d 14 3d 7b d4 2d 3c 1c 04 cf 3e 65 f0 29 bf
       0.036283337 0.010609741 0.40432823 -0.6638244
000120 d8 60 5d 3f e1 68 f9 be 0d 48 d9 bc 90 13 03 3d
       0.86475897 -0.4871283 -0.026523614 0.032001078
000130 aa 00 1c 3a 27 b8 bb be be 13 92 bf bf 56 99 3f
       0.00059510267 -0.36663935 -1.1412275 1.1979598
000140 64 87 0d 3f 8c ca f6 bc 26 9e 88 3d 55 20 11 bc
       0.55284715 -0.030125879 0.066707894 -0.008857806
000150 42 f1 26 bf b7 35 9b bb fc f2 37 bf 95 70 10 bf
       -0.6521188 -0.004736628 -0.7185514 -0.56421787
000160 d5 9c 43 3d e3 6d 5a 3d d2 50 10 3c 41 51 d8 be
       0.04775699 0.053327452 0.008808332 -0.42249492
000170 c2 3d b4 3f 02 11 96 3f d1 ca 77 bf bb 61 1d bd
       1.4081347 1.172394 -0.9679385 -0.03842328
000180 64 c1 c5 3d 46 9e ab bb 78 a4 40 3e 63 34 df bd
       0.09656027 -0.0052373735 0.1881274 -0.10898664
000190 66 27 69 bd 09 62 bc bb 6a 72 41 3f c5 ac db 3e
       -0.05692234 -0.0057489914 0.75565207 0.4290525
0001a0 b2 e7 23 bc d7 96 0d 3f a4 6c 29 3f ff 3a 1b be
       -0.010003971 0.5530829 0.661814 -0.15159224
0001b0 6d d5 6f bf ca de 4a 3c 22 3a 57 3d 0a 15 5d 3b
       -0.93685037 0.012382219 0.052545674 0.0033734464
0001c0 09 7a 4f 3d 8b 34 2a 3d cf 9d 9c 3d d6 d8 8a 3e
       0.05065349 0.041554015 0.07647287 0.27118558
0001d0 b2 da 33 bf 71 7e 02 3f fb 23 09 3b 99 e2 1a 3f
       -0.7025558 0.50974184 0.0020925987 0.6050201
0001e0 03 ee ad 3c c1 9c 2e 3f b8 b4 10 3f 96 71 c9 3e
       0.021231657 0.6820794 0.56525755 0.39344472
0001f0 1a 57 4c 3e f7 e0 84 3b af 37 b0 3e 6f 05 2b 3e
       0.19955102 0.004055138 0.34417483 0.16701292
000200 92 c6 bc be d9 17 51 bf a2 10 6f 3d 7c 83 2a 3f
       -0.36870247 -0.81677014 0.05836547 0.6660688
000210 96 3f c2 3c 85 d1 86 bd e2 b3 8d 3e 35 e6 50 bd
       0.02371196 -0.065829314 0.27676302 -0.051000793
000220 8c 82 43 3e e7 f3 88 3d d7 6e 5f be 4d d4 39 3d
       0.19092768 0.06687146 -0.21819626 0.04536848
000230 e8 5e 33 3f 83 03 af 3e e9 1d 82 3f 38 d8 6e bf
       0.7006669 0.34182367 1.0165378 -0.93298674
000240 65 98 c1 bc 9a 20 bf 3d c6 7c fc ba c0 ef c9 3c
       -0.023632238 0.0933239 -0.001926326 0.024650455
000250 37 6a 0f 3e b6 9c 75 be 1a 76 16 bf 6c 61 7e be
       0.14005361 -0.23985562 -0.5877396 -0.24841851
000260 60 2d fb be fc cf dd bc 45 8d f5 be a9 e1 04 3e
       -0.49058056 -0.027076714 -0.47959343 0.12976708
000270 56 41 30 bf c7 46 6f be 78 52 58 bd a1 61 a5 3e
       -0.68849695 -0.23366843 -0.052813023 0.32301047
000280 a0 29 fc ba da ab b0 3f c9 28 91 bf 5e 8c 2e bd
       -0.001923848 1.3802445 -1.1340572 -0.042614333
000290 09 23 e5 bc f4 53 b9 3b 95 c8 4b 3d 51 04 1c 3c
       -0.027970808 0.00565576 0.049751837 0.0095225135
0002a0 65 94 83 bf 8e 1b 5b 3f eb cb 4c 3d 3d 51 87 3c
       -1.0279661 0.8558892 0.04999916 0.01651823
0002b0 b6 98 01 3b b4 37 09 3c 84 1b 15 3b 42 49 79 3f
       0.001977486 0.008375097 0.0022751996 0.9737741
0002c0 dc 29 8e 3f 03 f5 dc bd 19 13 5f be 37 58 f3 bc
       1.1106524 -0.1078892 -0.21784629 -0.02970515
0002d0 99 8f fd 3c b9 d8 a7 3b 6e aa dc 3e 48 c0 36 bf
       0.030952262 0.005122271 0.43098778 -0.7138715
0002e0 32 a1 76 3f cc b5 08 3e 44 73 31 3b bc ae 89 3c
       0.96339715 0.133506 0.002707676 0.016806953
0002f0 eb e7 f8 bb 84 72 12 be be 81 9e 3e 98 19 c9 be
       -0.007596006 -0.14301497 0.3095836 -0.3927734
000300 64 95 00 3f 38 ec 19 bf 45 e0 59 3f 8d 03 c9 bc
       0.5022795 -0.60126066 0.85107833 -0.024537826
000310 2c 6c 1f bf 57 85 88 bf 52 20 74 3c d2 6e 52 bf
       -0.6227443 -1.0665692 0.014900284 -0.8220035
000320 57 97 55 ba be dd 22 bc 21 15 40 b9 c1 6a 31 bd
       -0.00081478566 -0.009940563 -0.00018318418 -0.0433147
000330 1a 90 c3 bc 25 6f 71 bc 51 64 2c 3f 6b 61 33 3e
       -0.023872424 -0.014735972 0.6734057 0.17517631
000340 66 8f 78 3e 5b ca 3a bd cc 29 52 3f 9d a2 47 be
       0.24273452 -0.045603137 0.82095027 -0.19495626
000350 07 d3 97 bf d5 bb e8 bb 6f a7 53 bb 8f 8a fa 3c
       -1.1861275 -0.0071024694 -0.0032295843 0.030583648
000360 6c 1f 95 3c 23 ba 14 3f 1f a5 69 3f c5 84 2e 3e
       0.01820346 0.5809652 0.9126758 0.17042835
000370 7b 3e 78 3e 3a 5d 28 3c d3 98 ff 3b cd fd ab 3b
       0.24242584 0.010276133 0.0078002005 0.0052487613

fc1.bias f4 [32]
000000 7e de e7 be 85 46 a8 bf 30 bd 53 3f 7f 5f 60 bf
       -0.45286936 -1.3146521 0.8271055 -0.87645715
000010 d5 1b 48 3f 97 d7 c8 3f de a4 ea bd 29 f9 03 3c
       0.7816747 1.5690793 -0.11457227 0.00805501
000020 1e c3 21 3f 10 85 05 bf ab 42 57 3f b9 51 e7 bd
       0.6318835 -0.5215616 0.840861 -0.11294884
000030 6c e1 30 3f 71 83 82 3f b0 47 18 3f 1e 98 8b bb
       0.69093966 1.0196363 0.59484386 -0.004260077
000040 6b 93 63 3f 38 bf 94 be a9 37 8f 3f 3f 08 13 40
       0.88896817 -0.29052138 1.1188861 2.2973783
000050 8f 6d 8a 3e 7c a2 e6 3f cd 83 4c be 11 c9 8f be
       0.27036712 1.8018336 -0.19972153 -0.2808309
000060 ea bb 6a 3f 8f 8f f7 3e 58 de dc bd 63 b9 dc be
       0.91692984 0.48351714 -0.10784596 -0.4311019
000070 06 e5 53 3f 9c 60 df 3f 9a c8 44 3d 88 df 04 bf
       0.8277134 1.7451358 0.04804287 -0.5190358

fc2.weight f4 [128, 32]
000000 7a 59 9c 3d b6 0a 59 3d 67 57 b3 3e c0 4e 96 be
       0.07634254 0.05298873 0.3502762 -0.29356956
000010 32 73 ba 3d 56 08 9c be 98 c7 a8 3e fe 7e 88 3e
       0.09104003 -0.3047511 0.32964778 0.26659387
000020 cd 08 4a 3e f9 f8 20 be 33 ac 77 3e 61 9a be bd
       0.1972992 -0.15719976 0.24186783 -0.09306789
000030 88 36 d9 be 8c 43 1d be 7a 7a 73 3e 67 99 2a 3d
       -0.42424417 -0.15357798 0.2377719 0.041650202
000040 8a a7 87 bd 98 38 1b be 20 fd d5 bd 4a 1f 58 3e
       -0.066237524 -0.15158308 -0.104486704 0.21105686
000050 e0 6f c2 3e e8 ac 1c 3d 5b 48 26 be b2 1f 80 bd
       0.3797598 0.038250834 -0.16238539 -0.062560454
000060 70 1b a6 be e2 b0 31 bd 2e 7d ae 3e 0f c2 ac 3e
       -0.32442808 -0.04338158 0.3407988 0.33741805
000070 9c 3f 4c 3e d7 2b 1d 3e df b2 1f 3d 73 25 18 3f
       0.1994614 0.15348755 0.038988944 0.5943214
000080 d4 83 16 bf e7 59 0d bf 4e c2 04 3e ee 27 8b be
       -0.58794904 -0.55215305 0.12964746 -0.271789
000090 e6 22 c1 3d f9 99 b1 bc 18 8f e0 3e ed b2 cd bd
       0.094304845 -0.021679865 0.43859172 -0.10043893
0000a0 8e ab 26 3f c7 22 f6 3d 05 25 45 bd ea b2 87 3d
       0.6510552 0.12018352 -0.048131008 0.06625922
0000b0 a2 e5 03 3e 05 9b 2a bd 40 be 2f b8 46 d7 89 be
       0.12880567 -0.041651744 -4.1900435e-05 -0.26922053
0000c0 68 5f 58 3e 2c d6 bd 3e fa fa 0e be 73 87 7f 3d
       0.21130145 0.37077463 -0.13962927 0.062385034
0000d0 e5 93 9d bd a4 e3 eb bc 1c 41 e8 3e 6d 6f b9 3c
       -0.07694224 -0.028795071 0.45362175 0.02263614
0000e0 8d 7d 8e be 53 91 34 bf 51 f8 65 3d 01 c8 3d be
       -0.27830163 -0.7053425 0.056145016 -0.18533327
0000f0 9e e0 a7 3e 10 d1 72 3e 7e 8b 83 3e a6 a3 59 3f
       0.32788557 0.23712564 0.25692362 0.8501533
000100 2b fa 01 be 5a 51 db be 40 d7 d4 3e 6f 9b 65 bd
       -0.12693088 -0.42835504 0.41570473 -0.056056436
000110 7a 73 15 bc cb 0d cd bc 88 75 3c 3f 7f e3 40 bd
       -0.00912177 -0.025030991 0.7361684 -0.047091957
000120 15 5f e0 3c 8b 93 7a be f2 09 f3 be 96 32 af 3c
       0.027389089 -0.24470346 -0.47468525 0.021386426
000130 7b d1 d9 3d 78 13 7d 3e ef 25 42 3e 99 cf eb bd
       0.10635658 0.24714458 0.18959783 -0.115142055
000140 0a 8b ee 3d 6c 5f 1c bf a3 34 43 be c4 54 a6 3d
       0.11647613 -0.610831 -0.19063048 0.081216365
000150 49 e6 1e bf 7c 22 e2 3e 2d d3 b4 3e d1 a4 13 be
       -0.6207014 0.44166934 0.35317364 -0.14418341
000160 46 66 74 3e 91 f3 0f 3e da 81 ab be 3f 27 98 be
       0.23867139 0.14057757 -0.33497506 -0.29717442
000170 39 f5 d5 bd bc 78 51 bd d7 1f c4 bc 8f 1e 7d be
       -0.10447163 -0.051140532 -0.023940964 -0.24718688
000180 d3 22 33 be 75 d4 65 be d6 d1 25 bd cb 11 ca be
       -0.17493753 -0.22444327 -0.04048332 -0.394667
000190 1f 81 39 be b2 2e 90 bc 21 ef 94 3d 35 35 c4 bb
       -0.18115662 -0.017600391 0.07272173 -0.005987788
0001a0 9a fa 4f 3e 02 a6 0b 3e 66 18 cd 3d 91 4d cd bd
       0.2031044 0.13637546 0.10014419 -0.1002456
0001b0 40 ea 6d be cc da 24 3d be 04 5b 3e e0 cf f6 bd
       -0.2323389 0.040247723 0.21388528 -0.12051368
0001c0 a1 a8 93 3d 6a 3b 5e be 12 ec ae 3e 05 da 04 3f
       0.07209898 -0.21702352 0.34164482 0.5189517
0001d0 b4 a6 3d be b3 7c 27 3f f2 a1 1c 3e c9 2e df be
       -0.18520623 0.6542465 0.15296152 -0.43590382
0001e0 19 28 c8 be ff ba 87 be e9 a8 a0 bc 03 14 14 be
       -0.39093092 -0.26509854 -0.019611793 -0.14460759
0001f0 83 ab 06 be bd 4c a2 3e 11 e9 74 bd 8c 41 2e bd
       -0.13151364 0.31699172 -0.059792582 -0.04254298
000200 0f 8e a0 3e 5f 40 04 3d 78 ca 2b 3e 20 0f 6c 3a
       0.31358382 0.03228795 0.16776454 0.00090049393
000210 51 57 9a 3e 54 b9 64 3e ea 16 23 3f ab 7b 50 3e
       0.30144742 0.22336322 0.6370684 0.20359676
000220 1e af 65 3e 12 9f 37 3d 53 9d e8 3c 9d 25 dd 3d
       0.22430083 0.044829436 0.02839533 0.1079819
000230 cc 1b 61 be 35 6d b9 bd 1f 7f d4 3e bf 53 f4 3c
       -0.2198326 -0.09054033 0.41503236 0.02982509
000240 c8 26 29 3f a4 07 0f 3e eb 93 12 3e 93 13 e0 bd
       0.660748 0.13967758 0.14314239 -0.109412335
000250 44 78 fe 3d ac 22 8a be 4c 59 a1 3e e4 9f 26 3d
       0.124252826 -0.26979578 0.3151344 0.040679827
000260 f4 e0 07 3a f7 14 83 bd fc 84 56 3e 51 2f ad 3e
       0.0005183362 -0.06400483 0.20949167 0.33825162
000270 cb 54 8c 3d 8f ac 18 3f a9 88 64 be 7d 2a 89 3e
       0.068521105 0.59638304 -0.22317757 0.26790228
000280 a7 54 96 ba 28 e0 62 3e 1d 05 2e 3e c6 e5 c9 3c
       -0.001146932 0.22155821 0.16994138 0.024645697
000290 2d b2 1a 3e b1 ac 2b be a9 85 6c be 4a 99 6a 3e
       0.15107031 -0.16765095 -0.23097862 0.22910038
0002a0 3e 37 8f 3e c1 f5 e0 3c ab e5 dd bd 64 72 48 bd
       0.27971834 0.027460935 -0.10834821 -0.048937216
0002b0 c5 c0 84 3e c9 93 77 3e 2c 3f e7 bd c9 01 0e 3e
       0.2592832 0.2417747 -0.11291346 0.13867868
0002c0 52 05 2e be b2 9c 4e 3c f0 5c 33 3e 14 c9 23 be
       -0.16994217 0.012610601 0.17515922 -0.15994674
0002d0 4a c9 33 bd 80 40 50 3d 3d 25 4c bd d7 fb cf 3e
       -0.043893136 0.050842762 -0.0498402 0.40621826
0002e0 70 98 95 3d d0 ce 30 3e 45 40 da be 9b 60 40 3e
       0.07304466 0.17266393 -0.4262716 0.18786852
0002f0 08 c3 d2 3c 43 ba f3 bd a2 0c 19 3e 3b 48 ea 3d
       0.025727764 -0.11900761 0.14946225 0.11439558
000300 1a e8 09 3d a1 d7 97 3e b1 cd 08 3f cd cb f9 bd
       0.033668615 0.296567 0.5343886 -0.12197075
000310 92 98 9a 3e 84 00 c1 3e d9 07 8b 3e 4c 64 70 3e
       0.30194527 0.37695706 0.27154425 0.2347576
000320 54 b8 3e bd 7e 6a 16 3e e7 da 04 3e 3b ec f2 3c
       -0.046562508 0.14689061 0.1297413 0.02965366
000330 48 37 b6 bc 39 42 e5 bc d9 d6 89 3e 0d cc 26 bd
       -0.022243157 -0.027985679 0.26921728 -0.04072194
000340 f4 8f b4 3d 12 91 50 3e c7 68 48 3e 2a 74 e7 3e
       0.088165194 0.2036784 0.1957122 0.45205814
000350 95 83 e5 3b c4 19 47 3e 76 1e 05 3e 36 7d 4d 3e
       0.007004211 0.19443423 0.12999901 0.20067295
000360 db 40 88 3d de 0e 1e 3e f8 6d 17 3e b9 63 f8 3c
       0.06652995 0.15435359 0.14788043 0.030320989
000370 71 6a 8a 3e 1c 28 12 3f 62 b6 2a 3e ae 71 49 be
       0.27034333 0.5709245 0.16671136 -0.19672272
000380 b4 6a cc 3e 93 53 8c 3d 26 56 25 be 4b f2 3f be
       0.39925158 0.06851878 -0.16146144 -0.18744771
000390 c8 c2 f3 bd da cf 00 be a3 87 f5 bd bf 78 0c bd
       -0.11902386 -0.12579289 -0.11988761 -0.03429484
0003a0 74 2b 3b 3f fe 5b 8d 3e 4b 5e d4 3d 1c 60 ef 3e
       0.7311318 0.27609247 0.103695475 0.46753013
0003b0 f0 56 cf be 06 47 a6 3e 3c 75 81 3e ca 01 a6 3c
       -0.40496016 0.32476062 0.25284755 0.020264525
0003c0 b2 f6 ee 3d 80 8f 71 3d 5e b3 2a be 2b ae de 3d
       0.11668147 0.058974743 -0.16669986 0.10873064
0003d0 50 4d 0e be e8 81 a1 3d 61 86 9c be e7 cc 8d 3e
       -0.1389668 0.07886106 -0.30571273 0.2769539
0003e0 6b 5f a7 3e 1b 38 70 3e 60 6d a0 be 76 e4 12 3e
       0.32689986 0.23458903 -0.31333447 0.14344963
0003f0 4b e8 e0 be 8a 09 96 3e 3a da 2e bd 65 b9 5d bd
       -0.43927225 0.29304153 -0.042688586 -0.054131884
