logs/sdf_single_all_distances/state_66.pt (torch, 122503 bytes, 16 tensors)

fc1.weight f4 [32, 7]
000000 e9 2f 86 3e d4 17 f7 be d9 d4 86 be 82 31 dd be
       0.26208428 -0.48260367 -0.26334265 -0.43201834
000010 d6 15 39 bb d5 70 02 3f 94 47 09 bc 80 00 e7 be
       -0.0028241775 0.5095342 -0.008378882 -0.4511757
000020 8b 13 63 be 0e 58 e6 3e 8d 46 82 3d b4 f5 85 3b
       -0.22175424 0.44989055 0.06361113 0.004088128
000030 ed 7f 8a bb b4 5c 57 3b eb dd 54 bf 3e 64 96 3f
       -0.0042266757 0.0032861652 -0.8315112 1.1749341
000040 c4 75 35 bd cf 5f 0a 3f 59 b7 eb 3b a8 77 30 3b
       -0.044301763 0.5405244 0.0071934876 0.002692679
000050 bf aa 74 ba 8a 2f 06 bf a1 41 41 3f 8a af bd 3e
       -0.00093333045 -0.5241629 0.75490767 0.37047988
000060 35 a2 49 bf 2a 6f 90 3b 5a 23 09 3d 23 58 ab 39
       -0.78763133 0.004407783 0.03348098 0.0003268133
000070 cc 10 0b 3d 25 30 01 bd 53 fb 70 3c 63 09 50 3e
       0.033951566 -0.031540055 0.014708358 0.20316081
000080 b1 b1 54 3f 55 06 4c 3f 64 04 f6 bc f2 04 55 ba
       0.83083636 0.7969716 -0.03003139 -0.0008126042
000090 d6 29 4b be 39 2a 07 3c 1d 4f 51 3e 85 e9 bb 3d
       -0.19840178 0.008249813 0.20440336 0.091754
0000a0 c2 e6 18 be 5c 1a d9 3b 89 3f 37 3f 2b fe 50 bf
       -0.14931777 0.0066254567 0.7158132 -0.8163783
0000b0 15 44 9d bd f9 c0 28 bf 4c 9e a9 bc 21 a0 9a 3b
       -0.07679001 -0.6591945 -0.020705365 0.004718796
0000c0 07 b9 52 b9 bf 93 95 bf e4 15 ed 3d 44 23 b7 3e
       -0.00020096089 -1.1685714 0.11576441 0.35769093
0000d0 8c 42 fa 3e e6 93 8c 3c 65 2b 52 3d 90 fe 90 bb
       0.48878896 0.017160367 0.051310915 -0.0044248775
0000e0 af 2e db bd fd 9e 0b 3f 70 27 8f bd 62 85 c8 be
       -0.107022636 0.5453947 -0.06989944 -0.39164263
0000f0 d8 b1 90 3d e9 87 84 be 51 03 1b bc 49 4f 17 bf
       0.07065171 -0.2588494 -0.00946124 -0.59105355
000100 8a 18 80 3d 07 57 2c bf dd b3 dc 3e bb d9 83 bc
       0.062546805 -0.67320293 0.43105975 -0.016095033
000110 56 68 c3 3c b1 89 2e bb d3 fb 85 3e 65 80 a3 be
       0.023853462 -0.0026632363 0.2616869 -0.31933895
000120 54 8f 76 3e 5a 13 86 3e a8 41 01 3d fc c6 32 bd
       0.24078113 0.2618664 0.031556755 -0.043646798
000130 0a 77 35 ba 98 82 8b 3f d9 4f 8b 3f 87 ab 00 3e
       -0.000692234 1.0899229 1.0883743 0.12565432
000140 75 28 94 3e 18 a3 c2 3c 29 2a 09 3b 03 5c ba 38
       0.28937116 0.02375941 0.002092967 8.88631e-05
000150 93 bf 6f bf ef 97 9e be 98 10 94 bf 76 0a 9a be
       -0.93651694 -0.3097529 -1.1567564 -0.30086106
000160 99 5c 43 bc 5f 70 3a 3c 0d a5 c3 3a c8 ff 84 3f
       -0.0119239325 0.01137933 0.0014926508 1.0390558
000170 13 23 ba 3e cf 40 7f 3f 6a 43 b7 be 61 d9 a4 bc
       0.36354885 0.99708265 -0.3579362 -0.020123186
000180 31 71 d9 3b 49 5e 82 3b d8 c6 f0 be bf e2 07 bf
       0.006635808 0.003978525 -0.47026706 -0.5308036
000190 33 49 4e bd 37 cd 99 3e 91 dd 92 3b 18 bd 94 bc
       -0.050362777 0.3003938 0.004481979 -0.018156573
0001a0 27 d3 80 b9 f0 99 03 3f a7 13 00 3f da b5 9d 3d
       -0.00024571383 0.51406765 0.5002999 0.07700701
0001b0 74 9e 6b 3e 9f 05 f7 bb 07 41 9f 3b 9c 73 11 3b
       0.23009664 -0.007538512 0.004860047 0.0022194153
0001c0 9e d1 36 be f1 45 80 bf 65 9b 36 3e e3 45 7b bf
       -0.178534 -1.0021344 0.17832716 -0.98153514
0001d0 98 69 ab 3d 13 a7 ac 3d f5 ba df bb 25 92 82 bd
       0.0836975 0.084303044 -0.006827707 -0.06375531
0001e0 37 e1 a1 be 79 b4 bf 3f 2e 33 53 be 42 91 44 3d
       -0.31617138 1.4976951 -0.20624992 0.04799009
0001f0 98 df 0e 3c f6 d8 23 b9 a2 66 cf be 4a 78 d1 be
       0.008720301 -0.00015625716 -0.4050799 -0.40912086
000200 6b 06 f5 be 4b d6 27 be 67 31 c4 3c 75 7d bc ba
       -0.4785646 -0.1639034 0.023949338 -0.0014380651
000210 61 b5 82 39 72 e6 2a 3f e9 f0 80 be 34 8e 29 3f
       0.0002493067 0.6675788 -0.251838 0.6623261
000220 e4 c4 12 3e bb 9e be 3c 32 22 4d 3b 9a ce 26 bb
       0.1433292 0.023269048 0.00313009 -0.0025452734
000230 19 d7 24 3f 90 97 62 3f e5 64 01 bf c4 4c c1 3e
       0.6439071 0.88512516 -0.5054458 0.3775388
000240 80 3b 5f 3b e5 ce f2 bc c4 bb af ba 15 aa aa bc
       0.0034062564 -0.02963967 -0.0013407399 -0.020833055
000250 58 b3 9f 3e 79 ef 09 bd 13 44 06 bf b7 f8 f7 3e
       0.31191516 -0.033675645 -0.52447623 0.48431942
000260 6c e4 b9 3e eb b3 e0 bb 52 39 3c 3f 9b ed 59 3f
       0.36307085 -0.0068573854 0.73524964 0.8512818
000270 80 14 bd bd c6 b8 48 3f 57 d0 fd 3b e1 c6 9f bc
       -0.09232426 0.7840694 0.0077457833 -0.019504013
000280 49 81 e3 ba d1 a3 44 3f d3 21 b9 be 94 04 5b 3f
       -0.0017357256 0.76812464 -0.36158618 0.8555386
000290 f2 32 09 3f a9 ee 5e 3c 41 1b 02 ba 24 6d e1 ba
       0.5359336 0.013606706 -0.00049631676 -0.0017198664
0002a0 cc c3 a1 bc e9 8b c3 bc 18 f0 e3 3e fe 42 5f 3f
       -0.019746684 -0.023870425 0.44519114 0.87211597
0002b0 2e c1 7f bc f3 4f 4e 3d f8 c5 42 3b 0d 6c 65 bf
       -0.0156100225 0.050369214 0.002972005 -0.89618
0002c0 1f a5 5b bf f2 98 b6 3d 73 41 e6 3e 10 fd 22 3c
       -0.8579883 0.08915891 0.4497181 0.00994803
0002d0 7e 28 56 3c cb f2 35 bb 83 47 34 bf 5e e8 41 be
       0.0130711775 -0.0027763124 -0.7042162 -0.18936297
0002e0 03 9e 36 bf a9 13 54 3e 09 b1 5d bc 7e 5a a6 bb
       -0.71334857 0.20710625 -0.013530978 -0.0050767055
0002f0 f3 2e b9 3a 18 e5 04 3f b6 0b 6b 3e 45 20 18 3f
       0.0014128372 0.5191207 0.22953686 0.5942424
000300 bd f9 a8 3e 77 38 04 3c 65 7e 90 3c bc 4a 94 38
       0.33003035 0.008070103 0.017638395 7.07111e-05
000310 03 d9 6a be 3b e1 05 be 3f c3 a0 3e 9f 1c 57 3e
       -0.22934346 -0.130742 0.3139896 0.21007012
000320 69 53 19 be fa 14 9d 3e 07 dc 9a bc f5 8e b9 3f
       -0.14973225 0.30680066 -0.018903745 1.4496752
000330 7c 14 87 bf 93 92 ee bd ae 87 bf 3e 86 e4 96 3c
       -1.0553126 -0.116490506 0.37408203 0.018419515
000340 f9 29 44 bc a2 f9 47 ba dd 88 40 3f 5f 0a 51 3f
       -0.011972898 -0.0007628446 0.75208837 0.8165645
000350 64 ac 32 3c 35 ea ff be 17 c8 a4 bc cb 1a f3 3d
       0.010905359 -0.49983373 -0.020114942 0.11870345
000360 d5 41 17 bc a0 12 6e 3c fc 3b 02 3f 95 d2 1f 3e
       -0.009232004 0.014530808 0.5087278 0.15607674
000370 a2 0e 6b be 47 05 8b be cb 94 3c 3e 6e b2 23 3c
       -0.229548 -0.27152464 0.18416135 0.009991271

fc1.bias f4 [32]
000000 ed 03 95 3f ec 4c 6e 3f 41 10 09 3f db 73 8b 3e
       1.1641823 0.93086123 0.53540426 0.27236828
000010 ec e6 2a be 29 78 d0 3f 86 99 5a 3f 10 90 2a be
       -0.16689652 1.628667 0.8539051 -0.16656518
000020 5e c8 e1 3f b2 f9 46 3f ee ad a6 3f 50 f8 b5 bd
       1.7639272 0.77724755 1.3021829 -0.088852525
000030 a0 02 6a be fb 8c 74 3d 21 65 5d 3f 0d 6c 70 3f
       -0.22852564 0.059704762 0.86482435 0.9391487
000040 3b a0 8b 3d be d3 10 be 1c 15 36 3f f6 d4 1c 3f
       0.06817671 -0.14143273 0.7112596 0.6126245
000050 d6 59 14 bf 92 47 81 3f 12 0e 26 3d 4f 5f 68 bd
       -0.5794958 1.0099967 0.040540762 -0.05673152
000060 f8 e5 b1 3f 0a 4b 05 3e 41 cf 28 bf 94 34 2a 3f
       1.3898306 0.13016906 -0.65941244 0.6648648
000070 c2 09 9e 3f 10 52 31 bf f7 eb 8b 3e 62 94 a9 3f
       1.2346728 -0.6926584 0.27328464 1.3248408

fc2.weight f4 [128, 32]
000000 76 cb a8 3c 63 be 93 3e dc cc 62 bd 2d 36 44 3e
       0.02060483 0.2885619 -0.05537115 0.19161291
000010 f5 3f 04 3e ee 55 1e bd 67 81 54 3e b4 fd a1 3c
       0.12915023 -0.038656168 0.20752488 0.019774295
000020 95 77 ad 3e 38 78 8b 3e 57 b0 94 3e c9 a9 fd 3e
       0.33880296 0.27240157 0.29040787 0.49543598
000030 06 de 1d 3e fe a1 bb 3e dc 21 97 3e 9b 3c 45 3e
       0.15416726 0.36647028 0.2951802 0.192614
000040 5c cd 0a 3e ca 93 7a 3e ce a5 c3 3e 37 5c 85 3d
       0.13554901 0.2447044 0.38212436 0.06511729
000050 36 01 eb bd 59 05 4b 3e e1 c6 79 3e e1 ef 8e 3d
       -0.1147484 0.19826259 0.24392273 0.06979347
000060 74 6d af 3d b3 a0 9d 3d e3 0f dd bd d5 39 85 3e
       0.085657984 0.076966666 -0.10794046 0.26020685
000070 89 f4 0c 3e 4c 0c aa 3d 0d 13 06 be 4a 28 ab 3d
       0.13765158 0.08303127 -0.13093205 0.08357294
000080 ee 1b 87 3e c0 da 79 3e e5 d5 70 bf 04 08 1d bf
       0.26388496 0.24399853 -0.9407638 -0.61340356
000090 e1 e4 98 3c 09 ee 01 3f 50 d5 a8 3d 39 b0 42 bf
       0.018663825 0.5075384 0.08243811 -0.76050144
0000a0 31 d5 0c 3d 2f 0c 36 be 34 34 1a 3f 40 14 d6 3e
       0.034383003 -0.17778085 0.60235906 0.41812325
0000b0 bb 94 d8 bd 88 6b 5d 3e 4f 50 b6 3e 06 4c 90 3d
       -0.10575243 0.21623051 0.35608146 0.0704575
0000c0 d6 fb e2 be 6d ad 67 bc cf e6 41 bd e6 f3 10 3d
       -0.4433276 -0.014140469 -0.047339257 0.03538885
0000d0 cf cd 02 3f 17 02 6c bd e4 3c a5 3e ad 14 04 bf
       0.5109529 -0.05761918 0.32273018 -0.5159405
0000e0 0c d9 dd 3e fe 51 d6 3e 96 69 af 3e cb 98 91 3e
       0.43329656 0.4185943 0.34260243 0.28436884
0000f0 44 fa 32 3e e4 8a 85 be e2 e6 ec bc 18 f1 e5 bd
       0.17478281 -0.26082528 -0.028918687 -0.112276256
000100 59 36 89 bd 33 be f7 3c d0 41 34 3e e7 fc bc 3d
       -0.06699819 0.030242061 0.1760323 0.09227925
000110 aa 27 2f be 5c 3e 4c be c7 85 97 3e f4 46 f8 3d
       -0.17104974 -0.19945663 0.29594252 0.12122908
000120 1b 8a c1 bd 6f f5 e8 3e 8e 5e 07 bf f3 11 ba be
       -0.0945017 0.4549975 -0.52878654 -0.3634182
000130 6d f1 c8 3e 9e 82 c5 bd 44 8d fa 3d 7b 4a b4 be
       0.39246693 -0.09644054 0.122339755 -0.35213074
000140 5b ac ec 3d bd 01 18 3d 65 a7 ff bc ad 14 5e 3e
       0.11556312 0.037111033 -0.03120775 0.21687575
000150 b6 28 3c bc cc 8a 4f 3e df f3 26 bf a1 9d a5 3e
       -0.011484316 0.2026779 -0.6521587 0.32346824
000160 bd df 0d 3f e4 25 a4 3b 00 0f fe be 3c a0 1e be
       0.5541952 0.0050093997 -0.4962082 -0.15490812
000170 13 db a1 bd 88 9f 5b 3e fc dd 97 3d 49 43 8f bd
       -0.07903113 0.21447575 0.07415387 -0.069952555
000180 e5 22 92 bb 58 dd a1 3b 11 2c 9b 3d d3 c2 81 3e
       -0.004459726 0.0049397163 0.075767644 0.25343952
000190 e4 a0 ef be ca 18 a2 3d 30 00 b2 3e 0e b2 08 be
       -0.46802437 0.079148844 0.34765768 -0.13349172
0001a0 c3 50 b0 3e 3e b5 88 3d 31 ef 13 be 6e 76 0a bd
       0.34436616 0.06675194 -0.14446713 -0.03380435
0001b0 55 65 78 3d 59 81 66 be 78 94 5a 3e 9f 98 59 3d
       0.060643513 -0.2251028 0.21345699 0.053124066
0001c0 39 9a 53 bc 30 de cd 3d fd 8d 4a be 8a 5e 13 bd
       -0.0129151875 0.100521445 -0.19780727 -0.03597883
0001d0 f4 4b 44 bd e4 54 3a 3e bd 5c 3c 3e 5a 56 cc bd
       -0.047923997 0.18196446 0.18394752 -0.09977408
0001e0 84 d1 ba 3d 1c 07 33 3e f9 14 46 be 2d b1 4b be
       0.09121993 0.17483181 -0.19343938 -0.19891806
0001f0 49 04 ae bb 93 74 14 3e 37 9d ea 3d a3 0d 16 3e
       -0.0053105694 0.14497595 0.114557676 0.1465364
000200 7b b7 e3 3c 71 d7 03 3e b4 d8 5e be e1 d8 10 bf
       0.027797451 0.12875153 -0.21762353 -0.5658093
000210 8a be 11 3e 15 fb c6 3e 78 4c 55 be a4 08 a6 bd
       0.14232841 0.38863435 -0.20829952 -0.08107117
000220 72 51 29 3e 8f 34 9d be 93 44 ae 3e cc 83 4f 3e
       0.16534975 -0.30704162 0.34036693 0.2026512
000230 3b 83 b2 be 67 35 12 3c b1 93 9f 3e 6b 10 0d 3e
       -0.34865746 0.008923865 0.31167367 0.13775794
000240 9d fb 30 bd 05 cb a6 bd ef 59 7a be 5e cf 84 bd
       -0.043208707 -0.08144192 -0.2444837 -0.06484865
000250 b6 ce cd bc f4 bd 84 bd f0 14 04 3c da 31 e7 bc
       -0.025122982 -0.06481543 0.0080616325 -0.028222013
000260 81 d5 16 3d 41 3c 58 be e1 0b 4f 3e d5 6a a5 3e
       0.036824707 -0.21116735 0.20219375 0.3230807
000270 a3 90 7c 3e f3 fc bb 3c 26 18 51 be a3 f6 8d 3e
       0.2466455 0.022947764 -0.20419368 0.2772723
000280 cc d9 b1 bd 51 1e 1b be 58 11 ec 3d df 62 76 be
       -0.086841196 -0.15148284 0.115267456 -0.24061154
000290 6e 1b 0f 3e f0 2d b9 3e 9e 5e 22 bd d5 80 45 bd
       0.13975307 0.3616786 -0.039641015 -0.048218567
0002a0 cd 96 45 3e 7f 82 2b 3e a4 44 b5 3d 64 76 ee bd
       0.19295807 0.16748999 0.08850983 -0.11643675
0002b0 ef eb 5a 3e 7e de 84 bb 62 62 81 3e d4 62 2f 3e
       0.21379064 -0.0040548434 0.25270373 0.17127544
0002c0 c3 22 14 be 76 08 d7 bd 4f 5b 74 be b3 82 b7 3b
       -0.14466386 -0.10499661 -0.23862956 0.0056002974
0002d0 6e c2 53 3e 31 2e 88 3d 56 c9 8c 3e 2c a3 7f bd
       0.20679638 0.06649435 0.27497357 -0.062411472
0002e0 04 46 d1 be 19 9b 3d be 7f c8 57 bf 97 dd 05 3f
       -0.4087373 -0.18516196 -0.8429031 0.52291244
0002f0 d1 bf 89 3e 1a f5 5c be c2 40 55 be e8 96 94 3e
       0.26904157 -0.21577874 -0.20825484 0.29021382
000300 1e fb 3c 3d 10 62 84 bd 3d e3 99 3d bc c8 06 bf
       0.04613792 -0.064640164 0.075140454 -0.52650046
000310 ec 23 a0 3d 59 42 4d 3e 42 d4 8d bd a9 10 c3 3d
       0.078193516 0.20044841 -0.069252506 0.09524662
000320 16 6e 72 3e af 1d 32 3e 1d 64 99 3e f2 38 15 3d
       0.23674807 0.17394136 0.29959193 0.03643126
000330 ae 18 31 bf 88 97 fe bd e8 e0 16 be fc f4 92 3d
       -0.69178283 -0.12431246 -0.14734232 0.07175633
000340 25 4a d8 bd 94 5f c1 3d 10 a9 76 be 0e 56 25 3c
       -0.10561017 0.09442058 -0.2408793 0.010091318
000350 4d 08 84 bb f6 72 ab 3c 65 85 e4 3d 21 61 66 be
       -0.00402931 0.020928841 0.111582555 -0.22497989
000360 45 49 a6 3e 71 ec 7e 3d 5c 47 25 be b9 d6 cc 3a
       0.32477775 0.062237207 -0.16140503 0.0015627957
000370 70 f1 26 3e a7 25 00 be 28 8d b4 bd e2 4d 71 3e
       0.16303039 -0.12514363 -0.08815986 0.23564866
000380 24 38 ed bd 06 a5 a9 3d ef 2b 38 3e 01 70 05 3e
       -0.115829736 0.08283429 0.1798551 0.13031007
000390 a5 6f c2 bd 3c a5 8f be 65 85 e2 bd 38 7c f5 be
       -0.09493951 -0.2805575 -0.11060599 -0.47946334
0003a0 ee 5f 0d 3e 1f ae 86 3e 4e 0a 30 bf 22 1e 45 3e
       0.13806126 0.2630472 -0.68765724 0.19249776
0003b0 6a 6e 10 3e 68 66 b6 3e df db 55 be 6d 0c f9 be
       0.1410462 0.35625005 -0.20884655 -0.48642293
0003c0 11 c3 62 3d 3f fd df bd c1 93 16 bc 3b da 46 be
       0.05536181 -0.10936975 -0.009190501 -0.19419186
0003d0 40 df d7 bc 96 f5 65 3e 55 c2 6e 3e 25 0c 74 3e
       -0.026351571 0.22456965 0.2331632 0.23832758
0003e0 cf c0 c9 be e2 42 10 3f 3a 11 b6 ba 7f bb 97 be
       -0.39404914 0.56352055 -0.0013890632 -0.29635236
0003f0 50 bf 21 bd 29 be e5 3e 53 67 8e 3e 90 bf 0c 3e
       -0.03948909 0.44871643 0.27813205 0.1374495

fc2.bias f4 [128]
000000 ae f1 99 3e 6a f8 7e 3e d5 51 00 bc 80 d0 22 3e
       0.300672 0.2489945 -0.00783201 0.15899849
000010 c3 34 cb 3e 1f 06 9e 3e 2d 88 2c 3f 9a 42 1f 3d
       0.39688691 0.30864045 0.6739529 0.038881876
000020 f9 da e3 3e 15 80 1c 3f 5c 4b f1 3c 8d 9b 63 3e
       0.44503 0.6113294 0.02945488 0.22227307
000030 e6 91 27 3f ea 9d cd 3e a4 d9 85 3e e7 fd a4 3d
       0.65457 0.4015954 0.2614261 0.080562405
000040 1e 27 ea 3e de 3c 0b 3f d3 1e 24 3f d7 8d e1 3e
       0.4573297 0.5438975 0.64109534 0.44053528
000050 c4 ab 30 3f 42 fe 7d 3e e4 1b c6 3e e1 18 e3 3e
       0.69012094 0.24804023 0.38693154 0.4435492
000060 dd 32 4c 3f 3c 63 1d 3f 0c b9 a5 be 34 44 1a 3f
       0.7976511 0.61479545 -0.32367742 0.6026032
000070 8d f4 f2 bd f8 6c fb 3e 42 c3 40 3e fe b4 19 3f
       -0.118630506 0.49106574 0.18824485 0.600418
000080 71 ce 77 3f 7d 5f bf 3e 90 45 db 3e 83 bd 14 3f
       0.9679938 0.3737754 0.4282651 0.5810167
000090 d8 7c 24 3f b9 de c3 3e 6b c2 10 3f 76 9b e5 3e
       0.64252996 0.3825586 0.5654666 0.4484517
0000a0 d9 ca 2d 3f 47 e2 ea 3e 2f 10 fe 3e e4 9b 70 3e
       0.67887646 0.4587576 0.49621722 0.23496968
0000b0 44 1f d8 3e d4 62 02 3f d1 2c 62 3e 4d f7 cf 3d
       0.42211354 0.5093205 0.22087409 0.10154591
0000c0 5a 71 a1 3e 17 55 18 3e 34 20 bc 3e 06 ce 3b 3f
       0.31531793 0.14876209 0.3674332 0.7336124
0000d0 05 21 43 3f d2 63 23 3e bc 46 0b 3f 0c 05 b6 bd
       0.7622226 0.15956047 0.5440481 -0.08887681
0000e0 02 6d 23 3f 95 09 26 3d 24 1d fb 3e 46 79 2b 3f
       0.6383821 0.040536482 0.4904567 0.66981924
0000f0 97 4a 00 3e 20 9a ac 3e d9 ff 8f 3e cf 46 f3 3e
       0.12528454 0.33711338 0.28124884 0.4751496
000100 2d 4e 7b 3e 14 d8 b4 3e 7f 92 c5 3d 50 13 9c 3e
       0.2454154 0.35321105 0.096470825 0.30483484
000110 84 44 38 3e ee 11 a8 3e 2b 87 e5 3e 75 9f 15 3f
       0.17994887 0.3282618 0.44829687 0.5844644
000120 a9 05 01 3f a2 5f 08 3f 9f e6 96 3e 26 d6 a6 3e
       0.5039926 0.53270924 0.29472825 0.32585257
000130 a1 75 87 3e 63 94 fc 3e ae ae 31 3f 68 15 3d 3e
       0.2645693 0.4933196 0.69407165 0.18465197
000140 88 1f 79 3f 79 c2 33 3c 69 b0 05 3f c7 95 ac 3e
       0.9731374 0.010971659 0.52222306 0.3370802
000150 ea f5 ba 3e 41 06 ae 3d 3d 08 bd 3e 7f 13 51 3e
       0.36515743 0.084972866 0.36920348 0.20417593
000160 56 3f 2d 3f 1d c2 33 3f e5 c3 cf 3e aa cc 0a 3f
       0.6767477 0.7021807 0.40579143 0.5421854
000170 49 83 4e 3f 41 bb 07 3f f4 35 e0 3e de b9 9b 3e
       0.80669075 0.530201 0.43791163 0.30415243
000180 dc da 2e 3f e8 fa 2b 3f c6 0f 77 3e ca 2f 1d 3e
       0.683027 0.6717973 0.24127111 0.15350261
000190 47 e4 06 3f b7 47 0c 3f bd bd 0a 3f 18 f9 1b 3e
       0.52692074 0.5479693 0.5419577 0.1523174
0001a0 43 70 34 3f 68 6c ae 3e b2 75 3a be e0 32 14 bb
       0.704838 0.34067082 -0.1820896 -0.0022613332
0001b0 d1 f2 81 be 28 b6 11 be 5b cf b4 3e d7 3c fe 3e
       -0.25380567 -0.14229643 0.3531445 0.49655792
0001c0 a3 17 1d 3f bb 7c bf 3e ea 2c 64 3d 72 28 f6 3e
       0.6136419 0.3739985 0.055706896 0.48077732
0001d0 02 82 b4 3e c7 1b 18 3e 3a 38 82 3e 17 29 03 3f
       0.35255438 0.14854346 0.25433522 0.51234573
0001e0 fa 8a 0c 3f 48 17 da 3e 7a 66 28 3f 97 ba 03 3f
       0.5489956 0.42595887 0.65781367 0.5145659
0001f0 3d 42 47 3f 96 c7 10 3f f4 af 58 3f d4 80 02 3f
       0.77835447 0.56554544 0.84643483 0.50977826

fc3.weight f4 [64, 128]
000000 7c 09 b7 3d 47 d6 ac bd 2d ab d6 be 4b 84 b8 bd
       0.08937356 -0.08439308 -0.41927472 -0.09009608
000010 96 7b bc be 77 16 1d be ae 1c 9f 3e eb f5 1f be
       -0.3681304 -0.15340601 0.31076568 -0.15621154
000020 5f 5a 91 3e 8e a2 49 bd 39 82 e4 3b 49 40 d7 be
       0.2838926 -0.04922729 0.0069735316 -0.42041233
000030 8e a7 12 be 1b 56 1f 3d 1d 9f 6e 3e 39 6e d1 bd
       -0.1432173 0.038900476 0.23302884 -0.102261014
000040 f4 d2 2f 3e 45 cc c0 be c5 86 b7 bd 9e 08 c7 bd
       0.17170316 -0.37655845 -0.08961252 -0.097184405
000050 b7 82 b2 3e 6f 10 bc bd 8e ca ac bc fd 8a eb 3e
       0.34865353 -0.09182822 -0.02109268 0.46004477
000060 bd 88 2a 3f 88 2f da 3c 62 3c 64 bd db d9 97 3d
       0.66614896 0.026633993 -0.055721648 0.074145995
000070 7f 7c 07 bf 2a a0 e9 3d 45 6d a2 be 63 b3 2a 3d
       -0.5292434 0.11407502 -0.3172399 0.041674983
000080 50 9e c1 be 0e a1 90 3e 89 62 ff be a6 27 02 3f
       -0.37816095 0.28247875 -0.49879864 0.5084175
000090 da 5f dc be 3e d4 16 3f 35 f9 6f 3f f8 af 64 be
       -0.4304188 0.58917606 0.93739635 -0.22332752
0000a0 89 31 23 3f 13 86 99 bd d0 e2 d3 be 50 b6 fc 3e
       0.6374746 -0.07496276 -0.41383982 0.49357843
0000b0 97 b9 72 3e b0 d7 21 3e 8d 34 21 bd dd 74 d8 3e
       0.2370361 0.15804935 -0.039356757 0.4227666
0000c0 1d 82 3b be 95 b1 e9 3e d3 5d 46 3e 9d c1 63 be
       -0.18311353 0.45643297 0.19371729 -0.22241826
0000d0 a6 69 0f 3d a6 f2 04 3f 60 60 04 bc 63 8e 0e 3d
       0.035012864 0.5193275 -0.008079618 0.03480376
0000e0 05 51 12 3f 3c 78 8d 3d 11 cf 84 3d fb c0 24 3c
       0.57154876 0.069076985 0.06484807 0.010055776
0000f0 f0 86 0b bf 56 92 f5 bd 2c 88 de be bb 99 1e bf
       -0.54502773 -0.11990802 -0.43463266 -0.61953324
000100 62 9d 95 be a8 d0 91 be 51 af 27 be 73 47 b8 3e
       -0.29221636 -0.28479505 -0.16375472 0.3599201
000110 6a 04 09 bf 6b 3d 17 bf e1 a5 09 3e 31 c5 a2 3e
       -0.5352236 -0.5907809 0.13442184 0.3179107
000120 e0 75 61 be b2 9c f8 bc 42 c1 84 3f d4 9c 90 3e
       -0.22017622 -0.030348156 1.0371478 0.2824465
000130 d2 91 39 3f 3f b9 b4 3e 74 a2 b9 3f 65 59 ff be
       0.7248813 0.35297582 1.4502702 -0.4987289
000140 2c e7 b9 be a4 31 39 bd 50 4d fc be a4 4e 54 3e
       -0.36309183 -0.045213357 -0.49277735 0.20733124
000150 53 f3 23 bf f7 e9 ce 3f b3 3e 18 3d 09 08 09 3f
       -0.6404316 1.616515 0.03716917 0.53527886
000160 2d 6b 07 3e 8c 80 0d 3d 1f aa 9b 3c 0b 99 24 bf
       0.13224478 0.03454642 0.019002018 -0.64296025
000170 1f 95 a0 3e a3 92 b3 be bc 9c 45 bf d9 74 e7 3e
       0.3136377 -0.35072812 -0.7719228 0.45206335
000180 b6 89 68 be ba 5e d8 3d 9a 3b 1a be fa f4 f4 be
       -0.22708783 0.10564943 -0.15061799 -0.47843152
000190 c4 9f 68 be 21 18 26 3f ec 9e 17 3f 0c 05 b6 be
       -0.22717196 0.6488057 0.5922687 -0.35550725
0001a0 31 a6 3e bf 97 e7 74 3e 59 8a 2a bd d0 f6 40 bf
       -0.7447234 0.2391647 -0.041635845 -0.75376606
0001b0 44 aa 1d be 43 3b 29 3e 36 82 c8 bd eb 19 42 be
       -0.15396982 0.16526513 -0.09790461 -0.189552
0001c0 c3 28 8a bd 87 36 a3 bd f2 e4 32 3e 17 8b 85 3f
       -0.06746056 -0.07969385 0.17470148 1.0433072
0001d0 95 62 9a be 6c 45 03 3d 1b e3 45 3e 43 32 5c ba
       -0.30153337 0.032048628 0.19324915 -0.00083998236
0001e0 cd 65 54 3e 38 b6 8d be 77 c3 00 3f e9 11 62 3f
       0.20741959 -0.27678084 0.50298256 0.8830858
0001f0 08 58 b0 bc 1d 4b 89 be 20 79 ba 3e 25 8d 89 3e
       -0.021526352 -0.2681512 0.36420536 0.26865497
000200 3d d4 fe bc 4f f6 8c 3d 68 55 bd 3e 72 0f 87 3e
       -0.031107062 0.06882917 0.36979222 0.2637897
000210 b1 42 46 3f e8 5e ec 3e 4f 3b b4 3e d4 2a 53 3f
       0.77445513 0.46166158 0.352015 0.82487226
000220 56 5f 83 bd de c7 ef be d0 c7 e7 3e 05 8c 6e 3e
       -0.06414668 -0.46832174 0.45269632 0.232956
000230 52 14 f9 be 77 b1 b5 bd 4e 15 82 3d f4 4e 6b 3e
       -0.48648316 -0.08871739 0.0635172 0.22979337
000240 e3 0d d0 3e 00 ab ab be d6 4a 9d 3e 40 cc ab bd
       0.40635595 -0.335289 0.30721158 -0.08388567
000250 38 b8 d0 3e 98 33 de be 37 1a 99 3e 91 dd 99 3d
       0.40765548 -0.43398738 0.29902813 0.075129636
000260 a2 8d 8a 3d 4f 1e b4 bd 12 1a 9a 3e f3 0a de bd
       0.067652956 -0.087948434 0.30098015 -0.10841932
000270 e4 1d 35 3d 87 8f f8 3e 85 83 0e bf be 7b 60 be
       0.04421796 0.48547003 -0.5566943 -0.21922204
000280 da 2a 1a be 67 c4 cf 3e 51 8b 21 3f eb 9e 5c be
       -0.15055409 0.4057953 0.63103205 -0.21544997
000290 dc ac 83 be 4e fe fc 3e c7 3f f6 be c4 d7 21 3f
       -0.2571782 0.4941277 -0.48095533 0.6321986
0002a0 74 6a fd bc 51 24 0a 3e b5 cb 2f 3f 2f 3b 97 3d
       -0.03093455 0.13490416 0.6867021 0.07384335
0002b0 9b 1b 10 3f d9 41 a8 3e 24 6c bd 3e ad 11 8c 3e
       0.5629212 0.32862738 0.36996567 0.27357236
0002c0 9d 81 df be cd 54 83 3e f8 32 31 3f 42 82 b0 3d
       -0.43653575 0.25650635 0.692184 0.08618595
0002d0 cc aa 35 be d2 bb 1c bb a2 54 af 3c f0 18 48 bc
       -0.17740935 -0.002391566 0.02140266 -0.012212977
0002e0 22 58 23 3e fe 7f 9f 3e a1 a9 ba be 14 db 4a be
       0.15951589 0.31152338 -0.36457542 -0.19810134
0002f0 9a 21 05 3f c8 b8 03 3f be 46 32 be 95 f6 e2 3e
       0.52004397 0.5145383 -0.17409799 0.44328752
000300 dc 27 c3 bc 34 10 ab bd cb 03 24 3e bd 00 83 3c
       -0.023822717 -0.083527 0.16017072 0.015991563
000310 ab 49 fb 3e 70 5e e2 3e 09 47 5f bd 57 21 83 bd
       0.49079642 0.44212675 -0.054511104 -0.064028434
000320 67 cb 80 be 0a 7a 4a 3e 07 df 9d 3e 74 e5 b5 3e
       -0.25155184 0.19773117 0.3083422 0.3552662
000330 89 0f 82 3e a5 31 5a bf 94 a0 06 bf bf ed 27 3f
       0.25402477 -0.85232 -0.5258877 0.65597147
000340 33 5a 91 bd 8e 3b 45 3d e1 d2 1d be 8a a8 8d be
       -0.07097282 0.0481525 -0.15412475 -0.27667648
000350 c5 f2 9c 3e 36 70 a6 3e b8 ac 0e 3e 38 c4 15 3e
       0.30653968 0.32507485 0.13933074 0.14625633
000360 31 c9 e7 bd 56 82 35 bf c5 1d 1f 3d 0d 05 4e be
       -0.11317671 -0.70902 0.03884675 -0.20119114
000370 7b 24 98 be 29 a8 13 3e 1e 5a 43 3d 0b bd 09 3f
       -0.29715332 0.14419617 0.047693364 0.5380408
000380 a3 37 d4 3e 36 83 0d be 1a d3 99 be f0 49 0f 3f
       0.41448697 -0.13819584 -0.3004387 0.55972195
000390 8d 5a 75 3e 89 0f 12 bf cb f2 04 be c5 3f 04 3c
       0.23960324 -0.57054955 -0.12983243 0.0080718445
0003a0 49 18 aa 3f 26 c5 94 be 43 68 81 be 3f 07 04 3f
       1.3288661 -0.29056662 -0.25274858 0.51573557
0003b0 10 4a 24 3e 7f 9f 9f be d3 65 b8 3e 22 6f 35 be
       0.16043878 -0.31176373 0.36015186 -0.17718175
0003c0 3a 7c 1a 3f c8 d1 b1 3e 88 2a ec 3e 84 db 29 3e
       0.60345805 0.34730363 0.461262 0.16587645
0003d0 f2 16 e1 bd 26 d7 c0 3c 7b be 10 3e 09 cd d9 bb
       -0.109907046 0.02354009 0.14135163 -0.0066467565
0003e0 e9 5f 13 3f 19 06 83 be f3 ec 06 bf 8a 2a 58 3d
       0.5756822 -0.2559059 -0.52705306 0.052774943
0003f0 5a 76 01 be 48 7e f5 3e 7c 54 34 bf 85 9f 1f 3e
       -0.12642804 0.47947907 -0.7044141 0.15588196

fc3.bias f4 [64]
000000 65 bd a7 3e 44 bb 25 be 3d 2b 13 bd 24 cf 9b 3d
       0.32761684 -0.16184717 -0.035929907 0.07607868
000010 9a dc 2d 3f 9d 36 9d 3d e1 f0 e1 3c 57 56 73 3e
       0.67914736 0.07676432 0.02758068 0.23763405
000020 1f 22 31 3e 69 a0 89 bd 2c 2f 9e bd f3 80 85 3e
       0.17298172 -0.06720049 -0.07723841 0.26074943
000030 48 39 e9 3e e3 25 ac 3d d4 fa a5 3e 07 fc 44 3d
       0.45551515 0.08405664 0.3241793 0.048091915
000040 82 96 6f 3f 16 fa 65 3d 41 9e 9a 3e f8 69 2e 3e
       0.9358903 0.056146704 0.30198863 0.17032611
000050 66 08 8d 3f ba 7f fc 3e 61 dc 29 be 14 9a f3 3d
       1.1018188 0.49316198 -0.16587974 0.118946224
000060 e2 79 22 3e 6b 1f 87 bd 2e 14 42 bc dd fd 01 3f
       0.15866807 -0.065977894 -0.0118456315 0.5077799
000070 aa 17 35 3f 77 0a 14 3e b6 d0 a5 3e cb af 17 3f
       0.70739233 0.14457117 0.32385796 0.59252614
000080 a1 31 fd 3d 72 c0 62 bd 75 f7 22 3d 60 ca e9 bc
       0.123629816 -0.05535931 0.039786775 -0.028538883
000090 dc 95 92 3f 6e 0d 94 bd f9 29 44 3d e1 cd e9 3d
       1.1451983 -0.07229124 0.04789159 0.114162214
0000a0 d2 8c 2b bc b6 58 8b 3d c9 49 c1 bc 38 71 99 3e
       -0.010470586 0.0680403 -0.023594754 0.29969192
0000b0 2b 08 b1 bc b3 7b 32 be c9 3b ed 3c 63 bf 17 bd
       -0.02161034 -0.1743 0.028959172 -0.037047755
0000c0 cc 27 12 3e 44 34 8d 3e d1 26 2c be c2 39 9e be
       0.14272994 0.27578938 -0.16811682 -0.3090344
0000d0 44 ed 9e 3d 5b cd bf 3d d7 5d 40 3e 4f 74 88 3f
       0.077600986 0.0936534 0.18785797 1.0660495
0000e0 64 bf 9d 3b ad 99 e9 bc 51 35 8a 3e 11 b1 df 3c
       0.0048140753 -0.028515661 0.26993802 0.027306112
0000f0 87 98 13 3e d2 3b 93 3d ea 94 0f 3f 14 8b aa 3e
       0.14413653 0.07189144 0.560866 0.33309233

fc4.weight f4 [30, 64]
000000 11 c8 50 3d 99 e7 ad 3b ed 98 8c bd e7 b2 c6 bc
       0.05097205 0.0053071496 -0.06865106 -0.02425523
000010 bf 58 2c be 09 4e ae bd bd 8e 0e be 40 18 96 3c
       -0.16830729 -0.08510978 -0.13921638 0.01832211
000020 81 0c c7 3d 3d 7f 20 3d 4c ba 60 3e c0 fe 63 3d
       0.09719182 0.039183844 0.21946067 0.05566287
000030 2d f0 50 3f cf bb 0f be ce 60 58 bd 40 b6 96 3d
       0.8161648 -0.14036487 -0.052826695 0.0735898
000040 cb 83 83 3e a7 10 a3 be 9f 5f db be 1a 34 46 3d
       0.25686488 -0.31848642 -0.4284639 0.04838953
000050 5f 6d df 3e c3 d8 64 bd ec 4c 28 3b 43 4e 81 3d
       0.4363813 -0.055870783 0.0025680615 0.06313755
000060 b6 65 64 bd 41 1e 92 bd 04 a5 6e 3e e7 06 aa bc
       -0.05576106 -0.07134677 0.23305136 -0.020755244
000070 2c f7 dd 3e cb c9 3f 3e dc f2 03 be 82 ec 14 3b
       0.4335264 0.18729322 -0.12885612 0.0022723977
000080 62 d0 2a bd bb 0b a4 3b 0f d4 0b 3d 10 53 eb bd
       -0.041702636 0.005006281 0.03413778 -0.11490452
000090 f5 5f 61 3f d4 ee 63 bc a2 da 69 bc d0 4a 81 3d
       0.88037044 -0.0139119215 -0.0142733175 0.063130975
0000a0 31 1d 2f 3e 35 a1 20 bd c1 f2 1a ba 50 47 07 bf
       0.1710098 -0.03921624 -0.0005910807 -0.5284319
0000b0 00 9a b6 bd 55 0c 12 bf b1 9f 36 3d 56 bf 85 bd
       -0.08916092 -0.5705007 0.044585887 -0.06530635
0000c0 68 ab 9e bd f4 49 ba bb 6b 43 53 3c 9e f0 20 3c
       -0.07747537 -0.0056850854 0.012894492 0.009822993
0000d0 2d 57 5f 3c be 29 2d bd ef af 0c 3d c6 87 08 3f
       0.013631624 -0.042276137 0.03434747 0.53332174
0000e0 1e 89 5e 3e ba 6b 12 3e c1 14 c8 bd a7 26 d4 be
       0.21731994 0.14298907 -0.097695835 -0.4143574
0000f0 2b ac 09 bd e1 b0 07 be 7a fb ff 3e 30 ec 27 be
       -0.033611458 -0.13251068 0.4999655 -0.16398692
000100 92 ce 04 3d d4 51 35 3c b2 5d dc 3d 94 fe 22 3d
       0.032423563 0.011066873 0.107600585 0.039793566
000110 a4 9e e2 bd 61 92 a9 bd d5 29 b3 bd af a3 40 3c
       -0.110654145 -0.08279873 -0.08748213 0.011757775
000120 cc 01 41 3d 59 4b 1c 3d c7 a7 54 3e fe 01 38 3d
       0.047120854 0.038157795 0.20767127 0.044923775
000130 ef da 0f 3f 87 9d ce bd 4a 40 1b bd f4 e2 73 3d
       0.5619344 -0.1008864 -0.037903108 0.05954261
000140 f2 ac 3a 3e 03 52 53 be bc f2 a4 be 38 cd 23 3d
       0.18230036 -0.20636754 -0.32216442 0.039990634
000150 97 6b 93 3e 69 68 0a bd 88 70 95 ba 8e 7c 42 3d
       0.28793022 -0.03379098 -0.0011401335 0.047482066
000160 a1 d9 42 bd 10 69 54 bd 48 62 2d 3e fc 1f 6c bc
       -0.04757083 -0.051858008 0.16932023 -0.014411923
000170 49 6f a4 3e 16 4b a0 3d 4f d6 ba bd 2c 59 9f 3a
       0.32116154 0.078268215 -0.09122907 0.0012157313
000180 7e d1 f9 bc 3d ae f0 3c 8b 51 13 bd 34 80 c4 bd
       -0.030495401 0.029379958 -0.035966437 -0.09594765
000190 99 56 19 3f 11 1a 5b bd 7e ba 18 3c 12 2f 0d 3d
       0.5989776 -0.053491656 0.009321807 0.034468718
0001a0 94 da de 3d 33 69 d4 bc 46 eb c5 3a 63 ca c2 be
       0.10881534 -0.02592907 0.0015100024 -0.38045034
0001b0 4d 84 29 bd 3d bc cf be 45 5d e7 bd c4 58 7b bd
       -0.041385937 -0.40573302 -0.112970866 -0.06136395
0001c0 c8 de 56 bd 50 1c 64 bb 05 b1 b4 3b 82 21 fd 3b
       -0.052458555 -0.0034806915 0.0055142664 0.0077249417
0001d0 ef a4 78 bb 01 15 ba bc a0 2f b7 3c de 17 b2 3e
       -0.0037940105 -0.022715094 0.022361577 0.34783834
0001e0 6e 4b 3b 3e 6d 9c a9 3d 70 b9 75 bd c8 4e 98 be
       0.18290493 0.08281789 -0.0599913 -0.29747605
0001f0 af 93 dd bc 51 41 9f bd ea 32 ac 3e 58 43 c9 bd
       -0.02704796 -0.0777613 0.33632594 -0.09827298
000200 ee 67 5a 3c d6 89 9a 3b 14 9b 20 3d cc 08 9e 3c
       0.013330443 0.0047161384 0.039210394 0.019291304
000210 5c 3d ca bd fe e3 77 bd ae f1 8e bd 58 ef 26 3c
       -0.098749846 -0.060520165 -0.069796905 0.0101889
000220 3d ff bd 3c 67 cb fe 3c c8 26 22 3e 76 3e be 3c
       0.023192996 0.03110285 0.15835106 0.023223143
000230 15 46 f0 3e 4a 7e c0 bd f4 dc f1 bc 7c 3f 4f 3d
       0.46928468 -0.09399088 -0.029524304 0.050597653
000240 72 c5 1e 3e d9 68 22 be e7 5b 81 be 2e 6c f9 3c
       0.15505007 -0.15860309 -0.25265428 0.030447092
000250 97 3e 5d 3e 63 6d b8 bc a6 09 3f 3c 7e 01 38 3d
       0.21605907 -0.022513097 0.011660015 0.044923298
000260 7a e0 10 bd 6f f4 2d bd ba db de 3d 3c 30 2e bc
       -0.035370328 -0.04246944 0.10881753 -0.010631617
000270 39 76 96 3e b5 62 be 3d de a4 aa bd 06 18 c7 39
       0.29387072 0.092961706 -0.08332227 0.00037974137
000280 50 f7 f4 bc 8b 90 41 3d 34 14 7c bd 42 d5 95 bd
       -0.029903084 0.047256988 -0.061542705 -0.07316066
000290 35 6a f8 3e 10 b5 da 3d ab 25 8a 3c f1 07 c3 3c
       0.4851853 0.10679066 0.016863665 0.023807498
0002a0 50 98 a5 3d 40 56 93 bc 64 89 d7 3d 31 df a6 be
       0.08085692 -0.017985463 0.10524252 -0.32592157
0002b0 17 17 ab bd e9 48 ca be 06 ca e3 3d 48 b4 96 bd
       -0.083540134 -0.3950875 0.11122517 -0.07358605
0002c0 29 e4 23 bd d2 59 24 bb 4f ef 98 3b 88 97 ba 3b
       -0.040012512 -0.002507795 0.0046671997 0.0056943335
0002d0 d8 54 d3 bb 06 27 80 bc b1 55 73 3c b0 eb 8f 3e
       -0.006449323 -0.015643608 0.014851973 0.28109503
0002e0 9c bb 1f 3e bd ec be 3d 27 63 22 bd 63 44 66 be
       0.15598911 0.09322498 -0.03964534 -0.22487025
0002f0 d3 97 ab bc 2c 30 8a bd c6 eb 87 3e 94 7b a7 bd
       -0.020946419 -0.06747469 0.26547068 -0.081778675
000300 5d 5c c3 bc 03 ea 17 be 0a e4 f5 bc 65 39 6a bd
       -0.023847753 -0.14835362 -0.030015964 -0.057183642
000310 de 55 8f be dc f0 c7 be 8d 42 1f be 84 ae 00 bd
       -0.279952 -0.3905095 -0.15552731 -0.03141643
000320 c7 c7 8b bd fc 47 76 3d 5e 7e 15 bd 22 4b 2e be
       -0.06825214 0.060127243 -0.036497466 -0.17020848
000330 30 21 bf 3e 49 8a 82 3e 51 ba a7 3e 17 c9 60 be
       0.37330008 0.25496128 0.32759336 -0.2195171
000340 b1 70 0c 3d 6d 57 e8 bd 58 67 24 bf 1a 3f 6c 3d
       0.03428716 -0.113448 -0.6422019 0.057677366
000350 95 ca a2 3e a9 f2 a4 bc d9 10 08 3e ab b2 da 3d
       0.31795183 -0.02013524 0.13287677 0.106786095
000360 3f db 9c 3e ea c8 dc 3c 35 f7 e7 3e f0 5e f2 3b
       0.30636021 0.026951272 0.45305791 0.0073965713
000370 1e 77 35 3e 46 67 80 bd c7 0d e0 3c 47 07 9f bc
       0.17721221 -0.06269698 0.02735032 -0.01941265
000380 7e c5 f7 3d e3 5a df bd d2 0b 9b bc 20 12 06 bc
       0.120982155 -0.10906007 -0.018926535 -0.008183032
000390 2d 5b 18 3f de 7b db bd 93 76 37 be 4d c9 ac bc
       0.59514123 -0.10716985 -0.17916326 -0.021092081
0003a0 a7 36 bf be 24 99 e0 bd 32 98 29 bb f1 df aa be
       -0.37346384 -0.10966709 -0.002587807 -0.3337398
0003b0 d0 a3 e6 bd 46 c8 ad 3d d5 09 60 3d 2e 04 a5 bc
       -0.112617135 0.08485465 0.054696877 -0.020143595
0003c0 4e 48 c0 bc ed ac d0 3b e1 43 2b 3d 61 35 81 bd
       -0.023471978 0.0063682706 0.04181278 -0.06309009
0003d0 74 76 b5 bd d8 eb 1a 3d 40 88 3b 3b 34 eb 27 3f
       -0.08860484 0.037822574 0.0028615147 0.65593266
0003e0 a3 9a b8 be 5a e5 51 be 48 b5 20 3f 98 56 8c be
       -0.36055478 -0.20497647 0.62776613 -0.27409816
0003f0 95 ff 1b bc 83 32 0e 3f 14 85 4e 3e 99 96 13 3e
       -0.009521385 0.55545825 0.20167953 0.14412917

fc4.bias f4 [30]
000000 66 9c 94 40 cb 23 8d 40 1e 59 86 40 27 e2 fc 3f
       4.6440916 4.4106193 4.1983786 1.9756516
000010 39 cd ba 3f 43 c0 d6 3f b8 12 be 3f bd cd f4 3f
       1.4593879 1.6777424 1.4849463 1.9125286
000020 d7 d8 a0 3f 52 bf f3 bd 9b 86 80 3e c3 c2 0c bf
       1.2566174 -0.11901726 0.25102696 -0.5498468
000030 d6 b7 00 bf 83 98 bb 3c 79 59 08 bf 2f a2 d7 be
       -0.5028051 0.022899872 -0.53261524 -0.42115924
000040 04 76 ec bd fe 36 a8 be 0f 6f b4 be 26 a9 77 3e
       -0.11545947 -0.32854456 -0.3524098 0.24185619
000050 57 b0 f9 bc b3 5e cd be 8e 89 ed 3d 93 ab 17 3e
       -0.030479593 -0.40111312 0.11598502 0.14811544
000060 f4 1e 2c bf b4 5c bd bd 40 d2 43 bc cd 28 f8 be
       -0.6723473 -0.09246197 -0.011951983 -0.4846863
000070 03 85 4b bd 6d f1 40 3d
       -0.049687397 0.04710524

fc1.weight f4 [32, 7]
000000 79 f1 85 3e 93 e5 f6 be e8 de 86 be e9 01 dd be
       0.26160792 -0.48222026 -0.2634194 -0.4316552
000010 1d f7 30 bb b0 64 02 3f 6a aa 08 bc e4 7b e6 be
       -0.002700276 0.50934887 -0.008341411 -0.45016396
000020 f8 27 63 be 16 36 e6 3e 91 60 82 3d 22 56 84 3b
       -0.22183216 0.4496314 0.06366075 0.004038588
000030 d0 4b 87 bb ce 8a 53 3b 3b b0 54 bf b6 3c 96 3f
       -0.0041289106 0.003227878 -0.83081406 1.1737278
000040 2d e2 34 bd cd 5a 0a 3f 06 57 e7 3b 26 ce 32 3b
       -0.04416101 0.540448 0.0070599345 0.0027283519
000050 95 cb 6f ba c3 18 06 bf f1 1b 41 3f f0 86 bd 3e
       -0.00091474626 -0.52381533 0.7543326 0.37017012
000060 39 7e 49 bf 07 4b 99 3b 34 bd 09 3d 7c e6 f0 39
       -0.78708225 0.0046781334 0.033627704 0.0004594809
000070 d1 47 0c 3d f8 53 01 bd 71 ad 6b 3c 6c fb 4f 3e
       0.034248177 -0.03157422 0.014384613 0.20310754
000080 38 5f 54 3f 86 bf 4b 3f 7e d5 f5 bc a7 2e 33 ba
       0.8295779 0.79589117 -0.030009028 -0.000683526
000090 3a 11 4b be 9f 87 06 3c 3d b5 51 3e 93 f2 ba 3d
       -0.1983079 0.0082110455 0.20479293 0.091282986
0000a0 5b 89 18 be 5a 5d d7 3b 7b 2c 37 3f e5 da 50 bf
       -0.14896147 0.0065724077 0.71552247 -0.81584007
0000b0 10 e7 9b bd 83 8c 28 bf 1b f5 a9 bc d8 22 96 3b
       -0.07612431 -0.65839404 -0.020746758 0.0045817904
0000c0 a7 4d 4a b9 df 74 95 bf 34 ab ec 3d d6 1d b7 3e
       -0.00019293149 -1.1676291 0.11556092 0.3576495
0000d0 92 11 fa 3e 7a aa 8b 3c 22 96 52 3d 6d 97 90 bb
       0.4884153 0.017049063 0.05141271 -0.0044125826
0000e0 3f fb da bd 19 a3 0b 3f 3d ff 8e bd 7d 67 c8 be
       -0.10692453 0.5454574 -0.069822766 -0.39141455
0000f0 93 27 90 3d 3f 42 84 be 1f 7b 1a bc 87 41 17 bf
       0.07038798 -0.25831792 -0.009428768 -0.5908436
000100 34 62 80 3d 44 46 2c bf 93 75 dc 3e d0 00 85 bc
       0.06268731 -0.67294717 0.43058452 -0.016235739
000110 33 84 c3 3c a9 8d 31 bb 61 e1 85 3e 15 6b a3 be
       0.023866748 -0.0027092493 0.26148513 -0.31917635
000120 93 4f 76 3e 23 e8 85 3e 57 b2 01 3d dd 58 33 bd
       0.24053793 0.2615367 0.03166422 -0.04378592
000130 15 61 34 ba 8e 74 8b 3f 4e 3e 8b 3f 3c 7a 00 3e
       -0.00068809214 1.0894945 1.0878389 0.12546629
000140 29 2c 94 3e 1e 26 c3 3c cb ce 12 3b dd 09 60 39
       0.28939942 0.023821887 0.002240109 0.00021365979
000150 19 a7 6f bf c1 69 9e be c7 fe 93 bf e8 b4 99 be
       -0.93614346 -0.3094006 -1.1562127 -0.30020833
000160 4f c1 42 bc 09 d0 38 3c 94 69 b6 3a 8e e0 84 3f
       -0.011886909 0.011280068 0.0013916963 1.0381029
000170 4d 0d ba 3e 51 16 7f 3f 62 1b b7 be 0b 68 a6 bc
       0.36338273 0.9964343 -0.3576308 -0.020313283
000180 2a 75 d9 3b 7a e7 81 3b a2 87 f0 be 40 be 07 bf
       0.0066362815 0.0039643617 -0.4697848 -0.53024673
000190 e7 60 4d bd 15 c3 99 3e e4 e3 8f 3b c8 5c 96 bc
       -0.05014124 0.30031648 0.0043911804 -0.018354788
0001a0 27 40 97 b9 1d 8c 03 3f 5f 0b 00 3f 7b d3 9d 3d
       -0.00028848762 0.5138567 0.5001735 0.07706352
0001b0 3f 9a 6b 3e f8 81 f9 bb e9 6d 9f 3b d3 05 14 3b
       0.23008059 -0.0076143704 0.0048653972 0.002258648
0001c0 10 76 37 be 07 3b 80 bf 11 7c 36 3e 19 17 7b bf
       -0.17916131 -1.0018014 0.17820765 -0.9808212
0001d0 1e 84 ac 3d c9 3c ad 3d 78 de e1 bb e2 7e 82 bd
       0.08423637 0.084588595 -0.0068929754 -0.06371857
0001e0 52 8b a1 be ef 8e bf 3f f4 a2 52 be f0 d2 45 3d
       -0.31551605 1.4965495 -0.20569974 0.04829687
0001f0 05 8b 0b 3c c6 6c c8 b9 5f 51 cf be 9b 6b d1 be
       0.008517032 -0.00038228015 -0.4049177 -0.4090241
000200 2e bf f4 be 55 a6 27 be eb 43 c4 3c 03 56 ca ba
       -0.4780211 -0.16372044 0.023958167 -0.001543701
000210 38 89 84 39 4f d2 2a 3f 29 c0 80 be 6a 67 29 3f
       0.00025279238 0.66727155 -0.25146607 0.6617342
000220 04 31 13 3e 81 49 bf 3c 9f af 55 3b 8f 6f 26 bb
       0.14374167 0.02335048 0.00326059 -0.0025396084
000230 98 ad 24 3f 33 67 62 3f 06 45 01 bf 20 1a c1 3e
       0.64327383 0.8843872 -0.50495946 0.37715244
000240 1b d2 5a 3b 34 ab f2 bc 01 18 a7 ba bd 82 a9 bc
       0.0033389393 -0.029622652 -0.0012748243 -0.020692224
000250 db ad 9f 3e 60 5b 0c bd 7e 43 06 bf f9 9f f7 3e
       0.3118733 -0.03426683 -0.52446735 0.48364237
000260 1f 64 b9 3e 80 3d de bb 85 09 3c 3f 22 bf 59 3f
       0.362092 -0.0067822337 0.73452026 0.8505727
000270 b7 86 bd bd 95 96 48 3f c9 ab fa 3b 9c a4 9e bc
       -0.092542104 0.7835477 0.007649873 -0.019365601
000280 6a 59 d7 ba 45 86 44 3f d3 d9 b8 be b0 e2 5a 3f
       -0.0016429846 0.7676738 -0.36103687 0.8550215
000290 2e 3b 09 3f 58 93 5e 3c f9 e2 07 ba 6e c3 ea ba
       0.53605926 0.013584934 -0.0005183663 -0.0017911026
0002a0 11 ef a0 bc f4 37 c2 bc ae d8 e3 3e 47 0f 5f 3f
       -0.019645246 -0.023708321 0.4450125 0.87132686
0002b0 67 fe 80 bc b0 99 4d 3d 28 6f 3e 3b 95 1a 65 bf
       -0.015746308 0.050195396 0.0029057954 -0.89493686
0002c0 89 5c 5b bf 72 a7 b6 3d d2 1c e6 3e 91 1a 1e 3c
       -0.8568807 0.089186564 0.44943863 0.009649889
0002d0 93 a7 57 3c 39 57 2d bb 97 38 34 bf d7 21 42 be
       0.013162511 -0.0026449694 -0.7039885 -0.18958221
0002e0 56 88 36 bf df fd 53 3e ae fe 5c bc ff c2 a6 bb
       -0.7130178 0.20702313 -0.013488455 -0.0050891633
0002f0 21 d5 bb 3a e3 bf 04 3f 0b 2b 6b 3e de fc 17 3f
       0.0014330485 0.51855296 0.22965638 0.5937022
000300 ef ed a8 3e 73 d8 03 3c 74 cf 90 3c aa 9e 3a 38
       0.3299403 0.008047211 0.017677046 4.4493623e-05
000310 f6 ee 6a be 43 0c 06 be 41 c9 a0 3e 5e d5 56 3e
       -0.22942719 -0.13090615 0.31403545 0.2097983
000320 21 31 19 be 00 fd 9c 3e 54 e1 9a bc 79 74 b9 3f
       -0.14960147 0.30661774 -0.018906273 1.448867
000330 7b f1 86 bf d4 c6 ed bd 0c 99 bf 3e be 7e 97 3c
       -1.0542444 -0.11610189 0.37421453 0.018493053
000340 6c 4d 45 bc df 63 27 ba 41 69 40 3f 90 ca 50 3f
       -0.012042385 -0.00063854264 0.75160605 0.81559086
000350 62 d8 2d 3c 6b 9a ff be 99 1f a6 bc 5a 38 f4 3d
       0.010610672 -0.499225 -0.020278739 0.11924811
000360 61 8c 17 bc 76 cd 69 3c 0f 24 02 3f 06 25 20 3e
       -0.0092497775 0.014270177 0.5083627 0.15639123
000370 ce af 6a be 56 91 8a be d5 5f 3c 3e d9 e3 23 3c
       -0.22918627 -0.27064008 0.18395932 0.010003054

fc1.bias f4 [32]
000000 21 f6 94 3f d0 3e 6e 3f 26 29 09 3f e5 3b 8b 3e
       1.1637613 0.93064594 0.5357841 0.27194133
000010 fd c7 2a be db 53 d0 3f 87 6f 5a 3f 02 72 2a be
       -0.16677852 1.6275591 0.8532643 -0.16645053
000020 ae 92 e1 3f 27 be 46 3f e4 90 a6 3f e1 d2 b5 bd
       1.7622888 0.776339 1.3012967 -0.088781126
000030 e1 6f 69 be e5 cf 74 3d 0d 50 5d 3f 62 48 70 3f
       -0.22796585 0.059768576 0.8645027 0.9386045
000040 8c 9e 8b 3d c3 e4 0f be 24 06 36 3f 23 ce 1c 3f
       0.0681735 -0.1405211 0.7110312 0.6125204
000050 7f 2d 14 bf 5a 1c 81 3f ea 60 28 3d 64 2f 68 bd
       -0.5788192 1.0086777 0.04110805 -0.05668582
000060 6e cf b1 3f ad ca 04 3e 4d cd 28 bf fc 15 2a 3f
       1.3891428 0.1296794 -0.65938264 0.66439795
000070 0e f4 9d 3f ea d2 30 bf 54 b0 8b 3e 91 6d a9 3f
       1.2340105 -0.6907183 0.27282965 1.3236562

fc2.weight f4 [128, 32]
000000 b0 6c a8 3c f1 a4 93 3e 77 33 62 bd 6d ed 43 3e
       0.020559639 0.28836778 -0.055224862 0.1913354
000010 7e a9 03 3e cc 87 1f bd e5 be 54 3e c1 31 a3 3c
       0.12857625 -0.038947865 0.20775945 0.019921185
000020 e2 75 ad 3e 8f 86 8b 3e 77 80 94 3e 52 96 fd 3e
       0.33879 0.27251098 0.2900426 0.49528748
000030 ba fb 1d 3e d7 77 bb 3e d7 f5 96 3e d4 59 45 3e
       0.15428057 0.36614868 0.29484436 0.19272548
000040 12 d5 0a 3e b9 85 7a 3e b3 98 c3 3e ec ed 84 3d
       0.13557842 0.24465074 0.38202438 0.064906925
000050 88 51 ea bd 33 d7 4a 3e a2 a4 79 3e f3 53 8e 3d
       -0.11441332 0.19808654 0.24379209 0.06949606
000060 48 4e ae 3d ee 92 9d 3d 05 68 dd bd 49 f0 84 3e
       0.08511025 0.0769404 -0.10810856 0.25964573
000070 a8 fe 0c 3e 09 29 ab 3d f3 e7 05 be 8f 25 ab 3d
       0.13769019 0.08357436 -0.13076763 0.08356773
000080 e0 00 87 3e 94 20 79 3e 84 be 70 bf 8e 09 1d bf
       0.26367855 0.24328834 -0.94040704 -0.61342704
000090 84 3b 9a 3c d3 dc 01 3f 94 83 a9 3d 48 5a 42 bf
       0.018827207 0.50727576 0.0827705 -0.7591901
0000a0 76 1a 0c 3d ec d2 35 be 90 21 1a 3f af fb d5 3e
       0.034204923 -0.17756242 0.6020746 0.41793582
0000b0 90 67 d7 bd 91 a0 5c 3e 58 0b b6 3e b1 63 90 3d
       -0.105178 0.21545626 0.3555553 0.070502646
0000c0 c2 d5 e2 be 8c 27 67 bc c7 f1 40 bd ae 19 11 3d
       -0.4430371 -0.01410855 -0.047105577 0.03542488
0000d0 c6 81 02 3f 88 0d 6b bd 13 8f a5 3e 8b c6 03 bf
       0.5097927 -0.05738595 0.3233572 -0.5147483
0000e0 04 bc dd 3e 74 61 d6 3e ea 86 af 3e 17 ed 91 3e
       0.43307507 0.41871226 0.3428262 0.28501198
0000f0 df da 32 3e 6a 54 85 be 46 24 ee bc 22 4e e6 bd
       0.17466305 -0.26040965 -0.02907003 -0.112453714
000100 9c 1b 89 bd ba 0b f9 3c bd 5a 32 3e fe 0e bc 3d
       -0.06694719 0.0304011 0.17417426 0.09182547
000110 0d 8c 2f be a5 42 4c be f1 97 97 3e 36 48 f5 3d
       -0.17143269 -0.19947298 0.2960811 0.11976664
000120 a8 42 c1 bd 01 93 e8 3e a3 6f 07 bf ea 9d ba be
       -0.09436542 0.45424655 -0.5290472 -0.36448604
000130 67 b3 c8 3e d4 cd c1 bd 98 e7 f9 3d 26 d7 b4 be
       0.39199373 -0.09463087 0.12202376 -0.35320395
000140 b5 4f ee 3d bc a7 17 3d ea 9e ff bc 24 bb 5e 3e
       0.11636297 0.0370252 -0.031203706 0.21751076
000150 88 a6 3a bc 7c d0 4f 3e 1d af 26 bf cc be a4 3e
       -0.011392243 0.20294374 -0.6511095 0.32176816
000160 5f 88 0d 3f ed 3e a4 3b 6e a2 fd be 8a d1 1d be
       0.5528621 0.005012384 -0.49537987 -0.15411964
000170 b9 49 a1 bd 5a ba 5a 3e 2f 93 98 3d 3c 6a 8f bd
       -0.078753896 0.2136015 0.07449948 -0.070026845
000180 0e 77 92 bb a8 21 98 3b 8f d4 99 3d 50 cb 81 3e
       -0.004469759 0.004642684 0.075112455 0.25350428
000190 95 6f ef be 79 14 a1 3d af 0e b2 3e 2b ab 08 be
       -0.46764818 0.07865233 0.34776828 -0.13346545
0001a0 85 3b b0 3e 90 a2 89 3d ed 8e 14 be 93 7e 0b bd
       0.3442041 0.067204595 -0.14507647 -0.034056257
0001b0 2b 1f 7a 3d 0a f1 65 be 1e ff 59 3e 97 86 59 3d
       0.06106488 -0.2245523 0.21288726 0.05310687
0001c0 01 40 50 bc 79 b3 cd 3d 30 af 4a be 03 2c 13 bd
       -0.012710572 0.10043997 -0.19793391 -0.035930645
0001d0 a2 9e 45 bd 35 31 3a 3e 6c 97 3b 3e 79 5f cd bd
       -0.048246987 0.18182833 0.18319482 -0.100279756
0001e0 9d 35 b9 3d 59 f1 32 3e 4e b7 45 be 92 67 4b be
       0.09043429 0.1747488 -0.19308206 -0.19863728
0001f0 2e f2 a7 bb 55 87 14 3e 27 1e eb 3d 99 4e 16 3e
       -0.0051253056 0.1450475 0.114803605 0.1467842
000200 e1 5d e4 3c 26 69 04 3e 78 22 5f be 95 e8 10 bf
       0.027876796 0.12930736 -0.21790493 -0.5660489
000210 50 93 11 3e c1 e6 c6 3e b3 e8 54 be c1 5b a6 bd
       0.14216352 0.38847926 -0.20791893 -0.081229694
000220 5e 3a 29 3e 49 7d 9c be b1 39 ae 3e 3a 1b 4f 3e
       0.16526172 -0.30564335 0.3402839 0.2022523
000230 2f 9e b2 be 3e d5 16 3c f7 41 9f 3e 1a 00 0d 3e
       -0.3488631 0.009206114 0.31105015 0.1376957
000240 d7 f9 31 bd 6f fa a6 bd 96 50 7a be 34 81 84 bd
       -0.043451156 -0.08153235 -0.24444804 -0.06469956
000250 f3 94 c9 bc e4 1e 84 bd 26 eb 09 3c 93 04 e7 bc
       -0.024607157 -0.064512044 0.00841788 -0.028200423
000260 9e cb 17 3d 4e 54 58 be a0 55 4c 3e 44 56 a5 3e
       0.03705942 -0.2112591 0.19954538 0.32292378
000270 97 d2 7c 3e f0 c0 b9 3c 77 38 51 be 3f f6 8d 3e
       0.24689709 0.022675008 -0.20431696 0.27726933
000280 cc b1 b1 bd a2 c1 1a be d6 82 ec 3d 68 1c 76 be
       -0.0867649 -0.15112928 0.115483925 -0.24034274
000290 91 6b 0f 3e 12 2e b9 3e 9a a2 21 bd 45 26 49 bd
       0.14005877 0.3616796 -0.03946171 -0.049108762
0002a0 09 51 45 3e 58 d8 2b 3e b4 7f b6 3d 00 ca ed bd
       0.19269194 0.16781747 0.08911076 -0.11610794
0002b0 dc bf 5a 3e 8e 3b 77 bb 53 88 81 3e bd 25 2f 3e
       0.21362251 -0.0037724706 0.2529932 0.1710424
0002c0 b9 66 14 be 39 17 d6 bd ca 56 74 be 29 5b a9 3b
       -0.1449231 -0.10453648 -0.23861232 0.005168338
0002d0 2c e5 53 3e 06 16 88 3d 8f a6 8c 3e 33 a8 80 bd
       0.20692891 0.06644826 0.27470824 -0.062820815
0002e0 c6 f3 d0 be 61 3a 3d be a2 ba 57 bf cf c2 05 3f
       -0.40810984 -0.18479301 -0.84269154 0.5225038
0002f0 a4 a9 89 3e d6 0e 5c be ce 92 55 be dc 6e 94 3e
       0.26887238 -0.21490034 -0.20856783 0.2899083
000300 bc d0 3c 3d 64 50 83 bd 2c 96 98 3d 50 cb 06 bf
       0.046097502 -0.06411818 0.07450518 -0.5265398
000310 b2 33 a0 3d 5e 5c 4d 3e bf 57 8e bd 65 a3 c3 3d
       0.0782236 0.20054767 -0.0695033 0.095526494
000320 a3 61 72 3e f7 00 32 3e db 4c 99 3e 79 e5 13 3d
       0.23670058 0.1738318 0.2994145 0.036107514
000330 4e ea 30 bf 04 39 fe bd e2 3c 16 be b7 19 93 3d
       -0.6910752 -0.124132186 -0.14671662 0.07182639
000340 e6 6f d8 bd ae a6 c0 3d 13 7e 76 be cf dc 2b 3c
       -0.10568218 0.094067916 -0.24071531 0.010489657
000350 7d c1 86 bb 2f ea ab 3c 29 24 e5 3d 36 e0 65 be
       -0.004112421 0.02098569 0.111885376 -0.22448811
000360 99 9e a6 3e 9a 63 7d 3d 26 6e 24 be a7 c9 de 3a
       0.32542875 0.061862566 -0.16057643 0.0016997353
000370 49 0a 27 3e ea d3 ff bd 8b 51 b4 bd a7 51 71 3e
       0.16312517 -0.12491591 -0.088046156 0.23566304
000380 e5 ee ed bd db cb a9 3d a8 c0 37 3e 95 a7 05 3e
       -0.11617831 0.082908355 0.17944586 0.13052209
000390 c1 65 c2 bd 40 9a 8f be 43 76 e2 bd f9 1a f5 be
       -0.09492064 -0.2804737 -0.11057713 -0.4787214
0003a0 54 85 0d 3e 26 75 86 3e 37 0d 30 bf a2 60 46 3e
       0.13820392 0.26261252 -0.68770164 0.193728
0003b0 2e b7 10 3e a8 3f b6 3e 13 d7 55 be 2c b8 f8 be
       0.14132378 0.3559544 -0.20882826 -0.48578012
0003c0 20 8e 60 3d 84 bc de bd 26 5b 10 bc 3f 84 47 be
       0.05482304 -0.108758 -0.008810794 -0.19484042
0003d0 dd b9 d7 bc 10 ba 65 3e 98 36 6e 3e 07 e6 73 3e
       -0.026333744 0.22434258 0.23263013 0.23818217
0003e0 6b 63 ca be 4a 3a 10 3f ee 98 10 bb 1a 92 97 be
       -0.39528975 0.5633894 -0.002206381 -0.29603654
0003f0 92 a2 21 bd 66 ca e5 3e 2d 6d 8e 3e c1 b9 0c 3e
       -0.03946168 0.4488098 0.2781767 0.13742734
