logs/sdf_single_all_distances/state_28.pt (torch, 122503 bytes, 16 tensors)

fc1.weight f4 [32, 7]
0.085108705 -0.4386396 -0.27668947 -0.39529437 -0.064948685 0.41802186 -0.0030500924 -0.35712716
-0.20089795 0.3898761 -0.0076360665 0.016087594 -0.0046101194 -0.0009538991 -0.7077883 0.9395117
-0.027106943 0.50699973 -0.0021877112 0.007922588 -0.0012268138 -0.46179914 0.65112644 0.28510734
-0.67987275 0.01136958 0.05192763 0.0018865442 -0.039013673 0.019139193 -0.057254292 0.22876385
0.55622566 0.41697234 -0.021128751 0.01918546 -0.15441726 0.004370351 0.27561456 0.034969553
-0.07308462 0.006660673 0.57447726 -0.72558695 -0.052533925 -0.54507774 0.0052818377 0.012137077
-0.0040522576 -0.96957934 0.13969341 0.32722282 0.34009328 0.02507016 0.09107573 -0.0057955678
-0.03647691 0.5557344 -0.032985702 -0.31852508 0.12657729 -0.15465571 -0.0057188976 -0.5253436
0.12146911 -0.6097458 0.32257786 -0.019669715 0.008692592 -0.0025931476 0.22760989 -0.2574175
0.19860505 0.21423607 0.018921055 -0.05125234 -0.00061682664 0.99352014 1.0484706 0.10355169
0.24937114 6.641644e-05 0.036247294 -0.00033216778 -0.76722735 -0.24145064 -0.96580154 -0.14317484
0.011786134 0.039317362 -0.003470401 0.82056916 0.35491863 0.85194904 -0.3127708 -0.030636858
0.0010795692 0.00012969141 -0.37807027 -0.39828217 -0.04533171 0.2644535 0.0017795155 -0.028017499
-0.0008183287 0.45382997 0.42616862 0.07630296 0.21840556 -0.009881679 0.0028810161 -0.00027112177
-0.22756518 -0.84598535 0.14768744 -0.85094523 0.074576765 0.103598446 -0.004060362 -0.080351114
-0.19997887 1.2187573 -0.15012439 0.046329647 0.013210542 -0.0045085824 -0.35714096 -0.3681595
-0.4286054 -0.12782921 0.016130934 0.009165697 0.00034547294 0.57309633 -0.22028771 0.5392055
0.18729329 0.02919726 0.016612649 -0.0038827572 0.45079386 0.706113 -0.40016085 0.32281914
-0.013199007 -0.004919358 0.00047253317 2.9677258e-05 0.36312938 -0.10061691 -0.46573502 0.24746497
0.14355582 -0.007440087 0.511658 0.6081184 -0.12595123 0.60461885 -0.0048637525 -0.0018194726
-0.003912472 0.6448012 -0.3788817 0.7112661 0.51720923 0.016617103 0.03571606 -0.0031169637
-0.047481146 -0.047039703 0.41065282 0.79885584 -0.012429282 0.13165092 0.006252963 -0.6588174
-0.61914206 0.05370467 0.32069495 0.0014119503 0.009868084 -0.0027328858 -0.57159245 -0.2657579
-0.570461 0.27010822 -0.028988501 0.025018604 -0.0013886177 0.44467 0.20181026 0.50304216
0.3162296 0.009516185 0.040530577 -0.0009978914 -0.23753314 -0.22835547 0.25353247 0.07052369
-0.10195595 0.25781506 -0.016327899 1.2446766 -0.8964329 -0.09972805 0.40912375 0.0057618557
-0.028581152 0.0018684241 0.668399 0.6613947 -0.08452167 -0.3903391 0.029855637 0.21722665
-0.008491568 -0.037301086 0.39978427 0.13565888 -0.18131265 -0.19503838 0.19458525 0.006926701
00000000: 794d ae3d 5f95 e0be 3eaa 8dbe 0664 cabe
00000010: d103 85bd f606 d63e 0fe4 47bb 5fd9 b6be
00000020: 31b8 4dbe d79d c73e f837 fabb 21ca 833c
00000030: 7c10 97bb 160f 7aba 9d31 35bf d783 703f
00000040: 610f debc bcca 013f b45f 0fbb becd 013c
00000050: 0acd a0ba f070 ecbe 39b0 263f 97f9 913e
00000060: 240c 2ebf 7a47 3a3c 11b2 543d eb45 f73a
00000070: cdcc 1fbd ccc9 9c3c 7a83 6abd 1241 6a3e
00000080: ce64 0e3f 667d d53e 3416 adbc d32a 9d3c
00000090: 8f1f 1ebe 2935 8f3b 5a1d 8d3e 3c3c 0f3d
000000a0: 64ad 95bd c641 da3b f110 133f 11c0 39bf
000000b0: d02d 57bd 378a 0bbf 4413 ad3b 97da 463c
000000c0: cdc8 84bb 5a36 78bf ca0b 0f3e c089 a73e
000000d0: b520 ae3e f05f cd3c ea85 ba3d bfe8 bdbb
000000e0: d068 15bd 9c44 0e3f 041c 07bd b815 a3be
000000f0: 7a9d 013e 115e 1ebe 9765 bbbb eb7c 06bf
00000100: ccc4 f83d 4d18 1cbf ed28 a53e 6222 a1bc
00000110: 606b 0e3c ccf1 29bb 9112 693e 3acc 83be
00000120: 1f5f 4b3e b360 5b3e 5400 9b3c f9ed 51bd
00000130: 89b2 21ba 5657 7e3f 4934 863f e912 d43d
00000140: 265b 7f3e 0e49 8b38 0b78 143d ce26 aeb9
00000150: 0369 44bf d63e 77be c53e 77bf 6d9c 12be
00000160: a11a 413c 3e0b 213d ab6f 63bb d210 523f
00000170: e5b7 b53e 5519 5a3f 7f23 a0be 26fa fabc
00000180: 5580 8d3a c6fd 0739 6d92 c1be a4eb cbbe
00000190: bead 39bd 7366 873e a23e e93a f484 e5bc
000001a0: 1c85 56ba 675c e83e c632 da3e ba44 9c3d
000001b0: b5a5 5f3e c4e6 21bc 6ecf 3c3b 5925 8eb9
000001c0: d906 69be 7f92 58bf 603b 173e 8cd7 59bf
000001d0: b4bb 983d 6c2b d43d c90c 85bb 208f a4bd
000001e0: 43c7 4cbe 3d00 9c3f 35ba 19be 28c4 3d3d
000001f0: 0771 583c bbbc 93bb 2edb b6be 677f bcbe
00000200: 2b72 dbbe a9e5 02be 0525 843c b82b 163c
00000210: 9820 b539 71b6 123f 1a93 61be 5f09 0a3f
00000220: d0c9 3f3e 182f ef3c 4017 883c db75 7ebb
00000230: 74ce e63e d2c3 343f e2e1 ccbe 8d48 a53e
00000240: a640 58bc 9132 a1bb 54be f739 6df3 f837
00000250: 18ec b93e 3d10 cebd d274 eebe 7567 7d3e
00000260: 4c00 133e f9cb f3bb 05fc 023f a6ad 1b3f
00000270: 5cf9 00be 4dc8 1a3f 1d60 9fbb 5f7b eeba
00000280: 3234 80bb b111 253f c8fc c1be 8915 363f
00000290: d367 043f 9720 883c 014b 123d f945 4cbb
000002a0: 977b 42bd b4ac 40bd 1641 d23e d181 4c3f
000002b0: 30a4 4bbc 80cf 063e a8e5 cc3b 42a8 28bf
000002c0: 1880 1ebf 6ef9 5b3d 2132 a43e 3111 b93a
000002d0: bfad 213c 371a 33bb e253 12bf 6b11 88be
000002e0: bb09 12bf a04b 8a3e 4b79 edbc d1f3 cc3c
000002f0: 4702 b6ba c9ab e33e 59a7 4e3e 5fc7 003f
00000300: d9e8 a13e c6e9 1b3c 6403 263d aecb 82ba
00000310: e33b 73be 04d6 69be 02cf 813e b96e 903d
00000320: 48ce d0bd 5600 843e 16c2 85bc 9051 9f3f
00000330: a07c 65bf 383e ccbd ab78 d13e f3cd bc3b
00000340: 0523 eabc e9e5 f43a 321c 2b3f 2a51 293f
00000350: b319 adbd 87da c7be cf93 f43c aa70 5e3e
00000360: 3820 0bbc 06c9 18bd 86b0 cc3e 29ea 0a3e
00000370: 06aa 39be 24b8 47be 5b41 473e 61f9 e23b

fc1.bias f4 [32]
1.0730786 0.73816496 0.61006176 0.16170086 0.34881637 1.4020349 0.73690444 -0.15140009
1.3913707 0.55732757 1.2029442 -0.16042164 -0.022259643 0.054699846 0.78315544 0.818593
0.05324606 -0.055518914 0.6560086 0.5499683 -0.37031654 0.6998978 0.0945446 -0.16707458
1.044587 0.24420543 -0.61314696 0.5893426 1.1080834 -0.3130043 0.16476846 1.0889472
00000000: a45a 893f 61f8 3c3f 022d 1c3f e994 253e
00000010: 0f98 b23e e175 b33f c5a5 3c3f a008 1bbe
00000020: 6f18 b23f 05ad 0e3f 13fa 993f 9245 24be
00000030: db59 b6bc f20c 603d e07c 483f 508f 513f
00000040: 8a18 5a3d cd67 63bd 2ef0 273f b9ca 0c3f
00000050: 219a bdbe 812c 333f 99a0 c13d 9915 2bbe
00000060: 07b5 853f fd10 7a3e 33f7 1cbf 28df 163f
00000070: add5 8d3f 1a42 a0be 10b9 283e 9f62 8b3f

fc2.weight f4 [128, 32]
0.011147016 0.26428154 -0.03761614 0.14771347 -0.028057031 -0.10894055 0.24940369 0.08266892
0.35675767 0.28438252 0.20915116 0.4891787 0.16025722 0.34195018 0.2795917 0.25838536
0.16522507 0.23709337 0.37603992 0.027598154 -0.010696587 0.18825704 0.20389383 0.09057505
-0.12173891 0.053715196 -0.11346111 0.17443076 0.11807418 0.16293032 -0.07350109 0.07464013
0.17764737 0.03453887 -0.8570043 -0.61732036 -0.019541036 0.3883841 0.1896658 -0.31299
0.082339264 -0.1674676 0.50394815 0.28272715 0.041289847 0.17425075 0.20481704 0.088906094
-0.2673885 -0.011433207 -0.0798323 0.07181642 0.39463753 -0.07909045 0.31263503 -0.31139532
0.34264615 0.33433256 0.30714187 0.38455778 0.08244145 -0.13920772 0.06487475 -0.1424132
-0.007443381 0.048452076 0.0062053045 0.092824385 -0.17904909 -0.029879436 0.27196133 -0.0027412197
-0.027444227 0.3546824 -0.42421407 -0.55807453 0.25951213 0.026314395 0.06987685 -0.3129973
0.11176829 0.009215091 0.09045281 0.20354678 -0.25335974 0.22441408 -0.58878326 0.08456263
0.53307796 0.019046716 -0.49563566 -0.0018174252 0.11484128 0.20892012 0.033974558 0.048600633
-0.02617716 -0.008327873 -0.035602327 0.2478647 -0.25294736 0.07330658 0.35195884 -0.16513267
0.34915906 0.1267288 -0.19147186 -0.07049495 0.054604698 -0.13939285 0.16292338 0.08859918
0.0020639303 0.08896488 -0.26011217 0.0043308474 -0.13464291 0.24368969 0.14358053 -0.12578103
-0.025745163 0.14641464 -0.19149613 -0.14207663 -0.0023163273 0.12119092 0.11566971 0.12026598
0.047134466 0.22014464 -0.30166858 -0.5745238 0.15097854 0.29824546 -0.17961577 -0.17716388
0.0815408 -0.1838973 0.2672678 0.13822843 -0.32459357 -0.014468511 0.21638991 0.13307598
-0.04964331 -0.13084972 -0.155498 -0.06418116 0.14050263 0.014554963 0.12800269 0.03330903
0.08395976 -0.11288337 -0.16373694 0.281637 0.24601832 -0.050238203 -0.18985482 0.22443198
-0.07345117 -0.07401531 0.1528517 -0.26552764 0.1504993 0.25613874 -0.065636955 -0.1697987
0.13998866 0.16575336 0.13956341 -0.19977278 0.15816955 -0.013011805 0.15246934 0.0588999
-0.12192538 -0.060746927 -0.27539313 -0.035667792 0.24296477 0.10784915 0.27395537 -0.1446514
-0.13925067 -0.012467254 -0.7285457 0.42928126 0.2586655 -0.06312553 -0.19637996 0.23546238
-0.020136807 0.0708923 0.010055398 -0.4950544 0.034893237 0.25525868 -0.122960344 0.07748348
0.24134547 0.10103075 0.30867642 -0.011321757 -0.56142634 -0.034411028 0.0004037947 0.081780426
-0.1551224 0.07395057 -0.23355871 0.09586572 0.08347226 0.029891796 0.1405233 -0.18300964
0.38145655 -0.0108766295 -0.14214784 0.07103783 0.104531825 -0.08179563 -0.04488878 0.18265791
-0.15406032 0.075226896 0.08033431 0.078106344 -0.04983469 -0.20842701 -0.04664792 -0.26029867
0.21392056 0.25996903 -0.6212831 0.27734992 0.20139992 0.2465832 -0.2580765 -0.31757644
0.03738767 -0.14245848 -0.077494465 -0.24207845 0.020587578 0.12638672 0.18452536 0.2582786
-0.55659306 0.47122005 -0.10799016 -0.19671497 0.07095193 0.3099269 0.1946331 0.22674239
00000000: f9a1 363c e94f 873e 6213 1abd 3342 173e
00000010: dcd7 e5bc 391c dfbd ae63 7f3e 534e a93d
00000020: f1a8 b63e 969a 913e b92b 563e a175 fa3e
00000030: 781a 243e 1814 af3e a526 8f3e 164b 843e
00000040: c330 293e 9bc8 723e 4e88 c03e 8615 e23c
00000050: bd40 2fbc 74c6 403e 8bc9 503e 697f b93d
00000060: 4052 f9bd 7704 5c3d 4c5e e8bd fa9d 323e
00000070: e0d0 f13d 35d7 263e bd87 96bd eddc 983d
00000080: 31e9 353e a178 0d3d a264 5bbf b508 1ebf
00000090: 8614 a0bc 48da c63e c037 423e 3a40 a0be
000000a0: 7da1 a83d a07c 2bbe bf02 013f 9dc1 903e
000000b0: 8b1f 293d ca6e 323e 8fbb 513e 6614 b63d
000000c0: 25e7 88be 5952 3bbc 1e7f a3bd 7d14 933d
000000d0: ee0d ca3e 2dfa a1bd b311 a03e 356f 9fbe
000000e0: 516f af3e a32d ab3e b341 9d3e c2e4 c43e
000000f0: 10d7 a83d 788c 0ebe 0edd 843d c4d4 11be
00000100: 9be7 f3bb af75 463d de55 cb3b b61a be3d
00000110: a558 37be b8c5 f4bc 843e 8b3e 09a6 33bb
00000120: b7d2 e0bc ee98 b53e 9632 d9be f9dd 0ebf
00000130: c6de 843e 4991 d73c 981b 8f3d 2f41 a0be
00000140: c6e6 e43d e5fa 163c 533f b93d 916e 503e
00000150: 5eb8 81be cecc 653e 80ba 16bf 2c2f ad3d
00000160: cc77 083f dc07 9c3c f5c3 fdbe ac36 eeba
00000170: e831 eb3d 28ef 553e e828 0b3d 7511 473d
00000180: 7c71 d6bc a271 08bc bfd3 11bd 3ed0 7d3e
00000190: 5182 81be c321 963d f333 b43e 8a18 29be
000001a0: fac4 b23e 32c5 013e 3311 44be a85f 90bd
000001b0: 2da9 5f3d 00bd 0ebe 63d5 263e 7d73 b53d
000001c0: 0143 073b 3833 b63d 6c2d 85be c8e9 8d3b
000001d0: d5df 09be ca89 793e c606 133e becc 00be
000001e0: 85e7 d2bc b8ed 153e 9017 44be 897c 11be
000001f0: 86cd 17bb f232 f83d 3ee4 ec3d 034e f63d
00000200: 1210 413d 996d 613e 4e74 9abe fe13 13bf
00000210: 1e9a 1a3e a1b3 983e 32ed 37be 736a 35be
00000220: ddfe a63d 934f 3cbe 53d7 883e c18b 0d3e
00000230: 2131 a6be 550d 6dbc 5195 5d3e 1245 083e
00000240: c956 4bbd 78fd 05be de3a 1fbe 6971 83bd
00000250: ecdf 0f3e f177 6e3c 2313 033e 0d6f 083d
00000260: 18f3 ab3d 652f e7bd a8aa 27be ba32 903e
00000270: 3aec 7b3e 93c6 4dbd 4d69 42be 7fd1 653e
00000280: 916d 96bd 5795 97bd 2885 1c3e 3df3 87be
00000290: 7d1c 1a3e 9e24 833e ab6c 86bd b6df 2dbe
000002a0: 3059 0f3e 40bb 293e b6e9 0e3e 3c91 4cbe
000002b0: 33f7 213e 772f 55bc ec20 1c3e 0641 713d
000002c0: 03b4 f9bd c5d1 78bd 5400 8dbe 6418 12bd
000002d0: c2cb 783e 04e0 dc3d e143 8c3e 7f1f 14be
000002e0: ba97 0ebe 7443 4cbc f981 3abf c1ca db3e
000002f0: ce6f 843e f547 81bd d417 49be 0d1d 713e
00000300: f2f5 a4bc fb2f 913d 65bf 243c c577 fdbe
00000310: 36ec 0e3d 44b1 823e a2d2 fbbd a9af 9e3d
00000320: 4423 773e 36e9 ce3d d60a 9e3e e47e 39bc
00000330: a3b9 0fbf 94f2 0cbd 68b4 d339 7f7c a73d
00000340: 68d8 1ebe 6573 973d 042a 6fbe 3f55 c43d
00000350: 81f3 aa3d a4df f43c 57e5 0f3e e166 3bbe
00000360: 464e c33e e433 32bc 348f 11be 487c 913d
00000370: c814 d63d 7884 a7bd 4cdd 37bd ad0a 3b3e
00000380: fdc1 1dbe 8f10 9a3d 5186 a43d 38f6 9f3d
00000390: 761f 4cbd e46d 55be e411 3fbd de45 85be
000003a0: fe0d 5b3e a91a 853e 690c 1fbf cf00 8e3e
000003b0: c83b 4e3e 4e80 7c3e 9a22 84be 6199 a2be
000003c0: d023 193d a3e0 11be 6bb5 9ebd 6ae3 77be
000003d0: 48a7 a83c 856b 013e 37f4 3c3e 183d 843e
000003e0: e27c 0ebf c143 f13e f229 ddbd a66f 49be
000003f0: 3f4f 913d bdae 9e3e e64d 473e 282f 683e

fc2.bias f4 [128]
0.2772025 0.1769001 0.104472585 0.14087722 0.33735943 0.24790196 0.66516984 0.09263638
0.41927606 0.6275537 0.065349184 0.17059584 0.6194808 0.38619474 0.29045668 0.06704081
0.4098354 0.5293034 0.59064513 0.38855463 0.6669329 0.26317123 0.36561468 0.4034919
0.7289094 0.58875734 -0.27314427 0.5595469 -0.1084999 0.4745296 0.10508253 0.5893878
0.89137816 0.3179268 0.37870798 0.51797193 0.5684398 0.41965747 0.56889766 0.43884695
0.63100576 0.47333726 0.52244353 0.20297138 0.3788697 0.48307574 0.1930302 0.12076523
0.33006328 0.169423 0.33106118 0.6471016 0.711309 0.14419962 0.46795985 -0.08887681
0.60224074 0.053198453 0.4936045 0.5949689 0.13363625 0.24922495 0.3401882 0.4378405
0.23110303 0.22120576 0.12446535 0.31495526 0.15781906 0.31011268 0.42900994 0.54363877
0.4901988 0.5244246 0.23771521 0.31239277 0.276122 0.4716141 0.678854 0.20643322
0.7831062 0.058325637 0.50781894 0.30194095 0.4056281 0.10524809 0.340329 0.19164486
0.67143744 0.6954438 0.36838424 0.53697824 0.8217867 0.51160717 0.3758605 0.31226236
0.65112424 0.6366944 0.26516706 0.18028212 0.47345367 0.5613241 0.5226507 0.19257657
0.6596687 0.3003124 -0.08284352 0.04083747 -0.15554267 -0.056572698 0.34706536 0.4830266
0.5667502 0.33129647 0.08496851 0.38191274 0.33649516 0.16079041 0.17531848 0.47311157
0.5466464 0.44049802 0.638396 0.52856934 0.7403874 0.5060203 0.79708344 0.50320965
00000000: 7ced 8d3e 4d25 353e b9f5 d53d 1e42 103e
00000010: 60ba ac3e 03da 7d3e 9248 2a3f 24b8 bd3d
00000020: 5aab d63e 5ca7 203f cbd5 853d adb0 2e3e
00000030: 4b96 1e3f 51bb c53e bdb6 943e b14c 893d
00000040: f2d5 d13e 6d80 073f 8534 173f a2f0 c63e
00000050: 1dbc 2a3f 61be 863e d931 bb3e 7e96 ce3e
00000060: ce99 3a3f cdb8 163f 91d9 8bbe 773e 0f3f
00000070: 3235 debd 8bf5 f23e 8235 d73d 1ee2 163f
00000080: 5c31 643f 4dc7 a23e 03e6 c13e cf99 043f
00000090: 4585 113f 58dd d63e 47a3 113f 8cb0 e03e
000000a0: 9889 213f 4359 f23e dcbe 053f bbd7 4f3e
000000b0: 36fb c13e b455 f73e b5a9 453e c353 f73d
000000c0: 0efe a83e 397d 2d3e da80 a93e 73a8 253f
000000d0: 5918 363f 11a9 133e 6f98 ef3e 0c05 b6bd
000000e0: 732c 1a3f 9fe6 593d bbb9 fc3e e24f 183f
000000f0: f1d7 083e d334 7f3e 262d ae3e a12c e03e
00000100: 46a6 6c3e c383 623e b0e7 fe3d d141 a13e
00000110: 529b 213e 17c7 9e3e 31a7 db3e e92b 0b3f
00000120: 56fb fa3e b140 063f 9e6b 733e f2f1 9f3e
00000130: dd5f 8d3e 6777 f13e 60c9 2d3f 3b63 533e
00000140: a679 483f dde6 6e3d 6c00 023f 0198 9a3e
00000150: 7cae cf3e 508c d73d 9a3f ae3e 8d3e 443e
00000160: 53e3 2b3f 9b08 323f dc9c bc3e 6877 093f
00000170: 9d60 523f b0f8 023f ca70 c03e dae0 9f3e
00000180: 14b0 263f 67fe 223f fac3 873e e09b 383e
00000190: 8568 f23e f0b2 0f3f 70cc 053f cb32 453e
000001a0: 0ce0 283f 8cc2 993e dda9 a9bd 3145 273d
000001b0: 9446 1fbe c6b8 67bd 8db2 b13e 434f f73e
000001c0: 8b16 113f b19f a93e f803 ae3d 118a c33e
000001d0: 1849 ac3e 3ea6 243e b086 333e ae3b f23e
000001e0: 05f1 0b3f f588 e13e ec6d 233f 5250 073f
000001f0: 078a 3d3f 8c8a 013f a90d 4c3f 59d2 003f

fc3.weight f4 [64, 128]
0.12269385 0.012720009 -0.1506384 0.06561803 -0.32648194 -0.1886345 0.10072303 -0.32993233
0.39438117 -0.1173243 0.020668954 -0.034830227 0.17862497 0.11276022 0.12546988 -0.20855768
-0.0631287 -0.49505413 -0.057343893 -0.07295442 0.28204557 -0.29609838 0.07203079 0.27206182
0.6270071 0.04815676 -0.1493579 0.13097332 -0.46521702 0.2473284 -0.44821274 -0.011934621
-0.30931088 0.3184048 -0.7093821 0.4692498 -0.41048738 0.41250542 0.92340696 -0.16276374
0.44289076 -0.2804087 -0.14470625 0.36896405 0.23813684 0.29134104 -0.18814877 0.47357976
-0.31610718 0.30923957 0.24960889 -0.2233185 -0.0027187236 0.19315636 -0.022636572 0.03480376
0.4022637 0.038063418 -0.05358916 -0.08594388 -0.35720035 -0.41200277 -0.5656359 -0.71209323
-0.31382927 -0.32386392 -0.080748 0.21085869 -0.09538435 -0.61738336 -0.13994937 0.29588446
0.1321357 0.010428542 0.78259397 0.578938 0.7927505 0.2586 1.0429021 -0.47449312
-0.18436392 -0.21701065 -0.35931054 0.11387616 -0.4925219 1.4832367 0.14978725 0.29942915
-0.00641877 0.21503547 0.10786676 -0.65066665 0.3817134 -0.61229485 -0.8076459 0.45841208
-0.097806215 0.11873636 -0.10769469 0.08471746 -0.048107523 0.21577895 0.50391334 -0.19715925
-0.39094627 0.12092353 -0.40314314 -0.7013446 -0.24962732 0.28744668 0.05254603 -0.04338472
-0.046148032 0.026399257 0.23626764 1.1129198 -0.311074 0.16875929 0.40227517 0.033862673
0.107096896 -0.37508228 0.56520075 0.7843287 -0.017615208 -0.37557077 0.39897382 0.35786942
-0.044300452 0.13811411 0.27952853 0.2197333 0.7078889 0.47155946 0.5285537 0.6473649
-0.25282443 -0.48705068 0.43402043 0.23347172 -0.5588152 -0.12877722 0.032074712 0.27981156
0.37312585 -0.14183398 0.394008 -0.097329065 0.3246655 -0.14887665 0.3191376 0.09753714
0.024556823 -0.120374866 0.22661585 -0.11827667 0.03680903 0.280172 -0.112162784 -0.20394796
-0.07198122 0.43849778 0.57450026 -0.14437014 -0.14919631 0.525281 -0.39514497 0.5599964
-0.0016477625 0.16106743 0.60038614 0.1528096 0.4831453 0.26238427 0.61176467 0.22255875
-0.4382301 0.3370832 0.71011096 0.098202035 -0.19299717 0.09847772 0.1281303 -0.012212977
0.1473159 0.33903074 -0.35707003 -0.116075285 0.4903244 0.59320986 0.1801502 0.39054877
-0.04238743 -0.025727179 0.24169219 0.03824929 0.3817582 0.5132802 0.04881312 -0.018213408
-0.35628098 0.17970331 0.37718257 0.23849505 0.2146394 -0.6838666 -0.1283113 0.8270704
-0.0007308505 0.11378396 -0.44210008 -0.2882697 0.3222832 0.33790603 0.12850343 0.25093547
-0.09576493 -0.6054731 0.09733734 -0.15419193 -0.5470964 0.27859262 0.1018256 0.50300825
0.42824796 -0.14131977 -0.25311276 0.38656023 0.16712284 -0.53905016 0.10135245 0.21935172
1.1776648 -0.010961046 0.042670358 0.4725322 0.11098562 -0.20204839 0.2898881 -0.24858826
0.4670616 0.30563867 0.45661658 0.12274037 -0.14125554 0.0040348703 0.17249525 -0.040091567
0.5771733 -0.33328515 -0.46393147 -0.00054672646 -0.1495164 0.20510288 -0.7037566 0.13954909
00000000: ea46 fb3d 9667 503c f440 1abe bf62 863d
00000010: a428 a7be 6729 41be e047 ce3d e4ec a8be
00000020: 54ec c93e b947 f0bd f051 a93c 24aa 0ebd
00000030: 77e9 363e d5ee e63d 2d7b 003e 2590 55be
00000040: 9f49 81bd bc77 fdbe 6ee1 6abd 2069 95bd
00000050: 4768 903e 359a 97be e184 933d b04b 8b3e
00000060: 8a83 203f 0640 453d 47f1 18be df1d 063e
00000070: ed30 eebe a843 7d3e 247c e5be 6e89 43bc
00000080: ff5d 9ebe f405 a33e 119a 35bf 8341 f03e
00000090: 672b d2be e933 d33e 6664 6c3f 8aab 26be
000000a0: 94c2 e23e bb91 8fbe e02d 14be dbe8 bc3e
000000b0: 25da 733e a72a 953e 12aa 40be 0c79 f23e
000000c0: cdd8 a1be a654 9e3e 7999 7f3e 9bad 64be
000000d0: 9d2c 32bb c8ca 453e 5570 b9bc 638e 0e3d
000000e0: 82f5 cd3e 63e8 1b3d 4f80 5bbd 5803 b0bd
000000f0: f7e2 b6be 07f2 d2be 84cd 10bf be4b 36bf
00000100: 3bae a0be 7ed1 a5be 355f a5bd 57eb 573e
00000110: df58 c3bd d60c 1ebf e34e 0fbe 2b7e 973e
00000120: 954e 073e 7adc 2a3c 1458 483f 4835 143f
00000130: b2f1 4a3f 3867 843e d17d 853f c3f0 f2be
00000140: e5c9 3cbe 0a38 5ebe 8df7 b7be e737 e93d
00000150: d52b fcbe b3da bd3f d461 193e c74e 993e
00000160: 8c54 d2bb 4232 5c3e 3fe9 dc3d 1792 26bf
00000170: f06f c33e 5bbf 1cbf e2c1 4ebf fdb4 ea3e
00000180: a04e c8bd 0c2c f33d 098f dcbd 5980 ad3d
00000190: 650c 45bd 28f5 5c3e 7700 013f 1de4 49be
000001a0: 1c2a c8be c1a6 f73d c768 cebe 528b 33bf
000001b0: 4e9e 7fbe 362c 933e 823a 573d 2db4 31bd
000001c0: b805 3dbd 4143 d83c 25f0 713e 2874 8e3f
000001d0: 1745 9fbe 3ccf 2c3e 03f7 cd3e 96b3 0a3d
000001e0: 9e55 db3d c90a c0be ffb0 103f c4c9 483f
000001f0: c54d 90bc d04a c0be 4c46 cc3e a93a b73e
00000200: 6474 35bd c96d 0d3e 5d1e 8f3e c401 613e
00000210: 3538 353f 3e70 f13e 4c4f 073f b5b9 253f
00000220: 3472 81be b55e f9be ed37 de3e 3613 6f3e
00000230: 830e 0fbf 2dde 03be c660 033d 7643 8f3e
00000240: 5a0a bf3e ed3c 11be 6bbb c93e 7654 c7bd
00000250: 8e3a a63e 1f73 18be 0166 a33e 8dc1 c73d
00000260: 642b c93c 1987 f6bd fc0d 683e 0a3b f2bd
00000270: 11c5 163d b472 8f3e 9ab5 e5bd bcd7 50be
00000280: e46a 93bd c882 e03e 7312 133f c4d5 13be
00000290: ebc6 18be d178 063f 7150 cabe ed5b 0f3f
000002a0: bcf9 d7ba dcee 243e e8b2 193f 1f7a 1c3e
000002b0: d25e f73e 3b57 863e 9c9c 1c3f 71e6 633e
000002c0: b25f e0be 2b96 ac3e d5c9 353f 261e c93d
000002d0: 0da1 45be b0ae c93d 9734 033e f018 48bc
000002e0: fbd9 163e 7095 ad3e e2d1 b6be e1b8 edbd
000002f0: cd0b fb3e 9adc 173f 4b79 383e 02f6 c73e
00000300: 719e 2dbd cec1 d2bc 287e 773e 4aab 1c3d
00000310: d075 c33e 5566 033f 44f0 473d 4934 95bc
00000320: 766a b6be 2504 383e 131e c13e 0c38 743e
00000330: 6eca 5b3e e211 2fbf 0a64 03be e3ba 533f
00000340: 8c96 3fba 9107 e93d f15a e2be 1698 93be
00000350: 4e02 a53e 0502 ad3e 6796 033e 9d7a 803e
00000360: 6720 c4bd 4900 1bbf cd58 c73d 7de4 1dbe
00000370: 820e 0cbf b1a3 8e3e f189 d03d 26c5 003f
00000380: 5143 db3e 21b6 10be ff97 81be 39eb c53e
00000390: 4022 2b3e 31ff 09bf e091 cf3d bd9d 603e
000003a0: b8bd 963f f695 33bc 1dc7 2e3d beef f13e
000003b0: 6e4c e33d c6e5 4ebe 376c 943e ec8d 7ebe
000003c0: b322 ef3e ac7c 9c3e a6c9 e93e 4e5f fb3d
000003d0: 4ba5 10be f236 843b 98a2 303e 0e37 24bd
000003e0: a1c1 133f 5aa4 aabe 6d88 edbe 3152 0fba
000003f0: d41a 19be 7d06 523e 6429 34bf f5e5 0e3e

fc3.bias f4 [64]
0.32797956 -0.14045013 -0.035929907 0.07607868 0.7369827 0.14367445 0.02206967 0.16231547
0.1608162 -0.06720049 -0.031953465 0.27791062 0.39822602 0.11332042 0.28161275 -0.060520917
0.83868104 0.046529047 0.32678032 0.17656069 0.9548616 0.46754494 -0.19251357 0.11255249
0.13402651 -0.07846399 0.026928226 0.47972742 0.61993617 0.1657474 0.3215893 0.5359649
0.06995886 0.019433852 0.039786775 0.07235973 0.9356336 -0.07229124 0.104134955 0.14623259
0.021275137 0.04615505 -0.023594754 0.30496725 -0.02161034 -0.13285753 0.028959172 -0.037047755
0.05671775 0.26387745 -0.18052241 -0.21933404 0.118507996 0.16734658 0.19187522 0.92583025
0.018091463 0.048421316 0.28268304 0.091569036 0.10891171 0.09317724 0.44074023 0.36506826
00000000: f0ec a73e 29d2 0fbe 3d2b 13bd 24cf 9b3d
00000010: e6aa 3c3f 651f 133e 74cb b43c 0736 263e
00000020: 00ad 243e 69a0 89bd a3e1 02bd 4d4a 8e3e
00000030: 48e4 cb3e 8914 e83d 8c2f 903e c8e4 77bd
00000040: cdb3 563f 3e95 3e3d c04f a73e 53cc 343e
00000050: cf71 743f 0d62 ef3e 4722 45be eb81 e63d
00000060: 3f3e 093e bab1 a0bd 9598 dc3c d59e f53e
00000070: 23b4 1e3f b0b9 293e 5aa7 a43e ff34 093f
00000080: 9746 8f3d be33 9f3c 75f7 223d 5731 943d
00000090: af85 6f3f 6e0d 94bd b544 d53d ffbd 153e
000000a0: 3249 ae3c 140d 3d3d c949 c1bc ab24 9c3e
000000b0: 2b08 b1bc ce0b 08be c93b ed3c 63bf 17bd
000000c0: df50 683d f21a 873e deda 38be 1a99 60be
000000d0: 52b4 f23d e75c 2b3e f07a 443e 3603 6d3f
000000e0: 8c34 943c 6e55 463d d5bb 903e 8c88 bb3d
000000f0: 1a0d df3d b5d3 be3d b4a8 e13e 3aea ba3e

fc4.weight f4 [30, 64]
0.25158584 -0.07567703 -0.06865106 -0.02425523 0.19744778 0.05956183 0.022502918 0.012102194
0.03627532 0.039183844 -0.42414963 0.10857328 0.8574533 0.11147059 0.07630913 0.07111575
0.23098631 -0.3776701 -0.19212839 0.13232778 0.4374303 0.057335 -0.31394064 0.07299633
-0.051129885 -0.02451135 -0.007857067 -0.0071591074 0.22811067 0.13106841 0.061143745 0.046696015
-0.06429228 -0.007930264 0.03413778 -0.17852041 0.8838647 -0.0139119215 -0.28571194 0.27688068
0.02762858 0.019820757 -0.0005910807 0.10040416 -0.08916092 -0.22374198 0.044585887 -0.06530635
-0.008642922 -0.013323455 -0.14892969 -0.033412028 0.0011687491 -0.22385347 0.01767103 0.55765325
-0.036214825 -0.035173737 -0.1578686 -0.38526794 -0.05512551 0.14186612 0.48982486 -0.21588328
0.27064252 0.004224503 0.107600585 0.039793566 0.16542734 -0.008815077 0.005417952 0.0066947425
0.008903509 0.038157795 -0.20886354 0.07758615 0.55324763 0.114934094 0.03725352 0.040094282
0.17741269 -0.23654513 -0.109935924 0.09089332 0.2846295 0.038938463 -0.24134801 0.06996905
-0.038199298 -0.011710304 -0.043000624 -0.0058289017 0.15945923 -0.06992035 0.06825293 0.031097155
-0.061719283 -0.011725868 -0.035966437 -0.19741775 0.59610873 -0.053491656 -0.236451 0.21785997
0.04383135 0.0033710105 0.0015100024 0.056409862 -0.041385937 -0.1020515 -0.112970866 -0.06136395
-0.012378801 -0.0070452522 -0.1124322 -0.02095046 -0.006764072 -0.16502209 0.011137772 0.37802178
0.030089028 0.003093099 -0.13593256 -0.31570384 -0.049231716 0.1480094 0.37764958 -0.18959974
0.10657093 0.068306506 0.039210394 0.019291304 0.10220308 -0.050748687 -0.018148849 0.011226615
-0.040325906 0.03110285 -0.12139428 0.014904742 0.47026557 0.054070354 0.033195402 0.035231158
0.18003424 -0.16370933 -0.033229798 0.05237569 0.19498655 0.04006078 -0.16141586 0.04429429
-0.031508513 -0.01288496 -0.101924315 -0.0062889303 0.21004337 0.048464548 0.02994356 0.022569645
-0.013664724 -0.00343319 -0.061542705 -0.10214723 0.50537664 0.10679066 -0.19114661 0.1708456
0.053485885 0.0069213593 0.10524252 -0.059826266 -0.083540134 -0.26708704 0.11122517 -0.07358605
-0.0075349296 -0.008928974 -0.09404045 -0.019035025 0.035253104 -0.11878093 0.007961114 0.31850064
0.013402497 0.0390766 -0.08289901 -0.2755376 -0.04184191 0.16909783 0.3116447 -0.19910032
0.07222521 -0.05064477 -0.030015964 -0.057183642 0.12337242 -0.35556147 -0.14454348 -0.024802752
-0.086297885 0.060127243 -0.29827303 -0.1814802 0.52855754 0.12390877 0.4469186 -0.20001198
0.07943696 -0.09062908 -0.13818623 -0.061681744 0.32527617 0.031614244 -0.08193387 0.10582316
0.3563211 0.006911506 0.26453272 0.02506384 0.20544635 -0.034883965 0.05849172 0.110143065
0.18827192 -0.07383721 -0.018926535 -0.17016388 0.5272975 -0.10716985 -0.02526838 -0.11650324
-0.41263655 -0.11953455 -0.002587807 -0.016169503 -0.112617135 -0.14789876 0.054696877 -0.020143595
0.010028479 -0.054211635 0.11248029 -0.008079444 -0.040113818 -0.2804597 -0.046153564 0.55526274
-0.47051793 -0.11748056 0.33609536 -0.21887803 -0.045329582 0.6653441 0.33836254 -0.07235975
00000000: dccf 803e 8ffc 9abd ed98 8cbd e7b2 c6bc
00000010: c02f 4a3e 1bf7 733d 0a58 b83c 4848 463c
00000020: 6e95 143d 3d7f 203d 242a d9be ab5b de3d
00000030: 0f82 5b3f b14a e43d f647 9c3d 22a5 913d
00000040: ad87 6c3e fa5d c1be 4ebd 44be ef80 073e
00000050: ddf6 df3e 1bd8 6a3d d4bc a0be 1a7f 953d
00000060: 926d 51bd 07cc c8bc edba 00bc f296 eabb
00000070: d895 693e cc36 063e dd71 7a3d 5244 3f3d
00000080: acab 83bd f0ed 01bc 0fd4 0b3d 0ece 36be
00000090: f544 623f d4ee 63bc d648 92be 4ec3 8d3e
000000a0: 5555 e23c 245f a23c c1f2 1aba b2a0 cd3d
000000b0: 009a b6bd 9e1c 65be b19f 363d 56bf 85bd
000000c0: 0b9b 0dbc 9f4a 5abc 0681 18be 0ddb 08bd
000000d0: b630 993a d839 65be d6c2 903c 5dc2 0e3f
000000e0: ff55 14bd 5612 10bd 4ea8 21be d741 c5be
000000f0: 49cb 61bd 5a45 113e 53ca fa3e 8210 5dbe
00000100: a891 8a3e b36d 8a3b b25d dc3d 94fe 223d
00000110: c965 293e 1d6d 10bc 1389 b13b 925f db3b
00000120: 06e0 113c 594b 1c3d 53e0 55be 7de5 9e3d
00000130: a3a1 0d3f 9162 eb3d 2697 183d e739 243d
00000140: acab 353e e338 72be 1626 e1bd 4726 ba3d
00000150: f5ba 913e f07d 1f3d ef23 77be ef4b 8f3d
00000160: de76 1cbd 93dc 3fbc 6c21 30bd 5f00 bfbb
00000170: 4849 233e 6732 8fbd 31c8 8b3d 76bf fe3c
00000180: 5ccd 7cbd db1d 40bc 8b51 13bd e127 4abe
00000190: 959a 183f 111a 5bbd 3620 72be af16 5f3e
000001a0: 8088 333d 2cec 5c3b 46eb c53a 070e 673d
000001b0: 4d84 29bd 6000 d1bd 455d e7bd c458 7bbd
000001c0: 74d0 4abc dcdb e6bb da42 e6bd 4da0 abbc
000001d0: 26a5 ddbb 8dfb 28be 347b 363c 128c c13e
000001e0: 447d f63c 97b5 4a3b e831 0bbe efa3 a1be
000001f0: 32a7 49bd c78f 173e 495b c13e 6f26 42be
00000200: dc41 da3d 48e4 8b3d 149b 203d cc08 9e3c
00000210: d94f d13d dbdd 4fbd e5ac 94bc d6ef 373c
00000220: c72c 25bd 67cb fe3c 909d f8bd 0533 743c
00000230: a6c6 f03e e078 5d3d e7f7 073d 8c4e 103d
00000240: e55a 383e 6ba3 27be f81b 08bd e487 563d
00000250: 8eaa 473e c616 243d 334a 25be ee6d 353d
00000260: 120f 01bd 701b 53bc b2bd d0bd 5f13 cebb
00000270: 9c15 573e c382 463d 324c f53c fae3 b83c
00000280: 02e2 5fbc 5fff 60bb 3414 7cbd 9132 d1bd
00000290: 5d60 013f 10b5 da3d f0bb 43be 26f2 2e3e
000002a0: 0414 5b3d 92cc e23b 6489 d73d 630c 75bd
000002b0: 1717 abbd a2bf 88be 06ca e33d 48b4 96bd
000002c0: 92e7 f6bb d54a 12bc 4898 c0bd 57ef 9bbc
000002d0: 8f65 103d 6b43 f3bd 556f 023c 8412 a33e
000002e0: 2696 5b3c c90e 203d f5c6 a9bd 4413 8dbe
000002f0: 6c62 2bbd fb27 2d3e e58f 9f3e f4e0 4bbe
00000300: d0ea 933d e470 4fbd 0ae4 f5bc 6539 6abd
00000310: aeaa fc3d 270c b6be 3503 14be 242f cbbc
00000320: f2bc b0bd fc47 763d 3eb7 98be f2d5 39be
00000330: 8c4f 073f e2c3 fd3d 84d2 e43e f1cf 4cbe
00000340: d8af a23d bd9b b9bd b180 0dbe ffa5 7cbd
00000350: 998a a63e f07d 013d f2cc a7bd d0b9 d83d
00000360: b86f b63e ea79 e23b d570 873e af52 cd3c
00000370: 8760 523e 7de2 0ebd 0495 6f3d b092 e13d
00000380: 5bca 403e f737 97bd d20b 9bbc 713f 2ebe
00000390: f8fc 063f de7b dbbd a2ff cebc 4099 eebd
000003a0: 1945 d3be 88ce f4bd 3298 29bb e875 84bc
000003b0: d0a3 e6bd c672 17be d509 603d 2e04 a5bc
000003c0: 7d4e 243c 050d 5ebd 115c e63d a55f 04bc
000003d0: 634e 24bd 6a98 8fbe 850b 3dbd b325 0e3f
000003e0: bae7 f0be a699 f0bd b114 ac3e 9021 60be
000003f0: 83ab 39bd fe53 2a3f db3d ad3e 5931 94bd

fc4.bias f4 [30]
2.7579353 2.6053245 2.4641185 1.5508928 1.2742316 1.2352443 1.2351185 1.5468347
1.2533987 -0.14722486 0.20015787 -0.3190831 -0.50214463 -0.0053057163 -0.38876757 -0.4032875
-0.14798307 -0.21224895 -0.43360576 0.25163218 0.0020121285 -0.4005729 0.14270332 0.14351383
-0.59380525 0.035512697 0.046598285 -0.399105 0.07269649 0.100891076
00000000: 0382 3040 a3bd 2640 1eb4 1d40 a883 c63f
00000010: 051a a33f 7c1c 9e3f 5d18 9e3f aefe c53f
00000020: 5e6f a03f 1dc2 16be 2ff6 4c3e dc5e a3be
00000030: 8d8c 00bf 93db adbb 8b0c c7be b37b cebe
00000040: e088 17be ca57 59be 9301 debe efd5 803e
00000050: eadd 033b e417 cdbe d220 123e 4af5 123e
00000060: 9f03 18bf c375 113d d8dd 3e3d 7e57 ccbe
00000070: e6e1 943d fb9f ce3d

fc1.weight f4 [32, 7]
0.08398686 -0.43870533 -0.27758774 -0.3945371 -0.06555167 0.41828254 -0.0030262421 -0.35684124
-0.2005072 0.3897786 -0.008522372 0.016081806 -0.0048029185 -0.0010184805 -0.70693254 0.93789005
-0.027017886 0.5067327 -0.0021085476 0.007919989 -0.0012734157 -0.46098933 0.6509847 0.2845043
-0.67922896 0.0110419635 0.05195013 0.0018410848 -0.039307553 0.019958457 -0.056700468 0.22927143
0.5540249 0.41349894 -0.020978225 0.019486636 -0.1540646 0.0045463117 0.27601534 0.03517632
-0.072227284 0.0067582848 0.5736217 -0.72491175 -0.052330226 -0.5450055 0.005497833 0.011805825
-0.004020634 -0.96843314 0.13949536 0.3272234 0.33910578 0.025501303 0.09113151 -0.00569284
-0.035368856 0.55570436 -0.03277785 -0.31771386 0.12731053 -0.15355422 -0.0060468772 -0.52496064
0.12172229 -0.60933214 0.3224743 -0.019566324 0.008721878 -0.002491522 0.22724965 -0.25723308
0.198422 0.21411675 0.01880304 -0.051194612 -0.00054843456 0.99319404 1.0477952 0.10369522
0.249332 4.5106797e-05 0.036287427 -0.00030077228 -0.7655093 -0.2403008 -0.9642025 -0.14192975
0.011677267 0.040008165 -0.0035465437 0.81882083 0.354357 0.85087574 -0.31194207 -0.030152705
0.0013897036 4.5548182e-05 -0.37719828 -0.39747694 -0.045177903 0.2642462 0.0018316087 -0.028077051
-0.00075412664 0.45351765 0.4257661 0.07629261 0.21827577 -0.009870658 0.002829761 -0.00031321018
-0.22818378 -0.8449533 0.14732045 -0.8499981 0.073984236 0.10354734 -0.0038547197 -0.08057298
-0.20008577 1.2170012 -0.14983016 0.046440322 0.013231911 -0.0046002683 -0.3569374 -0.36820424
-0.4285968 -0.12772204 0.015964352 0.009457724 0.0004004307 0.5724494 -0.22043355 0.53841084
0.18753238 0.029289156 0.01651077 -0.0039146324 0.45002958 0.7047623 -0.3992421 0.32267797
-0.013074696 -0.0046735913 0.00046055537 9.117823e-05 0.36360466 -0.10066988 -0.46496433 0.24583086
0.14232653 -0.0071729785 0.51024246 0.6064597 -0.12594457 0.602646 -0.00495705 -0.0024991054
-0.0038519572 0.64403176 -0.37949273 0.71085656 0.5166905 0.016576631 0.035765715 -0.0029940705
-0.047922034 -0.047214475 0.40951997 0.799084 -0.01190532 0.1326401 0.0062103127 -0.65722924
-0.61830145 0.053357065 0.3204929 0.0013205558 0.010086749 -0.0027555798 -0.57014155 -0.26641288
-0.56869334 0.27061692 -0.028705558 0.02556298 -0.0013739477 0.4443376 0.20116755 0.502708
0.31611565 0.009862535 0.040830087 -0.000984691 -0.23676202 -0.22916158 0.25253117 0.06922191
-0.10200288 0.25712633 -0.01657006 1.2434217 -0.89535755 -0.10017251 0.4091205 0.005829215
-0.028931476 0.0017862364 0.66816914 0.6602152 -0.08515945 -0.39055568 0.029911637 0.21760593
-0.008656627 -0.037189372 0.39919296 0.13543361 -0.1812869 -0.19536744 0.19417545 0.007085085
00000000: 4e01 ac3d fc9d e0be fb1f 8ebe c400 cabe
00000010: f43f 86bd 2129 d63e eb53 46bb e5b3 b6be
00000020: c251 4dbe 1091 c73e 6ba1 0bbc febd 833c
00000030: cd61 9dbb 897e 85ba 88f9 34bf 9019 703f
00000040: 9d54 ddbc 3cb9 013f 8f2f 0abb d7c2 013c
00000050: bee8 a6ba cb06 ecbe efa6 263f 8caa 913e
00000060: f3e1 2dbf 5ae9 343c a9c9 543d 8e50 f13a
00000070: f500 21bd eb7f a33c c03e 68bd 21c6 6a3e
00000080: 93d4 0d3f 22b6 d33e 87da abbc 70a2 9f3c
00000090: 1cc3 1dbe 3af9 943b e251 8d3e 0b15 103d
000000a0: e6eb 93bd 9a74 dd3b dfd8 123f d193 39bf
000000b0: 3858 56bd 7b85 0bbf 2a27 b43b 386d 413c
000000c0: 86bf 83bb 3ceb 77bf dfd7 0e3e d389 a73e
000000d0: 469f ad3e 1ce8 d03c 28a3 ba3d 018b babb
000000e0: efde 10bd a442 0e3f 1142 06bd 64ab a2be
000000f0: b15d 023e 513d 1dbe e224 c6bb d263 06bf
00000100: 8949 f93d 31fd 1bbf 5a1b a53e 8e49 a0bc
00000110: 35e6 0e3c ce48 23bb 22b4 683e 0eb4 83be
00000120: 232f 4b3e 6c41 5b3e d508 9a3c 71b1 51bd
00000130: d2c4 0fba f741 7e3f 271e 863f 295e d43d
00000140: e350 7f3e 0e31 3d38 20a2 143d f9b0 9db9
00000150: 6bf8 43bf 6a11 76be fad5 76bf 0856 11be
00000160: 0252 3f3c 9adf 233d 216d 68bb 3e9e 513f
00000170: 486e b53e fed2 593f dfb6 9fbe ce02 f7bc
00000180: b726 b63a fd0a 3f38 2220 c1be 1982 cbbe
00000190: 770c 39bd 474b 873e 9712 f03a d801 e6bc
000001a0: 95b0 45ba 7733 e83e 04fe d93e 4d3f 9c3d
000001b0: af83 5f3e 8ab8 21bc 8373 393b 5c36 a4b9
000001c0: 02a9 69be dc4e 58bf 2cdb 163e 7a99 59bf
000001d0: 0c85 973d a110 d43d 779f 7cbb 7203 a5bd
000001e0: 49e3 4cbe b2c6 9b3f 146d 19be 3538 3e3d
000001f0: a8ca 583c d9bd 96bb 80c0 b6be 4485 bcbe
00000200: 0a71 dbbe 91c9 02be acc7 823c 92f4 1a3c
00000210: e6f0 d139 0b8c 123f 55b9 61be 4bd5 093f
00000220: 7d08 403e d0ef ef3c 9841 873c 5146 80bb
00000230: 476a e63e 4d6b 343f 7669 ccbe 0c36 a53e
00000240: 4037 56bc ed24 99bb b276 f139 f136 bf38
00000250: 642a ba3e 032c cebd ce0f eebe 16bb 7b3e
00000260: 0cbe 113e 4e0b ebbb 409f 023f f140 1b3f
00000270: 9df7 00be 0247 1a3f c06e a2bb 08c8 23bb
00000280: 1e71 7cbb 44df 243f df4c c2be b2fa 353f
00000290: d445 043f b7cb 873c 127f 123d 2b38 44bb
000002a0: e549 44bd f763 41bd 9aac d13e c590 4c3f
000002b0: 880e 43bc ced2 073e e17f cb3b 2d40 28bf
000002c0: 0149 1ebf f08c 5a3d a517 a43e 8016 ad3a
000002d0: e442 253c f596 34bb ccf4 11bf 4567 88be
000002e0: e395 11bf 4d8e 8a3e eb27 ebbc 7469 d13c
000002f0: 0916 b4ba 3880 e33e defe 4d3e 79b1 003f
00000300: e9d9 a13e 7896 213c 733d 273d bf10 81ba
00000310: be71 72be 55a9 6abe c44b 813e 37c4 8d3d
00000320: e3e6 d0bd 10a6 833e efbd 87bc 7128 9f3f
00000330: 2736 65bf 3f27 cdbd 3e78 d13e 0003 bf3b
00000340: b401 edbc 2620 ea3a 220d 2b3f dd03 293f
00000350: 1468 aebd eaf6 c7be 4009 f53c 17d4 5e3e
00000360: 86d4 0dbc e253 18bd 0563 cc3e 1caf 0a3e
00000370: 46a3 39be 670e 48be eed5 463e 002a e83b

fc1.bias f4 [32]
1.0715212 0.7368178 0.6112076 0.1604807 0.35381532 1.4006513 0.73614776 -0.15189235
1.3879735 0.5559382 1.2026539 -0.16121642 -0.021231195 0.055923376 0.7824246 0.81802565
0.052845255 -0.055170383 0.65566367 0.5496895 -0.36939812 0.69749856 0.095667586 -0.16807447
1.0419188 0.24509197 -0.61299187 0.5893186 1.1074007 -0.3110171 0.16320111 1.0875363
00000000: 9b27 893f 17a0 3c3f 1a78 1c3f 0d55 243e
00000010: 4827 b53e 8b48 b33f 2e74 3c3f ab89 1bbe
00000020: 1ea9 b13f f751 0e3f 90f0 993f eb15 25be
00000030: 0bed adbc e90f 653d fb4c 483f 216a 513f
00000040: 4474 583d 57fa 61bd 93d9 273f 73b8 0c3f
00000050: c021 bdbe 448f 323f 5eed c33d b71b 2cbe
00000060: 985d 853f 64f9 7a3e 09ed 1cbf 95dd 163f
00000070: 4ebf 8d3f a23d 9fbe 311e 273e 6434 8b3f

fc2.weight f4 [128, 32]
0.011163705 0.26455155 -0.037512593 0.14764503 -0.028438766 -0.10919907 0.24961002 0.08326994
0.35694695 0.28418788 0.20891945 0.48892742 0.16019548 0.3418349 0.27928174 0.2586225
0.16545345 0.23743077 0.3762298 0.027418824 -0.010023701 0.18844417 0.20320721 0.091318235
-0.12326598 0.053306546 -0.11338054 0.17421848 0.11789176 0.16302836 -0.073055774 0.07453063
0.17737378 0.0337984 -0.8546128 -0.6176694 -0.020306896 0.38683128 0.19020694 -0.31020352
0.08234852 -0.16829279 0.5030621 0.28129333 0.043135867 0.17462298 0.20414135 0.08903975
-0.2656154 -0.0112772975 -0.07930773 0.072329655 0.39532492 -0.07884577 0.31037635 -0.30983192
0.34153402 0.33176142 0.30513448 0.38490447 0.08190843 -0.13818468 0.06589486 -0.14266253
-0.0068727075 0.04768559 0.0047905794 0.09303893 -0.17963253 -0.029227056 0.2722141 -0.0032944607
-0.02768152 0.35434887 -0.4234913 -0.55754954 0.25880378 0.027453661 0.06985624 -0.3119132
0.11186717 0.008520404 0.090714864 0.20329858 -0.25679013 0.2238492 -0.58859885 0.084200166
0.5313565 0.019071471 -0.49540272 -0.0013448878 0.11575314 0.21023251 0.033719543 0.049639553
-0.026268924 -0.0081578605 -0.03566454 0.24773833 -0.25197446 0.073507816 0.35201344 -0.1649395
0.34936348 0.12721549 -0.19134034 -0.070696115 0.054300606 -0.13891369 0.16305189 0.088694766
0.0018997812 0.088567026 -0.2606448 0.004879927 -0.1354834 0.24412267 0.14373837 -0.12535745
-0.025654517 0.14635961 -0.19190425 -0.14143747 -0.0021553412 0.12077378 0.115654804 0.1202414
0.04707079 0.21995924 -0.30079585 -0.5740625 0.15114819 0.29732198 -0.17947534 -0.17791569
0.08087157 -0.18252619 0.26637614 0.13761908 -0.32404262 -0.014879696 0.2154621 0.13325214
-0.049236543 -0.13054684 -0.15531509 -0.06442623 0.14072937 0.014661887 0.12836611 0.03323346
0.08447634 -0.11244652 -0.16261405 0.28178072 0.24589087 -0.051003747 -0.1894994 0.22420186
-0.073536344 -0.073683314 0.15239693 -0.2653646 0.14934678 0.2551601 -0.06570652 -0.1700519
0.14019017 0.16585262 0.13927396 -0.19997941 0.15724109 -0.013172779 0.1519193 0.059042603
-0.12072106 -0.06066119 -0.27533847 -0.03546089 0.24243416 0.10819824 0.27377808 -0.14597087
-0.13755177 -0.01140722 -0.72532094 0.42814302 0.25808415 -0.06251857 -0.19580881 0.23515762
-0.0203808 0.07144136 0.009477948 -0.4946288 0.034499284 0.25511023 -0.12338295 0.076113306
0.2410159 0.100620344 0.30856267 -0.011422062 -0.5608578 -0.034146007 0.0011737216 0.081959054
-0.15510301 0.07442488 -0.2337133 0.096157834 0.0858046 0.029431451 0.14169122 -0.18292359
0.3808742 -0.010658073 -0.14166588 0.07141382 0.10441583 -0.08175076 -0.04457962 0.18267715
-0.15447222 0.07515952 0.080359235 0.07716144 -0.049285036 -0.20691207 -0.04512551 -0.25943676
0.21442884 0.2587612 -0.6193419 0.2781485 0.2007137 0.2448337 -0.25708792 -0.31565446
0.039480757 -0.14455044 -0.07832605 -0.24063899 0.020718314 0.1255367 0.18864341 0.256869
-0.5560185 0.46900782 -0.106784016 -0.19627747 0.07102843 0.30681387 0.19305952 0.22662847
00000000: f9e7 363c 4d73 873e cea6 19bd 4230 173e
00000010: 6af8 e8bc c3a3 dfbd c599 7f3e 6e89 aa3d
00000020: c0c1 b63e 1381 913e fbee 553e b254 fa3e
00000030: 490a 243e fc04 af3e 04fe 8e3e 2b6a 843e
00000040: a16c 293e 0d21 733e 31a1 c03e 719d e03c
00000050: 733a 24bc 82f7 403e 8d15 503e 0e05 bb3d
00000060: e072 fcbd f757 5a3d 0e34 e8bd 5466 323e
00000070: 3c71 f13d e8f0 263e 449e 95bd 84a3 983d
00000080: 79a1 353e 3170 0a3d e8c7 5abf 951f 1ebf
00000090: a65a a6bc c00e c63e 9cc5 423e ffd2 9ebe
000000a0: 57a6 a83d f254 2cbe aec8 003f ae05 903e
000000b0: 3caf 303d 5ed0 323e 6e0a 513e 795a b63d
000000c0: befe 87be 6ac4 38bc 176c a2bd 9221 943d
000000d0: 0768 ca3e e479 a1bd a6e9 9e3e 4aa2 9ebe
000000e0: 8cdd ae3e a2dc a93e 963a 9c3e 3312 c53e
000000f0: 9bbf a73d 4980 0dbe e2f3 863d 2016 12be
00000100: 7334 e1bb f751 433d 4bfa 9c3b 328b be3d
00000110: 97f1 37be 946d efbc a65f 8b3e e1e7 57bb
00000120: 5bc4 e2bc 376d b53e dad3 d8be 91bb 0ebf
00000130: ee81 843e 80e6 e03c ca10 8f3d 16b3 9fbe
00000140: 9d1a e53d 2a99 0b3c b7c8 b93d 812d 503e
00000150: ff79 83be ba38 653e 6aae 16bf 2371 ac3d
00000160: fb06 083f c63b 9c3c 6da5 fdbe f246 b0ba
00000170: fb0f ed3d 3147 573e 811d 0a3d d852 4b3d
00000180: ed31 d7bc 8ca8 05bc fb14 12bd 1eaf 7d3e
00000190: cc02 81be 448b 963d 1b3b b43e e6e5 28be
000001a0: c5df b23e c744 023e b9ee 43be 20c9 90bd
000001b0: 506a 5e3d 643f 0ebe 13f7 263e 9aa5 b53d
000001c0: 1402 f93a a162 b53d 3c73 85be cbe7 9f3b
000001d0: 29bc 0abe 4bfb 793e 2730 133e b45d 00be
000001e0: 6c29 d2bc 4bdf 153e 8c82 44be fcd4 10be
000001f0: a040 0dbb 3e58 f73d 6ddc ec3d 2041 f63d
00000200: 4dcd 403d ff3c 613e ea01 9abe c3f5 12bf
00000210: 97c6 1a3e 963a 983e 62c8 37be 882f 36be
00000220: fe9f a53d 25e8 3abe 7462 883e 04ec 0c3e
00000230: eae8 a5be f8c9 73bc 19a2 5c3e 4073 083e
00000240: 42ac 49bd 12ae 05be eb0a 1fbe e6f1 83bd
00000250: 5c1b 103e 6938 703c 6872 033e cf1f 083d
00000260: ee01 ad3d 5c4a e6bd 4c84 26be 9045 903e
00000270: d1ca 7b3e 4ee9 50bd 210c 42be 2c95 653e
00000280: 399a 96bd 47e7 96bd f10d 1c3e dedd 87be
00000290: 5dee 183e 58a4 823e 2491 86bd 1622 2ebe
000002a0: 038e 0f3e 45d5 293e d59d 0e3e 67c7 4cbe
000002b0: cf03 213e a4d2 57bc bc90 1b3e a8d6 713d
000002c0: 9a3c f7bd de77 78bd 2af9 8cbe 703f 11bd
000002d0: a940 783e 0a97 dd3d a42c 8c3e 6379 15be
000002e0: 5fda 0cbe 59e5 3abc a2ae 39bf 9035 db3e
000002f0: 9b23 843e bc09 80bd 1b82 48be 29cd 703e
00000300: a3f5 a6bc d94f 923d 6549 1b3c fc3f fdbe
00000310: 1f4f 0d3d cf9d 823e 33b0 fcbd 4be1 9b3d
00000320: dfcc 763e 0a12 ce3d edfb 9d3e 9a23 3bbc
00000330: 6094 0fbf afdc 0bbd 90d7 993a 26da a73d
00000340: 53d3 1ebe 126c 983d 8a52 6fbe 66ee c43d
00000350: 52ba af3d 3a1a f13c 8117 113e 5250 3bbe
00000360: f101 c33e 339f 2ebc dc10 11be 6941 923d
00000370: f7d7 d53d f16c a7bd 1f99 36bd b80f 3b3e
00000380: f72d 1ebe 3ced 993d 6293 a43d d106 9e3d
00000390: 1bdf 49bd c2e0 53be 87d5 38bd e5d4 84be
000003a0: 3c93 5b3e 597c 843e 318d 1ebf 7b69 8e3e
000003b0: e487 4d3e afb5 7a3e 07a1 83be 769d a1be
000003c0: 93b6 213d 0805 14be 6869 a0bd 116a 76be
000003d0: 74b9 a93c b18c 003e bd2b 413e 5584 833e
000003e0: 3a57 0ebf cb21 f03e 94b1 dabd f6fc 48be
000003f0: 5a77 913d b516 9d3e 65b1 453e 4b11 683e

fc2.bias f4 [128]
0.27715415 0.17615956 0.105033234 0.14093171 0.33672842 0.24751487 0.66498715 0.09327319
0.41937026 0.6275336 0.0654177 0.17052256 0.61921924 0.3860587 0.29047692 0.06699998
0.40944132 0.52927184 0.5903655 0.38848796 0.66670954 0.2629279 0.3655092 0.40343618
0.728549 0.5886383 -0.27277225 0.5594171 -0.10851966 0.47433147 0.10411883 0.58958775
0.8901889 0.31758854 0.37821686 0.5169895 0.5677201 0.4201068 0.5690333 0.43878695
0.6307208 0.47340998 0.522916 0.20302835 0.37859163 0.48299035 0.19340698 0.12096418
0.32996067 0.16939779 0.33068165 0.64664525 0.7110426 0.14416024 0.4674892 -0.08887681
0.6018878 0.053384736 0.493032 0.59425783 0.13383533 0.24877092 0.34096178 0.4372059
0.23117492 0.21945971 0.124722034 0.31489784 0.15735856 0.3096631 0.42873403 0.5434643
0.4901491 0.5245252 0.23761752 0.3119412 0.27604318 0.4714472 0.6787741 0.2069422
0.78094447 0.05877315 0.5078965 0.30157274 0.4056754 0.10564343 0.34023857 0.19175045
0.67154 0.69542724 0.36799827 0.53630847 0.82180285 0.51098204 0.3753252 0.31253594
0.6507598 0.6362308 0.26519042 0.18055542 0.47269708 0.5610571 0.5224667 0.19304684
0.659197 0.29977417 -0.082591765 0.040923532 -0.15494941 -0.055906404 0.34725466 0.48293418
0.56622607 0.3305623 0.08493425 0.38117057 0.33645713 0.16045749 0.17495103 0.47299
0.5464294 0.44064024 0.6379562 0.5287758 0.74016017 0.5053649 0.79691094 0.5031643
00000000: 26e7 8d3e 2c63 343e aa1b d73d 6750 103e
00000010: ab67 ac3e 8a74 7d3e 993c 2a3f 0406 bf3d
00000020: b3b7 d63e 0ba6 203f b7f9 853d 779d 2e3e
00000030: 2785 1e3f 7ca9 c53e 64b9 943e 4937 893d
00000040: 4ba2 d13e 5c7e 073f 3222 173f e5e7 c63e
00000050: 7aad 2a3f 7c9e 863e 0624 bb3e 308f ce3e
00000060: 3082 3a3f 00b1 163f cea8 8bbe f635 0f3f
00000070: 8e3f debd 93db f23e 413c d53d 39ef 163f
00000080: 6be3 633f f79a a23e a4a5 c13e 6d59 043f
00000090: 1b56 113f 3d18 d73e 2bac 113f afa8 e03e
000000a0: eb76 213f cb62 f23e d3dd 053f aae6 4f3e
000000b0: c3d6 c13e 834a f73e 7b0c 463e 11bc f73d
000000c0: 9bf0 a83e 9d76 2d3e 1b4f a93e 8b8a 253f
000000d0: e306 363f be9e 133e bf5a ef3e 0c05 b6bd
000000e0: 5215 1a3f f4a9 5a3d b16e fc3e 4821 183f
000000f0: 210c 093e cebd 7e3e 8b92 ae3e 74d9 df3e
00000100: 1eb9 6c3e 0cba 603e 446e ff3d 4a3a a13e
00000110: 9a22 213e 298c 9e3e 0783 db3e 7a20 0b3f
00000120: d3f4 fa3e 4947 063f 0252 733e c2b6 9f3e
00000130: 8855 8d3e 8761 f13e 24c4 2d3f a8e8 533e
00000140: faeb 473f 1dbc 703d 8105 023f be67 9a3e
00000150: b0b4 cf3e 955b d83d c033 ae3e 3b5a 443e
00000160: 0cea 2b3f 8507 323f 456a bc3e 834b 093f
00000170: ac61 523f b8cf 023f a02a c03e b604 a03e
00000180: 3298 263f 06e0 223f 0ac7 873e 85e3 383e
00000190: 5a05 f23e 70a1 0f3f 61c0 053f 12ae 453e
000001a0: 22c1 283f 007c 993e df25 a9bd 6f9f 273d
000001b0: 0fab 1ebe 1dfe 64bd 5dcb b13e 2643 f73e
000001c0: 31f4 103f 763f a93e 02f2 ad3d ca28 c33e
000001d0: 1c44 ac3e f84e 243e 5d26 333e bf2b f23e
000001e0: cce2 0b3f 999b e13e 1951 233f da5d 073f
000001f0: 237b 3d3f 985f 013f 5b02 4c3f 60cf 003f
