logs/sdf_single_all_distances/state_139.pt (torch, 122521 bytes, 16 tensors)

fc1.weight f4 [32, 7]
0.31285116 -0.55314714 -0.26164228 -0.5727262 -0.06249121 0.54958946 -0.011252211 -0.66278225
-0.32697007 0.51192504 0.026479103 0.007172153 0.0032037245 0.0016221883 -1.0881351 1.5072112
-0.07421494 0.53559196 0.009176492 -0.016112214 0.0016446979 -0.5975532 0.94479865 0.4520041
-0.95903426 -0.01322865 0.013223412 -0.0041898875 0.025221977 -0.025042102 0.019764913 0.14424057
1.0119498 0.96705675 -0.033468865 -0.017313475 -0.27662894 0.03386865 0.085720316 0.19753617
-0.20634983 0.0039404836 0.8811246 -1.012327 -0.117339514 -0.8875379 -0.021711942 0.02590543
0.0013741766 -1.5278133 0.30705532 0.40936726 0.66029155 0.041464858 0.020176541 -0.0022466672
-0.14149427 0.5842895 -0.13673653 -0.5081498 0.07081504 -0.3494809 -0.0055447044 -0.7191447
0.023107903 -0.76384544 0.561966 -0.022313446 0.01528083 -0.003565598 0.34251592 -0.36236373
0.34523225 0.4046675 0.010492278 -0.014819489 -0.0030074185 1.236321 1.281012 0.13390853
0.24790849 0.028789518 0.014657105 -0.0020253297 -1.070804 -0.41257343 -1.3963797 -0.4558221
-0.013294328 0.016924467 -0.0035416968 1.3148777 0.42562324 1.2612995 -0.5149734 -0.011840594
-0.018004503 0.010122348 -0.5850494 -0.72387064 -0.09994604 0.3425531 0.0057749227 -0.030796183
0.000915565 0.5540046 0.5638195 0.06209921 0.28254053 -0.0014355952 0.0061271 0.0030042175
-0.04676976 -1.1182797 0.16962762 -1.2294282 -0.0010850929 0.009625554 -0.015695777 -0.019733353
-0.39901266 1.9174802 -0.4344885 0.020649558 -0.002208695 -0.00019888891 -0.44315046 -0.45578888
-0.55530894 -0.16646786 0.019046813 -0.013011422 0.0012097076 0.7574685 -0.42194164 0.835953
0.041810304 0.01813369 -0.008682177 -0.0073575433 0.80193555 1.0761207 -0.5876256 0.46153706
0.0019380933 -0.003529424 -0.0009153316 -0.17049815 0.29876962 0.17729147 -0.49405628 0.6088701
0.61122787 -0.013074782 0.90223736 1.060643 -0.083385125 0.86532086 0.026587542 -0.018177254
0.004135715 0.9332152 -0.48961556 0.9691417 0.55883175 0.004642678 0.039937783 -0.00064721657
-0.017485354 0.04277514 0.5579522 1.1177831 -0.005540495 0.06358785 4.0015435e-05 -1.2355194
-1.1385477 0.08346079 0.61666465 0.01424627 -0.018375902 -0.005570877 -0.8387039 -0.20710622
-0.83817345 0.23673521 0.01396277 0.0023133017 0.00210019 0.74971753 0.18402518 0.8791079
0.38047072 0.0032499258 0.025894381 -9.168831e-05 -0.11611072 -0.0029217252 0.24830788 0.38249576
-0.28191116 0.34133467 -0.007812149 1.7514094 -1.2766001 -0.16507761 0.37129262 0.014550246
-0.025631832 -0.009228944 0.9285524 0.96353894 -0.021969186 -0.5874517 -0.012842178 0.030045941
-7.383899e-05 0.05826116 0.6025307 0.12321541 -0.28026354 -0.38801476 0.14052147 0.00019180875
00000000: 072e a03e 0d9b 0dbf faf5 85be 2f9e 12bf
00000010: c8f6 7fbd e5b1 0c3f 325b 38bc 19ac 29bf
00000020: 9f68 a7be 850d 033f b4ea d83c 6104 eb3b
00000030: 94f5 513b 9b9f d43a 0348 8bbf 4cec c03f
00000040: 01fe 97bd 8e1c 093f ff58 163c c3fd 83bc
00000050: e792 d73a 3ff9 18bf 53de 713f 156d e73e
00000060: 4583 75bf fbbc 58bc 03a7 583c 534b 89bb
00000070: 529e ce3c 1825 cdbc 07ea a13c cdb3 133e
00000080: 9287 813f 0891 773f a616 09bd fdd4 8dbc
00000090: 4fa2 8dbe dbb9 0a3d 228e af3d ec46 4a3e
000000a0: 5f4d 53be 2c1f 813b 6291 613f ee93 81bf
000000b0: b34f f0bd af35 63bf 3edd b1bc a037 d43c
000000c0: b71d b43a 638f c3bf 5b36 9d3e 9698 d13e
000000d0: de08 293f 0ed7 293d 4649 a53c d23c 13bb
000000e0: e0e3 10be ff93 153f a904 0cbe 1b16 02bf
000000f0: 7a07 913d 29ef b2be 5ab0 b5bb de19 38bf
00000100: c94c bd3c 608b 43bf 01dd 0f3f b0ca b6bc
00000110: 725c 7a3c cfac 69bb 3f5e af3e bd87 b9be
00000120: 48c2 b03e 9430 cf3e cee7 2b3c 71cd 72bc
00000130: 1c18 45bb c43f 9e3f 34f8 a33f 511f 093e
00000140: b9db 7d3e ffd7 eb3c 5b24 703c 65bb 04bb
00000150: 1b10 89bf d33c d3be 92bc b2bf 8461 e9be
00000160: 74d0 59bc 2ea5 8a3c d01b 68bb ea4d a83f
00000170: 4aeb d93e 4372 a13f 4cd5 03bf 0dff 41bc
00000180: 2e7e 93bc 34d8 253c ccc5 15bf 964f 39bf
00000190: 82b0 ccbd 1f63 af3e 903b bd3b 4748 fcbc
000001a0: 8702 703a 3fd3 0d3f 7a56 103f be5b 7e3d
000001b0: 27a9 903e 952a bcba d7c5 c83b 68e2 443b
000001c0: a691 3fbd ca23 8fbf ddb2 2d3e e75d 9dbf
000001d0: ad39 8eba 80b4 1d3c 6e94 80bc d7a7 a1bc
000001e0: 634b ccbe fe6f f53f 4775 debe 4329 a93c
000001f0: c1bf 10bb d68c 50b9 9ee4 e2be 295d e9be
00000200: ba28 0ebf 8d76 2abe 1008 9c3c dc2d 55bc
00000210: 0d8f 9e3a 75e9 413f bc08 d8be 0401 563f
00000220: 4841 2b3d 1b8d 943c b13f 0ebc 8c17 f1bb
00000230: a64b 4d3f 53be 893f a26e 16bf 964e ec3e
00000240: 9f07 fe3a e94d 67bb ddf2 6fba 1197 2ebe
00000250: 55f8 983e e58b 353e f2f4 fcbe e9de 1b3f
00000260: 6e79 1c3f 9c37 56bc 07f9 663f 26c3 873f
00000270: d2c5 aabd ab85 5d3f 1ece d93c 77e8 94bc
00000280: e484 873b 31e7 6e3f e4ae fabe ac19 783f
00000290: 990f 0f3f 9b21 983b cd95 233d f8a9 29ba
000002a0: 723d 8fbc fc34 2f3d f5d5 0e3f 8413 8f3f
000002b0: 0a8d b5bb 593a 823d 3fd6 2738 8025 9ebf
000002c0: eebb 91bf 7eed aa3d bcdd 1d3f 3069 693c
000002d0: 0f89 96bc e78b b6bb 4cb5 56bf a713 54be
000002e0: 8992 56bf b76a 723e 1ac4 643c c39a 173b
000002f0: 57a3 093b 7ded 3f3f 1971 3c3e 370d 613f
00000300: 0fcd c23e b5fc 543b 7420 d43c c948 c0b8
00000310: 75cb edbd 6a7a 3fbb 6c44 7e3e 7cd6 c33e
00000320: a956 90be 6bc3 ae3e 0efd ffbb 2f2e e03f
00000330: a267 a3bf 1b0a 29be 111a be3e 2864 6e3c
00000340: d9f9 d1bc ff34 17bc 9cb5 6d3f 7daa 763f
00000350: b9f8 b3bc 3c63 16bf 0068 52bc e822 f63c
00000360: 02da 9ab8 41a3 6e3d 743f 1a3f 5c58 fc3d
00000370: b47e 8fbe dfa9 c6be dce4 0f3e 4520 4939

fc1.bias f4 [32]
1.3722032 1.094578 0.47243816 0.36749527 -0.28914034 1.9575403 0.91453 -0.23010336
2.217129 1.0843991 1.6145537 -0.18244876 -0.26952088 -0.08187492 1.1160533 1.0501482
-0.13911448 -0.56196725 0.8566468 0.70211494 -0.69561744 1.3553604 -0.0074410676 0.006610144
1.6994778 0.26245442 -0.7525681 0.9478272 1.4471879 -1.0734162 0.57077575 1.7832834
00000000: 5ba4 af3f 221b 8c3f 6ae3 f13e 5728 bc3e
00000010: 340a 94be ae90 fa3f a31e 6a3f 37a0 6bbe
00000020: 71e5 0d40 97cd 8a3f b2a9 ce3f d9d3 3abe
00000030: a4fe 89be 0aae a7bd d6da 8e3f 426b 863f
00000040: 0774 0ebe 16dd 0fbf 344d 5b3f cebd 333f
00000050: fc13 32bf 737c ad3f 33d4 f3bb e899 d83b
00000060: 7d88 d93f 6d60 863e 4ea8 40bf cea4 723f
00000070: 743d b93f b465 89bf 5c1e 123f a142 e43f

fc2.weight f4 [128, 32]
0.079068355 0.26020166 -0.15704423 0.23486263 0.13844572 -0.053271454 0.16591765 0.11394542
0.3473501 0.33614126 0.3258427 0.40372983 0.1836625 0.45033756 0.44563282 0.1754068
0.13154902 0.24708843 0.40352476 0.07251463 -0.14483088 0.23528157 0.22049421 0.053983606
0.19912694 0.033655994 -0.021727992 0.34419975 0.11271656 -0.059962943 -0.124300554 0.14224137
0.3732662 0.24663675 -1.091821 -0.6894442 -0.031828642 0.51475346 0.049569286 -0.9363764
0.011023512 -0.45010775 0.67825156 0.65909654 -0.18108816 0.3571763 0.4177121 0.10681571
-0.5442207 -0.015782079 0.04970878 0.10625251 0.8586466 -0.10961229 0.15266156 -0.6766619
0.40118897 0.5455102 0.52679455 0.2314306 0.13378434 -0.34825215 0.08234216 -0.13320753
-0.11180257 0.07307924 0.26824424 0.19891344 -0.1435565 -0.21872512 0.4434134 0.24935798
-0.18323877 0.6292454 -0.43708214 -0.33496267 0.5462289 -0.40805 0.31703547 -0.24634662
0.02318518 0.22162881 0.015901584 0.1650098 -0.11949811 0.13797562 -0.98189646 0.6285651
0.7704349 -0.005918644 -0.90011364 -0.32501918 -0.24166939 0.28504062 0.015726557 -0.09726146
0.02796055 0.03695571 0.09279024 0.23814225 -0.54839456 0.13500091 0.38654554 -0.1578437
0.3326454 -0.054687485 -0.054065377 0.020564107 -0.0045908415 -0.30313998 0.29706123 0.06883318
-0.0023260894 0.14328471 -0.17612855 0.0029226583 -0.04936097 0.17989035 0.33235073 -0.05489272
0.1825503 0.12849365 -0.14682226 -0.26756594 -0.101817064 0.15236829 0.058278028 0.100413315
0.08205894 0.00013577442 -0.25418174 -0.50824237 0.12397458 0.44367734 -0.26313016 0.07645357
0.15062135 -0.5663526 0.3931619 0.26138613 -0.43148607 -0.064451516 0.43483862 0.08415068
-0.03652024 -0.09104069 -0.2556196 -0.101424925 -0.0059192823 -0.05930521 -0.015869947 0.035230115
-0.015989967 -0.21573132 0.69606686 0.3656638 0.2611123 0.049553826 -0.1506024 0.25585145
-0.13784759 -0.15610866 0.11705323 -0.27420467 0.053225648 0.44284838 -0.023778839 0.045112196
0.26127705 0.17404793 -0.047817 -0.2610699 0.10880103 0.01485129 0.23020442 0.14674425
-0.09230399 -0.23294564 -0.30669594 -0.045087427 0.2249157 0.12622003 0.2775073 0.038546238
-0.51026446 -0.15266044 -0.79125 0.660777 0.32974857 -0.40655273 -0.12652262 0.3103316
0.10134202 -0.16188209 0.040995724 -0.5534485 0.09678464 0.29440397 -0.0014732959 0.10295704
0.2618484 0.20844801 0.4570568 0.065872766 -0.9382459 -0.20491819 -0.29461083 0.08702973
-0.13503353 0.1890392 -0.28459466 -0.08854643 0.054196768 0.014620795 0.18017323 -0.3707071
0.21441986 0.17724845 0.08511656 -0.0054058256 0.17341416 -0.21219943 -0.057956275 0.24695751
-0.06525547 0.110750616 0.3129634 0.15982924 -0.13097222 -0.2982147 -0.1361489 -0.6241114
0.17154847 0.36593398 -0.8977747 -0.009612625 0.005529965 0.4114345 -0.4339808 -0.4931013
0.26698366 -0.28315866 -0.12814362 -0.18964101 0.065851584 0.3013879 0.2539261 0.49857995
-0.18960893 0.5801511 0.045256656 -0.29014 -0.085344814 0.3867926 0.21625164 0.13767318
00000000: 97ee a13d 2739 853e 34d0 20be d47f 703e
00000010: b7c4 0d3e 2b33 5abd 51e6 293e 375c e93d
00000020: dfd7 b13e b51a ac3e dbd4 a63e adb5 ce3e
00000030: 0612 3c3e a592 e63e fc29 e43e d79d 333e
00000040: c9b4 063e c004 7d3e cc9a ce3e 8d82 943d
00000050: 8c4e 14be a7ed 703e 3cc9 613e ea1d 5d3d
00000060: efe7 4b3e deda 093d e7fe b1bc f33a b03e
00000070: f1d7 e63d b49b 75bd 4a91 febd b9a7 113e
00000080: bf1c bf3e 588e 7c3e cac0 8bbf 6a7f 30bf
00000090: c05e 02bd e2c6 033f 2a09 4b3d 5db6 6fbf
000000a0: f69b 343c 8674 e6be e5a1 2d3f 8dba 283f
000000b0: 2d6f 39be d0df b63e 5cde d53e 32c2 da3d
000000c0: 0c52 0bbf 6b49 81bc 6f9b 4b3d ea9a d93d
000000d0: 43d0 5b3f 697c e0bd 5053 1c3e b739 2dbf
000000e0: a468 cd3e 8ea6 0b3f 02dc 063f 25fc 6c3e
000000f0: c3fe 083e 1b4e b2be 02a3 a83d 8e67 08be
00000100: bff8 e4bd 92aa 953d 4f57 893e f7af 4b3e
00000110: 7a00 13be 7af9 5fbe 1507 e33e b357 7f3e
00000120: f2a2 3bbe 3a16 213f 3bc9 dfbe 3a80 abbe
00000130: a8d5 0b3f eeeb d0be 7952 a23e 4a42 7cbe
00000140: d9ee bd3c aaf2 623e 0a44 823c 54f8 283e
00000150: 6dbb f4bd 7b49 0d3e 915d 7bbf a4e9 203f
00000160: 393b 453f 2ff1 c1bb d96d 66bf ea68 a6be
00000170: 2e78 77be d8f0 913e fbd4 803c 0431 c7bd
00000180: 860d e53c df5e 173d cf08 be3d 90db 733e
00000190: 9663 0cbf ae3d 0a3e 4ce9 c53e c7a1 21be
000001a0: 7f50 aa3e fcff 5fbd a873 5dbd 0f76 a83c
000001b0: c56e 96bb 2a35 9bbe 6918 983e 69f8 8c3d
000001c0: 4e71 18bb 3ab9 123e 0b5b 34be 128a 3f3b
000001d0: ba2e 4abd 2d35 383e e029 aa3e 30d7 60bd
000001e0: 77ee 3a3e d793 033e 9358 16be 67fe 88be
000001f0: 7785 d0bd 6f06 1c3e f1b4 6e3d 7fa5 cd3d
00000200: 840e a83d ab5e 0e39 1c24 82be 2c1c 02bf
00000210: 62e6 fd3d ad29 e33e ffb8 86be b093 9c3d
00000220: 7c3c 1a3e 7cfc 10bf 844c c93e 67d4 853e
00000230: beeb dcbe 28ff 83bd 2ba3 de3e 3157 ac3d
00000240: 3f96 15bd 8b73 babd 92e0 82be dfb7 cfbd
00000250: 8af6 c1bb 05ea 72bd b101 82bc 744d 103d
00000260: 64fd 82bc ace8 5cbe 7031 323f 4938 bb3e
00000270: 83b0 853e f4f8 4a3d 8437 1abe f6fe 823e
00000280: eb27 0dbe f3da 1fbe 9bb9 ef3d 8e64 8cbe
00000290: 2303 5a3d 06bd e23e d7cb c2bc 91c7 383d
000002a0: 1bc6 853e 9f39 323e c2db 43bd f4aa 85be
000002b0: 13d3 de3d d352 733c b5ba 6b3e 2044 163e
000002c0: e009 bdbd 4d89 6ebe 4007 9dbe 98ad 38bd
000002d0: 4d50 663e d33f 013e 7015 8e3e a9e2 1d3d
000002e0: b1a0 02bf 0553 1cbe 5c8f 4abf ae28 293f
000002f0: ced4 a83e ae27 d0be 258f 01be c9e3 9e3e
00000300: 688c cf3d 6bc4 25be 22eb 273d cdae 0dbf
00000310: 0637 c63d 1ebc 963e 9b1b c1ba 24db d23d
00000320: fe10 863e 6573 553e 5903 ea3e 4de8 863d
00000330: e230 70bf 13d6 51be 3bd7 96be a53c b23d
00000340: 3b46 0abe 7e93 413e 64b6 91be d557 b5bd
00000350: 6efd 5d3d 0f8c 6f3c 557f 383e 52cd bdbe
00000360: e190 5b3e 9e80 353e 9751 ae3d 5a23 b1bb
00000370: 7b93 313e cf4a 59be 8f63 6dbd 6ee2 7c3e
00000380: a9a4 85bd 38d1 e23d bd3c a03e 47aa 233e
00000390: 951d 06be 99af 98be 9e6a 0bbe c4c5 1fbf
000003a0: 67aa 2f3e b35b bb3e 90d4 65bf 467e 1dbc
000003b0: b534 b53b 8ba7 d23e bb32 debe c677 fcbe
000003c0: 15b2 883e 2cfa 90be 1538 03be 4131 42be
000003d0: 32dd 863d 844f 9a3e 9a02 823e df45 ff3e
000003e0: d828 42be c884 143f 0b5f 393d 3b8d 94be
000003f0: 43c9 aebd ae09 c63e 1271 5d3e 33fa 0c3e

fc2.bias f4 [128]
0.32576507 0.27683577 -0.02025549 0.1832837 0.42673376 0.35866752 0.7227208 0.057581987
0.4840869 0.6335484 -0.055865 0.22203158 0.66635686 0.42085615 0.2057105 0.08130185
0.5055967 0.47869623 0.6980908 0.46952718 0.7184544 0.23174243 0.4234146 0.5041268
0.9153148 0.66164196 -0.35834122 0.68609965 -0.108148046 0.54604703 0.23794675 0.7286616
0.99038196 0.42077237 0.4842808 0.553185 0.68868107 0.35119373 0.530303 0.4776355
0.77640384 0.4502304 0.5101218 0.27702603 0.45839196 0.5897324 0.20400988 0.098041415
0.32915282 0.14790364 0.41465092 0.83346415 0.80570084 0.1584738 0.51317143 -0.08887681
0.69866556 0.051813185 0.49029872 0.6944632 0.1207049 0.3587599 0.19928288 0.49172053
0.25966173 0.507887 0.09195675 0.27639005 0.13603263 0.32554078 0.41640633 0.6369106
0.51433885 0.5356187 0.2841368 0.30736816 0.2271542 0.5091416 0.74852896 0.18109599
1.0546911 0.0107518 0.4788633 0.47297436 0.3064822 0.07849252 0.38998052 0.24628747
0.7397818 0.7514657 0.41834 0.56205535 0.8124968 0.59855765 0.5117059 0.30763274
0.7410398 0.64144903 0.17813352 0.16374256 0.56258374 0.42053568 0.6380862 0.15071227
0.6952631 0.42106825 -0.20994113 -0.077954695 -0.4159969 -0.23728874 0.39686188 0.52803874
0.66757107 0.3440745 0.02246655 0.58358645 0.38697582 0.0971546 0.2694033 0.55373377
0.5867793 0.443807 0.6374386 0.48918942 0.8121551 0.63080716 0.9041534 0.52069646
00000000: aeca a63e 6bbd 8d3e d7ee a5bc b9ae 3b3e
00000010: d97c da3e 45a3 b73e 3b04 393f 17db 6b3d
00000020: 3dda f73e 3a30 223f b3d2 64bd 3f5c 633e
00000030: 5d96 2a3f 757a d73e c6a5 523e 9681 a63d
00000040: c96e 013f ac17 f53e 14b6 323f de65 f03e
00000050: a1ec 373f e34d 6d3e ccc9 d83e 740e 013f
00000060: 1252 6a3f 5e61 293f 8078 b7be 3aa4 2f3f
00000070: b97c ddbd bdc9 0b3f 50a8 733e 9189 3a3f
00000080: ac89 7d3f 7a6f d73e a7f3 f73e 889d 0d3f
00000090: 674d 303f aacf b33e f0c1 073f a48c f43e
000000a0: 67c2 463f 9984 e63e 5897 023f 5bd6 8d3e
000000b0: 5ab2 ea3e b4f8 163f f7e7 503e f0c9 c83d
000000c0: b886 a83e 0d74 173e 204d d43e e85d 553f
000000d0: 6942 4e3f f546 223e 345f 033f 0c05 b6bd
000000e0: bfdb 323f 103a 543d 6f08 fb3e 57c8 313f
000000f0: 2134 f73d 61af b73e d010 4c3e cbc2 fb3e
00000100: 62f2 843e e204 023f d253 bc3d ff82 8d3e
00000110: 234c 0b3e 48ad a63e 3633 d53e 930c 233f
00000120: b6ab 033f 4f1e 093f 617a 913e 5c5f 9d3e
00000130: 1c9b 683e 1b57 023f 989f 3f3f 3a71 393e
00000140: 1e00 873f 5128 303c 922d f53e b229 f23e
00000150: 3ceb 9c3e b0c0 a03d 87ab c73e c832 7c3e
00000160: 5762 3d3f 0e60 403f a930 d63e dce2 0f3f
00000170: caff 4f3f 133b 193f 28ff 023f 0a82 9d3e
00000180: c9b4 3d3f 0136 243f a268 363e 21ac 273e
00000190: 7d05 103f 7450 d73e 9e59 233f 5154 1a3e
000001a0: c3fc 313f 4296 d73e cffa 56be b6a6 9fbd
000001b0: 8cfd d4be d2fb 72be 7b31 cb3e 8c2d 073f
000001c0: f0e5 2a3f 882a b03e c50b b83c ec65 153f
000001d0: b221 c63e fef8 c63d 3bef 893e 7fc1 0d3f
000001e0: 2b37 163f ac3a e33e 2d2f 233f 0977 fa3e
000001f0: 66e9 4f3f 947c 213f 9976 673f 5d4c 053f

fc3.weight f4 [64, 128]
0.018062187 0.031872932 -0.7498755 -0.11743527 -0.3402527 0.06364804 0.70668584 0.4081555
0.23466666 -0.39731765 0.13330299 -0.3509299 -0.08199996 0.036198646 0.36128262 -0.14328282
0.5476939 -0.3643208 -0.24473168 -0.16175348 0.40697172 0.1485479 -0.14385495 0.4502602
0.8591356 0.008851506 0.14881757 0.023702553 -0.64939016 0.13459976 -0.06612116 0.02640086
-0.19367494 0.1779059 -0.13058345 0.56930393 -0.34158733 0.7302863 0.9806644 -0.13537996
0.7132966 0.12314392 -0.07527395 0.69662637 0.1545622 0.33206287 -0.69056904 0.4661553
-0.26434836 0.41576314 0.013524714 -0.10921418 0.105964385 1.0314407 0.26842108 0.03480376
0.72018456 0.18845698 -0.13462394 -0.072994046 -0.41392365 0.3087333 -0.44932336 -0.5171267
-0.26579905 -0.1623617 -0.020728977 0.8782556 -0.5264196 -0.2579925 0.37922844 0.49635088
-0.15025714 -0.099315174 1.1009564 0.2956793 0.6511002 0.43883312 1.4603299 -0.34982285
-0.39276803 -0.1870568 -0.39363804 0.09016054 -0.65973186 1.5776914 -0.14072089 0.5861258
0.18230867 -0.33311942 0.0037340033 0.03628666 0.106682315 -0.2547061 -0.6414002 0.7043154
0.10211468 0.0062175435 -0.46461347 -0.33418182 -0.24945757 0.7348769 0.69130373 -0.38782898
-0.04891826 0.09328984 -0.063985765 -0.9032988 -0.077945545 0.040880054 -0.17303771 -0.18652685
0.07100675 -0.18357055 0.11252188 0.9178977 -0.33694398 0.07481406 0.22299807 -0.028105527
0.31439778 -0.36943933 0.6402192 0.8846718 -0.08518764 -0.4923682 0.4684611 0.17742358
0.00484401 7.36556e-05 0.4764526 0.14290039 0.8955462 0.3418264 0.28620234 0.7662305
0.10645312 -0.46086958 0.35301256 0.15748599 -0.47502518 -0.09480127 0.13428193 0.22762924
0.42452773 -0.32305926 0.27568623 -0.0889276 0.35486946 -0.5110517 0.28083217 0.104663596
0.20557429 -0.072254576 0.43542996 -0.13629848 0.037291545 0.6458497 -0.61804944 -0.22755066
-0.40688515 0.6953283 0.64647794 -0.2552785 -0.20894198 0.506293 -0.38954154 0.5957835
-0.065740325 0.17160445 0.83085006 -0.035505414 0.46806973 0.30327448 0.62100804 0.28462338
-0.40362415 0.30461153 0.6883479 -0.022932272 -0.18055949 -0.1474634 -0.32726893 -0.012212977
0.21307084 0.21804106 -0.33887073 -0.2841928 0.3880243 0.5365099 -0.0690172 0.35959825
0.010489177 -0.075645484 -0.030817986 -0.12754247 0.4356495 0.5060519 -0.0924438 -0.120609134
-0.21819901 0.23349576 0.20135865 0.23440915 0.2818807 -0.7465445 -0.39405605 0.6799764
-0.23658767 0.12795728 -0.117311 -0.48397344 0.2329395 0.22385673 0.30890033 0.07212847
-0.07437219 -0.68798304 -0.09439729 -0.321707 0.17433864 0.067376874 0.11787994 0.41409728
0.26599392 -0.06835562 -0.22044565 0.741204 0.16339898 -0.668161 -0.064104795 -0.050657164
1.3908288 -0.7138338 -0.3113161 0.46877322 0.27309313 -0.50574523 0.38783398 -0.03602619
0.53496593 0.28464562 0.27243915 0.22910465 -0.06613936 0.06023979 0.16942002 0.008520018
0.54387254 -0.21671233 -0.47021806 0.13383229 -0.1359298 0.41426426 -0.69047207 0.12361602
00000000: 27f7 933c 318d 023d d7f7 3fbf e781 f0bd
00000010: 9a35 aebe e759 823d 5de9 343f c2f9 d03e
00000020: 754c 703e 386d cbbe 9480 083e 15ad b3be
00000030: 98ef a7bd 0845 143d 09fa b83e bbb8 12be
00000040: ab35 0c3f 4288 babe f19a 7abe b4a2 25be
00000050: 995e d03e f11c 183e b64e 13be 8188 e63e
00000060: 50f0 5b3f e805 113c a263 183e db2b c23c
00000070: 6f3e 26bf 85d4 093e 886a 87bd 9e46 d83c
00000080: b952 46be f72c 363e abb7 05be e7bd 113f
00000090: 89e4 aebe 0bf4 3a3f d20c 7b3f 0ba1 0abe
000000a0: 9b9a 363f e132 fc3d 3b29 9abd 1b56 323f
000000b0: 8e45 1e3e 2504 aa3e 22c9 30bf e8ab ee3e
000000c0: ab58 87be e8de d43e c396 5d3c afab dfbd
000000d0: db03 d93d 4006 843f 7d6e 893e 638e 0e3d
000000e0: 045e 383f defa 403e dcda 09be e77d 95bd
000000f0: cded d3be 4b12 9e3e b60d e6be 6a62 04bf
00000100: d016 88be 2542 26be d1cf a9bc 5cd5 603f
00000110: 6fc3 06bf 9817 84be 3b2a c23e b421 fe3e
00000120: 02dd 19be c165 cbbd 24ec 8c3f 4763 973e
00000130: 81ae 263f bcae e03e 17ec ba3f fb1b b3be
00000140: e418 c9be d18b 3fbe ed8a c9be 17a6 b83d
00000150: 30e4 28bf cbf1 c93f 2319 10be 570c 163f
00000160: 20af 3a3e a18e aabe 2eb6 743b 52a1 143d
00000170: 427c da3d d768 82be ce32 24bf 044e 343f
00000180: 8021 d13d 89bc cb3b d1e1 edbe e119 abbe
00000190: ce71 7fbe e420 3c3f 48f9 303f 8591 c6be
000001a0: 835e 48bd be0e bf3d f80a 83bd 973e 67bf
000001b0: eaa1 9fbd d871 273d cc30 31be e500 3fbe
000001c0: fd6b 913d ebf9 3bbe df71 e63d 58fb 6a3f
000001d0: ec83 acbe 1d38 993d 9b59 643e 903d e6bc
000001e0: bff8 a03e 2727 bdbe 68e5 233f da79 623f
000001f0: db76 aebd af17 fcbe 22da ef3e 87ae 353e
00000200: 80ba 9e3b 8d77 9a38 98f1 f33e 7b54 123e
00000210: 8442 653f df03 af3e 1d89 923e af27 443f
00000220: 1804 da3d 19f7 ebbe 10be b43e 0244 213e
00000230: 8036 f3be 2b27 c2bd 3481 093e a417 693e
00000240: b35b d93e 0668 a5be bf26 8d3e ac1f b6bd
00000250: 73b1 b53e 49d4 02bf 3cc9 8f3e de59 d63d
00000260: 1182 523e 35fa 93bd adf0 de3e d491 0bbe
00000270: 05bf 183d 6856 253f 7d38 1ebf 0a03 69be
00000280: 4053 d0be 0901 323f 947f 253f ddb3 82be
00000290: e3f4 55be 6b9c 013f fd71 c7be 4485 183f
000002a0: dda2 86bd 14b9 2f3e 97b2 543f 206e 11bd
000002b0: d6a6 ef3e cb46 9b3e 62fa 1e3f 28ba 913e
000002c0: d3a7 cebe 0bf6 9b3e 9137 303f 76dc bbbc
000002d0: 96e4 38be a500 17be cb8f a7be f018 48bc
000002e0: 3e2f 5a3e 2846 5f3e 7780 adbe b881 91be
000002f0: 1fab c63e b658 093f e458 8dbd 431d b83e
00000300: ccda 2b3c 05ec 9abd 0076 fcbc 7e9a 02be
00000310: 740d df3e 9e8c 013f 2d53 bdbd ec01 f7bd
00000320: 906f 5fbe 8319 6f3e f630 4e3e f408 703e
00000330: ab52 903e 8a1d 3fbf b7c1 c9be ef12 2e3f
00000340: 0a44 72be 3c07 033e c040 f0bd 5ecb f7be
00000350: b187 6e3e b33a 653e 2f28 9e3e 17b8 933d
00000360: 7250 98bd a81f 30bf 5e53 c1bd c8b6 a4be
00000370: d485 323e e3fc 893d 0a6b f13d 8f04 d43e
00000380: 5b30 883e 08fe 8bbd 81bc 61be 8cbf 3d3f
00000390: 1052 273e 990c 2bbf 6049 83bd e37d 4fbd
000003a0: ae06 b23f d0bd 36bf d364 9fbe 0b03 f03e
000003b0: ddd2 8b3e 8578 01bf 2d92 c63e 3390 13bd
000003c0: 87f3 083f 12bd 913e 257d 8b3e 699a 6a3e
000003d0: 1374 87bd ffbd 763d 717c 2d3e 8c97 0b3c
000003e0: 3b3b 0b3f d6e9 5dbe 6cc0 f0be 550b 093e
000003f0: 2e31 0bbe 721a d43e c7c2 30bf 652a fd3d

fc3.bias f4 [64]
0.3493647 -0.2389954 -0.035929907 0.07607868 0.55858546 -0.017544681 0.07348678 0.24089745
0.2221782 -0.06720049 -0.0839623 0.15525168 0.605691 0.069033496 0.25654954 0.1138833
1.068692 0.11415901 0.21426764 0.1757377 1.1915869 0.51373863 -0.14587387 0.07696989
0.15464889 -0.031479444 -0.11609642 0.5230297 0.7911342 0.12632807 0.33924377 0.60068166
0.1790727 -0.13925985 0.039786775 -0.18402946 1.366936 -0.07229124 0.025691194 0.115910806
-0.08452856 0.10255076 -0.023594754 0.3063307 -0.02161034 -0.27052647 0.028959172 -0.037047755
0.18993755 0.33314407 -0.14952351 -0.32152733 0.005471111 0.105944656 0.15780836 1.3249667
-0.0022707668 -0.14610238 0.26443633 -0.050668932 0.120953746 0.024266718 0.7008607 0.3066383
00000000: eedf b23e 36bb 74be 3d2b 13bd 24cf 9b3d
00000010: 75ff 0e3f ddb9 8fbc 3d80 963d d2ad 763e
00000020: af82 633e 69a0 89bd 6df4 abbd 4cfa 1e3e
00000030: 910e 1b3f 6f61 8d3d 765a 833e a63b e93d
00000040: e6ca 883f 33cc e93d fa68 5b3e 95f4 333e
00000050: eb85 983f 6084 033f f65f 15be 64a2 9d3d
00000060: 475c 1e3e 97f0 00bd f6c3 edbd 46e5 053f
00000070: c587 4a3f 255c 013e 5cb1 ad3e 46c6 193f
00000080: d55e 373e 229a 0ebe 75f7 223d 3872 3cbe
00000090: c2f7 ae3f 6e0d 94bd 5776 d23c a562 ed3d
000000a0: 4f1d adbd 2206 d23d c949 c1bc 61d7 9c3e
000000b0: 2b08 b1bc 7282 8abe c93b ed3c 63bf 17bd
000000c0: fd7e 423e dc91 aa3e b11c 19be 3b9f a4be
000000d0: 0147 b33b 83f9 d83d 8498 213e 8298 a93f
000000e0: 25d1 14bb dd9b 15be 3364 873e 3a8a 4fbd
000000f0: 99b6 f73d ffca c63c 9b6b 333f b2ff 9c3e

fc4.weight f4 [30, 64]
0.01999848 -0.15807028 -0.06865106 -0.02425523 -0.24567753 -0.18651666 -0.018879449 0.009103765
0.016253708 0.039183844 0.053757228 0.008197793 0.8614839 -0.11909482 -0.016027492 0.0769855
0.1924844 -0.3589344 -0.33880216 0.023421908 0.35225332 -0.09256661 0.27101496 -0.070660345
-0.08207621 -0.035791412 0.16804866 -0.032502856 0.37577602 0.25188145 -0.11147972 0.0021146508
-0.071388744 0.02004958 0.03413778 -0.1080015 0.778157 -0.0139119215 0.11844457 0.03368136
0.08182392 -0.059628807 -0.0005910807 -0.7557135 -0.08916092 -0.74743986 0.044585887 -0.06530635
-0.047834225 0.010214349 -0.011302141 -0.014981238 0.095762685 0.014076847 0.0015596508 0.43726322
0.38706598 0.120669864 0.10128958 -0.24675812 0.05067706 -0.21213582 0.26272514 0.0027765143
0.015282094 -0.10528292 0.107600585 0.039793566 -0.16220443 -0.122310795 -0.012828537 0.006035686
0.0072902106 0.038157795 0.032518458 -0.0012756392 0.5717503 -0.07844149 -0.009844358 0.053131517
0.1245886 -0.24245235 -0.22330837 0.0115239965 0.23412164 -0.059874628 0.18830104 -0.047020648
-0.054733302 -0.023942769 0.10823206 -0.021194756 0.25190812 0.17109233 -0.07525275 0.00082964014
-0.046287887 0.015651194 -0.035966437 -0.067881614 0.51092875 -0.053491656 0.07876965 0.02172671
0.05243668 -0.03872013 0.0015100024 -0.4932504 -0.041385937 -0.5015977 -0.112970866 -0.06136395
-0.031141626 0.007423849 -0.0072522135 -0.009384412 0.063600354 0.008868097 0.0010352519 0.290978
0.25476953 0.07991179 0.0657959 -0.16014986 0.034749497 -0.14071304 0.1734054 0.0009051714
0.012909375 -0.082746945 0.039210394 0.019291304 -0.12855239 -0.096747406 -0.010151475 0.0048063076
0.0044757505 0.03110285 0.025137099 -0.004266981 0.45424056 -0.06190259 -0.007534085 0.04308062
0.09779503 -0.19393595 -0.17745982 0.0074742436 0.1864197 -0.047062498 0.15195589 -0.037589483
-0.043782193 -0.01917678 0.08473925 -0.01673707 0.20133589 0.13760015 -0.06017281 0.00044531503
-0.03641335 0.013481102 -0.061542705 -0.052233763 0.40412077 0.10679066 0.06254161 0.017089536
0.040929206 -0.030591203 0.10524252 -0.38835865 -0.083540134 -0.40103167 0.11122517 -0.07358605
-0.024530636 0.006113176 -0.005727528 -0.0072832885 0.05047843 0.006966827 0.0007018011 0.23176433
0.20129669 0.06334937 0.051767737 -0.12593956 0.028101722 -0.11143306 0.13751969 0.00030286674
0.024821462 0.020103542 -0.030015964 -0.057183642 -0.2635018 -0.47606295 -0.17416959 -0.00073060545
-0.005247348 0.060127243 0.13428995 -0.076607406 0.24716097 0.045734864 0.19691637 0.013237801
-0.03165591 0.09667936 -0.74580896 0.15044007 0.23318382 0.033211652 0.25914547 -0.035229523
0.122288935 0.021665104 0.4552783 0.0019511457 0.06745611 -0.26475736 0.027902285 0.00094748766
0.019628832 -0.048547175 -0.018926535 0.034956615 0.6140859 -0.10716985 -0.09529445 0.076150626
-0.09959961 -0.013012406 -0.002587807 -0.66621536 -0.112617135 0.13886152 0.054696877 -0.020143595
-0.04208302 0.056840606 -0.00895238 -0.025569083 0.050127454 0.055605173 -0.001547779 1.0130626
-0.1414813 -0.21599641 0.58441436 -0.35283998 -0.066037335 0.3394573 -0.10565974 0.048851047
00000000: dad3 a33c 2ddd 21be ed98 8cbd e7b2 c6bc
00000010: e492 7bbe 39fe 3ebe 13a9 9abc f527 153c
00000020: 7f26 853c 3d7f 203d 8a30 5c3d 0950 063c
00000030: 358a 5c3f fce7 f3bd 164c 83bc 93aa 9d3d
00000040: a11a 453e 40c6 b7be 7a77 adbe 4ddf bf3c
00000050: 8c5a b43e 9093 bdbd 79c2 8a3e 5fb6 90bd
00000060: 9217 a8bd 049a 12bd f314 2c3e b721 05bd
00000070: b765 c03e 9bf6 803e 7b4f e4bd f495 0a3b
00000080: 4334 92bd 043f a43c 0fd4 0b3d e42f ddbd
00000090: 4c35 473f d4ee 63bc 1193 f23d 77f5 093d
000000a0: 4d93 a73d 563d 74bd c1f2 1aba 7176 41bf
000000b0: 009a b6bd 3858 3fbf b19f 363d 56bf 85bd
000000c0: d2ed 43bd 165a 273c 9d2c 39bc de73 75bc
000000d0: 3a1f c43d 93a2 663c 326d cc3a f7e0 df3e
000000e0: 832d c63e c321 f73d e970 cf3d 29ae 7cbe
000000f0: c092 4f3d 223a 59be e983 863e 2ef6 353b
00000100: bf61 7a3c 929e d7bd b25d dc3d 94fe 223d
00000110: eb18 26be 157e fabd c92e 52bc 01c7 c53b
00000120: b8e2 ee3b 594b 1c3d 1332 053d 5933 a7ba
00000130: 3a5e 123f efa5 a0bd 3b4a 21bc 6fa0 593d
00000140: 4f28 ff3d 6e45 78be f3aa 64be 25cf 3c3c
00000150: 95bd 6f3e 193f 75bd fdd1 403e b998 40bd
00000160: 0730 60bd a023 c4bc c5a8 dd3d a0a0 adbc
00000170: 1afa 803e d432 2f3e 1d1e 9abd 357c 593a
00000180: 5e98 3dbd ef36 803c 8b51 13bd 8405 8bbd
00000190: 3acc 023f 111a 5bbd fb51 a13d 37fc b13c
000001a0: d8c7 563d 0099 1ebd 46eb c53a 518b fcbe
000001b0: 4d84 29bd b568 00bf 455d e7bd c458 7bbd
000001c0: b91c ffbc c243 f33b faa3 edbb 14c1 19bc
000001d0: e740 823d 7f4b 113c 4ab1 873a 12fb 943e
000001e0: 2771 823e cba8 a33d 00c0 863d 53fe 23be
000001f0: 7d55 0e3d 1417 10be 2f91 313e 0649 6d3a
00000200: d881 533c 3b77 a9bd 149b 203d cc08 9e3c
00000210: 3da3 03be 8123 c6bd 5f52 26bc 3b7e 9d3b
00000220: 51a9 923b 67cb fe3c 51ec cd3c 08d2 8bbb
00000230: 3892 e83e 928d 7dbd 7ce0 f6bb 4e75 303d
00000240: c348 c83d 2597 46be 07b8 35be 80ea f43b
00000250: cee4 3e3e 9bc4 40bd 539a 1b3e 6ef7 19bd
00000260: f554 33bd 9f18 9dbc c68b ad3d 2e1c 89bc
00000270: ff2a 4e3e 0ee7 0c3e c477 76bd 2c79 e939
00000280: 2a26 15bd d7df 5c3c 3414 7cbd 12f3 55bd
00000290: ebe8 ce3e 10b5 da3d d115 803d 5bff 8b3c
000002a0: 62a5 273d 679a fabc 6489 d73d f2d6 c6be
000002b0: 1717 abbd 0654 cdbe 06ca e33d 48b4 96bd
000002c0: 79f4 c8bc 0951 c83b fdad bbbb a7a8 eebb
000002d0: 78c2 4e3d fb49 e43b 13f9 373a a153 6d3e
000002e0: b820 4e3e 51bd 813d 680a 543d 4df6 00be
000002f0: 9535 e63c 0437 e4bd f6d1 0c3e 16ca 9e39
00000300: 6156 cb3c 2fb0 a43c 0ae4 f5bc 6539 6abd
00000310: b5e9 86be 86be f3be 8359 32be 1a86 3fba
00000320: f2f1 abbb fc47 763d 4e83 093e 58e4 9cbd
00000330: c417 7d3e 7b54 3b3d 72a4 493e 5de3 583c
00000340: a1a9 01bd d4ff c53d 56ed 3ebf f60c 1a3e
00000350: bdc7 6e3e f108 083d b7ae 843e d54c 10bd
00000360: 9f72 fa3d 047b b13c 3d1a e93e 96bd ff3a
00000370: 6e26 8a3d 478e 87be 5593 e43c d260 783a
00000380: a5cc a03c 67d9 46bd d20b 9bbc ab2e 0f3d
00000390: bc34 1d3f de7b dbbd bd29 c3bd dcf4 9b3d
000003a0: e1fa cbbd fd31 55bc 3298 29bb 178d 2abf
000003b0: d0a3 e6bd b731 0e3e d509 603d 2e04 a5bc
000003c0: 3f5f 2cbd b2d1 683d 01ad 12bc 4176 d1bc
000003d0: 7252 4d3d 40c2 633d d8de caba 09ac 813f
000003e0: 79e0 10be 2a2e 5dbe 2e9c 153f 71a7 b4be
000003f0: 953e 87bd 59cd ad3e 2264 d8bd 0918 483d

fc4.bias f4 [30]
7.368593 6.9934587 6.694502 2.4720032 1.664038 2.1359308 1.881992 2.3081856
1.4191121 -0.17970367 0.40194818 -0.7891299 -0.36169487 0.25625247 -0.8082348 -0.34197187
-0.22780839 -0.44018066 -0.29536286 0.11678262 -0.085516326 -0.36470908 0.07380138 0.097096115
-0.67716867 -0.13061117 -0.074356906 -0.5453363 -0.043767434 -0.048508856
00000000: 84cb eb40 6aca df40 5c39 d640 4d35 1e40
00000010: 32ff d43f 17b3 0840 1de5 f03f 50b9 1340
00000020: 77a5 b53f 3d04 38be 27cc cd3e 6b04 4abf
00000030: 1230 b9be 8633 833e 7ae8 4ebf f016 afbe
00000040: 9a46 69be 5c5f e1be cd39 97be ba2b ef3d
00000050: 2f23 afbd 26bb babe 2e25 973d 54da c63d
00000060: ed5a 2dbf efbe 05be 6f48 98bd 299b 0bbf
00000070: 7b45 33bd 39b1 46bd

fc1.weight f4 [32, 7]
0.31276056 -0.553312 -0.26184198 -0.57239985 -0.06245414 0.54936093 -0.011205437 -0.66234046
-0.32685187 0.5118466 0.026580315 0.0070803394 0.0031777564 0.001572031 -1.087694 1.506694
-0.07408762 0.5355779 0.009131352 -0.01609137 0.0016525866 -0.59741676 0.9443996 0.45174274
-0.9586942 -0.013226551 0.013334998 -0.004166264 0.025085757 -0.02506161 0.019799989 0.14437959
1.0116924 0.9668058 -0.033294443 -0.017290726 -0.27650172 0.033822265 0.086032845 0.19744588
-0.20630874 0.0039570304 0.88087547 -1.011492 -0.11737761 -0.8871419 -0.021811878 0.025793206
0.0013485664 -1.5271192 0.30647767 0.40907377 0.6597228 0.041477572 0.020215934 -0.002195547
-0.14136156 0.58416736 -0.1365959 -0.5076738 0.07087698 -0.34929016 -0.0054604784 -0.7187886
0.023206277 -0.7635239 0.56167626 -0.022364035 0.015265007 -0.0035097748 0.3422694 -0.36225504
0.34508455 0.40448713 0.010593205 -0.014883709 -0.003012986 1.235895 1.2804087 0.1339335
0.24792968 0.028782912 0.014592511 -0.0019586533 -1.0704607 -0.41241503 -1.3958677 -0.45553306
-0.013326172 0.016872738 -0.0034351666 1.3143358 0.42602134 1.2605977 -0.5147292 -0.011782593
-0.018057393 0.0101081375 -0.58501387 -0.7234953 -0.09977684 0.34247756 0.0056744134 -0.030870615
0.0009824531 0.5539368 0.5635328 0.06214859 0.2824624 -0.0014134528 0.006171408 0.0029238926
-0.04682421 -1.1180874 0.16949756 -1.2289261 -0.0009309696 0.00970901 -0.015713975 -0.019945646
-0.39912656 1.9164717 -0.43409005 0.020573702 -0.0020906955 -0.0001997714 -0.44309866 -0.4557395
-0.55523294 -0.16657704 0.019069303 -0.012956902 0.0011872766 0.7573166 -0.421495 0.835648
0.04204171 0.018059779 -0.008593673 -0.0073483395 0.8017138 1.0759416 -0.5874982 0.46141478
0.0020180752 -0.0035768442 -0.00093491643 -0.17001791 0.29883403 0.17675489 -0.49415037 0.6084313
0.6107358 -0.013020019 0.9019809 1.0602465 -0.083419405 0.8651493 0.026534628 -0.018059947
0.0041489014 0.9329338 -0.4893159 0.9688335 0.55850065 0.0046091345 0.039832097 -0.00057726336
-0.017579196 0.042682033 0.5576825 1.1174139 -0.005500595 0.063551426 5.4679967e-06 -1.2348883
-1.1382372 0.0833457 0.6161729 0.014173822 -0.01828726 -0.005579137 -0.8382662 -0.20697662
-0.83777547 0.23662001 0.013895735 0.0023314394 0.0019824917 0.74910057 0.18392946 0.8784485
0.38016033 0.003215736 0.025862074 -0.00012478416 -0.116158195 -0.0029923825 0.24858749 0.38214496
-0.28179872 0.34115866 -0.007828441 1.7508253 -1.2761624 -0.16481291 0.37125817 0.014501686
-0.025483113 -0.009176782 0.92829394 0.96339905 -0.022094548 -0.5874486 -0.01293367 0.030283097
-0.00017744732 0.058065023 0.6021671 0.12323123 -0.2801776 -0.3878233 0.14042751 0.00030029804
00000000: 2722 a03e dba5 0dbf 2710 86be cc88 12bf
00000010: eacf 7fbd eba2 0c3f 0297 37bc 258f 29bf
00000020: 2159 a7be 6108 033f f6be d93c 3102 e83b
00000030: e841 503b 9b0c ce3a 8f39 8bbf 59db c03f
00000040: 40bb 97bd a21b 093f ab9b 153c 0cd2 83bc
00000050: 9b9b d83a 4ef0 18bf 2cc4 713f d34a e73e
00000060: fc6c 75bf 2db4 58bc 097b 5a3c 2885 88bb
00000070: a580 cd3c 014e cdbc 9633 a23c 3ed8 133e
00000080: 237f 813f 9680 773f c15f 08bd 48a5 8dbc
00000090: a291 8dbe 3789 0a3d fd31 b03d 412f 4a3e
000000a0: 9942 53be faa9 813b 0e81 613f 9278 81bf
000000b0: ac63 f0bd bb1b 63bf d3ae b2bc 464c d33c
000000c0: 61c2 b03a a478 c3bf a4ea 9c3e 1e72 d13e
000000d0: 98e3 283f 63e4 293d e39b a53c 2be3 0fbb
000000e0: 16c1 10be fe8b 153f ccdf 0bbe e9f6 01bf
000000f0: f327 913d 29d6 b2be d0ed b2bb 8802 38bf
00000100: 171b be3c 4d76 43bf 04ca 0f3f c834 b7bc
00000110: 141a 7a3c 4004 66bb ef3d af3e 7e79 b9be
00000120: ecae b03e f018 cf3e 1f8f 2d3c cdda 73bc
00000130: 8475 45bb cf31 9e3f 6fe4 a33f dd25 093e
00000140: 47e1 7d3e 24ca eb3c 6d15 6f3c c05c 00bb
00000150: db04 89bf 1028 d3be cbab b2bf a13b e9be
00000160: 0456 5abc b238 8a3c 8820 61bb 283c a83f
00000170: 781f da3e 445b a13f 4bc5 03bf c70b 41bc
00000180: 19ed 93bc 9a9c 253c 78c3 15bf fd36 39bf
00000190: cd57 ccbd 3859 af3e 6ef0 b93b 5fe4 fcbc
000001a0: a8c5 803a cdce 0d3f b043 103f 858f 7e3d
000001b0: e99e 903e 9b43 b9ba 8639 ca3b c79e 3f3b
000001c0: beca 3fbd 7d1d 8fbf c590 2d3e 734d 9dbf
000001d0: 500c 74ba 8a12 1f3c 98ba 80bc 0d65 a3bc
000001e0: 515a ccbe f24e f53f 0d41 debe 2e8a a83c
000001f0: 0d04 09bb ba79 51b9 d4dd e2be b056 e9be
00000200: bf23 0ebf 2c93 2abe 3a37 9c3c 3049 54bc
00000210: 649e 9b3a 80df 413f 31ce d7be 07ed 553f
00000220: ee33 2c3d 1af2 933c 7acc 0cbc 57ca f0bb
00000230: 1e3d 4d3f 74b8 893f 4866 16bf 8f3e ec3e
00000240: af41 043b 7d69 6abb 2e15 75ba 2d19 2ebe
00000250: c600 993e 3cff 343e 4701 fdbe 27c2 1b3f
00000260: 2e59 1c3f eb51 55bc 38e8 663f 28b6 873f
00000270: cbd7 aabd 6d7a 5d3f 265f d93c 74f2 93bc
00000280: 82f3 873b c0d4 6e3f 9d87 fabe 7905 783f
00000290: e6f9 0e3f 3908 973b fb26 233d 7d53 17ba
000002a0: 3f02 90bc 5bd3 2e3d 48c4 0e3f 6b07 8f3f
000002b0: 563e b4bb 4027 823d bc79 b736 d210 9ebf
000002c0: c2b1 91bf 26b1 aa3d 82bd 1d3f 5139 683c
000002d0: 2acf 95bc 31d1 b6bb 9d98 56bf aef1 53be
000002e0: 7478 56bf 844c 723e f0aa 633c 10cb 183b
000002f0: b1ec 013b 0ec5 3f3f 0158 3c3e 00e2 603f
00000300: 60a4 c23e 19bf 523b b3dc d33c 7ed8 02b9
00000310: 59e4 edbd d91b 44bb b88d 7e3e 81a8 c33e
00000320: ec47 90be 59ac ae3e dd42 00bc 0b1b e03f
00000330: 4a59 a3bf b7c4 28be 8d15 be3e 7b98 6d3c
00000340: f6c1 d0bc 375a 16bc aca4 6d3f 52a1 763f
00000350: a0ff b4bc 0863 16bf bee7 53bc 4214 f83c
00000360: 2711 3ab9 97d5 6d3d a027 1a3f a860 fc3d
00000370: 7073 8fbe c790 c6be 3bcc 0f3e 5271 9d39

fc1.bias f4 [32]
1.3716449 1.0940155 0.47246227 0.3675274 -0.28856993 1.9568157 0.9143863 -0.23029721
2.216073 1.0837309 1.6137226 -0.18254451 -0.2694646 -0.08107032 1.1152277 1.0499306
-0.13816611 -0.5613001 0.85604227 0.7017238 -0.6955506 1.3547298 -0.007444495 0.0063744793
1.6987525 0.26230326 -0.75209796 0.94720924 1.4466008 -1.0726147 0.5700011 1.7822223
00000000: 0f92 af3f b308 8c3f 93e6 f13e 8d2c bc3e
00000010: 70bf 93be f078 fa3f 3815 6a3f 08d3 6bbe
00000020: 24d4 0d40 b2b7 8a3f 768e ce3f f3ec 3abe
00000030: 44f7 89be 3208 a6bd c8bf 8e3f 2064 863f
00000040: 6b7b 0dbe 5db1 0fbf 9625 5b3f 2ca4 333f
00000050: 9b0f 32bf c967 ad3f f3f0 f3bb 02e1 d03b
00000060: b970 d93f 9d4c 863e 7e89 40bf 4e7c 723f
00000070: 372a b93f 704b 89bf 98eb 113f dc1f e43f

fc2.weight f4 [128, 32]
0.07896573 0.260314 -0.15681031 0.23482892 0.13854456 -0.053192306 0.16590326 0.113529414
0.34728524 0.33597484 0.3257092 0.4040694 0.18350635 0.4501991 0.44541407 0.17540124
0.13147876 0.24708076 0.4035022 0.072528556 -0.14470726 0.23518729 0.22059613 0.05425475
0.19881637 0.033821832 -0.021949198 0.34400496 0.11291073 -0.059849855 -0.12425365 0.142153
0.37305173 0.24682301 -1.0912266 -0.68918574 -0.031674147 0.51456726 0.049583953 -0.9366525
0.011085213 -0.44910252 0.67786825 0.65875566 -0.18101701 0.35731587 0.41782314 0.10666243
-0.5436252 -0.015635023 0.049065094 0.105973616 0.85819244 -0.10952816 0.15258038 -0.6766293
0.40151075 0.5455201 0.52639747 0.2312044 0.13370363 -0.34807664 0.08230755 -0.13304818
-0.111662276 0.07284345 0.26807103 0.19835116 -0.14358778 -0.21868384 0.44294074 0.24893029
-0.18312891 0.6292919 -0.43713623 -0.33475298 0.5455326 -0.40752137 0.31641948 -0.24647586
0.023377964 0.22098006 0.01567825 0.16514048 -0.11924642 0.1381778 -0.98161775 0.62803966
0.7698479 -0.005597643 -0.89937717 -0.32491085 -0.24151146 0.2844058 0.015750095 -0.09722026
0.027701253 0.03717663 0.09343196 0.23825464 -0.5484559 0.13501 0.38640577 -0.15748815
0.33283752 -0.054326657 -0.054256786 0.02046003 -0.0045593544 -0.30299273 0.29695708 0.06881466
-0.00235817 0.14311713 -0.1762623 0.0028191837 -0.04904319 0.17987156 0.33191696 -0.054409698
0.18248199 0.12882014 -0.1472422 -0.26766345 -0.10186583 0.1528354 0.05843262 0.10040784
0.08194156 0.00016210327 -0.25396922 -0.50836337 0.12407191 0.44349638 -0.26316988 0.07631649
0.15063366 -0.56601936 0.39297158 0.26146322 -0.43166068 -0.06435195 0.4347882 0.08459565
-0.0365132 -0.09098965 -0.25553644 -0.1013367 -0.0067582387 -0.059465513 -0.016182838 0.035022963
-0.015940456 -0.21580832 0.69598037 0.3655061 0.26098248 0.04968828 -0.15058011 0.25593066
-0.13776167 -0.15631256 0.1170498 -0.2742559 0.053328384 0.44260272 -0.02392331 0.045011368
0.26113027 0.17355472 -0.047758225 -0.26064596 0.10921725 0.014614037 0.23024718 0.14711942
-0.0922949 -0.23275308 -0.3065416 -0.04475228 0.22457501 0.12614155 0.27745706 0.03851755
-0.5102154 -0.15233381 -0.7907854 0.6606822 0.3297693 -0.40636367 -0.12652427 0.31032634
0.10123369 -0.1616051 0.04141731 -0.5533591 0.09669634 0.2939866 -0.0016065714 0.10281161
0.2616641 0.20843263 0.4566247 0.06578455 -0.93768066 -0.20457584 -0.2941244 0.08701387
-0.13504453 0.1888658 -0.2846831 -0.0884297 0.0543837 0.014540995 0.18000653 -0.37051895
0.21419245 0.176936 0.08576536 -0.00538019 0.17344643 -0.21207662 -0.057957664 0.24695785
-0.065304406 0.11094251 0.31244215 0.15973516 -0.13100041 -0.29820025 -0.13615319 -0.6241958
0.17143661 0.365566 -0.8971689 -0.0100712 0.005858578 0.411363 -0.4328887 -0.49367595
0.26651716 -0.28306526 -0.12834883 -0.18942772 0.06608254 0.30147228 0.25423187 0.49882632
-0.18999355 0.58007526 0.044946995 -0.29049042 -0.08502082 0.38667238 0.21637401 0.13774079
00000000: c9b8 a13d e047 853e e292 20be fe76 703e
00000010: a0de 0d3e 2de0 59bd 8be2 293e 1c82 e83d
00000020: 5fcf b13e e504 ac3e 5bc3 a63e 2fe2 ce3e
00000030: 17e9 3b3e 7f80 e63e 500d e43e 629c 333e
00000040: 5ea2 063e bd02 7d3e d797 ce3e da89 943d
00000050: 242e 14be f0d4 703e f4e3 613e 3b3a 5e3d
00000060: 8596 4b3e c388 0a3d cece b3bc 6b21 b03e
00000070: be3d e73d 1f25 75bd b378 febd 8e90 113e
00000080: a300 bf3e 2cbf 7c3e 50ad 8bbf 7a6e 30bf
00000090: c0bc 01bd aeba 033f 8b18 4b3d 75c8 6fbf
000000a0: c19e 353c c4f0 e5be c688 2d3f 36a4 283f
000000b0: 865c 39be 1bf2 b63e eaec d53e d571 da3d
000000c0: 052b 0bbf 0515 80bc 7bf8 483d b208 d93d
000000d0: 80b2 5b3f 4d50 e0bd 083e 1c3e 9437 2dbf
000000e0: d192 cd3e 35a7 0b3f fcc1 063f d9c0 6c3e
000000f0: 9be9 083e 1a37 b2be dc90 a83d c83d 08be
00000100: 31af e4bd f22e 953d 9b40 893e 911c 4b3e
00000110: ad08 13be a8ee 5fbe 21c9 e23e 95e7 7e3e
00000120: 2586 3bbe 4619 213f 52d0 dfbe be64 abbe
00000130: 06a8 0b3f a4a6 d0be bc01 a23e 2b64 7cbe
00000140: 2583 bf3c 9948 623e ac6f 803c 961a 293e
00000150: 7837 f4bd 7b7e 0d3e 4d4b 7bbf 35c7 203f
00000160: c114 453f 6f6c b7bb 953d 66bf b75a a6be
00000170: c84e 77be a39d 913e 5806 813c 6a1b c7bd
00000180: bded e23c 8646 183d 4159 bf3d 06f9 733e
00000190: 9b67 0cbf 1040 0a3e fad6 c53e 9344 21be
000001a0: ae69 aa3e a185 5ebd 5d3c 5ebd cb9b a73c
000001b0: a366 95bb dd21 9bbe c20a 983e b3ee 8c3d
000001c0: 878b 1abb 4c8d 123e 1b7e 34be 0ec2 383b
000001d0: 83e1 48bd 4030 383e 05f1 a93e b4dc 5ebd
000001e0: 8fdc 3a3e 6de9 033e a9c6 16be 2f0b 89be
000001f0: 089f d0bd e280 1c3e 0b57 6f3d a0a2 cd3d
00000200: fad0 a73d 44fa 2939 4108 82be 1a24 02bf
00000210: 6a19 fe3d f511 e33e 34be 86be d24b 9c3d
00000220: b63f 1a3e a5e6 10bf 9233 c93e 82de 853e
00000230: a102 ddbe f5ca 83bd 8f9c de3e 7c40 ad3d
00000240: dd8e 15bd c858 babd acd5 82be 9e89 cfbd
00000250: 3774 ddbb 1c92 73bd df91 84bc 3d74 0f3d
00000260: 8f95 82bc dbfc 5cbe c52b 323f 9e23 bb3e
00000270: 7f9f 853e f085 4b3d ac31 1abe 5809 833e
00000280: 6511 0dbe 6610 20be ceb7 ef3d 456b 8cbe
00000290: dd6e 5a3d d39c e23e d1fa c3bc d75d 383d
000002a0: deb2 853e 54b8 313e 219e 43bd 6373 85be
000002b0: 4bad df3d b76f 6f3c ebc5 6b3e 79a6 163e
000002c0: 1c05 bdbd d356 6ebe 05f3 9cbe 2b4e 37bd
000002d0: fef6 653e 402b 013e da0e 8e3e 94c4 1d3d
000002e0: 7a9d 02bf 65fd 1bbe e970 4abf 7822 293f
000002f0: 86d7 a83e e60e d0be 948f 01be 18e3 9e3e
00000300: 9c53 cf3d cf7b 25be 32a5 293d f1a8 0dbf
00000310: bb08 c63d 6985 963e 9793 d2ba e58e d23d
00000320: d6f8 853e 5d6f 553e b6ca e93e 0dba 863d
00000330: d70b 70bf 547c 51be 7997 96be 5434 b23d
00000340: 1d49 0abe 0966 413e fcc1 91be a11a b5bd
00000350: 71c1 5e3d 5a3d 6e3c a253 383e a9b4 bdbe
00000360: 4455 5b3e b62e 353e c0a5 af3d 4e4c b0bb
00000370: f19b 313e 9d2a 59be 0465 6dbd 85e2 7c3e
00000380: 51be 85bd d435 e33d 6bf8 9f3e 9d91 233e
00000390: f924 06be b4ad 98be be6b 0bbe 4ccb 1fbf
000003a0: 148d 2f3e 772b bb3e dcac 65bf ad01 25bc
000003b0: 50f9 bf3b 2c9e d23e 96a3 ddbe 18c3 fcbe
000003c0: f074 883e eeed 90be e06d 03be 57f9 41be
000003d0: 4856 873d 935a 9a3e ae2a 823e 2a66 ff3e
000003e0: ab8d 42be d07f 143f 571a 383d 29bb 94be
000003f0: 651f aebd ecf9 c53e 2691 5d3e ec0b 0d3e

fc2.bias f4 [128]
0.32575634 0.27672172 -0.020224385 0.18320769 0.42664698 0.35855395 0.722527 0.057588007
0.4840248 0.6334267 -0.05580638 0.2222355 0.66630775 0.42081746 0.20579873 0.08130793
0.5054529 0.47882247 0.69807386 0.46945757 0.71836644 0.231687 0.42330736 0.5040582
0.9151459 0.66155136 -0.35838538 0.6859297 -0.1082169 0.54572266 0.23777929 0.7285445
0.9903068 0.42073298 0.4841694 0.5533157 0.68858665 0.35129917 0.53017586 0.4776765
0.7761633 0.45029533 0.5101965 0.2770486 0.4582774 0.5895122 0.20399441 0.0980433
0.32919487 0.14775416 0.4145024 0.8332463 0.80561143 0.15836519 0.5133073 -0.08887681
0.6984731 0.051852163 0.4904224 0.6944952 0.12069329 0.35871494 0.19940247 0.4916889
0.25963172 0.50758404 0.09194163 0.27648216 0.13618746 0.3255988 0.41663954 0.6367991
0.51424646 0.5356353 0.2840955 0.3072892 0.22727281 0.509167 0.74845713 0.1810823
1.0544976 0.010800043 0.47902352 0.47253436 0.3064952 0.0784931 0.38990033 0.24625435
0.7396414 0.7513252 0.41837543 0.5620261 0.81226295 0.5983716 0.5116206 0.30755168
0.74088913 0.6416882 0.17833546 0.16365379 0.5625339 0.42085135 0.6378546 0.15073778
0.69525033 0.42092788 -0.20998819 -0.077966124 -0.41577137 -0.23720656 0.39671648 0.5279744
0.6674264 0.34411228 0.022566067 0.58345264 0.38689214 0.097100355 0.26918173 0.55366296
0.5866785 0.4437693 0.637483 0.48937708 0.81204236 0.6306099 0.9039081 0.5206765
00000000: 89c9 a63e 78ae 8d3e 9cad a5bc cc9a 3b3e
00000010: 7971 da3e 6294 b73e 88f7 383f 67e1 6b3d
00000020: 19d2 f73e 4128 223f 3b95 64bd b491 633e
00000030: 2593 2a3f 6375 d73e e7bc 523e c684 a63d
00000040: 5c65 013f 3828 f53e f8b4 323f be5c f03e
00000050: dde6 373f 5b3f 6d3e bebb d83e f509 013f
00000060: 0047 6a3f 6e5b 293f 4a7e b7be 1799 2f3f
00000070: d2a0 ddbd 7bb4 0b3f 6a7c 733e e481 3a3f
00000080: bf84 7d3f 506a d73e 0de5 f73e 19a6 0d3f
00000090: 3747 303f 7cdd b33e 9bb9 073f 0492 f43e
000000a0: a3b2 463f 1c8d e63e 3d9c 023f 50d9 8d3e
000000b0: 56a3 ea3e 46ea 163f e9e3 503e edca c83d
000000c0: 3b8c a83e de4c 173e a939 d43e a14f 553f
000000d0: 8d3c 4e3f 7c2a 223e 1b68 033f 0c05 b6bd
000000e0: 22cf 323f ef62 543d a518 fb3e 70ca 313f
000000f0: 0b2e f73d 7ca9 b73e 2930 4c3e a6be fb3e
00000100: 73ee 843e 07f1 013f e54b bc3d 128f 8d3e
00000110: ba74 0b3e e3b4 a63e c751 d53e 4405 233f
00000120: a8a5 033f 651f 093f f774 913e 0355 9d3e
00000130: 34ba 683e c558 023f e39a 3f3f a36d 393e
00000140: c7f9 863f aaf2 303c 9242 f53e 06f0 f13e
00000150: f0ec 9c3e fec0 a03d 04a1 c73e 1a2a 7c3e
00000160: 2459 3d3f d956 403f 4e35 d63e f1e0 0f3f
00000170: 77f0 4f3f e22e 193f 91f9 023f 6a77 9d3e
00000180: e9aa 3d3f ae45 243f 929d 363e dc94 273e
00000190: 3902 103f d479 d73e 704a 233f 015b 1a3e
000001a0: edfb 313f dc83 d73e 2507 57be b4ac 9fbd
000001b0: fcdf d4be 47e6 72be 6c1e cb3e 5529 073f
000001c0: 75dc 2a3f 7c2f b03e 79dc b83c 275d 153f
000001d0: ba16 c63e 8ddc c63d 30d2 893e dbbc 0d3f
000001e0: 9030 163f bb35 e33e 1632 233f a28f fa3e
000001f0: 02e2 4f3f a76f 213f 8566 673f 0e4b 053f
