logs/sdf_single_all_distances/state_81.pt (torch, 122503 bytes, 16 tensors)

fc1.weight f4 [32, 7]
0.2866805 -0.5068585 -0.26107496 -0.46254423 -0.021750357 0.51798576 -0.008124776 -0.50894624
-0.2500924 0.45613474 0.05426503 0.00566368 0.0010961462 0.004125484 -0.88182265 1.2516618
-0.06272224 0.54487413 0.008600637 -0.0034663866 -0.00021210036 -0.54956037 0.80646724 0.38760802
-0.8173098 -0.004245656 0.0346635 7.7470295e-06 0.030579278 -0.026141757 0.021485724 0.21922918
0.894781 0.85212797 -0.032969978 -0.0017884644 -0.2034891 0.009259837 0.1726014 0.11986001
-0.17169882 0.0051028104 0.7457173 -0.8618398 -0.099505566 -0.7099062 -0.0217434 0.005912057
0.0003728014 -1.2550248 0.14036496 0.36543584 0.5203172 0.029712902 0.041700553 -0.0029807473
-0.11301129 0.5596106 -0.07869438 -0.41266406 0.08104227 -0.28228384 -0.0074951155 -0.6112778
0.046747144 -0.686783 0.4658481 -0.016168632 0.023246069 -0.003372702 0.27977097 -0.3392015
0.26426318 0.29323378 0.023869358 -0.031858932 -0.0020222885 1.1249999 1.1281056 0.13088936
0.28244665 0.02536439 -0.002713565 -0.001557928 -0.9633443 -0.34254757 -1.1919622 -0.34065744
-0.007478916 0.00769042 0.00086428074 1.1114346 0.37335387 1.0608727 -0.37989613 -0.016463049
0.007434877 0.0061801365 -0.50940377 -0.58647496 -0.060821187 0.3072169 0.004736109 -0.01604186
-0.0014506922 0.522916 0.51170295 0.07479997 0.2401881 -0.005257523 0.0034774153 0.0023237334
-0.12957421 -1.0173626 0.16976805 -1.0440363 0.05178982 0.062175315 -0.009071254 -0.062378604
-0.35486332 1.5772972 -0.249938 0.038865604 0.01282791 -0.00063639745 -0.4198748 -0.42674807
-0.5018304 -0.17859887 0.01822462 0.0023637263 0.00023939696 0.69729894 -0.29689857 0.7042042
0.11570072 0.02182631 0.0011863911 -0.003979274 0.6989063 0.9320507 -0.5235027 0.40264148
0.0016567991 -0.018524153 -0.0019348315 -0.03553132 0.30719754 0.012736489 -0.52047074 0.5177463
0.42251483 -0.010609245 0.786706 0.90517145 -0.07862842 0.81436104 0.015820201 -0.020215482
0.0008180696 0.8073722 -0.3946162 0.88939947 0.5233906 0.006537929 0.010099619 -0.00019049112
-0.021547612 -0.0052815955 0.47611672 0.9361216 -0.01300452 0.05038337 0.0028990298 -0.97527415
-0.941182 0.07934778 0.4837502 0.0152667705 0.004780045 -0.0028641168 -0.7228842 -0.1866462
-0.72937983 0.21124074 -0.0050852043 -0.0042162263 0.001211126 0.55961305 0.20951982 0.6476477
0.33079866 0.004407351 0.014165103 0.00093181926 -0.20344533 -0.099383965 0.32564107 0.24184354
-0.17526141 0.3044997 -0.012461299 1.5256704 -1.1057835 -0.13645363 0.3686685 0.015692743
-0.0082439855 -0.003061193 0.7856005 0.87534237 0.009743192 -0.52940226 -0.013981749 0.08657642
-0.007367254 0.027050622 0.5294561 0.12935348 -0.25228366 -0.31833395 0.18090656 0.006400091
00000000: c9c7 923e 7bc1 01bf 9eab 85be 99d2 ecbe
00000010: ce2d b2bc b79a 043f c81d 05bc 4d4a 02bf
00000020: 1c0c 80be 7e8a e93e 0245 5e3d 6496 b93b
00000030: 90ac 8f3a 112f 873b 21bf 61bf 7436 a03f
00000040: 8574 80bd df7c 0b3f b0e9 0c3c 512c 63bb
00000050: 4267 5eb9 fdaf 0cbf a374 4e3f 8f74 c63e
00000060: 373b 51bf 251f 8bbb 50fb 0d3d 3df9 0137
00000070: 6581 fa3c 3d27 d6bc d402 b03c 9d7d 603e
00000080: 5e10 653f 0f25 5a3f 870b 07bd e86a eaba
00000090: 725f 50be 92b6 173c 6cbe 303e 2a79 f53d
000000a0: d1d1 2fbe 7a35 a73b 54e7 3e3f 88a1 5cbf
000000b0: 93c9 cbbd 6abc 35bf 371f b2bc eeb9 c13b
000000c0: 8f74 c339 a7a4 a0bf d5bb 0f3e 681a bb3e
000000d0: 8233 053f 7968 f33c 33ce 2a3d a458 43bb
000000e0: 7772 e7bd a442 0f3f 852a a1bd b448 d3be
000000f0: 7df9 a53d 8287 90be 9699 f5bb b47c 1cbf
00000100: ef79 3f3d 03d1 2fbf a483 ee3e 1474 84bc
00000110: 8a6e be3c 8d08 5dbb 243e 8f3e d2ab adbe
00000120: 814d 873e bd22 963e ac89 c33c 837e 02bd
00000130: 5f88 04bb ffff 8f3f c465 903f dc07 063e
00000140: d99c 903e fbc8 cf3c 11d6 31bb 6433 ccba
00000150: bb9d 76bf 6562 afbe 3892 98bf a76a aebe
00000160: b211 f5bb ebff fb3b e690 623a 7d43 8e3f
00000170: 3d28 bf3e adca 873f bf81 c2be 84dd 86bc
00000180: 45a0 f33b be82 ca3b 4968 02bf 3923 16bf
00000190: a31f 79bd 894b 9d3e 5d31 9b3b 386a 83bc
000001a0: 2725 beba d3dd 053f f7fe 023f ba30 993d
000001b0: dff3 753e 4d47 acbb 59e5 633b c749 183b
000001c0: 1aaf 04be f038 82bf add7 2d3e fba2 85bf
000001d0: 9021 543d 8bab 7e3d 999f 14bc b580 7fbd
000001e0: a5b0 b5be e0e4 c93f bfef 7fbe 8a31 1f3d
000001f0: 272c 523c e9d3 26ba d4f9 d6be b97e dabe
00000200: f577 00bf 9fe2 36be cc4b 953c bfe8 1a3b
00000210: a206 7b39 2f82 323f 1703 98be ba46 343f
00000220: 80f4 ec3d 17cd b23c ae80 9b3a 9264 82bb
00000230: 86eb 323f e09a 6e3f 4604 06bf 0627 ce3e
00000240: f428 d93a f7bf 97bc 2c9a fdba 4a89 11bd
00000250: ff48 9d3e b5ac 503c 923d 05bf 068b 043f
00000260: dd53 d83e 66d2 2dbc 9065 493f 51b9 673f
00000270: f007 a1bd f779 503f 5e99 813c f09a a5bc
00000280: b973 563a f2af 4e3f 220b cabe afaf 633f
00000290: edfc 053f 203c d63b df78 253c 92be 47b9
000002a0: 9e84 b0bc 3c11 adbb 92c5 f33e aaa5 6f3f
000002b0: e910 55bc cb5e 4e3d a6fd 3d3b 91ab 79bf
000002c0: 4ef1 70bf 1781 a23d 1bae f73e 7a21 7a3c
000002d0: eca1 9c3b e8b3 3bbb f00e 39bf 2e20 3fbe
000002e0: a3b8 3abf 7e4f 583e c9a1 a6bb 4528 8abb
000002f0: a5be 9e3a cd42 0f3f 5d8c 563e 3dcc 253f
00000300: 715e a93e 8a6b 903b c014 683c 5545 743a
00000310: f953 50be d289 cbbd 6dba a63e d5a5 773e
00000320: ba77 33be 62e7 9b3e 7a2a 4cbc 2b49 c33f
00000330: 508a 8dbf 80ba 0bbe 1ec2 bc3e 118e 803c
00000340: c811 07bc 4c9e 48bb 1d1d 493f 7016 603f
00000350: e9a1 1f3c e886 07bf b513 65bc fa4e b13d
00000360: 0169 f1bb 4499 dd3c 6f8a 073f 3d75 043e
00000370: 532b 81be abfc a2be 923f 393e dbb7 d13b

fc1.bias f4 [32]
1.2021898 0.93986374 0.50116754 0.3068746 -0.14205319 1.7087648 0.8708729 -0.20300622
1.8729979 0.857213 1.3599877 -0.10671286 -0.25453627 0.05101107 0.8994407 0.977775
0.07484614 -0.23044619 0.72236174 0.61339074 -0.6289969 1.1056406 0.02980498 -0.0742408
1.4595293 0.1659238 -0.6639054 0.7151453 1.2799172 -0.81289726 0.3024577 1.423313
00000000: 5be1 993f e99a 703f 844c 003f ab1e 9d3e
00000010: 6476 11be ceb8 da3f 87f1 5e3f dde0 4fbe
00000020: 65be ef3f 5072 5b3f 1414 ae3f 468c dabd
00000030: 9452 82be fcf0 503d bf41 663f 764f 7a3f
00000040: ef48 993d 16fa 6bbe b3ec 383f 2d07 1d3f
00000050: f105 21bf a285 8d3f 9329 f43c 900b 98bd
00000060: dbd1 ba3f eee7 293e b4f5 29bf c313 373f
00000070: 54d4 a33f 091a 50bf bcdb 9a3e 1f2f b63f

fc2.weight f4 [128, 32]
0.031004535 0.2940066 -0.06750015 0.21061733 0.15255058 -0.02388441 0.19395083 0.0137134
0.33937672 0.2652024 0.31328413 0.4939686 0.14606951 0.39424872 0.32282656 0.18285772
0.13980208 0.24703601 0.38467917 0.07701613 -0.13540018 0.20987521 0.24714819 0.092632264
0.115981 0.06895704 -0.1027957 0.29367477 0.13665779 0.04050632 -0.13132885 0.09039004
0.28323182 0.2865537 -0.9563832 -0.6072711 0.01050373 0.5109147 0.057828084 -0.8762154
0.04156618 -0.20862097 0.60600364 0.46410152 -0.12938601 0.26425922 0.39997655 0.068189055
-0.45495683 -0.029250009 -0.06603336 0.03864011 0.61555326 -0.0636582 0.24454153 -0.6062257
0.44879746 0.42749748 0.36590537 0.24266374 0.1700415 -0.28947195 -0.00669234 -0.10907595
-0.06909749 0.03707868 0.25507358 0.123727866 -0.14132394 -0.21197228 0.30265266 0.19622035
-0.12578611 0.5145074 -0.49596766 -0.3475312 0.4135955 -0.20830314 0.15908137 -0.313299
0.07790742 0.071833715 -0.032276366 0.19292201 -0.014148073 0.17796434 -0.7624808 0.44495898
0.6214572 0.006867402 -0.5670728 -0.21168995 -0.09069468 0.2569212 0.036303822 -0.066952825
-0.0057828766 0.01843017 0.10592212 0.24956632 -0.49486324 0.10742054 0.3459419 -0.14479844
0.3544426 0.041845184 -0.104604386 -0.01327493 0.044062197 -0.25280967 0.24976218 0.052343268
-0.021804381 0.10754756 -0.18855272 -0.031827994 -0.029054472 0.18999359 0.23100962 -0.048079126
0.11939636 0.17467676 -0.19257098 -0.2227806 -0.034170393 0.1564129 0.096558295 0.12129691
0.03296546 0.08195588 -0.19052821 -0.5505609 0.15434933 0.3996872 -0.23674637 -0.04183874
0.16489993 -0.3802198 0.35058042 0.22940122 -0.36157867 -0.008045812 0.36366743 0.13754034
-0.023985896 -0.09139209 -0.24713406 -0.06963818 -0.078410536 -0.073765434 -0.014591658 -0.015471235
0.022690672 -0.20959091 0.34640145 0.3336081 0.2372583 0.03742127 -0.19020934 0.27895322
-0.08837425 -0.1668915 0.09860486 -0.25896662 0.117392406 0.3547659 -0.04789229 0.0015444761
0.20951831 0.1529111 0.035263255 -0.14628232 0.2089433 -0.016735796 0.23324749 0.18422683
-0.12594688 -0.13226235 -0.2479295 0.035707574 0.21294329 0.078498155 0.29305857 -0.04643558
-0.44921878 -0.19032413 -0.8310523 0.55610466 0.2932688 -0.27559623 -0.17762594 0.31449312
0.056433707 -0.092589594 0.11561445 -0.52076834 0.08376412 0.20099744 -0.05424975 0.09106484
0.23734428 0.1802 0.32362252 0.047155634 -0.74585694 -0.13330074 -0.17514388 0.068253316
-0.102801114 0.10840793 -0.25211936 -0.025822556 -0.0010815528 0.022672147 0.0975916 -0.24917941
0.28258651 0.1093093 -0.16529931 -0.001073788 0.16430752 -0.14548841 -0.08232116 0.2409273
-0.101016305 0.091611296 0.19975044 0.11903914 -0.10246561 -0.28559044 -0.1220344 -0.5354997
0.13723452 0.27953523 -0.6966496 0.090819 0.11240821 0.3680844 -0.22829954 -0.52376676
0.10189526 -0.14657712 -0.056257606 -0.14991064 -0.01208331 0.24562009 0.23908082 0.27768716
-0.32028744 0.5559036 0.03559571 -0.30791023 -0.039980244 0.44224727 0.2652583 0.13498549
00000000: 39fd fd3c 0888 963e 853d 8abd 12ac 573e
00000010: 3836 1c3e 3da9 c3bc 0c9b 463e 2bae 603c
00000020: c9c2 ad3e 9cc8 873e c766 a03e 74e9 fc3e
00000030: 3f93 153e f8da c93e 8649 a53e 0e3f 3b3e
00000040: 4728 0f3e 02f7 7c3e abf4 c43e a2ba 9d3d
00000050: 58a6 0abe 87e9 563e 6a14 7d3e fcb5 bd3d
00000060: 7287 ed3d 5939 8d3d 8d86 d2bd 8a5c 963e
00000070: 05f0 0b3e f4e9 253d 127b 06be 6a1e b93d
00000080: c303 913e 2bb7 923e 88d5 74bf 1e76 1bbf
00000090: d617 2c3c 4ecb 023f 24dd 6c3d a74f 60bf
000000a0: 4c41 2a3d bca0 55be 0e23 1b3f b79e ed3e
000000b0: c47d 04be fc4c 873e bac9 cc3e b4a6 8b3d
000000c0: 1af0 e8be b79d efbc 803c 87bd 1845 1e3d
000000d0: e694 1d3f 3b5f 82bd 1869 7a3e 9c31 1bbf
000000e0: c8c8 e53e f3e0 da3e f357 bb3e d87c 783e
000000f0: 5c1f 2e3e ab35 94be 6b4b dbbb 3663 dfbd
00000100: fc82 8dbd d0df 173d 0199 823e 0965 fd3d
00000110: 39b7 10be 430f 59be 4af5 9a3e fded 483e
00000120: 13ce 00be c2b6 033f 79ef fdbe 9cef b1be
00000130: cac2 d33e 6b4d 55be 3ae6 223e ba68 a0be
00000140: ed8d 9f3d 8e1d 933d 3934 04bd 598d 453e
00000150: 52cd 67bc 493c 363e f131 43bf aad1 e33e
00000160: d217 1f3f f107 e13b af2b 11bf 40c5 58be
00000170: 22be b9bd 2d8b 833e 51b3 143d 901e 89bd
00000180: 497e bdbb defa 963c b2ed d83d 508e 7f3e
00000190: b75e fdbe 4dff db3d 4c1f b13e 0b46 14be
000001a0: 8079 b53e db65 2b3d d33a d6bd 187f 59bc
000001b0: 907a 343d 4570 81be a8c1 7f3e e565 563d
000001c0: 1a9f b2bc e541 dc3d f713 41be 125e 02bd
000001d0: a503 eebc ae8d 423e c98d 6c3e 9eee 44bd
000001e0: 1486 f43d 77de 323e 5431 45be 9920 64be
000001f0: 41f6 0bbd b42a 203e 5bc0 c53d 846a f83d
00000200: ca06 073d 7cd8 a73d d419 43be 8ff1 0cbf
00000210: c00d 1e3e cda3 cc3e a46d 72be 195f 2bbd
00000220: 87db 283e 2bac c2be 477f b33e 27e8 6a3e
00000230: d720 b9be 95d2 03bc 9e32 ba3e 60d7 0c3e
00000240: 127e c4bc c72b bbbd b610 7dbe 769e 8ebd
00000250: b495 a0bd 5512 97bd d911 6fbc 107b 7dbc
00000260: cae1 b93c 009f 56be 885b b13e aece aa3e
00000270: d7f3 723e 0c47 193d 3dc6 42be f5d2 8e3e
00000280: 8ffd b4bd 9be5 2abe 58f1 c93d 4697 84be
00000290: 6e6b f03d e0a3 b53e b52a 44bd 0570 ca3a
000002a0: f88b 563e ba94 1c3e 3470 103d 08cb 15be
000002b0: 3cf5 553e 8219 89bc 6ed8 6e3e f5a5 3c3e
000002c0: 38f8 00be c86f 07be 3be1 7dbe 1b42 123d
000002d0: ce0d 5a3e a4c3 a03d c60b 963e 3c33 3ebd
000002e0: 0100 e6be 54e4 42be d8bf 54bf e05c 0e3f
000002f0: 5427 963e f31a 8dbe 93e3 35be 3e05 a13e
00000300: 0827 673d 9d9f bdbd 45c7 ec3d 1351 05bf
00000310: 868c ab3d 46d2 4d3e fc34 5ebd 3480 ba3d
00000320: 610a 733e 5986 383e dab1 a53e 4426 413d
00000330: 7bf0 3ebf fd7f 08be eb58 33be 65c8 8b3d
00000340: 6489 d2bd fa04 de3d ca15 81be d389 d3bc
00000350: e4c2 8dba f0ba b93c 1bde c73d e328 7fbe
00000360: 2eaf 903e 8edd df3d 3944 29be 59be 8cba
00000370: 3b40 283e eafa 14be ff97 a8bd a5b5 763e
00000380: a3e1 cebd b49e bb3d 618b 4c3e cbca f33d
00000390: 7dd9 d1bd e938 92be 2ced f9bd 8216 09bf
000003a0: 3587 0c3e 3e1f 8f3e a157 32bf 50ff b93d
000003b0: 4736 e63d 8f75 bc3e 5bc7 69be 9415 06bf
000003c0: 76ae d03d 5018 16be 606e 66bd 2d82 19be
000003d0: 13f9 45bc d583 7b3e 9ad1 743e 032d 8e3e
000003e0: b7fc a3be b34f 0e3f cfcc 113d 69a6 9dbe
000003f0: 53c2 23bd 3c6e e23e f0cf 873e a339 0a3e

fc2.bias f4 [128]
0.3102094 0.2585551 -0.009470459 0.16566004 0.40299368 0.31833246 0.67699695 0.043405257
0.45460525 0.6090676 0.011079452 0.23883004 0.66398835 0.40703142 0.24840069 0.08351583
0.4655444 0.52849376 0.6603027 0.45077422 0.69521576 0.24663043 0.39554468 0.46359128
0.82656807 0.6261878 -0.34041417 0.62235796 -0.11989667 0.49341428 0.19872308 0.63137597
0.97583234 0.3887471 0.44090116 0.5836831 0.6520846 0.3821567 0.5511964 0.45561045
0.7040226 0.45430887 0.5024546 0.2554034 0.43242264 0.5169914 0.22026122 0.10368101
0.32057914 0.14369434 0.37534085 0.76334834 0.7739849 0.16237703 0.5472734 -0.08887681
0.6487536 0.05158815 0.48425758 0.68041617 0.12108464 0.35039258 0.25603774 0.47892946
0.2498373 0.3825233 0.08852274 0.30613536 0.17985623 0.31678623 0.44919854 0.59934103
0.50161844 0.53944814 0.31034556 0.317314 0.2579114 0.49599776 0.70061916 0.18545505
1.0007468 0.0139112845 0.5147623 0.35635585 0.35050622 0.094868526 0.379344 0.21922593
0.6848839 0.707926 0.4186535 0.5473985 0.8045736 0.5357653 0.45246428 0.30048072
0.7014719 0.66898024 0.23449168 0.15398525 0.536222 0.5351871 0.552946 0.15868932
0.7006995 0.35535035 -0.19435982 -0.021901404 -0.29037142 -0.17329937 0.3684132 0.49759942
0.6254782 0.3631304 0.049568962 0.5091667 0.36128926 0.120995864 0.25995836 0.525142
0.5520271 0.42566046 0.6618267 0.51661533 0.7878312 0.58071417 0.86151344 0.51040274
00000000: c4d3 9e3e 5661 843e fc29 1bbc c9a2 293e
00000010: 3055 ce3e 79fc a23e ac4f 2d3f b6c9 313d
00000020: 05c2 e83e dbeb 1b3f 9786 353c dd8f 743e
00000030: 24fb 293f 6c66 d03e c05c 7e3e 590a ab3d
00000040: d65b ee3e 5e4b 073f 9909 293f e1cb e63e
00000050: a9f9 313f b08c 7c3e d584 ca3e d65b ed3e
00000060: f799 533f d84d 203f c44a aebe da52 1f3f
00000070: 638c f5bd cca0 fc3e 107e 4b3e dba1 213f
00000080: 26d0 793f dc09 c73e ccbd e13e 416c 153f
00000090: 04ef 263f 0baa c33e 351b 0d3f c645 e93e
000000a0: d33a 343f 2c9b e83e dda0 003f 3cc4 823e
000000b0: 8066 dd3e 8c59 043f 288c 613e b656 d43d
000000c0: f322 a43e 9c24 133e ad2c c03e cc6a 433f
000000d0: e023 463f 2a46 263e 1c1a 0c3f 0c05 b6bd
000000e0: b714 263f 194e 533d 9cf0 f73e c12f 2e3f
000000f0: 39fb f73d a866 b33e 6117 833e 3e36 f53e
00000100: 59d5 7f3e 18da c33e 694b b53d c6bd 9c3e
00000110: 3b2c 383e ce31 a23e 5afd e53e 6a6e 193f
00000120: 116a 003f 4619 0a3f 9de5 9e3e fb76 a23e
00000130: f70c 843e 6bf3 fd3e c75b 333f eee7 3d3e
00000140: 7918 803f 28ec 633c 76c7 033f 4674 b63e
00000150: 8d75 b33e 6e4a c23d 6039 c23e c37c 603e
00000160: 8d54 2f3f a33a 353f c059 d63e 4f22 0c3f
00000170: 89f8 4d3f ea27 093f 66a9 e73e 9cd8 993e
00000180: aa93 333f 4a42 2b3f 961e 703e 4fae 1d3e
00000190: d845 093f 0602 093f de8d 0d3f 747f 223e
000001a0: 0b61 333f 7bf0 b53e 4306 47be 936a b3bc
000001b0: 90ab 94be 6475 31be a8a0 bc3e 5ac5 fe3e
000001c0: 571f 203f 3aec b93e d308 4b3d c058 023f
000001d0: e8fa b83e aecc f73d 4319 853e b56f 063f
000001e0: a651 0d3f 2bf0 d93e 7a6d 293f e740 043f
000001f0: 4eaf 493f afa9 143f 258c 5c3f c1a9 023f

fc3.weight f4 [64, 128]
0.06935853 -0.04635679 -0.5914087 -0.09494439 -0.3628943 -0.084798634 0.4148919 0.08871116
0.2605125 -0.10800363 0.011147934 -0.38818204 -0.14842232 0.02597647 0.21783473 -0.10858214
0.27034435 -0.39749107 -0.12080935 -0.12040085 0.35984504 -0.008031925 -0.048609167 0.5120808
0.7000697 0.023527099 -0.02126568 0.060732763 -0.53853685 0.08543114 -0.25514585 0.052914128
-0.35744253 0.229309 -0.3865479 0.5159957 -0.4281949 0.6229424 0.93610233 -0.22592643
0.6927339 0.042409394 -0.44370246 0.5841916 0.17715158 0.17368132 -0.20535132 0.46179703
-0.23439094 0.48090538 0.14564301 -0.1768401 0.052132446 0.63799524 0.037561316 0.03480376
0.630378 0.10615502 0.07140136 0.030449338 -0.5415227 0.0062785256 -0.40395182 -0.5673039
-0.28499994 -0.2494568 -0.1310702 0.5233288 -0.5317326 -0.49836951 0.20814094 0.35122904
-0.23271279 -0.04357736 1.0963626 0.3191325 0.7063805 0.39598683 1.4334128 -0.44314048
-0.38848284 -0.050553337 -0.4443362 0.19394588 -0.67639613 1.61679 -0.0022350529 0.6076213
0.15233888 -0.07277706 -0.013490683 -0.47340474 0.3196916 -0.32798272 -0.73699075 0.51001406
-0.21533328 0.06936789 -0.25452358 -0.50604886 -0.25151658 0.8071289 0.6180289 -0.42380705
-0.52434856 0.24423386 -0.0058030984 -0.7985175 -0.12993342 0.08275012 -0.09447453 -0.19511312
-0.09541598 -0.123277426 0.17069131 0.9921009 -0.30801022 0.053580314 0.15588586 -0.009948853
0.24233082 -0.29136252 0.5176615 0.9146525 -0.037281413 -0.3043484 0.40353966 0.23382215
-0.017023051 0.046825908 0.45409214 0.24564444 0.8260364 0.44907486 0.2736501 0.80745405
-0.026108183 -0.48219278 0.42710847 0.17299807 -0.46106336 -0.07672301 0.08245467 0.22892405
0.40014938 -0.3584 0.2971498 -0.07775483 0.4229015 -0.4892352 0.2797523 0.069105364
0.10397295 -0.07691566 0.35249996 -0.10872978 0.028460477 0.5860308 -0.5879773 -0.22823578
-0.18996046 0.47318566 0.6249051 -0.22832781 -0.24332632 0.5045737 -0.47396123 0.63271743
-0.048233163 0.11846496 0.75202984 0.026134484 0.5447669 0.31189075 0.46846968 0.27889377
-0.43911645 0.24863052 0.7050683 0.0485927 -0.17120153 -0.016635632 -0.07702402 -0.012212977
0.15957291 0.31086338 -0.33502123 -0.22384019 0.5031112 0.4896763 -0.17033494 0.43731025
-0.012582594 -0.081843026 0.121596634 -0.041945055 0.49230725 0.423634 -0.08132534 -0.0830889
-0.22692578 0.21326819 0.29676235 0.33755738 0.26002562 -0.8663593 -0.54134125 0.68562317
-0.11522842 0.038934488 -0.12841143 -0.32802185 0.28999078 0.30658212 0.17919278 0.10598126
-0.09753985 -0.7113245 0.0013532698 -0.24057718 -0.1710929 0.12228964 0.03353769 0.52035016
0.39784414 -0.14021467 -0.26134405 0.5995518 0.22818446 -0.65649706 -0.16248918 -0.015857866
1.2949162 -0.45215607 -0.32440814 0.5176973 0.1801756 -0.32273158 0.3582732 -0.15912402
0.62332433 0.32589424 0.39028248 0.18386625 -0.092865 0.0065859077 0.16540872 0.0030883213
0.5631059 -0.24744172 -0.5111515 0.056244228 -0.124478705 0.51874125 -0.6933888 0.16127123
00000000: d80b 8e3d 9ee0 3dbd 9066 17bf 3472 c2bd
00000010: 48cd b9be e8aa adbd b66c d43e 32ae b53d
00000020: e561 853e 0231 ddbd d3a5 363c ccbf c6be
00000030: 05fc 17be 9bcc d43c 1110 5f3e 5060 debd
00000040: 936a 8a3e f383 cbbe e46a f7bd b994 f6bd
00000050: 9c3d b83e 5698 03bc 681a 47bd ba17 033f
00000060: c537 333f e7bb c03c 5d35 aebc ebc2 783d
00000070: 8ddd 09bf 86f6 ae3d 7aa2 82be 7cbc 583d
00000080: b502 b7be facf 6a3e 9be9 c5be 4b18 043f
00000090: 5d3c dbbe 2779 1f3f 67a4 6f3f 4259 67be
000000a0: 0257 313f 79b5 2d3d f82c e3be 958d 153f
000000b0: 3967 353e 84d9 313e 9e47 52be a970 ec3e
000000c0: 2e04 70be 3b39 f63e 7123 153e 9215 35be
000000d0: d588 553d a853 233f e5d9 193d 638e 0e3d
000000e0: 7460 213f ce67 d93d e03a 923d e470 f93c
000000f0: 3ba1 0abf 17bc cd3b c6d2 cebe d43a 11bf
00000100: 83eb 91be 9a71 7fbe 4437 06be e0f8 053f
00000110: a11f 08bf 4a2a ffbe e622 553e 4bd4 b33e
00000120: 434c 6ebe 2d7e 32bd 9c55 8c3f 5665 a33e
00000130: 5ad5 343f c9be ca3e 127a b73f 4fe3 e2be
00000140: 39e7 c6be 0411 4fbd 0980 e3be c099 463e
00000150: 4c28 2dbf faf2 ce3f f779 12bb 128d 1b3f
00000160: b9fe 1b3e 240c 95bd 0708 5dbc 1b62 f2be
00000170: 9eae a33e 5aed a7be 6dab 3cbf 4890 023f
00000180: 5480 5cbe c110 8e3d ea50 82be 6b8c 01bf
00000190: c8c6 80be 00a0 4e3f 2437 1e3f 3dfd d8be
000001a0: b53b 06bf 7118 7a3e eb27 bebb a56b 4cbf
000001b0: 440d 05be e578 a93d dd7b c1bd bccb 47be
000001c0: 7469 c3bd e078 fcbd b4c9 2e3e 53fa 7d3f
000001d0: 84b3 9dbe 0877 5b3d 8ba0 1f3e 8400 23bc
000001e0: 9225 783e 782d 95be 7785 043f ab26 6a3f
000001f0: 65b4 18bd 8ed3 9bbe c09c ce3e 136f 6f3e
00000200: ed73 8bbc 86cc 3f3d c47e e83e 378a 7b3e
00000210: 1f77 533f 24ed e53e de1b 8c3e 4fb5 4e3f
00000220: d4e0 d5bc f9e1 f6be f6ad da3e 6826 313e
00000230: 7f10 ecbe f420 9dbd fedd a83d 116b 6a3e
00000240: 61e0 cc3e 3480 b7be 0524 983e ed3d 9fbd
00000250: 8c86 d83e 097d fabe b23b 8f3e 1d87 8d3d
00000260: c5ef d43d f585 9dbd e07a b43e b8ad debd
00000270: f225 e93c 1d06 163f ae85 16bf a4b6 69be
00000280: ff84 42be 6445 f23e c8f9 1f3f c4ce 69be
00000290: 892a 79be be2b 013f 0cab f2be c5f9 213f
000002a0: 2390 45bd c29d f23d 0785 403f fc17 d63c
000002b0: d875 0b3f 25b0 9f3e 42db ef3e 2acb 8e3e
000002c0: dfd3 e0be 0099 7e3e 5b7f 343f 2409 473d
000002d0: 744f 2fbe 7347 88bc c5be 9dbd f018 48bc
000002e0: 1567 233e 7c29 9f3e e787 abbe 5d36 65be
000002f0: e5cb 003f dab6 fa3e 486c 2ebe 21e7 df3e
00000300: 3927 4ebc 519d a7bd a807 f93d 94ce 2bbd
00000310: b20f fc3e 8ee6 d83e e68d a6bd 832a aabd
00000320: 3b5f 68be fa62 5a3e 3cf1 973e 52d4 ac3e
00000330: 1422 853e b9c9 5dbf 5795 0abf 0085 2f3f
00000340: e1fc ebbd c579 1f3d 497e 03be 7bf2 a7be
00000350: ac79 943e 55f8 9c3e 507e 373e b40c d93d
00000360: f9c2 c7bd 5d19 36bf 3360 b13a dd59 76be
00000370: fa32 2fbe fe72 fa3d d15e 093d ab35 053f
00000380: 3ab2 cb3e 6f94 0fbe e3ce 85be 3a7c 193f
00000390: 30a9 693e 3110 28bf 9063 26be 5be8 81bc
000003a0: d0bf a53f 0081 e7be d318 a6be cf87 043f
000003b0: f47f 383e 133d a5be 966f b73e 68f1 22be
000003c0: 2f92 1f3f 9cdb a63e 1bd3 c73e 6f47 3c3e
000003d0: 0130 bebd 99ce d73b e760 293e 6f65 4a3b
000003e0: b527 103f 5d61 7dbe d3da 02bf 5960 663d
000003f0: b1ee febd 3acc 043f ee81 31bf 4924 253e

fc3.bias f4 [64]
0.34430972 -0.18316996 -0.035929907 0.07607868 0.6545578 0.056819234 0.033082865 0.24189615
0.18316928 -0.06720049 -0.08288679 0.2389104 0.4815888 0.07618409 0.31192985 0.06406122
0.9716574 0.06538499 0.28536645 0.16411732 1.1317297 0.50447726 -0.16524842 0.10808963
0.16779333 -0.061350267 -0.033545114 0.5130671 0.7306219 0.14132659 0.3353635 0.5975898
0.13811873 -0.08451279 0.039786775 -0.07416151 1.20216 -0.07229124 0.03338061 0.10864723
-0.02653392 0.07611151 -0.023594754 0.30704117 -0.02161034 -0.18792191 0.028959172 -0.037047755
0.16264191 0.28516778 -0.16163003 -0.31396505 0.057060976 0.08210476 0.18084814 1.1125511
0.0006014092 -0.0541264 0.27637252 0.00953417 0.13502786 0.05938872 0.6004909 0.32899156
00000000: 5d49 b03e e890 3bbe 3d2b 13bd 24cf 9b3d
00000010: 1a91 273f 49bb 683d e681 073d a0b3 773e
00000020: ba90 3b3e 69a0 89bd 8dc0 a9bd eea4 743e
00000030: cf92 f63e 6706 9c3d 45b5 9f3e 8732 833d
00000040: 8abe 783f 91e8 853d 8d1b 923e 5f0e 283e
00000050: 85dc 903f 6c25 013f e236 29be 195e dd3d
00000060: 04d2 2b3e 6b4a 7bbd 9a66 09bd 5e58 033f
00000070: 090a 3b3f ebb7 103e c4b4 ab3e a5fb 183f
00000080: ff6e 0d3e 0b15 adbd 75f7 223d fde1 97bd
00000090: 61e0 993f 6e0d 94bd 1bba 083d 7082 de3d
000000a0: aa5d d9bc 5ae0 9b3d c949 c1bc 8034 9d3e
000000b0: 2b08 b1bc 9a6e 40be c93b ed3c 63bf 17bd
000000c0: 9a8b 263e 8301 923e 5882 25be 07c0 a0be
000000d0: c5b8 693d 8a26 a83d 4130 393e 1368 8e3f
000000e0: e3a7 1d3a a5b3 5dbd b380 8d3e 3535 1c3c
000000f0: be44 0a3e 9641 733d c6b9 193f 9571 a83e

fc4.weight f4 [30, 64]
0.036520444 -0.0201476 -0.06865106 -0.02425523 -0.25199845 -0.14882676 -0.09333013 0.01776415
0.0741206 0.039183844 0.22622013 0.01699064 0.86138123 -0.21213025 -0.051681083 0.099721484
0.2825178 -0.30425042 -0.4305959 0.062239762 0.4203168 -0.065873556 0.04472755 0.0017887406
-0.07071652 -0.0748808 0.23415102 -0.018294318 0.45284745 0.17640357 -0.14748305 0.0056326254
-0.028215205 0.04402557 0.03413778 -0.15867959 0.8619248 -0.0139119215 0.071552664 0.05283861
0.13876079 -0.016678685 -0.0005910807 -0.6614956 -0.08916092 -0.65542763 0.044585887 -0.06530635
-0.054167 0.0001813879 0.003935236 0.012090287 0.014294629 -0.015274384 0.0002758285 0.48284212
0.3304321 0.20386648 0.011358839 -0.35708502 -0.034513954 -0.23757379 0.454418 -0.07190771
0.03075983 -0.027825389 0.107600585 0.039793566 -0.17350537 -0.1144213 -0.062007498 0.011555273
0.037576064 0.038157795 0.16481157 0.024785265 0.59297895 -0.14801803 -0.035263717 0.0707093
0.1931953 -0.19948733 -0.30747688 0.04892341 0.27600282 -0.042599224 0.03851484 0.0043174736
-0.05130831 -0.050484892 0.15980333 -0.012130579 0.32283738 0.09854145 -0.10483065 0.0033710548
-0.025694866 0.044552956 -0.035966437 -0.116721295 0.58533496 -0.053491656 0.059019037 0.031971533
0.085756876 -0.009627183 0.0015100024 -0.46106303 -0.041385937 -0.4655552 -0.112970866 -0.06136395
-0.03581946 0.00013995181 0.0006729001 0.009125649 0.018188633 -0.009949196 -0.00061459036 0.31725493
0.25740725 0.1355605 0.016655894 -0.24773706 -0.021312634 -0.16146165 0.30196705 -0.040582567
0.020895513 -0.03728457 0.039210394 0.019291304 -0.14552358 -0.08708557 -0.05286685 0.009351406
0.0222209 0.03110285 0.121091254 0.012161216 0.48554903 -0.12388712 -0.027569838 0.056694116
0.15786731 -0.16310723 -0.23783922 0.039866116 0.21519527 -0.03292981 0.045398936 0.005676071
-0.037528377 -0.03976615 0.112120114 -0.009279454 0.27374533 0.090656444 -0.09132718 0.0018774037
-0.02687852 0.043451786 -0.061542705 -0.08687879 0.4728373 0.10679066 0.0533618 0.022798153
0.0656185 -0.0060655344 0.10524252 -0.3852353 -0.083540134 -0.40678024 0.11122517 -0.07358605
-0.026392106 0.00028850898 0.00051275844 0.00730537 0.015262408 -0.008594958 -0.0014251643 0.256871
0.22578435 0.12239309 0.01867901 -0.18940443 -0.013495973 -0.13445248 0.24178731 -0.03202978
-0.0041962005 -0.116635874 -0.030015964 -0.057183642 -0.3708178 -0.40229508 -0.15648033 -0.023800688
-0.064496994 0.060127243 0.07446817 -0.1753082 0.36535326 0.22279777 0.28694892 -0.15593068
0.029009247 -0.039839562 -0.7493216 0.05655565 0.3051627 -0.017631192 0.17779675 0.01636755
0.26255682 0.042775158 0.49701923 0.0014883848 0.16230197 -0.11636603 0.028608762 -0.030842775
0.06094906 -0.089038536 -0.018926535 -0.024809983 0.5961262 -0.10716985 -0.11232282 0.03471931
-0.2822827 -0.06272063 -0.002587807 -0.4069593 -0.112617135 0.100074045 0.054696877 -0.020143595
-0.026640778 0.041136935 -0.0014307385 -0.033045404 -0.12513317 0.09174657 0.016982723 0.73543656
-0.32022497 -0.23379308 0.75365543 -0.29218432 -0.012333463 0.45325828 0.13497725 0.18385866
00000000: 7696 153d 940c a5bc ed98 8cbd e7b2 c6bc
00000010: f105 81be 0b66 18be de23 bfbd 1f86 913c
00000020: 8bcc 973d 3d7f 203d 40a6 673e f42f 8b3c
00000030: 7b83 5c3f ac38 59be 8baf 53bd c73a cc3d
00000040: 2ca6 903e b6c6 9bbe 1177 dcbe 1fef 7e3d
00000050: c333 d73e b7e8 86bd 3c34 373d 2d74 ea3a
00000060: d3d3 90bd 1b5b 99bd 49c5 6f3e f7dd 95bc
00000070: 9fdb e73e 23a3 343e cc05 17be e391 b83b
00000080: 9323 e7bc 2854 343d 0fd4 0b3d e77c 22be
00000090: 1ba7 5c3f d4ee 63bc 348a 923d 4c6d 583d
000000a0: 4f17 0e3e bda1 88bc c1f2 1aba c757 29bf
000000b0: 009a b6bd 1bca 27bf b19f 363d 56bf 85bd
000000c0: 37de 5dbd f232 3e39 27f3 803b 5716 463c
000000d0: 0534 6a3c 6941 7abc 139d 9039 1537 f73e
000000e0: 652e a93e 60c2 503e 6d1a 3a3c d9d3 b6be
000000f0: 815e 0dbd 8b46 73be 7aa9 e83e 5944 93bd
00000100: 0afc fb3c 12f2 e3bc b25d dc3d 94fe 223d
00000110: 64ab 31be b755 eabd 93fb 7dbd 5452 3d3c
00000120: 5ce9 193d 594b 1c3d 5dc4 283e 780a cb3c
00000130: 78cd 173f 0a92 17be b070 10bd 0ad0 903d
00000140: fdd4 453e 6846 4cbe 9c6d 9dbe ea63 483d
00000150: 3e50 8d3e 867c 2ebd bdc1 1d3d 9879 8d3b
00000160: aa28 52bd 3fc9 4ebd 7ca3 233e 56bf 46bc
00000170: f14a a53e 1ad0 c93d 74b1 d6bd eaec 5c3b
00000180: 0a7e d2bc 297d 363d 8b51 13bd 930b efbd
00000190: 83d8 153f 111a 5bbd f2bd 713d 95f4 023d
000001a0: 4da1 af3d 55bb 1dbc 46eb c53a 7410 ecbe
000001b0: 4d84 29bd 405d eebe 455d e7bd c458 7bbd
000001c0: 6db7 12bd 07c0 1239 9065 303a bf83 153c
000001d0: 5400 953c f401 23bc 761c 21ba 3d6f a23e
000001e0: e2ca 833e 5fd0 0a3e f171 883c c9ae 7dbe
000001f0: d597 aebc 3456 25be 6d9b 9a3e e839 26bd
00000200: 112d ab3c b5b7 18bd 149b 203d cc08 9e3c
00000210: 2204 15be eb59 b2bd e98a 58bd a436 193c
00000220: 9b08 b63c 67cb fe3c b1fe f73d d63f 473c
00000230: e299 f83e 88b8 fdbd 24da e1bc 1738 683d
00000240: f8a7 213e 9505 27be 208c 73be a74a 233d
00000250: 265c 5c3e 69e1 06bd 3cf4 393d 56fe b93b
00000260: 5bb7 19bd d5e1 22bd 3b9f e53d da08 18bc
00000270: 5928 8c3e 16aa b93d bf09 bbbd 3713 f63a
00000280: 5830 dcbc 80fa 313d 3414 7cbd 82ed b1bd
00000290: bb17 f23e 10b5 da3d e791 5a3d 31c3 ba3c
000002a0: fe62 863d 64c1 c6bb 6489 d73d 903d c5be
000002b0: 1717 abbd 8045 d0be 06ca e33d 48b4 96bd
000002c0: 4234 d8bc 0543 9739 a36a 063a e361 ef3b
000002d0: 2e0f 7a3c ded1 0cbc 94cc baba 9984 833e
000002e0: 0334 673e 3aa9 fa3d b904 993c 3cf3 41be
000002f0: 371e 5dbc e9ad 09be 1897 773e a931 03bd
00000300: 4880 89bb cade eebd 0ae4 f5bc 6539 6abd
00000310: d5db bdbe 9ff9 cdbe 613c 20be a9f9 c2bc
00000320: 0017 84bd fc47 763d c582 983d fe83 33be
00000330: 950f bb3e 1925 643e f8ea 923e 4bac 1fbe
00000340: cda4 ed3c cf2e 23bd 8ad3 3fbf e6a6 673d
00000350: 493e 9c3e 4a6f 90bc 5a10 363e 3d15 863c
00000360: d96d 863e 0135 2f3d 4e79 fe3e e815 c33a
00000370: 7d32 263e 5051 eebd ec5c ea3c fda9 fcbc
00000380: b9a5 793d d659 b6bd d20b 9bbc 4e3e cbbc
00000390: ba9b 183f de7b dbbd 8209 e6bd d635 0e3d
000003a0: 5c87 90be ac73 80bd 3298 29bb f85c d0be
000003b0: d0a3 e6bd 9ff3 cc3d d509 603d 2e04 a5bc
000003c0: c33d dabc 347f 283d 9e87 bbba 9e5a 07bd
000003d0: e922 00be a0e5 bb3d 5a1f 8b3c 9245 3c3f
000003e0: 87f4 a3be 7467 6fbe 90ef 403f 2f99 95be
000003f0: 4b12 4abc 7811 e83e 7a37 0a3e 7245 3c3e

fc4.bias f4 [30]
5.277381 5.005643 4.7693634 2.11117 1.5253301 1.8064997 1.5815037 1.9833812
1.2534924 -0.11197093 0.29302529 -0.61065334 -0.47566265 0.06328975 -0.59621763 -0.4175254
-0.13771157 -0.35272065 -0.34485796 0.21683851 -0.0505739 -0.40081212 0.11287756 0.12525748
-0.68679804 -0.10188914 -0.04112554 -0.50499946 -0.047917128 0.006706004
00000000: 4ee0 a840 3a2e a040 a09e 9840 691d 0740
00000010: 043e c33f 623b e73f b76e ca3f 6fdf fd3f
00000020: 7072 a03f 0451 e5bd 6907 963e c753 1cbf
00000030: 0e8a f3be 0e9e 813d b8a1 18bf e4c5 d5be
00000040: 4304 0dbe cd97 b4be 3991 b0be ea0a 5e3e
00000050: 9426 4fbd 3f37 cdbe 5a2c e73d 7f43 003e
00000060: ffd1 2fbf 41ab d0bd 4173 28bd a547 01bf
00000070: c044 44bd 0abe db3b

fc1.weight f4 [32, 7]
0.2864502 -0.50647163 -0.26092136 -0.46209177 -0.021528367 0.5179081 -0.0080478955 -0.5084167
-0.2495479 0.45600218 0.05443704 0.0056170677 0.0010915555 0.004084108 -0.880964 1.2506932
-0.062421143 0.544966 0.008658014 -0.003275485 -0.00017338985 -0.5492228 0.805877 0.38724014
-0.8171113 -0.004103211 0.03461192 -4.1946838e-05 0.030744024 -0.026153741 0.021497503 0.21900111
0.8942952 0.85152537 -0.033108134 -0.0017586736 -0.20335786 0.009191735 0.17291738 0.119508274
-0.17147171 0.005124074 0.745393 -0.86124575 -0.09931757 -0.70922315 -0.021676738 0.0059590647
0.0003802631 -1.2538719 0.13981259 0.3652244 0.519981 0.029489916 0.041902278 -0.0030586955
-0.11305569 0.5595119 -0.07859481 -0.412269 0.08094894 -0.2820892 -0.007479532 -0.61090565
0.046829313 -0.68656254 0.46541432 -0.016117716 0.023197142 -0.0034597712 0.27942997 -0.33921665
0.26391336 0.29284644 0.023950547 -0.031882685 -0.002016745 1.1246992 1.1274145 0.13084856
0.282665 0.025387537 -0.002773808 -0.0015773887 -0.9630313 -0.34191263 -1.1915188 -0.34015584
-0.007412109 0.007827793 0.0009442665 1.1103184 0.373344 1.0600768 -0.37952012 -0.016527364
0.0076161055 0.0058732103 -0.5089242 -0.5859759 -0.060662836 0.3070601 0.0046723904 -0.01603251
-0.0014176278 0.5228198 0.51161647 0.074779406 0.23998407 -0.0052295905 0.003499933 0.0023583083
-0.13007423 -1.017144 0.16996554 -1.043193 0.052050337 0.06234813 -0.008966783 -0.06255367
-0.35440105 1.5763272 -0.24924079 0.03896884 0.013029915 -0.0005150693 -0.41963452 -0.42657396
-0.5014853 -0.17842692 0.01833195 0.00235303 0.0002474706 0.6971213 -0.2960879 0.70364535
0.116013035 0.02172488 0.0010431515 -0.0039873226 0.69830775 0.9315341 -0.5231558 0.4025153
0.0015810205 -0.0187453 -0.0019305398 -0.035298094 0.3075283 0.012062161 -0.5205049 0.5174492
0.42179495 -0.010742986 0.786231 0.9044164 -0.07863481 0.8140799 0.015718667 -0.020145642
0.000854009 0.80691963 -0.39435095 0.8890054 0.5235479 0.0066456366 0.009981127 -0.00014922641
-0.021450141 -0.0056286557 0.475743 0.93531317 -0.013089447 0.050315823 0.0029255573 -0.9742322
-0.9402792 0.07951535 0.48339528 0.015191422 0.004806508 -0.0028549454 -0.7226035 -0.18672973
-0.72921103 0.21120612 -0.0052418117 -0.0042006564 0.001169294 0.5589065 0.2098516 0.64693594
0.33092967 0.0043204767 0.014253091 0.00084386364 -0.20400669 -0.10010042 0.3254951 0.24149019
-0.17494033 0.30460116 -0.012560413 1.5246495 -1.1052188 -0.13629426 0.36871234 0.015742023
-0.00822776 -0.0030140467 0.7850973 0.8746722 0.0098403385 -0.5291108 -0.014045731 0.087015554
-0.0074376035 0.027042484 0.5291946 0.12955295 -0.25198215 -0.31794715 0.18117684 0.0065174573
00000000: 9aa9 923e 20a8 01bf 7c97 85be 4b97 ecbe
00000010: 425c b0bc a095 043f 52db 03bc 9927 02bf
00000020: 7c89 7fbe 1e79 e93e 60f9 5e3d 610f b83b
00000030: 8612 8f3a fbd3 853b db86 61bf b716 a03f
00000040: 50ad 7fbd e482 0b3f 58da 0d3c 85a9 56bb
00000050: fccf 35b9 de99 0cbf f44d 4e3f 5744 c63e
00000060: 352e 51bf 3b74 86bb 3bc5 0d3d 13f0 2fb8
00000070: e4da fb3c 5f40 d6bc 881b b03c d441 603e
00000080: 88f0 643f 91fd 593f 659c 07bd 4b83 e6ba
00000090: 0b3d 50be ee98 163c 4111 313e c1c0 f43d
000000a0: 4896 2fbe d9e7 a73b 13d2 3e3f 9a7a 5cbf
000000b0: 0367 cbbd a68f 35bf 6a93 b1bc 4244 c33b
000000c0: 0d5e c739 e07e a0bf 082b 0f3e b1fe ba3e
000000d0: 7a1d 053f d694 f13c b9a1 2b3d 6574 48bb
000000e0: be89 e7bd 2c3c 0f3f 51f6 a0bd ec14 d3be
000000f0: 8fc8 a53d ff6d 90be dd16 f5bb 5064 1cbf
00000100: 18d0 3f3d 90c2 2fbf c94a ee3e 4d09 84bc
00000110: ef07 be3c 54bd 62bb 7211 8f3e cead adbe
00000120: a71f 873e f8ef 953e f033 c43c 6b97 02bd
00000130: 5e2b 04bb 25f6 8f3f 1e4f 903f 2afd 053e
00000140: 78b9 903e 86f9 cf3c c7c8 35bb 62c0 ceba
00000150: 3889 76bf 2c0f afbe b083 98bf e828 aebe
00000160: 47e1 f2bb 2540 003c a788 773a ea1e 8e3f
00000170: f226 bf3e 99b0 873f 7650 c2be 6564 87bc
00000180: 8690 f93b 0f74 c03b db48 02bf 8402 16bf
00000190: 9879 78bd fb36 9d3e da1a 993b 9c56 83bc
000001a0: b2cf b9ba 85d7 053f 4cf9 023f f225 993d
000001b0: 62be 753e fc5c abbb 225f 653b d98d 1a3b
000001c0: 2e32 05be c631 82bf 720b 2e3e 5987 85bf
000001d0: bc32 553d c160 7f3d 6ae9 12bc 231c 80bd
000001e0: 0e74 b5be 17c5 c93f fa38 7fbe ca9d 1f3d
000001f0: 6d7b 553c b705 07ba 56da d6be e767 dabe
00000200: 5761 00bf 8cb5 36be e32c 963c 4b35 1a3b
00000210: f1be 8139 8b76 323f d598 97be 1a22 343f
00000220: 3e98 ed3d 60f8 b13c 5bba 883a 16a8 82bb
00000230: 4cc4 323f 0579 6e3f 8aed 05bf 7c16 ce3e
00000240: 3f3a cf3a be8f 99bc 2b0a fdba bc94 10bd
00000250: 5974 9d3e 5fa0 453c cf3f 05bf 8d77 043f
00000260: 82f5 d73e 5903 30bc 6f46 493f d587 673f
00000270: 4a0b a1bd 8a67 503f 6fc4 803c 7908 a5bc
00000280: 93df 5f3a 4992 4e3f 5ee8 c9be dc95 633f
00000290: 3c07 063f a4c3 d93b e287 233c a979 1cb9
000002a0: 35b8 afbc 9670 b8bb 9694 f33e af70 6f3f
000002b0: 1f75 56bc f717 4e3d b5ba 3f3b 4867 79bf
000002c0: 23b6 70bf f2d8 a23d 967f f73e 71e5 783c
000002d0: e97f 9d3b 091a 3bbb 8bfc 38bf 1436 3fbe
000002e0: 93ad 3abf 6b46 583e 81c3 abbb a9a5 89bb
000002f0: ff42 993a 7f14 0f3f 56e3 563e 989d 253f
00000300: 9d6f a93e c992 8d3b cc85 693c bb36 5d3a
00000310: 21e7 50be 7301 cdbd 4ba7 a63e 3449 773e
00000320: 8f23 33be aff4 9b3e 31ca 4dbc b727 c33f
00000330: cf77 8dbf b990 0bbe ddc7 bc3e 6af5 803c
00000340: bacd 06bc 5087 45bb 23fc 483f 84ea 5f3f
00000350: 5f39 213c ce73 07bf 1120 66bc 3635 b23d
00000360: 24b7 f3bb 3388 dd3c 4c79 073f 87a9 043e
00000370: ce03 81be f8c9 a2be 6c86 393e 6590 d53b

fc1.bias f4 [32]
1.2016134 0.9397505 0.50160265 0.30643362 -0.14244516 1.7077714 0.8705984 -0.2025606
1.8717436 0.8563057 1.3592147 -0.106387556 -0.25435755 0.051369444 0.89878297 0.9773434
0.07487632 -0.22907385 0.7223251 0.61337554 -0.6284729 1.104469 0.030019563 -0.07402758
1.4584913 0.16583182 -0.6636725 0.7142083 1.2792015 -0.81175375 0.30196378 1.4220418
00000000: 78ce 993f 7d93 703f 0869 003f dee4 9c3e
00000010: 25dd 11be 4198 da3f 89df 5e3f 0c6c 4fbe
00000020: 4b95 ef3f da36 5b3f bffa ad3f b8e1 d9bd
00000030: 273b 82be c468 523d a416 663f 2d33 7a3f
00000040: c258 993d 5692 6abe 4cea 383f 2e06 1d3f
00000050: 9ae3 20bf 3d5f 8d3f 96eb f53c c69b 97bd
00000060: d8af ba3f d1cf 293e 71e6 29bf 5bd6 363f
00000070: e0bc a33f 18cf 4fbf ff9a 9a3e 7705 b63f

fc2.weight f4 [128, 32]
0.030829323 0.29400963 -0.06729285 0.21039854 0.15244496 -0.023996813 0.1941495 0.0136914
0.33936927 0.2652549 0.3131428 0.49413154 0.14609908 0.39394557 0.32242313 0.18301602
0.139796 0.24702063 0.38464823 0.07697257 -0.13514943 0.20972827 0.24721721 0.09242866
0.11566674 0.06916029 -0.102911785 0.29332423 0.13669161 0.041070245 -0.13134977 0.09025542
0.28290778 0.28630978 -0.9564373 -0.6072193 0.010473357 0.5108928 0.058086637 -0.87480175
0.04147638 -0.20809977 0.6059719 0.46330124 -0.1291901 0.26371485 0.39939585 0.06804922
-0.4546855 -0.02886706 -0.06592233 0.038623974 0.61452657 -0.06361108 0.24596518 -0.60537714
0.44826815 0.42714307 0.36556062 0.24304071 0.17014267 -0.28912103 -0.007156159 -0.109124415
-0.06911062 0.036953565 0.25490355 0.12330782 -0.14146258 -0.21191931 0.30212963 0.19567731
-0.12542498 0.513844 -0.49660045 -0.3469029 0.41352552 -0.20743862 0.15858313 -0.31350905
0.07789325 0.07110907 -0.032229092 0.19290292 -0.013750724 0.1782249 -0.761176 0.4436184
0.62112576 0.006860138 -0.5658015 -0.2109753 -0.09035573 0.25654462 0.036778 -0.06691868
-0.005760802 0.018166665 0.10568818 0.2496485 -0.49453542 0.10717976 0.34591365 -0.14469822
0.35446373 0.042236507 -0.10506807 -0.013323502 0.04427179 -0.25253707 0.2492923 0.05244634
-0.021786261 0.10735897 -0.18855405 -0.03200395 -0.029404735 0.18998368 0.23058791 -0.04886433
0.11899691 0.17470795 -0.19260436 -0.2224723 -0.033732865 0.15614045 0.096839525 0.12165035
0.032777384 0.08254321 -0.19075027 -0.5508038 0.15429421 0.39954692 -0.23647717 -0.042534146
0.16493765 -0.37943715 0.35043257 0.22912475 -0.36116162 -0.0077897673 0.36281332 0.13763699
-0.024425142 -0.09127109 -0.24714287 -0.069611296 -0.07767763 -0.07372396 -0.014342384 -0.01569374
0.022971371 -0.20945713 0.34479028 0.33359438 0.23730455 0.037355457 -0.19033843 0.2789307
-0.08831848 -0.16660959 0.09868053 -0.2586078 0.117544964 0.3547755 -0.0478695 0.00097265723
0.20929627 0.15307635 0.035867024 -0.14584258 0.20912734 -0.016555192 0.2334774 0.18399659
-0.12604399 -0.13187456 -0.2477682 0.035467893 0.21270345 0.07829961 0.29289934 -0.046648268
-0.4489661 -0.19047967 -0.83109236 0.55559504 0.2929968 -0.2750146 -0.1780974 0.31429422
0.05617008 -0.092341796 0.11539427 -0.52078736 0.08360842 0.20090923 -0.05453204 0.09114956
0.23738274 0.18005574 0.32316074 0.04710687 -0.7452363 -0.13319203 -0.17490631 0.06833524
-0.10291797 0.108153105 -0.2519896 -0.025477571 -0.0013463153 0.022641499 0.09772592 -0.24905089
0.2831661 0.10879692 -0.16532472 -0.001080502 0.16425422 -0.14529568 -0.08245518 0.24082068
-0.10117469 0.09138035 0.19934015 0.119086236 -0.10239502 -0.2854797 -0.12189813 -0.53501576
0.13707328 0.27931693 -0.6963119 0.09196653 0.112687826 0.3679558 -0.22772367 -0.52356696
0.101225995 -0.14622124 -0.055576183 -0.15038367 -0.012651074 0.24521077 0.23906173 0.27697745
-0.3210951 0.5561374 0.03546366 -0.30795678 -0.03995542 0.442491 0.26540422 0.13494824
00000000: c78d fc3c 6e88 963e d5d0 89bd b772 573e
00000010: 881a 1c3e f794 c4bc 20cf 463e e551 603c
00000020: cfc1 ad3e 7ecf 873e 4154 a03e cffe fc3e
00000030: ff9a 153e 3cb3 c93e a514 a53e 8d68 3b3e
00000040: af26 0f3e faf2 7c3e 9df0 c43e cba3 9d3d
00000050: 9d64 0abe 02c3 563e 8226 7d3e 3d4b bd3d
00000060: afe2 ec3d e9a3 8d3d 6ac3 d2bd 982e 963e
00000070: e3f8 0b3e 4639 283d 8e80 06be d5d7 b83d
00000080: 4ad9 903e 3297 923e 13d9 74bf b972 1bbf
00000090: 7198 2b3c dfc9 023f 41ec 6d3d 02f3 5fbf
000000a0: 23e3 293d 1b18 55be f920 1b3f d235 ed3e
000000b0: 694a 04be a205 873e 9d7d cc3e 645d 8b3d
000000c0: 8acc e8be 9d7a ecbc 4902 87bd 2c34 1e3d
000000d0: 9d51 1d3f 8746 82bd 4cde 7b3e fff9 1abf
000000e0: 6783 e53e 7fb2 da3e c32a bb3e aadf 783e
000000f0: e139 2e3e ac07 94be 367e eabb 9f7c dfbd
00000100: de89 8dbd 9f5c 173d b882 823e cf88 fc3d
00000110: 91db 10be 6001 59be bcb0 9a3e a25f 483e
00000120: 686f 00be 488b 033f 6a42 febe 429d b1be
00000130: 9eb9 d33e ca6a 54be 9e63 223e 4284 a0be
00000140: 7f86 9f3d a2a1 913d a702 04bd 5888 453e
00000150: b74a 61bc 9780 363e 6edc 42bf f321 e33e
00000160: 1902 1f3f 02cb e03b 5ed8 10bf e909 58be
00000170: 6d0c b9bd d159 833e 87a4 163d a90c 89bd
00000180: 1cc5 bcbb 42d2 943c 0b73 d83d dba3 7f3e
00000190: bf33 fdbe 1081 db3d 981b b13e c52b 14be
000001a0: 457c b53e 3000 2d3d ee2d d7bd d14a 5abc
000001b0: 5656 353d 8a4c 81be 7b46 7f3e f9d1 563d
000001c0: 1a79 b2bc 05df db3d 5014 41be 9316 03bd
000001d0: 33e2 f0bc 158b 423e 3d1f 6c3e f725 48bd
000001e0: a7b4 f33d a4e6 323e 143a 45be c7cf 63be
000001f0: 792b 0abd 48e3 1f3e cd53 c63d d223 f93d
00000200: 9441 063d 6a0c a93d 0a54 43be 7a01 0dbf
00000210: 4dff 1d3e 6a91 cc3e 1227 72be 4938 2ebd
00000220: 6ae5 283e 9645 c2be e66b b33e ae9f 6a3e
00000230: 2dea b8be 4e41 ffbb abc2 b93e b6f0 0c3e
00000240: 3c17 c8bc 56ec babd 0513 7dbe 5e90 8ebd
00000250: 7315 9fbd 96fc 96bd 52fc 6abc 2990 80bc
00000260: 752e bc3c ee7b 56be 5a88 b03e e2cc aa3e
00000270: f7ff 723e 0902 193d 14e8 42be 01d0 8e3e
00000280: 52e0 b4bd b49b 2abe 0519 ca3d 3e68 84be
00000290: 6abb f03d 22a5 b53e cf12 44bd ecf9 7e3a
000002a0: c351 563e 0cc0 1c3e 4de9 123d c257 15be
000002b0: 7a25 563e c19e 87bc b314 6f3e 9a69 3c3e
000002c0: ad11 01be 200a 07be f2b6 7dbe c846 113d
000002d0: efce 593e 8c5b a03d e7f6 953e 4112 3fbd
000002e0: e2de e5be 1a0d 43be 78c2 54bf 7a3b 0e3f
000002f0: ad03 963e b7ce 8cbe 2a5f 36be 2ceb a03e
00000300: 9912 663d b21d bdbd d553 ec3d 5252 05bf
00000310: e43a ab3d 26bb 4d3e fd5c 5fbd 9fac ba3d
00000320: 7614 733e 8860 383e 5375 a53e 22f3 403d
00000330: cec7 3ebf 7e63 08be a41a 33be 59f3 8b3d
00000340: a8c6 d2bd 607f dd3d c804 81be 57b6 d0bc
00000350: d876 b0ba aa7a b93c 8724 c83d 3207 7fbe
00000360: 26fb 903e ebd0 de3d e24a 29be a29f 8dba
00000370: 4232 283e 64c8 14be 43de a8bd b299 763e
00000380: ad34 cfbd 9f25 bb3d d31f 4c3e 7ce3 f33d
00000390: 7bb4 d1bd 652a 92be baa5 f9bd cbf6 08bf
000003a0: f05c 0c3e a102 8f3e 7f41 32bf f358 bc3d
000003b0: e0c8 e63d b464 bc3e 6530 69be 7c08 06bf
000003c0: 934f cf3d 05bb 15be daa3 63bd 2dfe 19be
000003d0: 7346 4fbc 8818 7b3e 99cc 743e fdcf 8d3e
000003e0: 9466 a4be 055f 0e3f 5842 113d 83ac 9dbe
000003f0: 4ba8 23bd 2e8e e23e 10e3 873e df2f 0a3e

fc2.bias f4 [128]
0.3100871 0.2584261 -0.009470844 0.16565695 0.40289488 0.31821686 0.6768999 0.043328524
0.45443735 0.60905844 0.011424899 0.23863392 0.6639258 0.4069525 0.24852347 0.083471626
0.46546108 0.52864397 0.66005456 0.45067894 0.6951735 0.24662052 0.39549235 0.4633468
0.826172 0.6260248 -0.34024224 0.62211144 -0.119876444 0.49322018 0.19853464 0.6308718
0.9757489 0.38864592 0.4407565 0.5836938 0.65193504 0.3821681 0.5513639 0.45550394
0.70372975 0.45423788 0.50236076 0.25520837 0.43231443 0.5168029 0.2202421 0.10369066
0.3204801 0.14373755 0.3751671 0.7630124 0.77385855 0.16238269 0.5472788 -0.08887681
0.6486425 0.051409855 0.4842472 0.6802992 0.1211727 0.35024303 0.2562763 0.47888273
0.2497712 0.38214338 0.08861967 0.3061446 0.17997244 0.31698602 0.44919574 0.59914887
0.50169665 0.53938895 0.31014514 0.3173558 0.2580179 0.4960105 0.70053506 0.18542983
1.0005106 0.013834756 0.51487833 0.35597837 0.35079712 0.09485175 0.37916395 0.21905454
0.68470085 0.7077405 0.4185203 0.54730004 0.804591 0.5356941 0.45226312 0.30049425
0.7012506 0.66903824 0.23459585 0.15395693 0.5361644 0.5355028 0.55280215 0.1586556
0.7007967 0.35500214 -0.19406018 -0.021648657 -0.28968605 -0.17278002 0.368223 0.49757236
0.6253351 0.36334234 0.049594514 0.508766 0.36116314 0.12122269 0.25983262 0.52499
0.551952 0.4255929 0.661725 0.5165128 0.78771544 0.58057386 0.86134404 0.5104432
00000000: bdc3 9e3e 6d50 843e 992b 1bbc faa1 293e
00000010: 3d48 ce3e 52ed a23e 5049 2d3f 4079 313d
00000020: 03ac e83e 41eb 1b3f 802f 3b3c 735c 743e
00000030: 0bf7 293f 145c d03e f07c 7e3e 2cf3 aa3d
00000040: ea50 ee3e 3655 073f 56f9 283f 64bf e63e
00000050: e4f6 313f 178a 7c3e f97d ca3e cb3b ed3e
00000060: 0280 533f 2943 203f 3b34 aebe b242 1f3f
00000070: c881 f5bd 5b87 fc3e aa4c 4b3e d080 213f
00000080: aeca 793f 99fc c63e d6aa e13e f56c 153f
00000090: 37e5 263f 8aab c33e 2f26 0d3f d037 e93e
000000a0: a227 343f de91 e83e b79a 003f acaa 823e
000000b0: 5158 dd3e 324d 043f 2587 613e c55b d43d
000000c0: f815 a43e f02f 133e e715 c03e c854 433f
000000d0: 981b 463f a647 263e 771a 0c3f 0c05 b6bd
000000e0: 6f0d 263f 2493 523d 40ef f73e 1728 2e3f
000000f0: 6429 f83d 0e53 b33e a636 833e 1e30 f53e
00000100: 05c4 7f3e 4ca8 c33e 3b7e b53d fcbe 9c3e
00000110: b24a 383e fe4b a23e fcfc e53e d261 193f
00000120: 316f 003f 6515 0a3f 58cb 9e3e 767c a23e
00000130: ec1a 843e 17f5 fd3e 4456 333f 51e1 3d3e
00000140: bb10 803f 2cab 623c 11cf 033f cc42 b63e
00000150: ae9b b33e a241 c23d c721 c23e d54f 603e
00000160: 8e48 2f3f 7b2e 353f 4b48 d63e db1b 0c3f
00000170: adf9 4d3f 4023 093f 088f e73e 62da 993e
00000180: 2985 333f 1746 2b3f e539 703e e3a6 1d3e
00000190: 1242 093f b616 093f 7184 0d3f 9d76 223e
000001a0: 6a67 333f d7c2 b53e b6b7 46be 8658 b1bc
000001b0: bb51 94be 3fed 30be ba87 bc3e cec1 fe3e
000001c0: f615 203f 0208 ba3e 9e23 4b3d 7d3e 023f
000001d0: 60ea b83e 9a43 f83d c808 853e bf65 063f
000001e0: ba4c 0d3f 50e7 d93e cf66 293f 2f3a 043f
000001f0: b8a7 493f 7da0 143f 0b81 5c3f 68ac 023f
