logs/sdf_single_all_distances/state_27.pt (torch, 122503 bytes, 16 tensors)

fc1.weight f4 [32, 7]
00000000: 1638 a33d b79c e0be 8734 90be 4160 c8be
00000010: c8ed 8cbd 92c3 d63e 6558 2abb 1951 b6be
00000020: 2676 4bbe d323 c73e ced8 4ebc 1ace 823c
00000030: 8cc5 aebb ef96 24ba 1614 34bf 384e 6e3f
00000040: 379a dabc 3679 013f 03d2 ddba c4ef 003c
00000050: 3cf1 d5ba 8d52 eabe 1e5a 263f 2959 903e
00000060: 6b4d 2dbf 70ab 223c b9df 563d 8747 013b
00000070: 67e0 24bd 913b c33c 1827 63bd 326a 6c3e
00000080: cb7e 0b3f 1cf2 cc3e 7036 aabc ea97 a73c
00000090: 0940 1cbe 16c0 a63b 301b 8e3e 7b44 153d
000000a0: b596 8cbd 1dac e83b 0bd0 113f 58c6 38bf
000000b0: 45da 53bd c477 0bbf 71e2 d33b bdcd 273c
000000c0: 19e9 83bb 6eaf 76bf cee4 0d3e 75cb a73e
000000d0: 6975 ab3e b95e de3c a759 bb3d 9bfd b5bb
000000e0: 2dd6 00bd 8248 0e3f 96b9 04bd 50ff a0be
000000f0: 9c2b 053e a359 18be 6631 e3bb 71fa 05bf
00000100: 4b90 fb3d 0e9a 1bbf bfe7 a43e ead4 9bbc
00000110: d93c 143c 7de0 24bb 1469 673e cb53 83be
00000120: c984 4a3e 1fce 5a3e 09a7 943c 86c9 50bd
00000130: b44f 1aba f0d8 7d3f b7c2 853f b4ec d53d
00000140: e84b 7f3e cb7d 3eb9 8a73 163d e9fb 1138
00000150: 4e34 42bf 416a 72be 1433 75bf 8094 0bbe
00000160: 4fce 493c 5a23 2e3d 271b 6cbb eceb 4f3f
00000170: ac3d b43e 92cf 583f 28f4 9dbe 3b60 e8bc
00000180: 43fa 2a3b bb36 08b9 aa66 bfbe 8bec c9be
00000190: ef68 37bd 8ce6 863e 05f5 fe3a 7762 e9bc
000001a0: 7eb3 d2b9 5092 e73e 283c d93e 6a9c 9c3d
000001b0: c6f6 5e3e b15f 22bc 6ec9 363b 05cd dab9
000001c0: f7cd 6bbe 4d3d 57bf 4a74 153e 5b9f 58bf
000001d0: 0b93 923d ac1d d43d a0fe 53bb bfe0 a6bd
000001e0: 95f4 4cbe c6d4 9a3f e17a 18be 58a6 3e3d
000001f0: 8c5e 613c 3c07 a3bb c565 b6be 16b1 bcbe
00000200: 7f7c dbbe c429 02be d0a2 7c3c 49a0 2d3c
00000210: f9a3 d939 53ea 113f 7691 62be eafa 083f
00000220: 99ac 403e 81c3 ed3c 9974 823c 4e72 7ebb
00000230: 0713 e53e ad21 333f e9a3 cabe 60e0 a43e
00000240: 9040 54bc 19dc 78bb 8f65 023a 8b11 8038
00000250: a752 bb3e 4c2c cebd de4a ecbe ee91 743e
00000260: 2b2c 0c3e 2e2d bebb a112 013f 23b0 193f
00000270: 1815 01be 7a64 183f ca84 a2bb 808e 93bb
00000280: ee54 7dbb da1e 243f ed8a c3be 2ea1 353f
00000290: a795 033f 6e77 883c 60ed 143d 3564 3ebb
000002a0: 666a 4ebd 6958 43bd 17a9 cf3e f6c8 4c3f
000002b0: ac1c 24bc fa0d 0c3e 7548 ce3b f7a8 26bf
000002c0: 8d9f 1dbf 3d08 543d 32a7 a33e 74e2 a13a
000002d0: e9a8 2d3c e184 31bb 9f7e 10bf 76c4 89be
000002e0: 14c0 0fbf 256c 8b3e 9412 e7bc 4f67 e43c
000002f0: f0f1 b1ba c20d e33e 9676 4b3e 3d23 003f
00000300: 9cb3 a13e e71c 3a3c 6826 2e3d f0a2 a7ba
00000310: a9f7 6ebe 1f87 6dbe 4485 7e3e d251 833d
00000320: 5ae1 d0bd 5623 823e 5b83 91bc 4e93 9e3f
00000330: 25ea 63bf 47d7 cfbd 9d5c d13e c205 b83b
00000340: 0a4b f8bc 13fc 043b 04e1 2a3f 93ca 273f
00000350: c0a1 b2bd 898e c8be e947 f63c 674c 603e
00000360: 22ad 16bc 0494 16bd 444b cb3e 90a8 093e
00000370: ab53 39be ced2 49be 2dc9 443e ad2e 023c
0.07969682 -0.43869564 -0.28165075 -0.39135936 -0.06881291 0.41946083 -0.0025992629 -0.35608748
-0.19869289 0.3889452 -0.012624932 0.015967418 -0.005333608 -0.00062785944 -0.7034315 0.930881
-0.026684863 0.5057558 -0.001692355 0.007869665 -0.0016322504 -0.45766106 0.6498126 0.28193024
-0.67696255 0.009928569 0.052459452 0.0019726472 -0.04025307 0.023832114 -0.055457205 0.23087385
0.54490346 0.40028465 -0.020777911 0.02045818 -0.15258802 0.0050888164 0.27755117 0.03644226
-0.068646826 0.0071005956 0.56958073 -0.7217765 -0.05172183 -0.5447962 0.006466203 0.010241923
-0.00402559 -0.96361434 0.13856813 0.32772413 0.33488014 0.027144777 0.09147959 -0.005553914
-0.031454254 0.5557939 -0.03240355 -0.31444788 0.13004917 -0.14877944 -0.006933379 -0.5233527
0.12283381 -0.60781944 0.32208058 -0.019022424 0.00904771 -0.002515822 0.22598678 -0.25649866
0.19777216 0.21367691 0.018146055 -0.050973438 -0.00058865105 0.99159145 1.0450047 0.10445538
0.249313 -0.00018166674 0.03673128 3.4805304e-05 -0.7586106 -0.23673345 -0.95781064 -0.13630867
0.012317254 0.042514183 -0.0036026926 0.81219363 0.35203302 0.8469173 -0.3085034 -0.028366199
0.002608911 -0.0001299036 -0.37383014 -0.3943828 -0.044777807 0.26347768 0.0019451684 -0.028489335
-0.00040188053 0.45228815 0.42428708 0.07647021 0.21773824 -0.00991051 0.0027891058 -0.00041732952
-0.23027788 -0.8407791 0.14595142 -0.8461816 0.071569525 0.10357222 -0.0032347813 -0.08148336
-0.20015176 1.2096183 -0.14890625 0.046545357 0.013755452 -0.0049752276 -0.3562452 -0.36853856
-0.4286842 -0.12711245 0.015419677 0.010597297 0.00041511634 0.56998175 -0.22125801 0.53507864
0.18815841 0.029023888 0.015924739 -0.0038825455 0.4474108 0.6997326 -0.3957818 0.32202435
-0.012954846 -0.0037972985 0.000497424 6.106783e-05 0.36586496 -0.10067043 -0.4615087 0.23883793
0.13688724 -0.0058037257 0.5041905 0.6003439 -0.12605703 0.59528315 -0.0049596773 -0.0045030713
-0.0038655358 0.64109576 -0.3819193 0.70949066 0.51400226 0.016658511 0.03635919 -0.0029051427
-0.05039444 -0.047691736 0.40558693 0.7999414 -0.0100166015 0.13677207 0.0062952586 -0.6510157
-0.6157158 0.05176567 0.31963497 0.0012350813 0.010599353 -0.0027087259 -0.5644321 -0.269077
-0.5615246 0.27230945 -0.0282071 0.027881293 -0.0013576131 0.44346434 0.19869456 0.5005377
0.31582344 0.01135943 0.042517096 -0.0012789648 -0.23336662 -0.23196076 0.24855524 0.0641209
-0.101992324 0.25417584 -0.01776283 1.2388704 -0.8902915 -0.10148483 0.4089097 0.0056159208
-0.030309219 0.002029185 0.66749597 0.6554348 -0.087222576 -0.39171246 0.030063586 0.21904145
-0.0091965515 -0.036762252 0.3970586 0.13443208 -0.18098323 -0.19709322 0.19217367 0.007945699

fc1.bias f4 [32]
00000000: 6460 883f 4a4f 3b3f 8f8f 1d3f 7951 1f3e
00000010: 35d9 bf3e 048d b23f d7b9 3b3f 3673 1dbe
00000020: d2d7 af3f 71ec 0c3f e0c5 993f c3a7 28be
00000030: 8f83 8ebc 0490 763d 1d78 473f efd2 503f
00000040: 43f8 513d 94b0 5bbd 5e8b 273f 4667 0c3f
00000050: 3d06 bbbe aee8 2f3f e1a0 cd3d e60e 30be
00000060: 68f6 833f d923 7e3e dfd7 1cbf 00eb 163f
00000070: f060 8d3f 3717 9bbe fabd 203e c17a 8a3f
1.0654416 0.7316786 0.6154718 0.15558423 0.37470403 1.3949285 0.73330444 -0.1537598
1.3737738 0.5504828 1.2013512 -0.16470246 -0.017396716 0.060195938 0.77917653 0.8157186
0.05126215 -0.053635195 0.6544703 0.5484508 -0.36528197 0.68714416 0.10040451 -0.17193183
1.0309572 0.24818362 -0.61266893 0.5895233 1.1045208 -0.3029115 0.1569747 1.0818712

fc2.weight f4 [128, 32]
00000000: 520c 383c 12f7 873e 4a69 17bd 4efe 163e
00000010: 24db f6bc c7ac e1bd a839 803e 9870 af3d
00000020: 7526 b73e 9d25 913e 4b04 553e 6ac2 f93e
00000030: fbc3 233e a2ce ae3e b434 8e3e 0df1 843e
00000040: ad48 2a3e ed92 743e e00c c13e 48a4 da3c
00000050: 2216 f9bb 6ebb 413e f2ed 4c3e 8401 c13d
00000060: 9597 04be c231 523d e95b e7bd 2399 313e
00000070: a6d9 ef3d d264 273e 33c3 91bd a8be 973d
00000080: 9d3f 343e 6da7 fc3c bb19 58bf 88aa 1ebf
00000090: f28f c5bc 65a4 c23e 79ab 443e c005 99be
000000a0: e988 a73d 7e98 2fbe 7c70 ff3e a4eb 8c3e
000000b0: bde3 513d 0d93 333e c170 4e3e ab64 b63d
000000c0: fd51 84be 21a8 31bc de6f 9dbd a441 973d
000000d0: 5360 cc3e ac1a a0bd 9080 9a3e f98c 9bbe
000000e0: 6e9e ac3e fbb2 a43e e6f5 973e 2c7d c53e
000000f0: 1a55 a23d 845a 09be 3d12 8e3d 20ec 13be
00000100: 933b 94bb 2eb8 363d d363 82ba 8dd5 bf3d
00000110: 470a 3abe 692f d9bc ddf1 8b3e af77 b1bb
00000120: 329c ecbc 8aa5 b43e 284b d7be c835 0ebf
00000130: 3703 833e 6cbd 013d aa31 8f3d ac8a 9dbe
00000140: dbe5 e53d 897a b33b d0c6 bb3d 580d 4f3e
00000150: a7c1 8abe d6bc 623e 4ea1 16bf e771 a93d
00000160: 6c21 063f c625 9e3c a558 fdbe 9e5b 9039
00000170: d8a7 f43d e8b8 5c3e 09e0 043d 2846 5c3d
00000180: 3502 dbbc e315 f4bb 4016 13bd 50f0 7c3e
00000190: dd02 7ebe 0df1 973d 2140 b43e 2cd9 27be
000001a0: e035 b33e 254c 043e 5690 43be 4196 92bd
000001b0: 039f 593d 198c 0cbe 33c8 273e 96e4 b53d
000001c0: 0f45 8d3a f186 b13d c992 86be 558f df3b
000001d0: 774a 0ebe ff96 7b3e 13c6 133e 52e2 fdbd
000001e0: 4979 d0bc f806 163e b50b 46be f27b 0ebe
000001f0: 1c76 c9ba 474b f33d 3d56 ec3d 35e2 f53d
00000200: db62 3f3d 1d29 603e 5ee4 97be 8274 12bf
00000210: a875 1b3e 5e54 963e 256f 37be 817e 39be
00000220: dcf6 a03d c3d7 33be ce71 863e f49f 0a3e
00000230: 4b84 a4be 5f58 86bc 45b5 583e d276 093e
00000240: 275b 44bd aa90 04be 7374 1ebe 1a2f 86bd
00000250: bb9f 113e c68d 7a3c 6999 053e bd39 073d
00000260: ed6c b13d 6920 e3bd e0c7 1ebe fb8e 903e
00000270: 5c1b 7b3e e19c 5ebd 7b78 40be 07d1 643e
00000280: ab1c 98bd 5422 94bd bbd3 1a3e e07a 87be
00000290: 7009 143e ec92 803e 567a 88bd eefb 2ebe
000002a0: 559a 103e cea5 2b3e 38f4 0c3e a5fc 4cbe
000002b0: 4911 1e3e 006c 5dbc 876d 1a3e 73bd 743d
000002c0: 0563 eebd 7af4 77bd 79b6 8cbe d3cf 0dbd
000002d0: 914f 763e 415b e03d 4bf4 8b3e e9f0 1abe
000002e0: 5129 06be 6a79 d5bb fbb0 35bf 14ed d83e
000002f0: 48da 823e 5284 78bd bb43 46be 8677 6f3e
00000300: 1e5e adbc f080 963d 8235 ea3b 4578 fcbe
00000310: f096 063d 4032 823e d300 00be a580 903d
00000320: 8d06 753e 4249 cc3d 93b4 9d3e dda5 3ebc
00000330: cfee 0ebf bd8d 07bd a346 953b 9e53 a93d
00000340: 81d7 1ebe 883e 9c3d 901e 70be 0b79 c73d
00000350: ff9e c43d 3644 df3c 047c 163e 52d2 3abe
00000360: 88ad c13e d49c 1ebc 62b2 0ebe 270f 953d
00000370: 4c13 d53d 174a a6bd 5d85 31bd 944b 3b3e
00000380: 7025 20be 9dca 9a3d 59ee a53d bc88 963d
00000390: debd 43bd a129 4dbe a880 1ebd daeb 82be
000003a0: 37db 5d3e 5ac1 813e c261 1cbf 9f30 903e
000003b0: c42f 4a3e ba9e 733e 9438 81be 4698 9dbe
000003c0: 0471 443d 0a01 1cbe 0e9f a7bd 7915 70be
000003d0: e845 b23c 58c9 f93d 7cae 523e 9442 803e
000003e0: 1394 0dbf 96a5 eb3e db12 d1bd 8fc0 46be
000003f0: 3451 923d 5633 963e 7dd4 3e3e 87bb 673e
0.011233406 0.26555687 -0.036965646 0.14745447 -0.030133791 -0.11019283 0.25043988 0.085663974
0.35771528 0.2834901 0.20802419 0.4878114 0.1599273 0.34142023 0.27774584 0.25965157
0.16629286 0.23884173 0.37705135 0.026689664 -0.0076015154 0.18919155 0.20012644 0.09424117
-0.12948449 0.051316984 -0.11296827 0.17343573 0.11711435 0.16347054 -0.071173094 0.07409412
0.17602392 0.030841554 -0.8441426 -0.6197896 -0.02411649 0.38016048 0.19206037 -0.298872
0.081804104 -0.17148015 0.49890506 0.2752353 0.05124258 0.17536564 0.201602 0.0890592
-0.25843802 -0.010843308 -0.076873526 0.07385567 0.3991724 -0.07817587 0.3017621 -0.3038099
0.33714622 0.321678 0.29679793 0.3857206 0.07926388 -0.13413435 0.069370724 -0.14445543
-0.0045237034 0.04460924 -0.0009947963 0.093669035 -0.18167983 -0.026511865 0.27332965 -0.0054158787
-0.028883073 0.35282546 -0.42049527 -0.55550814 0.2558839 0.031674787 0.069918945 -0.3076986
0.11225482 0.005477254 0.0916878 0.20219934 -0.2710087 0.22142348 -0.5883988 0.08273678
0.5239475 0.019305121 -0.49481693 0.0002753408 0.11946076 0.21554911 0.03244022 0.053777844
-0.02673445 -0.007448898 -0.03590989 0.24701047 -0.2480578 0.07419024 0.35205176 -0.16391438
0.3500204 0.12919672 -0.19098029 -0.07157565 0.05313016 -0.13725318 0.16384964 0.0888149
0.0010778027 0.08668316 -0.26283863 0.0068225064 -0.13895594 0.24569319 0.14431028 -0.12396683
-0.025448458 0.14651096 -0.19340403 -0.13914469 -0.0015370282 0.118795924 0.11539886 0.12006036
0.046725135 0.21890683 -0.29666418 -0.57209027 0.15181601 0.29361242 -0.17913492 -0.18114664
0.07859585 -0.17562775 0.262587 0.1353758 -0.32132182 -0.01639956 0.21162899 0.13424233
-0.047938492 -0.1294581 -0.1547411 -0.06551953 0.14221089 0.0152925905 0.13046803 0.033014048
0.08663354 -0.11090166 -0.15505934 0.28234085 0.24522156 -0.05434883 -0.1879596 0.22345363
-0.07427343 -0.0723311 0.15119831 -0.26460934 0.14456725 0.25112092 -0.06663959 -0.17088291
0.14121373 0.16762468 0.13765037 -0.20018251 0.15436281 -0.013514519 0.15080844 0.059750985
-0.1163998 -0.060535885 -0.27482966 -0.034622025 0.2405379 0.10954905 0.27334818 -0.15130962
-0.13101698 -0.006514718 -0.70973176 0.42368376 0.2555716 -0.060673065 -0.19361775 0.23385438
-0.021163043 0.073488116 0.007147492 -0.49310508 0.03285879 0.25428963 -0.12500314 0.07055787
0.2392828 0.0997491 0.3080183 -0.011636225 -0.55833143 -0.033094157 0.0045555397 0.08267902
-0.15511896 0.076291144 -0.23449159 0.09739884 0.096006386 0.027254205 0.14695746 -0.18244293
0.37827706 -0.009680945 -0.13935235 0.07278281 0.10404071 -0.081196 -0.043340076 0.1829055
-0.15639281 0.07558177 0.08102102 0.07350299 -0.047788493 -0.20035411 -0.038696915 -0.25570565
0.21665655 0.25342828 -0.61086667 0.28162095 0.19744784 0.23791018 -0.25238478 -0.30780238
0.047959343 -0.15234771 -0.08184634 -0.23445691 0.02176185 0.121966064 0.20574373 0.25050795
-0.5530407 0.4602477 -0.102086745 -0.19409393 0.071443945 0.2933604 0.18635745 0.2263013

fc2.bias f4 [128]
00000000: 99cf 8d3e d7cd 303e b0b8 db3d f367 103e
00000010: b123 ab3e b7c2 7b3e 0406 2a3f f9bc c43d
00000020: b9ed d63e 89ad 203f 687e 863d 6572 2e3e
00000030: 9b50 1e3f 1f68 c53e 48cb 943e c8e3 883d
00000040: c4ce d03e bb8a 073f 59d6 163f 4bc3 c63e
00000050: 1c67 2a3f 5a20 863e bcea ba3e 9c62 ce3e
00000060: c61d 3a3f d494 163f 75ff 8abe 4715 0f3f
00000070: 698e debd 2684 f23e ebd2 cc3d 7724 173f
00000080: 37a4 623f 34c6 a13e 3e96 c03e a45d 033f
00000090: b89b 103f a712 d83e e9d7 113f 2e65 e03e
000000a0: ff20 213f aa84 f23e 365e 063f 353a 503e
000000b0: b733 c13e 2d1b f73e 0388 473e 357d f93d
000000c0: cbb9 a83e fc3d 2d3e ca8d a83e 9918 253f
000000d0: f4c1 353f ba8f 133e dd4c ee3e 0c05 b6bd
000000e0: 01b4 193f f6d6 5d3d 5133 fb3e 7f5a 173f
000000f0: 8fea 093e d689 7c3e 025c b03e ce7c de3e
00000100: a70d 6d3e f604 5a3e 28a2 003e 0e30 a13e
00000110: cf1f 1f3e 5aa4 9d3e d5e6 da3e 3fe9 0a3f
00000120: 83df fa3e c35c 063f f1f2 723e d0ca 9e3e
00000130: 4021 8d3e c915 f13e 3bb2 2d3f a80a 563e
00000140: e8b9 453f 7656 773d 5b11 023f e4a5 993e
00000150: dee1 cf3e 2abd db3d 9b24 ae3e aac7 443e
00000160: 9005 2c3f 8ffd 313f 759f bb3e 6292 083f
00000170: ee4d 523f a520 023f a50a bf3e 7995 a03e
00000180: bf35 263f d26e 223f b98d 873e 6ef1 393e
00000190: 9864 f03e 7f52 0f3f 4e8e 053f 99b7 473e
000001a0: 7846 283f e444 983e c46c a6bd a158 283d
000001b0: 1c8e 1bbe 9ab0 5abd 9935 b23e bb08 f73e
000001c0: 4e61 103f c3c7 a73e 1ef3 ad3d c383 c13e
000001d0: 7d39 ac3e 0ca3 223e 2dab 313e e3ec f13e
000001e0: 9caa 0b3f 0ee1 e13e a6de 223f 0789 073f
000001f0: 513f 3d3f 35b1 003f f0d0 4b3f 30b7 003f
0.27697447 0.17266022 0.10728586 0.14102153 0.33425668 0.24585997 0.6641543 0.09606356
0.41978243 0.62764794 0.06567079 0.17035826 0.61841744 0.38556 0.2906134 0.06684071
0.4078275 0.5294606 0.5892082 0.38820872 0.6656358 0.26196557 0.36507213 0.40309608
0.7270168 0.58820844 -0.27148023 0.5589184 -0.10867006 0.47366446 0.10001167 0.59040016
0.8853182 0.3159653 0.37614626 0.5131476 0.5648761 0.4220173 0.5697008 0.43827194
0.62940973 0.4736684 0.52487504 0.20334704 0.37734768 0.4826292 0.19485478 0.121820845
0.3295425 0.16918176 0.32920676 0.6449066 0.70999074 0.14410296 0.46543017 -0.08887681
0.6004029 0.05416008 0.4906259 0.5912246 0.13468383 0.24661955 0.34445196 0.43454593
0.23149739 0.21290955 0.12561858 0.31481975 0.15539478 0.30789453 0.42754236 0.54262155
0.4899865 0.52485293 0.23725487 0.3101411 0.2756443 0.47086933 0.67850083 0.20902503
0.77236795 0.06038519 0.5080773 0.30009377 0.4060201 0.107294396 0.34012303 0.19216791
0.6719599 0.69527525 0.36645094 0.5334836 0.8215016 0.5083106 0.3731281 0.3136404
0.6492576 0.6345035 0.26475313 0.18158504 0.46951747 0.55985254 0.52170265 0.1950363
0.65732527 0.2974006 -0.08126214 0.041100148 -0.15190929 -0.053391077 0.34806517 0.48248848
0.56398475 0.32769594 0.084936365 0.3779584 0.3363761 0.1588251 0.17350455 0.47251043
0.54557204 0.44117016 0.63620985 0.5294346 0.7392474 0.50270396 0.7961569 0.5027952

fc3.weight f4 [64, 128]
00000000: bb32 003e 9a49 f13c ae4f 12be 28a7 8f3d
00000010: 41e6 a5be 5901 43be 4ecc c63d 31f5 a6be
00000020: 87fb cf3e 8ec6 04be 4c97 e43c fb50 c3bc
00000030: d667 403e 383a eb3d fdbe f13d 2e07 5fbe
00000040: be9d 80bd a9ad fdbe f8af 7dbd a2db 96bd
00000050: 5710 8f3e e1cc 96be f655 9e3d 14cb 893e
00000060: 6221 203f 760a 463d b6d5 20be fb83 063e
00000070: 6ad7 ecbe bc7c 7a3e b98e e7be 9ebc 81bc
00000080: 7a0c 9dbe bed3 993e 012b 36bf 39cf ef3e
00000090: 032a d2be 5252 d43e e6af 6b3f eeaf 25be
000000a0: a837 e13e 64e3 8cbe 33d0 11be a0a1 ba3e
000000b0: b0ae 6e3e 8483 943e 6c41 54be 6804 f43e
000000c0: 8550 a8be 5c70 993e 3154 7f3e 4282 60be
000000d0: 2187 c0bb e84e 383e 0a46 c9bc 638e 0e3d
000000e0: 78a8 cd3e eb3e 153d 6338 5cbd b209 a7bd
000000f0: 6ae5 afbe 232d d2be 4e8e 0abf 4c2c 36bf
00000100: 9498 a1be a70b a7be 8f71 afbd 48d4 5c3e
00000110: c6b7 94bd 0ad7 1cbf 4b2c 12be ae8d 953e
00000120: bf4c 183e 42a3 c73b c536 453f 398b 173f
00000130: 19d8 493f 2b85 843e a0f8 833f a7b8 eebe
00000140: 897d 2ebe 10ca 61be 7963 b5be 0867 e33d
00000150: cbe7 f8be 2f33 bd3f bbb7 1d3e 253b 973e
00000160: 2bdd 7cbc 75d6 523e dd5e e23d 7136 25bf
00000170: 8ef5 c33e 9c53 1ebf 1e59 4ebf ee0d ec3e
00000180: e40a c3bd a55f ea3d 7499 f3bd 37fa da3d
00000190: 9d09 29bd 2db2 6b3e 881c 043f fb74 40be
000001a0: 31f4 bcbe 2af4 fb3d 92f1 ccbe 5c5e 34bf
000001b0: e8c9 80be 51c3 8c3e 99b5 6c3d dde6 0abd
000001c0: 19d2 3bbd 18de e23c da5b 713e d3f9 8d3f
000001d0: 61d5 9fbe 79c9 3e3e 3b9f d33e 2d7f 0e3d
000001e0: 7f88 ce3d 0453 c0be 96a8 0f3f bb24 483f
000001f0: ba8c 81bc b4aa c3be 5101 d13e 4900 b73e
00000200: 6388 33bd f7fa 0b3e a832 903e 8b7c 613e
00000210: 0c5a 343f 0091 ef3e 173c 083f 9568 233f
00000220: 4178 84be c7b1 fabe 45e2 de3e 5e44 6d3e
00000230: af3b 10bf 5741 05be c2df e73c dd61 903e
00000240: a026 be3e 3cd6 0cbe 3053 c93e 51d7 c7bd
00000250: a718 a63e d4dd 0cbe 64ea a43e 2c7b cc3d
00000260: 4129 ca3c 4332 f7bd 3f6b 603e b08a f2bd
00000270: 01df 103d 8e76 903e b658 c5bd 8876 4fbe
00000280: df5b 90bd 2ea7 e33e 9773 123f 87cc 0ebe
00000290: bb00 13be cd04 063f 3538 c7be 83b1 0e3f
000002a0: d990 f2ba 9d81 233e 0ee1 183f dee8 1d3e
000002b0: b076 f63e b389 873e 8e34 1f3f 5014 633e
000002c0: 1f2f e0be 24fa ac3e cff9 363f 88cd c43d
000002d0: 6085 46be 5754 d53d a9b0 033e f018 48bc
000002e0: 3d1f 163e 937c ad3e 264e b5be 41e1 e7bd
000002f0: 2863 fa3e 8a25 173f 43e0 3e3e 8dd6 c63e
00000300: 6176 29bd ea01 bebc 4252 773e 351e 0d3d
00000310: ce0f c23e b4b8 023f f54c 5b3d d470 77bc
00000320: 3f3a b7be 7002 383e 8ba0 c33e 2280 6f3e
00000330: 08ef 5c3e 3b97 2ebf fc59 f7bd 9a46 543f
00000340: 510f d73a fa13 ee3d f39d e6be 06d6 92be
00000350: bd13 a53e bf7c ac3e d0d9 033e a913 813e
00000360: 7313 c0bd 5e96 19bf eb1e c93d 2188 17be
00000370: e5f7 0cbf c8f9 8f3e 4652 d33d dd13 003f
00000380: cdc4 d93e 633f 0dbe 51c2 7abe 1d64 c53e
00000390: a862 283e 13b9 09bf b6c0 ce3d ad47 643e
000003a0: 11c5 953f 94c8 edbb ad3e 393d a4f2 f13e
000003b0: 4faf e53d 505f 47be d9a5 943e 973f 82be
000003c0: 461d ed3e 71a5 9b3e 0e59 e63e 6aee f83d
000003d0: a072 10be 3c64 dfba 7d92 333e ac3c 25bd
000003e0: 8c84 133f 3404 adbe 6be2 eabe 76d0 8aba
000003f0: 1efc 19be 2299 4b3e c1b5 33bf d46c 0f3e
0.12519352 0.029454041 -0.14288208 0.070143044 -0.32402232 -0.19043483 0.09706937 -0.3260894
0.40621588 -0.12966368 0.027904175 -0.023842325 0.1878961 0.11485714 0.11804006 -0.21780083
-0.06280087 -0.49546555 -0.061935395 -0.073661104 0.27942154 -0.29453185 0.077312395 0.2691275
0.6255094 0.04834982 -0.15706524 0.13136284 -0.46258098 0.24461645 -0.45226076 -0.01583701
-0.3067358 0.3004436 -0.7115937 0.46837786 -0.41047677 0.41469055 0.92065275 -0.16180393
0.43987775 -0.27517235 -0.14239578 0.36451435 0.23308825 0.29006588 -0.20728081 0.47659612
-0.32873932 0.29968536 0.2493446 -0.2192469 -0.0058754836 0.1799885 -0.02456953 0.03480376
0.40167594 0.036436956 -0.053764712 -0.08156146 -0.34354717 -0.41050062 -0.5412339 -0.7116134
-0.3156172 -0.32626078 -0.085665815 0.21565354 -0.072616145 -0.61265624 -0.14274709 0.29209656
0.14873026 0.00609246 0.77036697 0.5919681 0.78845364 0.2588285 1.0310249 -0.46625254
-0.17040075 -0.22049737 -0.35427454 0.11103636 -0.48614344 1.4781245 0.15402119 0.2953731
-0.01543359 0.20589621 0.1105325 -0.64536196 0.3827328 -0.6184633 -0.8060473 0.46104378
-0.095235616 0.11444024 -0.11894503 0.10692256 -0.041268934 0.23017187 0.51606035 -0.18794625
-0.36905053 0.1230243 -0.40028054 -0.7045648 -0.25154042 0.27492765 0.057790373 -0.033911575
-0.04585466 0.027693793 0.23570195 1.1091865 -0.31217483 0.18631543 0.4133242 0.034789253
0.10084628 -0.37563336 0.56116617 0.78181046 -0.015814174 -0.38216174 0.40821317 0.35742405
-0.04383124 0.13669954 0.28163648 0.22020166 0.704499 0.46790314 0.5321669 0.63831455
-0.25872996 -0.48963758 0.43532005 0.23170611 -0.5634107 -0.13013206 0.028304938 0.28199664
0.37138844 -0.13753599 0.3932128 -0.09757865 0.32440683 -0.13756496 0.32210076 0.09984431
0.024677875 -0.120701335 0.21915911 -0.11842859 0.035368923 0.2821545 -0.09636061 -0.2026006
-0.07048773 0.44463485 0.57207626 -0.13945208 -0.14355747 0.52351075 -0.3891007 0.5573961
-0.0018506303 0.15967412 0.59718406 0.15420863 0.48137426 0.26472244 0.6218957 0.22175717
-0.4378595 0.33784592 0.7147493 0.096095145 -0.19386816 0.10416477 0.12860359 -0.012212977
0.14660354 0.33884105 -0.35411185 -0.11322261 0.48903775 0.59041655 0.18640237 0.38835564
-0.04137266 -0.023194272 0.24152473 0.034452636 0.37902683 0.51063085 0.05354019 -0.015102584
-0.35786626 0.1796968 0.38208422 0.23388723 0.21575558 -0.6819951 -0.1207771 0.8292023
0.0016407763 0.11624904 -0.4504238 -0.28678912 0.32241622 0.33688924 0.12876058 0.25210312
-0.0937871 -0.5999507 0.0982035 -0.14798023 -0.5506576 0.28120255 0.10318427 0.5003031
0.4253296 -0.13793711 -0.24488188 0.38552943 0.16443884 -0.53798026 0.100953504 0.22292967
1.1700765 -0.007256577 0.045225788 0.47255433 0.11215078 -0.19469953 0.29032782 -0.2543914
0.46311396 0.3039966 0.44989818 0.12154849 -0.14106226 -0.0017043422 0.1753635 -0.040341064
0.57624125 -0.3379227 -0.45875868 -0.0010590691 -0.15037581 0.19882634 -0.7019921 0.14006358

fc3.bias f4 [64]
00000000: 40fa a73e 7b72 0ebe 3d2b 13bd 24cf 9b3d
00000010: 95a2 3c3f 3953 133e 2c15 b63c 10b3 223e
00000020: 2202 263e 69a0 89bd bc35 f6bc bd88 8d3e
00000030: 8e59 cb3e 234a e83d aaa4 8d3e 0ba3 7ebd
00000040: 12db 553f 80b7 3d3d c2a5 a73e f415 373e
00000050: 3c43 733f 900f ef3e 7db8 45be 3abb e73d
00000060: ed84 093e 7329 95bd 38ff d73c f884 f43e
00000070: 5dcc 1d3f ebe4 2a3e 7842 a43e 8806 093f
00000080: 3242 8a3d 0c27 9e3c 75f7 223d b4af 973d
00000090: 29ad 6d3f 6e0d 94bd 4b1c d73d d364 173e
000000a0: eb71 a93c 5d44 303d c949 c1bc 630f 9c3e
000000b0: 2b08 b1bc e0b2 07be c93b ed3c 63bf 17bd
000000c0: 7deb 533d 7576 863e e644 34be a7ba 5cbe
000000d0: 1d93 f43d 2afe 2f3e e14d 433e f98f 6b3f
000000e0: 6884 993c e193 4c3d 9a9f 903e 5c8e bd3d
000000f0: 00eb da3d f9bc c03d 28a0 df3e 7d31 bb3e
0.32808113 -0.13910858 -0.035929907 0.07607868 0.7368558 0.14387216 0.022226892 0.1588862
0.16211751 -0.06720049 -0.03005492 0.27643386 0.39716762 0.113422655 0.2766469 -0.06216721
0.835374 0.046317577 0.3274365 0.17879468 0.95024467 0.4669156 -0.19308658 0.113150075
0.13429613 -0.072832964 0.026366815 0.47757697 0.6163996 0.16688888 0.32081962 0.5352559
0.06750907 0.019305728 0.039786775 0.074065596 0.92842346 -0.07229124 0.10503443 0.14784555
0.020684203 0.043033946 -0.023594754 0.3048049 -0.02161034 -0.13251829 0.028959172 -0.037047755
0.05173825 0.2626225 -0.17604408 -0.21555577 0.11942122 0.171868 0.19072677 0.9201656
0.018739894 0.049945716 0.28246766 0.092556685 0.10689354 0.09411044 0.43676877 0.36561194

fc4.weight f4 [30, 64]
00000000: 23ed 843e da6b b9bd ed98 8cbd e7b2 c6bc
00000010: 6feb 503e 99c1 913d 1ad8 013d 25a5 363c
00000020: 2d86 fa3c 3d7f 203d 8712 e0be 9075 dc3d
00000030: f0ab 5a3f 0b89 d63d 5fce a93d 9e4f 963d
00000040: 5b8c 763e 2733 c1be 13c2 48be 8fc0 0c3e
00000050: dc5f df3e cc87 6c3d 0718 acbe 073b 7f3d
00000060: 44b8 3bbd f0ac c8bc 6724 7dbc 89d1 cfbb
00000070: a51d 633e b5e3 083e 1bbf 763d 4711 453d
00000080: ebb5 87bd a731 52bc 0fd4 0b3d 6075 46be
00000090: 8a59 603f d4ee 63bc c3e4 90be fbd2 893e
000000a0: 920a 443c dd38 0d3d c1f2 1aba 091e 103e
000000b0: 009a b6bd 781b 63be b19f 363d 56bf 85bd
000000c0: df00 12bc d075 85bc cda3 0ebe 9d3e 11bd
000000d0: 88b3 7cbb a8cf 6dbe adad 973c b2f0 0e3f
000000e0: ed68 23bd d820 f2bc d503 12be cb17 c2be
000000f0: a753 32bd 41fc 133e f83c fa3e 489a 44be
00000100: 6d5f 903e 421d bcbb b25d dc3d 94fe 223d
00000110: 2f7d 2e3e 6f50 2d3b cd58 363c bb18 c23b
00000120: 5601 ef3b 594b 1c3d a3d1 61be 8c1d a03d
00000130: 44d6 0b3f 223a e93d d211 293d 61f7 2e3d
00000140: 7e09 3d3e 4474 6fbe c431 e3bd cafb c43d
00000150: c945 903e 134b 1e3d 7066 86be 120a 843d
00000160: 4a58 01bd 757a 36bc 5cd9 4abd bfd7 9dbb
00000170: 5ef2 1c3e 5308 92bd 7d9b 8a3d e5d9 023d
00000180: 39ae 86bd 23fd 79bc 8b51 13bd 38fa 5dbe
00000190: 8647 173f 111a 5bbd 4811 75be c950 5e3e
000001a0: 16f2 fe3c da5c 4a3c 46eb c53a 82e2 ba3d
000001b0: 4d84 29bd 88a2 cabd 455d e7bd c458 7bbd
000001c0: d10c 43bc 810a 14bc f124 d8bd 3d94 b7bc
000001d0: 4d6e 83bc fb31 30be e553 423c dc84 c13e
000001e0: 9bb4 fb3c a184 c33b 9bac f8bd d95a 9ebe
000001f0: 5069 2bbd 15bd 193e 6394 c13e 56a2 31be
00000200: 7c3a e53d b4f3 6f3d 149b 203d cc08 9e3c
00000210: d4bf d33d 9a16 2abd 1800 41bc 0e63 2f3c
00000220: 4cf7 3dbd 67cb fe3c 5555 03be 8ab5 853c
00000230: 1cc3 f03e 2d85 5b3d 36c1 183d 75e5 1d3d
00000240: 9926 3e3e ff03 26be 306b fdbc cb60 683d
00000250: 6c69 453e 6672 293d 7766 37be 796d 203d
00000260: 9449 ddbc a077 4bbc 77c1 e6bd 362c bebb
00000270: 2658 523e bf70 453d 06bb ee3c 32be c23c
00000280: 166e 4bbc d043 c5bb 3414 7cbd 151b e8bd
00000290: a498 ff3e 10b5 da3d 416e 43be 5bba 2d3e
000002a0: 6cac 223d b6ea 563c 6489 d73d fc4c 1bbd
000002b0: 1717 abbd 4134 87be 06ca e33d 48b4 96bd
000002c0: cf17 debb dac8 2fbc 8b30 b7bd 9610 aabc
000002d0: c165 f13c 5e67 fcbd 5523 093c 972a a43e
000002e0: 5d1e 543c 3158 263d 5ff5 8ebd 787a 8abe
000002f0: 3726 18bd 5de7 2e3e a939 9f3e ece4 40be
00000300: feba b23d 717b 43bd 0ae4 f5bc 6539 6abd
00000310: 169a fb3d 683f b3be 12fc 13be 3386 ddbc
00000320: ba2a aebd fc47 763d 83da 95be 206d 34be
00000330: e750 093f 25a1 df3d e983 e83e 8cde 4dbe
00000340: 5bf2 a93d edb1 b7bd 48d1 f7bd ed0c 86bd
00000350: 2cc3 a53e a3c0 c93c 31f5 c1bd a16b cd3d
00000360: 272f bc3e 08e1 cf3b 561f 8a3e 813e db3c
00000370: be93 563e eec7 07bd edd4 6b3d 36a9 e63d
00000380: dffc 2c3e 67c7 9ebd d20b 9bbc 7b6c 3bbe
00000390: 0d36 053f de7b dbbd 8815 77bc 8f5d f9bd
000003a0: 9eb0 d1be 6fb7 f3bd 3298 29bb 41cc 3aba
000003b0: d0a3 e6bd 5175 1fbe d509 603d 2e04 a5bc
000003c0: 186f 143c 758e 70bd f212 e83d b16f 0bbc
000003d0: 5f15 5cbd 831e 98be 8e43 3ebd f9eb 0d3f
000003e0: 94e7 f2be 26b5 f7bd 58b3 ae3e 077d 5fbe
000003f0: 06b2 10bd e3f2 2a3f d075 ad3e 1bcd 83bd
0.2596217 -0.09053774 -0.06865106 -0.02425523 0.20402311 0.07117004 0.03170023 0.011147772
0.030581558 0.039183844 -0.43764135 0.10764611 0.85418606 0.104753576 0.08291315 0.073394045
0.24076979 -0.3773434 -0.19605283 0.1374533 0.43627822 0.057746693 -0.3361208 0.062312152
-0.045830026 -0.024496526 -0.0154505735 -0.006342117 0.22179277 0.13368113 0.060240846 0.04811218
-0.06626495 -0.012829221 0.03413778 -0.19380713 0.87636626 -0.0139119215 -0.2829953 0.26918778
0.011965411 0.034478057 -0.0005910807 0.14073958 -0.08916092 -0.22178447 0.044585887 -0.06530635
-0.0089113405 -0.016291529 -0.13929673 -0.035460103 -0.0038559157 -0.23223746 0.018515432 0.5583602
-0.039894987 -0.029556677 -0.14259274 -0.37908778 -0.04353681 0.14451696 0.4887464 -0.19199479
0.28197804 -0.0057407925 0.107600585 0.039793566 0.17039941 0.0026445647 0.01112957 0.0059233583
0.0072938604 0.038157795 -0.22052626 0.078181356 0.5462382 0.11388041 0.04127676 0.042716388
0.18460652 -0.23384196 -0.110934764 0.096183375 0.28178242 0.038645815 -0.2625003 0.06447233
-0.03157834 -0.0111375945 -0.049523696 -0.0048169787 0.1532683 -0.07130494 0.06767938 0.03194608
-0.06576199 -0.015258106 -0.035966437 -0.21677482 0.5909351 -0.053491656 -0.23932374 0.21710505
0.031121295 0.012351239 0.0015100024 0.09125234 -0.041385937 -0.098942816 -0.112970866 -0.06136395
-0.011904911 -0.009035707 -0.10553921 -0.022409553 -0.016043806 -0.17206566 0.011860822 0.37796676
0.030725768 0.0059667383 -0.12142297 -0.30928686 -0.04184848 0.15013535 0.37808523 -0.17347082
0.11192796 0.058582023 0.039210394 0.019291304 0.10339323 -0.04152546 -0.0117798075 0.010704769
-0.04637842 0.03110285 -0.1282552 0.016321916 0.47023857 0.053593803 0.037293635 0.038548905
0.18569411 -0.16212462 -0.0309349 0.056732934 0.19278497 0.041368864 -0.17910181 0.0391669
-0.027012624 -0.012418658 -0.11267369 -0.00580361 0.20541438 0.048203226 0.029141914 0.023772333
-0.012416383 -0.006020047 -0.061542705 -0.113332905 0.49921143 0.10679066 -0.19085027 0.1696562
0.039715216 0.013117483 0.10524252 -0.037915215 -0.083540134 -0.26407054 0.11122517 -0.07358605
-0.0067777405 -0.010729039 -0.08944806 -0.020759862 0.029467465 -0.12324403 0.00837024 0.32063743
0.012946692 0.04061145 -0.069803946 -0.2704656 -0.03714582 0.17080446 0.3109868 -0.18837327
0.08727072 -0.047725145 -0.030015964 -0.057183642 0.12285249 -0.35009313 -0.14451626 -0.02704153
-0.08504243 0.060127243 -0.29268274 -0.17619753 0.5363907 0.10919408 0.4541314 -0.20104426
0.08298179 -0.089694835 -0.12100464 -0.06545434 0.32375467 0.02462799 -0.09470595 0.10030294
0.36754724 0.0063439645 0.26977032 0.026763203 0.20954797 -0.033149652 0.05757611 0.11262743
0.16893338 -0.07752877 -0.018926535 -0.18303101 0.520356 -0.10716985 -0.015080817 -0.12176048
-0.4095506 -0.119002216 -0.002587807 -0.0007125773 -0.112617135 -0.15572096 0.054696877 -0.020143595
0.00905969 -0.058729608 0.113317385 -0.008510516 -0.05373132 -0.2971078 -0.046451144 0.5543819
-0.47442305 -0.12095098 0.34121203 -0.21825038 -0.035326026 0.66776866 0.33878946 -0.06435605

fc4.bias f4 [30]
00000000: c9d2 2c40 a923 2340 c332 1a40 9091 c43f
00000010: 3f26 a23f 482a 9c3f e076 9d3f 5076 c43f
00000020: 8865 a03f ffaa 16be 8ddb 4e3e 9d26 a0be
00000030: b7fd ffbe 5b16 17bb 18aa c3be 28e7 cebe
00000040: 4f3b 1bbe 3d71 54be a622 dfbe 3b77 803e
00000050: 0fa2 0e3b da28 ccbe 465c 143e 1c58 123e
00000060: b106 17bf 1c9c 223d b1d6 433d 06fa cabe
00000070: 9763 9b3d 7ec4 cf3d
2.7003653 2.5490515 2.4093482 1.5356922 1.2667922 1.2200403 1.2301903 1.5348606
1.2530985 -0.14713667 0.2020094 -0.3127946 -0.49998257 -0.0023054096 -0.3821571 -0.40410733
-0.15159343 -0.20746322 -0.43581122 0.25090966 0.0021764075 -0.39874917 0.14488325 0.14291424
-0.58994585 0.03969966 0.047812168 -0.39643878 0.07587355 0.101449

fc1.weight f4 [32, 7]
00000000: 530e a13d 5fa4 e0be f2b8 90be ffdd c7be
00000010: 21c8 8ebd a5e6 d63e 7c79 2bbb 2848 b6be
00000020: 7b1d 4bbe a5fe c63e f8f1 60bc e64c 833c
00000030: 4452 b3bb 41ae 1aba 92e4 33bf f2d1 6d3f
00000040: 3666 d9bc 936c 013f 9de5 dcba a582 ff3b
00000050: e96f cfba c7e1 e9be 4648 263f a1f8 8f3e
00000060: 092d 2dbf 8e5d 1f3c 1f9d 573d 9da8 073b
00000070: 0830 25bd af35 cd3c 5fc6 61bd 8eb9 6c3e
00000080: 15f9 0a3f 962e cb3e de85 aabc 8403 aa3c
00000090: ea01 1cbe 72cd ab3b 934e 8e3e 0db6 163d
000000a0: 13bb 8abd 27f1 e83b 6f88 113f cc93 38bf
000000b0: 6758 53bd 5e72 0bbf 3b83 dc3b 88b0 203c
000000c0: 3040 80bb fa57 76bf e8a0 0d3e daca a73e
000000d0: dbe9 aa3e b497 e23c 5694 bb3d 62e3 b0bb
000000e0: 9b38 f9bc 1e51 0e3f 5f8b 05bd 6296 a0be
000000f0: 5fe6 053e a44d 17be fcd9 e9bb 64e2 05bf
00000100: 4c16 fc3d e07a 1bbf b8f1 a43e afcd 9bbc
00000110: f5cd 133c 8356 1dbb d502 673e ad4a 83be
00000120: e15f 4a3e 23c6 5a3e 43d3 923c 2174 50bd
00000130: 9990 0bba d2bd 7d3f a4a6 853f aa94 d63d
00000140: b62a 7f3e 1d67 83b9 f90b 173d e9ff 0c39
00000150: c4bd 41bf 0f88 71be facc 74bf 66fb 09be
00000160: 4789 4b3c f3fd 303d d499 75bb 5b7a 4f3f
00000170: 4500 b43e 4e7d 583f 0486 9dbe d4f8 e5bc
00000180: 8cd1 413b 7433 34b9 77ea bebe b57e c9be
00000190: a5c1 36bd 74c5 863e 5e1e fa3a 9510 ebbc
000001a0: 8480 d3b9 2369 e73e 930f d93e d8ba 9c3d
000001b0: 11dd 5e3e 4281 22bc 4674 383b 6edf a2b9
000001c0: 8c3f 6cbe b3fb 56bf 5b30 153e 115f 58bf
000001d0: a74a 913d 6856 d43d 31bb 53bb a9f3 a6bd
000001e0: 19ed 4cbe 0e8f 9a3f 9e45 18be 97f0 3d3d
000001f0: a607 613c 7c98 a5bb 9c5b b6be 2fc5 bcbe
00000200: 8186 dbbe 7ce3 01be 2628 793c 5db9 303c
00000210: 711b 003a 71bb 113f a7b7 62be 6fc7 083f
00000220: 8ee5 403e d083 ed3c 667a 813c c36a 7cbb
00000230: 20b4 e43e 1dd7 323f 8628 cabe 94c3 a43e
00000240: f1b2 54bc 5e69 60bb afd1 e239 8f88 a737
00000250: 8297 bb3e c57e cebd 1edd ebbe 5aa2 723e
00000260: dccf 0a3e 481d b4bb 28a1 003f 574f 193f
00000270: e8f9 00be 86f8 173f ab96 a5bb 0f2c a4bb
00000280: 8254 82bb 94f1 233f f7d8 c3be 9788 353f
00000290: 846b 033f f291 8a3c baef 153d 3ba1 3dbb
000002a0: b598 51bd 556d 44bd 5343 cf3e 93c7 4c3f
000002b0: c477 1cbc 0638 0d3e 4ac2 cd3b 6d46 26bf
000002c0: d685 1dbf 80c6 523d c892 a33e 53a9 a33a
000002d0: d829 313c ac32 2cbb 3d27 10bf 8e34 8abe
000002e0: c64a 0fbf 6cad 8b3e eb6e e6bc dcad e93c
000002f0: 1f72 b5ba 1ee9 e23e c5ea 4a3e 50f7 ff3e
00000300: 0ac0 a13e 3ee5 3d3c 2f7a 2f3d f628 a8ba
00000310: b9fd 6dbe 9041 6ebe db95 7d3e 7abc 803d
00000320: ba7f d0bd 79c1 813e f245 94bc bd6a 9e3f
00000330: cb7f 63bf 9eab d0bd 6f58 d13e 5efd b43b
00000340: 2146 fbbc d03f 0e3b 22d8 2a3f 5b86 273f
00000350: e4ce b3bd c4c7 c8be 876c f73c 309b 603e
00000360: d772 17bc d613 16bd ad17 cb3e 298d 093e
00000370: eb37 39be 284f 4abe 2825 443e 5e04 073c
0.0786406 -0.43875405 -0.28266102 -0.39036557 -0.06971765 0.41972843 -0.002616494 -0.35601926
-0.19835465 0.38866153 -0.013729565 0.016027879 -0.0054724533 -0.00059005996 -0.70270646 0.92898476
-0.026537996 0.50556296 -0.0016853098 0.0077975565 -0.0015826199 -0.45680067 0.6495403 0.28119376
-0.67646843 0.009726895 0.052640077 0.0020699867 -0.04032901 0.025050012 -0.055120822 0.23117658
0.5428632 0.3968398 -0.020815786 0.02075363 -0.15235105 0.005242997 0.27794322 0.03679471
-0.06773963 0.0071088257 0.56848806 -0.7210052 -0.05159798 -0.54471385 0.006729511 0.009807713
-0.0039139017 -0.9622799 0.13830912 0.3277195 0.33381543 0.027660228 0.09159152 -0.0053982
-0.0304225 0.55592525 -0.032603618 -0.31364733 0.13076161 -0.14775711 -0.0071365815 -0.5229857
0.1230894 -0.6073437 0.32215667 -0.019018976 0.009021272 -0.0024007864 0.22559674 -0.2564291
0.19763137 0.21364646 0.017923003 -0.050892 -0.0005323976 0.9911777 1.044148 0.10477574
0.24918637 -0.00025063092 0.036876652 0.00013446774 -0.75680184 -0.23587058 -0.9562527 -0.13474807
0.012422866 0.043210935 -0.0037475722 0.81046075 0.35156456 0.845662 -0.30766308 -0.028072752
0.0029574363 -0.00017185305 -0.37288257 -0.39354482 -0.044618268 0.2632252 0.0019082536 -0.02869443
-0.00040340808 0.451974 0.42394695 0.07652825 0.21764018 -0.009918513 0.0028145476 -0.00031065516
-0.23071116 -0.8397781 0.14569227 -0.8452006 0.07094317 0.10368043 -0.003230762 -0.08151943
-0.2001232 1.2074907 -0.14870307 0.046372022 0.013734734 -0.005053578 -0.35616767 -0.3686919
-0.42876056 -0.12684435 0.015207326 0.010786382 0.00048869016 0.5692664 -0.2214037 0.5342931
0.18837568 0.028993517 0.015805434 -0.0038515783 0.44668674 0.69859487 -0.39484042 0.32180464
-0.012982116 -0.0034242491 0.00043262306 1.9971541e-05 0.3663903 -0.10082773 -0.46067137 0.23694745
0.13555855 -0.0054966547 0.50245905 0.5988669 -0.12595332 0.5936359 -0.0050533614 -0.005010135
-0.0039773593 0.64040494 -0.3825147 0.70911545 0.5133593 0.016915295 0.036605574 -0.0028935212
-0.051171023 -0.04795583 0.40481052 0.79992026 -0.009550039 0.13790902 0.0062792646 -0.6495121
-0.6153234 0.051458836 0.31947923 0.0012486376 0.010813199 -0.002627532 -0.5630987 -0.2699322
-0.5597347 0.27280748 -0.028129062 0.028525285 -0.0013843215 0.4431848 0.1981612 0.49993372
0.31591827 0.0115903 0.042841133 -0.001282959 -0.23241319 -0.23267198 0.24764197 0.06285949
-0.10180612 0.2534292 -0.018099759 1.2376324 -0.8886687 -0.101889834 0.40887782 0.005523368
-0.030673089 0.0021705516 0.6673604 0.65439385 -0.08779696 -0.3921491 0.030203117 0.219342
-0.009243689 -0.03664001 0.396665 0.13432755 -0.18087737 -0.19756758 0.19154799 0.008240787

fc1.bias f4 [32]
00000000: e528 883f 8102 3b3f f3e1 1d3f 0316 1e3e
00000010: dd92 c23e d85c b23f e985 3b3f f9de 1dbe
00000020: 905c af3f f68a 0c3f 5cbb 993f 207f 29be
00000030: 3285 87bc f08d 7a3d ff3e 473f 69a7 503f
00000040: ade6 4f3d 129b 5abd ba73 273f 5050 0c3f
00000050: f86d babe 0f3b 2f3f 766f d03d c423 31be
00000060: 429b 833f f2c1 7e3e e9d2 1cbf 1dec 163f
00000070: f248 8d3f 621f 9abe df19 1f3e d34b 8a3f
1.063748 0.73050696 0.61672896 0.15438084 0.38002673 1.3934584 0.73251206 -0.15417089
1.3700123 0.5489954 1.2010303 -0.165524 -0.016543005 0.06117052 0.778305 0.8150545
0.0507571 -0.053370543 0.6541096 0.5481005 -0.36412024 0.6844949 0.101775095 -0.172988
1.0281756 0.24878672 -0.61259323 0.5895403 1.1037886 -0.30102068 0.15537213 1.080439

fc2.weight f4 [128, 32]
00000000: 6799 383c 4d18 883e a36c 16bd 8d06 173e
00000010: 1c2b f9bc bf1d e2bd d34d 803e c29b b03d
00000020: 0448 b73e 6a1e 913e e6c1 543e e99f f93e
00000030: 42c7 233e c0bf ae3e 5003 8e3e fd12 853e
00000040: 257c 2a3e 4bf6 743e 8535 c13e 0392 d83c
00000050: 9075 e6bb f900 423e 6109 4c3e 2458 c23d
00000060: b53b 06be 580a 503d 19f2 e6bd ce5c 313e
00000070: fd74 ef3d fb64 273e d7b5 90bd e988 973d
00000080: 52e4 333e 5b25 f73c 876a 57bf 78ba 1ebf
00000090: 1d03 cebc 21b1 c13e e512 453e 6681 97be
000000a0: 2f2e a73d bec1 30be 7cd7 fe3e 9d2a 8c3e
000000b0: b977 593d 98d7 333e c46c 4d3e 6484 b63d
000000c0: c172 83be d43f 2bbc c465 9cbd db2e 983d
000000d0: 3de8 cc3e be9a 9fbd f647 993e bebc 9abe
000000e0: a832 ac3e 5444 a33e 55a1 963e c5a9 c53e
000000f0: 82e9 a03d 054e 08be defb 8f3d 6b5a 14be
00000100: 8b76 78bb 178d 333d 6fbe 23bb df22 c03d
00000110: d994 3abe 35f3 d3bc 8428 8c3e e224 c0bb
00000120: 1b85 efbc 6865 b43e 3fed d6be a210 0ebf
00000130: c19d 823e c1a2 053d ef2e 8f3d c3fa 9cbe
00000140: 1b2e e63d 13aa 963b 353d bc3d 26af 4e3e
00000150: c578 8cbe 2923 623e 44a5 16bf 023a a83d
00000160: 2799 053f 4eca 9e3c 0656 fdbe 716e 0e3a
00000170: 88ae f63d 6436 5e3e b610 043d 7d07 613d
00000180: cdff dbbc ea7e ecbb 2b37 13bd ceb7 7c3e
00000190: f1f6 7cbe 6e42 983d dc42 b43e 8372 27be
000001a0: 7748 b33e d2c1 043e 8470 43be bf11 93bd
000001b0: ed2d 583d 711e 0cbe dafd 273e 96ec b53d
000001c0: 423a 663a afa4 b03d 98e3 86be 2d99 f03b
000001d0: 8937 0fbe 08fa 7b3e 59dd 133e 6032 fdbd
000001e0: dcab cfbc 651e 163e 5483 46be abdd 0dbe
000001f0: aa44 b2ba aa3f f23d 112e ec3d 43cd f53d
00000200: 8361 3f3d 1dce 5f3e 893e 97be 8750 12bf
00000210: 24b2 1b3e 97e9 953e 3d6e 37be e939 3abe
00000220: bc0c a03d 242d 31be 2af5 853e 6c03 0a3e
00000230: a7fd a3be 415c 89bc 1ec7 573e ebd1 093e
00000240: 9296 43bd 1755 04be 523e 1ebe ecb5 86bd
00000250: 261c 123e 4001 7f3c 422f 063e 021f 073d
00000260: 30b2 b23d 1761 e2bd 223f 1bbe 5ba3 903e
00000270: 8a02 7b3e 2033 62bd 9d06 40be d2c1 643e
00000280: ee81 98bd 8514 93bd 95a3 1a3e c54f 87be
00000290: d0df 123e 9d0e 803e 4313 89bd 68f2 2ebe
000002a0: a1db 103e 9251 2c3e 8274 0c3e 633a 4dbe
000002b0: 0778 1d3e 739f 61bc 6a72 1a3e db02 753d
000002c0: 54f8 ebbd f568 77bd 458b 8cbe ab04 0dbd
000002d0: 5ece 753e 9d10 e13d dde0 8b3e ea7f 1cbe
000002e0: 6b89 04be 02a4 a6bb 2996 34bf aa50 d83e
000002f0: 828c 823e 6b49 76bd ebf2 45be 7415 6f3e
00000300: 7096 aebc b28a 973d df1a d73b db46 fcbe
00000310: cd48 043d da1a 823e 6852 00be 5da3 8d3d
00000320: eb77 743e 681f cc3d 07af 9d3e 8ad9 3ebc
00000330: 04d1 0ebf 035d 06bd 3dfd b03b 07dc a93d
00000340: 06e3 1ebe 4b4c 9d3d 9578 70be 404a c83d
00000350: 056c ca3d d49c d93c 6c0d 183e 1ba1 3abe
00000360: 4151 c13e 2e8e 1bbc 3149 0ebe fac5 953d
00000370: faee d43d cc3b a5bd 1660 30bd 066a 3b3e
00000380: 269e 20be 1a59 9b3d 31e9 a53d d987 943d
00000390: 5f5b 42bd 643f 4bbe 4ba9 16bd b179 82be
000003a0: f271 5e3e da02 813e 39c3 1bbf 169a 903e
000003b0: 7b1b 493e 8bcc 713e ba79 80be 2f93 9cbe
000003c0: 615d 4d3d c6ff 1dbe a069 a9bd 3b3e 6ebe
000003d0: 7b5f b53c 430c f83d 7c22 573e c4c6 7e3e
000003e0: ac65 0dbf 3583 ea3e 35d5 cebd 5323 46be
000003f0: 3d82 923d fc59 943e 0c1b 3d3e 3394 673e
0.011267043 0.2658104 -0.036724698 0.14748593 -0.030416064 -0.1104083 0.25059375 0.086234584
0.3579713 0.28343517 0.20777091 0.48754814 0.1599398 0.3413067 0.27736902 0.2599105
0.1664892 0.23922078 0.37736145 0.026436811 -0.0070330575 0.18945684 0.19925453 0.09489468
-0.13108714 0.050791115 -0.11276645 0.17320558 0.116922356 0.16347115 -0.07065933 0.073991604
0.17567566 0.03016918 -0.8414692 -0.6200328 -0.025147969 0.3783045 0.19245489 -0.2959091
0.08163106 -0.17261407 0.49773777 0.2737626 0.053092692 0.17562711 0.20061022 0.0891197
-0.25673488 -0.0104522295 -0.07636598 0.07430812 0.40020934 -0.077931866 0.29937714 -0.30222124
0.33632398 0.31888068 0.29419962 0.38606086 0.07857038 -0.13311012 0.07030462 -0.14487617
-0.0037912454 0.043835726 -0.0024985333 0.09381651 -0.18220843 -0.025872806 0.2737466 -0.005863772
-0.029238274 0.35233617 -0.4197788 -0.5549413 0.25510982 0.032625917 0.06991374 -0.30660066
0.11239263 0.004597911 0.09191362 0.20184001 -0.2743589 0.22083725 -0.58845925 0.08214189
0.52186817 0.019383576 -0.49479693 0.0005433327 0.12045008 0.21700436 0.0322425 0.054938782
-0.026855374 -0.007217278 -0.035941284 0.24679491 -0.24703576 0.074345455 0.3520726 -0.16352277
0.35016224 0.12964562 -0.1908589 -0.07181119 0.052778173 -0.13683487 0.1640543 0.08883016
0.0008782485 0.08625161 -0.26345515 0.0073424787 -0.13986029 0.24607098 0.14439906 -0.12363124
-0.025350504 0.14660032 -0.19386035 -0.13854091 -0.0013600786 0.11828549 0.11532224 0.12002041
0.046723854 0.2185597 -0.29539898 -0.57154125 0.15204674 0.29279777 -0.17913146 -0.18186153
0.07814929 -0.17302376 0.26163608 0.13477868 -0.3202946 -0.016767623 0.21072051 0.13458984
-0.047751017 -0.12923084 -0.15453461 -0.065776676 0.1426855 0.015564263 0.13103965 0.032988556
0.08725393 -0.11053675 -0.15160802 0.2824963 0.24512687 -0.055224538 -0.18752523 0.22339562
-0.07446657 -0.07181648 0.15101464 -0.26428047 0.1434319 0.2501115 -0.06693127 -0.17084658
0.14146282 0.16827992 0.13716319 -0.20041804 0.15377818 -0.013770926 0.15082708 0.059817176
-0.11521974 -0.06040283 -0.27450004 -0.03442828 0.24004504 0.10989497 0.27319995 -0.1528317
-0.12943046 -0.005085469 -0.70541626 0.42249042 0.25497824 -0.06012861 -0.19330947 0.23348027
-0.021311969 0.07399501 0.0065644826 -0.49272808 0.03229599 0.2541111 -0.12531435 0.06915925
0.2387387 0.09966928 0.30797598 -0.011648545 -0.5578768 -0.032803547 0.005401282 0.0829392
-0.1551629 0.07680567 -0.23483498 0.09779787 0.09883884 0.02656404 0.1484887 -0.1822552
0.37757304 -0.0094943475 -0.13895108 0.07313152 0.10397144 -0.08068046 -0.043060385 0.18302163
-0.15685329 0.07585354 0.08101118 0.072524734 -0.04745042 -0.198484 -0.036782544 -0.25483468
0.21723154 0.25197488 -0.6084476 0.28242558 0.19639389 0.23613183 -0.2509287 -0.30581042
0.05013788 -0.15429601 -0.082720995 -0.23265927 0.022140255 0.12111714 0.21009248 0.2488051
-0.55233264 0.45803228 -0.1009926 -0.19349413 0.07153747 0.28974903 0.18467349 0.22615127

fc2.bias f4 [128]
00000000: 5fcd 8d3e a5cf 2f3e c6f2 dc3d e66a 103e
00000010: 1cdf aa3e 1854 7b3e 36f9 293f ac59 c63d
00000020: 3804 d73e b8af 203f f9c9 863d 0372 2e3e
00000030: dd42 1e3f 5b5a c53e 09df 943e 44b5 883d
00000040: 2794 d03e fc8c 073f fabd 163f 6fbb c63e
00000050: 2454 2a3f f705 863e 9fda ba3e 5c49 ce3e
00000060: aa02 3a3f 978f 163f b7d0 8abe 330f 0f3f
00000070: 13a7 debd 5a6e f23e 0cc3 ca3d a131 173f
00000080: 425a 623f 2792 a13e 2f4d c03e af23 033f
00000090: 236f 103f 2c4e d83e fde5 113f 1950 e03e
000000a0: 550a 213f 398c f23e 477d 063f 0655 503e
000000b0: 9506 c13e 4708 f73e 9112 483e 32fc f93d
000000c0: 3aaf a83e b024 2d3e 8d5d a83e bbf6 243f
000000d0: 5ab1 353f 5e87 133e 1c03 ee3e 0c05 b6bd
000000e0: 8892 193f 78f5 5d3d eddf fa3e ed26 173f
000000f0: 4721 0a3e b1f5 7b3e 00da b03e b424 de3e
00000100: 4528 6d3e 496a 583e 13d9 003e a838 a13e
00000110: 6797 1e3e ea68 9d3e 17ac da3e 6dda 0a3f
00000120: e5ee fa3e f763 063f 7fcc 723e 3a91 9e3e
00000130: de11 8d3e 3316 f13e d5ae 2d3f 218b 563e
00000140: b226 453f 62ed 783d 8f17 023f e86e 993e
00000150: 4afb cf3e 34ce dc3d 3319 ae3e a5de 443e
00000160: 690f 2c3f b5f9 313f 0a67 bb3e 2f5c 083f
00000170: d44c 523f 97f4 013f a2b9 be3e 5bb2 a03e
00000180: b119 263f ac57 223f c86b 873e f62e 3a3e
00000190: 41fb ef3e f643 0f3f 6980 053f fd28 483e
000001a0: e924 283f 2cf6 973e 14cf a5bd da10 283d
000001b0: 3e72 1abe 031b 58bd 714c b23e 0afc f63e
000001c0: 9338 103f f965 a73e 1d1c ae3d 4e1b c13e
000001d0: 8f38 ac3e 393f 223e 774f 313e e1e0 f13e
000001e0: 499d 0b3f 4af5 e13e aec3 223f d38d 073f
000001f0: 8030 3d3f 1681 003f 04c5 4b3f c2af 003f
0.27695748 0.17169054 0.10788493 0.14103279 0.33373344 0.24543798 0.6639589 0.09685072
0.41995406 0.62768126 0.06581492 0.1703568 0.61820775 0.38545498 0.29076412 0.06675199
0.4073803 0.529495 0.5888363 0.38814875 0.6653464 0.26176426 0.3649492 0.40290344
0.72660315 0.5881285 -0.27112362 0.5588257 -0.10871711 0.47349817 0.099004835 0.590601
0.8841897 0.31556818 0.37558886 0.51226324 0.5641958 0.4224714 0.5699156 0.4381111
0.6290639 0.47372606 0.5253491 0.20344934 0.37700334 0.48248503 0.19538333 0.122063056
0.32946187 0.16908526 0.32883874 0.6443898 0.7097374 0.14407107 0.46486747 -0.08887681
0.59989214 0.054189175 0.48998967 0.5904377 0.13489257 0.24605443 0.3454132 0.43387377
0.23159893 0.21134295 0.12582807 0.31488538 0.15487443 0.30744106 0.4270942 0.5423954
0.49010387 0.52496284 0.23710822 0.30970174 0.27552694 0.4708725 0.678449 0.20951511
0.7701217 0.06077326 0.508172 0.29967427 0.40621406 0.107815176 0.340036 0.19225557
0.67211014 0.6952165 0.3660205 0.5326566 0.8214848 0.5076384 0.37251002 0.31386074
0.6488295 0.63415027 0.26449418 0.18181977 0.4687138 0.55963075 0.52149063 0.19546886
0.6568132 0.29680002 -0.08096138 0.041031696 -0.15082642 -0.052760135 0.34823945 0.48239166
0.56336325 0.32694986 0.08501456 0.37716144 0.336369 0.1584443 0.1731547 0.4724188
0.54536873 0.44132453 0.63579834 0.5295078 0.7390213 0.5019697 0.79597497 0.50268185
