logs/sdf_single_all_distances/state_136.pt (torch, 122521 bytes, 16 tensors)

fc1.weight f4 [32, 7]
0.31184262 -0.55530816 -0.264299 -0.56757563 -0.061819237 0.54667467 -0.0112259025 -0.6559942
-0.324894 0.5097585 0.027452888 0.006214089 0.0028369403 0.0016465734 -1.0819609 1.4981704
-0.07267072 0.5364977 0.009034418 -0.01526089 0.0015462335 -0.5968102 0.93896854 0.44846258
-0.95276403 -0.013462155 0.013953718 -0.0039516385 0.023521354 -0.025719441 0.020519523 0.14732389
1.0074953 0.96207345 -0.032576688 -0.016666783 -0.2741184 0.03261998 0.08952111 0.195504
-0.20488258 0.0035487565 0.8776395 -0.9997984 -0.11726276 -0.88032806 -0.02294498 0.023619052
0.0017324156 -1.5166892 0.29812956 0.40643525 0.65202284 0.0426501 0.019845147 -0.001903379
-0.13939218 0.5834428 -0.13486189 -0.5019636 0.07011554 -0.34600973 -0.0053121736 -0.7131993
0.024590814 -0.75885767 0.55739963 -0.022136822 0.015517771 -0.003390342 0.340082 -0.36187664
0.34226292 0.40015918 0.010561853 -0.015356649 -0.003216477 1.2305473 1.2712891 0.13432586
0.24806027 0.029110048 0.011613677 -0.0020052935 -1.065101 -0.40962714 -1.3884113 -0.45050904
-0.0132099455 0.016525079 -0.0035279477 1.305242 0.42936975 1.2529796 -0.5093524 -0.011262731
-0.016869485 0.011409464 -0.5847172 -0.7191077 -0.09928169 0.3385826 0.0058259666 -0.029997716
0.0011668849 0.55222225 0.56051433 0.06256512 0.28085607 -0.0015105841 0.0061875484 0.0031598245
-0.048877303 -1.1159426 0.16829823 -1.2208973 -0.00012315257 0.0114508495 -0.015991885 -0.022087112
-0.39773822 1.9017013 -0.42824104 0.02048464 -0.0007023035 -0.00032039106 -0.44178426 -0.45591575
-0.5544617 -0.16878918 0.01888214 -0.012311412 0.0011675352 0.75535035 -0.41598365 0.83172625
0.04475087 0.018501934 -0.006348602 -0.0074895937 0.7995329 1.0727475 -0.5851296 0.4596208
0.0020111178 -0.00366971 -0.0005943456 -0.16115713 0.29920727 0.169331 -0.49501124 0.6034624
0.60163265 -0.012706764 0.8983579 1.0555905 -0.08305185 0.8622593 0.02506497 -0.018173248
0.0044324226 0.9285425 -0.48530665 0.9650096 0.5533761 0.003335136 0.039364967 -0.00039425652
-0.018494697 0.04178618 0.55396914 1.1105897 -0.0053363694 0.063555546 -6.7875364e-05 -1.2259306
-1.1321377 0.08214901 0.61016923 0.014305579 -0.017527496 -0.0060109515 -0.83235186 -0.20609036
-0.831693 0.23491634 0.013460442 0.0014337321 0.0020169318 0.7413546 0.18320861 0.86891854
0.37610957 0.0019747873 0.025057426 -0.00044610898 -0.11708892 -0.004540114 0.25232446 0.37622306
-0.28002188 0.3387414 -0.008091403 1.7427155 -1.2685386 -0.16138464 0.3718633 0.015419785
-0.02333176 -0.008862739 0.924115 0.9603641 -0.02235312 -0.5863672 -0.012976069 0.03210524
-0.0010245467 0.055884115 0.59725803 0.123264745 -0.27961177 -0.38528916 0.1405934 0.00060597935
00000000: d6a9 9f3e ad28 0ebf 3352 87be a34c 11bf
00000010: 2b36 7dbd dff2 0b3f d9ec 37bc 3cef 27bf
00000020: 8258 a6be 887f 023f e1e4 e03c 8f9f cb3b
00000030: f6eb 393b d6d1 d73a b27d 8abf 0cc4 bf3f
00000040: 63d4 94bd ea57 093f 1805 143c d008 7abc
00000050: fdaa ca3a 8ec8 18bf 3e60 703f e39c e53e
00000060: 58e8 73bf 5f90 5cbc 239e 643c bf7c 81bb
00000070: dbaf c03c 94b1 d2bc 8f18 a83c 13dc 163e
00000080: 9bf5 803f 724a 763f 226f 05bd c788 88bc
00000090: 3f59 8cbe 879c 053d d856 b73d 3332 483e
000000a0: bdcc 51be 4192 683b fbac 603f caf2 7fbf
000000b0: 7527 f0bd 2e5d 61bf 1cf7 bbbc be7c c13c
000000c0: 3912 e33a df22 c2bf 70a4 983e 4818 d03e
000000d0: f8ea 263f dfb1 2e3d 4a92 a23c cd7a f9ba
000000e0: d3bc 0ebe 825c 153f 3c19 0abe b080 00bf
000000f0: bc98 8f3d 3028 b1be be11 aebb 3b94 36bf
00000100: ad72 c93c 7f44 42bf beb1 0e3f 4858 b5bc
00000110: 403e 7e3c 8030 5ebb 3a1f ae3e e547 b9be
00000120: 163d af3e aae1 cc3e 9f0b 2d3c 749a 7bbc
00000130: 88cb 52bb 9382 9d3f 9ab9 a23f b88c 093e
00000140: 8303 7e3e 3278 ee3c 4b47 3e3c 3e6b 03bb
00000150: 3b55 88bf a6ba d1be 76b7 b1bf 1fa9 e6be
00000160: 876e 58bc 9a5f 873c 2435 67bb 2b12 a73f
00000170: 5ad6 db3e a361 a03f eb64 02bf 5187 38bc
00000180: e031 8abc c3ee 3a3c 07b0 15bf 7117 38bf
00000190: 3354 cbbd b35a ad3e c0e7 be3b c5bd f5bc
000001a0: 29f2 983a 705e 0d3f de7d 0f3f 2422 803d
000001b0: 5ecc 8f3e cbfe c5ba ebc0 ca3b 0f15 4f3b
000001c0: 9133 48bd 35d7 8ebf 5f56 2c3e 5d46 9cbf
000001d0: 8422 01b9 589c 3b3c 6a01 83bc 08f0 b4bc
000001e0: 58a4 cbbe f36a f33f 6942 dbbe 67cf a73c
000001f0: ca1a 38ba 29fa a7b9 8c31 e2be ca6d e9be
00000200: 34f1 0dbf 12d7 2cbe b8ae 9a3c ceb5 49bc
00000210: fb07 993a a45e 413f cffb d4be 03ec 543f
00000220: b04c 373d 5e91 973c ef07 d0bb 446b f5bb
00000230: 30ae 4c3f ca4f 893f 0ecb 15bf 6b53 eb3e
00000240: f5cc 033b 847f 70bb dccd 1bba 6006 25be
00000250: b231 993e 1b65 2d3e 1d72 fdbe 837c 1a3f
00000260: 9904 1a3f 0830 50bc c9fa 653f 971d 873f
00000270: 1717 aabd 07bd 5c3f 0d55 cd3c 10e0 94bc
00000280: db3d 913b f6b4 6d3f 1d7a f8be df0a 773f
00000290: 0eaa 0d3f 4c92 5a3b 293d 213d 37b4 ceb9
000002a0: 3182 97bc fc27 2b3d ecd0 0d3f ce27 8e3f
000002b0: b6dc aebb 6929 823d 4f58 8eb8 4beb 9cbf
000002c0: e3e9 90bf bd3d a83d 0d34 1c3f f261 6a3c
000002d0: d395 8fbc 84f7 c4bb 0315 55bf 5a09 53be
000002e0: d5e9 54bf e98d 703e 3089 5c3c 11ec bb3a
000002f0: 802e 043b 6ac9 3d3f 0a9b 3b3e 7271 5e3f
00000300: 6f91 c03e 6f6b 013b 3b45 cd3c bce3 e9b9
00000310: 51cc efbd 3dc5 94bb ac30 813e 4fa0 c03e
00000320: 075f 8fbe 836f ad3e ce91 04bc 4d11 df3f
00000330: 795f a2bf 0442 25be de64 be3e 44a3 7c3c
00000340: 3f22 bfbc 0635 11bc cd92 6c3f 6cda 753f
00000350: e41d b7bc 291c 16bf 9499 54bc c980 033d
00000360: 154a 86ba bee6 643d e7e5 183f 3a72 fc3d
00000370: 4629 8fbe 9f44 c5be b7f7 0f3e 96da 1e3a

fc1.bias f4 [32]
1.3643796 1.0859464 0.4722821 0.36718225 -0.2798509 1.9474407 0.91310406 -0.23274836
2.2017903 1.0745467 1.6026543 -0.18290664 -0.26871026 -0.07107351 1.1053269 1.0464317
-0.12581958 -0.55236626 0.84761417 0.69666666 -0.69424653 1.346167 -0.007566531 0.0035347748
1.6884712 0.2598429 -0.7463635 0.93757045 1.4382287 -1.061183 0.55835754 1.7679697
00000000: fea3 ae3f 4b00 8b3f f6ce f13e 50ff bb3e
00000010: 9e48 8fbe bd45 f93f 30c1 693f 9655 6ebe
00000020: 22ea 0c40 bf8a 893f c723 cd3f e14b 3bbe
00000030: 6494 89be fd8e 91bd 5a7b 8d3f 79f1 853f
00000040: d9d6 00be e067 0dbf 3efd 583f bf58 323f
00000050: 24ba 31bf 334f ac3f aaf0 f7bb aea7 673b
00000060: d31f d83f 210a 853e ae11 3fbf 9e04 703f
00000070: e117 b83f d8d4 87bf 85f0 0e3f d54c e23f

fc2.weight f4 [128, 32]
0.07747949 0.26186 -0.15315373 0.23427 0.13910061 -0.052004132 0.16593029 0.10784412
0.34656024 0.3336988 0.3238137 0.40852502 0.1815919 0.448122 0.44195664 0.174812
0.13090195 0.24651241 0.4033877 0.07291456 -0.14274013 0.23343734 0.22228664 0.057995297
0.19441798 0.036110044 -0.024698483 0.3408506 0.115414955 -0.057800096 -0.123450026 0.14088316
0.3700024 0.24853435 -1.082892 -0.6862228 -0.029479025 0.5115274 0.049628936 -0.9411651
0.011103506 -0.4350058 0.6721402 0.6531437 -0.1810511 0.35908848 0.42000592 0.1042248
-0.5354194 -0.0155409835 0.038801488 0.10154005 0.8502415 -0.10844335 0.15050624 -0.6767545
0.40573013 0.5450439 0.5220183 0.2278882 0.13291653 -0.34526974 0.08113987 -0.13110206
-0.108874545 0.07066979 0.26598683 0.19117637 -0.1433632 -0.21761416 0.43655428 0.24380536
-0.18155123 0.62907803 -0.4368062 -0.33249244 0.53416646 -0.39860207 0.30869514 -0.2480526
0.027314276 0.2141053 0.012619057 0.16816455 -0.11580661 0.14189717 -0.9775569 0.6211136
0.76229525 -0.0016220342 -0.8894264 -0.32189268 -0.23740976 0.27561715 0.016048087 -0.09578483
0.02376666 0.039716806 0.10434352 0.24014151 -0.5477485 0.13467692 0.38372058 -0.15139967
0.33571193 -0.049288116 -0.057535708 0.020276226 -0.004382072 -0.3004373 0.29480475 0.069502935
-0.003998474 0.14062439 -0.17874195 0.00075402984 -0.043310918 0.18028603 0.32727578 -0.04806733
0.18181863 0.13244809 -0.15349703 -0.26852623 -0.10250356 0.15905567 0.06129837 0.10048138
0.080655955 0.00061858405 -0.25093514 -0.5099322 0.12578595 0.44110444 -0.26335415 0.074418955
0.15103902 -0.56002986 0.39058512 0.26236504 -0.43392614 -0.062430244 0.43497774 0.09060068
-0.035839252 -0.0898527 -0.25411513 -0.09959333 -0.018034225 -0.061324548 -0.01981468 0.032305695
-0.01566619 -0.21732968 0.6953743 0.3636693 0.2597978 0.05064705 -0.15038595 0.25760064
-0.13681394 -0.15902884 0.11717133 -0.27436456 0.05447329 0.43877366 -0.026148593 0.04356131
0.25922108 0.165572 -0.047256753 -0.25448528 0.11468468 0.010860228 0.22969335 0.15326367
-0.09299258 -0.22887366 -0.3052299 -0.040439554 0.22008291 0.12537898 0.27576235 0.0375074
-0.5085011 -0.14892912 -0.7867718 0.65972805 0.32991105 -0.40387267 -0.12658022 0.31045398
0.10055769 -0.15694344 0.045865674 -0.5518737 0.09679545 0.28849158 -0.00286573 0.10175985
0.2596196 0.20587213 0.4504441 0.06487506 -0.9292737 -0.20013353 -0.28722593 0.08657426
-0.13547945 0.18618155 -0.28517872 -0.08783381 0.056228157 0.014253973 0.17479683 -0.3676676
0.2109778 0.17265849 0.08427303 -0.0050674165 0.17395781 -0.21000332 -0.05710134 0.24740154
-0.06645647 0.113410085 0.3037183 0.15760148 -0.13184915 -0.29786718 -0.13674307 -0.6260506
0.16968364 0.36073664 -0.8885856 -0.014620773 0.010868723 0.41016403 -0.41745672 -0.5004798
0.25898653 -0.2819888 -0.1315589 -0.18652469 0.070682384 0.30258137 0.26018962 0.5027867
-0.19660206 0.58058554 0.040148374 -0.29469478 -0.08112297 0.38474685 0.21825731 0.13804427
00000000: 91ad 9e3d 8412 863e 55d4 1cbe 7ae4 6f3e
00000010: 6470 0e3e 4902 55bd a1e9 293e 61dd dc3d
00000020: 5870 b13e 92da aa3e e9ca a53e 312a d13e
00000030: 3af3 393e 3f70 e53e 2448 e23e eb01 333e
00000040: 290b 063e c06d 7c3e d588 ce3e 3b54 953d
00000050: 782a 12be 330a 6f3e 1c9f 633e 7a8c 6d3d
00000060: 8215 473e 20e8 133d 7954 cabc f883 ae3e
00000070: ad5e ec3d cbbf 6cbd 5ed3 fcbd ad43 103e
00000080: f470 bd3e ca7f 7e3e 349c 8abf 4cac 2fbf
00000090: ff7d f1bc 76f3 023f b647 4b3d 32f0 70bf
000000a0: 7beb 353c 15b9 debe 6111 2c3f 6d34 273f
000000b0: 7665 39be 72da b73e 040b d73e d073 d53d
000000c0: 3f11 09bf 9c9f 7ebc 4fee 1e3d 3bf4 cf3d
000000d0: 6da9 593f 8c17 debd 4f1e 1a3e c83f 2dbf
000000e0: dcbb cf3e ff87 0b3f fea2 053f 865b 693e
000000f0: 451b 083e 32c7 b0be a92c a63d 9e3f 06be
00000100: 9ef9 debd 53bb 903d 6d2f 883e bdc3 433e
00000110: cdcd 12be 3fd6 5ebe 0b84 df3e 1da8 793e
00000120: 91e8 39be 420b 213f 10a5 dfbe 733c aabe
00000130: 22bf 083f 9215 ccbe 4a0d 9e3e 8001 7ebe
00000140: 30c2 df3c 6b3e 5b3e 29c0 4e3c 5433 2c3e
00000150: 042c edbd 7e4d 113e 2b41 7abf 4d01 1f3f
00000160: c825 433f 709a d4ba 73b1 63bf 1ecf a4be
00000170: 8b1b 73be b11d 8d3e 4777 833c d62a c4bd
00000180: 4cb2 c23c 17ae 223d 0eb2 d53d a8e7 753e
00000190: 3f39 0cbf bfe8 093e 0677 c43e 8408 1bbe
000001a0: 6fe2 ab3e 56e2 49bd 90aa 6bbd 541a a63c
000001b0: 7c97 8fbb ebd2 99be a6f0 963e 8e57 8e3d
000001c0: a205 83bb d7ff 0f3e 2108 37be 16aa 453a
000001d0: ca66 31bd e79c 383e b190 a73e 40e2 44bd
000001e0: aa2e 3a3e 79a0 073e 532e 1dbe 457c 89be
000001f0: 63ed d1bd 7ddf 223e 0014 7b3d 2fc9 cd3d
00000200: f32e a53d 7928 223a 927a 80be eb8a 02bf
00000210: 08ce 003e 71d8 e13e 5bd6 86be f768 983d
00000220: f9a9 1a3e 1e5e 0fbf c6fa c73e b654 863e
00000230: 912b debe dbb6 7fbd 67b5 de3e d98c b93d
00000240: 2ecc 12bd b104 b8bd 611b 82be 96f7 cbbd
00000250: 83bc 93bc 732f 7bbd 6552 a2bc fa52 043d
00000260: 6256 80bc ac8b 5ebe 0d04 323f dd32 ba3e
00000270: 3804 853e 4873 4f3d c6fe 19be 3be4 833e
00000280: f418 0cbe 75d8 22be 86f7 ef3d 8379 8cbe
00000290: 621f 5f3d f1a6 e03e 9335 d6bc 586d 323d
000002a0: a0b8 843e b58b 293e 4c90 41bd e54b 82be
000002b0: cddf ea3d 19ef 313c bc34 6b3e 27f1 1c3e
000002c0: e572 bebd db5d 6abe 1847 9cbe f2a3 25bd
000002d0: 6a5d 613e 5963 003e b930 8d3e 5ca1 193d
000002e0: 212d 02bf e080 18be e069 49bf f0e3 283f
000002f0: 1aea a83e 66c8 cebe 3f9e 01be d3f3 9e3e
00000300: 31f1 cd3d c8b5 20be a5dd 3b3d 9847 0dbf
00000310: b13c c63d 2bb5 933e f9ce 3bbb 7867 d03d
00000320: dcec 843e 25d0 523e 9ca0 e63e 37dd 843d
00000330: e2e4 6dbf ceef 4cbe 470f 93be d84d b13d
00000340: 20bb 0abe 60a6 3e3e f202 92be 36e2 b3bd
00000350: 7f4f 663d 7f89 693c f1fd 323e ed3e bcbe
00000360: 900a 583e 63cd 303e 5797 ac3d 920c a6bb
00000370: ff21 323e 1c0b 57be 18e3 69bd d456 7d3e
00000380: 541a 88bd 8c43 e83d f780 9b3e 4862 213e
00000390: 7703 07be 0c82 98be 6006 0cbe da44 20bf
000003a0: 8cc1 2d3e 79b2 b83e 597a 63bf f78b 6fbc
000003b0: ba12 323c 0501 d23e e3bc d5be 721f 00bf
000003c0: e299 843e d660 90be 60b7 06be 5400 3fbe
000003d0: edc1 903d f2eb 9a3e 9337 853e a1b6 003f
000003e0: 0d52 49be 41a1 143f 9f72 243d 3ce2 96be
000003f0: cd23 a6bd 8afd c43e d87e 5f3e 7a5b 0d3e

fc2.bias f4 [128]
0.32560357 0.2748416 -0.019076118 0.18199734 0.42576158 0.35685456 0.7202508 0.05740497
0.48261112 0.6316791 -0.055199258 0.22588928 0.66582507 0.4202564 0.20662701 0.08095536
0.5033234 0.48065063 0.697905 0.46861613 0.717512 0.23071721 0.4217341 0.5027038
0.91253334 0.6601296 -0.35969263 0.6833513 -0.10966276 0.5418082 0.23454739 0.7270026
0.9899506 0.4200118 0.4826243 0.55528617 0.6873042 0.353754 0.5289982 0.4779652
0.7724781 0.45136324 0.51182467 0.27707282 0.45672557 0.5863016 0.2048673 0.098984316
0.33050063 0.14568311 0.41226718 0.8305915 0.80460787 0.15694848 0.5153211 -0.08887681
0.6961257 0.05238339 0.4913996 0.6954597 0.12105684 0.35845956 0.20098984 0.49134704
0.2589593 0.5028206 0.09154284 0.27732563 0.13845937 0.32601705 0.4194581 0.63599145
0.51244867 0.5357616 0.2845056 0.30665347 0.22876626 0.5091961 0.7465905 0.18094136
1.0524431 0.011280958 0.4811788 0.46637228 0.3067203 0.07903722 0.3897514 0.24511878
0.7380985 0.7494293 0.41882476 0.5617508 0.8099238 0.5963961 0.5106889 0.3063275
0.7385744 0.6449621 0.18157485 0.16311496 0.5621976 0.42557013 0.6358841 0.15103449
0.69498473 0.4183213 -0.21019544 -0.07801996 -0.4120517 -0.23608698 0.39484885 0.5272178
0.665385 0.34506372 0.02336082 0.5816262 0.3853811 0.09559394 0.26652917 0.5524624
0.58516806 0.4433315 0.63918436 0.49140412 0.8107188 0.6276545 0.90070546 0.5208668
00000000: 83b5 a63e 0ab8 8c3e 8545 9cbc 835d 3a3e
00000010: 6cfd d93e a4b5 b63e 5b62 383f 7921 6b3d
00000020: ce18 f73e b9b5 213f 9e18 62bd 854f 673e
00000030: 8373 2a3f d92b d73e 0896 533e eccb a53d
00000040: cdd9 003f d717 f63e e7a9 323f 74ee ef3e
00000050: deae 373f 2241 6c3e 88ed d73e 32b1 003f
00000060: c99b 693f 41fe 283f a229 b8be 1cf0 2e3f
00000070: de96 e0bd f1b3 0a3f 312d 703e d81c 3a3f
00000080: 676d 7d3f c90b d73e 881a f73e 3c27 0e3f
00000090: 2bf3 2f3f 3f1f b53e 6d6c 073f dbb7 f43e
000000a0: 20c1 453f 1519 e73e f106 033f 7ddc 8d3e
000000b0: efd7 e93e dd17 163f bcc8 513e 4ab8 ca3d
000000c0: 6137 a93e f42d 153e af14 d33e a5a1 543f
000000d0: c8fa 4d3f 1ab7 203e 15ec 033f 0c05 b6bd
000000e0: 4b35 323f f78f 563d ba98 fb3e a609 323f
000000f0: a6ec f73d 0388 b73e 48d0 4d3e d791 fb3e
00000100: 5096 843e dab8 003f d07a bb3d a0fd 8d3e
00000110: 4bc8 0d3e b5eb a63e 36c3 d63e 56d0 223f
00000120: d62f 033f ac27 093f b8aa 913e af01 9d3e
00000130: b441 6a3e ad5a 023f 8e20 3f3f b148 393e
00000140: 75b6 863f c4d3 383c 115d f63e 59c8 ee3e
00000150: 710a 9d3e 44de a13d 7f8d c73e 6b00 7b3e
00000160: 06f4 3c3f 99da 3f3f 3370 d63e e7ce 0f3f
00000170: 2b57 4f3f 6aad 183f 82bc 023f f5d6 9c3e
00000180: 3613 3d3f 3c1c 253f c2ee 393e 9c07 273e
00000190: 2fec 0f3f 54e4 d93e 4dc9 223f c9a8 1a3e
000001a0: 85ea 313f 362e d63e 793d 57be eec8 9fbd
000001b0: 71f8 d2be c9c0 71be a129 ca3e bff7 063f
000001c0: ac56 2a3f 31ac b03e 315f bf3c 74e5 143f
000001d0: ac50 c53e c1c6 c33d 8376 883e 2d6e 0d3f
000001e0: 93cd 153f 59fc e23e 96a1 233f 5299 fb3e
000001f0: 448b 4f3f f7ad 203f a294 663f 8757 053f

fc3.weight f4 [64, 128]
0.020618623 0.028916705 -0.75290996 -0.121963024 -0.33565795 0.060717795 0.6908401 0.41005784
0.24576849 -0.3920332 0.12244373 -0.35059798 -0.08658446 0.03483844 0.3435361 -0.14166206
0.54191375 -0.36457667 -0.24340685 -0.1594598 0.4042504 0.14115904 -0.1393987 0.45434973
0.856988 0.010320812 0.14565963 0.024644442 -0.64584476 0.12855726 -0.076619126 0.02911453
-0.19693352 0.17602062 -0.1368786 0.56824726 -0.34386012 0.72516143 0.9768617 -0.14444947
0.71482784 0.123950124 -0.09062621 0.69728655 0.15001115 0.32559755 -0.67481977 0.4727936
-0.2668024 0.4214408 0.017920416 -0.11098004 0.10493492 1.0244135 0.24821278 0.03480376
0.71864647 0.1867645 -0.12630266 -0.0693959 -0.4179573 0.29753563 -0.4523621 -0.5152418
-0.26399866 -0.16104378 -0.024663284 0.86597407 -0.5170241 -0.26479113 0.3729945 0.4908454
-0.15722857 -0.098349474 1.105962 0.303939 0.65651256 0.43841156 1.4527314 -0.35045707
-0.39122042 -0.18046671 -0.38729587 0.09474258 -0.6688273 1.5795467 -0.13542688 0.58876055
0.18337846 -0.3223504 -0.0031389343 0.025018197 0.11375566 -0.25718954 -0.65045506 0.6998784
0.09015153 0.008957472 -0.46035972 -0.34541065 -0.254798 0.75144356 0.68980104 -0.38731807
-0.059799556 0.09873181 -0.06724535 -0.90824664 -0.078588344 0.03460715 -0.16619425 -0.18553159
0.061148144 -0.18573771 0.113446966 0.91638494 -0.3344603 0.08518377 0.21878746 -0.02759205
0.31001496 -0.3679045 0.63632786 0.8878482 -0.08223582 -0.48396698 0.47012246 0.1763615
0.003956117 -0.001184971 0.4819092 0.1469497 0.8942439 0.3494192 0.28146893 0.76720124
0.09689549 -0.46570876 0.35694468 0.15639012 -0.46785414 -0.09339278 0.13358621 0.22844662
0.42352957 -0.32298744 0.2797324 -0.08748868 0.35881615 -0.5091175 0.28146577 0.10252581
0.2031742 -0.07219873 0.43088877 -0.13420197 0.034902003 0.6427752 -0.6160054 -0.2277692
-0.3938873 0.6883187 0.64674044 -0.25454545 -0.21021485 0.50787085 -0.39266387 0.59612787
-0.06747509 0.16647714 0.8354462 -0.037138782 0.4703365 0.30188444 0.61342376 0.28713143
-0.4089637 0.30469933 0.69314015 -0.020249438 -0.17971149 -0.1380383 -0.3219966 -0.012212977
0.20994912 0.22454785 -0.33666426 -0.2845914 0.39126143 0.5363626 -0.07925492 0.36108157
0.009210769 -0.07453005 -0.022978075 -0.12983501 0.43584844 0.49687812 -0.09203387 -0.11828703
-0.21964449 0.23408699 0.20226395 0.23554234 0.2808428 -0.75372547 -0.39830315 0.6818437
-0.23159151 0.12345957 -0.117624305 -0.4832369 0.23523805 0.22312465 0.30479512 0.07182726
-0.0746312 -0.691927 -0.08887234 -0.3211525 0.15695953 0.068598576 0.11406224 0.41779023
0.27123106 -0.07150118 -0.22101048 0.7375414 0.16508567 -0.6702659 -0.077718325 -0.05276581
1.382149 -0.7103956 -0.3092569 0.47412106 0.26618215 -0.5026452 0.38874525 -0.04079915
0.5415946 0.284933 0.27675283 0.22924972 -0.06677642 0.057203356 0.17337294 0.008435649
0.54206467 -0.2220514 -0.47131827 0.12801892 -0.13590507 0.41927913 -0.68766093 0.12653366
00000000: 63e8 a83c bae2 ec3c b5be 40bf c0c7 f9bd
00000010: 5cdb abbe 39b3 783d e6da 303f 1af3 d13e
00000020: bcaa 7b3e 93b8 c8be c7c3 fa3d 9481 b3be
00000030: 3253 b1bd c1b2 0e3d f7e3 af3e dc0f 11be
00000040: dcba 0a3f cba9 babe a53f 79be 6e49 23be
00000050: e9f9 ce3e ff8b 103e 88be 0ebe 87a0 e83e
00000060: 9163 5b3f a018 293c cc27 153e 24e3 c93c
00000070: 1556 25bf 84a4 033e 7dea 9cbd 9881 ee3c
00000080: f1a8 49be c03e 343e e729 0cbe a778 113f
00000090: 6f0e b0be 2ea4 393f 9c13 7a3f 90ea 13be
000000a0: f5fe 363f 90d9 fd3d 3c9a b9bd 5f81 323f
000000b0: 869c 193e b9b4 a63e fdc0 2cbf 0112 f23e
000000c0: 539a 88be 17c7 d73e d6cd 923c 8149 e3bd
000000d0: 1fe8 d63d fb1f 833f 7e2b 7e3e 638e 0e3d
000000e0: 37f9 373f 313f 3f3e 7c55 01be 701f 8ebd
000000f0: 80fe d5be 9756 983e 019c e7be e3e6 03bf
00000100: d52a 87be a9e8 24be a80a cabc 7ab0 5d3f
00000110: b15b 04bf b492 87be 23f9 be3e 1750 fb3e
00000120: 8700 21be 736b c9bd 2a90 8d3f e59d 9b3e
00000130: 3511 283f 7b77 e03e 1af3 b93f 1c6f b3be
00000140: 0b4e c8be 44cc 38be a54b c6be 6608 c23d
00000150: 4438 2bbf 962e ca3f 58ad 0abe 03b9 163f
00000160: 90c7 3b3e 1d0b a5be 94b6 4dbb f6f2 cc3c
00000170: baf8 e83d 59ae 83be 3984 26bf 3b2b 333f
00000180: 5ea1 b83d 5cc2 123c 45b4 ebbe aad9 b0be
00000190: e274 82be 9b5e 403f cd96 303f 8e4e c6be
000001a0: 61f0 74bd e733 ca3d eeb7 89bd da82 68bf
000001b0: edf2 a0bd 3ac0 0d3d d32e 2abe fefb 3dbe
000001c0: 7a76 7a3d 0732 3ebe e256 e83d 3498 6a3f
000001d0: 613e abbe d474 ae3d d209 603e b908 e2bc
000001e0: 48ba 9e3e fb5d bcbe 62e6 223f 054a 633f
000001f0: 416b a8bd 85ca f7be e4b3 f03e 1c98 343e
00000200: 51a2 813b 0751 9bba cdbc f63e fb79 163e
00000210: 2bed 643f 13e7 b23e b21c 903e 4d67 443f
00000220: 2571 c63d 6171 eebe 74c1 b63e bb24 203e
00000230: 948a efbe b744 bfbd d3ca 083e e9ed 693e
00000240: ded8 d83e 9c5e a5be 1639 8f3e 442d b3bd
00000250: c0b6 b73e 8655 02bf 481c 903e 0df9 d13d
00000260: e60c 503e eedc 93bd 749d dc3e 3e6c 09be
00000270: 67f5 0e3d ea8c 243f 88b2 1dbf 543c 69be
00000280: 99ab c9be a835 303f c890 253f c853 82be
00000290: 9042 57be d303 023f 3d0b c9be d69b 183f
000002a0: 6130 8abd fc78 2a3e cddf 553f d61e 18bd
000002b0: f2cf f03e 9990 9a3e 5709 1d3f e402 933e
000002c0: b163 d1be 8d01 9c3e a271 313f 26e2 a5bc
000002d0: 4a06 38be ea59 0dbe bddc a4be f018 48bc
000002e0: e7fc 563e dfef 653e 425f acbe f7b5 91be
000002f0: 6b53 c83e 0f4f 093f 6750 a2bd afdf b83e
00000300: c4e8 163c 36a3 98bd 843c bcbc 78f3 04be
00000310: 8727 df3e cf66 fe3e 417c bcbd 7840 f2bd
00000320: 7cea 60be 80b4 6f3e 481e 4f3e 0332 713e
00000330: a1ca 8f3e 27f4 40bf 64ee cbbe 4f8d 2e3f
00000340: 5326 6dbe 5fd8 fc3d 03e5 f0bd d46a f7be
00000350: 3ee2 703e ca7a 643e 1b0e 9c3e 2c1a 933d
00000360: 3ed8 98bd 2122 31bf b402 b6bd 1a6e a4be
00000370: 00ba 203e 697d 8c3d 7799 e93d 9ae8 d53e
00000380: ccde 8a3e 366f 92bd 9250 62be 83cf 3c3f
00000390: 380c 293e 8c96 2bbf c92a 9fbd f620 58bd
000003a0: 42ea b03f 7cdc 35bf ec56 9ebe ffbf f23e
000003b0: 0749 883e 5bad 00bf 9e09 c73e 021d 27bd
000003c0: f2a5 0a3f bde2 913e 8cb2 8d3e 70c0 6a3e
000003d0: 13c2 88bd 114e 6a3d ad88 313e ad35 0a3c
000003e0: c0c4 0a3f 7161 63be a150 f1be 6417 033e
000003f0: b32a 0bbe c1ab d63e 8c0a 30bf 0a92 013e

fc3.bias f4 [64]
0.35060626 -0.23631954 -0.035929907 0.07607868 0.561234 -0.013489868 0.07268519 0.24080852
0.22205354 -0.06720049 -0.08503202 0.15678169 0.6006556 0.06897674 0.25810426 0.111500524
1.063043 0.11195359 0.21812111 0.17622128 1.1877356 0.5149323 -0.14688061 0.07878642
0.15601262 -0.036329407 -0.11274243 0.52219677 0.7864911 0.12795037 0.3395648 0.60117024
0.17623979 -0.1377545 0.039786775 -0.18126366 1.3599863 -0.07229124 0.024834756 0.116117306
-0.08247141 0.100124896 -0.023594754 0.30785513 -0.02161034 -0.26540497 0.028959172 -0.037047755
0.18968955 0.33148223 -0.14949436 -0.3212975 0.0062679807 0.10474037 0.15933308 1.313801
-0.0021897 -0.14066093 0.26478258 -0.049146175 0.121104084 0.026434116 0.6967228 0.30759
00000000: aa82 b33e c0fd 71be 3d2b 13bd 24cf 9b3d
00000010: 08ad 0f3f 9b04 5dbc f9db 943d 8296 763e
00000020: 0162 633e 69a0 89bd 4525 aebd 618b 203e
00000030: 91c4 193f ad43 8d3d 3e26 843e 635a e43d
00000040: cb11 883f ec47 e53d 245b 5f3e 5a73 343e
00000050: b807 983f 9ad2 033f df67 16be c65a a13d
00000060: c6c1 1f3e 25ce 14bd 81e5 e6bd b0ae 053f
00000070: 7b57 493f 6c05 033e 70db ad3e 4be6 193f
00000080: 3478 343e 840f 0dbe 75f7 223d 2e9d 39be
00000090: 0814 ae3f 6e0d 94bd 4272 cb3c e9ce ed3d
000000a0: c5e6 a8bd 480e cd3d c949 c1bc 309f 9d3e
000000b0: 2b08 b1bc 29e3 87be c93b ed3c 63bf 17bd
000000c0: fa3d 423e 0ab8 a93e 0d15 19be 1b81 a4be
000000d0: a263 cd3b 1e82 d63d 3628 233e a22a a83f
000000e0: 1281 0fbb 6b09 10be 9591 873e 804d 49bd
000000f0: 6b05 f83d 5c8c d83c 6d5c 323f 707c 9d3e

fc4.weight f4 [30, 64]
0.020722918 -0.15837249 -0.06865106 -0.02425523 -0.24907237 -0.18237227 -0.021541454 0.009294833
0.024603127 0.039183844 0.05728676 0.010856202 0.8626523 -0.1262167 -0.017115852 0.07640045
0.19812705 -0.3585754 -0.34171793 0.026263164 0.3555252 -0.09564427 0.2708231 -0.06720047
-0.08082124 -0.036649503 0.17775205 -0.032632045 0.37593222 0.24247193 -0.11614787 0.0027073196
-0.067683965 0.017885048 0.03413778 -0.11419983 0.7862156 -0.0139119215 0.118961744 0.03578495
0.08230135 -0.061489437 -0.0005910807 -0.7652087 -0.08916092 -0.74881405 0.044585887 -0.06530635
-0.04655904 0.010162673 -0.012243192 -0.015148679 0.09707688 0.01233376 0.0014611398 0.44029433
0.3964531 0.12077707 0.10402474 -0.2529276 0.04817293 -0.21530715 0.27122444 0.0035398393
0.016022338 -0.10685425 0.107600585 0.039793566 -0.16479863 -0.1195231 -0.0150061725 0.0062355786
0.01291117 0.038157795 0.03452266 0.0012670265 0.57319653 -0.08330479 -0.010593472 0.052691508
0.12857309 -0.24300282 -0.22479467 0.013648297 0.23641121 -0.06197861 0.19024509 -0.044503774
-0.053826865 -0.024408316 0.11508121 -0.021189336 0.2518618 0.16455771 -0.078684315 0.0012481825
-0.0439107 0.013440594 -0.035966437 -0.07250157 0.5167533 -0.053491656 0.07938774 0.023252508
0.053010054 -0.039866336 0.0015100024 -0.5008076 -0.041385937 -0.5030013 -0.112970866 -0.06136395
-0.030353457 0.0074031944 -0.007700896 -0.009586658 0.06496401 0.0075805127 0.0011158301 0.29317972
0.26158386 0.080477975 0.067816995 -0.16468152 0.03302251 -0.14309894 0.17912546 0.001485669
0.013605839 -0.08427691 0.039210394 0.019291304 -0.1307789 -0.09452257 -0.012064021 0.0049923654
0.008992911 0.03110285 0.026603771 -0.0021837607 0.45561525 -0.065742046 -0.008153133 0.04278184
0.10104516 -0.19467051 -0.17853068 0.009127869 0.18835376 -0.04876691 0.15425052 -0.03555521
-0.04306329 -0.019536002 0.09021797 -0.016699035 0.20127337 0.13236374 -0.063033 0.000784849
-0.034558702 0.011455152 -0.061542705 -0.05602031 0.40895054 0.10679066 0.06310492 0.018332345
0.041464303 -0.031493355 0.10524252 -0.39467594 -0.083540134 -0.4024074 0.11122517 -0.07358605
-0.023911556 0.006098616 -0.00601622 -0.007485596 0.051720954 0.0059169657 0.0008158186 0.23368432
0.20664553 0.06407162 0.053442363 -0.12965064 0.026701605 -0.11340495 0.1421131 0.00076853915
0.02304408 0.019810691 -0.030015964 -0.057183642 -0.26706183 -0.47614458 -0.17823845 -0.00063293177
-0.008029846 0.060127243 0.13181338 -0.08110855 0.25504488 0.049875088 0.20139651 0.011208436
-0.03144748 0.09304771 -0.7544365 0.14502908 0.23739083 0.03238323 0.25655866 -0.036220443
0.12658012 0.021432288 0.46006802 0.001076002 0.0722708 -0.26570016 0.029618047 -0.0013009079
0.020452391 -0.046899326 -0.018926535 0.035600506 0.6129618 -0.10716985 -0.09712821 0.0749565
-0.10223773 -0.012204273 -0.002587807 -0.65129286 -0.112617135 0.13119532 0.054696877 -0.020143595
-0.04267303 0.056795232 -0.010115662 -0.020204976 0.04346551 0.054769427 -0.0007828852 1.0050783
-0.1473478 -0.22467543 0.59244657 -0.3469422 -0.06068119 0.3456993 -0.09878636 0.055538453
00000000: 1cc3 a93c 662c 22be ed98 8cbd e7b2 c6bc
00000010: d40c 7fbe ccbf 3abe b477 b0bc 5b49 183c
00000020: 7f8c c93c 3d7f 203d 86a5 6a3d 36de 313c
00000030: c8d6 5c3f f33e 01be 8b36 8cbc d777 9c3d
00000040: d1e1 4a3e 3297 b7be a7f5 aebe d925 d73c
00000050: 6607 b63e 25e1 c3bd 53a9 8a3e 66a0 89bd
00000060: 9b85 a5bd ca1d 16bd a204 363e 2ea9 05bd
00000070: 307a c03e 904a 783e efde edbd 496d 313b
00000080: e49d 8abd aa83 923c 0fd4 0b3d 9ae1 e9bd
00000090: 6d45 493f d4ee 63bc 37a2 f33d 3d93 123d
000000a0: 9c8d a83d 59dc 7bbd c1f2 1aba b8e4 43bf
000000b0: 009a b6bd 47b2 3fbf b19f 363d 56bf 85bd
000000c0: b1b4 3ebd 5781 263c ab97 48bc 2a32 78bc
000000d0: 3ed0 c63d 8a13 4a3c b783 bf3a 426e e13e
000000e0: e7fb ca3e f859 f73d ec0a d53d ba7f 81be
000000f0: fa50 453d 7a79 5cbe eedd 8a3e a6fc 673b
00000100: 4741 833c 67d6 dabd b25d dc3d 94fe 223d
00000110: f9c0 28be 87c8 f4bd 73dc 75bc d353 cc3b
00000120: 5f89 533c 594b 1c3d a267 0d3d 5b12 a63a
00000130: 02bd 123f b49b aabd 3e90 2dbc 0dd3 573d
00000140: aaa8 033e bbd5 78be 9330 66be 1b9d 5f3c
00000150: c815 723e 48dd 7dbd 9ccf 423e 9749 36bd
00000160: 8f79 5cbd f3f3 c7bc b3af eb3d 4295 adbc
00000170: 08f4 803e d181 283e 3e25 a1bd 0e9a a33a
00000180: b5db 33bd f035 5c3c 8b51 13bd b47b 94bd
00000190: f249 043f 111a 5bbd 0a96 a23d 0b7c be3c
000001a0: 1221 593d e24a 23bd 46eb c53a ed34 00bf
000001b0: 4d84 29bd b1c4 00bf 455d e7bd c458 7bbd
000001c0: d0a7 f8bc 7f96 f23b cc57 fcbb 5c11 1dbc
000001d0: da0b 853d f365 f83b 0c41 923a a71b 963e
000001e0: 52ee 853e a3d1 a43d a3e3 8a3d 46a2 28be
000001f0: 9d42 073d 8788 12be aa6c 373e c8ba c23a
00000200: 06eb 5e3c 5f99 acbd 149b 203d cc08 9e3c
00000210: e7ea 05be 0d95 c1bd 2ca8 45bc ff96 a33b
00000220: 0157 133c 67cb fe3c 27f0 d93c 6d1d 0fbb
00000230: 6746 e93e c4a3 86bd b894 05bc 033c 2f3d
00000240: c4f0 ce3d b557 47be bfd0 36be 0f8d 153c
00000250: cfdf 403e d0bf 47bd d9f3 1d3e 57a2 11bd
00000260: 2263 30bd f709 a0bc 33c4 b83d 6acc 88bc
00000270: 9b1a 4e3e 5c8a 073e 7217 81bd 53be 4d3a
00000280: 6d8d 0dbd 64ae 3b3c 3414 7cbd 8d75 65bd
00000290: f761 d13e 10b5 da3d 273d 813d b72d 963c
000002a0: 79d6 293d 2dff 00bd 6489 d73d f712 cabe
000002b0: 1717 abbd 5808 cebe 06ca e33d 48b4 96bd
000002c0: 2be2 c3bc e6d6 c73b b623 c5bb bb49 f5bb
000002d0: 5ad9 533d 1be3 c13b a9dc 553a f14a 6f3e
000002e0: e39a 533e fb37 833d 61e6 5a3d 23c3 04be
000002f0: 53bd da3c db40 e8bd 1986 113e ca77 493a
00000300: f0c6 bc3c 084a a23c 0ae4 f5bc 6539 6abd
00000310: 54bc 88be 39c9 f3be 2484 36be 55eb 25ba
00000320: 9d8f 03bc fc47 763d 16fa 063e 3d1c a6bd
00000330: 3e95 823e d249 4c3d e33a 4e3e 97a3 373c
00000340: 13cf 00bd cc8f be3d c022 41bf 8182 143e
00000350: 9516 733e 47a4 043d a85b 833e e35b 14bd
00000360: 389e 013e c492 af3c 098e eb3e a308 8d3a
00000370: b702 943d da09 88be 8ca1 f23c 3a83 aaba
00000380: c68b a73c 8219 40bd d20b 9bbc d6d1 113d
00000390: 11eb 1c3f de7b dbbd 28eb c6bd cb82 993d
000003a0: 0462 d1bd 6ef4 47bc 3298 29bb 21bb 26bf
000003b0: d0a3 e6bd 1158 063e d509 603d 2e04 a5bc
000003c0: eac9 2ebd 1ea2 683d 29bc 25bc e884 a5bc
000003d0: e408 323d e855 603d 893a 4dba 68a6 803f
000003e0: 57e2 16be 5111 66be 94aa 173f 68a2 b1be
000003f0: d78c 78bd 80ff b03e 8150 cabd 4a7c 633d

fc4.bias f4 [30]
7.268635 6.8968143 6.6002855 2.4560852 1.6589717 2.1219366 1.8671061 2.2926
1.4083967 -0.18154472 0.39419982 -0.7833557 -0.36914214 0.24867769 -0.7984569 -0.34509906
-0.22692932 -0.43599316 -0.29863957 0.12164327 -0.08461052 -0.3667086 0.077053316 0.096622646
-0.6774735 -0.1289586 -0.07493345 -0.54332143 -0.04232651 -0.049876638
00000000: a898 e840 b4b2 dc40 8a35 d340 8030 1d40
00000010: 2f59 d43f cfcd 0740 55fd ee3f f5b9 1240
00000020: 5846 b43f dce6 39be 8fd4 c93e 008a 48bf
00000030: 3300 bdbe 5da5 7e3e ac67 4cbf d3b0 b0be
00000040: 2960 68be 7f3a dfbe 49e7 98be 1b20 f93d
00000050: 4848 adbd 3bc1 bbbe 21ce 9d3d 18e2 c53d
00000060: e76e 2dbf b90d 04be b576 99bd 1d17 0bbf
00000070: 905e 2dbd 724b 4cbd

fc1.weight f4 [32, 7]
0.3117364 -0.5554854 -0.26438248 -0.5671869 -0.061789826 0.5465103 -0.011287014 -0.6555517
-0.3247023 0.5095001 0.02752143 0.0061640204 0.0027953496 0.0016405525 -1.0817375 1.4975023
-0.07248714 0.5365542 0.009005405 -0.015110223 0.0015248359 -0.596799 0.9387035 0.4482978
-0.9523965 -0.013570892 0.01403002 -0.00392685 0.02335424 -0.025686704 0.020483764 0.14764996
1.0071113 0.96172136 -0.032595746 -0.016635213 -0.27394918 0.03251253 0.0898303 0.19533546
-0.20478241 0.003520375 0.8774334 -0.99890304 -0.11717673 -0.8798272 -0.022992494 0.023458451
0.0017621337 -1.5159466 0.29742163 0.4063215 0.6514316 0.04273207 0.019904561 -0.0018806759
-0.13922937 0.5833021 -0.13482633 -0.501507 0.07013917 -0.3457695 -0.0053284704 -0.7127868
0.02480801 -0.75850207 0.5571522 -0.022159936 0.015495229 -0.0033669088 0.3399574 -0.361876
0.34204388 0.39979997 0.01056366 -0.015401155 -0.0032347913 1.2301195 1.2707118 0.13438043
0.24803786 0.029068276 0.011518694 -0.002067554 -1.0647699 -0.40937537 -1.3877764 -0.45009717
-0.013189301 0.016487682 -0.0034506703 1.3046718 0.42938673 1.2524316 -0.5089327 -0.011379452
-0.01663531 0.011511047 -0.58479434 -0.7185971 -0.099111855 0.3382805 0.0058365804 -0.02982646
0.0012878593 0.55211467 0.5603091 0.0626049 0.28072745 -0.0015482536 0.006172513 0.0031376928
-0.049026363 -1.115889 0.16816682 -1.22033 4.7830872e-05 0.011662617 -0.016071467 -0.022227576
-0.39761811 1.900704 -0.42780104 0.020531664 -0.000640502 -0.00040927943 -0.44161716 -0.45609692
-0.5545872 -0.16884553 0.0189077 -0.012283234 0.0011676897 0.755133 -0.41545904 0.8315882
0.044910062 0.018520033 -0.0062027215 -0.007453584 0.7994021 1.0724757 -0.5849126 0.45944166
0.0021720564 -0.0036311846 -0.0006593719 -0.16056177 0.29918885 0.16884726 -0.49506095 0.60322255
0.6009701 -0.012629726 0.89811635 1.055201 -0.083037846 0.86206645 0.024951013 -0.018259263
0.0043970845 0.92823005 -0.48497197 0.9647495 0.5529761 0.0033024743 0.039323006 -0.00037661532
-0.018529356 0.041706283 0.55377233 1.1099578 -0.005358299 0.06353719 -6.2784784e-05 -1.2253486
-1.1316158 0.081986584 0.609726 0.014440835 -0.017447455 -0.006079276 -0.83199096 -0.20601375
-0.83117867 0.23479874 0.013479262 0.0014058747 0.0020434062 0.7408232 0.18328787 0.868311
0.3758722 0.0018937154 0.024994414 -0.00048663284 -0.1171955 -0.0046794564 0.2525003 0.37579417
-0.27996325 0.3384936 -0.008104093 1.7421731 -1.2679266 -0.16120271 0.37188476 0.015521914
-0.023193642 -0.008858422 0.9238464 0.96013045 -0.022350874 -0.5863384 -0.012966994 0.032170765
-0.0011085746 0.055741426 0.596782 0.12315011 -0.2795347 -0.38518408 0.14063875 0.0006730323
00000000: ea9b 9f3e 4b34 0ebf 245d 87be 2933 11bf
00000010: 5417 7dbd 19e8 0b3f 2bed 38bc 3cd2 27bf
00000020: 613f a6be 996e 023f 9f74 e13c 8dfb c93b
00000030: 2f32 373b cf07 d73a 6076 8abf 28ae bf3f
00000040: 2374 94bd 9e5b 093f 688b 133c de90 77bc
00000050: 01dd c73a d2c7 18bf df4e 703f 4a87 e53e
00000060: 42d0 73bf 7258 5ebc 2bde 653c ceac 80bb
00000070: 6451 bf3c ec6c d2bc 91cd a73c 8d31 173e
00000080: 06e9 803f 5f33 763f 1e83 05bd 9246 88bc
00000090: 1143 8cbe dc2b 053d f3f8 b73d 0506 483e
000000a0: 7bb2 51be 17b6 663b 7a9f 603f 1cb8 7fbf
000000b0: 5afa efbd 5b3c 61bf c15a bcbc f02b c03c
000000c0: 65f7 e63a 8a0a c2bf a647 983e 5f09 d03e
000000d0: 39c4 263f d307 2f3d e40e a33c 0381 f6ba
000000e0: 2592 0ebe 4953 153f ea0f 0abe c362 00bf
000000f0: 20a5 8f3d b308 b1be 739a aebb 3279 36bf
00000100: 2b3a cb3c 312d 42bf 87a1 0e3f c188 b5bc
00000110: b3df 7d3c 5ba7 5cbb e50e ae3e d047 b9be
00000120: 6020 af3e 95b2 cc3e 3413 2d3c 2055 7cbc
00000130: cbfe 53bb 8e74 9d3f afa6 a23f 069b 093e
00000140: a3fd 7d3e 9820 ee3c e8b8 3c3c cd7f 07bb
00000150: 614a 88bf a699 d1be a8a2 b1bf 2373 e6be
00000160: f017 58bc 2d11 873c a424 62bb 7cff a63f
00000170: 94d8 db3e ae4f a03f 6a49 02bf e270 3abc
00000180: c646 88bc d598 3c3c 15b5 15bf fbf5 37bf
00000190: 28fb cabd 1a33 ad3e c940 bf3b 9f56 f4bc
000001a0: 63cd a83a 6357 0d3f 6b70 0f3f ff36 803d
000001b0: 82bb 8f3e c5ee caba cb42 ca3b c0a1 4d3b
000001c0: decf 48bd 73d5 8ebf ec33 2c3e c633 9cbf
000001d0: 029e 4838 9014 3f3c 4fa8 83bc 9b16 b6bc
000001e0: 9a94 cbbe 454a f33f bd08 dbbe 0532 a83c
000001f0: 5de7 27ba 8e94 d6b9 a51b e2be 8985 e9be
00000200: 6df9 0dbf d8e5 2cbe 52e4 9a3c 9e3f 49bc
00000210: 2a0d 993a 6550 413f 0cb7 d4be f7e2 543f
00000220: 9df3 373d 53b7 973c 3340 cbbb 323d f4bb
00000230: 9ea5 4c3f e246 893f d5bc 15bf f03b eb3e
00000240: 0f59 0e3b 2bf9 6dbb b3d9 2cba 4e6a 24be
00000250: 482f 993e 4ce6 2c3e a178 fdbe cb6c 1a3f
00000260: 2dd9 193f e9ec 4ebc f4ea 653f d410 873f
00000270: bf0f aabd 63b0 5c3f 1166 cc3c 7394 95bc
00000280: 6b15 903b 7ca0 6d3f 3f4e f8be d3f9 763f
00000290: d78f 0d3f 536e 583b 2911 213d 7474 c5b9
000002a0: e0ca 97bc 35d4 2a3d 06c4 0d3f 1913 8e3f
000002b0: ab94 afbb c91f 823d 53ab 83b8 39d8 9cbf
000002c0: c9d8 90bf 95e8 a73d 0117 1c3f 4199 6c3c
000002d0: f7ed 8ebc aa34 c7bb 5cfd 54bf 45f5 52be
000002e0: 20c8 54bf 156f 703e 1fd8 5c3c 5445 b83a
000002f0: abea 053b 97a6 3d3f d1af 3b3e a149 5e3f
00000300: 5272 c03e 8b36 f83a 16c1 cc3c c122 ffb9
00000310: 3204 f0bd 2056 99bb b847 813e 1868 c03e
00000320: 5857 8fbe 084f ad3e 08c7 04bc 87ff de3f
00000330: 6b4b a2bf 5312 25be ae67 be3e a04f 7e3c
00000340: 9800 bebc ea22 11bc 3381 6c3f 1ccb 753f
00000350: 2e19 b7bc 461a 16bf 8473 54bc 7ec5 033d
00000360: 974d 91ba 1f51 643d b5c6 183f 2036 fc3d
00000370: 2c1f 8fbe d936 c5be 9b03 103e 6f6e 303a

fc1.bias f4 [32]
1.3638952 1.0853581 0.47227955 0.36717075 -0.27920318 1.9467516 0.9130593 -0.23289424
2.2007568 1.0738626 1.6018512 -0.18269879 -0.26866215 -0.07032753 1.1046671 1.0461458
-0.12488913 -0.55171067 0.84688073 0.6962608 -0.69421405 1.345545 -0.007585717 0.0033819396
1.6877084 0.25967896 -0.74589956 0.9367625 1.4376147 -1.0603153 0.5575223 1.7669489
00000000: 1e94 ae3f 04ed 8a3f a0ce f13e cefd bb3e
00000010: b8f3 8ebe 282f f93f 41be 693f d47b 6ebe
00000020: 33d9 0c40 5474 893f 7609 cd3f 6415 3bbe
00000030: 168e 89be e107 90bd bb65 8d3f 1be8 853f
00000040: dfc5 ffbd e93c 0dbf 2dcd 583f 263e 323f
00000050: 03b8 31bf d23a ac3f 9b91 f8bb 88a3 5d3b
00000060: d406 d83f a4f4 843e 46f3 3ebf abcf 6f3f
00000070: c203 b83f 69b8 87bf c8b9 0e3f 622b e23f

fc2.weight f4 [128, 32]
0.07737395 0.26195693 -0.15295489 0.23417562 0.13906892 -0.05195039 0.16595599 0.10740163
0.34646216 0.33352125 0.32368627 0.4088575 0.1814627 0.44798353 0.4417048 0.17471074
0.13088231 0.2464121 0.4033878 0.07294416 -0.14266409 0.23327053 0.22247474 0.058224995
0.19407581 0.036306873 -0.024902796 0.34059578 0.11558197 -0.057613716 -0.12338403 0.14076582
0.369747 0.24881944 -1.0821776 -0.6859324 -0.02937076 0.5114607 0.04959281 -0.9415053
0.011212197 -0.43403393 0.67180246 0.6525489 -0.18120661 0.35925397 0.42034727 0.104062825
-0.5348843 -0.015646273 0.03792837 0.10122008 0.84939563 -0.10833191 0.15016665 -0.6769444
0.40620446 0.54490715 0.52176726 0.22769295 0.13291723 -0.34507993 0.08099084 -0.13092528
-0.10863485 0.07049847 0.26585907 0.19071214 -0.14337602 -0.21757111 0.43610647 0.24347116
-0.18145676 0.6290046 -0.43675095 -0.33237797 0.5332546 -0.39794686 0.30815008 -0.24815615
0.02762568 0.21367438 0.012389571 0.16842408 -0.115416534 0.142137 -0.97690725 0.6206234
0.76175207 -0.0014519352 -0.8887244 -0.32163256 -0.23698357 0.27497113 0.016054906 -0.095608786
0.02348596 0.039961357 0.1053205 0.24038887 -0.54753125 0.13468897 0.38346356 -0.15090364
0.33599257 -0.048834987 -0.05780228 0.020218568 -0.0042863903 -0.30021647 0.29468438 0.06957668
-0.0041406476 0.14052063 -0.17888655 0.000576782 -0.04294179 0.18042497 0.3268626 -0.04769154
0.1818337 0.13267386 -0.15380587 -0.26853728 -0.10248039 0.15939948 0.0614936 0.10053169
0.08052623 0.0006749223 -0.25066802 -0.5101109 0.12594035 0.44092536 -0.26339528 0.07435338
0.15103468 -0.55955803 0.3904368 0.26235193 -0.43416744 -0.062294792 0.43496218 0.09102341
-0.035826337 -0.08976489 -0.25408423 -0.09945783 -0.018797167 -0.061484575 -0.020088634 0.032136183
-0.015533321 -0.21746042 0.695366 0.36357322 0.25974217 0.050691828 -0.15042181 0.25770405
-0.13673505 -0.15928115 0.11717573 -0.27437374 0.054610882 0.43845755 -0.026291594 0.043495715
0.2590887 0.1650029 -0.047244493 -0.2540675 0.115131535 0.010663215 0.22961383 0.15370306
-0.09306573 -0.228522 -0.30515376 -0.040104985 0.21963237 0.12535392 0.27547595 0.037558656
-0.508354 -0.14877619 -0.7864501 0.6597174 0.3298894 -0.40368932 -0.12657164 0.31048325
0.10051415 -0.15650648 0.046210792 -0.5517411 0.09679135 0.28812948 -0.0029697788 0.10171817
0.25947836 0.20562164 0.45003548 0.06465305 -0.928776 -0.19983357 -0.28670102 0.08648334
-0.13544211 0.18605623 -0.28522813 -0.08777423 0.056268305 0.014220535 0.17425378 -0.36741263
0.21079232 0.1722903 0.083991714 -0.0050252792 0.17405023 -0.20982005 -0.057124548 0.24745578
-0.066601664 0.11353731 0.30316222 0.15749305 -0.13194817 -0.29779002 -0.13684848 -0.6261515
0.16962966 0.36030856 -0.8879748 -0.014908082 0.011209732 0.4100667 -0.41644046 -0.50088996
0.2583636 -0.28194463 -0.13180478 -0.18637753 0.07088098 0.30266425 0.2606785 0.5029035
-0.19704573 0.58058274 0.03975983 -0.29494172 -0.080925375 0.3845817 0.21843232 0.13804455
00000000: 3c76 9e3d 381f 863e 35a0 1cbe bccb 6f3e
00000010: 1568 0e3e efc9 54bd 5ef0 293e 63f5 db3d
00000020: 7d63 b13e 4cc3 aa3e 35ba a53e c555 d13e
00000030: 5cd1 393e 195e e53e 2227 e23e 5fe7 323e
00000040: 0306 063e 7453 7c3e d988 ce3e bf63 953d
00000050: 8916 12be 78de 6e3e 6bd0 633e 557d 6e3d
00000060: cfbb 463e 84b6 143d f300 ccbc 9262 ae3e
00000070: 3db6 ec3d 5cfc 6bbd c4b0 fcbd ea24 103e
00000080: 7b4f bd3e 86ca 7e3e cc84 8abf 4499 2fbf
00000090: f39a f0bc 17ef 023f d521 4b3d 7e06 71bf
000000a0: 5db3 373c b239 debe 3ffb 2b3f 720d 273f
000000b0: 3a8e 39be 23f0 b73e c237 d73e e41e d53d
000000c0: 2dee 08bf 9d2c 80bc c75a 1b3d 794c cf3d
000000d0: fe71 593f 1fdd ddbd 49c5 193e 3a4c 2dbf
000000e0: 08fa cf3e 097f 0b3f 8a92 053f 5728 693e
000000f0: 741b 083e 51ae b0be 87de a53d 4711 06be
00000100: f37b debd 8061 903d ae1e 883e 0b4a 433e
00000110: 2ad1 12be f6ca 5ebe 5949 df3e 8150 793e
00000120: cdcf 39be 7206 213f d29d dfbe 722d aabe
00000130: 6083 083f b1bf cbbe d9c5 9d3e a51c 7ebe
00000140: 404f e23c 75cd 5a3e a1fd 4a3c 5d77 2c3e
00000150: 815f ecbd 5d8c 113e 9816 7abf 2de1 1e3f
00000160: 2f02 433f dc4e beba 7183 63bf 06ad a4be
00000170: d2ab 72be 04c9 8c3e 9485 833c 8ace c3bd
00000180: a165 c03c 85ae 233d 46b2 d73d 8028 763e
00000190: 022b 0cbf e8eb 093e 5655 c43e 7c86 1abe
000001a0: 3807 ac3e 3207 48bd 15c2 6cbd 69a1 a53c
000001b0: d974 8cbb f9b5 99be dfe0 963e 387e 8e3d
000001c0: 45ae 87bb a4e4 0f3e 092e 37be 2f33 173a
000001d0: bbe3 2fbd 53c1 383e 895a a73e 3458 43bd
000001e0: 9d32 3a3e a8db 073e 497f 1dbe b87d 89be
000001f0: 3de1 d1bd 9e39 233e b7e0 7b3d 8fe3 cd3d
00000200: f0ea a43d 45ed 303a 8f57 80be a196 02bf
00000210: 82f6 003e f8c0 e13e bfdb 86be 9646 983d
00000220: d6a8 1a3e 323f 0fbf 55e7 c73e fe52 863e
00000230: 324b debe d328 7fbd 5db3 de3e 7b6a ba3d
00000240: a3be 12bd a8d6 b7bd 5417 82be 8cb0 cbbd
00000250: 84fc 99bc 40d7 7bbd eb90 a4bc 3ba1 033d
00000260: 787f 7ebc f2ad 5ebe 8203 323f 4526 ba3e
00000270: edfc 843e 3ca2 4f3d 2d08 1abe c9f1 833e
00000280: 4604 0cbe 991a 23be d4f9 ef3d b77a 8cbe
00000290: a9af 5f3d 827d e03e 7861 d7bc 9028 323d
000002a0: 46a7 843e 85f6 283e 7183 41bd 2315 82be
000002b0: 15ca eb3d c4b4 2e3c e31f 6b3e 5664 1d3e
000002c0: 3f99 bebd ac01 6abe 1d3d 9cbe 2045 24bd
000002d0: 4fe7 603e c75c 003e 2f0b 8d3e 1bd7 193d
000002e0: 7d23 02bf c958 18be cb54 49bf 3de3 283f
000002f0: 43e7 a83e 5eb0 cebe ff9b 01be a9f7 9e3e
00000300: 5dda cd3d 3c43 20be 8747 3d3d e83e 0dbf
00000310: 8b3a c63d b585 933e 9fa0 42bb 9e51 d03d
00000320: 59da 843e 7b8e 523e 0d6b e63e d168 843d
00000330: 44c4 6dbf 2ca1 4cbe 7aca 92be 2d1e b13d
00000340: 56b1 0abe 8685 3e3e 6c09 92be fac2 b3bd
00000350: 9879 663d 3ffd 683c 956f 323e 821d bcbe
00000360: f1d9 573e de6c 303e d903 ac3d 19ab a4bb
00000370: 393a 323e 11db 56be 6efb 69bd 0c65 7d3e
00000380: 7466 88bd 4086 e83d 1438 9b3e dc45 213e
00000390: 6c1d 07be ef77 98be 0222 0cbe 774b 20bf
000003a0: 66b3 2d3e 5d7a b83e 5152 63bf 0741 74bc
000003b0: 06a9 373c 43f4 d13e af37 d5be 533a 00bf
000003c0: 3c48 843e 0c5b 90be d5f7 06be c0d9 3ebe
000003d0: 0c2a 913d cff6 9a3e a777 853e 49be 003f
000003e0: 5bc6 49be 12a1 143f 34db 223d 9a02 97be
000003f0: 34bc a5bd e5e7 c43e b9ac 5f3e 8d5b 0d3e

fc2.bias f4 [128]
0.3255636 0.27478606 -0.018970639 0.1819539 0.42568353 0.35672206 0.7201115 0.05739749
0.48237953 0.63149816 -0.05518563 0.22618811 0.6657673 0.42020005 0.20666845 0.080950245
0.5031932 0.4807372 0.6978706 0.46853992 0.71749127 0.23067366 0.42164755 0.5026205
0.9123614 0.66001225 -0.3597562 0.6831358 -0.10976319 0.54157615 0.23430386 0.726888
0.9899287 0.41995427 0.48252138 0.55540854 0.68717396 0.35401377 0.5289237 0.47800207
0.77227557 0.4514252 0.5120116 0.27709705 0.45665416 0.58608925 0.20497255 0.09904918
0.33061734 0.14556167 0.4121019 0.83041495 0.80453044 0.15685658 0.5153721 -0.08887681
0.69598484 0.05238155 0.49145004 0.6955174 0.12109693 0.35849157 0.20106995 0.49133644
0.25890735 0.50246227 0.09154469 0.27738756 0.1385735 0.32605416 0.41963074 0.63595736
0.512323 0.5357614 0.2845373 0.3065937 0.22888675 0.50918484 0.74642867 0.18095183
1.0522825 0.011326215 0.4813073 0.4659397 0.3067729 0.07911651 0.38975567 0.24503285
0.73801214 0.7492662 0.41888747 0.56169504 0.8097235 0.5962694 0.51058424 0.3062853
0.7384136 0.6452099 0.18173486 0.16307473 0.56217426 0.42591402 0.6357157 0.15108064
0.6949593 0.41808403 -0.21021762 -0.07802004 -0.41175464 -0.2359591 0.39469835 0.52715105
0.6652629 0.3451455 0.023426246 0.58149374 0.385254 0.09548901 0.26641983 0.5523489
0.5850694 0.44326055 0.6393235 0.4915241 0.8105981 0.62746567 0.9004349 0.5209092
00000000: 46b0 a63e c2b0 8c3e 5068 9bbc 2052 3a3e
00000010: 31f3 d93e 46a4 b63e 3a59 383f a119 6b3d
00000020: 73fa f63e dda9 213f 540a 62bd db9d 673e
00000030: ba6f 2a3f 7624 d73e e5a0 533e 3ec9 a53d
00000040: 45d1 003f 3023 f63e a6a7 323f 77e4 ef3e
00000050: 82ad 373f b735 6c3e 30e2 d73e bdab 003f
00000060: 8490 693f 90f6 283f f731 b8be fde1 2e3f
00000070: 86cb e0bd bca4 0a3f 5aed 6f3e 5515 3a3f
00000080: f86b 7d3f 3f04 d73e 0b0d f73e 412f 0e3f
00000090: a2ea 2f3f 4b41 b53e 8b67 073f b0bc f43e
000000a0: dab3 453f 3421 e73e 3113 033f aadf 8d3e
000000b0: 93ce e93e f209 163f 53e4 513e 4cda ca3d
000000c0: ad46 a93e 1e0e 153e 05ff d23e 1396 543f
000000d0: b5f5 4d3f 039f 203e 6def 033f 0c05 b6bd
000000e0: 102c 323f 098e 563d 579f fb3e 6e0d 323f
000000f0: ab01 f83d 358c b73e 48e5 4d3e 7390 fb3e
00000100: 818f 843e 5ea1 003f c87b bb3d be05 8e3e
00000110: 36e6 0d3e 92f0 a63e d7d9 d63e 1ace 223f
00000120: 9a27 033f a927 093f dfae 913e d9f9 9c3e
00000130: 4a61 6a3e f059 023f f315 3f3f 704b 393e
00000140: 31b1 863f 9791 393c e96d f63e a68f ee3e
00000150: 5611 9d3e d607 a23d 0e8e c73e e4e9 7a3e
00000160: 5dee 3c3f e9cf 3f3f 6b78 d63e 3fcb 0f3f
00000170: 0a4a 4f3f 1da5 183f a6b5 023f 6dd1 9c3e
00000180: ac08 3d3f 7a2c 253f b418 3a3e 10fd 263e
00000190: a7ea 0f3f 6711 da3e 44be 223f e2b4 1a3e
000001a0: dae8 313f 1c0f d63e 4a43 57be f9c8 9fbd
000001b0: 81d1 d2be 439f 71be e715 ca3e 5ff3 063f
000001c0: ab4e 2a3f e9b6 b03e 66e8 bf3c c6dc 143f
000001d0: 0340 c53e be8f c33d 2e68 883e bd66 0d3f
000001e0: 1cc7 153f 0cf3 e23e b4aa 233f 0ca9 fb3e
000001f0: 5b83 4f3f 97a1 203f e782 663f 4e5a 053f
