logs/sdf_single_all_distances/state_118.pt (torch, 122521 bytes, 16 tensors)

fc1.weight f4 [32, 7]
000000 c9 d8 98 3e 81 e0 0d bf c9 20 88 be d6 40 09 bf
       0.29852894 -0.5542069 -0.26587513 -0.53614557
000010 b3 f7 4a bd f1 0d 0a 3f aa d6 26 bc 7e 66 1d bf
       -0.04955263 0.5392752 -0.010183016 -0.61484516
000020 d3 48 9b be 97 df f9 3e e9 ed 00 3d 66 39 c8 3b
       -0.30328998 0.48803398 0.03147689 0.006110358
000030 7f ba 8e 3b 72 5e 0c 3b c6 f9 83 bf 20 81 b6 3f
       0.004355728 0.0021418598 -1.03106 1.4258156
000040 f8 7f 98 bd f8 8f 0b 3f 2c f5 21 3c 69 9d 00 bc
       -0.07446283 0.54516554 0.009885114 -0.0078500295
000050 06 22 b5 3a 2d e0 16 bf 95 80 68 3f 42 f1 dc 3e
       0.0013819344 -0.58935815 0.908212 0.43152815
000060 0e 25 68 bf c0 6b 63 bc 8d d6 c2 3c d4 51 4c bb
       -0.9068154 -0.01388067 0.023783946 -0.0031176703
000070 2b 01 ca 3c bf 88 b8 bc 0d d3 96 3c 4c b9 33 3e
       0.02465876 -0.022526143 0.018411184 0.17551154
000080 3f 9e 78 3f 85 1e 6f 3f 68 20 02 bd a7 4c 7b bc
       0.97116464 0.93405944 -0.031769186 -0.0153381
000090 de 63 82 be f9 81 d7 3c 38 40 f0 3d 88 32 31 3e
       -0.25466818 0.026307093 0.11730999 0.17304432
0000a0 c9 3b 47 be 80 4c 3b 3b 3c 48 58 3f e5 af 71 bf
       -0.194564 0.0028579533 0.8448522 -0.9440902
0000b0 1b c6 e7 bd e9 c9 53 bf 6a 02 df bc 9d f0 87 3c
       -0.113170825 -0.82729965 -0.02722283 0.016594226
0000c0 fb 45 20 3b 76 8f b8 bf 26 f0 70 3e a3 2d c5 3e
       0.0024455774 -1.4418781 0.2352911 0.3851138
0000d0 24 6f 1a 3f ed 3a 2b 3d 3e 5e b6 3c 27 0c f8 ba
       0.6032584 0.041804243 0.022261735 -0.001892452
0000e0 36 02 06 be ff fc 15 3f 38 dd fe bd d3 fe f1 be
       -0.13086781 0.58589166 -0.12444538 -0.47264728
0000f0 c0 1b a0 3d 23 81 a2 be 32 72 95 bb f9 8e 2c bf
       0.07817793 -0.31739148 -0.0045607323 -0.6740566
000100 2e 81 ee 3c 88 f4 3a bf 13 a4 08 3f dc f6 be bc
       0.029114332 -0.73029375 0.5337536 -0.023311071
000110 55 5d 9d 3c c3 bf 5a bb cb 46 a7 3e 9f c6 b6 be
       0.019209543 -0.003337846 0.32671198 -0.3569841
000120 5a 05 a4 3e 55 8e bd 3e 96 f2 82 3c ec 6f a9 bc
       0.32035333 0.37022653 0.015984815 -0.020683251
000130 cf 84 47 bb eb ea 98 3f d5 d8 9b 3f da 4e 08 3e
       -0.003044415 1.1946691 1.2175547 0.1331133
000140 92 7c 82 3e 60 0a 09 3d 3c 05 fe 3b 8d 36 1a bb
       0.25485665 0.03345716 0.007752089 -0.002353105
000150 c1 fd 84 bf bf 45 ca be c6 a5 a9 bf 3b ee d4 be
       -1.038994 -0.39506337 -1.3253715 -0.41588005
000160 4c 24 27 bc e3 47 5d 3c 95 18 eb ba 22 b5 9f 3f
       -0.010201525 0.013505909 -0.0017936403 1.2477152
000170 43 cb d8 3e dd 31 99 3f 9a 4e f0 be 5a d4 92 bc
       0.42342576 1.1968342 -0.46934968 -0.017923523
000180 8a b9 ef bb 94 42 25 3c 51 83 11 bf d4 0e 2f bf
       -0.007315819 0.010086674 -0.56841 -0.68382
000190 ff 21 bf bd 6f ef a6 3e 3c 85 0c 3c e9 a9 af bc
       -0.09332656 0.32604548 0.008576687 -0.021443324
0001a0 78 9c 73 37 bf e7 0a 3f 25 de 0a 3f b1 66 89 3d
       1.4520359e-05 0.54259866 0.54245216 0.0670904
0001b0 15 f3 87 3e 0c 4d b7 ba 0f 91 a4 3b 7b 45 3f 3b
       0.26552644 -0.0013984754 0.005022175 0.00291857
0001c0 d7 29 84 bd 5c da 8a bf f6 f6 22 3e de ae 95 bf
       -0.06453293 -1.0847888 0.1591452 -1.169399
0001d0 b6 5b 4d 3c 3a 35 ee 3c 09 38 5b bc cb be 08 bd
       0.012534073 0.029078115 -0.013380059 -0.03338508
0001e0 10 e4 c3 be b2 20 e5 3f da cc c5 be b9 c4 c9 3c
       -0.38259935 1.7900603 -0.38632852 0.024629937
0001f0 8d 7e ee 3b 2f 27 43 ba 41 9d df be 0d 5a e6 be
       0.0072782696 -0.00074444985 -0.43674663 -0.44990578
000200 b6 cb 0a bf 8d a2 35 be 79 e8 9a 3c 42 bf e4 bb
       -0.5421709 -0.1773779 0.01890968 -0.0069808075
000210 02 a6 0d 3a e6 8c 3c 3f 83 a5 c2 be 1b f2 4c 3f
       0.000540346 0.73652494 -0.380169 0.80056924
000220 9e da 70 3d 14 35 93 3c 72 c1 38 bb db da cd bb
       0.05880224 0.017969646 -0.0028191474 -0.006282193
000230 0e c1 47 3f e8 6a 84 3f 85 e9 11 bf 17 02 df 3e
       0.78028953 1.0345125 -0.5699695 0.43556282
000240 92 d7 a2 ba 3f 4e 13 bc 55 78 22 bb 0d 7e eb bd
       -0.0012423864 -0.008990823 -0.0024790962 -0.11498652
000250 69 df 9c 3e 05 8a 02 3e ed 1b fa be 84 5b 14 3f
       0.30639198 0.12747963 -0.4884943 0.5795214
000260 40 94 0a 3f 56 0d 4a bc 8c cd 5f 3f 9c 38 82 3f
       0.5413246 -0.012332281 0.87423015 1.0173526
000270 af c4 a3 bd 11 9c 56 3f de be 96 3c cb 00 c5 bc
       -0.07996499 0.8383189 0.01840156 -0.02404823
000280 87 fd 37 3b 3a 60 65 3f 81 44 e8 be d6 e3 70 3f
       0.0028074698 0.89599955 -0.45364764 0.9409765
000290 a0 be 04 3f 0d 5b 82 3b 56 20 00 3d cc 4d b1 3a
       0.5185337 0.0039781393 0.031280838 0.0013527214
0002a0 ad b7 ab bc 43 26 0d 3d 71 f3 07 3f ca f7 87 3f
       -0.020961607 0.034460317 0.5310584 1.0622494
0002b0 1d 92 cc bb dc 8d 73 3d 0b 0e 33 3a c3 a6 93 bf
       -0.006243004 0.05946146 0.00068304007 -1.1535267
0002c0 4b 03 8b bf a8 66 aa 3d 72 5a 11 3f bf 01 80 3c
       -1.086038 0.083203614 0.56778634 0.015625833
0002d0 f7 1a 00 bc d0 77 c5 bb b9 33 4b bf 2e 50 4d be
       -0.007818929 -0.0060262457 -0.793758 -0.20050117
0002e0 7d 66 4b bf e3 2e 67 3e 4e 38 36 3c 51 fb 68 bb
       -0.7945326 0.2257648 0.0111218225 -0.0035550187
0002f0 42 07 ce 3a be 9e 30 3f 93 4e 35 3e cc e9 4d 3f
       0.0015718716 0.6899222 0.17705755 0.8043487
000300 1e 07 b4 3e af ae 4e 3b f9 c6 c7 3c 06 10 63 b9
       0.3516168 0.0031537225 0.02438687 -0.00021654376
000310 b6 b1 01 be 3f eb f3 bc de af 93 3e 70 5f a9 3e
       -0.12665448 -0.02977526 0.28845114 0.33080626
000320 ab 70 86 be 40 df a2 3e 2b c4 d4 bb 87 a6 d7 3f
       -0.26257834 0.3181095 -0.0064931116 1.6847695
000330 dc 38 9b bf 5a 26 1b be dc bd be 3e 99 a7 9a 3c
       -1.2126727 -0.15151349 0.37254226 0.018878745
000340 32 f2 5c bc ee 9b 15 bc 7c 37 63 3f 13 99 6f 3f
       -0.013485478 -0.009131415 0.8875654 0.9359295
000350 81 66 36 bc d7 b5 12 bf b3 01 3f bc 18 d5 29 3d
       -0.011132837 -0.57308716 -0.01165812 0.041462988
000360 ef 1f 33 bb 7e 5b 1c 3d 06 e5 10 3f cc 69 ed 3d
       -0.0027332266 0.03817319 0.5659946 0.11592445
000370 d5 37 8e be e3 c1 ba be 43 0f 17 3e 04 31 d5 3a
       -0.2777697 -0.3647605 0.14751916 0.0016265218

fc1.bias f4 [32]
000000 21 2a a8 3f c9 f5 83 3f 5a b3 ef 3e e8 44 b9 3e
       1.3137857 1.0309383 0.46816522 0.36185384
000010 32 5f 5b be b3 4d f0 3f 80 c9 67 3f a9 84 80 be
       -0.21423033 1.8773712 0.9054184 -0.25101212
000020 de 0c 06 40 9e e9 81 3f 69 e3 c2 3f 76 00 31 be
       2.0945354 1.0149419 1.522565 -0.17285332
000030 7e a7 88 be 34 04 8a bc 4f 76 85 3f ff 36 83 3f
       -0.26690286 -0.016847707 1.042673 1.0251158
000040 61 d3 05 bd 01 82 f8 be f5 be 4b 3f 03 72 2a 3f
       -0.03267229 -0.48536685 0.7958825 0.6658022
000050 7e 0a 31 bf e8 b4 a3 3f e5 32 05 bc aa b7 93 bc
       -0.69156635 1.2789583 -0.00812981 -0.018031914
000060 f1 a2 cf 3f a0 aa 5e 3e 0e 8f 33 bf ea 4c 5e 3f
       1.6221601 0.21744776 -0.7014016 0.8683611
000070 39 7f b1 3f cf 1e 79 bf 95 63 f2 3e 4b ae d5 3f
       1.386695 -0.97312635 0.473416 1.6693815

fc2.weight f4 [128, 32]
000000 cd a2 85 3d 81 cd 8a 3e d7 8a f6 bd a8 0d 6b 3e
       0.065251924 0.27109912 -0.120382 0.22954428
000010 ed 86 0c 3e db eb 26 bd 23 2e 2d 3e 37 41 94 3d
       0.13723345 -0.040752273 0.16912131 0.07239001
000020 5a 2f af 3e f5 77 a0 3e 7a b3 a2 3e 5b b2 e2 3e
       0.34215814 0.3134152 0.31777555 0.442767
000030 2c 15 2e 3e d4 c8 df 3e 75 8f d4 3e 35 9f 31 3e
       0.17000264 0.43707907 0.415157 0.17345889
000040 ad 4e 03 3e a1 4a 75 3e bf 1b cd 3e 68 f9 9a 3d
       0.12822981 0.2395425 0.4006023 0.07567102
000050 70 3b 14 be 0d a0 62 3e 6e 09 6b 3e 44 65 a4 3d
       -0.14475799 0.22131367 0.22952816 0.080271274
000060 bf 99 2e 3e b1 8c 4e 3d ad 3a 2f bd f6 5a a6 3e
       0.17050837 0.050427143 -0.042780567 0.32491273
000070 55 7a 02 3e bc 60 22 bd 83 a1 f7 bd d1 28 03 3e
       0.12741978 -0.039643034 -0.12091353 0.12808539
000080 d6 28 b2 3e 83 2a 8d 3e 76 2e 82 bf 72 d7 28 bf
       0.3479678 0.27571496 -1.0170429 -0.65953743
000090 ab 3e 38 bc 6d a2 02 3f 2b 55 46 3d 09 df 78 bf
       -0.01124541 0.5102909 0.048421066 -0.97215325
0000a0 57 fb bd 3c cc b0 a7 be d4 7a 24 3f 2e 1b 17 3f
       0.023191137 -0.32752073 0.6424992 0.5902585
0000b0 2b 4a 3f be b4 97 ac 3e 4a 74 de 3e e1 9f bb 3d
       -0.18680637 0.3370949 0.43448097 0.09161354
0000c0 01 ac fb be b1 2f 06 bd bd c5 e3 bc 21 0b 8e 3d
       -0.49154666 -0.032760326 -0.02780425 0.069357164
0000d0 99 b8 47 3f 91 c5 c1 bd ea 99 eb 3d 29 94 2a bf
       0.7801605 -0.09461511 0.11503966 -0.66632324
0000e0 1f 86 e7 3e eb e0 03 3f bf 6a f2 3e 88 b3 4a 3e
       0.45219514 0.5151507 0.47347066 0.19795048
0000f0 45 e4 0e 3e 0f 5b a6 be 6e 55 71 3d f2 72 f1 bd
       0.13954265 -0.32491347 0.058919363 -0.11789502
000100 0a 55 bf bd ed 0a 69 3d 09 90 85 3e 10 b6 26 3e
       -0.09342392 0.056895185 0.26086453 0.16280389
000110 f6 35 14 be c8 ec 5c be 67 39 cc 3e 32 ca 69 3e
       -0.1447371 -0.215747 0.39887545 0.22831038
000120 18 84 2b be 80 75 1c 3f 6e 83 e2 be 63 19 9f be
       -0.16749609 0.6111679 -0.44240898 -0.31074056
000130 55 14 ed 3e 86 d7 aa be 38 66 7d 3e 7b 02 86 be
       0.46304575 -0.33367556 0.24746025 -0.26173767
000140 68 5d 57 3d fd 16 34 3e 72 e0 4f bc cd de 33 3e
       0.052579314 0.17586894 -0.012687789 0.1756546
000150 17 f6 98 bd 9f 93 1a 3e 30 ad 66 bf 0f 31 13 3f
       -0.07468813 0.15095375 -0.90108013 0.5749673
000160 42 e9 34 3f 87 b9 f0 3a c7 d5 4f bf 6c 73 98 be
       0.70668423 0.0018365838 -0.81185573 -0.2977556
000170 16 c8 49 be 5f ff 79 3e 22 e9 ae 3c e6 15 a7 bd
       -0.19705233 0.24413823 0.0213514 -0.08158474
000180 ad ea 0d 3c 36 f8 64 3d 28 da 0b 3e 8d a1 7c 3e
       0.008661908 0.055900775 0.13657439 0.24671002
000190 53 5f 07 bf f5 2c 0b 3e ed 83 bc 3e 87 e1 0f be
       -0.5287983 0.13591368 0.368194 -0.14050876
0001a0 65 81 b3 3e 7c 5f 7b bc 0b 6c 93 bd d6 7e 30 3c
       0.35059658 -0.0153425895 -0.07198342 0.010772428
0001b0 af e4 5a 3c 81 38 93 be fb 85 96 3e a3 fb 83 3d
       0.0133601865 -0.28754047 0.29399094 0.0644448
0001c0 39 f9 ed bb 1d a3 07 3e 9e 9a 39 be c3 a9 7a bc
       -0.0072623757 0.13245817 -0.18125388 -0.015299263
0001d0 7d d2 f3 bb 7a 79 41 3e a3 51 95 3e 06 2e e5 bc
       -0.0074408636 0.18893996 0.29163846 -0.027976047
0001e0 69 89 2c 3e 86 c7 1b 3e 3b 53 2c be 59 84 88 be
       0.16849293 0.15212831 -0.16828625 -0.26663473
0001f0 3d c1 c0 bd 0d e0 32 3e d8 e3 8f 3d 04 3f cd 3d
       -0.09411857 0.17468281 0.070258796 0.10021785
000200 a7 8a 8d 3d 8f 05 25 3c 7e aa 57 be d4 31 06 bf
       0.069112115 0.010072126 -0.21061131 -0.5241978
000210 ae dc 12 3e 79 53 da 3e 11 30 87 be 6d 43 46 3d
       0.14341995 0.4264181 -0.2640386 0.048404146
000220 5e 23 1f 3e d7 f9 fe be 2f 86 c1 3e 08 0a 8b 3e
       0.15540835 -0.49799988 0.37797686 0.2715609
000230 c6 34 e9 be 9a 3d 53 bd 22 83 e0 3e e4 ab fa 3d
       -0.45548075 -0.05157242 0.43850046 0.12239817
000240 f3 9a c6 bc 43 88 c3 bd 29 3f 81 be 37 4b af bd
       -0.024243807 -0.09547474 -0.252435 -0.08559268
000250 9a 87 a0 bd 4a e3 8a bd 90 91 9c bc 54 19 9a 3c
       -0.07838364 -0.06781633 -0.019112378 0.018810906
000260 b0 85 51 bc d2 86 60 be 3a 50 23 3f 06 18 b4 3e
       -0.012788221 -0.2192643 0.6379429 0.35174578
000270 39 2a 81 3e ce 1e 37 3d 4a c4 1e be f4 90 89 3e
       0.25227526 0.044707112 -0.15504566 0.26868403
000280 ca 6f 01 be 41 e7 36 be df 90 e6 3d 42 68 8d be
       -0.126403 -0.17861654 0.11258101 -0.27618605
000290 82 61 8b 3d d7 83 d0 3e dc ed 18 bd a8 74 3f 3d
       0.068057075 0.40725586 -0.037336215 0.04674211
0002a0 a3 4c 80 3e 6c 7c 08 3e bf a8 30 bd d8 63 6c be
       0.2505847 0.13328713 -0.04312968 -0.23084962
0002b0 de 78 1c 3e a2 44 2b bc aa 44 6f 3e bb 87 35 3e
       0.15280482 -0.010453375 0.23366037 0.17727558
0002c0 85 38 cb bd 98 7b 4f be 22 28 95 be d9 5a 6a bb
       -0.099228896 -0.20261991 -0.2913218 -0.0035759716
0002d0 d7 6c 3a 3e 72 72 ee 3d d1 5c 81 3e 41 e8 af 3c
       0.18205582 0.116429225 0.25266126 0.021473052
0002e0 af 36 fa be 70 68 1d be 87 2d 46 bf 62 ff 24 3f
       -0.48869845 -0.15371871 -0.7741322 0.64452183
0002f0 2d 29 a6 3e d2 9a c2 be 29 b1 03 be 05 54 a2 3e
       0.3245329 -0.38008744 -0.1286055 0.31704727
000300 37 82 ba 3d 9d 87 03 be 5b ae a7 3d a0 15 09 bf
       0.09106868 -0.12844701 0.081875525 -0.5354862
000310 8f 30 ca 3d cf 23 84 3e 91 0d b0 bc 49 48 a5 3d
       0.09872543 0.2580857 -0.021490844 0.08070428
000320 98 1d 7f 3e dd 63 54 3e ed 22 d4 3e c5 26 4f 3d
       0.24913633 0.2074122 0.41432896 0.050574083
000330 90 ab 60 bf 9e 15 30 be f9 5f 6e be 3d cc a0 3d
       -0.87761784 -0.17195746 -0.23278798 0.07851455
000340 e0 14 07 be 8f cd 1e 3e 9d 91 91 be f3 6e 9b bd
       -0.13191557 0.15508102 -0.28431407 -0.07589521
000350 d2 a5 20 3d 35 fd 9b 3c 5e a1 0a 3e d6 fe a9 be
       0.03922064 0.019041637 0.13538119 -0.33202237
000360 6d 0e 4b 3e d1 91 1e 3e f4 d9 a5 bc 81 f6 6f 39
       0.19829722 0.15485312 -0.02024553 0.00022884646
000370 f6 d3 37 3e c2 d6 43 be c3 80 7c bd 28 cc 7e 3e
       0.1795195 -0.19124892 -0.061646234 0.24882567
000380 31 a5 9f bd 1c 07 09 3e 6d 8d 80 3e f2 58 10 3e
       -0.0779518 0.13381618 0.251079 0.1409643
000390 15 94 08 be a4 ae 90 be 7d e8 0c be 06 75 1f bf
       -0.13337739 -0.2825824 -0.13760562 -0.6228794
0003a0 60 8c 23 3e 8c 0e a3 3e fb 3d 50 bf 9b 30 06 bd
       0.15971518 0.31847036 -0.81344575 -0.032761198
0003b0 75 eb 46 3d 18 16 c9 3e d9 93 ac be 09 b8 08 bf
       0.048564393 0.3927467 -0.3370655 -0.53405815
0003c0 8d fa 5a 3e c4 67 89 be 4b c7 14 be 56 41 1e be
       0.2138464 -0.2683698 -0.14529149 -0.15454611
0003d0 b7 b6 b0 3d 62 2d 9b 3e a5 07 89 3e c4 7d f4 3e
       0.086286 0.30308062 0.26763645 0.47752202
0003e0 3a 10 79 be d3 3c 12 3f d3 85 a6 3c 83 59 99 be
       -0.24322596 0.5712406 0.020327484 -0.29951105
0003f0 6d 5b 77 bd 1a 7c c5 3e 2d 3a 68 3e 13 f7 04 3e
       -0.060389925 0.38571244 0.22678442 0.12984876

fc2.bias f4 [128]
000000 7e 90 a5 3e 97 3c 8b 3e 13 dc 5d bc 24 2a 36 3e
       0.323368 0.27194664 -0.013541239 0.17789513
000010 9c ff d6 3e 56 69 b0 3e 7b 0c 35 3f 27 55 69 3d
       0.4199189 0.34455365 0.7072217 0.056965973
000020 ce a3 f4 3e 7d 97 1e 3f 0d 8c 43 bd 8f 54 76 3e
       0.47781223 0.619499 -0.047740985 0.24055694
000030 d9 54 29 3f b1 4e d5 3e e7 60 63 3e dc d7 a2 3d
       0.6614509 0.416616 0.22204934 0.07951328
000040 55 d8 fa 3e aa 22 fd 3e b1 02 31 3f 5a fc ec 3e
       0.48993173 0.4944051 0.6914473 0.4628628
000050 ff 21 36 3f 80 7b 6e 3e 75 ab d2 3e db 83 fb 3e
       0.71145624 0.23289299 0.41146436 0.49124035
000060 7b b4 64 3f a3 81 26 3f cb 1c b9 be f4 11 2a 3f
       0.8933789 0.6504156 -0.3615478 0.66433644
000070 76 de ee bd e8 e8 05 3f 45 9f 5f 3e e2 e7 34 3f
       -0.11663525 0.5230851 0.218381 0.70666325
000080 f4 3e 7c 3f c8 4f d1 3e 42 de f0 3e 80 7c 10 3f
       0.9853356 0.4088118 0.4704457 0.5643997
000090 2c 80 2d 3f 51 a1 bf 3e 25 71 07 3f cd 8b f2 3e
       0.677737 0.37427762 0.5290702 0.47372285
0000a0 1f 99 40 3f a7 1a e9 3e 45 1f 05 3f 50 12 8e 3e
       0.75233644 0.45528147 0.5200084 0.27748346
0000b0 bd f2 e4 3e cb 48 11 3f 54 0c 59 3e 3a cb ce 3d
       0.44716445 0.567517 0.21196109 0.10097356
0000c0 f0 41 aa 3e 63 48 0c 3e c5 e3 cb 3e e2 2d 50 3f
       0.3325343 0.13699488 0.39822212 0.8132001
0000d0 27 c7 4b 3f 99 e8 19 3e 96 95 07 3f 0c 05 b6 bd
       0.7960076 0.15030135 0.52962625 -0.08887681
0000e0 13 02 2e 3f 63 03 5a 3d 4c dd fa 3e ab 76 31 3f
       0.67971915 0.053225886 0.4899696 0.693217
0000f0 25 55 f6 3d d4 39 b5 3e 4a 4f 58 3e 68 af f9 3e
       0.12027959 0.35395682 0.21123996 0.48766637
000100 cf cb 82 3e d8 bc ed 3e 55 3f bc 3d 4e e1 90 3e
       0.2554612 0.4643314 0.09191767 0.28296894
000110 07 c6 18 3e 83 9e a6 3e e4 de e2 3e 6c fd 20 3f
       0.14919291 0.3254281 0.44310677 0.6288669
000120 85 2f 00 3f 49 ba 0b 3f b4 f8 98 3e 58 c3 9b 3e
       0.5007251 0.54581124 0.29877245 0.30422473
000130 2a 95 77 3e 7b d9 01 3f e6 53 3a 3f 5c c9 3c 3e
       0.24177995 0.50722474 0.7278427 0.18436188
000140 de 96 84 3f 24 e4 a1 3c d4 e2 fb 3e 44 d2 d9 3e
       1.0358541 0.019762106 0.49196494 0.42543232
000150 8b 54 a2 3e cb 5e b1 3d e2 71 c7 3e 54 1a 75 3e
       0.31705126 0.086606584 0.38954073 0.23935825
000160 5c bf 39 3f cb fc 3c 3f 20 e6 da 3e 3f 90 0f 3f
       0.72557616 0.7382323 0.42753696 0.5607948
000170 4c dc 4c 3f ca 95 14 3f fa 3a ff 3e 2f 42 99 3e
       0.80023646 0.5804106 0.49849683 0.29933307
000180 b8 31 3a 3f ec 86 29 3f f2 26 4c 3e 2f 44 1f 3e
       0.72732115 0.662215 0.19936731 0.15553354
000190 66 8c 0d 3f 45 2c eb 3e 74 59 1c 3f 27 14 20 3e
       0.55292356 0.45932212 0.61073995 0.15632688
0001a0 4f 6c 31 3f eb 4b ca 3e 2a 4e 58 be 1b 79 96 bd
       0.6930589 0.39511046 -0.21123567 -0.07347318
0001b0 c8 f7 c5 be ce 1c 69 be 73 97 c3 3e c8 cc 04 3f
       -0.38665605 -0.22764894 0.38201484 0.5187497
0001c0 c6 c3 26 3f a8 99 b2 3e 18 fb f7 3c 4f 6b 12 3f
       0.65142477 0.34882855 0.030271098 0.5719499
0001d0 33 c2 c0 3e 41 7e d0 3d 62 49 84 3e 3f 3a 0b 3f
       0.37648162 0.10180331 0.25837237 0.5438575
0001e0 9c 09 13 3f 1a 39 e1 3e 3f 8d 26 3f 1e e2 00 3f
       0.5743654 0.43988878 0.65059274 0.5034503
0001f0 05 7d 4d 3f 30 60 1c 3f 4a b7 62 3f d3 ee 04 3f
       0.8026889 0.6108427 0.88560927 0.51926917

fc3.weight f4 [64, 128]
000000 44 9f 05 3d c0 11 4f 3c 90 c7 3e bf 87 c8 04 be
       0.03262259 0.012638509 -0.7452326 -0.1296712
000010 2f 20 a9 be c7 1b f1 3c f7 e4 1a 3f 5f 0b c2 3e
       -0.33032367 0.02943219 0.6050562 0.378993
000020 95 f2 8b 3e cc fe ac be 71 63 88 3d 6d 44 b3 be
       0.27333513 -0.33788145 0.06659592 -0.35013142
000030 6f 3f fb bd 66 9e c0 3c bb 77 80 3e d9 d2 06 be
       -0.122679584 0.02351303 0.25091347 -0.1316637
000040 92 c6 f7 3e 3e 9a bb be 10 4e 59 be 1a 30 1b be
       0.48393685 -0.36641115 -0.21221185 -0.15155068
000050 35 33 c4 3e 43 8d d2 3d 33 7a e7 bd 2e 97 f7 3e
       0.38320318 0.1028085 -0.113026045 0.48357528
000060 d9 41 52 3f ce e0 75 3c d4 34 e7 3d 05 b4 00 3d
       0.82131726 0.015007211 0.11289373 0.03142168
000070 36 a3 1c bf 66 5b d7 3d d6 33 0b be 8a ea 28 3d
       -0.6118654 0.1051548 -0.13593993 0.0412393
000080 bc 25 6f be b9 c4 1f 3e 8c e2 46 be ee cc 0d 3f
       -0.23354238 0.15602387 -0.19422358 0.5539082
000090 f9 75 ba be 1b 13 32 3f 35 95 78 3f bd 9e 46 be
       -0.3641813 0.695604 0.9710267 -0.19396491
0000a0 98 10 38 3f b3 32 02 3e df 53 50 be c2 f7 2f 3f
       0.7190032 0.12714653 -0.20344494 0.68737423
0000b0 f9 17 05 3e f6 07 8d 3e b1 69 09 bf 41 0d fe 3e
       0.12997426 0.27545136 -0.536769 0.49619487
0000c0 bf 87 91 be dd d1 e8 3e f5 3f 51 3d 87 2d fb bd
       -0.2842388 0.45472613 0.051086385 -0.12264543
0000d0 42 ae b4 3d 76 01 78 3f ae a2 13 3e 63 8e 0e 3d
       0.088222995 0.9687723 0.14417526 0.03480376
0000e0 d7 35 33 3f 39 d0 33 3e b5 8c 8b bd c2 d3 01 bd
       0.7000403 0.175599 -0.06813947 -0.03169609
0000f0 a1 67 eb be e6 6c 66 3e f0 53 e1 be 58 b5 03 bf
       -0.459775 0.22502479 -0.44009352 -0.51448584
000100 05 ab 86 be 17 b5 30 be b8 64 59 bd e8 13 4b 3f
       -0.26302353 -0.1725658 -0.05307457 0.7932725
000110 ce 54 f6 be be 11 9d be 60 73 a7 3e 3f cd e7 3e
       -0.48111576 -0.306776 0.32705212 0.45273778
000120 e5 87 4a be e2 aa af bd 1f cc 91 3f b3 f1 ad 3e
       -0.19778402 -0.08577515 1.1390418 0.33973464
000130 96 26 2e 3f b1 3e db 3e 3c 51 b5 3f 49 e9 b5 be
       0.6802763 0.42821267 1.4165416 -0.35529545
000140 0d bb ca be bc 82 0a be 59 b8 be be 90 23 d0 3d
       -0.39595833 -0.13526434 -0.3725002 0.10163033
000150 79 bd 34 bf 05 cf cb 3f ac 5e c9 bd 42 ae 1c 3f
       -0.7060161 1.5922552 -0.0983251 0.61203396
000160 76 46 39 3e ff 7c 7a be 4f f5 c9 bc ba 43 82 bd
       0.18093285 -0.24461745 -0.024653105 -0.06360574
000170 a1 1d 37 3e d6 27 8a be 3d c5 33 bf 07 2a 26 3f
       0.17882396 -0.26983517 -0.70222837 0.6490788
000180 4b 37 22 bc 19 52 df 3c c0 bd d3 be 54 06 cb be
       -0.009900878 0.027260827 -0.41355705 -0.39653265
000190 6a 37 8d be e4 aa 59 3f 0e 8e 2d 3f 81 4b cf be
       -0.2758134 0.85026383 0.67794883 -0.40487292
0001a0 d8 b8 09 be d5 1e 0e 3e e2 05 ea bd ba 2d 67 bf
       -0.13449419 0.13878949 -0.11426903 -0.9030415
0001b0 bd c3 97 bd 55 a0 3f bb eb dc f2 bd 4e fc 3b be
       -0.07410381 -0.0029239852 -0.11858543 -0.18357965
0001c0 db 32 e2 bb 4f 38 43 be ca f3 e9 3d 10 57 6a 3f
       -0.006903035 -0.19064449 0.11423452 0.91539097
0001d0 86 06 a6 be 81 87 de 3d 0c 7d 43 3e f7 c4 d1 bc
       -0.32426852 0.10865689 0.1909067 -0.025606615
0001e0 fa 59 92 3e 6c e9 b8 be 4e f1 1a 3f e0 25 6a 3f
       0.28584272 -0.36115587 0.6052445 0.9146404
0001f0 aa 6e 8e bd 19 2a db be ea d7 ef 3e 09 ed 32 3e
       -0.06954701 -0.42805555 0.46844417 0.17473234
000200 9c a6 18 bb c5 29 dd 38 f1 b0 00 3f 4c 55 34 3e
       -0.0023292666 0.000105458814 0.5026999 0.17610663
000210 c1 21 64 3f cd ab ca 3e b2 ef 6c 3e 3b 52 46 3f
       0.89114004 0.395842 0.23138312 0.77469224
000220 83 14 4d 3d 12 17 f6 be e6 9c c0 3e f6 02 15 3e
       0.05006839 -0.48064476 0.37619704 0.14551911
000230 47 c8 dd be 04 80 ab bd 3c 33 05 3e 67 f5 6e 3e
       -0.43316862 -0.083740264 0.13007826 0.23335801
000240 c8 43 d4 3e bf cf a7 be 95 8a 98 3e 46 19 a4 bd
       0.41457963 -0.32775685 0.2979323 -0.08012633
000250 d1 20 bf 3e 72 e3 ff be eb 5d 8a 3e 50 28 b3 3d
       0.37329724 -0.49978215 0.2702478 0.087479234
000260 2a f3 3a 3e 3a 70 93 bd e0 2d ca 3e 31 a9 fa bd
       0.18256822 -0.0719914 0.39488125 -0.12239302
000270 dc 07 ba 3c 21 75 28 3f ca 14 1d bf 6b 8d 6d be
       0.022708826 0.65803725 -0.61359847 -0.23198478
000280 70 e1 9e be 47 5b 21 3f 37 bc 22 3f fa 1f 78 be
       -0.3103137 0.63029903 0.63568443 -0.24230948
000290 ee eb 64 be 62 75 05 3f 43 2a d5 be e3 e1 1a 3f
       -0.22355625 0.52132237 -0.41633806 0.60500926
0002a0 6f 32 98 bd e6 17 10 3e b0 0f 58 3f 4b 6b 28 bd
       -0.074314944 0.14071617 0.8439894 -0.041117948
0002b0 f9 b2 f4 3e 50 97 96 3e 3e a6 12 3f ed 27 92 3e
       0.47792795 0.29412317 0.57284915 0.28546086
0002c0 fd ad d9 be cd 8b 98 3e 78 cf 36 3f 8a ca e6 bb
       -0.42515555 0.2979416 0.7141032 -0.0070431875
0002d0 c1 9d 30 be 68 d8 dd bd 2e 67 8c be f0 18 48 bc
       -0.17247678 -0.10832292 -0.2742247 -0.012212977
0002e0 8e a0 41 3e 1d 86 84 3e 60 79 aa be 2b e8 8c be
       0.18908903 0.2588357 -0.33295727 -0.2752088
0002f0 94 ca d5 3e 6b 1b 07 3f bd d1 03 be 96 41 bf 3e
       0.41756117 0.5277621 -0.12872978 0.37354726
000300 a5 4d 0b 3b ac 4e 8b bd a9 66 f1 3c 0c 7b f8 bd
       0.0021255997 -0.06802115 0.029467897 -0.12132844
000310 b1 5b db 3e fa af ec 3e 80 88 ce bd 51 c7 dd bd
       0.42843392 0.4622801 -0.10084629 -0.10829032
000320 81 ed 5c be 84 97 74 3e 37 a4 64 3e ef b9 83 3e
       -0.21574976 0.23885924 0.22328268 0.25727794
000330 2a bd 8a 3e c9 2b 4d bf da 2b e1 be 2a d5 2f 3f
       0.27097446 -0.80144936 -0.4397877 0.6868464
000340 fa e4 4f be 30 d3 ad 3d de 61 fc bd 16 1d ed be
       -0.20302191 0.084875464 -0.12323354 -0.46311253
000350 0b d6 80 3e a1 3f 69 3e dd c6 8c 3e 0f f6 89 3d
       0.25163302 0.22778179 0.2749547 0.06736385
000360 15 0e 9b bd 93 d2 36 bf 70 e9 74 bd bb b9 95 be
       -0.07571045 -0.7141506 -0.059792936 -0.29243264
000370 cd 55 8d 3d e2 58 b1 3d 0a 4b af 3d 14 4e dd 3e
       0.06901131 0.08659531 0.085592344 0.4322363
000380 1f 45 a2 3e d2 5b c8 bd 43 d2 6c be f0 7f 31 3f
       0.3169336 -0.09783138 -0.23127083 0.6933584
000390 47 39 36 3e 68 6f 33 bf 1f c5 0c be 83 6f 6a bd
       0.17795287 -0.7009187 -0.1374707 -0.057235252
0003a0 c8 03 a8 3f e2 b6 2c bf bb 87 96 be 3d 4c 01 3f
       1.3126154 -0.6746656 -0.2940043 0.50506955
0003b0 14 57 6c 3e c6 34 f4 be e5 9c be 3e ca 4f 9f bd
       0.23080093 -0.47696513 0.37229076 -0.077788904
0003c0 e2 ec 14 3f b0 f2 92 3e 69 6c 99 3e 30 e5 66 3e
       0.58173954 0.2870078 0.29965523 0.22548366
0003d0 9e d5 93 bd 1a 7c f2 3c 17 70 45 3e 9d b0 ee 3b
       -0.072184786 0.029600192 0.1928104 0.0072842375
0003e0 47 55 0b 3f 96 29 80 be 4c e8 f4 be fa 41 c9 3d
       0.54427 -0.25031728 -0.47833478 0.09827037
0003f0 6e d2 08 be e3 74 e8 3e af 51 2e bf 25 29 10 3e
       -0.13361523 0.45401677 -0.6809339 0.14078195

fc3.bias f4 [64]
000000 8d 93 b4 3e ba 49 62 be 3d 2b 13 bd 24 cf 9b 3d
       0.35268822 -0.22098437 -0.035929907 0.07607868
000010 a9 0c 16 3f 70 53 5f 3c 46 78 79 3d f6 7d 73 3e
       0.5861307 0.013630733 0.060905717 0.23778519
000020 8d 40 59 3e 69 a0 89 bd 2a 96 bb bd 51 78 30 3e
       0.2121603 -0.06720049 -0.09159501 0.17233397
000030 df a0 10 3f ae a8 90 3d a0 47 89 3e 8c 48 bb 3d
       0.5649547 0.07063423 0.26812458 0.091446966
000040 35 e4 83 3f b2 5f c8 3d 3c 40 78 3e 5a 80 31 3e
       1.0304018 0.097838774 0.24243253 0.17334118
000050 57 3c 95 3f b8 7a 04 3f 34 53 21 be 9c 0a b4 3d
       1.1659039 0.51749754 -0.15754396 0.08791086
000060 18 bb 27 3e 56 96 6e bd c7 d0 b6 bd 1d 47 04 3f
       0.16379964 -0.05824884 -0.0892654 0.5167101
000070 12 18 43 3f 37 02 08 3e 6b a2 ac 3e 1a 66 1a 3f
       0.76208603 0.13282095 0.33717665 0.60312045
000080 e7 1d 25 3e bf 6d fb bd 75 f7 22 3d e6 9e 1f be
       0.16124688 -0.12276792 0.039786775 -0.15587959
000090 97 6a a8 3f 6e 0d 94 bd 95 06 ba 3c 98 63 e5 3d
       1.3157529 -0.07229124 0.022708217 0.112006366
0000a0 f3 30 85 bd 17 9f a1 3d c9 49 c1 bc 0c c2 a1 3e
       -0.06503477 0.07891672 -0.023594754 0.3159336
0000b0 2b 08 b1 bc 12 54 72 be c9 3b ed 3c 63 bf 17 bd
       -0.02161034 -0.23664883 0.028959172 -0.037047755
0000c0 bd 08 41 3e 32 64 a1 3e 59 88 18 be 30 c5 a3 be
       0.1885099 0.31521755 -0.14895763 -0.3198638
0000d0 00 e7 8b 3c df 44 c4 3d 76 fd 2c 3e 96 80 9f 3f
       0.017077923 0.095834486 0.16893563 1.2461116
0000e0 5e e5 a0 ba 68 bc d8 bd 8d 90 8a 3e ad 1c 13 bd
       -0.0012275388 -0.10582811 0.27063408 -0.03591602
0000f0 c5 56 fb 3d e3 3f 21 3d 55 53 2b 3f 65 3d a0 3e
       0.12272409 0.039367568 0.6692403 0.3129684

fc4.weight f4 [30, 64]
000000 85 5e b2 3c cc bf 04 be ed 98 8c bd e7 b2 c6 bc
       0.021773586 -0.1296379 -0.06865106 -0.02425523
000010 91 99 86 be 37 42 20 be f8 87 39 bd 22 07 39 3c
       -0.26289037 -0.15650259 -0.045295686 0.0112932045
000020 33 f9 82 3d 3d 7f 20 3d bd 01 8e 3d c0 03 47 3c
       0.06395187 0.039183844 0.06933925 0.01214689
000030 e2 d9 62 3f 86 2c 32 be 0c f4 d4 bc a9 a2 8d 3d
       0.8861371 -0.17399797 -0.025995277 0.069157906
000040 8f e4 70 3e 4b f0 ae be fa 59 bd be 0f 52 5d 3d
       0.23524688 -0.34167704 -0.3698271 0.054033335
000050 ed 3a c1 3e e1 f7 e5 bd f4 e3 65 3e 36 34 64 bd
       0.3774027 -0.1122892 0.22450238 -0.055713855
000060 64 91 8e bd 17 cf 2a bd e0 b6 71 3e 72 b7 e0 bc
       -0.06961325 -0.041701403 0.23604918 -0.027431224
000070 d9 fe c7 3e 08 21 43 3e e3 76 08 be 95 c9 85 ba
       0.3906162 0.19055569 -0.13326602 -0.0010207171
000080 ee 71 58 bd ae fc 9f 3c 0f d4 0b 3d 32 a4 0f be
       -0.052843027 0.019529667 0.03413778 -0.1402748
000090 bf e5 53 3f d4 ee 63 bc e2 8b e8 3d 87 e9 04 3d
       0.8277244 -0.0139119215 0.113548055 0.03244927
0000a0 b8 ec b4 3d 5e 90 4a bd c1 f2 1a ba 6d 74 4a bf
       0.08834213 -0.049454086 -0.0005910807 -0.790839
0000b0 00 9a b6 bd 09 fd 3f bf b1 9f 36 3d 56 bf 85 bd
       -0.08916092 -0.74995476 0.044585887 -0.06530635
0000c0 b8 40 28 bd 20 95 ee 3b b7 d1 36 bc 85 88 be bb
       -0.041077346 0.0072809607 -0.011158398 -0.0058146142
0000d0 1c 12 ac 3d 6b 50 67 bb 7a 3b 65 bb 15 b1 ec 3e
       0.084018916 -0.0035295736 -0.0034978078 0.46228853
0000e0 d8 25 e8 3e a3 03 04 3e 3b c8 df 3d 38 8f 87 be
       0.45341372 0.12892012 0.10926863 -0.26476455
0000f0 12 63 35 3d 2a b8 80 be ac b7 a3 3e d2 e8 9d bb
       0.044283934 -0.25140506 0.31976068 -0.004819014
000100 99 1f 88 3c e0 fc d2 bd b2 5d dc 3d 94 fe 22 3d
       0.01661663 -0.10302138 0.107600585 0.039793566
000110 62 68 33 be fe 12 d0 bd ee 2f ff bc 75 de f0 3b
       -0.17520288 -0.101598725 -0.031150784 0.0073507377
000120 2e 33 22 3d 59 4b 1c 3d b6 c2 1d 3d 21 12 1b 3c
       0.03959959 0.038157795 0.03851577 0.0094647715
000130 b0 a8 18 3f 99 15 f4 bd 2b 97 86 bc b8 58 41 3d
       0.59632397 -0.11918182 -0.016429504 0.04720375
000140 85 c4 1e 3e 76 21 76 be f8 f1 79 be ad be 0f 3d
       0.15504654 -0.24036202 -0.2440871 0.035093952
000150 60 44 80 3e 8a 72 97 bd db e0 30 3e 3e 5f 11 bd
       0.25052166 -0.073948935 0.17273276 -0.03549122
000160 ff f3 38 bd fb 2e da bc 3f d2 22 3e 9c ed 92 bc
       -0.045154568 -0.02663373 0.15900515 -0.017935567
000170 eb 39 86 3e f4 94 03 3e a0 dc bc bd 50 c0 91 ba
       0.26216063 0.1284979 -0.092217684 -0.0011119936
000180 f5 2c 0d bd 4e f6 33 3c 8b 51 13 bd 40 ca be bd
       -0.034466702 0.010984017 -0.035966437 -0.0931592
000190 17 88 0c 3f 11 1a 5b bd 51 6b a0 3d 31 16 aa 3c
       0.54895157 -0.053491656 0.07832969 0.020762535
0001a0 47 10 6c 3d 3a ee 01 bd 46 eb c5 3a ce 2a 07 bf
       0.05763271 -0.03172133 0.0015100024 -0.5279969
0001b0 4d 84 29 bd a8 55 02 bf 45 5d e7 bd c4 58 7b bd
       -0.041385937 -0.5091195 -0.112970866 -0.06136395
0001c0 72 fb db bc 49 42 b5 3b 05 30 f0 bb b3 92 76 bb
       -0.026853297 0.0055315834 -0.007329943 -0.003762406
0001d0 f6 05 6d 3d 69 64 5d bb 58 77 8b ba 37 fe 9d 3e
       0.057867013 -0.0033781773 -0.0010640426 0.30858013
0001e0 2e 57 a1 3e fe 53 ae 3d 88 52 97 3d 29 22 33 be
       0.31511825 0.08512114 0.073887885 -0.174935
0001f0 47 3d ff 3c b8 00 2f be ec 75 57 3e ed 81 7f bb
       0.031157149 -0.17090118 0.21041077 -0.0038987354
000200 fb 8e 62 3c c2 2e b3 bd 14 9b 20 3d cc 08 9e 3c
       0.0138280345 -0.08749153 0.039210394 0.019291304
000210 49 18 0f be ca 6a a2 bd 73 1a cf bc 2e c3 be 3b
       -0.13974108 -0.07930525 -0.025281167 0.005821607
000220 4b bf fc 3c 67 cb fe 3c 90 a2 de 3c 61 bb c0 3b
       0.030852934 0.03110285 0.027177125 0.0058817123
000230 97 7c f4 3e 8f 68 c4 bd c6 95 51 bc c8 00 1d 3d
       0.47751305 -0.095902555 -0.012792056 0.038330823
000240 6e 1d fc 3d ca 1a 4a be b8 65 46 be f7 32 da 3c
       0.12310301 -0.19736782 -0.1937474 0.02663563
000250 f3 6e 4c 3e e2 af 70 bd d8 bd 16 3e c1 00 e5 bc
       0.19964199 -0.058761485 0.14720857 -0.027954461
000260 ee 90 11 bd 85 c7 aa bc ec bd 01 3e ea b3 67 bc
       -0.035538606 -0.020847091 0.12670106 -0.014142016
000270 06 21 57 3e 1c 14 d5 3d 6a ea 99 bd 16 93 96 ba
       0.21008691 0.10404226 -0.07515414 -0.0011487927
000280 65 f4 dd bc 54 e2 02 3c 34 14 7c bd 4b 85 95 bd
       -0.027094075 0.007988531 -0.061542705 -0.07300814
000290 c9 99 df 3e 10 b5 da 3d af ea 81 3d 35 2a 84 3c
       0.43672016 0.10679066 0.063435905 0.016133407
0002a0 c3 d9 39 3d e2 e5 cb bc 64 89 d7 3d e9 12 d7 be
       0.04537369 -0.02488989 0.10524252 -0.42006615
0002b0 17 17 ab bd 69 21 d2 be 06 ca e3 3d 48 b4 96 bd
       -0.083540134 -0.41041115 0.11122517 -0.07358605
0002c0 c6 6a ac bc b5 d1 99 3b b0 31 bf bb d6 cc 3f bb
       -0.021047007 0.0046941885 -0.0058347806 -0.002926638
0002d0 ac 6c 3e 3d e8 97 43 bb 60 cb e5 b9 ab 9e 7c 3e
       0.046490356 -0.0029845182 -0.0004382981 0.24669902
0002e0 0e 71 82 3e 68 df 8b 3d 9b 24 74 3d be 88 0d be
       0.2547688 0.06829721 0.059605222 -0.13821694
0002f0 c7 19 d2 3c af 7f 0c be 3d f2 2a 3e b4 44 66 bb
       0.025647057 -0.13720582 0.16693969 -0.0035136165
000300 da d8 8f 3c 7a 09 70 3c 0a e4 f5 bc 65 39 6a bd
       0.017559458 0.014650697 -0.030015964 -0.057183642
000310 93 55 99 be 0d aa e5 be 88 f4 49 be e1 a9 45 bb
       -0.299481 -0.448563 -0.19722188 -0.003016107
000320 6c 89 02 bd fc 47 76 3d e2 f4 f2 3d f4 ad f5 bd
       -0.031869337 0.060127243 0.11863114 -0.119960696
000330 a5 0d 9b 3e 03 d9 b6 3d dc eb 5c 3e 87 6b b2 bc
       0.30283847 0.089281105 0.21574348 -0.021779789
000340 a7 31 9b bc a5 70 90 3d a6 0a 4c bf c4 bd d2 3d
       -0.018944575 0.07052735 -0.7970375 0.10290101
000350 e3 db 8a 3e 5a 9b be 3c 89 2a 66 3e 78 34 3d bd
       0.27120885 0.023267437 0.22477163 -0.046192616
000360 f5 14 1c 3e da 48 bb 3c 78 25 f8 3e 0e 24 25 bc
       0.1524237 0.022861887 0.48466086 -0.010079397
000370 3c c5 dc 3d 2a 77 81 be 9f ab 48 3d e9 64 4b bc
       0.10779807 -0.25286227 0.048991796 -0.012414196
000380 6f 86 ee 3c d9 78 22 bd d2 0b 9b bc fd c0 09 3d
       0.029116837 -0.03966603 -0.018926535 0.033631314
000390 e5 f3 1b 3f de 7b db bd da 96 bf bd 3f 66 5f 3d
       0.6091903 -0.10716985 -0.093549445 0.05454087
0003a0 01 e9 eb bd cb 44 90 3c 32 98 29 bb 01 cd 11 bf
       -0.11519051 0.017610928 -0.002587807 -0.56953436
0003b0 d0 a3 e6 bd e5 83 de 3d d5 09 60 3d 2e 04 a5 bc
       -0.112617135 0.10865001 0.054696877 -0.020143595
0003c0 27 52 3a bd bc a1 78 3d 44 ca 55 bc b2 b8 82 3b
       -0.045488503 0.060701117 -0.013048712 0.0039893026
0003d0 09 d0 a8 bc fb ea 82 3d 7a a7 8a 3b 1c c5 72 3f
       -0.020607011 0.06392475 0.0042313905 0.94832015
0003e0 48 d2 3d be e0 6d 7e be 06 cc 23 3f 2a cd a4 be
       -0.18537247 -0.24846601 0.6398319 -0.32187778
0003f0 97 dd 03 bd ba 42 bf 3e 9c a8 12 bd d2 a7 ca 3d
       -0.032193746 0.37355596 -0.03580533 0.098952904

fc4.bias f4 [30]
000000 bc 20 d5 40 6b 0e ca 40 7b 02 c1 40 ca 45 17 40
       6.660246 6.31426 6.031553 2.3636346
000010 25 1a d1 3f 64 22 02 40 a9 80 e2 3f 8e e5 0b 40
       1.6336104 2.033349 1.7695514 2.185886
000020 39 4e ac 3f b0 b2 39 be bf ec b4 3e 81 91 3e bf
       1.3461372 -0.1813457 0.35336873 -0.7444077
000030 4a b7 d1 be 56 84 48 3e 8a 1a 3d bf c5 af bc be
       -0.4096015 0.19581732 -0.7386862 -0.36852852
000040 18 eb 54 be 7b b5 d1 be a0 0a a3 be 00 45 22 3e
       -0.20792806 -0.4095877 -0.31844044 0.15846634
000050 e8 50 9a bd 5d 16 c3 be 0e e4 c3 3d 2b ea c7 3d
       -0.07534963 -0.38103 0.09564982 0.09761461
000060 f3 41 2e bf ec 28 ee bd 4a a2 99 bd 5b ea 07 bf
       -0.6806938 -0.11628899 -0.07501657 -0.53091973
000070 f0 10 19 bd 34 26 3d bd
       -0.03736967 -0.04617901

fc1.weight f4 [32, 7]
000000 a9 cc 98 3e b9 d0 0d bf 4f 23 88 be 3d 2d 09 bf
       0.29843643 -0.5539661 -0.26589438 -0.53584653
000010 b0 1d 4a bd 15 03 0a 3f 0e ab 25 bc b5 3c 1d bf
       -0.04934472 0.5391095 -0.010111583 -0.61420757
000020 1d 29 9b be 2f cd f9 3e 8b 07 01 3d 25 cf c5 3b
       -0.30304804 0.48789355 0.031501334 0.0060366564
000030 54 33 8e 3b 2c 8b 12 3b 0b e2 83 bf 37 64 b6 3f
       0.004339615 0.0022360785 -1.0303358 1.4249333
000040 ab b0 98 bd da 8e 0b 3f 73 0c 23 3c ee 1d fb bb
       -0.07455572 0.5451485 0.009951699 -0.00766348
000050 9c d4 b3 3a 3c d6 16 bf 7c 6a 68 3f 68 d3 dc 3e
       0.0013719979 -0.58920646 0.9078748 0.4313004
000060 4d fc 67 bf 5e c4 64 bc 6a 19 c4 3c d2 6f 50 bb
       -0.90619355 -0.013962833 0.0239379 -0.0031804931
000070 5c 69 c8 3c 41 fc b6 bc c0 48 96 3c 87 11 34 3e
       0.024464302 -0.02233708 0.018345237 0.17584811
000080 b0 97 78 3f 17 fb 6e 3f 4b dd 00 bd b8 b4 7a bc
       0.97106457 0.9335188 -0.03146104 -0.015301876
000090 b9 3d 82 be 20 60 d6 3c 20 f6 f0 3d 59 e2 30 3e
       -0.25437716 0.026168883 0.117656946 0.17273845
0000a0 b1 3b 47 be 74 f6 39 3b a8 19 58 3f 3c 91 71 bf
       -0.19456364 0.0028375657 0.8441415 -0.94362235
0000b0 50 c1 e7 bd e8 9a 53 bf 83 8e dd bc 25 f7 86 3c
       -0.11316168 -0.82658243 -0.027045494 0.01647527
0000c0 8c e7 22 3b 61 6f b8 bf ab 70 70 3e fb 0e c5 3e
       0.002485725 -1.440899 0.2348048 0.38487992
0000d0 83 4c 1a 3f 87 b7 2a 3d e0 e7 b5 3c bb d6 ef ba
       0.60273 0.04167893 0.022205293 -0.0018298248
0000e0 72 f6 05 be ad fe 15 3f 35 6d fe bd 6a d2 f1 be
       -0.13082293 0.5859173 -0.12423173 -0.47230846
0000f0 50 a2 a0 3d 3d 63 a2 be 2c ac 95 bb a5 72 2c bf
       0.07843459 -0.31716338 -0.0045676436 -0.67362434
000100 db 75 ed 3c df e1 3a bf 38 92 08 3f 84 c0 bf bc
       0.028986862 -0.730009 0.5334811 -0.023407228
000110 d4 bf 9d 3c 0e dc 58 bb cf 34 a7 3e 64 b3 b6 be
       0.01925651 -0.0033090147 0.32657477 -0.3568374
000120 da eb a3 3e 6a 62 bd 3e f2 97 83 3c 2f 9b a9 bc
       0.32015878 0.36989146 0.016063664 -0.02070388
000130 30 b0 45 bb 7a dc 98 3f 9d c6 9b 3f f1 4a 08 3e
       -0.003016483 1.1942284 1.2169987 0.13309838
000140 6a 8a 82 3e 36 ad 08 3d 6b f0 fb 3b fb f3 1c bb
       0.25496227 0.03336831 0.007688572 -0.0023949135
000150 e8 f3 84 bf 3a 19 ca be 97 8d a9 bf 04 b9 d4 be
       -1.0386934 -0.3947237 -1.3246335 -0.41547406
000160 e9 2a 28 bc 75 5c 5b 3c 77 89 eb ba 5d 99 9f 3f
       -0.010264137 0.013388743 -0.0017970045 1.2468678
000170 a6 c7 d8 3e 0e 1f 99 3f d9 19 f0 be 9d 9f 92 bc
       0.4233982 1.1962602 -0.4689472 -0.017898375
000180 98 8e eb bb aa 53 26 3c f3 6d 11 bf 81 fb 2e bf
       -0.0071886294 0.010151783 -0.56808394 -0.68352515
000190 bd 15 bf bd 5a ec a6 3e 82 d0 0b 3c 15 de ae bc
       -0.09330318 0.32602197 0.008533599 -0.021346131
0001a0 c4 e4 9d 37 a9 e5 0a 3f 86 d1 0a 3f 19 66 89 3d
       1.8822386e-05 0.54256684 0.5422596 0.06708927
0001b0 89 e1 87 3e b3 4b ba ba 6e e4 a4 3b 38 66 38 3b
       0.26539257 -0.0014213234 0.0050321138 0.00281371
0001c0 35 35 84 bd b6 d3 8a bf 52 d5 22 3e 96 98 95 bf
       -0.06455461 -1.0845859 0.15901688 -1.168719
0001d0 23 b4 4c 3c ca be ef 3c 96 e0 5a bc f5 28 09 bd
       0.01249412 0.02926578 -0.0133592095 -0.033486325
0001e0 df c4 c3 be 9c f4 e4 3f 6f 82 c5 be 33 bc c9 3c
       -0.38236138 1.7887149 -0.38576075 0.024625873
0001f0 2b 92 f3 3b 65 82 45 ba 90 91 df be 88 52 e6 be
       0.007433196 -0.0007534384 -0.43665743 -0.4498484
000200 42 be 0a bf 07 c1 35 be e4 98 9b 3c 4f 00 e3 bb
       -0.5419656 -0.17749415 0.018993802 -0.006927527
000210 4d 73 16 3a 46 7a 3c 3f 75 80 c2 be d5 d1 4c 3f
       0.0005739227 0.73624074 -0.3798863 0.8000768
000220 cb ff 70 3d 20 51 93 3c 58 4d 3c bb 4c c9 cd bb
       0.058837693 0.01798302 -0.0028732624 -0.0062801
000230 48 bf 47 3f 0a 56 84 3f 6c dc 11 bf bc d3 de 3e
       0.7802625 1.0338757 -0.5697696 0.43520916
000240 ea 76 a6 ba 08 8b 13 bc 13 60 21 bb 88 67 ea bd
       -0.0012700234 -0.009005316 -0.0024623915 -0.11445528
000250 95 f2 9c 3e c6 0d 02 3e 59 1d fa be 23 4a 14 3f
       0.30653825 0.12700567 -0.48850515 0.57925624
000260 7b 71 0a 3f b3 f2 48 bc 06 b3 5f 3f b8 23 82 3f
       0.5407941 -0.012264895 0.87382543 1.016715
000270 b9 a5 a3 bd 7f 93 56 3f 8e ed 96 3c f1 2f c6 bc
       -0.079905935 0.8381881 0.018423822 -0.024192782
000280 19 68 39 3b 6c 40 65 3f 63 f9 e7 be 34 d7 70 3f
       0.0028290807 0.89551425 -0.45307454 0.94078374
000290 96 a2 04 3f 94 9e 89 3b f0 2a ff 3c 3b a1 bc 3a
       0.51810586 0.004199812 0.031148404 0.0014391312
0002a0 75 39 ac bc 6b f3 0c 3d 9b e0 07 3f 26 e7 87 3f
       -0.021023491 0.03441183 0.53077096 1.0617416
0002b0 42 4d d0 bb 72 6e 73 3d 16 5b 39 3a 12 8f 93 bf
       -0.006356866 0.0594315 0.0007070763 -1.1528037
0002c0 ac ea 8a bf be 50 aa 3d c6 34 11 3f 11 02 80 3c
       -1.0852866 0.083161816 0.5672115 0.015625985
0002d0 64 7c fc bb 02 52 c4 bb 76 11 4b bf 91 0c 4d be
       -0.007705258 -0.0059912214 -0.7932352 -0.20024325
0002e0 06 4d 4b bf d3 3b 67 3e f0 13 38 3c 19 81 6c bb
       -0.79414403 0.22581415 0.011235222 -0.003608769
0002f0 e8 b6 df 3a 93 71 30 3f 26 62 35 3e f0 ba 4d 3f
       0.001706806 0.689233 0.17713222 0.8036337
000300 ae de b3 3e a5 1e 55 3b 04 e0 c7 3c 1a d0 37 b9
       0.3513083 0.0032519486 0.024398811 -0.00017529764
000310 cc e5 01 be 72 69 f6 bc 67 e9 93 3e be fe a8 3e
       -0.12685317 -0.030079577 0.2888901 0.33006853
000320 fc 3c 86 be c2 c9 a2 3e 7a d7 d3 bb d6 8e d7 3f
       -0.26218402 0.31794554 -0.006464896 1.6840465
000330 72 26 9b bf 05 25 1b be d6 b5 be 3e d7 05 9b 3c
       -1.2121108 -0.1515084 0.37248105 0.018923683
000340 bd c5 5a bc c9 58 16 bc 6b 17 63 3f e6 8e 6f 3f
       -0.013352809 -0.0091764415 0.8870761 0.9357742
000350 ff fc 33 bc 5a a6 12 bf 01 25 3f bc 6f bb 2a 3d
       -0.010985612 -0.5728508 -0.011666537 0.041682657
000360 fd c2 38 bb 78 79 1b 3d 72 d3 10 3f 19 42 ed 3d
       -0.0028192394 0.03795764 0.5657264 0.11584873
000370 51 37 8e be 35 ab ba be 7c 2e 17 3e 84 80 d5 3a
       -0.27776578 -0.36458746 0.14763826 0.0016288911

fc1.bias f4 [32]
000000 e1 17 a8 3f 9f e3 83 3f ea bc ef 3e dc 2c b9 3e
       1.3132287 1.030384 0.46823817 0.36167037
000010 d7 a0 5a be ef 31 f0 3f 40 bc 67 3f 72 82 80 be
       -0.21350418 1.8765239 0.9052162 -0.25099522
000020 93 f8 05 40 dc d3 81 3f cc c1 c2 3f 97 c7 30 be
       2.0932968 1.0142779 1.5215392 -0.17263637
000030 bf ab 88 be 7a 83 87 bc 1d 5d 85 3f 66 2d 83 3f
       -0.26693532 -0.016542185 1.0419041 1.024823
000040 8b f4 02 bd 2c ff f7 be 7c 9e 4b 3f 16 72 2a 3f
       -0.031971496 -0.48436868 0.795387 0.6658033
000050 ca ff 30 bf 48 99 a3 3f 1d 5c 07 bc ee 08 96 bc
       -0.69140303 1.2781153 -0.008261708 -0.018314805
000060 81 8d cf 3f 37 4e 5e 3e bd 70 33 bf f0 0f 5e 3f
       1.6215059 0.21709524 -0.700939 0.8674307
000070 b3 71 b1 3f 7d e0 78 bf 68 e3 f1 3e ae 88 d5 3f
       1.3862823 -0.9721754 0.4724381 1.6682336

fc2.weight f4 [128, 32]
000000 45 60 85 3d e6 de 8a 3e 98 da f5 bd d7 f7 6a 3e
       0.065125026 0.27123183 -0.12004584 0.22946106
000010 3a 94 0c 3e 3e 4d 26 bd f5 46 2d 3e 54 6b 93 3d
       0.13728419 -0.040601008 0.16921599 0.071982056
000020 0d 28 af 3e 95 4c a0 3e 54 b4 a2 3e fd ef e2 3e
       0.34210244 0.31308427 0.31778204 0.44323722
000030 bc f1 2d 3e a2 be df 3e c5 56 d4 3e e7 b1 31 3e
       0.16986746 0.4370013 0.4147245 0.1735302
000040 84 5d 03 3e af 47 75 3e 8b 11 cd 3e e7 21 9b 3d
       0.12828642 0.23953126 0.40052447 0.07574826
000050 df 46 14 be aa 8a 62 3e 9b 2b 6b 3e 8f e0 a4 3d
       -0.1448016 0.22123209 0.22965853 0.08050644
000060 ef 6e 2e 3e 5b 56 4f 3d 33 d5 30 bd 95 51 a6 3e
       0.17034505 0.050619464 -0.043172073 0.32484117
000070 38 99 02 3e a6 43 21 bd a1 72 f7 bd 04 fd 02 3e
       0.12753761 -0.039371155 -0.120824106 0.1279183
000080 f2 06 b2 3e 47 65 8d 3e ef 1c 82 bf b5 bd 28 bf
       0.34770924 0.2761633 -1.016508 -0.6591447
000090 a2 a9 37 bc 16 9c 02 3f 0e 64 46 3d d2 d5 78 bf
       -0.011209877 0.5101942 0.048435263 -0.97201264
0000a0 51 a6 be 3c 92 4b a7 be a6 62 24 3f 59 e7 16 3f
       0.023272665 -0.32674843 0.64213026 0.5894676
0000b0 5a 30 3f be 5f 47 ac 3e 23 5a de 3e 8b 26 bb 3d
       -0.18670788 0.33648202 0.43428144 0.09138211
0000c0 93 7a fb be 3f e8 06 bd 00 59 e8 bc aa 0d 8d 3d
       -0.49116954 -0.03293633 -0.028362751 0.06887372
0000d0 10 91 47 3f db 91 c1 bd 05 93 eb 3d 4d 87 2a bf
       0.7795572 -0.09451648 0.11502651 -0.666127
0000e0 ed c8 e7 3e ce c3 03 3f b7 dc f1 3e 1b 72 4a 3e
       0.45270482 0.5147065 0.47238705 0.1977009
0000f0 9a 14 0f 3e 8d 36 a6 be 45 19 70 3d 40 1e f1 bd
       0.13972703 -0.32463494 0.05861785 -0.11773348
000100 9f 69 bf bd ca 6a 68 3d 0c 95 85 3e 4b 7b 26 3e
       -0.093463175 0.056742467 0.26090276 0.1625797
000110 66 3d 14 be ab e9 5c be ad ed cb 3e 05 d8 69 3e
       -0.14476547 -0.21573512 0.3982977 0.22836311
000120 40 5a 2b be b8 55 1c 3f 1a 96 e2 be 38 e6 9e be
       -0.16733646 0.61068296 -0.44255143 -0.31035018
000130 d2 b9 ec 3e 06 6d aa be 3e a5 7c 3e 82 0e 86 be
       0.4623552 -0.33286303 0.2467241 -0.26182944
000140 30 34 57 3d 24 d2 33 3e a0 ad 57 bc c7 dd 33 3e
       0.052540004 0.17560631 -0.013163954 0.1756507
000150 9f 41 98 bd 87 a2 1a 3e 93 84 66 bf 9a 11 13 3f
       -0.07434391 0.15101062 -0.9004604 0.5744873
000160 4e e1 34 3f 2f bc eb 3a 18 a0 4f bf cb 34 98 be
       0.7065629 0.001798516 -0.8110366 -0.29727778
000170 51 4d 49 be a1 c3 79 3e 8f eb ae 3c 3b 00 a7 bd
       -0.196584 0.24391033 0.021352557 -0.08154341
000180 fa 7b 0b 3c 05 ba 64 3d 8a f5 0b 3e db ab 7c 3e
       0.008513445 0.055841465 0.13667884 0.24674933
000190 19 51 07 bf 45 1e 0b 3e d1 6a bc 3e a3 0d 10 be
       -0.5285812 0.13585766 0.36800244 -0.14067702
0001a0 d9 8e b3 3e 5c 8d 77 bc 02 be 93 bd d6 80 2e 3c
       0.35069922 -0.015109386 -0.072139755 0.010650834
0001b0 c2 00 5d 3c d4 2c 93 be ce 77 96 3e 34 c9 83 3d
       0.01348895 -0.2874514 0.2938828 0.06434861
0001c0 c0 2d f1 bb 59 7e 07 3e e5 ac 39 be de 58 7e bc
       -0.00736019 0.13231792 -0.1813236 -0.015524117
0001d0 00 be ea bb f3 8b 41 3e 4a 20 95 3e 77 7f e4 bc
       -0.007163763 0.18901043 0.29126197 -0.027892811
0001e0 a5 46 2c 3e 43 d2 1b 3e 6f 89 2c be 66 78 88 be
       0.16823824 0.15216927 -0.16849302 -0.26654357
0001f0 6e 84 c0 bd 4d e5 32 3e 38 15 90 3d a2 36 cd 3d
       -0.09400259 0.17470284 0.07035297 0.10020186
000200 79 16 8d 3d 69 f2 27 3c 9e 37 57 be 10 30 06 bf
       0.06889052 0.010250666 -0.2101731 -0.5241709
000210 fa 31 13 3e 74 3a da 3e 17 37 87 be 35 5b 44 3d
       0.14374533 0.4262272 -0.26409218 0.047938544
000220 aa 37 1f 3e 24 9b fe be 31 6f c1 3e 70 10 8b 3e
       0.15548578 -0.49727738 0.37780145 0.27160978
000230 e4 30 e9 be 04 2e 52 bd 1a a2 e0 3e 22 2b fb 3d
       -0.45545113 -0.051313415 0.43873674 0.12264086
000240 3e ad c5 bc 98 cb c3 bd 83 46 81 be 5a e8 ae bd
       -0.02413046 -0.09560317 -0.2524911 -0.08540411
000250 c2 c2 a1 bd 59 0d 8b bd 4b e3 9e bc 4e 67 99 3c
       -0.07898475 -0.06789655 -0.019395491 0.018726017
000260 bf 4d 53 bc b9 70 60 be 0d 31 23 3f d3 07 b4 3e
       -0.012896954 -0.21918 0.6374672 0.3516222
000270 3a 15 81 3e 6f ad 36 3d 5a ca 1e be d9 9f 89 3e
       0.25211507 0.044598993 -0.15506878 0.26879767
000280 22 44 01 be 41 17 37 be fe 3d e6 3d e2 7a 8d be
       -0.12623647 -0.17879964 0.11242293 -0.27632815
000290 f7 a7 8b 3d f0 41 d0 3e de f8 18 bd 18 19 40 3d
       0.06819146 0.40675306 -0.037346713 0.04689893
0002a0 57 38 80 3e e8 56 08 3e b9 86 30 bd 0b 40 6c be
       0.25042984 0.13314402 -0.04309723 -0.23071305
0002b0 62 c0 1c 3e f4 2a 2d bc 7f 62 6f 3e 95 88 35 3e
       0.15307763 -0.010569323 0.23377417 0.17727883
0002c0 2e 2a cb bd 6a 21 4f be 30 0c 95 be 90 87 44 bb
       -0.099201545 -0.2022759 -0.2911086 -0.0029988028
0002d0 35 38 3a 3e 9e 00 ee 3d dd 35 81 3e df 7c ad 3c
       0.18185504 0.116212115 0.25236407 0.021177707
0002e0 c7 14 fa be 35 84 1d be b7 2e 46 bf 7b e9 24 3f
       -0.48843977 -0.15382464 -0.7741503 0.6441876
0002f0 56 16 a6 3e 81 82 c2 be 17 be 03 be 67 61 a2 3e
       0.32438916 -0.37990192 -0.12865482 0.31714937
000300 9c 11 ba 3d 5d 70 03 be 92 a9 a8 3d 29 07 09 bf
       0.0908539 -0.12835832 0.08235468 -0.5352655
000310 dc 6c ca 3d e0 ef 83 3e 1f 5a b2 bc 15 a1 a4 3d
       0.098840445 0.25768948 -0.021771489 0.080385365
000320 89 05 7f 3e 33 4f 54 3e bf df d3 3e 9e f5 4e 3d
       0.24904455 0.20733337 0.41381642 0.050527208
000330 37 8a 60 bf d7 cd 2f be a0 d7 6d be 0c 8a a0 3d
       -0.877109 -0.17168365 -0.23226786 0.0783883
000340 76 e1 06 be 9b 5f 1e 3e 44 9b 91 be 6b 17 9b bd
       -0.13171944 0.15466158 -0.2843877 -0.07572826
000350 7b 6e 20 3d e6 dc 9c 3c 46 71 0a 3e 16 ba a9 be
       0.039167862 0.019148301 0.13519773 -0.33149785
000360 6b 00 4b 3e 35 7e 1e 3e f2 bf b2 bc 71 5e 6b 39
       0.19824378 0.15477832 -0.021820042 0.00022446529
000370 62 b9 37 3e 6f c8 43 be 29 e7 7c bd c3 be 7e 3e
       0.17941812 -0.19119428 -0.06174389 0.24877457
000380 8c c2 9f bd 03 13 09 3e c8 50 80 3e ad 08 10 3e
       -0.07800779 0.13386159 0.2506163 0.1406581
000390 09 5a 08 be 62 a2 90 be 0e d0 0c be b4 71 1f bf
       -0.13315596 -0.28248888 -0.13751242 -0.6228287
0003a0 09 64 23 3e 8b eb a2 3e 07 02 50 bf c1 71 05 bd
       0.15956129 0.3182033 -0.81253093 -0.032579187
0003b0 3e 7f 49 3d 04 ff c8 3e 50 28 ac be 4d c6 08 bf
       0.049193613 0.3925706 -0.33624506 -0.5342758
0003c0 21 8a 5a 3e d2 35 89 be 96 ae 14 be 48 e1 1d be
       0.21341754 -0.26798874 -0.14519724 -0.15417969
0003d0 bb 84 b0 3d 11 19 9b 3e b3 f8 88 3e f4 1e f4 3e
       0.08619066 0.30292562 0.26752242 0.47679865
0003e0 73 3c 79 be 5a 34 12 3f 3a fc a5 3c 0d 41 99 be
       -0.24339466 0.5711113 0.020261873 -0.29932442
0003f0 dd 0a 76 bd c9 8d c5 3e b1 59 68 3e 34 f1 04 3e
       -0.060068954 0.38584736 0.22690465 0.12982637
