logs/sdf_single_all_distances/state_49.pt (torch, 122503 bytes, 16 tensors)

fc1.weight f4 [32, 7]
0.19828138 -0.45046836 -0.2547937 -0.4104604 0.0012804925 0.47041005 -0.004719908 -0.4027837
-0.21839763 0.41320896 0.063927844 0.009640133 0.0007400523 0.00054919056 -0.7763185 1.079311
-0.033778336 0.53248316 -0.002594377 0.0064228927 0.0015304595 -0.49804676 0.71449155 0.34201157
-0.74560744 0.01616705 0.044036005 0.0011093244 0.036094047 -0.026792798 -0.017046258 0.19756895
0.7283183 0.6859462 -0.029091325 0.0017201214 -0.18595123 0.002976367 0.2387226 0.055218235
-0.12310448 0.0040844064 0.6669465 -0.77314955 -0.056728147 -0.6062433 -0.016168455 0.00536239
0.00015755968 -1.0858406 0.11563714 0.35290673 0.4450799 0.013570329 0.05579329 -0.0054686023
-0.088712074 0.5451451 -0.060594693 -0.36806288 0.06600923 -0.21890816 -0.0063840663 -0.5650555
0.08029695 -0.65533537 0.38612342 -0.018100895 0.024003303 -0.0011442805 0.24276164 -0.29305413
0.21930507 0.23734032 0.032314748 -0.04882782 -0.00069212675 1.0554774 1.0717515 0.10282639
0.2799006 0.013234495 0.015310374 -0.00068153074 -0.8991309 -0.2903039 -1.097375 -0.24070898
-0.009843103 0.019706236 -0.0016121393 0.9517489 0.3718419 0.9370272 -0.3395879 -0.026951864
0.00036773694 0.001764929 -0.43198693 -0.47915858 -0.043327242 0.2980714 0.003921315 -0.02259147
0.0006314591 0.48739448 0.4753888 0.07481043 0.23224984 -0.009997945 0.0062417933 0.0018225197
-0.21594857 -0.9563667 0.1746799 -0.9229219 0.08699151 0.108289644 -0.008883335 -0.07058909
-0.2469127 1.3802667 -0.17516455 0.051660363 0.013550005 -0.001224541 -0.38669866 -0.3903235
-0.44933972 -0.15372863 0.022177907 -0.0040316256 0.0009556572 0.6305184 -0.22035144 0.6061389
0.16912694 0.027624706 0.010450678 -0.0013984981 0.5634512 0.8093978 -0.46484447 0.3510245
-0.0061810343 -0.021396928 0.0002696176 -0.0048591155 0.32067275 -0.07897631 -0.5236272 0.4058754
0.271798 -0.0061969445 0.65601563 0.76843697 -0.11374404 0.74984246 -0.0019285788 -0.0023948452
-0.0021596854 0.71530664 -0.34661782 0.7961807 0.55209285 0.0061372956 0.011666793 -0.0022335276
-0.023264121 -0.034393355 0.4415667 0.8334099 -0.018519007 0.06162099 0.004394833 -0.7951565
-0.7509942 0.09196952 0.4020585 0.009803995 0.015536471 -0.0016473021 -0.67729855 -0.20874883
-0.67575103 0.21208334 -0.02509655 -0.009234863 0.0017275516 0.4854698 0.22451098 0.5456645
0.3220899 0.0041366527 0.023590952 -0.00088067725 -0.24552539 -0.15428609 0.31979844 0.17744288
-0.10781905 0.2938831 -0.015316784 1.3646677 -0.9781229 -0.100567654 0.38924065 0.02037459
-0.01918543 0.00071131514 0.7288488 0.7491998 -0.0060522053 -0.43115026 -0.0037071207 0.1451305
-0.009663035 -0.021630993 0.45527053 0.16158354 -0.20342627 -0.22066516 0.18389328 0.0074658156
00000000: 460a 4b3e caa3 e6be 5274 82be de27 d2be
00000010: 33d6 a73a 96d9 f03e 75a9 9abb aa39 cebe
00000020: a1a3 5fbe 2090 d33e 9aec 823d a6f1 1d3c
00000030: 1200 423a 8ef7 0f3a cfbc 46bf dd26 8a3f
00000040: 275b 0abd d150 083f 6c06 2abb 2177 d23b
00000050: b399 c83a fcff febe ebe8 363f 241c af3e
00000060: 21e0 3ebf c370 843c 195f 343d c066 913a
00000070: 5ad7 133d 927c dbbc 98a4 8bbc 844f 4a3e
00000080: 1173 3a3f 2c9a 2f3f ee50 eebc b275 e13a
00000090: 006a 3ebe 270f 433b b273 743e 842c 623d
000000a0: 341e fcbd 7cd6 853b 01bd 2a3f 21ed 45bf
000000b0: c65b 68bd c332 1bbf b573 84bc fdb6 af3b
000000c0: 9b36 2539 d3fc 8abf 2ad3 ec3d 31b0 b43e
000000d0: 83e1 e33e 1656 5e3c 8187 643d f631 b3bb
000000e0: adae b5bd a18e 0b3f 2432 78bd bd72 bcbe
000000f0: d92f 873d 7629 60be 6e31 d1bb 7aa7 10bf
00000100: ba72 a43d 0fc4 27bf f8b1 c53e 5448 94bc
00000110: 93a2 c43c affb 95ba 8296 783e 310b 96be
00000120: 8291 603e 5709 733e 785c 043d aeff 47bd
00000130: d76f 35ba e219 873f 272f 893f a496 d23d
00000140: 224f 8f3e 7fd5 583c 5dd8 7a3c c1a8 32ba
00000150: 712d 66bf b6a2 94be c976 8cbf 6a7c 76be
00000160: f744 21bc f96e a13c 6b4e d3ba d1a5 733f
00000170: 1062 be3e 04e1 6f3f 77de adbe 28ca dcbc
00000180: d1cc c039 3155 e73a 642d ddbe 4654 f5be
00000190: e877 31bd d19c 983e 607e 803b bf11 b9bc
000001a0: 8188 253a c58b f93e 2966 f33e 3636 993d
000001b0: e7d2 6d3e 6cce 23bc f587 cc3b 9de1 ee3a
000001c0: 9f21 5dbe 73d4 74bf 4adf 323e 9c44 6cbf
000001d0: 9b28 b23d f6c6 dd3d 688b 11bc 0391 90bd
000001e0: afd6 7cbe 94ac b03f 565e 33be d199 533d
000001f0: d700 5e3c c780 a0ba 5efd c5be 7bd8 c7be
00000200: db0f e6be 0a6b 1dbe 71ae b53c ba1b 84bb
00000210: 1285 7a3a a769 213f cfa3 61be eb2b 1b3f
00000220: 9d2f 2d3e 354d e23c 5239 2b3c cf4d b7ba
00000230: 563e 103f b234 4f3f 1800 eebe 7cb9 b33e
00000240: 468a cabb 9c48 afbc 765b 8d39 3739 9fbb
00000250: 382f a43e 55be a1bd 6f0c 06bf e7ce cf3e
00000260: 1c29 8b3e bd0f cbbb a4f0 273f 49b8 443f
00000270: a3f2 e8bd adf5 3f3f 5ec8 fcba d6f2 1cbb
00000280: 8289 0dbb 561e 373f e477 b1be 80d2 4b3f
00000290: f555 0d3f 5e1b c93b 1426 3f3c 6060 12bb
000002a0: 6694 bebc 0ce0 0cbd 0815 e23e 5a5a 553f
000002b0: 2cb5 97bc 4b66 7c3d 8802 903b 608f 4bbf
000002c0: 2841 40bf 845a bc3d 9dda cd3e efa0 203c
000002d0: af8c 7e3c 49ea d7ba 7063 2dbf 41c2 55be
000002e0: 05fe 2cbf 602c 593e 4897 cdbc d34d 17bc
000002f0: 036f e23a 7f8f f83e 35e6 653e abb0 0b3f
00000300: f8e8 a43e c28c 873b d041 c13c 40dd 66ba
00000310: 026b 7bbe 2cfd 1dbe 9fbc a33e 96b3 353e
00000320: 3cd0 dcbd d877 963e 40f3 7abc 6ead ae3f
00000330: 4366 7abf 6af6 cdbd 8d4a c73e 9de8 a63c
00000340: c32a 9dbc 8d77 3a3a d695 3a3f 8fcb 3f3f
00000350: 9451 c6bb babf dcbe 2af3 72bb 179d 143e
00000360: b551 1ebc 7b33 b1bc 3819 e93e 2876 253e
00000370: fa4e 50be 0cf6 61be 854e 3c3e cda3 f43b

fc1.bias f4 [32]
1.1361763 0.8805604 0.5604499 0.23362456 -0.09014183 1.5321085 0.8053001 -0.13917063
1.6261712 0.6920355 1.2405479 -0.12072431 -0.14231294 0.05205109 0.8440937 0.89151466
0.069054164 -0.07336618 0.6821717 0.59492475 -0.49602476 0.89824796 0.075916365 -0.08337653
1.2968378 0.1294366 -0.6640569 0.62241244 1.1779786 -0.5429344 0.22360957 1.2311102
00000000: 3a6e 913f 686c 613f a579 0f3f 473b 6f3e
00000010: 489c b8bd 221c c43f 2628 4e3f bf82 0ebe
00000020: 6126 d03f 3d29 313f 46ca 9e3f 4f3e f7bd
00000030: 7cba 11be 8633 553d 8616 583f 4e3a 643f
00000040: 456c 8d3d 0241 96bd cea2 2e3f fd4c 183f
00000050: f5f6 fdbe 94f3 653f 0a7a 9b3d 50c1 aabd
00000060: c8fe a53f 078b 043e a2ff 29bf 6c56 1f3f
00000070: 01c8 963f c0fd 0abf e8f9 643e 0595 9d3f

fc2.weight f4 [128, 32]
0.016517915 0.2652058 -0.046169776 0.16659532 0.06932581 -0.06720082 0.22965707 0.034464106
0.34526008 0.2896597 0.25382152 0.4916494 0.16644612 0.3458382 0.27610373 0.21812293
0.14751892 0.23907876 0.37660798 0.040725693 -0.06948951 0.19177699 0.23210514 0.049978256
0.0063617504 0.0690322 -0.11697649 0.20943952 0.12929352 0.1301319 -0.109819174 0.07635185
0.23349543 0.15795578 -0.8977367 -0.6009105 0.015031402 0.4799136 0.115359254 -0.6179063
0.036179125 -0.14053169 0.57121676 0.38679978 -0.059776235 0.15438728 0.28584388 0.07819775
-0.40019235 -0.002107675 -0.07134674 0.045444064 0.40539646 -0.053579092 0.35992 -0.4282808
0.43134606 0.4308523 0.3691514 0.34522572 0.16254486 -0.22100465 -0.024803823 -0.12524553
-0.042188905 0.06239413 0.0748159 0.07110567 -0.18451345 -0.10891583 0.30390695 0.040837973
-0.03969802 0.39696494 -0.4857676 -0.5327223 0.3475804 -0.043054808 0.09444504 -0.36650097
0.13747232 0.013167178 0.025336796 0.22961898 -0.09262207 0.23545268 -0.67982197 0.18339287
0.5512455 0.006252164 -0.46986854 -0.09132639 -0.0023676686 0.15422419 0.074756496 -0.034464784
-0.012805483 -0.014116695 0.013018546 0.25939408 -0.3904091 0.056971945 0.35234874 -0.14801484
0.339878 0.09447211 -0.18635188 -0.0718243 0.07781662 -0.1884164 0.16573228 0.05124341
0.0019585183 0.10302754 -0.21756758 -0.029847642 -0.09433726 0.19380766 0.096672736 -0.13788138
0.009992727 0.15658844 -0.16975985 -0.18952605 -0.010405506 0.15098055 0.11890653 0.14145961
0.03533746 0.19014691 -0.27947098 -0.58581287 0.12418555 0.37264374 -0.19044854 -0.11652345
0.14539549 -0.19372647 0.32815558 0.16468771 -0.37188664 0.01707041 0.27897727 0.13114816
-0.05057706 -0.11452358 -0.22200072 -0.055354904 0.06250266 -0.03305319 0.06806089 -0.005149581
0.044347137 -0.1863001 -0.056457028 0.2916665 0.2576885 0.008455141 -0.21581706 0.26248485
-0.084256545 -0.11429113 0.13629408 -0.25428566 0.17054744 0.35068762 -0.03372043 -0.13232951
0.15164623 0.18472257 0.13676737 -0.14059973 0.20531493 0.0021705297 0.25403962 0.12148346
-0.1702658 -0.060160276 -0.2522885 -0.019681381 0.21940877 0.058791 0.2666331 -0.074552335
-0.3382295 -0.12375695 -0.805219 0.49816152 0.26672748 -0.13882935 -0.23266244 0.2543101
0.035792153 -0.012980621 0.026932746 -0.5342705 0.08082534 0.20937201 -0.090676025 0.11822248
0.2251116 0.14055452 0.29184353 0.014122021 -0.6500424 -0.087813675 -0.086813115 0.08124068
-0.12437364 0.059826285 -0.24183671 0.049811892 -0.014371087 0.029612068 0.118987575 -0.19449535
0.37880415 0.031033596 -0.12609348 0.030341512 0.15000279 -0.10266385 -0.0589198 0.22516517
-0.13229167 0.093154944 0.14097923 0.13837153 -0.08996592 -0.26486441 -0.09390214 -0.40475622
0.16473134 0.2414952 -0.69216955 0.2577827 0.16866608 0.31245476 -0.22227024 -0.41072622
0.010817354 -0.083203785 -0.0034624292 -0.24380523 -0.0069239354 0.1940071 0.13991395 0.24069606
-0.50894415 0.56436497 -0.084387176 -0.2574401 0.00034079753 0.44366083 0.28504628 0.1683772
00000000: 9450 873c 0ec9 873e 851c 3dbd f797 2a3e
00000010: b1fa 8d3d 95a0 89bd 392b 6b3e 3c2a 0d3d
00000020: eec5 b03e 474e 943e e5f4 813e 78b9 fb3e
00000030: da70 2a3e b411 b13e 785d 8d3e 9e5b 5f3e
00000040: 330f 173e 10d1 743e c3d2 c03e fccf 263d
00000050: 8450 8ebd 3061 443e f8ac 6d3e 00b6 4c3d
00000060: 3b76 d03b c160 8d3d 5f91 efbd 5077 563e
00000070: 8565 043e 4c41 053e e0e8 e0bd 5c5e 9c3d
00000080: 6d19 6f3e 29bf 213e 13d2 65bf 45d5 19bf
00000090: 4546 763c 3cb7 f53e 7941 ec3d 1b2f 1ebf
000000a0: 9030 143d 8ae7 0fbe 433b 123f 9f0a c63e
000000b0: edd7 74bd b317 1e3e 215a 923e 2426 a03d
000000c0: 03e6 ccbe eb20 0abb 3d1e 92bd 8e23 3a3d
000000d0: 2090 cf3e c075 5bbd 6f47 b83e 9f47 dbbe
000000e0: 64d9 dc3e ac98 dc3e 6a01 bd3e 6dc1 b03e
000000f0: 2972 263e 0b4f 62be 6331 cbbc 5d40 00be
00000100: 46ce 2cbd fd90 7f3d 1439 993d d99f 913d
00000110: 18f1 3cbe 430f dfbd b199 9b3e b845 273d
00000120: 649a 22bd fd3e cb3e 88b6 f8be 7d60 08bf
00000130: 0ff6 b13e 3d5a 30bd 676c c13d 04a6 bbbe
00000140: 8bc5 0c3e 26bb 573c 1d8f cf3c 3d21 6b3e
00000150: a4b0 bdbd 821a 713e d008 2ebf 57cb 3b3e
00000160: 6d1e 0d3f f4de cc3b 9c92 f0be 5509 bbbd
00000170: e32a 1bbb f2ec 1d3e ef19 993d f22a 0dbd
00000180: 17ce 51bc b649 67bc bd4b 553c 4dcf 843e
00000190: b4e3 c7be 6a5b 693d 0e67 b43e 3491 17be
000001a0: 7d04 ae3e 987a c13d 07d3 3ebe 9e18 93bd
000001b0: 525e 9f3d 3bf0 40be b9b5 293e 9ce4 513d
000001c0: 7c5a 003b 1a00 d33d 09ca 5ebe 0b83 f4bc
000001d0: e533 c1bd 8475 463e 5bfc c53d c730 0dbe
000001e0: 89b8 233c b858 203e 87d5 2dbe 1e13 42be
000001f0: db7b 2abc a59a 1a3e 4485 f33d cada 103e
00000200: 03be 103d dfb5 423e d216 8fbe d5f7 15bf
00000210: fe54 fe3d 29cb be3e f104 43be d9a3 eebd
00000220: 8ee2 143e 3b60 46be 0204 a83e e5a3 283e
00000230: ed67 bebe 3fd7 8b3c 1cd6 8e3e b44b 063e
00000240: e429 4fbd 578b eabd 2854 63be d3bb 62bd
00000250: 6501 803d c862 07bd 8263 8b3d d1bd a8bb
00000260: 58a5 353d 74c5 3ebe 7c3f 67bd 5055 953e
00000270: bfef 833e 6f87 0a3c 26ff 5cbe 6a64 863e
00000280: b28e acbd 7811 eabd ad90 0b3e bb31 82be
00000290: fda3 2e3e 548d b33e 6f1e 0abd 6381 07be
000002a0: 2649 1b3e ea27 3d3e bf0c 0c3e 60f9 0fbe
000002b0: 143e 523e 723f 0e3b 7b11 823e 52cc f83d
000002c0: 285a 2ebe 9f6a 76bd f52b 81be d93a a1bc
000002d0: b1ac 603e d5ce 703d 2284 883e e5ae 98bd
000002e0: 6b2c adbe 4974 fdbd d522 4ebf 070f ff3e
000002f0: 8190 883e 4829 0ebe 103f 6ebe ef34 823e
00000300: cb9a 123d acac 54bc 10a2 dc3c f4c5 08bf
00000310: c187 a53d 9e65 563e 5ab4 b9bd a11e f23d
00000320: a883 663e 86ed 0f3e 846c 953e 0d60 673c
00000330: 2e69 26bf a8d7 b3bd 13cb b1bd 8361 a63d
00000340: 9bb7 febd 680c 753d 0ba4 77be 8e07 4c3d
00000350: b574 6bbc 0295 f23c c2af f33d ca29 47be
00000360: 9ef2 c13e 2b3a fe3c a61e 01be c38e f83c
00000370: 559a 193e 6d41 d2bd e355 71bd b391 663e
00000380: 7877 07be 05c8 be3d dc5c 103e 44b1 0d3e
00000390: 0d40 b8bd 4f9c 87be c44f c0bd 353c cfbe
000003a0: 55af 283e 854a 773e 0632 31bf 18fc 833e
000003b0: cdb6 2c3e 12fa 9f3e cf9a 63be b54a d2be
000003c0: 453b 313c bf66 aabd ece9 62bb 14a8 79be
000003d0: 2ee2 e2bb cca9 463e 9a45 0f3e 0779 763e
000003e0: 2a4a 02bf 397a 103f 2fd3 acbd 30cf 83be
000003f0: 12ad b239 8327 e33e 96f1 913e 136b 2c3e

fc2.bias f4 [128]
0.28937647 0.22509556 0.047084328 0.14346913 0.385575 0.28714874 0.67003226 0.051925663
0.42578107 0.6284412 0.039463554 0.20441698 0.6443044 0.39581737 0.27918565 0.07370754
0.44128513 0.550477 0.6138811 0.4191262 0.68348426 0.25244877 0.37798706 0.42164803
0.7646625 0.6032781 -0.30170548 0.5818633 -0.11274037 0.49541175 0.17695166 0.5847474
0.9534404 0.35365206 0.41224736 0.5606644 0.61555034 0.39018172 0.57068974 0.44247416
0.6532147 0.46227807 0.4942001 0.21056098 0.40665144 0.49721137 0.21513592 0.10149285
0.31785947 0.15576966 0.3584211 0.69914097 0.74162185 0.15719062 0.52551866 -0.08887681
0.62559676 0.036851414 0.50612664 0.64887244 0.13115898 0.31098548 0.30912596 0.47374058
0.2364355 0.31451118 0.10443914 0.30377847 0.18202464 0.33666173 0.4432039 0.56676996
0.50233805 0.5266261 0.2636495 0.33392984 0.26737756 0.49027538 0.6868117 0.18937135
0.919276 0.019475846 0.52066576 0.32051593 0.38746127 0.08187742 0.3580982 0.19120663
0.66920155 0.69467026 0.3945618 0.5354558 0.814993 0.53554463 0.42174536 0.30198532
0.6681036 0.66560465 0.25034028 0.16267727 0.512537 0.55877423 0.5338932 0.14650135
0.6940048 0.33141014 -0.14660238 0.018422678 -0.23013821 -0.10582394 0.33758724 0.4948327
0.59839576 0.37266448 0.06605515 0.45237204 0.34334213 0.16288505 0.22925158 0.49511522
0.5490954 0.42867064 0.65376294 0.51641613 0.7648384 0.54246104 0.8272919 0.5082715
00000000: 2729 943e 737f 663e 7fdb 403d 92e9 123e
00000010: 166a c53e 2905 933e 3c87 2b3f 01b0 543d
00000020: faff d93e 86e1 203f 89a4 213d af52 513e
00000030: 22f1 243f 93a8 ca3e 6cf1 8e3e fbf3 963d
00000040: 20f0 e13e 10ec 0c3f 5027 1d3f b697 d63e
00000050: d3f8 2e3f f740 813e 8587 c13e 40e2 d73e
00000060: ecc0 433f 6f70 1a3f 2479 9abe fef4 143f
00000070: 6ce4 e6bd 9ca6 fd3e d132 353e 01b2 153f
00000080: ac14 743f e211 b53e 1612 d33e b487 0f3f
00000090: b594 1d3f e6c5 c73e b918 123f f98b e23e
000000a0: 1439 273f b6af ec3e cc07 fd3e 4c9d 573e
000000b0: 9e34 d03e 7d92 fe3e 974c 5c3e 7cdb cf3d
000000c0: 7abe a23e 1582 1f3e f882 b73e e7fa 323f
000000d0: eeda 3d3f 94f6 203e 6488 063f 0c05 b6bd
000000e0: 1c27 203f 82f1 163d 8491 013f 811c 263f
000000f0: 8a4e 063e 7d39 9f3e c245 9e3e 208e f23e
00000100: 261c 723e 9c07 a13e 30e4 d53d da88 9b3e
00000110: ab64 3a3e ed5e ac3e 9feb e23e d617 113f
00000120: 3a99 003f f8d0 063f 11fd 863e daf8 aa3e
00000130: b6e5 883e 6005 fb3e e4d2 2f3f 90ea 413e
00000140: ac55 6b3f cf8b 9f3c 5a4a 053f aa1a a43e
00000150: 5361 c63e 59af a73d a658 b73e accb 433e
00000160: cb50 2b3f e9d5 313f 0104 ca3e a213 093f
00000170: 62a3 503f 7419 093f 02ef d73e d29d 9a3e
00000180: d608 2b3f 1165 2a3f 9a2c 803e df94 263e
00000190: a035 033f d40b 0f3f 3aad 083f 7304 163e
000001a0: 4caa 313f 97ae a93e ef1e 16be 28eb 963c
000001b0: 5aa9 6bbe 39ba d8bd 3cd8 ac3e b65a fd3e
000001c0: 7730 193f e1cd be3e ec47 873d 4f9d e73e
000001d0: 8aca af3e 57cb 263e edc0 6a3e be7f fd3e
000001e0: 8491 0c3f b87a db3e 025d 273f d933 043f
000001f0: 73cc 433f bade 0a3f 67c9 533f 151e 023f

fc3.weight f4 [64, 128]
0.09387785 -0.14052792 -0.31260467 -0.025906274 -0.37050262 -0.18547566 0.19195643 -0.3344245
0.36822683 0.047545638 -0.016615245 -0.26028356 -0.041187163 0.057152636 0.2761657 -0.12526155
0.049350698 -0.38677755 -0.041356277 -0.08464095 0.3272534 -0.18102142 0.000588708 0.37359375
0.63261324 0.024324808 -0.11283623 0.09480676 -0.5053059 0.1843223 -0.39091602 0.048350908
-0.37017405 0.32126817 -0.6287083 0.50353277 -0.43092674 0.538233 0.919485 -0.20674838
0.53396237 -0.2599863 -0.31006622 0.42319262 0.2574942 0.18655232 0.09371539 0.38688168
-0.16054934 0.42332 0.2689906 -0.27186745 0.017434979 0.39672002 -0.024698026 0.03480376
0.48814163 0.046188194 -0.012387564 -0.07076873 -0.5199941 -0.3031527 -0.5980955 -0.7118444
-0.30735147 -0.30726424 -0.1262457 0.218643 -0.4511362 -0.65069026 0.0026095035 0.3053911
-0.109760456 -0.00052075746 0.98647285 0.3063073 0.75383496 0.28846508 1.3665761 -0.54718864
-0.33649763 -0.117772 -0.48153827 0.142549 -0.5942846 1.5947812 0.06879555 0.42354104
0.078515485 0.1583144 0.06735797 -0.6991119 0.32092494 -0.4404578 -0.8003645 0.43489504
-0.17780975 0.13846351 -0.040914647 -0.31328171 -0.15509574 0.31152144 0.5697449 -0.28420773
-0.74070734 0.1995732 -0.26659125 -0.6797449 -0.18544747 0.32422107 -0.09700231 -0.161019
-0.052763056 -0.032326374 0.21233128 1.0831771 -0.3165019 -0.026922397 0.2521169 0.0027900015
0.17243154 -0.2849433 0.5661206 0.8466259 -0.03037282 -0.27113557 0.329042 0.31170627
-0.045926295 0.13174027 0.29454997 0.23229507 0.7011808 0.49179432 0.4304905 0.78729826
-0.15924676 -0.4688177 0.4456303 0.30265328 -0.50131845 -0.10769292 0.07096356 0.24679969
0.4088825 -0.25605464 0.35369152 -0.08862798 0.34224692 -0.3282564 0.30421194 0.082109265
0.04215204 -0.10946208 0.24357858 -0.11806906 0.047203347 0.33362997 -0.45499137 -0.2238842
-0.10557267 0.36952096 0.6108212 -0.20402667 -0.24743503 0.51425385 -0.45014822 0.6141657
-0.024487179 0.16370009 0.64110583 0.11390898 0.5307706 0.28419742 0.37939492 0.23701662
-0.43666467 0.29784665 0.67184025 0.10898157 -0.1815367 0.04109036 0.092278466 -0.012212977
0.15352893 0.34016633 -0.40771356 -0.17469938 0.5115293 0.5736507 -0.08115597 0.4084127
-0.040557515 -0.06988824 0.20017323 0.08613546 0.4583572 0.5210011 -0.026972368 -0.047673665
-0.30291417 0.18525676 0.31392938 0.33545512 0.2385298 -0.7724311 -0.34766656 0.6956552
-0.03855778 0.06910998 -0.24706525 -0.2842507 0.31511387 0.3283297 0.14544986 0.19639349
-0.11144086 -0.69112986 0.080710195 -0.16127507 -0.44900298 0.22194687 0.08173428 0.5302522
0.43881816 -0.12837964 -0.3254291 0.47140223 0.20925668 -0.5464505 -0.0006775764 0.07660709
1.3248544 -0.11759818 -0.12502386 0.51422703 0.12947789 -0.28008473 0.33598858 -0.17846155
0.54240376 0.33513626 0.54008937 0.14146782 -0.13097753 0.07559503 0.13285907 -0.030082714
0.58058655 -0.28008807 -0.5067469 0.05039903 -0.13363609 0.37023854 -0.7247091 0.13700095
00000000: 0843 c03d 8de6 0fbe b80d a0be 6539 d4bc
00000010: 85b2 bdbe 55ed 3dbe 3a90 443e b039 abbe
00000020: 3a88 bc3e 37bf 423d b21c 88bc e343 85be
00000030: dfb3 28bd e218 6a3d 9765 8d3e 9044 00be
00000040: f523 4a3d b507 c6be 3365 29bd 3c58 adbd
00000050: c28d a73e ae5d 39be 8653 1a3a ae47 bf3e
00000060: f1f2 213f d244 c73c ae16 e7bd 0c2a c23d
00000070: ba5b 01bf fcbe 3c3e 2526 c8be 9a0b 463d
00000080: 7487 bdbe 437d a43e 07f3 20bf 86e7 003f
00000090: 6ea2 dcbe a3c9 093f 5e63 6b3f d9b5 53be
000000a0: c2b1 083f ed1c 85be 00c1 9ebe b4ac d83e
000000b0: 48d6 833e 9207 3f3e dbed bf3d 5b15 c63e
000000c0: 0c67 24be 66bd d83e 23b9 893e 3632 8bbe
000000d0: cdd3 8e3c e31e cb3e 8453 cabc 638e 0e3d
000000e0: b3ed f93e d52f 3d3d 36f5 4abc 32ef 90bd
000000f0: 551e 05bf d536 9bbe c91c 19bf 6f3b 36bf
00000100: 2c5d 9dbe bd51 9dbe 8e46 01be f3e3 5f3e
00000110: 53fb e6be a393 26bf 3404 2b3b 395c 9c3e
00000120: 17ca e0bd 7183 08ba 7c89 7c3f 4fd4 9c3e
00000130: 54fb 403f b2b1 933e f7eb ae3f 8e14 0cbf
00000140: 6b49 acbe 7232 f1bd 2f8c f6be 5df8 113e
00000150: 0923 18bf ca21 cc3f aee4 8c3d 5fda d83e
00000160: bacc a03d 2c1d 223e faf2 893d fff8 32bf
00000170: 4650 a43e af83 e1be b0e4 4cbf 90aa de3e
00000180: c213 36be 61c9 0d3e 1e96 27bd 7666 a0be
00000190: 6bd1 1ebe bd7f 9f3e cdda 113f ad83 91be
000001a0: ff9e 3dbf eb5c 4c3e a67e 88be c303 2ebf
000001b0: f1e5 3dbe 4e00 a63e 26a9 c6bd 2ae2 24be
000001c0: 131e 58bd a968 04bd 5f6d 593e 8ca5 8a3f
000001d0: 890c a2be 5c8c dcbc 7715 813e 75d8 363b
000001e0: e591 303e 17e4 91be 48ed 103f 7abc 583f
000001f0: 6cd0 f8bc 48d2 8abe 3178 a83e f797 9f3e
00000200: 361d 3cbd ece6 063e 41cf 963e c2de 6d3e
00000210: 9680 333f 77cc fb3e 4069 dc3e 618c 493f
00000220: 9511 23be e008 f0be a829 e43e 5ff5 9a3e
00000230: 6856 00bf 1b8e dcbd 5855 913d 0fb9 7c3e
00000240: 0c59 d13e 9819 83be 0e17 b53e 9682 b5bd
00000250: fd3a af3e 3911 a8be abc1 9b3e e728 a83d
00000260: 9ea7 2c3d a82d e0bd aa6c 793e 31ce f1bd
00000270: 4c58 413d 8cd1 aa3e a1f4 e8be e641 65be
00000280: 7c36 d8bd da31 bd3e c75e 1c3f 5eec 50be
00000290: 9c5f 7dbe 24a6 033f d479 e6be f739 1d3f
000002a0: 5699 c8bc ffa0 273e 831f 243f 1c49 e93d
000002b0: 95e0 073f 5382 913e 0d40 c23e 7cb4 723e
000002c0: 8392 dfbe 5b7f 983e b9fd 2b3f bb31 df3d
000002d0: c2e4 39be 5e4e 283d 7efc bc3d f018 48bc
000002e0: b036 1d3e 482a ae3e d5bf d0be 65e4 32be
000002f0: 96f3 023f c6da 123f 1a35 a6bd 781b d13e
00000300: a31f 26bd 9121 8fbd 36fa 4c3e ca67 b03d
00000310: cbad ea3e 5460 053f 28f5 dcbc 7645 43bd
00000320: 9117 9bbe f3b3 3d3e 5abb a03e c6c0 ab3e
00000330: 2841 743e 0bbe 45bf 5a01 b2be 7616 323f
00000340: c3ee 1dbd 8889 8d3d acfe 7cbe 4f89 91be
00000350: 9b56 a13e d51a a83e cff0 143e 601b 493e
00000360: 1b3b e4bd e3ed 30bf 634b a53d 4b25 25be
00000370: b8e3 e5be 0a46 633e 4d64 a73d 9cbe 073f
00000380: c6ac e03e f475 03be a59e a6be a25b f13e
00000390: 6247 563e 2ee4 0bbf 629f 31ba 2ee4 9c3d
000003a0: d494 a93f 51d7 f0bd 4106 00be 62a4 033f
000003b0: da95 043e 4467 8fbe b206 ac3e a0be 36be
000003c0: f9da 0a3f fb96 ab3e 4c43 0a3f f1dc 103e
000003d0: f91e 06be 91d1 9a3d 350c 083e 0670 f6bc
000003e0: 52a1 143f b467 8fbe 2aba 01bf 376f 4e3d
000003f0: e6d7 08be e88f bd3e 8986 39bf fa49 0c3e

fc3.bias f4 [64]
0.31294054 -0.15432219 -0.035929907 0.07607868 0.7146539 0.10934355 0.0268065 0.21587335
0.15702271 -0.06720049 -0.06355083 0.28114545 0.42813075 0.09511843 0.3238852 0.009954701
0.8863362 0.051049136 0.31392273 0.166913 1.0467986 0.48125765 -0.17302758 0.11998775
0.14338697 -0.08242251 0.011012109 0.50289047 0.6780186 0.1512315 0.3235648 0.57422966
0.10598947 -0.009794056 0.039786775 0.01932569 1.0746748 -0.07229124 0.07489635 0.12349185
0.0045712735 0.051902696 -0.023594754 0.30296385 -0.02161034 -0.15023242 0.028959172 -0.037047755
0.12323606 0.27852017 -0.18757856 -0.2855213 0.10440847 0.10505071 0.20179158 1.0151743
0.005671363 0.007063342 0.2708051 0.05252596 0.1436883 0.08427236 0.5146714 0.3427539
00000000: be39 a03e a306 1ebe 3d2b 13bd 24cf 9b3d
00000010: 8ff3 363f 83ef df3d 4e99 db3c e70d 5d3e
00000020: 90ca 203e 69a0 89bd f026 82bd 4cf2 8f3e
00000030: f433 db3e 74cd c23d 48d4 a53e 0b19 233c
00000040: eee6 623f e618 513d 7bba a03e 3eeb 2a3e
00000050: 7ffd 853f 6767 f63e 242e 31be 23bc f53d
00000060: 09d4 123e 22cd a8bd 226c 343c 6ebd 003f
00000070: a192 2d3f 6edc 1a3e 49aa a53e b700 133f
00000080: 0211 d93d 4077 20bc 75f7 223d e950 9e3c
00000090: f28e 893f 6e0d 94bd 4263 993d 4ce9 fc3d
000000a0: 9fca 953b ec97 543d c949 c1bc 141e 9b3e
000000b0: 2b08 b1bc 87d6 19be c93b ed3c 63bf 17bd
000000c0: 3063 fc3d 329a 8e3e 9814 40be d92f 92be
000000d0: 1cd4 d53d d424 d73d 74a2 4e3e 3bf1 813f
000000e0: d7d6 b93b 9b73 e73b f7a6 8a3e 7625 573d
000000f0: 0723 133e fd96 ac3d 81c1 033f 707d af3e

fc4.weight f4 [30, 64]
0.15313363 0.01062302 -0.06865106 -0.02425523 -0.058002573 -0.06211315 -0.22659214 0.020204294
0.14704867 0.039183844 0.0002484845 0.059132066 0.8289746 -0.02625702 -0.0535157 0.0073542967
0.21609259 -0.34622368 -0.25782442 0.025817916 0.45296097 -0.02031331 -0.003641167 0.11067913
-0.052771218 -0.05380894 0.18841515 -0.02545856 0.40500334 0.19911265 -0.04328219 -0.00045922238
-0.04868866 -0.046828356 0.03413778 -0.01751411 0.9672991 -0.0139119215 -0.19800924 0.098645724
0.23530906 -0.0074218353 -0.0005910807 -0.41785973 -0.08916092 -0.4056817 0.044585887 -0.06530635
-0.09831944 -0.009670533 -0.06624204 0.004050426 0.10007176 -0.15172254 0.05604979 0.5612487
0.11215524 0.004287978 -0.22708815 -0.5005803 0.0043604607 0.039225604 0.5351521 -0.3124625
0.10999878 0.021051051 0.107600585 0.039793566 -0.018678783 -0.0781109 -0.16427155 0.012669437
0.085363805 0.038157795 0.108122066 0.031787463 0.55847925 -0.025071569 -0.045431435 0.004658365
0.16210757 -0.2230922 -0.18786983 0.015560627 0.30014092 -0.013685401 0.0073874756 0.07927287
-0.049423113 -0.039159454 0.1410856 -0.019890187 0.29949486 0.045919377 -0.024786057 -0.0020168964
-0.032020673 -0.031790793 -0.035966437 -0.03524234 0.65682673 -0.053491656 -0.11013157 0.04766999
0.1716637 0.004915056 0.0015100024 -0.35117957 -0.041385937 -0.29494324 -0.112970866 -0.06136395
-0.07135544 -0.005476396 -0.034111142 0.009179106 0.075275995 -0.104629695 0.039445363 0.3822104
0.11427665 0.0013171909 -0.16441299 -0.3993393 0.006923557 0.06700794 0.38574925 -0.20316216
0.034501802 0.025365194 0.039210394 0.019291304 -0.017852245 -0.064073645 -0.13373484 0.010418035
0.051756285 0.03110285 0.10171467 -0.0044488055 0.45385015 -0.052172948 -0.036075283 0.0069226404
0.15771928 -0.16067338 -0.12362182 0.0051348484 0.21137504 -0.004437899 0.020000825 0.07210626
-0.037465107 -0.032932255 0.08365652 -0.016403358 0.29624492 0.0943597 -0.0329537 -0.0031395978
-0.017775403 -0.003117135 -0.061542705 -0.025096884 0.53867877 0.10679066 -0.07371122 0.028033562
0.13674429 0.015655924 0.10524252 -0.31745604 -0.083540134 -0.3707375 0.11122517 -0.07358605
-0.05626125 -0.0043423628 -0.020499235 0.0105360765 0.06822391 -0.08353785 0.028872704 0.31546623
0.07522672 0.0411225 -0.12706408 -0.3153638 0.0030466784 0.08640132 0.30464315 -0.17910546
-0.02551352 -0.10652754 -0.030015964 -0.057183642 -0.11833042 -0.415127 -0.15676719 -0.006582692
-0.06680901 0.060127243 -0.21236123 -0.16545056 0.36695164 0.24005643 0.35888055 -0.27426314
0.039791264 -0.08648969 -0.3975565 0.02089733 0.3243018 0.028072039 0.108864345 0.15877768
0.30706993 0.016392075 0.37973288 0.012670083 0.18547587 -0.024797268 0.0072585614 -0.0031844028
0.28839055 -0.08213166 -0.018926535 0.039771248 0.65424436 -0.10716985 -0.20059405 -0.12043968
-0.39892742 -0.14617163 -0.002587807 -0.2771634 -0.112617135 0.0006985793 0.054696877 -0.020143595
-0.015728122 -0.02930961 0.06724112 -0.05716809 0.004185513 -0.051747534 -0.011280626 0.5834906
-0.48274028 -0.2292855 0.3658038 -0.2355539 -0.05388172 0.68477803 0.2956999 0.047541518
00000000: 10cf 1c3e 2d0c 2e3c ed98 8cbd e7b2 c6bc
00000010: 1b94 6dbd 5c6a 7ebd c507 68be 7a83 a53c
00000020: ed93 163e 3d7f 203d 0647 8239 7734 723d
00000030: ae37 543f f618 d7bc 4733 5bbd 50fc f03b
00000040: 6047 5d3e 3b44 b1be 9001 84be 1880 d33c
00000050: 80ea e73e 1968 a6bc a5a0 6ebb bdab e23d
00000060: a226 58bd c366 5cbd e7ef 403e 788e d0bc
00000070: 995c cf3e 30e4 4b3e aa48 31bd c9c3 f0b9
00000080: c36d 47bd 17cf 3fbd 0fd4 0b3d c079 8fbc
00000090: eaa0 773f d4ee 63bc efc2 4abe c506 ca3d
000000a0: dcf4 703e de32 f3bb c1f2 1aba b6f1 d5be
000000b0: 009a b6bd 83b5 cfbe b19f 363d 56bf 85bd
000000c0: b45b c9bd 2871 1ebc e8a9 87bd 70b9 843b
000000d0: 6cf2 cc3d 275d 1bbe 7794 653d ffad 0f3f
000000e0: a5b1 e53d 2b82 8c3b cc89 68be 0826 00bf
000000f0: 32e2 8e3b 07ab 203d baff 083f 16fb 9fbe
00000100: 0a47 e13d 4173 ac3c b25d dc3d 94fe 223d
00000110: 3f04 99bc 9cf8 9fbd cd36 28be 7893 4f3c
00000120: 38d3 ae3d 594b 1c3d 1a6f dd3d 9233 023d
00000130: 7ff8 0e3f e462 cdbc 5016 3abd 33a5 983b
00000140: 87ff 253e 4872 64be f360 40be 00f2 7e3c
00000150: 12ac 993e bb38 60bc a312 f23b d159 a23d
00000160: e46f 4abd aa65 20bd be78 103e bff0 a2bc
00000170: 6457 993e f515 3c3d 210c cbbc e82d 04bb
00000180: 1c28 03bd 1037 02bd 8b51 13bd 465a 10bd
00000190: cc25 283f 111a 5bbd a98c e1bd 9c41 433d
000001a0: 9cc8 2f3e 7a0e a13b 46eb c53a cfcd b3be
000001b0: 4d84 29bd cd02 97be 455d e7bd c458 7bbd
000001c0: cd22 92bd 5773 b3bb 20b8 0bbd f663 163c
000001d0: 4d2a 9a3d 1848 d6bd 7691 213d 15b1 c33e
000001e0: e009 ea3d 98a5 ac3a e15b 28be 3376 ccbe
000001f0: 01df e23b 753b 893d ed80 c53e be09 50be
00000200: c351 0d3d abca cf3c 149b 203d cc08 9e3c
00000210: df3e 92bc 0b39 83bd c9f1 08be 68b0 2a3c
00000220: 66fe 533d 67cb fe3c c84f d03d 49c7 91bb
00000230: 0c5f e83e 4db3 55bd adc3 13bd 51d7 e23b
00000240: 2a81 213e 9087 24be 702d fdbd 3b42 a83b
00000250: b372 583e cc6b 91bb c5d8 a33c 72ac 933d
00000260: 0375 19bd f9e3 06bd 1c54 ab3d 5660 86bc
00000270: 6aad 973e a93f c13d 75fa 06bd b6c1 4dbb
00000280: b99d 91bc d948 4cbb 3414 7cbd fb97 cdbc
00000290: dae6 093f 10b5 da3d e8f5 96bd a4a6 e53c
000002a0: b206 0c3e da40 803c 6489 d73d 9989 a2be
000002b0: 1717 abbd 4ed1 bdbe 06ca e33d 48b4 96bd
000002c0: 3272 66bd 614a 8ebb 03ee a7bc 829f 2c3c
000002d0: fab8 8b3d e415 abbd 7386 ec3c ca84 a13e
000002e0: 7710 9a3d 1170 283d 161d 02be 5d77 a1be
000002f0: c8aa 473b 2df3 b03d 30fa 9b3e 6c67 37be
00000300: bb01 d1bc 1c2b dabd 0ae4 f5bc 6539 6abd
00000310: 3857 f2bd 878b d4be 9487 20be 9fb3 d7bb
00000320: 2ad3 88bd fc47 763d 3975 59be df6b 29be
00000330: 16e1 bb3e 5ad1 753e 31bf b73e 386c 8cbe
00000340: 2afc 223d 8221 b1bd 878c cbbe e130 ab3c
00000350: e30a a63e 55f7 e53c 45f4 de3d 9e96 223e
00000360: 4538 9d3e ac48 863c 596c c23e 2e96 4f3c
00000370: 63ed 3d3e a423 cbbc 3ad9 ed3b 6ab1 50bb
00000380: eda7 933e a534 a8bd d20b 9bbc 2de7 223d
00000390: 8f7c 273f de7b dbbd 8768 4dbe 14a9 f6bd
000003a0: 3740 ccbe 04ae 15be 3298 29bb 5ce8 8dbe
000003b0: d0a3 e6bd dd20 373a d509 603d 2e04 a5bc
000003c0: 43d8 80bc b51a f0bc b6b5 893d 1629 6abd
000003d0: a126 893b 39f5 53bd 60d2 38bc a45f 153f
000003e0: bc29 f7be d1c9 6abe a34a bb3e 0b35 71be
000003f0: 14b3 5cbd 9d4d 2f3f fa65 973e e5ba 423d

fc4.bias f4 [30]
3.890585 3.6899254 3.499451 1.8128984 1.386256 1.5346946 1.376624 1.794525
1.2522979 -0.13945952 0.19392796 -0.48392844 -0.51588744 -0.012894936 -0.47102147 -0.41308796
-0.10876357 -0.29881173 -0.379549 0.2634908 -0.003045081 -0.4025167 0.11857394 0.15967245
-0.64549404 -0.058111183 0.018492253 -0.44584996 -0.019409984 0.080088735
00000000: 58ff 7840 bd27 6c40 01f7 5f40 0e0d e83f
00000010: d670 b13f df70 c43f 3735 b03f ffb2 e53f
00000020: 4c4b a03f 7ace 0ebe 0d95 463e 78c5 f7be
00000030: 3311 04bf 4845 53bc ba29 f1be 4480 d3be
00000040: 6fbf debd dafd 98be 3f54 c2be 44e8 863e
00000050: fb8f 47bb ab16 cebe e5d6 f23d 2d81 233e
00000060: 193f 25bf fe05 6ebd 117d 973c 7246 e4be
00000070: b001 9fbc 9005 a43d

fc1.weight f4 [32, 7]
0.19744761 -0.44984144 -0.25478342 -0.41042548 0.0011807107 0.4697072 -0.004775542 -0.40246964
-0.21820934 0.4128191 0.06370305 0.009749359 0.000691319 0.0004517815 -0.77601206 1.0780596
-0.033737365 0.53195477 -0.0026511666 0.006347077 0.0015546775 -0.49779898 0.71407723 0.34160665
-0.7448798 0.016385669 0.04428844 0.0011351982 0.035807956 -0.026429657 -0.017692856 0.19807476
0.7272478 0.68436456 -0.028967427 0.0017531937 -0.18578756 0.002931484 0.23898637 0.054896973
-0.12278767 0.004083032 0.6662289 -0.7728267 -0.056628916 -0.60562617 -0.015974963 0.005431054
0.00013195329 -1.084848 0.11583535 0.35253614 0.44435328 0.013605671 0.055902783 -0.0054270006
-0.08843378 0.5451527 -0.06044924 -0.36784664 0.06642035 -0.21839385 -0.006363527 -0.56487757
0.080504514 -0.6549842 0.38573253 -0.018121585 0.024021227 -0.0011167256 0.24254732 -0.29266918
0.21908978 0.23718916 0.03228439 -0.048858922 -0.00067343184 1.0550262 1.0715818 0.10278659
0.27949426 0.013094574 0.015356464 -0.0007508383 -0.89817697 -0.28993392 -1.0965449 -0.23991045
-0.009890019 0.019655924 -0.0016905776 0.95073456 0.37198642 0.93646246 -0.33942333 -0.027060192
0.00029779816 0.001787483 -0.43140426 -0.47851732 -0.04339427 0.29786363 0.004049746 -0.022870349
0.0006156951 0.48701882 0.47499147 0.0748243 0.23220101 -0.010034521 0.0062962887 0.001850578
-0.21597262 -0.95568097 0.1742533 -0.9222691 0.08709901 0.10842671 -0.008785508 -0.07077903
-0.24635285 1.3787 -0.17477141 0.05150408 0.013692016 -0.0013554232 -0.3864013 -0.39008433
-0.44903597 -0.15345584 0.022178458 -0.0040123924 0.0009279008 0.6299589 -0.22017919 0.60545063
0.169438 0.027691053 0.01051531 -0.0013863003 0.5623728 0.8083824 -0.46431372 0.35092348
-0.0063595045 -0.02144702 0.00026213616 -0.004666301 0.32074085 -0.07926039 -0.5233475 0.4044646
0.27045023 -0.0062154904 0.6546836 0.76743215 -0.11416279 0.74897814 -0.0020137953 -0.0020548073
-0.0021150887 0.714585 -0.34675485 0.7953337 0.5519282 0.0059789466 0.011793419 -0.002213155
-0.023458773 -0.034393787 0.44140399 0.8328475 -0.018540755 0.061901808 0.004420854 -0.79395086
-0.74963 0.09199008 0.40129778 0.009853952 0.015458787 -0.0016428354 -0.67684245 -0.2089885
-0.67532116 0.21220987 -0.02534764 -0.009019523 0.0017056153 0.4851617 0.22399296 0.5451502
0.32202977 0.004108054 0.023670478 -0.0008348028 -0.24570669 -0.1548715 0.31966957 0.17681672
-0.10737752 0.29379 -0.015287183 1.3634175 -0.97723335 -0.10050911 0.38959053 0.02044679
-0.018911935 0.0007819758 0.72882843 0.7483277 -0.0066000177 -0.43046492 -0.0033542197 0.14544235
-0.00974081 -0.021893123 0.4546136 0.16138884 -0.20333669 -0.22019227 0.18402961 0.007379511
00000000: b52f 4a3e 9e51 e6be f972 82be 4a23 d2be
00000010: 14c2 9a3a 767d f03e 267c 9cbb 8010 cebe
00000020: 4572 5fbe 065d d33e bf76 823d c7bb 1f3c
00000030: a239 353a 16dd ec39 baa8 46bf dbfd 893f
00000040: 3130 0abd 302e 083f 32bf 2dbb 24fb cf3b
00000050: 52c6 cb3a 82df febe c4cd 363f 11e7 ae3e
00000060: 71b0 3ebf 3d3b 863c cc67 353d eeca 943a
00000070: 5dab 123d 0283 d8bc 9cf0 90bc 1cd4 4a3e
00000080: e92c 3a3f 8432 2f3f 194d edbc 6bcb e53a
00000090: 183f 3ebe 241e 403b d8b8 743e a6db 603d
000000a0: 1a78 fbbd f4ca 853b fa8d 2a3f f8d7 45bf
000000b0: b9f3 67bd 510a 1bbf eddd 82bc fcf6 b13b
000000c0: f15c 0a39 4ddc 8abf 153b ed3d 9e7f b43e
000000d0: 4682 e33e 52ea 5e3c 51fa 643d fbd4 b1bb
000000e0: c51c b5bd 218f 0b3f 9f99 77bd 6556 bcbe
000000f0: 6407 883d a3a2 5fbe 2285 d0bb d19b 10bf
00000100: 8ddf a43d 0bad 27bf bc7e c53e b873 94bc
00000110: 2ac8 c43c 185f 92ba 535e 783e bcd8 95be
00000120: 1259 603e b7e1 723e a33c 043d 4b20 48bd
00000130: 3f89 30ba 190b 873f 9829 893f c781 d23d
00000140: df19 8f3e a08a 563c ae99 7b3c e8d3 44ba
00000150: edee 65bf 3872 94be 955b 8cbf 16ab 75be
00000160: bf09 22bc 7605 a13c 5f96 ddba 5763 733f
00000170: 0175 be3e 01bc 6f3f e5c8 adbe 56ad ddbc
00000180: cb21 9c39 fa49 ea3a 05e1 dcbe 3900 f5be
00000190: 31be 31bd 9581 983e bbb3 843b 995a bbbc
000001a0: 9966 213a 885a f93e 1532 f33e 7c3d 993d
000001b0: 1ac6 6d3e d567 24bc 1951 ce3b 188f f23a
000001c0: ed27 5dbe 82a7 74bf 756f 323e d419 6cbf
000001d0: f760 b23d d30e de3d 17f1 0fbc 99f4 90bd
000001e0: ec43 7cbe 3e79 b03f 47f7 32be f1f5 523d
000001f0: 7a54 603c 75a8 b1ba 64d6 c5be 22b9 c7be
00000200: 0be8 e5be 8723 1dbe 99af b53c 637a 83bb
00000210: 5e3e 733a fd44 213f a776 61be d0fe 1a3f
00000220: 2881 2d3e 59d8 e23c 6848 2c3c 85b4 b5ba
00000230: aaf7 0f3f 26f2 4e3f 87ba edbe 3eac b33e
00000240: 6463 d0bb a9b1 afbc 526f 8939 c5e7 98bb
00000250: 2538 a43e 4553 a2bd 1afa 05bf fc15 cf3e
00000260: 7478 8a3e 50ab cbbb 5899 273f 6f76 443f
00000270: 2ece e9bd 08bd 3f3f e1f9 03bb f2a9 06bb
00000280: 4d9d 0abb 0bef 363f da89 b1be fd9a 4b3f
00000290: 2b4b 0d3f 0aeb c33b 2f39 413c 940a 11bb
000002a0: 9d2c c0bc 80e0 0cbd b4ff e13e 7e35 553f
000002b0: c8e2 97bc c08c 7d3d d0dc 903b 5d40 4bbf
000002c0: c0e7 3fbf 4c65 bc3d e776 cd3e 7872 213c
000002d0: da46 7d3c 6954 d7ba 8c45 2dbf 1501 56be
000002e0: d9e1 2cbf 8b4d 593e dba5 cfbc 9fc6 13bc
000002f0: f48e df3a 1d67 f83e 695e 653e f78e 0b3f
00000300: 16e1 a43e db9c 863b 97e8 c13c abd6 5aba
00000310: 899a 7bbe a296 1ebe bbab a33e 710f 353e
00000320: bfe8 dbbd a56b 963e 1877 7abc 7784 ae3f
00000330: f72b 7abf b8d7 cdbd 6978 c73e 0780 a73c
00000340: 34ed 9abc 82fd 4c3a 8094 3a3f 6792 3f3f
00000350: f644 d8bb e665 dcbe 78d2 5bbb d7ee 143e
00000360: eb97 1fbc 3559 b3bc 1dc3 e83e 1e43 253e
00000370: 7e37 50be 157a 61be 4272 3c3e d3cf f13b

fc1.bias f4 [32]
1.1360768 0.8794339 0.56110626 0.23321961 -0.08747568 1.5309085 0.8045111 -0.13935468
1.6243757 0.6905963 1.2399926 -0.121313944 -0.1413115 0.051826566 0.8437708 0.8910067
0.06895469 -0.0728136 0.68187827 0.59466654 -0.49436244 0.89679015 0.07617319 -0.08430283
1.2950752 0.13006726 -0.6638495 0.62199944 1.177261 -0.54118544 0.22294663 1.2299768
00000000: f76a 913f 9422 613f a9a4 0f3f 1fd1 6e3e
00000010: 7326 b3bd cff4 c33f 70f4 4d3f feb2 0ebe
00000020: 8beb cf3f ebca 303f 14b8 9e3f 7273 f8bd
00000030: f6b3 10be 1848 543d 5d01 583f 0419 643f
00000040: 1e38 8d3d 4c1f 95bd 938f 2e3f 113c 183f
00000050: 131d fdbe 0a94 653f b000 9c3d f6a6 acbd
00000060: 06c5 a53f 5a30 053e 0af2 29bf 5b3b 1f3f
00000070: 7db0 963f 218b 0abf 1f4c 643e e16f 9d3f

fc2.weight f4 [128, 32]
0.016485391 0.2649887 -0.046063937 0.1664347 0.06854681 -0.06762827 0.22988397 0.034700137
0.34538078 0.28985086 0.2533786 0.49162033 0.16647781 0.34577787 0.2760575 0.21849492
0.14770856 0.23898314 0.37658265 0.04056737 -0.06914464 0.19176427 0.23184344 0.04997432
0.005261503 0.06883323 -0.117015794 0.20890585 0.1292472 0.13068117 -0.10950793 0.07630431
0.23285812 0.15674219 -0.89750576 -0.6010982 0.014754167 0.47952473 0.11587495 -0.6152773
0.036548626 -0.14029862 0.5707293 0.38610995 -0.059313767 0.15390727 0.28491688 0.07815466
-0.39952376 -0.002162759 -0.071855366 0.04544932 0.40437672 -0.05403102 0.3598374 -0.4274292
0.43095317 0.43103486 0.36975124 0.34578952 0.16205537 -0.22040994 -0.024498072 -0.12541501
-0.04190724 0.06295082 0.07455433 0.071013525 -0.1845524 -0.107606985 0.30353674 0.040409494
-0.03916563 0.39622656 -0.48497686 -0.53413606 0.34681028 -0.042957243 0.094110645 -0.3659955
0.13700466 0.013433534 0.02609179 0.2295827 -0.093233876 0.23568134 -0.6798628 0.1820069
0.5524593 0.0063025896 -0.47024605 -0.09019353 -0.0010912421 0.15389226 0.07432274 -0.033727534
-0.0128458515 -0.014074047 0.012175689 0.25942364 -0.3888382 0.05693385 0.35245392 -0.14834337
0.33984622 0.094614916 -0.18653962 -0.07234959 0.07769144 -0.18805689 0.16535729 0.051314835
0.0021939927 0.10327248 -0.21797863 -0.029667111 -0.09465165 0.19428945 0.09585158 -0.13819115
0.009216079 0.15625644 -0.1699621 -0.18943165 -0.010473135 0.15098518 0.118742 0.14123152
0.035645742 0.19086121 -0.2808106 -0.58587116 0.12432043 0.37215614 -0.19050002 -0.117859386
0.14475314 -0.1928163 0.32785696 0.16437297 -0.37161604 0.017143384 0.2785732 0.13113503
-0.050522648 -0.11515096 -0.22142355 -0.055276513 0.0632026 -0.0324676 0.06897452 -0.00462407
0.044140168 -0.18548587 -0.058739707 0.29134786 0.25791892 0.008204926 -0.21582521 0.2622406
-0.0841767 -0.113908164 0.13661425 -0.25491837 0.1707799 0.35048863 -0.033680756 -0.13303012
0.1511492 0.18461546 0.13733256 -0.1413068 0.20491475 0.0020934977 0.25374666 0.12071727
-0.17047633 -0.059736136 -0.25262207 -0.019921543 0.21951295 0.05885216 0.26664498 -0.07449577
-0.3366442 -0.122322515 -0.8047374 0.49791902 0.26681873 -0.13820742 -0.23248586 0.25389758
0.03545979 -0.012156419 0.02658674 -0.53422517 0.08065219 0.20980646 -0.0908583 0.118332885
0.22522344 0.139739 0.29200232 0.014026644 -0.6494841 -0.08722073 -0.08610327 0.081449956
-0.12476156 0.059492048 -0.24191192 0.050292186 -0.014039434 0.029846122 0.11892514 -0.1943043
0.37937775 0.03059598 -0.12649524 0.030797955 0.14945374 -0.10235404 -0.05838329 0.22480462
-0.13250071 0.09313748 0.1404558 0.13801399 -0.089971974 -0.26440215 -0.09366637 -0.40370435
0.165256 0.2417 -0.6920551 0.25774524 0.16905065 0.31194636 -0.2225125 -0.40992886
0.01016214 -0.083232 -0.0039426256 -0.24430683 -0.006633514 0.19346088 0.13848124 0.2407711
-0.51031464 0.56434655 -0.08531713 -0.2568466 0.001049316 0.44338188 0.28489354 0.16901416
00000000: 5f0c 873c 99ac 873e 8aad 3cbd dc6d 2a3e
00000010: 4562 8c3d b180 8abd b466 6b3e bb21 0e3d
00000020: c0d5 b03e 5567 943e d7ba 813e a9b5 fb3e
00000030: 2979 2a3e cc09 b13e 6957 8d3e 22bd 5f3e
00000040: ea40 173e ffb7 743e 71cf c03e f829 263d
00000050: b49b 8dbd da5d 443e 5e68 6d3e dfb1 4c3d
00000060: b068 ac3b 70f8 8c3d faa5 efbd 6aeb 553e
00000070: 6159 043e 49d1 053e b245 e0bd 6f45 9c3d
00000080: 5c72 6e3e 0681 203e f0c2 65bf 92e1 19bf
00000090: 76bb 713c 4484 f53e d94f ed3d d082 1dbf
000000a0: 03b4 153d 71aa 0fbe 511b 123f 34b0 c53e
000000b0: fef2 72bd de99 1d3e a0e0 913e 8d0f a03d
000000c0: 618e ccbe 13bd 0dbb e828 93bd 1129 3a3d
000000d0: 770a cf3e a14f 5dbd 9c3c b83e 00d8 dabe
000000e0: e5a5 dc3e 9ab0 dc3e 0950 bd3e 530b b13e
000000f0: d8f1 253e 25b3 61be 2eb0 c8bc cb6c 00be
00000100: eda6 2bbd 5cec 803d f1af 983d 8a6f 913d
00000110: 4efb 3cbe 0d61 dcbd 2b69 9b3e 6d84 253d
00000120: 246c 20bd 35de ca3e e34e f8be 24bd 08bf
00000130: 1e91 b13e eff3 2fbd 15bd c03d c363 bbbe
00000140: f34a 0c3e 5318 5c3c 73be d53c ba17 6b3e
00000150: 67f1 bebd 7356 713e 7d0b 2ebf 0460 3a3e
00000160: f96d 0d3f f485 ce3b 17c4 f0be 63b7 b8bd
00000170: 0208 8fba ef95 1d3e 8536 983d e225 0abd
00000180: 6877 52bc d596 66bc 8b7c 473c 2dd3 843e
00000190: cd15 c7be 7833 693d d774 b43e 53e7 17be
000001a0: 5300 ae3e 77c5 c13d 3e04 3fbe 062c 94bd
000001b0: b11c 9f3d fc91 40be 6c53 293e 812f 523d
000001c0: 17c9 0f3b 8680 d33d ca35 5fbe 7108 f3bc
000001d0: b9d8 c1bd d0f3 463e d54d c43d fb81 0dbe
000001e0: 09ff 163c b001 203e 8b0a 2ebe 5ffa 41be
000001f0: 8397 2bbc dc9b 1a3e 012f f33d ff9e 103e
00000200: 4501 123d 1f71 433e 68c6 8fbe a7fb 15bf
00000210: b69b fe3d 408b be3e 7012 43be 4360 f1bd
00000220: 2b3a 143e a371 45be dedc a73e 6351 283e
00000230: 7544 bebe 4870 8c3c 25a1 8e3e 4348 063e
00000240: d6f0 4ebd 44d4 ebbd dbbc 62be a069 62bd
00000250: 5d70 813d bffc 04bd 8342 8d3d 8385 97bb
00000260: 52cc 343d 02f0 3dbe 0c99 70bd 8c2b 953e
00000270: f30d 843e f46d 063c 4901 5dbe 6644 863e
00000280: d564 acbd af48 e9bd 9be4 0b3e a984 82be
00000290: ede0 2e3e 3f73 b33e d5f4 09bd 0c39 08be
000002a0: dbc6 1a3e d60b 3d3e e8a0 0c3e bbb2 10be
000002b0: 2cd5 513e 1033 093b 15eb 813e 9e3a f73d
000002c0: 5991 2ebe e1ad 74bd ae57 81be 8132 a3bc
000002d0: 01c8 603e f60e 713d b185 883e 3d91 98bd
000002e0: a15c acbe 3a84 fabd 4503 4ebf 3eef fe3e
000002f0: 779c 883e 3f86 0dbe c610 6ebe ddfe 813e
00000300: 493e 113d b82b 47bc 6fcc d93c fbc2 08bf
00000310: fa2c a53d 81d7 563e eb13 babd 8358 f23d
00000320: f9a0 663e be17 0f3e 5481 953e 02d0 653c
00000330: 9744 26bf c8a0 b2bd e956 b0bd 3ccf a63d
00000340: fd82 ffbd efad 733d c2b7 77be 2eff 4d3d
00000350: a705 66bc db7f f43c 068f f33d b5f7 46be
00000360: cd3d c23e 6ca4 fa3c f887 01be fe4b fc3c
00000370: 670a 193e ff9e d1bd 5123 6fbd 2f33 663e
00000380: 44ae 07be ddbe be3d a5d3 0f3e 8a53 0d3e
00000390: 3a43 b8bd b85f 87be 27d4 bfbd 56b2 cebe
000003a0: de38 293e 3480 773e 862a 31bf 2ff7 833e
000003b0: 9d1b 2d3e 6fb7 9f3e 51da 63be 32e2 d1be
000003c0: 1b7f 263c 8a75 aabd 2431 81bb 922b 7abe
000003d0: f35d d9bb 9c1a 463e 07ce 0d3e b38c 763e
000003e0: fba3 02bf 0479 103f bfba aebd 6681 83be
000003f0: 3489 893a f302 e33e 91dd 913e 0c12 2d3e

fc2.bias f4 [128]
0.28923792 0.22477095 0.04790534 0.1433594 0.3853049 0.28689793 0.67001975 0.052296985
0.42560902 0.628684 0.039607335 0.20420603 0.64414614 0.39578032 0.27929282 0.07367343
0.44104347 0.55046105 0.6136006 0.41878092 0.68333924 0.25248873 0.3778889 0.42137933
0.76428926 0.6031606 -0.30142683 0.58165586 -0.11270619 0.49548805 0.17672068 0.5845608
0.9532445 0.35339573 0.41200927 0.56028724 0.6151767 0.3903516 0.57077664 0.44243595
0.6529813 0.46241298 0.49420443 0.2103471 0.4064247 0.49695754 0.21486959 0.10150462
0.31795287 0.15584904 0.3581681 0.69867307 0.7413367 0.15709811 0.52514154 -0.08887681
0.6254322 0.0369267 0.50632507 0.6485335 0.13118055 0.31053746 0.30941018 0.4736046
0.2362749 0.31392974 0.10460879 0.30384293 0.18195148 0.33663744 0.44305182 0.56653655
0.50224894 0.52656585 0.2633026 0.3339424 0.26737452 0.49016002 0.6867961 0.18950123
0.9184484 0.019723061 0.5205521 0.32034594 0.3876546 0.08200378 0.35790995 0.19112813
0.6690988 0.6946505 0.3944235 0.5356016 0.81512916 0.53565156 0.4214346 0.30202684
0.66801035 0.66552246 0.2505163 0.16277882 0.51234716 0.55896133 0.5338216 0.14644799
0.6938375 0.3311815 -0.1459066 0.018645225 -0.2296668 -0.10545097 0.33750632 0.4947824
0.59817594 0.37249166 0.0661945 0.4520519 0.3432511 0.16303273 0.22874036 0.49490413
0.5491425 0.42870492 0.6536925 0.5165008 0.76464903 0.542194 0.8270647 0.50825334
00000000: fe16 943e 5b2a 663e 6438 443d cecc 123e
00000010: af46 c53e 49e4 923e 6a86 2b3f 5d35 563d
00000020: 6de9 d93e 6ff1 203f 4d3b 223d 631b 513e
00000030: c3e6 243f b8a3 ca3e 78ff 8e3e 18e2 963d
00000040: 73d0 e13e 04eb 0c3f ee14 1d3f 746a d63e
00000050: 52ef 2e3f 3446 813e a77a c13e 08bf d73e
00000060: 76a8 433f bc68 1a3f 9e54 9abe 66e7 143f
00000070: 81d2 e6bd 9cb0 fd3e 44f6 343e c7a5 153f
00000080: d507 743f 49f0 b43e e1f2 d23e fc6e 0f3f
00000090: 387c 1d3f 2adc c73e 6b1e 123f f786 e23e
000000a0: c829 273f 65c1 ec3e 5d08 fd3e 3b65 573e
000000b0: e616 d03e 3871 fe3e c606 5c3e a7e1 cf3d
000000c0: b8ca a23e e496 1f3e cf61 b73e 3ddc 323f
000000d0: 3ec8 3d3f 54de 203e ad6f 063f 0c05 b6bd
000000e0: 531c 203f 7440 173d 859e 013f 4b06 263f
000000f0: 3254 063e c4fe 9e3e 036b 9e3e 4d7c f23e
00000100: 0cf2 713e 66bb a03e 223d d63d 4d91 9b3e
00000110: 7d51 3a3e be5b ac3e b0d7 e23e 8a08 113f
00000120: 6393 003f 05cd 063f 99cf 863e 80fa aa3e
00000130: 50e5 883e 41f6 fa3e dfd1 2f3f 9c0c 423e
00000140: 6f1f 6b3f 4292 a13c e742 053f 6204 a43e
00000150: aa7a c63e 99f1 a73d f93f b73e 18b7 433e
00000160: 0f4a 2b3f 9dd4 313f e1f1 c93e 301d 093f
00000170: 4eac 503f 7620 093f 47c6 d73e 43a3 9a3e
00000180: ba02 2b3f ae5f 2a3f ac43 803e 7eaf 263e
00000190: 2f29 033f 1718 0f3f 88a8 083f 76f6 153e
000001a0: 569f 313f 9f90 a93e 8a68 15be dfbd 983c
000001b0: c62d 6bbe aef6 d7bd a1cd ac3e 1e54 fd3e
000001c0: 0f22 193f 3ab7 be3e fb90 873d 5973 e73e
000001d0: 9cbe af3e 0df2 263e ea3a 6a3e 1364 fd3e
000001e0: 9a94 0c3f 367f db3e 6458 273f 6539 043f
000001f0: 0ac0 433f 3acd 0a3f 83ba 533f e41c 023f
