logs/sdf_single_all_distances/state_88.pt (torch, 122503 bytes, 16 tensors)

fc1.weight f4 [32, 7]
00000000: 2664 943e 94a1 04bf 5818 86be 4c24 f5be
00000010: ac9c d7bc adaf 053f e8c4 05bc efa5 07bf
00000020: 3214 88be c714 ea3e 072b 4f3d 03b1 d33b
00000030: 3bbc 393b 6fa4 793b 3ea8 68bf 64a9 a43f
00000040: d2f0 8fbd c68b 0b3f e46f 123c 6108 bdbb
00000050: 834d b13a 2382 0fbf 2451 543f 9796 ca3e
00000060: c131 54bf 2267 f1bb 1546 103d fbbc e8b9
00000070: 6c00 e43c 5f83 a4bc 43ee b83c c9ee 5e3e
00000080: d0ee 693f 4631 5f3f f73a 04bd dbbc 49bb
00000090: e375 57be 9eb4 393c 6eca 243e d5d9 063e
000000a0: 9feb 35be f091 823b e691 423f df41 61bf
000000b0: fba2 d8bd 94fe 3abf cb75 c9bc 21e8 053c
000000c0: 0424 683a 5e86 a5bf c118 243e 63ee bd3e
000000d0: 50e8 083f 308e 033d e4c2 163d c843 07bb
000000e0: 2864 ecbd 253e 113f 7472 aebd 8576 d9be
000000f0: 3670 ac3d 6962 93be b4b6 c0bb 8361 1fbf
00000100: 5efa 173d 238c 31bf 3809 f63e 9252 88bc
00000110: dbde b93c 611e 58bb dd77 923e a887 aebe
00000120: 8343 8e3e fb2b a03e 61c5 ad3c 6410 e9bc
00000130: e721 c6ba 1d27 923f a8ca 923f eae1 063e
00000140: 239e 8d3e b91f d93c 338f b6ba dd1e ffba
00000150: b35a 7abf c506 b5be f391 9abf 2e76 b9be
00000160: 5973 c9bb b8c6 c23b e2ac bd38 7b40 923f
00000170: ca51 c13e a57d 8b3f 6f25 cbbe eab7 83bc
00000180: 9b1a 1d3b ab85 c73b 9433 06bf e946 1bbf
00000190: aa90 84bd 8599 a03e b3b4 a23b 110f 83bc
000001a0: 4d6c 7eba 5bff 063f 6e6c 043f dbec 983d
000001b0: b896 7b3e 162b 73bb 8b51 9f3b 842e 2a3b
000001c0: 5aef eabd 4ed3 82bf 57b5 2d3e 3a50 89bf
000001d0: a18e 303d 6e79 5f3d c84d 01bc 12ac 66bd
000001e0: 57ab b9be 7884 ce3f afff 8ebe 7c39 183d
000001f0: 5cac 333c e232 08ba ef44 dabe 87c4 dcbe
00000200: 3fbe 02bf e7d9 3cbe 2651 973c c36e 0d3b
00000210: 19b3 d739 3294 343f e5b4 a2be bfef 383f
00000220: 7dc5 d43d 178b 983c cb5b 5a3b 7ab3 93bb
00000230: e85e 373f 64f9 733f 8f10 08bf 3cfe d23e
00000240: b445 5138 ae76 80bc 9fcc 2abb f9df 47bd
00000250: 7464 9c3e 6b78 183d 256b 03bf fc1b 093f
00000260: 8f6a e63e 65bd 59bc 52bf 4e3f 7571 6d3f
00000270: c41d 99bd e840 523f 1574 8d3c 0150 b7bc
00000280: eadd 083b e918 533f 15b3 cfbe 643a 663f
00000290: caef 033f 546b af3b 17c9 633c 80a4 9639
000002a0: 2c4d c6bc ac22 993b c147 fb3e 8453 763f
000002b0: fdac 1dbc f991 593d 4866 0b3b c91c 81bf
000002c0: 8aa7 7abf b402 9b3d bcee fc3e fc0c 803c
000002d0: a97e 8e3b f7ba d8ba 2509 3cbf e59b 3dbe
000002e0: ddad 3cbf bc88 5b3e 9267 8639 c896 5abb
000002f0: 1732 ee39 5835 153f d9f0 4f3e 5fdf 2c3f
00000300: d98e aa3e b8d9 b83b bbe4 6a3c bb70 ef3a
00000310: 0d83 3dbe bf3e a2bd 8233 a83e 49db 813e
00000320: 7dac 46be 804d 9a3e 2d63 1cbc d592 c73f
00000330: 19ca 8fbf 0636 0ebe da5e bc3e f93b 843c
00000340: b1ce d2bb d35c 6fbb b49e 4c3f 41ec 653f
00000350: 1709 dd3b 0a54 0abf 7d30 61bc 0057 993d
00000360: 006a bdbb 54a9 d03c c5bc 093f bfef fb3d
00000370: e7cf 85be 23ba abbe 48c6 303e 0212 a53b
0.28982657 -0.5180905 -0.26190448 -0.47879255 -0.026319824 0.52221185 -0.008164622 -0.5298757
-0.26577908 0.45718977 0.050578143 0.0064603104 0.0028340954 0.0038092395 -0.9088172 1.2864194
-0.07028355 0.5451015 0.00893781 -0.005768821 0.0013527129 -0.5605795 0.8293631 0.39568016
-0.8288842 -0.0073670307 0.035223085 -0.0004439129 0.027832232 -0.020082174 0.02257455 0.21770777
0.91380024 0.8718456 -0.032282796 -0.0030782733 -0.21041064 0.011334566 0.16092846 0.13169034
-0.17765664 0.0039846823 0.76003873 -0.87991136 -0.10577961 -0.73044705 -0.0245923 0.00817302
0.00088554644 -1.2931631 0.16025068 0.37095937 0.5347948 0.032118022 0.036806956 -0.0020639766
-0.11542541 0.5673545 -0.08517924 -0.42473236 0.0841984 -0.28786018 -0.005881155 -0.62258166
0.037104003 -0.69354457 0.48053908 -0.016640935 0.022689274 -0.0032977092 0.28607073 -0.34087873
0.27785882 0.31283554 0.021212282 -0.028450198 -0.0015116305 1.1418186 1.1468096 0.13172117
0.2765971 0.026504384 -0.0013928175 -0.0019464154 -0.97794646 -0.35356727 -1.207579 -0.36222976
-0.0061477837 0.0059440993 9.044424e-05 1.1425928 0.37757713 1.0897719 -0.39676997 -0.016078908
0.0023972157 0.0060889325 -0.5242245 -0.60655075 -0.06472905 0.31367126 0.0049653887 -0.015998395
-0.0009705469 0.5273339 0.5172795 0.074670516 0.24569213 -0.0037104539 0.0048620156 0.0025967667
-0.11471434 -1.0220735 0.16963707 -1.0727608 0.04310477 0.054559164 -0.00789208 -0.056316443
-0.36263534 1.6134176 -0.27929446 0.037164196 0.010966387 -0.00051955704 -0.42630717 -0.43118688
-0.5107154 -0.18442498 0.018471312 0.0021580912 0.00041141434 0.7053863 -0.31778637 0.72240824
0.103892304 0.01862101 0.0033318873 -0.0045074793 0.7162919 0.95302415 -0.53150266 0.4120959
4.98944e-05 -0.01568159 -0.0026061905 -0.04879758 0.3054539 0.037224215 -0.51335365 0.53558326
0.45003173 -0.013289784 0.8076068 0.92751247 -0.074763805 0.8213029 0.017267266 -0.022377016
0.0020884224 0.82459885 -0.40566316 0.8993285 0.51537764 0.0053533707 0.013902924 0.00028732792
-0.02420672 0.0046733227 0.4907818 0.96221185 -0.009623763 0.053117726 0.0021270681 -1.008691
-0.97911894 0.07568875 0.4940089 0.015631191 0.004348595 -0.0016535212 -0.73451453 -0.185165
-0.73702794 0.21438879 0.00025635638 -0.0033354033 0.00045432217 0.5828452 0.2030672 0.6752834
0.3331211 0.0056411885 0.01433676 0.0018267849 -0.18507023 -0.07922124 0.32851797 0.25362614
-0.19401737 0.30137253 -0.00954513 1.5591685 -1.123355 -0.13887796 0.36791116 0.016141878
-0.006433331 -0.0036523833 0.7992966 0.8981362 0.0067454684 -0.54034483 -0.013744471 0.07487297
-0.0057804585 0.025471367 0.53803664 0.12301587 -0.2613518 -0.3354045 0.17263138 0.005037547

fc1.bias f4 [32]
00000000: d4bd 9c3f 6dce 713f 265e fa3e bdb9 a53e
00000010: 6d88 09be 1d14 df3f 4431 603f bc89 5abe
00000020: d522 f53f 8917 643f 5b6b b13f d7bb f4bd
00000030: afd6 86be 8de3 223d ba43 6c3f 084f 7d3f
00000040: 9938 933d 86fd 90be 58af 393f 9577 1e3f
00000050: cb6d 24bf 07ec 913f 01ee b63c 1dea 92bd
00000060: aa59 bf3f dba6 253e 9937 2bbf 7ba6 3f3f
00000070: d6d0 a63f 354b 5abf aff9 a53e 0308 bc3f
1.2245431 0.94455606 0.48899955 0.3236827 -0.13430949 1.7428013 0.87575173 -0.21341604
1.9151255 0.8909841 1.3860887 -0.1194989 -0.26335666 0.03976779 0.9229084 0.9894872
0.071885295 -0.28318423 0.7253318 0.6190122 -0.6423003 1.1400155 0.022330286 -0.0717356
1.4949238 0.16176932 -0.6688171 0.74863404 1.3032482 -0.85271007 0.32417056 1.4689945

fc2.weight f4 [128, 32]
00000000: 4bca 173d 21f3 953e 9ce5 95bd 75cd 5d3e
00000010: 24fd 1c3e 7611 aabc 196c 3f3e 6386 a53c
00000020: 4326 ae3e d1c6 883e 66f6 a13e a955 fa3e
00000030: 901b 163e 7a49 cf3e 0890 ad3e 5996 383e
00000040: 750f 0e3e 73df 7b3e 5958 c53e 7e98 9e3d
00000050: b1da 0fbe 1a2a 5a3e 65e4 7a3e 0577 c83d
00000060: 86a9 033e f091 883d 56df c9bd f3de 9b3e
00000070: f5bf 0a3e 0b24 bf3c 3fb9 02be b3ce c43d
00000080: a928 983e 1c57 963e 61b8 75bf aeac 1dbf
00000090: 472e d03b 22f4 013f ab3e 583d 8c0c 6cbf
000000a0: 61f4 1c3d d1ea 6cbe be82 1b3f 50d0 fa3e
000000b0: 0e63 0abe 153e 903e 37f2 d53e ab6c 8d3d
000000c0: 3ee1 e9be c2e9 15bd 82d6 87bd 060c 273d
000000d0: b5c0 253f 311e 8dbd bcfa 533e 2e7e 20bf
000000e0: aa87 ee3e dead e23e e580 c13e 8dd8 6b3e
000000f0: 5232 2b3e 29c5 97be 7c9c ef3b c25b debd
00000100: 2d75 92bd 27dd 1d3d 8153 863e 04d3 0b3e
00000110: 1280 0dbe 418a 5bbe acbd a43e 8d1f 5b3e
00000120: f8e4 08be 1445 0a3f e977 f6be 8d1f b6be
00000130: 31d2 d53e fb4a 6fbe 9944 333e aff3 9cbe
00000140: 8668 a03d 8497 c43d 756e 06bd 5a3a 423e
00000150: 9cee d4bc 1806 303e 4666 4dbf 8ca8 f73e
00000160: 2ca6 213f dd15 b53b cb4c 1dbf 27ab 72be
00000170: 1f71 e0bd 9395 833e 2b89 e43c 1627 8cbd
00000180: da53 aebb 45b1 df3c f32a ed3d ffb3 7d3e
00000190: 32e3 00bf 2c72 ec3d 4d44 b23e 9a44 18be
000001a0: b9b1 b53e e7ee fb3c 978d bcbd 9a3c 1bbc
000001b0: 417c 183d 9c60 86be 7403 873e 6d75 563d
000001c0: 5606 b5bc 84b8 e43d 3800 40be 03b7 f0bc
000001d0: bc65 5abc 4357 433e fec2 7d3e fd1a e6bc
000001e0: 7d6d 053e 880c 2e3e b1ec 42be f6c1 70be
000001f0: 502e 4cbd be79 293e bc9c b53d 9167 e43d
00000200: 09d2 1f3d eb51 743d 5161 3bbe bb13 0cbf
00000210: 8e5a 1e3e 5e18 ce3e b684 7bbe 9551 93bc
00000220: e7f4 243e abe5 d0be 43bb b53e 2a36 743e
00000230: da2a bfbe 09fd 66bc f5b5 c73e 74f9 093e
00000240: 2959 74bc 7b24 c6bd 9d75 7ebe a5da 90bd
00000250: 7dbe cbbd c9ce 97bd f2c0 c6bc 356a a7bb
00000260: 891e 403c 8ec7 5bbe d12f d43e f4f6 ac3e
00000270: fbac 703e 89aa 1b3d f7f7 3abe 4ccd 8d3e
00000280: e86f bfbd dada 30be 9fe4 c53d e707 8abe
00000290: 6218 e23d 1063 b73e 52cf 47bd 34ff a03c
000002a0: f00b 603e a0de 153e cbdf 7b3c a698 26be
000002b0: 1656 4d3e 4a3c b2bc e338 6c3e b144 403e
000002c0: 45ba fbbd 0921 12be 2bb4 81be d7d2 233d
000002d0: e3dc 603e 9ef0 ae3d b6fb 973e 54b1 1abd
000002e0: df3b ecbe e569 3abe 76fa 51bf 5e2c 133f
000002f0: b35f 9a3e 0b94 96be ddb0 27be 535e a33e
00000300: e048 813d 68c7 d1bd d678 f73d 3355 05bf
00000310: 26a5 b53d f148 513e 7fb7 44bd 95d4 b83d
00000320: a15d 713e 66ed 3d3e 8c33 ad3e 8508 473d
00000330: 3ce2 45bf daef 0ebe ac3f 3cbe c04b 8a3d
00000340: a992 d3bd b173 ea3d 3133 84be 88ca 22bd
00000350: 1528 023c 5096 ba3c cad3 c83d dea1 83be
00000360: 3e2b 863e 98be 023e 7861 23be da25 02bb
00000370: 2958 2a3e d406 1fbe d74b 9fbd 56b3 793e
00000380: 18fe c3bd 60cb cc3d 1da3 533e a4f7 ea3d
00000390: 672c dabd 52d0 93be 66b9 01be 5223 0ebf
000003a0: 9046 103e ba44 903e 9003 36bf bd3a 4e3d
000003b0: 5432 d53d d255 be3e a306 7bbe 7f66 09bf
000003c0: e5b2 003e 3f0a 30be 450b a1bd a30b 0ebe
000003d0: 32df 51bb 46c8 843e c247 6d3e 9d50 9d3e
000003e0: f3ef 96be 6ab6 0d3f d3d6 2a3d 75a4 9cbe
000003f0: e4cb 20bd 8f96 db3e 9735 823e 9a8b 093e
0.037058156 0.29287055 -0.07319185 0.21660407 0.1533094 -0.02076028 0.1869358 0.020205682
0.34013566 0.26714185 0.316333 0.4889348 0.14658952 0.40485746 0.3389895 0.18026103
0.13873084 0.24596958 0.38543966 0.07743929 -0.14048268 0.21305123 0.24501188 0.09788326
0.12857637 0.0666846 -0.09857051 0.30443534 0.13549788 0.023332616 -0.12765978 0.09609737
0.2971852 0.29363334 -0.95984465 -0.61591613 0.006353173 0.5076314 0.05279414 -0.92206645
0.038318995 -0.2313645 0.6074637 0.48987055 -0.13514349 0.28172365 0.41786358 0.069054924
-0.4567966 -0.036599882 -0.06632711 0.04078295 0.6474717 -0.06890524 0.20701116 -0.62692535
0.46587878 0.44273275 0.3779365 0.23031826 0.16718414 -0.2964261 0.0073123556 -0.10857345
-0.07151256 0.038540985 0.26235583 0.13654715 -0.13818386 -0.21439458 0.32175958 0.21398754
-0.13368595 0.54011655 -0.4813836 -0.35570946 0.41761926 -0.23368447 0.17506637 -0.30654666
0.07832436 0.09599212 -0.032820184 0.18967572 -0.025992684 0.17189825 -0.8023418 0.4837078
0.63144183 0.005526288 -0.614453 -0.23698102 -0.10959076 0.25700054 0.027897438 -0.068433926
-0.0053200545 0.027306208 0.115804575 0.24775694 -0.5034667 0.11545214 0.34817734 -0.1486992
0.35487154 0.030753566 -0.092066936 -0.009474898 0.037227873 -0.26245582 0.26369822 0.05235808
-0.022097748 0.11168006 -0.18750083 -0.029384142 -0.013329919 0.19076256 0.24781415 -0.02808904
0.13030048 0.16996968 -0.19035603 -0.2351149 -0.049848855 0.16550347 0.08867785 0.11152566
0.039018665 0.059648436 -0.18298842 -0.54717606 0.15464231 0.40252966 -0.24562344 -0.017983237
0.16109048 -0.40800223 0.35494432 0.23848787 -0.3733738 -0.014098414 0.3900601 0.13474065
-0.014913836 -0.09674927 -0.24849553 -0.07072953 -0.09948442 -0.07412488 -0.024261925 -0.0051090964
0.01172603 -0.21462843 0.4144273 0.3378216 0.23503487 0.038004432 -0.18258654 0.27695692
-0.09347516 -0.17270985 0.09662747 -0.26959154 0.11039807 0.35817766 -0.0487817 0.01965294
0.21879554 0.14635706 0.015373181 -0.16269168 0.2005237 -0.021757264 0.23068576 0.18776204
-0.122913875 -0.14270414 -0.2533277 0.039995994 0.21959262 0.08541988 0.29684228 -0.03776677
-0.46139428 -0.18204458 -0.820228 0.57489574 0.30151138 -0.29409823 -0.16376062 0.319079
0.06312728 -0.10243112 0.120835945 -0.5208313 0.0886939 0.20437981 -0.048026558 0.09024922
0.23570873 0.18547592 0.3382839 0.04859211 -0.7729833 -0.13958684 -0.18383664 0.067527294
-0.103307076 0.11447848 -0.25820306 -0.03974393 0.007944127 0.022776753 0.098060206 -0.25709432
0.26204866 0.12768018 -0.1595515 -0.0019858987 0.16635193 -0.15529948 -0.07778137 0.24384817
-0.09569949 0.09999728 0.20667692 0.11473015 -0.10653 -0.28869873 -0.1266838 -0.55522645
0.14089417 0.28177434 -0.71099186 0.050348986 0.1040999 0.3717485 -0.2451425 -0.5367202
0.12568243 -0.17191409 -0.078634776 -0.13871627 -0.0032023904 0.25934047 0.23171905 0.30725566
-0.29479942 0.55356467 0.04170878 -0.3059422 -0.039256945 0.42888305 0.2543151 0.1343216

fc2.bias f4 [128]
00000000: ca12 a13e c681 853e 6d8a 26bc e4dd 2a3e
00000010: 671b cf3e 7114 a53e be07 2e3f 330e 3a3d
00000020: b842 ed3e e3f2 1b3f e7d9 b0bb f84a 7b3e
00000030: c986 2a3f dec1 d13e 86e0 773e a8d0 ab3d
00000040: 0323 f03e 5ecf 053f 0222 2b3f fe87 e83e
00000050: 5177 323f ed3e 7e3e b017 cb3e d0e1 f03e
00000060: 4d72 573f 4fc7 213f d81b b1be edb8 213f
00000070: 7b2a f6bd 70a9 ff3e ce3a 513e 4534 263f
00000080: 429d 7a3f 073a ca3e 0d97 e43e fa03 153f
00000090: e43a 283f bcba c33e cd8c 0b3f 8a90 eb3e
000000a0: 10b1 363f 1174 e93e 42e5 013f 3ed6 853e
000000b0: 3968 df3e 08aa 063f 75b4 613e f2e8 d43d
000000c0: 8d27 a53e 260a 123e ea7a c23e cd2e 463f
000000d0: 5e57 473f 5151 243e e214 0c3f 0c05 b6bd
000000e0: dc2d 273f deb1 603d ad95 f83e 8bf8 2e3f
000000f0: c0e1 f43d bf4c b53e dea1 7a3e ce0a f63e
00000100: 0101 813e 4a8c ca3e 490d b13d 1652 9b3e
00000110: 6b3d 313e 1e90 9f3e fc2c e73e fe6c 1b3f
00000120: 1e90 ff3e 5615 0b3f 34c0 a03e bd43 a03e
00000130: ac3c 823e 1d31 fe3e 1657 343f 986e 3f3e
00000140: 6f3a 813f bbad 7f3c 6dae 023f 117a bc3e
00000150: 5aa6 b03e 7495 c53d 8303 c53e 2dc0 653e
00000160: 7311 313f dddd 363f aa95 d83e 218d 0c3f
00000170: 11f8 4d3f 4a3b 0a3f c10c ec3e fdae 993e
00000180: 257b 353f dff3 2a3f e72b 6c3e d783 1c3e
00000190: 62f3 093f ac43 053f 803b 0f3f f2d8 253e
000001a0: a3c9 323f 6bfc b93e d2e8 4cbe e891 08bd
000001b0: 5c20 a0be ead6 3ebe 06e4 be3e 506c ff3e
000001c0: a124 213f ebed b63e 86fd 403d 4e5d 063f
000001d0: 5b2e bb3e d68f e73d f243 863e 9ec2 073f
000001e0: db24 0e3f 372d dc3e 91d2 293f 82d3 043f
000001f0: f78a 4a3f b526 163f 4fbb 5d3f 80ae 023f
0.31459647 0.26075572 -0.010164839 0.16686207 0.40450594 0.32242158 0.67980564 0.045423698
0.46339965 0.6091749 -0.0053970697 0.24540317 0.66611916 0.4096822 0.24206743 0.083894074
0.46901712 0.5226954 0.66848767 0.45416254 0.6971331 0.24828692 0.3966651 0.4704728
0.84158784 0.63194746 -0.34591556 0.631728 -0.12019821 0.49933958 0.20432588 0.64923507
0.97896206 0.39497396 0.44646493 0.5820919 0.6571486 0.38228405 0.5451172 0.46008712
0.71363926 0.45596364 0.50740445 0.26140016 0.43634203 0.526032 0.22041495 0.10395993
0.32256737 0.14261684 0.379844 0.7741516 0.77867687 0.16046645 0.54719365 -0.08887681
0.6530435 0.054857127 0.48551694 0.68347996 0.11957121 0.35410115 0.2447581 0.48055118
0.25196078 0.39560157 0.08645112 0.30336064 0.17308585 0.3116464 0.45151508 0.60713184
0.4991464 0.5432943 0.3139664 0.3130168 0.25436914 0.49646845 0.7044538 0.18694532
1.0095958 0.015605385 0.510474 0.3681188 0.34501916 0.096476465 0.38479242 0.2243659
0.6916725 0.71432287 0.42301685 0.54902846 0.80456644 0.5399672 0.4610348 0.30016318
0.7089103 0.6677837 0.23063622 0.15284668 0.53887 0.52056384 0.55950165 0.1619604
0.69838923 0.36325392 -0.20010689 -0.033342272 -0.31274688 -0.1863667 0.37283343 0.49887323
0.62946516 0.35728392 0.04711678 0.5248612 0.36558804 0.113067314 0.26223713 0.5303134
0.55524987 0.43003246 0.66336924 0.51885235 0.79118294 0.5865281 0.86613935 0.51047516

fc3.weight f4 [64, 128]
00000000: 0370 6f3d d105 03bd 904d 25bf fe05 cdbd
00000010: 7aa2 b0be 10c8 72bd bd2b ed3e 33e5 363e
00000020: de95 883e 435f 16be 96f8 933c 31aa c4be
00000030: 15f0 11be d127 bc3c 23ad 5b3e 388e f3bd
00000040: ab33 a03e 4ad4 c5be 5525 0cbe c7ca 05be
00000050: d197 ba3e 6869 863c 3771 80bd 7c12 043f
00000060: a03f 383f 8cce a73c 7485 4c3c ab0e 563d
00000070: 409f 0cbf 4504 b43d 3453 66be b3eb 753d
00000080: 25e0 acbe 58af 4e3e 7efb aebe 9594 043f
00000090: f76b d8be 3761 243f fcb7 703f a369 63be
000000a0: 078c 343f 5af1 a13d f4ac d3be 929d 1d3f
000000b0: bd34 1e3e 8da8 443e 5d8c 86be a52d f13e
000000c0: b780 81be d742 f63e 6b81 f73d d3cb 27be
000000d0: db76 713d 5377 343f d55f 673d 638e 0e3d
000000e0: 022c 263f c7a6 fa3d 92b9 453d ea31 053d
000000f0: 0de0 07bf bd5a 693d 3f1a cebe 95d8 0cbf
00000100: 95e6 90be d5d0 6dbe 17b9 e5bd 8f67 183f
00000110: 27ec 01bf 6d27 e7be 2c4f 723e 080b bc3e
00000120: 2985 69be 02e2 57bd 97cb 8f3f 56a5 a93e
00000130: 8067 333f daca d13e af5a b63f 1d1d d6be
00000140: 4406 cabe 0eca 87bd 97de d8be 6da0 313e
00000150: 197f 32bf f5b2 cf3f 1a45 b5bc 9d50 1f3f
00000160: 0f70 213e edce ddbd 9d24 c1bc dceb c3be
00000170: 2707 9c3e 0b72 9ebe c28d 39bf a590 0a3f
00000180: f21d 41be 481f 5e3d eba1 94be d1af 01bf
00000190: 16a5 85be bfbb 563f 7a2b 223f 8ed0 e1be
000001a0: 716c dfbe 3b98 723e 053b 78bd 8668 51bf
000001b0: 92fa edbd e1e0 203d d9a9 c5bd 782a 43be
000001c0: feaf c5bd 1be7 14be a74f 243e 5e62 773f
000001d0: f803 a0be f7d7 8c3d c5ca 1d3e 871b 7abc
000001e0: d501 823e 0349 9dbe 1ad5 073f 621c 6c3f
000001f0: 1c05 38bd daa0 aabe a92f d33e 5bcd 5c3e
00000200: 0cb8 45bc 0eaf 243d 61f3 f23e 5716 6e3e
00000210: 95a6 583f c038 e43e a5d5 7e3e 5a0f 4c3f
00000220: 907f 8dbc 3f93 f8be b826 d63e 0057 1b3e
00000230: 95f3 e5be 80bb 99bd cc2d c03d 98fd 6d3e
00000240: a694 cc3e dd06 babe 151d 9a3e a376 9bbd
00000250: 6a09 d53e 5e35 01bf 2e6a 8a3e 7a5e 933d
00000260: b941 f73d 7ad1 97bd cbc8 bb3e f11d e0bd
00000270: d646 bd3c 1526 1f3f cd80 19bf 315a 6ebe
00000280: 190f 54be 72c4 013f 7873 1f3f 8ba3 6ebe
00000290: aa76 72be 307b 023f 2301 eebe 2eac 213f
000002a0: 5b38 67bd 8fb1 f63d db28 473f e819 473b
000002b0: a586 073f 2fd6 993e c65a ff3e acaa 8f3e
000002c0: bb47 dfbe 21ff 833e ae85 353f 4e3d 143d
000002d0: a97e 2dbe 8d97 04bd 9d02 f7bd f018 48bc
000002e0: f87c 263e 2395 9c3e 9c50 a9be c3f2 70be
000002f0: 3a5c f83e 0e3c f83e fec4 2cbe 0c32 da3e
00000300: fdbb 08bc 1f7b 9bbd 9b05 d13d 46c7 82bd
00000310: a337 f53e ea50 da3e ecaa b4bd 1e1f b9bd
00000320: 021a 5ebe 3199 623e 3426 913e 8a12 a63e
00000330: b539 863e 3c87 5dbf 806e 08bf ba35 2f3f
00000340: 0277 09be 7826 243d 414e 02be 0182 b8be
00000350: 33f2 8f3e 78b0 923e 3f48 4d3e 2dd6 b93d
00000360: e269 b9bd be73 36bf 2dd7 3bbc ef73 7ebe
00000370: f27b f2bd 99c7 f53d a393 143d dae0 fe3e
00000380: 02fc c43e 1680 0bbe e24d 83be afd5 1b3f
00000390: 2ba1 603e cab7 2ebf 23c4 2abe 0f3f dfbc
000003a0: 1f31 a43f 4592 03bf 3cba a9be 19b6 043f
000003b0: 4c97 433e a112 b3be effe b53e 901e 17be
000003c0: 8465 1f3f bab9 a13e 056f b73e 7db9 453e
000003d0: dcb9 b1bd 2f48 5f3b b3b2 343e 03ac ae3b
000003e0: 8642 0f3f 762a 7fbe 3962 00bf a8c3 813d
000003f0: 99f5 ffbd b067 053f a600 31bf bdb8 243e
0.058456432 -0.03198797 -0.64571476 -0.100109085 -0.3449896 -0.059272826 0.46322432 0.1786087
0.2667684 -0.14684777 0.018062871 -0.38411096 -0.1425174 0.022968205 0.21452765 -0.118923604
0.3128942 -0.38638526 -0.13686116 -0.13065635 0.36443952 0.016407683 -0.06271594 0.51590705
0.71972084 0.020484231 0.01248299 0.052260082 -0.54930496 0.08789877 -0.22492677 0.060039233
-0.3376476 0.20184076 -0.34176248 0.5178922 -0.4226987 0.6421084 0.9403074 -0.22208266
0.70526165 0.07907362 -0.4134289 0.6156856 0.15449806 0.19204922 -0.26278964 0.47105137
-0.25293514 0.4809787 0.120852314 -0.16386347 0.05895124 0.70494574 0.056487877 0.03480376
0.649109 0.122388415 0.048272677 0.032518305 -0.5307625 0.0569713 -0.402544 -0.5501798
-0.2830092 -0.23224194 -0.11216944 0.5953302 -0.50750965 -0.45147267 0.23663014 0.36727166
-0.22804703 -0.052705772 1.1234006 0.33133954 0.70079803 0.40975076 1.4246424 -0.41819087
-0.39457905 -0.06630336 -0.42357323 0.17346354 -0.69725186 1.6226488 -0.022127677 0.6223238
0.15765403 -0.108304836 -0.023577029 -0.38265884 0.30474207 -0.30946383 -0.7248193 0.5412696
-0.1885908 0.05422905 -0.29029784 -0.506589 -0.26102513 0.8388023 0.6334759 -0.44104427
-0.43637422 0.23690884 -0.06060316 -0.81800115 -0.11620058 0.03927696 -0.096515365 -0.1905917
-0.096527085 -0.14541285 0.1604601 0.9663447 -0.31253028 0.068771295 0.15409382 -0.015265352
0.25392023 -0.30719766 0.5305954 0.9223081 -0.044926748 -0.33325845 0.412473 0.21562712
-0.012067806 0.040206008 0.47451308 0.2325071 0.84629184 0.44574547 0.24886186 0.79710925
-0.01727274 -0.4854984 0.41826415 0.15169907 -0.449124 -0.07506466 0.09383735 0.2324127
0.3995716 -0.3633336 0.30100313 -0.075909875 0.41608745 -0.50472057 0.27034134 0.07195754
0.120730825 -0.07413001 0.3667663 -0.10943211 0.023105066 0.62167484 -0.5996216 -0.23276593
-0.20708884 0.50690377 0.62285566 -0.23304574 -0.23678079 0.5096922 -0.46485242 0.6315335
-0.05645023 0.12045585 0.77796715 0.0030380432 0.52939826 0.30046222 0.49873942 0.280599
-0.43609414 0.25780585 0.70907104 0.036191277 -0.16942848 -0.032371093 -0.12061045 -0.012212977
0.1625861 0.30582532 -0.33069313 -0.23530106 0.48507863 0.48483318 -0.16872022 0.42616308
-0.008345601 -0.07591843 0.10206147 -0.06385665 0.4789401 0.42639858 -0.08821663 -0.09039138
-0.21689609 0.2212875 0.2834946 0.3243602 0.26215902 -0.86534476 -0.5329361 0.68441355
-0.13424304 0.04007575 -0.12725164 -0.36036685 0.2811447 0.2865026 0.20047091 0.09074054
-0.09053399 -0.7127036 -0.011464876 -0.24848913 -0.11840047 0.12000961 0.03627361 0.49780923
0.38473517 -0.1362308 -0.25645357 0.6087293 0.2193648 -0.6824919 -0.16676383 -0.027251748
1.282749 -0.51395065 -0.33149898 0.5184036 0.19100684 -0.3497515 0.3554606 -0.14757752
0.62264276 0.3158701 0.3582689 0.1930904 -0.08678028 0.0034070124 0.17646293 0.005330564
0.5596088 -0.24918541 -0.50149876 0.063361466 -0.12498016 0.5211134 -0.69141614 0.16086097

fc3.bias f4 [64]
00000000: 8fe1 b13e ff15 44be 3d2b 13bd 24cf 9b3d
00000010: 4d17 243f 1a96 443d c584 153d 1a74 773e
00000020: 7441 403e 69a0 89bd 385b b1bd cc85 693e
00000030: b62c fd3e 59db 943d 80c5 993e 927f 8a3d
00000040: a681 7c3f 399f 8f3d 1ddd 8d3e d7b1 273e
00000050: 9220 923f d423 033f d63b 29be 04a3 d23d
00000060: 83a5 2c3e d922 7fbd 18c4 37bd 7fbb 033f
00000070: ce5e 3d3f 879d 0f3e 88e0 ad3e 074e 193f
00000080: 356d 123e 93d5 bfbd 75f7 223d 2e09 bfbd
00000090: 94ef 9c3f 6e0d 94bd 7cec f73c 937b db3d
000000a0: 6218 10bd bd28 9d3d c949 c1bc d788 9e3e
000000b0: 2b08 b1bc 0885 48be c93b ed3c 63bf 17bd
000000c0: 8ca6 2f3e 4f3b 953e 27c9 22be e3d1 a0be
000000d0: 3f1b 473d 3156 aa3d eac2 393e ff4f 913f
000000e0: 277b 80b9 10b5 85bd 8c17 8e3e 9f6c 7539
000000f0: f422 053e 770f 5d3d 3a37 1e3f af06 a73e
0.347424 -0.19149016 -0.035929907 0.07607868 0.64098054 0.04799471 0.036503572 0.24165383
0.18774968 -0.06720049 -0.08659977 0.22804946 0.49448174 0.072684 0.30033493 0.06762613
0.9863533 0.07012791 0.2770776 0.16376434 1.141619 0.51226544 -0.16526732 0.10284999
0.16860013 -0.062289093 -0.044864744 0.5145797 0.73972785 0.14024936 0.33960366 0.59884685
0.14299472 -0.09366908 0.039786775 -0.09327923 1.2260613 -0.07229124 0.030264132 0.10716929
-0.035179503 0.07673786 -0.023594754 0.30963776 -0.02161034 -0.19581997 0.028959172 -0.037047755
0.17153376 0.2914681 -0.15897046 -0.3141013 0.04860997 0.08317221 0.1814076 1.1352538
-0.00024505818 -0.065286756 0.2775234 0.00023405485 0.13001615 0.053969827 0.6180302 0.32622287

fc4.weight f4 [30, 64]
00000000: 43ae 143d a403 2ebd ed98 8cbd e7b2 c6bc
00000010: ceea 8abe 0f09 1ebe 32b9 acbd 097a 803c
00000020: ac1e 893d 3d7f 203d 0ef8 373e 7638 c23b
00000030: 5eb0 5d3f fa77 56be 651d 3fbd b9d4 ab3d
00000040: e3de 8e3e b36d 93be ce99 d4be dc8b 853d
00000050: f084 d13e da9d a1bd 0915 903d 521d 91bc
00000060: 54b4 94bd ab18 86bd d43e 783e 4709 a2bc
00000070: db17 e63e e947 323e 4d5f 18be e4c9 ee3a
00000080: e057 ecbc e5af 4e3d 0fd4 0b3d 3420 2ebe
00000090: 87e3 5b3f d4ee 63bc 0237 bc3d 38fa 4b3d
000000a0: 6403 073e 0149 00bc c1f2 1aba e1f7 33bf
000000b0: 009a b6bd d651 31bf b19f 363d 56bf 85bd
000000c0: e88f 4bbd 143b a63b 6886 003b bb9e 313c
000000d0: 93b0 1a3d 987e d3bc 186d d2bb da2b ec3e
000000e0: 022d bf3e 36c6 4a3e 3606 5e3d 6c41 a9be
000000f0: f991 ecbc 3ca0 83be 94da e13e 1e49 23bd
00000100: 95ad f63c 3f77 50bd b25d dc3d 94fe 223d
00000110: ad8c 3ebe adfe e2bd d7e3 69bd 92ed 223c
00000120: 2d51 0e3d 594b 1c3d 4d23 f63d ec84 8b3c
00000130: 03e1 173f fa90 12be 87ca fcbc 57e9 693d
00000140: 427c 403e e9da 44be b988 93be 5619 4d3d
00000150: 72f9 893e f94f 54bd b0af 7b3d 9cec 12bc
00000160: 9f13 4dbd 874e 2ebd 14a4 283e 54a1 59bc
00000170: e68e a03e bc2c d83d 5b1d d6bd 508c e639
00000180: da40 dabc 12df 293d 8b51 13bd 2e71 f8bd
00000190: 61d7 143f 111a 5bbd 360b 8c3d 3244 043d
000001a0: 7423 a73d 48ed 86bb 46eb c53a cd17 f9be
000001b0: 4d84 29bd 6473 fabe 455d e7bd c458 7bbd
000001c0: 5cc1 04bd f111 5a3b b45e b239 de91 f73b
000001d0: 8f08 133d 09b0 95bc 162a 87bb f810 9c3e
000001e0: 9f75 933e df29 063e 48bd 2e3d 15ac 65be
000001f0: 2a69 82bc bec7 33be 2920 953e 4b1d b8bc
00000200: 5ae4 b23c bc3a 69bd 149b 203d cc08 9e3c
00000210: 9317 1dbe f4a2 aabd 33f0 44bd fefe 003c
00000220: 8f21 b83c 67cb fe3c 1bdb ae3d 1d6d 073c
00000230: 66ea f63e 8ebb efbd f924 c3bc 193e 393d
00000240: a909 1b3e 6552 23be 569f 63be fbf6 253d
00000250: 7ab7 593e ffac 27bd 5186 833d 126b b7bb
00000260: 1756 18bd 8a7c 07bd 417b f83d cd61 2bbc
00000270: 243d 853e bd89 bb3d ebdc b6bd 4f88 24ba
00000280: 51ac dabc a4c3 123d 3414 7cbd f249 bcbd
00000290: b293 ef3e 10b5 da3d 63d2 6f3d 677e c83c
000002a0: f537 813d 7dfb 02bb 6489 d73d ca89 cdbe
000002b0: 1717 abbd 0bf0 d4be 06ca e33d 48b4 96bd
000002c0: 1b51 c3bc 3b3a 373b c862 6739 60f8 bd3b
000002d0: ec36 ed3c e808 7fbc 4209 69bb dae1 7b3e
000002e0: da76 803e 7358 e73d 2a7a 193d b486 2fbe
000002f0: c4e4 15bc 91ca 13be 806c 6e3e 80bd 91bc
00000300: 8309 fb39 8f46 b6bd 0ae4 f5bc 6539 6abd
00000310: 207c bfbe 82a3 d1be 08a9 30be 286f a4bc
00000320: a8c6 88bd fc47 763d 801c bf3d 667b 30be
00000330: d153 b63e 8c88 483e d19c 8a3e 0f5e ffbd
00000340: d747 bb3c c557 603b 6ddf 46bf 9b6e 6e3d
00000350: ab2f 9a3e 6983 4ebc f633 453e 604f 63bc
00000360: 101d 743e 7bfd 343d fd42 013f 5ff3 8dbb
00000370: 0436 253e 5e21 19be e176 f43c c2d3 03bd
00000380: af61 513d bb9e a1bd d20b 9bbc c426 9dbc
00000390: a9db 193f de7b dbbd 5742 b8bd f91c 003d
000003a0: 72d0 68be 2afd ecbc 3298 29bb a89e dfbe
000003b0: d0a3 e6bd c9f4 da3d d509 603d 2e04 a5bc
000003c0: 4d4d eabc a1b0 4f3d 730b bdbb 8d5c 95bc
000003d0: 6a94 f8bd dc2c a33d 82b8 5d3c 7865 463f
000003e0: 6df0 9cbe 2aa0 76be 4c2c 423f b9e9 99be
000003f0: 4377 8abc 9bb0 d63e 365e db3d a8af 3b3e
0.036299 -0.04248394 -0.06865106 -0.02425523 -0.27132267 -0.15433143 -0.08433761 0.01568319
0.06695303 0.039183844 0.17965719 0.005927141 0.8659724 -0.20944205 -0.046658892 0.08390183
0.27904424 -0.2879463 -0.41523594 0.06520817 0.40921736 -0.07891436 0.07035262 -0.017714176
-0.07260957 -0.06547674 0.24242717 -0.019779814 0.44940075 0.17410244 -0.14880104 0.0018218127
-0.028850496 0.050460715 0.03413778 -0.17004472 0.85894054 -0.0139119215 0.091901794 0.049799174
0.13184887 -0.0078299055 -0.0005910807 -0.7030011 -0.08916092 -0.69265497 0.044585887 -0.06530635
-0.049697787 0.0050729606 0.0019611362 0.010841067 0.03776605 -0.0258172 -0.0064216964 0.46127206
0.37339026 0.19802174 0.054205142 -0.33057725 -0.028878199 -0.25708187 0.44112074 -0.03986465
0.030112067 -0.050894972 0.107600585 0.039793566 -0.18608351 -0.11083732 -0.05710205 0.0099443365
0.034745384 0.038157795 0.12018452 0.017031156 0.59327716 -0.14313117 -0.030858291 0.057107296
0.187974 -0.19224133 -0.2881525 0.05007299 0.26948124 -0.05183408 0.061446846 -0.008967545
-0.05006754 -0.04255536 0.16468841 -0.0132830925 0.31359023 0.105554074 -0.10454818 0.0004397356
-0.026642252 0.041472502 -0.035966437 -0.12130962 0.5814114 -0.053491656 0.06838076 0.0322916
0.08161059 -0.0041176416 0.0015100024 -0.4865097 -0.041385937 -0.4891616 -0.112970866 -0.06136395
-0.032410964 0.0033274854 0.00034021365 0.0075552305 0.035896834 -0.018272417 -0.00412489 0.30481696
0.28800675 0.1310191 0.04266098 -0.22428925 -0.015919287 -0.17556664 0.291261 -0.022474905
0.021837402 -0.05694078 0.039210394 0.019291304 -0.15341024 -0.08331862 -0.048080634 0.007873295
0.02247694 0.03110285 0.08537885 0.008265761 0.48225707 -0.11705695 -0.02382134 0.045225237
0.15140404 -0.159494 -0.2222875 0.040518742 0.21261397 -0.040936466 0.06422103 -0.0055974806
-0.037191477 -0.033077754 0.12132884 -0.010460329 0.2602321 0.09157131 -0.089288555 -0.0006276415
-0.026693495 0.03583111 -0.061542705 -0.091937914 0.4679237 0.10679066 0.05855025 0.024474336
0.06309501 -0.0019986324 0.10524252 -0.40144187 -0.083540134 -0.41589388 0.11122517 -0.07358605
-0.023842385 0.0027958292 0.00022066676 0.005797431 0.028956853 -0.015566088 -0.0035558497 0.24597874
0.25090677 0.11296167 0.03747002 -0.17141229 -0.00914878 -0.14432742 0.23283577 -0.017790556
0.00047881537 -0.08900177 -0.030015964 -0.057183642 -0.37399387 -0.4094506 -0.1725198 -0.020072535
-0.06678516 0.060127243 0.09331608 -0.17234573 0.35610822 0.19583338 0.27072766 -0.12469112
0.022861404 0.0034232002 -0.7768467 0.05821095 0.30114493 -0.012604573 0.19258103 -0.013873905
0.23839211 0.04418705 0.5049284 -0.0043319906 0.16133887 -0.14954135 0.029841842 -0.03218437
0.05111855 -0.078916036 -0.018926535 -0.019183524 0.601008 -0.10716985 -0.08997028 0.03127763
-0.22735766 -0.028929312 -0.002587807 -0.43675733 -0.112617135 0.1069122 0.054696877 -0.020143595
-0.028601313 0.050705556 -0.005769187 -0.018232608 -0.12137683 0.079675406 0.01353276 0.7749858
-0.3065218 -0.24084535 0.7584884 -0.3006113 -0.016902572 0.41931614 0.10711329 0.18328726

fc4.bias f4 [30]
00000000: 7bb7 b140 a67a a840 2498 a040 24cf 0a40
00000010: 390b c73f ef2b ee3f 7a5d cf3f a9fd 0040
00000020: 98c4 a13f 1160 fdbd c70c 9e3e 6c78 23bf
00000030: c45b edbe bbfb b23d eeba 20bf 695f d4be
00000040: a365 18be cc74 babe a269 b0be 5307 533e
00000050: 0682 6dbd 94d2 ccbe 9fc7 e33d e797 ed3d
00000060: 567c 30bf 4535 d5bd 0c57 55bd fa00 03bf
00000070: d50c 35bd 3273 09bc
5.5536475 5.2649717 5.018572 2.1688929 1.55503 1.8607157 1.6200402 2.0154822
1.2638121 -0.12371839 0.30869123 -0.63855624 -0.46359074 0.0873942 -0.6278523 -0.41479042
-0.14882521 -0.36417234 -0.3445559 0.20608263 -0.05798533 -0.40004408 0.11122059 0.11601239
-0.6893972 -0.10410551 -0.052084967 -0.51173365 -0.04420169 -0.008389281

fc1.weight f4 [32, 7]
00000000: db69 943e 578e 04bf cd17 86be 68e0 f4be
00000010: cbcd d6bc e1a9 053f 56bc 04bc f480 07bf
00000020: 0bdc 87be 5c0e ea3e 578b 503d 532b d13b
00000030: 5182 313b 14d3 7e3b 3b72 68bf 318c a43f
00000040: 2cc9 8fbd 698d 0b3f 03ef 123c c554 babb
00000050: 555d a13a cb77 0fbf ef24 543f 4b8c ca3e
00000060: 5f17 54bf 24bd edbb fc9a 103d 21a4 f3b9
00000070: ad82 e63c 479a a5bc 05ad ba3c dddf 5e3e
00000080: 49cd 693f 3c08 5f3f 9020 04bd 6405 45bb
00000090: 5421 57be c315 383c 6615 253e 7186 063e
000000a0: cccb 35be be33 853b de75 423f 832b 61bf
000000b0: 923e d8bd 14df 3abf ffe0 c8bc cf52 033c
000000c0: f0c7 603a ca60 a5bf d284 233e c0d5 bd3e
000000d0: 24db 083f 73cb 033d abd6 163d 91f6 0bbb
000000e0: a121 ecbd 4732 113f eceb adbd f44b d9be
000000f0: 235e ac3d 9b50 93be 7aec c2bb eb4a 1fbf
00000100: 295e 193d f97f 31bf b1c9 f53e c294 88bc
00000110: a295 b93c eaf5 56bb 165d 923e 5f83 aebe
00000120: bf13 8e3e 1de6 9f3e 13dd ad3c 6763 eabc
00000130: bc0c c5ba dc17 923f a3b5 923f 36df 063e
00000140: 80b4 8d3e 46e1 d83c a20e bdba 0d2f ffba
00000150: a740 7abf c8f3 b4be 3180 9abf 103c b9be
00000160: 443a cbbb ba90 c13b 628c e538 4f25 923f
00000170: 5233 c13e 3062 8b3f d9d8 cabe 9fc1 83bc
00000180: 5448 263b 3837 ca3b b711 06bf 4d21 1bbf
00000190: 5a11 84bd fc85 a03e 3960 a13b bf4d 83bc
000001a0: bb5f 5cba 29f0 063f 425d 043f 19e2 983d
000001b0: 8783 7b3e 7a3d 71bb eed7 9e3b 1db1 233b
000001c0: dc7b ebbd f2c8 82bf 7c8e 2d3e f538 89bf
000001d0: bda8 313d bc6b 603d 2ed7 01bc ffb5 67bd
000001e0: 65af b9be 1f64 ce3f 5a7a 8ebe 55df 183d
000001f0: 5470 343c 58c3 2aba d22f dabe 6dba dcbe
00000200: 8bad 02bf a3bd 3cbe ecc0 973c f81e 103b
00000210: 2197 ae39 a27f 343f 0678 a2be 62d2 383f
00000220: 327a d53d a583 993c e2d9 623b 7e66 90bb
00000230: a341 373f f9cc 733f 3904 08bf 5ccf d23e
00000240: bf62 c938 b395 80bc 14a2 27bb 35b8 45bd
00000250: 874f 9c3e d08d 153d 3e86 03bf f302 093f
00000260: f4fb e53e 5bbd 57bc 20a3 4e3f c63e 6d3f
00000270: 2b81 99bd e030 523f c5cb 8d3c 5e66 b7bc
00000280: f1ef 053b c0f3 523f 9aa2 cfbe 9b25 663f
00000290: 69f5 033f 6468 b13b 8948 623c 28e4 4839
000002a0: 4953 c6bc d8b0 8d3b 861a fb3e 7123 763f
000002b0: e5a4 1fbc ad4f 593d fa7a 0b3b bf00 81bf
000002c0: ef6e 7abf c1f8 9a3d 6bc4 fc3e a55b 803c
000002d0: d3cf 913b 007e deba e6f3 3bbf 997e 3dbe
000002e0: 579b 3cbf 2873 5b3e d3f8 9738 61c7 5fbb
000002f0: fd31 083a b80f 153f 0441 503e a3a6 2c3f
00000300: c577 aa3e 240e b63b f87c 683c 8a66 f13a
00000310: b005 3ebe f81e a3bd b63f a83e e0a6 813e
00000320: ce55 46be be5a 9a3e f3e9 1dbc a075 c73f
00000330: 5eb5 8fbf be45 0ebe 4667 bc3e 9ebd 843c
00000340: 03a4 d6bb 0ad5 70bb 597c 4c3f 72d0 653f
00000350: 43da e03b a241 0abf dd89 61bc 31de 993d
00000360: b7b1 bfbb 81ee d13c b9b3 093f 9519 fc3d
00000370: c8b6 85be d786 abbe 651f 313e 029b a63b
0.2898701 -0.51779693 -0.26190034 -0.47827458 -0.026221177 0.5221234 -0.008101543 -0.5293114
-0.26535067 0.4571408 0.050914135 0.0063833385 0.0027085731 0.0038883137 -0.907993 1.2855283
-0.07020792 0.5451265 0.008968118 -0.005686375 0.001231114 -0.56042165 0.82868856 0.3956016
-0.8284816 -0.0072552133 0.035304055 -0.00046470857 0.028138483 -0.020215167 0.02278758 0.21765085
0.91328865 0.8712194 -0.032257617 -0.0030063028 -0.21008807 0.011235657 0.16121444 0.13137223
-0.17753524 0.004065006 0.759611 -0.8795702 -0.10558809 -0.7299664 -0.024521349 0.008015349
0.0008574715 -1.2920163 0.15968636 0.3707714 0.5345938 0.032176446 0.036825817 -0.0021356682
-0.11529852 0.5671734 -0.08492264 -0.4244076 0.08416393 -0.28772435 -0.0059486004 -0.6222369
0.037443314 -0.69335896 0.4800544 -0.016672496 0.022654358 -0.0032800385 0.28586644 -0.34084603
0.2774944 0.3123025 0.02122358 -0.028611852 -0.0015033702 1.1413531 1.1461681 0.13171086
0.27676773 0.026474606 -0.0014423917 -0.0019468978 -0.977549 -0.3534224 -1.2070371 -0.36178637
-0.006202014 0.0059071453 0.00010945719 1.1417636 0.37734467 1.088934 -0.39618567 -0.016083537
0.00253727 0.0061711334 -0.5237078 -0.6059769 -0.06448622 0.31352222 0.0049248007 -0.016028283
-0.0008406599 0.52710205 0.517048 0.07465 0.24561892 -0.0036810325 0.004847518 0.0024977394
-0.11498234 -1.0217574 0.16948885 -1.0720507 0.043373812 0.054790244 -0.007924838 -0.05657005
-0.36266628 1.6124305 -0.27827722 0.03732236 0.011013109 -0.0006514094 -0.4261461 -0.43110982
-0.51046056 -0.18431716 0.01852461 0.0021991115 0.00033300466 0.7050725 -0.31732196 0.7219602
0.104236975 0.01873953 0.0034614732 -0.0044067493 0.7158453 0.9523464 -0.53131443 0.41173828
9.60282e-05 -0.015696382 -0.0025578784 -0.048271377 0.30529425 0.036512196 -0.5137671 0.53520125
0.44918787 -0.013167704 0.8071766 0.9267391 -0.0749534 0.8210583 0.017309079 -0.02238768
0.0020437206 0.82403183 -0.40553743 0.8990113 0.5154634 0.0054140557 0.013811239 0.00019158481
-0.024209635 0.00432406 0.49043673 0.9614783 -0.009743904 0.0530545 0.0021283017 -1.0078353
-0.9782552 0.07566977 0.49368605 0.0156687 0.0044498234 -0.0016974807 -0.73419034 -0.18505324
-0.7367453 0.21430647 7.246588e-05 -0.0034145939 0.0005195437 0.5822711 0.20337301 0.6744177
0.33294502 0.005555885 0.014189951 0.00184174 -0.18556857 -0.07964891 0.32861108 0.25322628
-0.1936867 0.30147356 -0.009638297 1.5582771 -1.1227224 -0.13893792 0.3679754 0.016203698
-0.0065503134 -0.0036748075 0.7987724 0.8977119 0.0068619563 -0.540064 -0.013765779 0.07513083
-0.0058500427 0.025626423 0.5378986 0.12309567 -0.26116014 -0.33501312 0.17297132 0.0050843963

fc1.bias f4 [32]
00000000: b3a8 9c3f ceb9 713f 5e90 fa3e 0675 a53e
00000010: 8e90 09be dff3 de3f 8b1a 603f 5d4d 5abe
00000020: 3afa f43f f6d9 633f 0554 b13f cae6 f3bd
00000030: 0dac 86be d11d 243d fb1c 6c3f 7440 7d3f
00000040: d07f 933d 8c25 90be fba5 393f e96c 1e3f
00000050: a25c 24bf 4acd 913f e9da b73c 017a 93bd
00000060: 3a3e bf3f 5bbe 253e 4f35 2bbf 756a 3f3f
00000070: fab6 a63f 90fd 59bf 648f a53e e5d8 bb3f
1.2238983 0.9442414 0.48938268 0.32315844 -0.1343405 1.7418174 0.875405 -0.21318574
1.9138863 0.89004457 1.3853766 -0.11909254 -0.2630314 0.040067498 0.9223172 0.9892647
0.07202113 -0.28153646 0.7251889 0.61884934 -0.64203846 1.1390774 0.022443252 -0.07201005
1.4940865 0.16185896 -0.6687822 0.74771816 1.302459 -0.8515253 0.3233596 1.4675566

fc2.weight f4 [128, 32]
00000000: 5620 173d b402 963e 4772 95bd 30b3 5d3e
00000010: 9514 1d3e 200b aabc 0fa3 3f3e 0bb0 a33c
00000020: dc2b ae3e 9db5 883e 27ec a13e ab69 fa3e
00000030: 490e 163e 8b20 cf3e 3d52 ad3e b3a1 383e
00000040: f02b 0e3e 0bef 7b3e cb57 c53e ac90 9e3d
00000050: e0c4 0fbe 8f28 5a3e 12f2 7a3e 0418 c83d
00000060: 6b3c 033e 97b3 883d 1445 cabd 8bb9 9b3e
00000070: 6bcc 0a3e a101 c23c 22d5 02be 8777 c43d
00000080: 96f9 973e 1b41 963e bab9 75bf 4d94 1dbf
00000090: 42c7 d13b befa 013f 6aea 583d bfd0 6bbf
000000a0: 52a9 1d3d b83b 6cbe e47d 1b3f 0677 fa3e
000000b0: 4ce0 09be f1ff 8f3e 9ed7 d53e 6659 8d3d
000000c0: 32d5 e9be 0b96 15bd b9a0 87bd 3bac 263d
000000d0: db7d 253f c8ca 8cbd 6dab 543e 1464 20bf
000000e0: c74c ee3e e481 e23e 1f77 c13e 7248 6c3e
000000f0: dd59 2b3e c4a8 97be 9d61 e23b c93d debd
00000100: d02d 92bd f39f 1d3d 273f 863e 8e72 0b3e
00000110: 1b72 0dbe 5f67 5bbe 0f7b a43e 03a6 5a3e
00000120: bca2 08be 7f1c 0a3f 519e f6be c32c b6be
00000130: abcd d53e 46a0 6ebe d5d6 323e 5d14 9dbe
00000140: 3287 a03d 520c c33d 2934 06bd 7b5b 423e
00000150: eb3b d2bc d035 303e d836 4dbf 5326 f73e
00000160: 3d88 213f 15bd b83b ccec 1cbf aa07 72be
00000170: af3a dfbd 23a7 833e 77c6 e53c c118 8cbd
00000180: b770 afbb 1905 de3c d8c3 ec3d e7c4 7d3e
00000190: cfd3 00bf 8307 ec3d b234 b23e 0113 18be
000001a0: e9b0 b53e 97a8 fe3c 3e10 bdbd 189b 1bbc
000001b0: 2c83 193d 2935 86be 33dd 863e 6a64 563d
000001c0: 7276 b5bc 9692 e43d 0cff 3fbe 15d8 f0bc
000001d0: 93ad 61bc 455a 433e ea5f 7d3e 1a5b e9bc
000001e0: a344 053e ce4e 2e3e 74e9 42be 5550 70be
000001f0: 8f32 4abd ea29 293e d40f b63d 72e7 e43d
00000200: 1152 1f3d 1502 773d 479e 3bbe bc1a 0cbf
00000210: 4e59 1e3e d50a ce3e 9730 7bbe f16a 99bc
00000220: 1f09 253e 478b d0be a2ab b53e b2fa 733e
00000230: 87f2 bebe 8912 64bc 3d54 c73e 0315 0a3e
00000240: febf 75bc 4dec c5bd 965d 7ebe 20bd 90bd
00000250: f6ba cabd 94da 97bd 4b5a c4bc 81ae adbb
00000260: a7e8 443c e4b1 5bbe 9c2b d33e a8df ac3e
00000270: 64b8 703e 8136 1c3d 3932 3bbe 23d8 8d3e
00000280: 131e bfbd 09ce 30be 408f c53d f8e8 89be
00000290: e7cd e23d 6847 b73e c123 48bd 8ca3 9c3c
000002a0: 06b3 5f3e 4a04 163e 267a 823c 1417 26be
000002b0: 4891 4d3e c4d4 b1bc 8b3a 6c3e 7a39 403e
000002c0: 8b18 fcbd 60ee 11be cba2 81be f189 233d
000002d0: 9b75 603e b98d ae3d 91f4 973e 4682 1bbd
000002e0: 5f0c ecbe e4ad 3abe 5d1b 52bf c109 133f
000002f0: 0349 9a3e bf48 96be 6e27 28be 354f a33e
00000300: 07dd 803d aa27 d1bd e631 f73d 4a57 05bf
00000310: 1453 b53d 8101 513e 61a0 45bd c798 b83d
00000320: e643 713e c1cd 3d3e 36f5 ac3e cad2 463d
00000330: b6ab 45bf 36bc 0ebe 6b28 3cbe 4a40 8a3d
00000340: 509e d3bd 9029 ea3d 8c29 84be f14e 21bd
00000350: 018f fb3b 9f06 ba3c 7034 c83d 996d 83be
00000360: 3079 863e 7d2c 023e e5d2 23be 0c4f 00bb
00000370: 513f 2a3e 63b6 1ebe 52aa 9fbd 469a 793e
00000380: 0169 c4bd 8f69 cc3d 0d58 533e 924d eb3d
00000390: 802a dabd f2d5 93be 8fa2 01be eaec 0dbf
000003a0: e229 103e b228 903e 70e6 35bf 7f0c 533d
000003b0: 9b60 d53d 9d42 be3e 9ca2 7abe 2e50 09bf
000003c0: 70dc ff3d 21db 2ebe 90cb 9fbd 8d4a 0ebe
000003d0: 3ab6 55bb e48b 843e aca2 6d3e 7cba 9c3e
000003e0: 313f 97be 3db8 0d3f 7c5f 2a3d 98b4 9cbe
000003f0: b0ff 20bd f3e8 db3e 8e66 823e dc98 093e
0.036896072 0.29298937 -0.07297187 0.21650386 0.15339883 -0.020757258 0.18714546 0.019981405
0.34017837 0.2670106 0.31625482 0.48908743 0.14653887 0.40454516 0.33851805 0.18030433
0.13883948 0.24602906 0.38543543 0.07742438 -0.14039946 0.21304534 0.24506405 0.097702056
0.12816016 0.06674879 -0.09876457 0.30414996 0.13554542 0.023682417 -0.12776616 0.095931105
0.29682606 0.29346547 -0.9598652 -0.61554414 0.006401927 0.5077323 0.05295793 -0.92115396
0.038491555 -0.23069656 0.6073897 0.48918933 -0.13464469 0.28124955 0.41766065 0.06901817
-0.45670468 -0.036520045 -0.06622452 0.040691596 0.64645165 -0.06874615 0.20768519 -0.6265271
0.4654295 0.44239724 0.37786195 0.2307451 0.16733499 -0.29620945 0.006908609 -0.10851628
-0.07137644 0.038482618 0.26220056 0.13617918 -0.13813059 -0.21426152 0.32125136 0.21352391
-0.13343328 0.5394973 -0.4816766 -0.35581025 0.41758475 -0.23303327 0.17464764 -0.30679598
0.078382865 0.09523834 -0.032764588 0.1898021 -0.025663337 0.17208028 -0.8016181 0.48271427
0.6309851 0.0056377747 -0.61298823 -0.23635736 -0.10899865 0.25713453 0.028048737 -0.06840659
-0.005354013 0.02710204 0.11560792 0.24782144 -0.50323194 0.1152487 0.34805828 -0.14851
0.35486534 0.03108625 -0.092316136 -0.009497426 0.03747861 -0.26212433 0.26340637 0.052341856
-0.022151206 0.111607715 -0.18749636 -0.029399911 -0.0137742935 0.19077404 0.2474362 -0.028485823
0.13014464 0.17022249 -0.19034368 -0.23468144 -0.049364623 0.16519895 0.08889738 0.11176957
0.038896624 0.06030472 -0.18322097 -0.54728293 0.15463755 0.4024264 -0.24530254 -0.018727751
0.1611676 -0.4073126 0.35482508 0.23826101 -0.3729441 -0.013920435 0.38931456 0.13484578
-0.014999388 -0.096642114 -0.24840388 -0.07067323 -0.09898941 -0.07414737 -0.023968836 -0.0053003435
0.012018359 -0.21454579 0.4124421 0.33764386 0.2350784 0.038137916 -0.18280877 0.27703962
-0.09331908 -0.17266096 0.096464634 -0.26935554 0.11074429 0.35796666 -0.048862223 0.019120954
0.21845636 0.14650074 0.015927386 -0.16219741 0.20074952 -0.0217079 0.23069207 0.18771926
-0.12309369 -0.14251089 -0.25319514 0.039926473 0.21919863 0.08523125 0.29678777 -0.037966035
-0.46103188 -0.18230397 -0.82073003 0.5743676 0.3013383 -0.29352376 -0.16421291 0.31896368
0.062921576 -0.102126434 0.12070064 -0.5208632 0.088537365 0.2041073 -0.048248652 0.09013515
0.23561057 0.1853552 0.3378083 0.048540868 -0.77215135 -0.13938984 -0.18374793 0.067505434
-0.1033293 0.11433709 -0.25812948 -0.039381925 0.0076769595 0.022708235 0.09775627 -0.25669554
0.26264334 0.12712283 -0.15998419 -0.0019578366 0.16625716 -0.15499263 -0.07796158 0.24375257
-0.095903404 0.09981071 0.20639057 0.11489405 -0.106526375 -0.28874165 -0.12659667 -0.5543963
0.14078477 0.28156048 -0.71054745 0.05152559 0.10418817 0.37160197 -0.24476093 -0.5363797
0.12493217 -0.17075779 -0.07802498 -0.13895626 -0.0032609836 0.25887978 0.23206586 0.30611026
-0.295404 0.5535925 0.041594967 -0.30606532 -0.039306343 0.42951164 0.25468868 0.13437217

fc2.bias f4 [128]
00000000: a807 a13e 7d7e 853e d09e 25bc 30d4 2a3e
00000010: cf15 cf3e 0c01 a53e 9bfc 2d3f 689a 393d
00000020: 9625 ed3e 86f5 1b3f a92a 9fbb e420 7b3e
00000030: 0986 2a3f d5bd d13e 1f0e 783e d6c2 ab3d
00000040: e611 f03e b3da 053f fb13 2b3f e983 e83e
00000050: 8070 323f d837 7e3e 4e13 cb3e 9bc6 f03e
00000060: 9a53 573f 40bf 213f 330b b1be 41a9 213f
00000070: fc36 f6bd 9393 ff3e 8a03 513e f014 263f
00000080: 0497 7a3f f31f ca3e 607f e43e df06 153f
00000090: 2a33 283f 01b4 c33e e496 0b3f c07c eb3e
000000a0: 999e 363f 0f6f e93e 54d3 013f 07bd 853e
000000b0: 175c df3e 4894 063f c5bb 613e 11dc d43d
000000c0: e82c a53e e407 123e ac6a c23e 611a 463f
000000d0: 8150 473f 465f 243e 0513 0c3f 0c05 b6bd
000000e0: 3924 273f 8d88 603d e191 f83e 7ef5 2e3f
000000f0: 42e8 f43d 0343 b53e 6bfd 7a3e 5104 f63e
00000100: 2bff 803e 3056 ca3e 3d14 b13d 8a62 9b3e
00000110: 4573 313e e09c 9f3e 2511 e73e 885a 1b3f
00000120: 6998 ff3e 260e 0b3f 4ab8 a03e b74f a03e
00000130: a149 823e d12e fe3e 334b 343f ed70 3f3e
00000140: 3533 813f 82a6 7e3c 68b9 023f 694f bc3e
00000150: cfb8 b03e c18b c53d aff0 c43e 808f 653e
00000160: ca01 313f fad2 363f 7e85 d83e a38a 0c3f
00000170: 39f8 4d3f 612e 0a3f f4eb eb3e 6cb2 993e
00000180: c46d 353f faf0 2a3f 1b5e 6c3e 7391 1c3e
00000190: 89eb 093f 6c64 053f eb2b 0f3f ecc4 253e
000001a0: 4cce 323f 22e6 b93e acf4 4cbe 5792 07bd
000001b0: 22db 9fbe 1a85 3ebe 4fd6 be3e 1360 ff3e
000001c0: 071b 213f 1e00 b73e 900a 413d 9e3b 063f
000001d0: 0924 bb3e e81d e83d 5f3c 863e 18bc 073f
000001e0: 861b 0e3f e023 dc3e f5d6 293f 2ed0 043f
000001f0: de88 4a3f d117 163f 68b6 5d3f 2baa 023f
0.31451154 0.26073065 -0.010108665 0.16682506 0.40446326 0.3222736 0.6796357 0.04531327
0.46317738 0.60921514 -0.0048573804 0.24524266 0.6661077 0.40965143 0.24224137 0.083867714
0.46888655 0.52286834 0.6682736 0.4541314 0.6970291 0.2482599 0.39663166 0.47026524
0.8411194 0.6318245 -0.34578857 0.63148886 -0.12022206 0.49917278 0.20411506 0.648757
0.9788668 0.394775 0.4462843 0.5821361 0.6570307 0.3822327 0.54527116 0.45993614
0.7133575 0.45592543 0.50713086 0.2612078 0.43624946 0.5257001 0.22044285 0.10393537
0.32260823 0.14260823 0.3797201 0.77384 0.77857214 0.16051969 0.5471652 -0.08887681
0.65289646 0.054817725 0.48548797 0.6834334 0.11958362 0.35402688 0.24510734 0.48050168
0.25194678 0.3951888 0.08646438 0.30348617 0.17329128 0.31174374 0.45130268 0.60685015
0.49920967 0.54318464 0.313906 0.31310818 0.254468 0.49645093 0.70427245 0.18695422
1.0093752 0.015542628 0.5106416 0.36779335 0.34515998 0.096457966 0.38464877 0.22418022
0.69143355 0.71415675 0.42289346 0.5489904 0.8045688 0.5397702 0.46078455 0.30018938
0.70870614 0.6677395 0.23082773 0.1528986 0.53875023 0.52106357 0.5592639 0.16188401
0.69846034 0.3630839 -0.2001521 -0.033098545 -0.31221873 -0.18605462 0.3727288 0.49877986
0.62931865 0.35742277 0.047129214 0.5243472 0.3655093 0.11333829 0.26217934 0.53021383
0.5551075 0.4299612 0.66343623 0.51880157 0.7911509 0.5863009 0.86606455 0.51040906
