logs/sdf_single_all_distances/state_97.pt (torch, 122503 bytes, 16 tensors)

fc1.weight f4 [32, 7]
000000 99 60 94 3e 0c 02 08 bf 60 dd 87 be c1 dc ff be
       0.28979948 -0.53128123 -0.26536083 -0.4997311
000010 b8 5d f7 bc e1 07 07 3f 85 7b f4 bb aa c4 0d bf
       -0.030196056 0.527464 -0.0074610137 -0.5537821
000020 41 d2 8f be 6d c0 ef 3e 86 65 36 3d e7 aa fe 3b
       -0.28090099 0.46826497 0.044530414 0.007771838
000030 50 63 f6 3a c0 11 61 3b e1 b6 72 bf 75 fa a9 3f
       0.0018797908 0.0034342855 -0.948103 1.3279558
000040 2c 5a 92 bd c7 ba 0a 3f b3 af 1a 3c ea cc 14 bc
       -0.07146105 0.5419125 0.009441304 -0.009082058
000050 94 08 22 3b 50 b2 11 bf 60 88 5a 3f 5c 89 d0 3e
       0.0024724351 -0.5691271 0.8536434 0.40729797
000060 07 5c 59 bf 80 fd 23 bc 42 e5 02 3d 88 9e 1a bb
       -0.8490605 -0.01000917 0.03195692 -0.0023593027
000070 71 68 a2 3c 7f 54 a8 bc f0 bb 90 3c 61 c1 54 3e
       0.019825192 -0.020548103 0.01766774 0.20776893
000080 32 ee 6e 3f 01 59 65 3f 12 e1 01 bd d1 dd c4 bb
       0.9333221 0.89588934 -0.031708784 -0.006007888
000090 93 6c 67 be 22 5e 8b 3c a1 7c 18 3e 32 27 13 3e
       -0.22600012 0.01701266 0.14891292 0.1437042
0000a0 16 6f 3b be f7 88 2b 3b f2 ce 47 3f d1 b0 65 bf
       -0.18304095 0.0026174167 0.7805015 -0.89722925
0000b0 58 a7 e4 bd fd 27 41 bf 37 1b cc bc 6e af 3c 3c
       -0.11164731 -0.7545164 -0.02491532 0.011516435
0000c0 97 da e0 3a 9b 3e ab bf b3 00 3b 3e b4 9d be 3e
       0.0017154989 -1.3378481 0.18261985 0.37229693
0000d0 55 7f 0e 3f 81 ae 0f 3d b2 09 0d 3d 6c cb da ba
       0.55663043 0.03507853 0.034433074 -0.0016692705
0000e0 ce 09 fa bd 1d 3a 13 3f a7 41 c6 bd 26 07 e1 be
       -0.12208901 0.5751055 -0.09680491 -0.43950766
0000f0 34 16 ae 3d ed fd 96 be e8 3b 72 bb e3 b0 22 bf
       0.08500329 -0.29490605 -0.0036961976 -0.6355116
000100 84 93 e9 3c 97 4f 34 bf b9 00 00 3f 71 7a 99 bc
       0.028512724 -0.70433944 0.500011 -0.018735142
000110 b7 79 bb 3c 1d 23 27 bb 32 e2 98 3e 7b 79 af be
       0.022885187 -0.0025503107 0.29860073 -0.3427237
000120 33 93 95 3e 5d 2a ab 3e d1 a2 9d 3c a2 04 d8 bc
       0.29213867 0.33430758 0.019242676 -0.026369397
000130 af 2f f2 ba 4e 64 94 3f 4c 5a 95 3f 8f fb 06 3e
       -0.0018477346 1.159311 1.1668181 0.131819
000140 7b f5 89 3e a3 34 e4 3c 9d f8 91 ba e0 6f 3a bb
       0.269451 0.02785713 -0.0011136715 -0.002844803
000150 d2 9e 7f bf 08 90 b8 be ef 84 9e bf 23 de c2 be
       -0.99851716 -0.36047387 -1.2384318 -0.38060102
000160 ff c7 e6 bb 51 b3 c7 3b 79 37 33 ba 49 f2 96 3f
       -0.0070428844 0.006094374 -0.0006836574 1.179269
000170 01 65 c7 3e e9 e4 8f 3f eb 80 d7 be ec 55 8f bc
       0.38944247 1.1241733 -0.42090544 -0.017497025
000180 d5 51 00 bb b1 d0 e4 3b 56 98 0a bf 17 43 22 bf
       -0.0019580026 0.0069828858 -0.54138696 -0.6338362
000190 48 0d 94 bd 7b 08 a3 3e 6a 58 5d 3b b2 e6 7e bc
       -0.07229096 0.31842408 0.0033774623 -0.015557932
0001a0 7b 22 f3 ba 1a 49 08 3f 75 3f 06 3f 83 8a 98 3d
       -0.0018549705 0.53236544 0.5244058 0.07448294
0001b0 86 83 80 3e a4 48 14 bb bf a7 ca 3b 37 8e 20 3b
       0.25100344 -0.0022626305 0.0061845477 0.002449883
0001c0 e5 70 cd bd d6 44 84 bf 79 cb 2d 3e 44 4c 8d bf
       -0.100312985 -1.0333507 0.1697215 -1.10389
0001d0 cb f8 0f 3d 03 c1 38 3d 3d 8f ed bb 68 e1 4a bd
       0.035149377 0.045105945 -0.0072497413 -0.04953137
0001e0 ad cb bd be 1b d9 d4 3f 39 a4 a4 be a7 06 03 3d
       -0.37069455 1.6628755 -0.32156542 0.031988766
0001f0 93 c3 38 3c 92 e6 53 ba 37 07 de be 8b 6a de be
       0.011277097 -0.0008083369 -0.4336488 -0.4344066
000200 a0 76 05 bf 55 cb 3f be 9e 08 8b 3c 7c ec ef ba
       -0.5213413 -0.18729909 0.016971882 -0.0018304731
000210 15 d4 49 39 1b 10 38 3f 03 d3 ac be b7 90 3e 3f
       0.0001924786 0.71899575 -0.3375474 0.7443957
000220 88 cc b8 3d 02 c7 9e 3c 3c 12 71 3a 00 4c a4 bb
       0.09023386 0.019382004 0.00091961375 -0.0050139427
000230 65 7a 3d 3f d0 27 7a 3f 41 2e 0b bf da 45 d8 3e
       0.74014884 0.97717 -0.5436745 0.42240793
000240 51 01 00 bb 13 b2 3d bc 83 44 48 bb 09 f0 90 bd
       -0.0019532035 -0.011578101 -0.0030558414 -0.07077033
000250 b2 7c a0 3e 41 3b 85 3d 45 30 fd be 52 e6 0c 3f
       0.31345135 0.065054424 -0.4945089 0.5503894
000260 4b 4d f6 3e d6 ff 5f bc c0 09 54 3f 3f 6d 73 3f
       0.48105845 -0.013671836 0.8282738 0.9508857
000270 85 22 9a bd 03 82 55 3f da 21 90 3c 3d 6b ae bc
       -0.07526115 0.8340151 0.017594267 -0.02129137
000280 9e f6 29 3b 82 ce 58 3f ed 59 d7 be c3 34 68 3f
       0.0025934349 0.84690106 -0.42060795 0.9070551
000290 43 fb 02 3f e4 b1 be 3b 03 c5 88 3c 32 12 3c 3b
       0.51164645 0.005819546 0.016695505 0.0028697369
0002a0 e7 ed cd bc b4 7d 94 3c 34 8d 01 3f eb 58 7e 3f
       -0.025137855 0.018126346 0.50606084 0.9935443
0002b0 cb e8 dc bb fb d4 5f 3d ee 66 e4 3a ae 56 86 bf
       -0.0067416183 0.054646473 0.0017425695 -1.0495203
0002c0 7f 0b 82 bf da 5a 9b 3d 1c 64 02 3f b3 1d 84 3c
       -1.0159758 0.07585688 0.50934005 0.016127443
0002d0 6f 4e 6a 3a 01 1b 31 bb a0 29 40 bf 83 52 40 be
       0.0008938079 -0.0027024152 -0.75063515 -0.18781476
0002e0 2f 8f 40 bf 5d b6 61 3e 6f a0 95 3b b0 12 21 bb
       -0.7521848 0.22042222 0.0045662443 -0.002457779
0002f0 b9 c1 2b 3a 03 88 1d 3f 0a 5a 45 3e 62 22 38 3f
       0.0006551999 0.6153566 0.19272628 0.71927464
000300 5c 39 ab 3e 12 d8 ae 3b 71 b5 8c 3c 42 13 dd 3a
       0.334422 0.005335816 0.017176362 0.0016866701
000310 2a ab 2d be 63 53 53 bd 2c b9 a4 3e 1f 80 8b 3e
       -0.16959825 -0.051593196 0.32172525 0.27246186
000320 70 bd 5b be 6c 67 9a 3e 28 a0 d9 bb 3c b1 cc 3f
       -0.21458983 0.3015703 -0.0066414066 1.5991588
000330 bd 36 93 bf 5c d1 12 be c1 f6 bc 3e 7f cd 9a 3c
       -1.150108 -0.14337677 0.36907008 0.018896816
000340 b2 fa ec bb f6 10 be bb ab 8c 52 3f 33 04 6a 3f
       -0.0072320336 -0.0058003617 0.8224589 0.9141266
000350 dd b1 3c 3b 4d f9 0c bf a9 b7 64 bc a6 9e 85 3d
       0.0028792538 -0.550679 -0.013959804 0.065244004
000360 24 cd ce bb ee 4f d1 3c 23 9e 0a 3f f5 6b ef 3d
       -0.0063110758 0.025550809 0.5414755 0.11690513
000370 67 a3 8a be d0 7b b1 be ad 89 24 3e 0d 2c 34 3b
       -0.2707779 -0.34664774 0.16068144 0.0027492077

fc1.bias f4 [32]
000000 e2 33 a0 3f 7f 88 76 3f a6 54 f4 3e fa 77 ae 3e
       1.2515833 0.96302027 0.47720832 0.3407591
000010 86 79 14 be 88 5a e4 3f c5 0a 64 3f 9a e5 69 be
       -0.14499483 1.7840128 0.89078933 -0.22841492
000020 da f1 fb 3f 40 a0 6e 3f 97 0a b6 3f 92 2e 0e be
       1.9683182 0.9321327 1.4221982 -0.13884953
000030 5a 8a 8a be 14 ce d0 3c cf 56 74 3f f4 97 7f 3f
       -0.2705868 0.02548889 0.9544496 0.9984124
000040 3c 45 61 3d 0c 63 b9 be 10 41 3d 3f 6c 5b 20 3f
       0.054997668 -0.3620838 0.739274 0.626395
000050 1a 51 29 bf 2e 8e 97 3f 10 7e 19 3c 88 6e 3a bd
       -0.66139376 1.1840265 0.009368435 -0.045515567
000060 b6 a8 c4 3f 56 c6 27 3e 28 71 2b bf a1 2c 48 3f
       1.5363986 0.16384253 -0.6696954 0.781931
000070 7e 9d aa 3f 08 d6 64 bf 12 c8 b9 3e ef 47 c4 3f
       1.3329313 -0.89389086 0.36285454 1.5334452

fc2.weight f4 [128, 32]
000000 86 60 3f 3d 40 2b 93 3e 48 19 b0 bd 45 59 61 3e
       0.04672291 0.28743935 -0.08598572 0.2200671
000010 b7 75 19 3e 56 7b bb bc 75 4b 38 3e f7 ea f2 3c
       0.14986311 -0.02288596 0.17997535 0.029653056
000020 2a 9e ad 3e d2 71 8e 3e 86 58 a3 3e 09 cc f4 3e
       0.33909732 0.27821213 0.31903476 0.47811916
000030 ab 60 1d 3e 6e 3e d6 3e 8d 4c b9 3e 31 28 34 3e
       0.15368907 0.41844505 0.36191216 0.17593457
000040 eb a6 0b 3e 62 b4 79 3e 33 0f c7 3e d2 8f a3 3d
       0.13637893 0.24385217 0.38878784 0.07986416
000050 23 88 14 be be f9 5c 3e 4e 33 77 3e 08 62 cb 3d
       -0.14505057 0.21579644 0.24140665 0.09930807
000060 79 11 15 3e d4 e6 7c 3d 32 82 ab bd 8e cd a0 3e
       0.14557447 0.061743572 -0.08374442 0.31406826
000070 67 56 08 3e b1 ed 38 3b 6f f2 fd bd c8 35 d5 3d
       0.1331421 0.0028217847 -0.12399756 0.104106486
000080 9f 29 a1 3e 3d 62 97 3e 8a 31 78 bf 91 c5 20 bf
       0.31477067 0.29567137 -0.9695059 -0.6280146
000090 9f 95 91 39 4f cf 01 3f fe d8 4a 3d 57 be 73 bf
       0.00027768032 0.5070695 0.049523346 -0.9521231
0000a0 bb 17 02 3d 52 5e 84 be 9d 40 1d 3f 64 6f 06 3f
       0.031760912 -0.2585321 0.6142672 0.5251372
0000b0 3d 2f 1c be 4e 90 9a 3e 16 37 db 3e 8c ec 93 3d
       -0.15252395 0.3018822 0.42815465 0.07222852
0000c0 ff af ea be 72 25 2d bd 6c f0 70 bd ee 95 33 3d
       -0.458374 -0.04227204 -0.058823034 0.043844156
0000d0 50 08 31 3f 60 19 9f bd cb 45 35 3e c4 43 24 bf
       0.6915331 -0.07768512 0.17702405 -0.641659
0000e0 5a 59 f4 3e 0c 38 ed 3e 7b ed cb 3e e4 c6 59 3e
       0.4772442 0.46331823 0.3982962 0.21267277
0000f0 11 2c 23 3e 02 65 9a be 2a 32 b9 3c bc e4 e1 bd
       0.15934779 -0.30155188 0.022606928 -0.11029956
000100 b4 09 a0 bd a8 4d 1f 3d 8d cf 86 3e 98 aa 12 3e
       -0.07814351 0.03889242 0.26330224 0.14322889
000110 89 84 0c be a4 d0 5e be 74 4d b0 3e 97 f2 69 3e
       -0.13722433 -0.21759278 0.34434092 0.22846447
000120 0a 51 17 be d3 cb 11 3f a7 a0 ef be 2a 45 ab be
       -0.14777008 0.56951636 -0.46802256 -0.33451205
000130 ec 89 d8 3e 57 59 86 be a7 8a 47 3e 80 90 94 be
       0.42292726 -0.26240036 0.19486485 -0.29016495
000140 49 4c 8f 3d 10 6c 03 3e 27 98 04 bd bc 13 3e 3e
       0.06996972 0.12834191 -0.032371666 0.18562216
000150 42 fa 08 bd 83 d1 29 3e ed c7 55 bf 47 05 05 3f
       -0.03344179 0.16583829 -0.8350819 0.5196118
000160 1e 5c 27 3f 68 71 6e 3b d9 39 2e bf 8c fc 84 be
       0.65374935 0.0036383513 -0.6805702 -0.25973928
000170 16 80 0d be 54 f3 7d 3e 04 37 be 3c de 95 98 bd
       -0.13818392 0.24799854 0.023219593 -0.0745046
000180 c5 86 38 bb ff 51 1c 3d f4 24 00 3e 65 a9 7e 3e
       -0.00281565 0.038164135 0.12514096 0.24869306
000190 c1 85 02 bf 01 02 fd 3d c7 7a b4 3e 6d 24 1c be
       -0.5098534 0.12353898 0.35249922 -0.1524827
0001a0 5d 19 b6 3e 85 06 81 3c 62 d1 aa bd ba 5f 26 ba
       0.35566226 0.015750179 -0.08340718 -0.0006346662
0001b0 c4 c6 ea 3c 90 21 8b be 25 3d 8f 3e c5 a1 69 3d
       0.028659232 -0.27174044 0.27976337 0.05703904
0001c0 95 8a 8f bc c0 f7 f1 3d 29 47 3e be 21 d7 e3 bc
       -0.017522136 0.11814833 -0.18581833 -0.027812542
0001d0 9c d4 f9 ba 75 ca 43 3e 0b 42 87 3e 65 88 a4 bc
       -0.0019060555 0.191202 0.26417574 -0.02008457
0001e0 de 40 0e 3e 7c 4f 28 3e 7e cf 3c be 9b c6 7d be
       0.13891932 0.16436571 -0.18438527 -0.24782793
0001f0 0f 2d 88 bd dd 28 30 3e 58 97 a7 3d 19 13 d7 3d
       -0.06649219 0.17203088 0.081831634 0.105016895
000200 e2 68 3e 3d 5e 97 0c 3d 1c 94 3e be 6c 95 09 bf
       0.046486743 0.034324042 -0.18611187 -0.53743625
000210 54 dd 1e 3e d6 57 d2 3e bb cf 82 be 0d f3 62 3b
       0.15514117 0.41082639 -0.2554911 0.0034629733
000220 04 f8 23 3e 0e 51 df be 06 23 ba 3e 9d 0d 81 3e
       0.16012579 -0.43616527 0.36354846 0.252057
000230 52 7b ce be 42 64 b2 bc 39 c5 d8 3e c3 7d 08 3e
       -0.4032846 -0.021776322 0.4233797 0.13329224
000240 3d 52 80 bc 69 a4 d1 bd 6d b4 7f be 87 65 96 bd
       -0.015664214 -0.10236437 -0.2497117 -0.073435836
000250 6c 97 e6 bd ab 86 95 bd f2 4a 13 bd d4 61 ac 3b
       -0.1125935 -0.073010765 -0.035960145 0.0052606855
000260 a2 14 fd ba d4 17 61 be 37 3c f9 3e 8f 6a b0 3e
       -0.0019308517 -0.21981746 0.48678753 0.34456298
000270 36 c5 72 3e 7b c8 19 3d 9b e2 2f be 19 c9 8c 3e
       0.23708043 0.03754471 -0.17176287 0.27497175
000280 48 ce d8 bd 34 fa 37 be 31 45 d4 3d f2 ef 8d be
       -0.1058622 -0.17966539 0.1036476 -0.27722126
000290 33 c1 bb 3d d2 0f bc 3e da 8b 3d bd 8c 3a 16 3d
       0.09167709 0.3673082 -0.04627595 0.03667693
0002a0 a1 c7 6b 3e 16 66 07 3e 96 19 3f bc 67 ca 4b be
       0.23025371 0.13222536 -0.011663815 -0.19901429
0002b0 56 4d 3d 3e 76 5a 90 bc 4b ac 6b 3e 99 a0 37 3e
       0.18486533 -0.01762126 0.23014943 0.17932357
0002c0 f6 13 db bd 1c 11 22 be e5 61 87 be f2 75 2e 3d
       -0.106971666 -0.15826839 -0.26441875 0.04259295
0002d0 ec 2d 43 3e f6 3c c1 3d 2a dd 85 3e c3 e1 1e bc
       0.19060487 0.094354555 0.26145297 -0.0096973805
0002e0 8c 84 f3 be 2b 7b 2f be 93 c8 4b bf c6 bc 19 3f
       -0.47562063 -0.17136829 -0.79602927 0.6005367
0002f0 e5 8d 9d 3e 6f 6b aa be 80 17 1c be 2a d7 a3 3e
       0.3077232 -0.3328509 -0.1524334 0.32000095
000300 c3 17 91 3d 71 fe ec bd f4 3e f5 3d 30 c7 05 bf
       0.0708461 -0.11571968 0.11974898 -0.5225706
000310 88 af be 3d f2 ed 5d 3e 94 54 25 bd eb 9e b3 3d
       0.09310824 0.216728 -0.040363863 0.087705456
000320 5e 30 73 3e fc f8 43 3e 5e 99 b8 3e 18 57 44 3d
       0.2374892 0.19137949 0.3605451 0.04793462
000330 f6 00 4f bf 75 2e 17 be 49 71 42 be 8a a4 8c 3d
       -0.8086084 -0.14763816 -0.18988527 0.06867321
000340 3f 3d e2 bd 6d 3a fa 3d ae 04 89 be c7 ae 60 bd
       -0.11046838 0.12218175 -0.26761383 -0.05485418
000350 ce c5 aa 3c 5a 47 be 3c 1f e6 e1 3d 68 11 8c be
       0.020846274 0.023227382 0.1103022 -0.2735703
000360 66 0b 73 3e 74 f9 11 3e 7d 38 0e be 22 6c 43 b9
       0.23734817 0.14255315 -0.13888736 -0.00018636932
000370 49 53 2e 3e cd c2 2a be 99 c1 94 bd 2b 9b 7b 3e
       0.17023958 -0.16675873 -0.07263488 0.2457091
000380 83 65 b5 bd 6a 6e e9 3d e8 b3 5d 3e 42 4d f6 3d
       -0.088572524 0.11398013 0.2165066 0.120264545
000390 94 45 e9 bd ba b5 91 be 4e ce 05 be b6 78 16 bf
       -0.11390224 -0.2845896 -0.1306698 -0.5877794
0003a0 89 62 16 3e 5c 59 93 3e 56 38 3c bf fd 59 4e 3c
       0.14686026 0.28779113 -0.7352346 0.012594697
0003b0 5b b5 c0 3d a3 a1 be 3e f1 bb 89 be 7b e0 0a bf
       0.09409591 0.37232694 -0.269012 -0.5424878
0003c0 71 8b 1f 3e d0 c7 55 be 6b fb dc bd d6 ab 0d be
       0.15580536 -0.20877004 -0.10790142 -0.13835081
0003d0 0f 3e eb 3c e3 69 8d 3e 52 4d 7e 3e 7b d3 b7 3e
       0.028716115 0.27619848 0.24834183 0.35903534
0003e0 70 0a 8d be 4e 29 0e 3f 96 ce 0b 3d dc 0f 9a be
       -0.27547026 0.55531776 0.034132563 -0.30090225
0003f0 da 99 1d bd b4 3f d2 3e 19 c4 76 3e bf 4c 08 3e
       -0.038476802 0.41064227 0.24098243 0.13310526

fc2.bias f4 [128]
000000 3e 00 a3 3e 04 42 87 3e 20 c1 56 bc ea d6 2d 3e
       0.31836122 0.26417553 -0.013107568 0.16976514
000010 ff 80 d1 3e 51 fe a6 3e c1 ad 2f 3f 84 0e 51 3d
       0.4091873 0.32615903 0.686245 0.051039234
000020 06 e2 f1 3e ed a1 1c 3f 66 1e bb bc 7c fd 7c 3e
       0.47242755 0.6118458 -0.022841644 0.24706072
000030 e5 75 2a 3f dd e7 d2 3e 9a ce 70 3e 22 a5 a9 3d
       0.6658614 0.41192523 0.23516312 0.0828345
000040 0c b5 f2 3e 7f 3a 04 3f d7 80 2d 3f 34 70 ea 3e
       0.47403753 0.5165176 0.6777472 0.4578873
000050 7a 87 33 3f f2 ed 7d 3e 59 93 cd 3e 7c 2e f4 3e
       0.70128596 0.247978 0.4015148 0.47691715
000060 da fa 5b 3f 16 4f 23 3f c6 42 b4 be 00 5c 24 3f
       0.85929644 0.6379255 -0.35207194 0.6420288
000070 f8 63 f4 bd b5 b9 01 3f 24 73 59 3e eb 2b 2b 3f
       -0.1193313 0.5067399 0.21235329 0.6686389
000080 40 33 7b 3f 66 5b cc 3e e5 1f e8 3e 71 12 14 3f
       0.98125076 0.3991348 0.45336834 0.5784064
000090 d3 f1 29 3f e1 42 c4 3e 88 12 0a 3f 82 d4 ed 3e
       0.6638462 0.38332275 0.53934526 0.46451193
0000a0 7a 5d 39 3f 52 7b e9 3e ed 58 04 3f 4c 26 89 3e
       0.7240826 0.45601898 0.5169819 0.2678703
0000b0 f4 48 e1 3e 74 45 0a 3f 78 93 60 3e a9 c6 d3 3d
       0.4400097 0.5401223 0.21931255 0.10340626
0000c0 29 d9 a6 3e 32 a9 0e 3e 1e ac c4 3e 4e 7e 49 3f
       0.32587555 0.1393173 0.38412565 0.7870835
0000d0 c9 af 48 3f 36 cc 20 3e ad 2b 0b 3f 0c 05 b6 bd
       0.78393227 0.157029 0.5436352 -0.08887681
0000e0 f6 f8 28 3f a7 e0 6c 3d 56 48 f9 3e 51 d1 2f 3f
       0.66004884 0.057831433 0.48688 0.68678766
0000f0 25 53 f2 3d 55 a2 b5 3e 56 07 6c 3e ca e3 f6 3e
       0.11832265 0.35475412 0.23049673 0.48220664
000100 75 ea 81 3e 75 3e d4 3e 3f 95 b2 3d 14 aa 98 3e
       0.2537419 0.414539 0.08719873 0.2981726
000110 95 dc 28 3e a7 b3 9f 3e 8d 31 e9 3e b1 e3 1d 3f
       0.16490395 0.3119175 0.45545617 0.61675555
000120 ba 80 fe 3e f1 6c 0c 3f f7 0c a0 3e d7 57 9e 3e
       0.49707586 0.5485373 0.3125989 0.3092639
000130 d5 38 80 3e 71 d6 fe 3e 95 e1 35 3f 94 b7 40 3e
       0.2504336 0.4977298 0.71047336 0.1882003
000140 e2 61 82 3f c5 2f a2 3c 1c 5d 01 3f d8 dc c3 3e
       1.0186121 0.019798169 0.505327 0.38254428
000150 7d ff aa 3e 25 b9 c2 3d b3 33 c7 3e 7f c4 69 3e
       0.33398047 0.0950797 0.3890663 0.22828864
000160 e0 22 34 3f ca f2 38 3f 03 34 db 3e 83 4e 0d 3f
       0.70365715 0.72245467 0.4281312 0.55197924
000170 29 08 4d 3f b3 c7 0c 3f 0e cb f2 3e 3e a5 98 3e
       0.80090576 0.54992217 0.47420543 0.2981357
000180 4d 54 37 3f 31 07 2b 3f dd 63 65 3e 3c a7 1b 3e
       0.7161301 0.6680785 0.22401376 0.15200514
000190 b7 f8 0a 3f ea 64 00 3f 7b a8 12 3f c3 99 29 3e
       0.5428576 0.5015398 0.5728833 0.16562562
0001a0 36 2f 32 3f 11 7f be 3e 1f 00 4c be ca f0 3a bd
       0.6960329 0.3720632 -0.19921921 -0.04563979
0001b0 d3 df ac be 0f 32 4e be 1b e6 c0 3e 7c 16 01 3f
       -0.33764514 -0.20136283 0.37675557 0.50424933
0001c0 94 86 22 3f 34 c6 b3 3e 73 b5 39 3d 8b 71 0b 3f
       0.634866 0.35112154 0.04533906 0.5447013
0001d0 83 38 bd 3e 50 56 dc 3d 12 fe 85 3e 03 ee 08 3f
       0.36957178 0.1075865 0.26170403 0.5348818
0001e0 32 a2 0f 3f 7c 16 de 3e 58 c8 28 3f b8 ab 04 3f
       0.56106865 0.4337653 0.659307 0.5182452
0001f0 4d 6d 4b 3f 2d cf 17 3f 25 42 5f 3f 04 3c 03 3f
       0.79463655 0.593005 0.87210304 0.5126345

fc3.weight f4 [64, 128]
000000 59 e7 43 3d f7 e4 5c bc 03 2a 31 bf 3d 74 df bd
       0.047828052 -0.013482324 -0.6920473 -0.109108426
000010 3b 89 ab be 6e d6 eb bc ef 48 01 3f d4 88 8a 3e
       -0.33503136 -0.028788771 0.5050191 0.27057517
000020 56 9e 8b 3e 14 82 59 be 7c 0c eb 3c 13 25 c6 be
       0.27269238 -0.21241027 0.028692476 -0.3870016
000030 d3 c5 0b be 5b 4f ad 3c 2c 81 59 3e 22 0e ff bd
       -0.13649683 0.021156004 0.21240681 -0.124538675
000040 24 d2 bd 3e 6d d2 be be 82 80 23 be fb d6 0e be
       0.37074387 -0.37269917 -0.1596699 -0.13949196
000050 a7 55 bd 3e 9a 12 2a 3d 22 e6 9f bd 72 c1 03 3f
       0.3697941 0.041521646 -0.07807566 0.5146705
000060 4a 1a 40 3f 19 84 9a 3c 51 eb 81 3d eb 75 34 3d
       0.75040114 0.018861817 0.06343711 0.044057768
000070 21 26 11 bf 92 0f c8 3d 20 48 4b be 8b 0c 63 3d
       -0.56698805 0.09768595 -0.19851732 0.055431884
000080 59 9b 9c be a0 a0 32 3e 77 17 94 be 7c da 05 3f
       -0.3058727 0.17444086 -0.28924152 0.52286506
000090 fa b3 cf be 27 e9 28 3f 24 fc 73 3f 8e 7c 61 be
       -0.40567 0.6598076 0.9530661 -0.2202017
0000a0 a0 22 37 3f ae 0d de 3d eb 52 b7 be 0c 7d 25 3f
       0.7153721 0.10842453 -0.3580545 0.6464393
0000b0 e7 68 0c 3e 80 85 5f 3e 79 02 b3 be 91 60 f8 3e
       0.13711892 0.2182827 -0.34962824 0.48511174
0000c0 fb b1 89 be f1 4a f5 3e 61 01 c6 3d 50 de 15 be
       -0.268936 0.47908738 0.09668232 -0.14635587
0000d0 12 68 8b 3d 89 88 4c 3f 21 27 a6 3d 63 8e 0e 3d
       0.06806959 0.79895836 0.08112932 0.03480376
0000e0 2b 55 2b 3f 44 4a 10 3e 18 35 56 3c cf 4f aa 3c
       0.6692683 0.1409083 0.013074182 0.020790009
0000f0 66 bb 03 bf 4d 9f f1 3d e9 1b cc be f0 44 07 bf
       -0.5145782 0.11797962 -0.39865044 -0.52839565
000100 bf fb 8c be 35 4c 56 be 4a 7c b3 bd 26 ec 2b 3f
       -0.27535817 -0.20927508 -0.08763941 0.6715721
000110 51 75 f8 be 35 1f c9 be d7 27 8a 3e f8 57 c9 3e
       -0.48527005 -0.39281622 0.2698352 0.39324927
000120 95 72 67 be 45 f5 82 bd f0 ba 91 3f fa 51 b1 3e
       -0.22602303 -0.06394438 1.1385174 0.34632856
000130 52 19 32 3f 1c 7d d6 3e 62 22 b4 3f 88 1e c7 be
       0.69569886 0.41892326 1.4072993 -0.3889048
000140 1d b6 cc be 03 ef b3 bd ff e9 cd be ee fa 17 3e
       -0.3998269 -0.08785822 -0.40217587 0.14841816
000150 06 4a 36 bf 59 d7 cf 3f 0e 0c 3f bd 17 a8 20 3f
       -0.712067 1.6237594 -0.046642356 0.62756485
000160 04 2f 2a 3e 7c 9f 1f be 65 73 fc bc e2 b8 8a be
       0.16619498 -0.15588182 -0.030816743 -0.2709418
000170 1d 04 8f 3e e2 4f 93 be 66 31 39 bf 75 2a 14 3f
       0.27932826 -0.28771883 -0.72341 0.57877284
000180 81 87 0f be 5c 97 1a 3d 4f 37 aa be 0e 84 f8 be
       -0.14016534 0.037742004 -0.33245322 -0.4853825
000190 3b 55 8b be f3 7e 5f 3f 26 cb 26 3f 11 66 e2 be
       -0.27213463 0.87303084 0.6515373 -0.44218495
0001a0 fd 70 ad be 2f e2 5a 3e 5e e3 e0 bd 23 23 59 bf
       -0.33875266 0.21375345 -0.10980867 -0.8481924
0001b0 f3 7c bd bd 4c 2f 49 3b c8 6c c5 bd e2 7f 3c be
       -0.09252348 0.0030698357 -0.09639889 -0.18408158
0001c0 38 6a a6 bd d8 56 28 be e4 ad 0c 3e 09 4a 71 3f
       -0.08125728 -0.16439378 0.13738209 0.94253594
0001d0 96 60 a1 be 5d 95 c0 3d 68 eb 25 3e ab 83 9c bc
       -0.31519002 0.09403489 0.16203082 -0.019105753
0001e0 a4 95 88 3e 92 aa a4 be c0 f6 0b 3f 4f 5c 6d 3f
       0.26676667 -0.32161385 0.54673386 0.92718977
0001f0 f4 2f 5d bd ca d4 bc be 55 32 dc 3e 55 e6 48 3e
       -0.05400081 -0.36881095 0.4300715 0.19619115
000200 7b 62 05 bc 3c b0 00 3d b1 2f fb 3e 01 73 58 3e
       -0.008141155 0.03141807 0.49059823 0.2113762
000210 80 b7 5e 3f 5d 47 df 3e f6 54 6a 3e e1 09 49 3f
       0.8699875 0.43609133 0.22883973 0.785307
000220 d6 a8 00 bc 0e 50 f8 be 9a fa cf 3e b9 cc 11 3e
       -0.007852754 -0.48498577 0.4062088 0.14238252
000230 c1 62 df be a7 29 9b bd 1c f4 de 3d 32 e0 72 3e
       -0.4363003 -0.07576304 0.10886404 0.23718336
000240 16 af cd 3e 16 d7 b5 be a6 bd 9c 3e 2c bf 99 bd
       0.40172642 -0.3551566 0.3061344 -0.07507166
000250 fe 72 cc 3e ca c9 01 bf b4 8d 84 3e f3 e7 96 3d
       0.39931482 -0.5069853 0.2588936 0.073684596
000260 9d 22 11 3e e5 99 94 bd 9d 9e bf 3e 49 5d e6 bd
       0.1417336 -0.072559156 0.374257 -0.112482615
000270 b6 42 9e 3c 37 9c 26 3f a0 e8 1c bf c8 c9 70 be
       0.01931892 0.65082115 -0.6129246 -0.23514473
000280 05 f6 6a be d5 5b 0c 3f 63 07 1f 3f f1 ab 6e be
       -0.22945412 0.54827625 0.62120646 -0.23307778
000290 27 fb 6b be 3b a4 04 3f d5 91 e6 be 3a 7e 20 3f
       -0.23045026 0.51813096 -0.45033136 0.62692606
0002a0 0d 29 8a bd 81 a6 03 3e fe a4 4e 3f c0 e7 b1 bc
       -0.06746111 0.12856485 0.8072051 -0.021716952
0002b0 18 55 01 3f 81 5b 97 3e 3f cf 09 3f df 8f 8e 3e
       0.5052047 0.29562 0.5383186 0.2784414
0002c0 16 ea db be 10 89 8a 3e 5f 28 37 3f c5 82 8d 3c
       -0.4295203 0.27057695 0.71545976 0.01727427
0002d0 4d 50 2b be 22 8a 90 bd 8c 53 37 be f0 18 48 bc
       -0.16729851 -0.07057597 -0.17902964 -0.012212977
0002e0 3e 9c 2a 3e 39 3e 98 3e 42 2a aa be 2c 73 80 be
       0.16661164 0.29734972 -0.33235365 -0.2508787
0002f0 9b be eb 3e 4f 6f fb 3e 04 9f 28 be 36 c8 cf 3e
       0.46043858 0.4910836 -0.1646691 0.40582436
000300 e8 63 68 bb 7f 8f 8e bd 62 2b 9e 3d 5b c1 aa bd
       -0.003545994 -0.069609635 0.07723118 -0.08337661
000310 0b 7b e9 3e 36 e0 de 3e 07 28 c8 bd e3 46 c9 bd
       0.45601687 0.43530434 -0.097732596 -0.09827974
000320 ce 84 57 be c9 c5 6b 3e fb e7 86 3e 7d 7f 9b 3e
       -0.21046755 0.23024668 0.26348862 0.30370703
000330 bf 54 88 3e 86 fa 5a bf 03 4a 03 bf 2b 72 2e 3f
       0.26627156 -0.8553852 -0.5128481 0.68142956
000340 41 e3 23 be 5d 59 44 3d 7d 86 03 be db 54 cf be
       -0.16004659 0.047936786 -0.12844272 -0.40494427
000350 b2 3d 88 3e 93 74 84 3e 71 2a 6b 3e 18 ee 98 3d
       0.2660957 0.2587019 0.22965409 0.07467288
000360 f7 22 a6 bd ec d3 36 bf d8 00 f0 bc f4 49 82 be
       -0.08112138 -0.7141712 -0.029297277 -0.25447047
000370 05 bf 74 bd 9d 03 f3 3d dd 84 40 3d e3 57 ef 3e
       -0.059752483 0.118659236 0.04700171 0.4674674
000380 b9 83 bc 3e 68 47 fe bd aa ce 81 be 4b 06 21 3f
       0.36819246 -0.124159634 -0.25352985 0.6290023
000390 a5 83 50 3e 2b 8e 36 bf c5 cc 27 be 5a d3 3e bd
       0.20362718 -0.7131068 -0.16386707 -0.04658828
0003a0 9d c5 a3 3f 86 68 14 bf aa ea a0 be 4b 43 05 3f
       1.2794682 -0.5797199 -0.31429034 0.52055806
0003b0 30 67 53 3e 4f 71 c8 be 27 e5 b2 3e 23 d8 02 be
       0.20644832 -0.39148948 0.34940454 -0.12777762
0003c0 de 71 1d 3f 64 0f 9a 3e f3 6f ab 3e 26 af 51 3e
       0.6150187 0.30089867 0.33483848 0.2047697
0003d0 5c 51 a5 bd 01 1c 81 3a f7 25 3e 3e a3 96 bf 3b
       -0.08072159 0.0009850265 0.1856917 0.0058468147
0003e0 eb 7f 0e 3f 7b 71 81 be 5c b8 fa be 32 e3 98 3d
       0.5566394 -0.2528189 -0.4896878 0.07465209
0003f0 a3 51 01 be ed 8d 02 3f 24 10 2f bf d0 c1 1e 3e
       -0.12628798 0.5099781 -0.68384004 0.15503621

fc3.bias f4 [64]
000000 2b d7 b2 3e 2e ab 4e be 3d 2b 13 bd 24 cf 9b 3d
       0.34929785 -0.20182487 -0.035929907 0.07607868
000010 bc ac 1f 3f 27 18 22 3d 9a c3 33 3d 3c 71 75 3e
       0.62372947 0.039573815 0.043887712 0.23968977
000020 8d f6 46 3e 69 a0 89 bd bb 1c ba bd ca 1a 57 3e
       0.19429989 -0.06720049 -0.09087511 0.21006313
000030 35 ad 03 3f bf 64 91 3d 3a 99 92 3e dd 48 95 3d
       0.5143617 0.07099294 0.28632528 0.07289288
000040 7a 0c 80 3f a7 42 9f 3d 68 4d 88 3e 70 9b 29 3e
       1.0003808 0.07776385 0.26621556 0.16563201
000050 e6 15 93 3f 98 dd 04 3f 19 63 28 be 7b ef c7 3d
       1.1491058 0.51900625 -0.16444053 0.09762474
000060 92 41 2d 3e 5b ab 80 bd b9 a3 75 bd ca e5 03 3f
       0.16919544 -0.062826835 -0.05997059 0.51522505
000070 d7 1a 3f 3f 3d b5 0d 3e ec bb ad 3e 7b cb 19 3f
       0.7465033 0.13838668 0.33932436 0.6007611
000080 f9 ba 17 3e 7b ef d2 bd 75 f7 22 3d 55 d9 ea bd
       0.14817418 -0.102995835 0.039786775 -0.11467234
000090 04 9e a0 3f 6e 0d 94 bd 6f 8b e8 3c 46 09 db 3d
       1.2548223 -0.07229124 0.0283868 0.10695128
0000a0 cc c9 41 bd e1 2e 9f 3d c9 49 c1 bc c0 74 a0 3e
       -0.04731159 0.07772613 -0.023594754 0.31339073
0000b0 2b 08 b1 bc 0c 9e 52 be c9 3b ed 3c 63 bf 17 bd
       -0.02161034 -0.20568103 0.028959172 -0.037047755
0000c0 f3 d7 36 3e ae b4 98 3e ea bd 1c be 13 7d a1 be
       0.17855816 0.29825348 -0.15306821 -0.31540737
0000d0 39 1a 18 3d e2 5d b0 3d 95 57 38 3e cb 5c 95 3f
       0.037134383 0.08611657 0.1800216 1.1668943
0000e0 f0 b7 02 39 2d b1 9c bd 79 aa 8d 3e 59 89 3f bc
       0.00012466288 -0.07650981 0.27669123 -0.011690461
0000f0 df 5e 00 3e 9c 14 4b 3d d6 1d 23 3f cc 22 a5 3e
       0.1253619 0.0495802 0.637174 0.3225311

fc4.weight f4 [30, 64]
000000 2a ed 07 3d 15 65 8c bd ed 98 8c bd e7 b2 c6 bc
       0.03318516 -0.06855217 -0.06865106 -0.02425523
000010 4b 4a 90 be a6 cd 15 be 3a e2 9d bd ba a5 65 3c
       -0.2818168 -0.1462923 -0.07709165 0.014016563
000020 64 80 85 3d 3d 7f 20 3d e7 09 05 3e 81 65 ef bb
       0.06518629 0.039183844 0.12992059 -0.0073058014
000030 e0 ab 5e 3f 69 eb 4c be b6 5f 22 bd ec 35 8f 3d
       0.8698101 -0.20011677 -0.03964206 0.06992707
000040 39 ff 88 3e 32 c2 92 be 47 f4 cb be 48 30 8b 3d
       0.2675722 -0.28663784 -0.39834806 0.06796318
000050 93 44 ce 3e e9 b0 c5 bd 55 99 ee 3d 60 94 16 bd
       0.40286693 -0.096528836 0.116503395 -0.036762595
000060 73 a0 92 bd fb 47 5d bd 28 c4 7d 3e e2 a2 ab bc
       -0.071595095 -0.054023724 0.24781859 -0.020951692
000070 f8 e2 dc 3e 5c 59 30 3e 0d d8 0b be c8 14 05 bb
       0.43141913 0.17221588 -0.13656636 -0.0020306576
000080 31 c8 10 bd fa b8 36 3d 0f d4 0b 3d 78 2a 28 be
       -0.035347167 0.04461 0.03413778 -0.1642245
000090 8c ec 5b 3f d4 ee 63 bc c5 92 d6 3d 43 94 23 3d
       0.85907817 -0.0139119215 0.10477213 0.039936315
0000a0 96 93 f2 3d f1 d9 63 bc c1 f2 1a ba 82 0c 3f bf
       0.11844556 -0.013906942 -0.0005910807 -0.7462846
0000b0 00 9a b6 bd 2e b0 39 bf b1 9f 36 3d 56 bf 85 bd
       -0.08916092 -0.72534454 0.044585887 -0.06530635
0000c0 0d 0f 37 bd e1 d8 d6 3b 06 4f 11 bb 86 cb c2 3b
       -0.044692088 0.0065566157 -0.0022172346 0.005944672
0000d0 45 e2 71 3d 07 b8 cb bc ca 70 ea bb 88 51 e8 3e
       0.059053678 -0.024868025 -0.007154559 0.45374703
0000e0 fa 76 d9 3e 72 51 2a 3e c1 6a aa 3d f8 dc 98 be
       0.42473584 0.16632631 0.08321143 -0.29856086
0000f0 15 c9 b8 bb 18 65 86 be 6a 15 d2 3e 10 8f 8a bc
       -0.005639205 -0.26249003 0.41031963 -0.01691392
000100 67 5e cb 3c 5a 58 94 bd b2 5d dc 3d 94 fe 22 3d
       0.024825288 -0.07243414 0.107600585 0.039793566
000110 54 c6 43 be a2 a8 c9 bd de 16 57 bd 8c 35 0d 3c
       -0.19118625 -0.09846617 -0.052512042 0.008618724
000120 95 45 13 3d 59 4b 1c 3d 4f 63 a4 3d b7 b6 a1 3b
       0.03595503 0.038157795 0.08026754 0.0049351114
000130 bf 80 17 3f 90 e1 0c be 0e 81 ce bc fa b7 3f 3d
       0.59180826 -0.1375792 -0.025208022 0.046806313
000140 8b 56 36 3e 7e c7 4b be 03 99 89 be af 48 4e 3d
       0.17806451 -0.19900319 -0.2687455 0.050362285
000150 1f cb 88 3e f7 e3 81 bd ca d2 cc 3d 68 a9 b2 bc
       0.2671747 -0.06342309 0.10001142 -0.021809295
000160 0a 51 40 bd 8d 48 0d bd 15 81 2b 3e d3 92 6a bc
       -0.046952285 -0.034493018 0.1674846 -0.014317232
000170 7f cd 96 3e 64 24 df 3d e6 99 c3 bd 71 19 08 bb
       0.29453656 0.10895613 -0.09550838 -0.0020767117
000180 42 a4 ec bc c4 37 fb 3c 8b 51 13 bd bb 3b e8 bd
       -0.028886918 0.03066624 -0.035966437 -0.11339518
000190 8c dc 13 3f 11 1a 5b bd 07 d4 98 3d 6d 9f d4 3c
       0.577584 -0.053491656 0.07462316 0.025954926
0001a0 67 5e 9b 3d 39 46 f5 bb 46 eb c5 3a 4f f3 02 bf
       0.07586365 -0.007485178 0.0015100024 -0.5115251
0001b0 4d 84 29 bd 90 89 01 bf 45 5d e7 bd c4 58 7b bd
       -0.041385937 -0.5060053 -0.112970866 -0.06136395
0001c0 a7 92 ec bc 69 ab 91 3b 54 70 01 bb 7b 85 68 3b
       -0.028878523 0.0044454825 -0.001975079 0.0035479951
0001d0 c3 06 41 3d 21 3e 99 bc 3c 77 6f bb 86 e5 9a 3e
       0.04712559 -0.018706383 -0.0036539575 0.30253237
0001e0 2d 43 a3 3e c2 b3 de 3d d4 52 71 3d 29 a2 4a be
       0.3188719 0.1087413 0.05891688 -0.19788422
0001f0 2c 03 b1 39 61 f4 36 be d0 95 89 3e 3e 1c 27 bc
       0.00033762434 -0.1786666 0.2687211 -0.010199605
000200 03 96 97 3c 7f 4e 94 bd 14 9b 20 3d cc 08 9e 3c
       0.018504148 -0.072415344 0.039210394 0.019291304
000210 e6 a3 1e be 83 35 97 bd 04 53 32 bd 0f c3 dc 3b
       -0.1549221 -0.073832534 -0.0435362 0.00673712
000220 b7 35 d3 3c 67 cb fe 3c 97 01 64 3d 9f 3d 44 3a
       0.02578245 0.03110285 0.05566558 0.0007485989
000230 c2 9c f4 3e 1b 22 e5 bd 80 7b 9d bc 62 4b 19 3d
       0.47775847 -0.11188146 -0.019223928 0.037425406
000240 8e 4c 11 3e 5a e5 2a be 4f 1d 56 be 91 2f 25 3d
       0.1418936 -0.16689053 -0.20909618 0.040328566
000250 ed c0 59 3e dd 44 4e bd 83 79 c3 3d 40 e0 85 bc
       0.21265002 -0.050358642 0.09544661 -0.016342282
000260 b3 49 11 bd 9c a7 db bc 72 a0 03 3e 85 96 3b bc
       -0.035470676 -0.02681332 0.12854174 -0.011449461
000270 f2 af 75 3e dd ad b8 3d 60 d3 a4 bd 27 d7 1d bb
       0.23992899 0.09017537 -0.08048129 -0.002408454
000280 61 f5 d4 bc 06 e0 c4 3c 34 14 7c bd b4 bf b1 bd
       -0.025995912 0.024032604 -0.061542705 -0.086791426
000290 c4 e6 ec 3e 10 b5 da 3d a0 9e 7e 3d ef 55 a2 3c
       0.4626981 0.10679066 0.062162995 0.019816367
0002a0 85 82 75 3d b3 ed 9b bb 64 89 d7 3d 28 b7 d4 be
       0.059938926 -0.0047585606 0.10524252 -0.41545987
0002b0 17 17 ab bd a6 d9 d6 be 06 ca e3 3d 48 b4 96 bd
       -0.083540134 -0.41962928 0.11122517 -0.07358605
0002c0 8d 44 b0 bc 69 89 71 3b 33 5d d5 ba e9 1c 28 3b
       -0.021517063 0.0036855584 -0.0016278386 0.0025651997
0002d0 29 ab 18 3d 61 16 83 bc de f2 28 bb 88 76 79 3e
       0.037272606 -0.016001882 -0.0025779526 0.24361622
0002e0 35 06 8b 3e 1a 7e b9 3d 36 7c 47 3d 09 47 1c be
       0.27153173 0.09057255 0.04870244 -0.15261473
0002f0 ae 2e 50 3b 6a d5 14 be e6 c9 5a 3e b0 93 09 bc
       0.0031766105 -0.14534536 0.2136608 -0.008397028
000300 40 ee d2 3b fd 24 4f bd 0a e4 f5 bc 65 39 6a bd
       0.006437093 -0.050572384 -0.030015964 -0.057183642
000310 4d d4 b8 be ba 0f d6 be 27 4c 43 be 5f fa 83 bc
       -0.36099473 -0.41808873 -0.19072019 -0.016110597
000320 0c 3e 88 bd fc 47 76 3d 0d b9 d3 3d 03 1e 28 be
       -0.066524595 0.060127243 0.1033803 -0.16417699
000330 16 0e ad 3e d6 f2 1d 3e 52 bd 7e 3e f0 bf ba bd
       0.3379981 0.15424666 0.24876907 -0.091186404
000340 1b 54 1a 3c cf df 29 3d 8f 40 4e bf 49 07 7e 3d
       0.009419466 0.041473206 -0.8056726 0.062018666
000350 20 67 98 3e d5 b3 1f bb b2 98 4f 3e e5 6e 23 bd
       0.29766178 -0.0024368663 0.20273092 -0.03990068
000360 47 d5 53 3e 8d 20 2b 3d ab ef 01 3f 11 15 2e bc
       0.20686828 0.04177909 0.5075633 -0.01062514
000370 04 c6 1c 3e cd 1b 44 be bd 20 3a 3d 8a 89 e2 bc
       0.15309912 -0.1915123 0.045441378 -0.027653474
000380 2c a9 35 3d d6 53 75 bd d2 0b 9b bc e3 73 9c 3a
       0.044350788 -0.059894405 -0.018926535 0.0011936392
000390 91 09 1c 3f de 7b db bd 56 56 9f bd 7e 8f 18 3d
       0.609521 -0.10716985 -0.07780139 0.03724622
0003a0 b6 43 2f be 80 da 9c bb 32 98 29 bb 0c d2 f4 be
       -0.17115673 -0.0047867894 -0.002587807 -0.47816503
0003b0 d0 a3 e6 bd 8e 41 e7 3d d5 09 60 3d 2e 04 a5 bc
       -0.112617135 0.112918004 0.054696877 -0.020143595
0003c0 11 e7 15 bd a8 a7 6a 3d 89 84 b6 bb 5f b5 10 bb
       -0.036597315 0.057288796 -0.0055699986 -0.0022080762
0003d0 7e fd da bd 29 0f 9a 3d 95 25 54 3c 34 eb 54 3f
       -0.10692881 0.07522423 0.012948413 0.8317139
0003e0 ab 0a 8b be c5 09 82 be 5a b6 3c 3f c6 7b 9c be
       -0.27156577 -0.2539808 0.73715746 -0.30563182
0003f0 e9 39 b2 bc 68 ea ca 3e 34 13 90 3d 8f 2a 2d 3e
       -0.02175613 0.39631963 0.07034913 0.16910766

fc4.bias f4 [30]
000000 ce c9 bc 40 9e ea b2 40 dc 9f aa 40 90 19 0f 40
       5.8996344 5.59114 5.332014 2.2359352
000010 ac 28 cb 3f d1 f3 f5 3f d2 17 d5 3f 3c fb 03 40
       1.5871787 1.9215032 1.6647894 2.0622091
000020 ca 4e a4 3f d0 ad 17 be ce c5 a3 3e b1 27 2c bf
       1.2836545 -0.14812398 0.3198685 -0.67248064
000030 fe 95 e4 be ef be f2 3d 90 22 2a bf 79 dc ce be
       -0.44645685 0.11852824 -0.6645899 -0.40402582
000040 35 cd 28 be e3 a7 c1 be 71 c2 ad be 18 a9 47 3e
       -0.1648453 -0.378234 -0.3393741 0.19498098
000050 b2 cc 86 bd 29 12 cb be e3 f8 df 3d b1 65 dc 3d
       -0.06582011 -0.39662293 0.10936143 0.107615836
000060 6a 51 30 bf 66 12 da bd 88 a1 82 bd 5b 9e 04 bf
       -0.6887423 -0.106480405 -0.06378466 -0.5180413
000070 34 4f 23 bd fb ce c5 bc
       -0.039870456 -0.024146548

fc1.weight f4 [32, 7]
000000 cd 4c 94 3e d8 ec 07 bf e1 d4 87 be 1e 9f ff be
       0.28964844 -0.5309577 -0.265296 -0.49926084
000010 4d 1e f6 bc 06 07 07 3f 08 25 f3 bb 0a a9 0d bf
       -0.030043745 0.5274509 -0.007420186 -0.5533606
000020 b2 ae 8f be 99 a0 ef 3e 88 d8 36 3d 07 1d fd 3b
       -0.2806297 0.46802214 0.044640094 0.0077244076
000030 73 25 ec 3a f2 09 5d 3b 97 8c 72 bf 3f dd a9 3f
       0.0018016532 0.0033727852 -0.94745773 1.3270644
000040 5c 5a 92 bd ad c1 0a 3f e4 61 1a 3c 44 38 14 bc
       -0.07146141 0.54201776 0.009422753 -0.009046618
000050 67 b7 21 3b 24 a5 11 bf 77 5d 5a 3f 66 6b d0 3e
       0.0024675967 -0.5689261 0.85298866 0.40706939
000060 95 3a 59 bf e9 e0 25 bc 18 1e 03 3d f7 98 14 bb
       -0.84855014 -0.010124424 0.03201112 -0.0022674182
000070 35 e3 a3 3c ae 26 a7 bc ca 97 90 3c 32 23 55 3e
       0.020005802 -0.020404186 0.017650504 0.20814207
000080 7d c0 6e 3f 40 3d 65 3f 1d 28 01 bd 13 10 c4 bb
       0.93262464 0.89546585 -0.031532396 -0.0059833615
000090 23 fa 66 be 38 82 8a 3c de b8 18 3e 88 e0 12 3e
       -0.22556357 0.016907796 0.14914271 0.14343464
0000a0 95 52 3b be 4d 36 2f 3b 8a b6 47 3f 60 8c 65 bf
       -0.18293221 0.0026735247 0.7801291 -0.8966732
0000b0 7b 9d e4 bd f5 02 41 bf 4d 54 cb bc 24 01 3b 3c
       -0.111628495 -0.7539514 -0.024820471 0.011413846
0000c0 01 c3 e5 3a 5b 21 ab bf 5f 9b 3a 3e 62 8a be 3e
       0.0017529429 -1.3369554 0.18223332 0.37214953
0000d0 bd 5f 0e 3f 64 bb 0f 3d 8d 2f 0d 3d 4d fc da ba
       0.55614835 0.03509082 0.034469176 -0.0016707272
0000e0 db bd f9 bd 2a 2f 13 3f 2e 6e c5 bd ba df e0 be
       -0.12194415 0.5749384 -0.09640156 -0.4392069
0000f0 ee 00 ae 3d 1b ec 96 be 55 c5 75 bb c1 9c 22 bf
       0.08496271 -0.2947701 -0.0037501652 -0.6352044
000100 71 a2 e9 3c 66 41 34 bf 3d d2 ff 3e 01 89 98 bc
       0.02851984 -0.7041229 0.49965087 -0.018620016
000110 2b f1 bb 3c b2 40 28 bb f5 b5 98 3e c6 61 af be
       0.022942146 -0.0025673327 0.29826322 -0.34254283
000120 98 62 95 3e f7 f6 aa 3e b7 cf 9d 3c 44 47 d8 bc
       0.29176784 0.33391544 0.019264085 -0.02640117
000130 3f 93 f4 ba 28 59 94 3f e8 4b 95 3f 2a e9 06 3e
       -0.0018659605 1.1589708 1.166379 0.13174883
000140 18 2a 8a 3e 24 3d e4 3c 44 23 a4 ba 47 f1 39 bb
       0.2698524 0.027861185 -0.0012522717 -0.0028372572
000150 81 79 7f bf 20 7b b8 be 26 71 9e bf f9 ae c2 be
       -0.99794775 -0.36031437 -1.237828 -0.3802412
000160 df 42 eb bb 17 e6 c5 3b 78 a2 26 ba bc d8 96 3f
       -0.0071796025 0.0060393917 -0.0006356607 1.1784892
000170 0f 40 c7 3e e5 c8 8f 3f 9e 54 d7 be 0e 30 90 bc
       0.3891606 1.1233183 -0.42056745 -0.01760104
000180 47 96 e5 ba bc ff e2 3b 8b 8a 0a bf 44 22 22 bf
       -0.00175161 0.0069274586 -0.5411765 -0.63333535
000190 d0 d3 93 bd 83 e9 a2 3e 7b 84 61 3b 5d b2 7e bc
       -0.072181344 0.3181878 0.003441124 -0.015545455
0001a0 94 31 ee ba b7 46 08 3f 4f 34 06 3f 8b cd 98 3d
       -0.0018172734 0.532329 0.52423567 0.07461079
0001b0 2a 73 80 3e 94 41 16 bb 85 88 ca 3b c7 8a 22 3b
       0.25087863 -0.0022927271 0.006180825 0.0024801956
0001c0 fb 0f ce bd a2 3d 84 bf ef ba 2d 3e 48 33 8d bf
       -0.10061642 -1.0331309 0.16965841 -1.1031275
0001d0 44 62 10 3d af 65 39 3d a4 c7 ed bb da d0 4b bd
       0.035249963 0.04526299 -0.007256465 -0.049759723
0001e0 72 ec bd be 44 b3 d4 3f b4 0b a4 be 6d ec 03 3d
       -0.37094456 1.6617208 -0.3204018 0.032207895
0001f0 19 71 3a 3c d0 f0 53 ba 54 f7 dd be dc 51 de be
       0.011379504 -0.0008084895 -0.4335276 -0.4342183
000200 bc 65 05 bf 0f cf 3f be 41 8f 8b 3c c6 fc e8 ba
       -0.5210836 -0.1873133 0.017036082 -0.0017775528
000210 3a 19 2b 39 ea 01 38 3f 15 89 ac be d2 6d 3e 3f
       0.00016317228 0.7187792 -0.33698335 0.7438632
000220 27 97 b9 3d ee 9f 9d 3c b3 ad 69 3a e0 d1 a4 bb
       0.09062033 0.0192413 0.0008914128 -0.005029902
000230 af 56 3d 3f 9b 04 7a 3f 57 24 0b bf 48 2f d8 3e
       0.73960394 0.9766328 -0.54352325 0.42223573
000240 cf a9 f4 ba 9c 39 3d bc 55 40 45 bb 50 09 90 bd
       -0.001866633 -0.01154938 -0.003009816 -0.07033026
000250 ae 62 a0 3e 9b f1 83 3d 9a 52 fd be a3 dd 0c 3f
       0.31325287 0.06442567 -0.49477082 0.5502569
000260 4a fd f5 3e 32 0c 60 bc c3 f0 53 3f cd 4e 73 3f
       0.48044807 -0.013674783 0.8278925 0.95042115
000270 d0 1a 9a bd e0 77 55 3f a9 75 90 3c 8b 29 ae bc
       -0.07524645 0.8338604 0.01763423 -0.021260044
000280 98 a4 27 3b d3 ad 58 3f 59 3f d7 be 48 27 68 3f
       0.0025580283 0.84640235 -0.42040518 0.9068494
000290 2d 09 03 3f 36 32 bf 3b a2 f0 87 3c 5c 81 33 3b
       0.51185876 0.005834843 0.016594235 0.0027390337
0002a0 ae 0a cc bc 89 7c 90 3c 7c 6e 01 3f 89 27 7e 3f
       -0.024907436 0.017637508 0.5055921 0.99279076
0002b0 49 88 dd bb b6 b7 5f 3d 41 95 d9 3a ce 36 86 bf
       -0.006760631 0.05461856 0.0016600267 -1.0485475
0002c0 25 f2 81 bf 69 93 9b 3d 53 41 02 3f 79 02 85 3c
       -1.0152022 0.07596476 0.50880927 0.01623653
0002d0 17 cc 7a 3a 99 20 33 bb ca 0e 40 bf 46 5b 40 be
       0.0009567155 -0.0027332662 -0.75022566 -0.18784818
0002e0 6a 78 40 bf 81 93 61 3e f8 03 95 3b dc 20 26 bb
       -0.7518374 0.22028925 0.0045475923 -0.0025349176
0002f0 03 0a 1d 3a f7 57 1d 3f 0c 7c 45 3e 7b df 37 3f
       0.00059905666 0.6146235 0.19285601 0.7182538
000300 ea 37 ab 3e 26 3c b1 3b ed 18 8c 3c 90 01 db 3a
       0.33441097 0.0054087816 0.01710173 0.001670884
000310 91 26 2e be 8b 5e 54 bd 24 c8 a4 3e 58 42 8b 3e
       -0.170069 -0.051847976 0.32183945 0.27199054
000320 3d 40 5b be 96 5d 9a 3e 26 61 dc bb fc 94 cc 3f
       -0.21411224 0.30149525 -0.006725448 1.5982966
000330 ff 26 93 bf 5f af 12 be 34 fc bc 3e 17 28 99 3c
       -1.1496276 -0.14324711 0.36911166 0.018695874
000340 5e f5 ec bb 14 8a bb bb 26 67 52 3f f0 e8 69 3f
       -0.0072313985 -0.0057232473 0.8218864 0.9137106
000350 6d f3 44 3b b1 ee 0c bf 0e 8c 66 bc 7d f9 85 3d
       0.003005232 -0.55051714 -0.014071478 0.06541727
000360 d3 36 ce bb 44 b5 d0 3c 80 9c 0a 3f 51 d0 ef 3d
       -0.0062931566 0.02547706 0.5414505 0.11709655
000370 27 93 8a be bd 66 b1 be b0 c1 24 3e 0c e3 3f 3b
       -0.27065393 -0.34648696 0.16089511 0.0029279618

fc1.bias f4 [32]
000000 4a 21 a0 3f fb 60 76 3f b3 6a f4 3e ae 55 ae 3e
       1.2510159 0.9624173 0.47737655 0.34049743
000010 0e 2c 14 be 67 3c e4 3f 18 f5 63 3f ed 66 69 be
       -0.1446993 1.7830933 0.8904586 -0.2279317
000020 24 cc fb 3f 00 6b 6e 3f 45 ed b5 3f 00 db 0d be
       1.9671674 0.9313202 1.4213034 -0.13853073
000030 0a 7f 8a be 9b 7d d4 3c 8a 29 74 3f 41 87 7f 3f
       -0.27050048 0.0259388 0.95375884 0.99815756
000040 f4 36 63 3d 6f a4 b8 be 7d 24 3d 3f 3f 4e 20 3f
       0.05547233 -0.36062953 0.738838 0.62619394
000050 aa 3b 29 bf b8 70 97 3f 2d 3a 1d 3c 81 32 3e bd
       -0.66106665 1.1831274 0.00959639 -0.046434883
000060 8a 8e c4 3f e9 93 27 3e 10 71 2b bf b5 fb 47 3f
       1.5356 0.16365017 -0.66969395 0.7811845
000070 b6 87 aa 3f c5 a7 64 bf f1 4a b9 3e 9c 17 c4 3f
       1.3322666 -0.89318496 0.36189988 1.5319705

fc2.weight f4 [128, 32]
000000 b4 a7 3e 3d 32 3d 93 3e 97 6a af bd 28 4e 61 3e
       0.046546653 0.28757626 -0.08565252 0.2200247
000010 cb 92 19 3e 3e 91 ba bc f9 75 38 3e 3b 91 f0 3c
       0.14997403 -0.022774335 0.18013753 0.029366126
000020 5c a4 ad 3e f6 47 8e 3e ed 53 a3 3e 6e e7 f4 3e
       0.3391446 0.27789277 0.31899968 0.47832817
000030 67 2a 1d 3e 14 18 d6 3e 4a 06 b9 3e 78 42 34 3e
       0.15348206 0.41815245 0.3613761 0.17603481
000040 eb b5 0b 3e a8 ca 79 3e 24 fb c6 3e ba 68 a3 3d
       0.13643615 0.24393713 0.3886348 0.079789594
000050 7b 65 14 be b1 f0 5c 3e 54 3f 77 3e 94 67 cb 3d
       -0.14491837 0.21576191 0.24145252 0.09931865
000060 eb b9 14 3e e9 25 7d 3d 55 65 ac bd d1 b4 a0 3e
       0.14524047 0.061803732 -0.08417765 0.31387952
000070 c1 71 08 3e 51 03 59 3b 27 02 fe bd 6a eb d4 3d
       0.13324644 0.003311355 -0.12402754 0.10396464
000080 67 fe a0 3e 83 64 97 3e 76 1f 78 bf f9 b3 20 bf
       0.31444094 0.29568872 -0.96923006 -0.62774616
000090 c0 95 0e 3a fe cc 01 3f 1b 05 4b 3d d7 96 73 bf
       0.00054391846 0.5070342 0.049565416 -0.9515204
0000a0 9f 82 02 3d 49 18 84 be c3 33 1d 3f 16 3d 06 3f
       0.03186285 -0.25799778 0.6140711 0.5243696
0000b0 2d b1 1b be 0b 52 9a 3e 67 25 db 3e 10 aa 93 3d
       -0.15204306 0.3014072 0.42801973 0.07210171
0000c0 61 a8 ea be 49 5d 2c bd 96 68 71 bd 1a 45 33 3d
       -0.45831588 -0.04208115 -0.05893763 0.043767072
0000d0 db ca 30 3f 48 93 9e bd b4 e8 35 3e 02 31 24 bf
       0.6905953 -0.077429354 0.1776455 -0.6413728
0000e0 c0 43 f4 3e ca f4 ec 3e 0f 73 cb 3e e4 17 5a 3e
       0.4770794 0.4628051 0.3973622 0.21298176
0000f0 8d 65 23 3e f4 55 9a be 3e 88 b6 3c 35 cc e1 bd
       0.15956707 -0.30143702 0.022281762 -0.110252775
000100 b2 b1 9f bd e0 ca 1e 3d 61 d0 86 3e b4 80 12 3e
       -0.077975646 0.038767695 0.26330855 0.14306909
000110 ae 83 0c be bb e4 5e be f5 03 b0 3e 13 c4 69 3e
       -0.13722107 -0.21766941 0.3437802 0.22828703
000120 bf 17 17 be b0 ab 11 3f 74 ce ef be 13 6e ab be
       -0.14755152 0.569026 -0.468372 -0.33482417
000130 eb 78 d8 3e 37 08 86 be d2 12 47 3e 25 c0 94 be
       0.42279753 -0.26178142 0.19440773 -0.29052845
000140 1c 87 8f 3d 13 a1 02 3e a6 05 05 bd 9a 24 3e 3e
       0.07008192 0.12756757 -0.03247609 0.1856865
000150 0f f5 06 bd fb f6 29 3e 82 7b 55 bf 10 df 04 3f
       -0.03294855 0.16598122 -0.8339158 0.51902866
000160 f5 33 27 3f ec e0 6f 3b e4 d5 2d bf fe c6 84 be
       0.65313655 0.003660257 -0.67904496 -0.2593307
000170 91 dd 0c be d5 2f 7e 3e 33 5d bf 3c 26 5c 98 bd
       -0.13756396 0.24822934 0.02335987 -0.07439451
000180 9c 60 3f bb 61 71 1b 3d a0 0d 00 3e ef b8 7e 3e
       -0.002920187 0.037949923 0.12505198 0.24875234
000190 fc 7c 02 bf 9b b2 fc 3d d1 61 b4 3e 9a 10 1c be
       -0.5097196 0.12338754 0.35230878 -0.15240708
0001a0 b3 1d b6 3e 2c bf 84 3c 7e 25 ab bd cc f8 5f ba
       0.35569534 0.01620444 -0.083567604 -0.00085438485
0001b0 68 f7 ec 3c f7 10 8b be e7 19 8f 3e 69 38 69 3d
       0.028926566 -0.2716138 0.2794945 0.056938563
0001c0 be 08 91 bc ea 97 f1 3d 6d 47 3e be b3 b8 e4 bc
       -0.017704364 0.117965534 -0.18581934 -0.027920103
0001d0 3a 69 06 bb 55 ca 43 3e 02 27 87 3e 27 f1 a5 bc
       -0.0020509497 0.19120152 0.26396948 -0.020256592
0001e0 cb 16 0e 3e cb 70 28 3e 30 d1 3c be 10 8b 7d be
       0.13875882 0.16449277 -0.18439174 -0.2476008
0001f0 ba 67 87 bd 1a fa 2f 3e 23 cf a7 3d a5 59 d7 3d
       -0.06611581 0.1718525 0.08193805 0.10515145
000200 b4 85 3d 3d e3 22 0e 3d 9d a4 3e be 9b a1 09 bf
       0.046270087 0.03470124 -0.18617482 -0.53762215
000210 91 e3 1e 3e 20 40 d2 3e 11 b2 82 be 47 7a 49 3b
       0.15516497 0.41064548 -0.2552648 0.003074305
000220 2c 04 24 3e b1 1c df be ab 0c ba 3e bf f8 80 3e
       0.16017216 -0.43576577 0.3633779 0.25189778
000230 24 10 ce be 4f b1 af bc c6 69 d8 3e 26 89 08 3e
       -0.4024669 -0.021446852 0.422682 0.13333568
000240 8b 30 7f bc 74 73 d1 bd 63 ad 7f be 73 33 96 bd
       -0.015575538 -0.10227099 -0.24968486 -0.07334032
000250 07 bd e6 bd 88 af 95 bd c1 ec 12 bd b4 df a7 3b
       -0.11266523 -0.073088706 -0.035870317 0.005123103
000260 9e d8 db ba f2 f1 60 be 71 af f8 3e 04 67 b0 3e
       -0.0016772931 -0.21967295 0.4857135 0.34453595
000270 92 9a 72 3e f6 71 19 3d 52 08 30 be 59 cf 8c 3e
       0.23691776 0.037462197 -0.17190674 0.27501944
000280 1c 40 d8 bd 50 bd 37 be ea f1 d3 3d 2c e0 8d be
       -0.10559103 -0.1794331 0.10348876 -0.27710092
000290 bb cb bc 3d ba db bb 3e 33 25 3e bd d2 6a 15 3d
       0.09218546 0.36691076 -0.046422195 0.036478825
0002a0 d1 84 6b 3e 87 9d 07 3e e5 f7 37 bc 62 d1 4a be
       0.22999884 0.13243686 -0.011228536 -0.19806436
0002b0 e8 9c 3d 3e 26 26 91 bc 0c 85 6b 3e ba d2 37 3e
       0.18516886 -0.017718386 0.22999972 0.1795148
0002c0 40 ca db bd 80 87 21 be 03 39 87 be 0c 8f 2e 3d
       -0.107319355 -0.15774345 -0.26410684 0.04261689
0002d0 b8 25 44 3e c2 d4 c0 3d 26 74 86 3e 1f ad 2c bc
       0.19155014 0.0941558 0.2626049 -0.010539322
0002e0 58 6b f3 be ea 9a 2f be d0 f0 4b bf ed 96 19 3f
       -0.47542834 -0.17148939 -0.79664326 0.5999592
0002f0 5f 80 9d 3e af 0f aa be 46 45 1c be 34 db a3 3e
       0.30762002 -0.3321509 -0.152608 0.32003176
000300 13 aa 90 3d c1 ad ec bd d9 a1 f5 3d 3b c5 05 bf
       0.07063689 -0.115565784 0.119937606 -0.52254075
000310 72 5a be 3d 92 7a 5d 3e 59 3e 26 bd 5a de b3 3d
       0.09294595 0.21628788 -0.040586803 0.087826446
000320 09 0d 73 3e 1d cd 43 3e 01 53 b8 3e 65 a5 44 3d
       0.23735441 0.19121213 0.36000827 0.048009295
000330 40 c8 4e bf 70 fb 16 be c1 63 42 be 14 87 8c 3d
       -0.8077431 -0.14744353 -0.18983366 0.068617016
000340 f7 fa e1 bd d8 b2 f9 3d a9 e6 88 be 58 88 5f bd
       -0.11034196 0.12192315 -0.2673848 -0.054573387
000350 f3 07 a7 3c 66 be bd 3c 09 28 e1 3d 37 d9 8b be
       0.020389533 0.023162078 0.10993964 -0.2731416
000360 84 a0 73 3e 58 af 11 3e af 0b 0f be 14 f0 28 b9
       0.237917 0.14227045 -0.139693 -0.00016111165
000370 a3 42 2e 3e d9 9e 2a be 07 f5 94 bd 63 9d 7b 3e
       0.17017607 -0.16662158 -0.07273298 0.24571757
000380 5d ac b5 bd b2 aa e8 3d 7d 79 5d 3e bc c7 f5 3d
       -0.08870766 0.113606825 0.21628375 0.12000987
000390 f9 ef e8 bd 19 b3 91 be ab b0 05 be a2 4d 16 bf
       -0.11373896 -0.28456953 -0.13055675 -0.5871221
0003a0 b8 4d 16 3e 42 4d 93 3e 83 0c 3c bf 37 30 5a 3c
       0.14678085 0.2876988 -0.7345659 0.013317159
0003b0 02 ae c1 3d 77 9d be 3e 1f 6c 89 be 25 dc 0a bf
       0.094570175 0.3722951 -0.26840302 -0.54242164
0003c0 3a e1 1e 3e bc 12 55 be 0a 95 db bd a8 8e 0d be
       0.15515605 -0.20807928 -0.10721786 -0.1382395
0003d0 c0 61 e4 3c 85 42 8d 3e 5c 14 7e 3e 0c 34 b7 3e
       0.027878642 0.27589813 0.24812454 0.35781896
0003e0 9f 3a 8d be 52 22 0e 3f 00 27 0d 3d 0a 14 9a be
       -0.27583787 0.5552112 0.03446102 -0.30093414
0003f0 f6 a6 1d bd 27 6d d2 3e 63 ee 76 3e 8f 49 08 3e
       -0.038489304 0.41098902 0.24114375 0.1330931
